metric/3_7_probe_cifar100_ft_2000_seed0.pth (torch, 539679 bytes, 12 tensors)

z_mu f4 [512]
0.00030416332 0.00032137043 -0.00010953789 8.612112e-05 -0.00041057152 0.0004526551 -0.0006467314 -0.00024627437
0.23321015 0.00012329088 1.4115664 -4.107763e-05 5.1279545e-05 -0.0009953154 0.0006467418 1.4064798
0.2329523 0.00044538509 0.47856465 -8.956832e-05 0.00010057293 0.22403893 -0.00044130225 0.7525091
-0.000194959 -0.00013496265 0.0043262593 0.00026807352 -0.00040145963 -0.0006191743 3.2631877e-05 -0.00018410383
0.00029164975 -0.00018086737 0.08030015 0.09087707 -0.0005540258 -0.00053905323 0.00043237605 -0.005417288
0.00012015102 0.00053603563 9.790274e-05 0.00023085951 -0.00037736684 -8.250176e-05 -0.00029856578 0.00021075661
0.14774553 0.19807075 6.252915e-05 4.380234e-05 0.002932204 0.00014147873 0.0003197168 -0.00012885492
0.00022508194 -0.00013602404 -0.0023570526 4.137902e-05 -1.4291892e-05 -0.00048353945 -1.0114499e-05 0.0030487438
2.8847324e-05 5.8420815e-06 0.026842037 0.00019759887 6.138719e-05 0.0004092856 1.2652267 -0.00018821833
0.00010227367 0.56456685 0.0012855072 0.00014175838 -0.00014786907 0.00015120082 0.00030705132 0.000103681465
1.2142546 -0.00020165993 -5.9052877e-07 0.00013069516 -0.00026585654 0.0007626113 0.12567228 -2.3375575e-05
-5.840626e-05 -0.00088966655 0.0025495314 0.07751069 0.0002475099 -0.0003914815 -0.0002981083 -8.694538e-05
0.0008740931 8.286311e-06 0.00021863694 0.00016034998 -0.00041253198 -0.0006237883 0.4590057 0.00022265613
-0.00062882365 0.00015987203 0.0001869471 0.00019868342 7.875492e-05 -0.00010044466 -0.00027778256 8.289732e-05
0.00087230344 4.2931006e-05 0.0014913062 -0.00018648477 0.00037695546 -0.00020320032 1.6527849e-05 9.690095e-05
0.43115565 -0.00045660048 -0.00024931272 0.00018445849 0.5070854 1.2910328e-05 -7.5221746e-05 0.0004232494
0.001088555 -0.0010760159 1.0086851 0.00010182126 0.0004816817 0.0004871138 -0.002715831 -0.00078912516
0.0007761532 -0.0011734114 -0.00026430606 0.00022470865 3.1666274e-05 0.53338754 0.0007884593 0.00032510055
-0.000287993 0.0002502928 0.00048824775 -0.0033292328 0.0010782802 -5.9789778e-05 0.0015172279 2.8049193e-05
-0.00020491432 -4.5404136e-05 0.00022582768 -5.1081868e-05 8.748668e-05 0.0003535799 -0.00026147618 0.0009893489
-4.3349857e-05 -0.0012760744 -0.00010559015 -0.00028761174 -0.0014001643 0.22801144 6.334793e-05 -0.00021564591
0.00019049359 0.0014397652 6.3489526e-05 0.0005100615 2.6814589e-05 -0.00025285687 0.0010445953 0.00030453148
0.00037173385 1.2671595e-05 -0.00011590771 -0.00030832487 0.0023326764 -0.00011211898 -0.000518639 0.68323845
-0.005772135 -3.2848227e-05 -8.913755e-05 -0.0007229371 0.00052643917 1.9439708 0.00018353332 -0.00076910644
7.586374e-05 0.00050320226 4.4169894e-05 -0.0003257946 -0.00025621935 -0.00022444018 0.0002335732 -3.282509e-05
0.00023800004 -3.8414757e-05 -8.219136e-05 0.0007127816 0.0004949878 -0.00013071722 -0.00016072766 0.00019841155
1.0922111 0.002172325 0.00023602588 -6.050358e-05 -0.0001322371 1.6548676e-05 -6.477389e-05 -0.00035934104
-1.46276725e-05 9.1865506e-05 0.02062375 0.00039934865 -0.00012406423 0.00038199095 -0.00011619976 9.067471e-05
0.00011595163 -0.00034210307 0.00059391774 -0.0007445146 0.00016759027 0.00039149285 0.08139246 7.190536e-05
-0.0006097675 0.0039619487 -0.00010602013 0.8908564 0.00013685744 -0.00033192363 9.344039e-05 0.00017084973
-9.242958e-05 0.0002636429 -0.00019733094 0.00070924015 0.0045726607 -7.320077e-05 0.00010935451 0.00020737767
-0.009532342 -0.0013406995 -0.00012351824 -0.00028342416 -0.0002114972 0.00020739672 -0.0016971828 -0.000105625026
00000000: 1c78 9f39 9c7d a839 b5b7 e5b8 ed9b b438
00000010: fa41 d7b9 5752 ed39 6989 29ba 631e 81b9
00000020: a4ce 6e3e a547 0139 35ae b43f c54a 2cb8
00000030: fe14 5738 3e75 82ba 1c8a 293a 8807 b43f
00000040: 0c8b 6e3e 9382 e939 6d06 f53e a0d6 bbb8
00000050: aeea d238 766a 653e 965e e7b9 70a4 403f
00000060: e86d 4cb9 c384 0db9 4bc3 8d3b 388c 8c39
00000070: 007b d2b9 1550 22ba 36de 0838 ff0b 41b9
00000080: 91e8 9839 37a7 3db9 6874 a43d c21d ba3d
00000090: 0b3c 11ba 404f 0dba 88b0 e239 8183 b1bb
000000a0: 96f9 fb38 be84 0c3a 2251 cd38 e112 7239
000000b0: 52d9 c5b9 cc04 adb8 d288 9cb9 8cfe 5c39
000000c0: 9b4a 173e 0fd3 4a3e 1522 8338 68b8 3738
000000d0: 382a 403b e859 1439 aa9f a739 3b1d 07b9
000000e0: f903 6c39 ada1 0eb9 c878 1abb 628e 2d38
000000f0: 35c7 6fb7 9183 fdb9 71b1 29b7 6fcd 473b
00000100: 28fd f137 1907 c436 d5e3 db3c 8b32 4f39
00000110: ffbc 8038 6295 d639 f3f2 a13f 795c 45b9
00000120: c27b d638 7487 103f 777e a83a faa4 1439
00000130: 4d0d 1bb9 a98b 1e39 bbfb a039 906f d938
00000140: b26c 9b3f ad74 53b9 d484 1eb5 370b 0939
00000150: a962 8bb9 fae9 473a 3cb0 003e aa16 c4b7
00000160: 3ff9 74b8 8338 69ba 0a16 273b edbd 9e3d
00000170: 37c4 8139 c23f cdb9 6b4b 9cb9 7256 b6b8
00000180: 6523 653a 6f05 0b37 e841 6539 9f23 2839
00000190: 1b49 d8b9 b985 23ba cc02 eb3e cd78 6939
000001a0: a4d7 24ba 52a3 2739 3b07 4439 ad55 5039
000001b0: 3a29 a538 d1a5 d2b8 58a3 91b9 29d9 ad38
000001c0: 4bab 643a d110 3438 ef77 c33a 208b 43b9
000001d0: 1ba2 c539 2c12 55b9 49a5 8a37 4d37 cb38
000001e0: 6fc0 dc3e e163 efb9 30b6 82b9 336b 4139
000001f0: 59d0 013f 7099 5837 5ec0 9db8 93e7 dd39
00000200: d8ad 8e3a 1a09 8dba 981c 813f df88 d538
00000210: 398a fc39 4f63 ff39 15fc 31bb 4bdd 4eba
00000220: c276 4b3a 27cd 99ba 8f92 8ab9 c59f 6b39
00000230: 67d1 0438 168c 083f 9cb0 4e3a 4272 aa39
00000240: c4fd 96b9 bb39 8339 81fb ff39 422f 5abb
00000250: 1455 8d3a c9c6 7ab8 b8dd c63a 2f4b eb37
00000260: 45de 56b9 5270 3eb8 28cc 6c39 bd40 56b8
00000270: 0e79 b738 b160 b939 bd16 89b9 0aad 813a
00000280: 8ed2 35b8 f441 a7ba 4870 ddb8 98ca 96b9
00000290: b885 b7ba d57b 693e a9d9 8438 021f 62b9
000002a0: 3cbf 4739 81b6 bc3a ae25 8538 a6b5 053a
000002b0: e4ef e037 e091 84b9 cdea 883a 86a9 9f39
000002c0: 46e5 c239 1698 5437 7a13 f3b8 aaa6 a1b9
000002d0: d1df 183b 6b21 ebb8 46f5 07ba b7e8 2e3f
000002e0: 2e24 bdbb 84c6 09b8 5cef bab8 7d83 3dba
000002f0: bc00 0a3a 09d4 f83f da72 4039 dc9d 49ba
00000300: 0919 9f38 55e9 033a 1043 3938 69cf aab9
00000310: 2e55 86b9 b457 6bb9 54eb 7439 acad 09b8
00000320: a68f 7939 881f 21b8 275e acb8 f7d9 3a3a
00000330: 12c2 013a 2311 09b9 0189 28b9 b20c 5039
00000340: 93cd 8b3f 915d 0e3b b77d 7739 39c5 7db8
00000350: 20a9 0ab9 03d2 8a37 38d7 87b8 f065 bcb9
00000360: 6069 75b7 eba7 c038 23f3 a83c ab5f d139
00000370: 3d17 02b9 f545 c839 45b0 f3b8 9d28 be38
00000380: 0f2b f338 4c5c b3b9 25b1 1b3a 872b 43ba
00000390: 2cbb 2f39 4841 cd39 17b1 a63d e5cb 9638
000003a0: ced8 1fba 3cd3 813b 2057 deb8 2a0f 643f
000003b0: 6481 0f39 0906 aeb9 6df5 c338 2026 3339
000003c0: c1d6 c1b8 8d39 8a39 9fea 4eb9 4dec 393a
000003d0: 42d6 953b 5d83 99b8 4155 e538 8573 5939
000003e0: 8a2d 1cbc 69ba afba ad84 01b9 8c98 94b9
000003f0: 59c5 5db9 a278 5939 0174 deba 0183 ddb8

z_logvar f4 [512]
-7.83211 -8.230909 -8.749188 -8.405111 -7.281038 -7.828929 -4.6264486 -7.6944275
-2.5015545 -7.9148803 -3.1509492 -7.9042244 -7.5759177 -7.5623755 -6.935334 -2.6745272
-2.5166495 -7.159449 -2.7664213 -7.240674 -8.577897 -3.6315818 -7.376277 -3.1455882
-7.9435806 -8.16416 -3.9745197 -7.268478 -7.078437 -7.271406 -8.171752 -7.7293434
-8.1959505 -8.257116 -3.280061 -3.7217495 -8.396542 -7.7062936 -8.464718 -4.656708
-6.9687243 -5.701123 -8.35727 -7.9535966 -5.129691 -7.1451073 -6.965779 -8.070119
-3.2446713 -2.6969583 -8.484354 -8.252699 -5.2722874 -7.9656773 -4.5419645 -8.015609
-6.4556456 -7.2432775 -4.297992 -8.123053 -7.2645226 -6.579249 -8.396287 -4.222351
-8.253687 -8.516733 -3.7842226 -8.482626 -8.005644 -7.542581 -2.7055624 -7.898778
-8.1136055 -4.3834085 -5.792376 -7.83047 -8.624628 -7.5276895 -8.234452 -6.262978
-3.0008864 -8.372359 -8.251033 -8.263725 -8.419793 -7.9152164 -3.332365 -8.225814
-8.308702 -4.7160883 -5.5237036 -3.116475 -7.7095814 -7.908122 -7.865389 -7.1377015
-6.6747136 -8.005506 -6.8314915 -5.6446915 -8.395827 -6.924553 -3.0103216 -6.6637993
-8.050916 -8.066367 -8.199574 -8.194897 -7.902254 -8.200362 -8.596509 -8.41969
-6.821288 -8.249809 -6.085079 -6.645258 -7.5713725 -8.243277 -7.855961 -7.544818
-3.5527706 -7.6530733 -8.247569 -8.37212 -3.9448152 -7.725186 -7.7540865 -6.443685
-5.2103887 -5.475043 -2.7054682 -8.291786 -8.114221 -8.015639 -4.8590546 -5.922175
-7.763596 -6.9217653 -8.255807 -6.743439 -7.0948377 -2.9420598 -5.7003064 -7.5814123
-7.407867 -8.237221 -7.165387 -5.144149 -7.4470086 -8.251704 -6.0158896 -7.10673
-5.3905177 -7.5408506 -8.375082 -6.7154965 -8.041983 -7.7600822 -7.943493 -5.19402
-8.510369 -6.238969 -8.504374 -7.8244348 -6.0356884 -3.4736602 -8.295198 -8.169175
-8.452356 -8.215744 -8.552814 -8.23837 -7.12826 -8.180917 -7.1919312 -8.206426
-8.276247 -8.395668 -7.014621 -8.302325 -5.5130663 -7.5231967 -7.560469 -3.32795
-3.9989245 -7.190465 -8.08237 -8.282902 -5.4703975 -2.9506135 -7.4370356 -8.055014
-7.6202335 -7.159752 -7.8828745 -7.5226035 -7.2808847 -7.7724586 -7.9323897 -7.4560103
-8.609484 -8.222294 -8.256057 -7.293272 -7.020533 -8.530205 -8.352135 -8.31105
-3.1452312 -6.3521414 -8.337195 -8.517651 -8.12421 -7.4007173 -8.524753 -7.2719173
-7.2604647 -8.708465 -4.1263146 -7.9386106 -7.6547184 -5.4654493 -8.076647 -7.6164503
-8.195405 -8.158087 -5.5853877 -7.8922615 -8.587202 -7.83995 -2.6731424 -8.686595
-7.3276377 -4.1272845 -6.949884 -2.9724631 -8.201238 -7.8187127 -8.148334 -6.9317126
-7.3090878 -6.5375624 -7.975604 -6.9580927 -4.724391 -7.726779 -8.775854 -8.455598
-4.5421677 -6.0209813 -7.4345207 -8.30743 -6.7261567 -8.609411 -5.7710342 -7.0501184
00000000: a5a0 fac0 ceb1 03c1 adfc 0bc1 567b 06c1
00000010: 43fe e8c0 9686 fac0 de0b 94c0 c038 f6c0
00000020: 7819 20c0 b346 fdc0 27a9 49c0 68ef fcc0
00000030: eb6d f2c0 fbfe f1c0 42ee ddc0 742b 2bc0
00000040: c910 21c0 351a e5c0 0c0d 31c0 9ab3 e7c0
00000050: 113f 09c1 d66b 68c0 760a ecc0 5151 49c0
00000060: d031 fec0 66a0 02c1 885e 7ec0 5f97 e8c0
00000070: 8e82 e2c0 5caf e8c0 7fbf 02c1 c856 f7c0
00000080: 9d22 03c1 261d 04c1 85ec 51c0 2531 6ec0
00000090: 3c58 06c1 f599 f6c0 7c6f 07c1 c003 95c0
000000a0: caff dec0 9a6f b6c0 61b7 05c1 dd83 fec0
000000b0: 6e26 a4c0 b8a4 e4c0 a9e7 dec0 351f 01c1
000000c0: b2a8 4fc0 f79a 2cc0 eabf 07c1 0e0b 04c1
000000d0: 94b6 a8c0 d4e6 fec0 c657 91c0 ef3f 00c1
000000e0: a694 cec0 eec8 e7c0 2789 89c0 06f8 01c1
000000f0: f876 e8c0 3589 d2c0 3157 06c1 801d 87c0
00000100: 1a0f 04c1 8a44 08c1 b430 72c0 d6b8 07c1
00000110: 1e17 00c1 d35c f1c0 ef27 2dc0 cac2 fcc0
00000120: 54d1 01c1 e244 8cc0 255b b9c0 3693 fac0
00000130: 7afe 09c1 d5e2 f0c0 51c0 03c1 516a c8c0
00000140: 860e 40c0 2ff5 05c1 3b04 04c1 3838 04c1
00000150: 79b7 06c1 7449 fdc0 7845 55c0 ef9c 03c1
00000160: 72f0 04c1 32ea 96c0 2ec2 b0c0 5474 47c0
00000170: e4b4 f6c0 560f fdc0 44b1 fbc0 0d68 e4c0
00000180: 4197 d5c0 8d16 00c1 949b dac0 50a1 b4c0
00000190: 4f55 06c1 f095 ddc0 1ca9 40c0 d83d d5c0
000001a0: 8dd0 00c1 d70f 01c1 7531 03c1 4c1e 03c1
000001b0: 44df fcc0 af34 03c1 4d8b 09c1 0db7 06c1
000001c0: fe47 dac0 38ff 03c1 f8b8 c2c0 f4a5 d4c0
000001d0: af48 f2c0 76e4 03c1 0864 fbc0 266f f1c0
000001e0: 9860 63c0 fae5 f4c0 0bf6 03c1 34f4 05c1
000001f0: da77 7cc0 b934 f7c0 7a21 f8c0 ab32 cec0
00000200: 81bb a6c0 8d33 afc0 6426 2dc0 28ab 04c1
00000210: d9d3 01c1 0f40 00c1 607d 9bc0 7582 bdc0
00000220: 616f f8c0 1a7f ddc0 c917 04c1 41ca d7c0
00000230: e908 e3c0 b54a 3cc0 e968 b6c0 ee9a f2c0
00000240: 3f0d edc0 a8cb 03c1 da4a e5c0 de9c a4c0
00000250: e54d eec0 fb06 04c1 2b82 c0c0 556a e3c0
00000260: 1f7f acc0 a64e f1c0 5600 06c1 59e5 d6c0
00000270: f6ab 00c1 9852 f8c0 1831 fec0 6935 a6c0
00000280: 792a 08c1 a2a5 c7c0 ea11 08c1 c561 fac0
00000290: 5c24 c1c0 7350 5ec0 22b9 04c1 f1b4 02c1
000002a0: da3c 07c1 b073 03c1 53d8 08c1 5dd0 03c1
000002b0: b51a e4c0 09e5 02c1 4d24 e6c0 854d 03c1
000002c0: 826b 04c1 a854 06c1 c677 e0c0 53d6 04c1
000002d0: 0a6b b0c0 07be f0c0 5def f1c0 22fd 54c0
000002e0: 61ee 7fc0 4a18 e6c0 6351 01c1 c486 04c1
000002f0: 7f0d afc0 dad6 3cc0 32fc edc0 56e1 00c1
00000300: f4d8 f3c0 b01c e5c0 8240 fcc0 2bb9 f0c0
00000310: 02fd e8c0 fbb7 f8c0 23d6 fdc0 a397 eec0
00000320: 72c0 09c1 848e 03c1 cf18 04c1 7c62 e9c0
00000330: 35a8 e0c0 b87b 08c1 58a2 05c1 10fa 04c1
00000340: 784b 49c0 be44 cbc0 2765 05c1 4c48 08c1
00000350: c4fc 01c1 add2 ecc0 6365 08c1 8cb3 e8c0
00000360: ba55 e8c0 df55 0bc1 c50a 84c0 1909 fec0
00000370: 74f3 f4c0 f6e4 aec0 f239 01c1 f6b9 f3c0
00000380: 6120 03c1 8687 02c1 7fbb b2c0 688d fcc0
00000390: 2e65 09c1 dfe0 fac0 c414 2bc0 4bfc 0ac1
000003a0: 027c eac0 b712 84c0 7365 dec0 d63c 3ec0
000003b0: 4538 03c1 e532 fac0 935f 02c1 97d0 ddc0
000003c0: 0ce4 e9c0 b633 d1c0 2638 ffc0 b2a8 dec0
000003d0: 362e 97c0 c641 f7c0 e669 0cc1 214a 07c1
000003e0: 7059 91c0 e1ab c0c0 98e7 edc0 3ceb 04c1
000003f0: ad3c d7c0 26c0 09c1 50ac b8c0 929a e1c0

weight_mu f4 [128, 512]
0.00032077447 0.00019207803 -0.00039068356 -0.0002426815 -0.0023359836 0.0009043404 -0.00073940854 0.00036214254
-0.0021827773 0.0008661693 -0.0036559768 0.0002331731 0.00066352775 0.0006247123 5.4401506e-05 -0.0019271657
0.0022707568 -0.0003330959 0.001988442 0.00015154056 -0.000701306 -0.0023122048 -0.00081655226 -0.002194398
0.00057402917 0.00029740075 0.0023218468 0.00036457952 -0.00010928573 -0.00016144359 -0.0006164846 -0.00058159215
7.66621e-05 -6.040653e-05 0.0008022561 -0.0004173599 -0.0004899156 -0.0013186351 0.00037737482 -0.001227806
0.00035369373 -0.0002798888 -0.0002185793 2.7887234e-05 -0.001253544 -0.00025523725 5.2478998e-05 -0.00018254026
-0.0010019237 0.0010699073 -0.0010156322 -0.00010985474 0.00023907979 0.0009037949 -0.0015376526 -0.00020305863
-0.00015786772 0.00029153025 0.0010936201 -6.692447e-06 6.835257e-05 0.00083177123 0.00028262148 -0.00046033922
0.0004216899 -6.532272e-05 -0.00072148116 0.0013113781 -0.00016682122 -0.00023561195 0.00057028176 2.684955e-05
0.00019974324 -0.0060090506 -0.0004966169 -0.00076132244 0.00042194477 -0.00016883848 0.00068257464 -0.0021993697
-9.473824e-05 -2.2902665e-05 0.00028868625 -0.00023952183 -0.00019708245 0.0001232095 -0.001027246 6.0440045e-05
-1.4311564e-05 0.00020838145 0.0022872465 0.0008946442 -0.00027519584 7.132579e-06 0.0006928027 9.574616e-05
1.5396496e-05 -0.00039436293 0.00054308656 -0.00032140812 -0.0001617962 -0.00057138805 -0.001469052 -0.00015436346
0.000108912696 0.00055078295 0.00013790414 -0.0015794466 0.0010142477 -5.425329e-05 -0.00027396355 -0.0007434001
0.00043299136 0.0005016035 0.0016718523 0.0027216533 -6.680496e-05 -0.00018518396 -0.00018309499 0.0004921208
-0.0056795194 -0.00028579304 0.000266305 -0.00019485399 -0.00046045805 0.000113040485 -0.00035686395 -5.6315504e-05
0.002123715 -0.0002716575 -0.00061759027 0.00012379556 0.00071587146 0.00030941973 -0.001218311 0.0012488419
-0.00017128684 0.00030964776 0.00019854045 -0.00030772563 -0.0008334403 -0.0010650373 -0.000955546 -0.00046496117
0.00022679185 0.00037803547 -0.00024456688 -0.0018161148 0.00081462756 0.0006593551 -0.0013278251 9.531903e-05
-0.0004934753 -0.0005025664 8.678227e-05 0.00042896168 0.00029072398 -5.4374435e-05 0.00043927834 -0.0003294253
0.000423795 0.0015178971 0.0009140406 0.00017541235 0.00010690371 -0.0013049002 -0.00033882505 -0.00036166524
0.00017361534 -0.00010942845 2.40868e-05 0.00019603375 -4.880425e-05 -0.00047691722 0.00026652875 -0.00012125521
-6.598805e-05 0.00020895817 -8.8454966e-05 -0.0005974988 -0.0013413222 -0.0006515493 0.00049807853 -0.001565113
-0.00089354673 -0.00030295044 0.00038331086 -0.00025573903 0.0020295645 0.00036569274 0.00024927114 0.000539762
0.000110519875 0.00023748328 0.00068127434 -0.00018631564 -0.0016736869 -0.0004191943 -0.0005390038 0.00043068657
-0.00023991133 -0.00061013445 -0.00017871142 0.00016183815 -0.0001347779 0.00023930726 0.0006747893 1.9830088e-05
-0.000960674 0.0012467564 0.00020389925 0.00028005597 -0.00042709816 0.00022148743 -0.00023801047 0.0011214588
0.0009317429 -0.00018354222 -0.0010957432 0.0007995177 -9.539979e-05 0.0015067231 -0.0008397249 0.0015404846
0.00048872904 0.00023231756 0.0011789344 0.00015524251 -0.00019205426 9.137342e-05 -0.00070259586 -0.0013109734
-0.0007334534 -0.003919542 0.0012757832 -0.0027852731 -0.0021853934 0.00022100004 -0.0008691181 0.0001146072
5.4475586e-05 -0.0010725542 3.2002255e-05 -0.003149583 0.0024248038 -0.0011124517 0.00037572818 0.00015918873
0.0014952832 0.0010720782 -0.0005222062 -0.00010351863 0.00037779225 0.0010083694 -0.00059698103 0.00027009257
00000000: 9f2d a839 8e68 4939 a9d4 ccb9 5278 7eb9
00000010: 4d17 19bb 4211 6d3a ded4 41ba f3dd bd39
00000020: ed0c 0fbb a30f 633a 1d99 6fbb ed7f 7439
00000030: 98f0 2d3a bcc3 233a 2c2d 6438 f398 fcba
00000040: fad0 143b 60a3 aeb9 8550 023b dce6 1e39
00000050: d9d7 37ba 5c88 17bb e50d 56ba e4cf 0fbb
00000060: 727a 163a 74ec 9b39 202a 183b 0925 bf39
00000070: 5430 e5b8 2f49 29b9 959b 21ba fd75 18ba
00000080: a7c5 a038 055d 7db8 7f4e 523a 19d1 dab9
00000090: ae6d 00ba 0dd6 acba 64da c539 55ee a0ba
000000a0: f86f b939 0abe 92b9 6f32 65b9 61ef e937
000000b0: f54d a4ba 5dd1 85b9 e51c 5c38 4768 3fb9
000000c0: fb52 83ba 223c 8c3a f61e 85ba d061 e6b8
000000d0: 7eb1 7a39 a6ec 6c3a 0f8b c9ba 23ec 54b9
000000e0: 4b89 25b9 87d8 9839 cd57 8f3a af8f e0b6
000000f0: 8258 8f38 390b 5a3a d02c 9439 af59 f1b9
00000100: 4316 dd39 defd 88b8 c821 3dba 8ce2 ab3a
00000110: bbec 2eb9 9a0e 77b9 f67e 153a f83a e137
00000120: 2b72 5139 92e7 c4bb 652f 02ba 7c93 47ba
00000130: 7838 dd39 3c0a 31b9 cfee 323a 4d23 10bb
00000140: 35ae c6b8 191f c0b7 d05a 9739 2728 7bb9
00000150: eba7 4eb9 cc31 0139 a8a4 86ba 0181 7d38
00000160: b31b 70b7 f880 5a39 a1e5 153b 8e86 6a3a
00000170: 2948 90b9 6354 ef36 349d 353a 54cb c838
00000180: b927 8137 7fc2 ceb9 ec5d 0e3a ab82 a8b9
00000190: d6a7 29b9 34c9 15ba 358d c0ba a0dc 21b9
000001a0: 0f68 e438 6b62 103a 5c9a 1039 6f05 cfba
000001b0: 81f0 843a 078e 63b8 c4a2 8fb9 bce0 42ba
000001c0: 1e03 e339 0b7e 033a 0e22 db3a c45d 323b
000001d0: a419 8cb8 f12d 42b9 30fd 3fb9 ab01 013a
000001e0: 431b babb 7ed6 95b9 da9e 8b39 b851 4cb9
000001f0: a269 f1b9 2610 ed38 7819 bbb9 5034 6cb8
00000200: 062e 0b3b 416d 8eb9 c8e5 21ba 1ecf 0139
00000210: 52a9 3b3a 9d39 a239 bcaf 9fba 2eb0 a33a
00000220: 769b 33b9 3858 a239 4c2f 5039 3c56 a1b9
00000230: 3b7b 5aba b998 8bba 9b7d 7aba 08c6 f3b9
00000240: f9ce 6d39 1033 c639 3639 80b9 b30a eeba
00000250: bb8c 553a 92d8 2c3a 6b0a aeba 04e6 c738
00000260: 915c 01ba a9be 03ba e0fe b538 43e6 e039
00000270: 506c 9839 1b10 64b8 f14e e639 b7b6 acb9
00000280: cd30 de39 2df4 c63a 3a9c 6f3a e5ee 3739
00000290: 7e31 e038 2f09 abba 54a4 b1b9 e39d bdb9
000002a0: 830c 3639 f47c e5b8 020e ca37 698e 4d39
000002b0: 2ab3 4cb8 bf0a fab9 e2bc 8b39 654a feb8
000002c0: 1163 8ab8 c81b 5b39 e680 b9b8 77a1 1cba
000002d0: 4ecf afba bccc 2aba 7c91 023a 7a24 cdba
000002e0: e83c 6aba 52d5 9eb9 1df7 c839 b614 86b9
000002f0: 7102 053b 73ba bf39 9bb0 8239 d17e 0d3a
00000300: e8c6 e738 ef04 7939 8c97 323a b95d 43b9
00000310: 9d5f dbba 4ec7 dbb9 ef4b 0dba c6cd e139
00000320: b590 7bb9 6ef1 1fba 7b64 3bb9 19b3 2939
00000330: 2b53 0db9 8eee 7a39 58e4 303a ca58 a637
00000340: bed5 7bba 346a a33a cacd 5539 7ad4 9239
00000350: 25ec dfb9 143f 6839 7392 79b9 eafd 923a
00000360: 3540 743a 3d75 40b9 0a9f 8fba b996 513a
00000370: 5f11 c8b8 3d7d c53a fc20 5cba 16ea c93a
00000380: 0d1e 003a 459a 7339 7986 9a3a 98c8 2239
00000390: 2c62 49b9 bb9f bf38 692e 38ba f8d4 abba
000003a0: 3945 40ba 806f 80bb 2e38 a73a 2189 36bb
000003b0: d138 0fbb 3fbc 6739 87d5 63ba 4659 f038
000003c0: b77c 6438 f294 8cba 293a 0638 3c69 4ebb
000003d0: 75e9 1e3b afcf 91ba 62fd c439 e6eb 2639
000003e0: 61fd c33a fa84 8c3a aae4 08ba 2418 d9b8
000003f0: 6b12 c639 432b 843a b87e 1cba 369b 8d39

weight_logvar f4 [128, 512]
-3.218876 -3.218876 -3.218876 -3.218876 -3.218876 -3.218876 -3.218876 -3.218876
-3.218876 -3.218876 -3.218876 -3.218876 -3.218876 -3.218876 -3.218876 -3.218876
-3.218876 -3.218876 -3.218876 -3.218876 -3.218876 -3.218876 -3.218876 -3.218876
-3.218876 -3.218876 -3.218876 -3.218876 -3.218876 -3.218876 -3.218876 -3.218876
-3.218876 -3.218876 -3.218876 -3.218876 -3.218876 -3.218876 -3.218876 -3.218876
-3.218876 -3.218876 -3.218876 -3.218876 -3.218876 -3.218876 -3.218876 -3.218876
-3.218876 -3.218876 -3.218876 -3.218876 -3.218876 -3.218876 -3.218876 -3.218876
-3.218876 -3.218876 -3.218876 -3.218876 -3.218876 -3.218876 -3.218876 -3.218876
-3.218876 -3.218876 -3.218876 -3.218876 -3.218876 -3.218876 -3.218876 -3.218876
-3.218876 -3.218876 -3.218876 -3.218876 -3.218876 -3.218876 -3.218876 -3.218876
-3.218876 -3.218876 -3.218876 -3.218876 -3.218876 -3.218876 -3.218876 -3.218876
-3.218876 -3.218876 -3.218876 -3.218876 -3.218876 -3.218876 -3.218876 -3.218876
-3.218876 -3.218876 -3.218876 -3.218876 -3.218876 -3.218876 -3.218876 -3.218876
-3.218876 -3.218876 -3.218876 -3.218876 -3.218876 -3.218876 -3.218876 -3.218876
-3.218876 -3.218876 -3.218876 -3.218876 -3.218876 -3.218876 -3.218876 -3.218876
-3.218876 -3.218876 -3.218876 -3.218876 -3.218876 -3.218876 -3.218876 -3.218876
-3.218876 -3.218876 -3.218876 -3.218876 -3.218876 -3.218876 -3.218876 -3.218876
-3.218876 -3.218876 -3.218876 -3.218876 -3.218876 -3.218876 -3.218876 -3.218876
-3.218876 -3.218876 -3.218876 -3.218876 -3.218876 -3.218876 -3.218876 -3.218876
-3.218876 -3.218876 -3.218876 -3.218876 -3.218876 -3.218876 -3.218876 -3.218876
-3.218876 -3.218876 -3.218876 -3.218876 -3.218876 -3.218876 -3.218876 -3.218876
-3.218876 -3.218876 -3.218876 -3.218876 -3.218876 -3.218876 -3.218876 -3.218876
-3.218876 -3.218876 -3.218876 -3.218876 -3.218876 -3.218876 -3.218876 -3.218876
-3.218876 -3.218876 -3.218876 -3.218876 -3.218876 -3.218876 -3.218876 -3.218876
-3.218876 -3.218876 -3.218876 -3.218876 -3.218876 -3.218876 -3.218876 -3.218876
-3.218876 -3.218876 -3.218876 -3.218876 -3.218876 -3.218876 -3.218876 -3.218876
-3.218876 -3.218876 -3.218876 -3.218876 -3.218876 -3.218876 -3.218876 -3.218876
-3.218876 -3.218876 -3.218876 -3.218876 -3.218876 -3.218876 -3.218876 -3.218876
-3.218876 -3.218876 -3.218876 -3.218876 -3.218876 -3.218876 -3.218876 -3.218876
-3.218876 -3.218876 -3.218876 -3.218876 -3.218876 -3.218876 -3.218876 -3.218876
-3.218876 -3.218876 -3.218876 -3.218876 -3.218876 -3.218876 -3.218876 -3.218876
-3.218876 -3.218876 -3.218876 -3.218876 -3.218876 -3.218876 -3.218876 -3.218876
00000000: 1002 4ec0 1002 4ec0 1002 4ec0 1002 4ec0
00000010: 1002 4ec0 1002 4ec0 1002 4ec0 1002 4ec0
00000020: 1002 4ec0 1002 4ec0 1002 4ec0 1002 4ec0
00000030: 1002 4ec0 1002 4ec0 1002 4ec0 1002 4ec0
00000040: 1002 4ec0 1002 4ec0 1002 4ec0 1002 4ec0
00000050: 1002 4ec0 1002 4ec0 1002 4ec0 1002 4ec0
00000060: 1002 4ec0 1002 4ec0 1002 4ec0 1002 4ec0
00000070: 1002 4ec0 1002 4ec0 1002 4ec0 1002 4ec0
00000080: 1002 4ec0 1002 4ec0 1002 4ec0 1002 4ec0
00000090: 1002 4ec0 1002 4ec0 1002 4ec0 1002 4ec0
000000a0: 1002 4ec0 1002 4ec0 1002 4ec0 1002 4ec0
000000b0: 1002 4ec0 1002 4ec0 1002 4ec0 1002 4ec0
000000c0: 1002 4ec0 1002 4ec0 1002 4ec0 1002 4ec0
000000d0: 1002 4ec0 1002 4ec0 1002 4ec0 1002 4ec0
000000e0: 1002 4ec0 1002 4ec0 1002 4ec0 1002 4ec0
000000f0: 1002 4ec0 1002 4ec0 1002 4ec0 1002 4ec0
00000100: 1002 4ec0 1002 4ec0 1002 4ec0 1002 4ec0
00000110: 1002 4ec0 1002 4ec0 1002 4ec0 1002 4ec0
00000120: 1002 4ec0 1002 4ec0 1002 4ec0 1002 4ec0
00000130: 1002 4ec0 1002 4ec0 1002 4ec0 1002 4ec0
00000140: 1002 4ec0 1002 4ec0 1002 4ec0 1002 4ec0
00000150: 1002 4ec0 1002 4ec0 1002 4ec0 1002 4ec0
00000160: 1002 4ec0 1002 4ec0 1002 4ec0 1002 4ec0
00000170: 1002 4ec0 1002 4ec0 1002 4ec0 1002 4ec0
00000180: 1002 4ec0 1002 4ec0 1002 4ec0 1002 4ec0
00000190: 1002 4ec0 1002 4ec0 1002 4ec0 1002 4ec0
000001a0: 1002 4ec0 1002 4ec0 1002 4ec0 1002 4ec0
000001b0: 1002 4ec0 1002 4ec0 1002 4ec0 1002 4ec0
000001c0: 1002 4ec0 1002 4ec0 1002 4ec0 1002 4ec0
000001d0: 1002 4ec0 1002 4ec0 1002 4ec0 1002 4ec0
000001e0: 1002 4ec0 1002 4ec0 1002 4ec0 1002 4ec0
000001f0: 1002 4ec0 1002 4ec0 1002 4ec0 1002 4ec0
00000200: 1002 4ec0 1002 4ec0 1002 4ec0 1002 4ec0
00000210: 1002 4ec0 1002 4ec0 1002 4ec0 1002 4ec0
00000220: 1002 4ec0 1002 4ec0 1002 4ec0 1002 4ec0
00000230: 1002 4ec0 1002 4ec0 1002 4ec0 1002 4ec0
00000240: 1002 4ec0 1002 4ec0 1002 4ec0 1002 4ec0
00000250: 1002 4ec0 1002 4ec0 1002 4ec0 1002 4ec0
00000260: 1002 4ec0 1002 4ec0 1002 4ec0 1002 4ec0
00000270: 1002 4ec0 1002 4ec0 1002 4ec0 1002 4ec0
00000280: 1002 4ec0 1002 4ec0 1002 4ec0 1002 4ec0
00000290: 1002 4ec0 1002 4ec0 1002 4ec0 1002 4ec0
000002a0: 1002 4ec0 1002 4ec0 1002 4ec0 1002 4ec0
000002b0: 1002 4ec0 1002 4ec0 1002 4ec0 1002 4ec0
000002c0: 1002 4ec0 1002 4ec0 1002 4ec0 1002 4ec0
000002d0: 1002 4ec0 1002 4ec0 1002 4ec0 1002 4ec0
000002e0: 1002 4ec0 1002 4ec0 1002 4ec0 1002 4ec0
000002f0: 1002 4ec0 1002 4ec0 1002 4ec0 1002 4ec0
00000300: 1002 4ec0 1002 4ec0 1002 4ec0 1002 4ec0
00000310: 1002 4ec0 1002 4ec0 1002 4ec0 1002 4ec0
00000320: 1002 4ec0 1002 4ec0 1002 4ec0 1002 4ec0
00000330: 1002 4ec0 1002 4ec0 1002 4ec0 1002 4ec0
00000340: 1002 4ec0 1002 4ec0 1002 4ec0 1002 4ec0
00000350: 1002 4ec0 1002 4ec0 1002 4ec0 1002 4ec0
00000360: 1002 4ec0 1002 4ec0 1002 4ec0 1002 4ec0
00000370: 1002 4ec0 1002 4ec0 1002 4ec0 1002 4ec0
00000380: 1002 4ec0 1002 4ec0 1002 4ec0 1002 4ec0
00000390: 1002 4ec0 1002 4ec0 1002 4ec0 1002 4ec0
000003a0: 1002 4ec0 1002 4ec0 1002 4ec0 1002 4ec0
000003b0: 1002 4ec0 1002 4ec0 1002 4ec0 1002 4ec0
000003c0: 1002 4ec0 1002 4ec0 1002 4ec0 1002 4ec0
000003d0: 1002 4ec0 1002 4ec0 1002 4ec0 1002 4ec0
000003e0: 1002 4ec0 1002 4ec0 1002 4ec0 1002 4ec0
000003f0: 1002 4ec0 1002 4ec0 1002 4ec0 1002 4ec0

bias_mu f4 [128]
-0.022085363 -0.0038492947 -0.023735682 -0.03174008 -0.05772778 -0.0050648362 -0.0031508422 -0.23402506
-0.00795436 0.20833541 -0.18172133 -0.0083057955 0.02289573 -0.21421239 -0.24949108 -0.0017096003
-0.020186584 -0.01866421 -0.10351765 -0.0032661327 -0.0037539299 0.3096547 -0.003643798 -0.04184426
-0.030153392 -0.0060337 -0.0020411222 0.19206727 -0.00025584685 -0.15695077 -0.0021887654 -0.014555895
-0.0014315862 -0.012055505 -0.24523951 -0.0013304636 -0.20196533 -0.009248937 0.2946675 0.4712684
-0.002641801 -0.009134503 -0.23612341 -0.42524025 -0.049019597 -0.009901949 -0.0040115486 -0.006806101
-0.22949195 -0.14302497 -0.05220014 -0.004648946 -0.0027275253 -0.0007904628 -0.01624464 -0.18067245
0.08278002 -0.033578068 -0.06525989 -0.22033015 0.00090376916 -0.0015154502 -0.0017956693 0.5393365
-0.001735193 -0.12183346 -0.011108192 -0.18470205 -0.008104335 -0.0016914875 -0.003180637 -0.0035843407
-0.09820491 -0.0023433995 -0.43484712 -0.22070955 -0.013076381 -0.0013817408 -0.0038753639 9.129275e-06
-7.446587e-05 0.24819984 -0.0015213056 -0.002908024 -0.014189039 -0.00030022286 -0.01485936 -0.00030920995
-0.109261736 -0.067196414 -0.0020672493 -0.0016126294 -0.003519152 -0.2332994 -0.8624507 -0.003429098
-0.17810175 -0.15883183 -0.0062023546 -0.03170666 -0.00040982134 -0.25943977 -0.0024052148 0.031881712
-0.0019088964 -0.15313599 -0.0026201284 -0.013203043 -0.23834085 -0.027394766 0.2110003 -0.0015542085
-0.12921289 -0.115776315 -0.04714204 -0.0014147518 -0.001656275 -0.04787215 0.00022857448 -0.0044602863
-0.005798845 -0.0030034431 -0.008086681 -0.0018386104 -0.005923999 0.089536026 -0.006230885 0.00038366113
00000000: 5dec b4bc 7344 7cbb 5571 c2bc e301 02bd
00000010: f773 6cbd edf6 a5bb 5c7e 4ebb 44a4 6fbe
00000020: 0153 02bc e155 553e 2815 3abe 0815 08bc
00000030: d38f bb3c 7e5a 5bbe 977a 7fbe ab14 e0ba
00000040: 565e a5bc afe5 98bc 1001 d4bd 9d0c 56bb
00000050: 7e04 76bb 108b 9e3e c9cc 6ebb e364 2bbd
00000060: 3f04 f7bc 58b6 c5bb 59c4 05bb 48ad 443e
00000070: 2f23 86b9 b4b7 20be 6471 0fbb d97b 6ebc
00000080: 10a4 bbba 7484 45bc 1120 7bbe f362 aeba
00000090: 00d0 4ebe da88 17bc a9de 963e 174a f13e
000000a0: 1122 2dbb e2a8 15bc 56ca 71be 17b9 d9be
000000b0: c6c8 48bd c93b 22bc 4f73 83bb b705 dfbb
000000c0: f0ff 6abe 2375 12be d0cf 55bd 3056 98bb
000000d0: 48c0 32bb 0f37 4fba 7b13 85bc 3302 39be
000000e0: 9288 a93d 2889 09bd faa6 85bd 3a9e 61be
000000f0: ecea 6c3a 12a2 c6ba aa5c ebba f511 0a3f
00000100: 6a6f e3ba d283 f9bd 22ff 35bc 8922 3dbe
00000110: 0bc8 04bc e7b4 ddba 3c72 50bb 42e7 6abb
00000120: a81f c9bd b893 19bb 48a4 debe af01 62be
00000130: 513e 56bc 871b b5ba d1f9 7dbb f029 1937
00000140: 8f2a 9cb8 1928 7e3e 8c66 c7ba 8c94 3ebb
00000150: 2579 68bc 3b67 9db9 ac74 73bc 751d a2b9
00000160: 9ec4 dfbd 469e 89bd b07a 07bb dd5e d3ba
00000170: 93a1 66bb 0ae6 6ebe 92c9 5cbf b8ba 60bb
00000180: 4e60 36be d0a4 22be 1f3d cbbb d8de 01bd
00000190: 4add d6b9 4ad5 84be cfa0 1dbb 6696 023d
000001a0: ef33 faba aecf 1cbe 76b6 2bbb 9351 58bc
000001b0: a00f 74be fd6a e0bc 7610 583e 95b6 cbba
000001c0: 6250 04be 221c edbd 0318 41bd 316f b9ba
000001d0: 5e17 d9ba 9615 44bd 7fad 6f39 9827 92bb
000001e0: 3d04 bebb 6ad5 44bb 007e 04bc 87fd f0ba
000001f0: 1b1e c2bb aa5e b73d 742c ccbb 2026 c939

bias_logvar f4 [128]
-3.218876 -3.218876 -3.218876 -3.218876 -3.218876 -3.218876 -3.218876 -3.218876
-3.218876 -3.3067565 -3.218876 -3.218876 -3.218876 -3.218876 -3.218876 -3.218876
-3.218876 -3.218876 -3.218876 -3.218876 -3.218876 -3.6383607 -3.218876 -3.218876
-3.218876 -3.218876 -3.218876 -3.218876 -3.218876 -3.218876 -3.218876 -3.218876
-3.218876 -3.218876 -3.2194629 -3.218876 -3.218876 -3.218876 -4.061577 -4.0722957
-3.218876 -3.218876 -3.218876 -3.218876 -3.218876 -3.218876 -3.218876 -3.218876
-3.218876 -3.218876 -3.218876 -3.218876 -3.218876 -3.218876 -3.218876 -3.218876
-3.4261544 -3.218876 -3.218876 -3.218876 -3.218876 -3.218876 -3.218876 -4.0320516
-3.218876 -3.218876 -3.218876 -3.218876 -3.218876 -3.218876 -3.218876 -3.218876
-3.218876 -3.218876 -4.293162 -3.218876 -3.218876 -3.218876 -3.218876 -3.218876
-3.218876 -3.2275198 -3.218876 -3.218876 -3.218876 -3.218876 -3.218876 -3.218876
-3.218876 -3.218876 -3.218876 -3.218876 -3.218876 -3.218876 -3.6117651 -3.218876
-3.218876 -3.218876 -3.218876 -3.218876 -3.218876 -3.218876 -3.218876 -3.218876
-3.218876 -3.218876 -3.218876 -3.218876 -3.218876 -3.218876 -3.226896 -3.218876
-3.218876 -3.218876 -3.218876 -3.218876 -3.218876 -3.218876 -3.218876 -3.218876
-3.218876 -3.218876 -3.218876 -3.218876 -3.218876 -3.2266335 -3.218876 -3.218876
00000000: 1002 4ec0 1002 4ec0 1002 4ec0 1002 4ec0
00000010: 1002 4ec0 1002 4ec0 1002 4ec0 1002 4ec0
00000020: 1002 4ec0 e6a1 53c0 1002 4ec0 1002 4ec0
00000030: 1002 4ec0 1002 4ec0 1002 4ec0 1002 4ec0
00000040: 1002 4ec0 1002 4ec0 1002 4ec0 1002 4ec0
00000050: 1002 4ec0 e7da 68c0 1002 4ec0 1002 4ec0
00000060: 1002 4ec0 1002 4ec0 1002 4ec0 1002 4ec0
00000070: 1002 4ec0 1002 4ec0 1002 4ec0 1002 4ec0
00000080: 1002 4ec0 1002 4ec0 ae0b 4ec0 1002 4ec0
00000090: 1002 4ec0 1002 4ec0 70f8 81c0 3f50 82c0
000000a0: 1002 4ec0 1002 4ec0 1002 4ec0 1002 4ec0
000000b0: 1002 4ec0 1002 4ec0 1002 4ec0 1002 4ec0
000000c0: 1002 4ec0 1002 4ec0 1002 4ec0 1002 4ec0
000000d0: 1002 4ec0 1002 4ec0 1002 4ec0 1002 4ec0
000000e0: 1d46 5bc0 1002 4ec0 1002 4ec0 1002 4ec0
000000f0: 1002 4ec0 1002 4ec0 1002 4ec0 9106 81c0
00000100: 1002 4ec0 1002 4ec0 1002 4ec0 1002 4ec0
00000110: 1002 4ec0 1002 4ec0 1002 4ec0 1002 4ec0
00000120: 1002 4ec0 1002 4ec0 9561 89c0 1002 4ec0
00000130: 1002 4ec0 1002 4ec0 1002 4ec0 1002 4ec0
00000140: 1002 4ec0 af8f 4ec0 1002 4ec0 1002 4ec0
00000150: 1002 4ec0 1002 4ec0 1002 4ec0 1002 4ec0
00000160: 1002 4ec0 1002 4ec0 1002 4ec0 1002 4ec0
00000170: 1002 4ec0 1002 4ec0 2927 67c0 1002 4ec0
00000180: 1002 4ec0 1002 4ec0 1002 4ec0 1002 4ec0
00000190: 1002 4ec0 1002 4ec0 1002 4ec0 1002 4ec0
000001a0: 1002 4ec0 1002 4ec0 1002 4ec0 1002 4ec0
000001b0: 1002 4ec0 1002 4ec0 7785 4ec0 1002 4ec0
000001c0: 1002 4ec0 1002 4ec0 1002 4ec0 1002 4ec0
000001d0: 1002 4ec0 1002 4ec0 1002 4ec0 1002 4ec0
000001e0: 1002 4ec0 1002 4ec0 1002 4ec0 1002 4ec0
000001f0: 1002 4ec0 2a81 4ec0 1002 4ec0 1002 4ec0

z_mu f4 [128]
0.00027022773 2.6446733e-05 0.00072994316 0.00062858337 -0.00041293644 0.0001445364 -8.658207e-05 0.00048656017
-3.770522e-05 0.8825058 0.0034386714 -0.00030265143 0.14051105 0.00954272 -3.399939e-05 -6.195685e-05
0.000125155 0.00027650374 -0.003989576 -0.0001539224 0.00014758242 1.1811194 -4.4892768e-05 -0.0015369954
0.0009900708 -0.00025159345 7.6249885e-06 0.8877893 3.2865007e-06 0.003266318 -1.6733622e-05 -0.0006830048
-7.026227e-06 -2.8067348e-06 0.0059385966 6.626209e-05 0.00030217814 -0.00037058746 1.3666755 1.1005988
-6.745183e-05 -4.9496375e-05 0.0006422057 0.0066695553 0.0016297515 -7.506452e-05 0.00011954807 -0.00017469529
0.005872134 0.0011815282 0.00083077914 -0.000104036466 -6.0505667e-05 -0.0002271158 0.00022956353 0.00474519
1.027934 0.0022944293 0.018927135 0.0017758496 7.593694e-05 -3.4391226e-06 5.5205892e-05 1.2079616
0.00031331123 0.00030833716 7.548066e-05 0.0036169782 0.00036832294 -5.443796e-05 0.00012697798 7.541871e-05
-0.00217522 -3.0929215e-05 0.93125266 0.00033775004 0.0003580857 -0.00012547025 -0.0001333004 -5.0397575e-05
4.1868447e-05 0.9206089 -0.00011545409 3.218233e-05 0.00016284021 0.00010827581 0.00034951078 -5.744422e-06
0.0025711022 -0.0038924157 -5.7151756e-05 0.00028404137 -0.00025117668 0.00014227079 1.5029355 0.00011609861
0.0077960514 0.0011923368 0.0003639406 -3.1545787e-06 0.00016476601 -0.003653587 -9.0037225e-05 0.35386747
-0.00013319387 0.000701455 -6.412437e-06 0.00045210143 -0.009772042 0.2426403 0.71854204 0.00010530115
-0.003911702 -9.299506e-05 -0.00010272325 -6.9652133e-06 1.5520238e-05 -0.0007905774 4.4966186e-05 0.0002023747
0.00024566145 -0.0001317057 2.6447304e-05 -9.4491465e-05 0.24939048 0.9414201 3.9369817e-05 2.1129968e-05
00000000: 5aad 8d39 edd9 dd37 a859 3f3a 84c7 243a
00000010: 647f d8b9 b28e 1739 6593 b5b8 0019 ff39
00000020: ac25 1eb8 e6eb 613f 555b 613b 30ad 9eb9
00000030: 21e2 0f3e 1259 1c3c 919a 0eb8 d5ee 81b8
00000040: 0a3c 0339 b4f7 9039 fdba 82bb 3b66 21b9
00000050: 5bc0 1a39 ec2e 973f 3e4b 3cb8 0275 c9ba
00000060: 43c5 813a 4de8 83b9 27da ff36 2946 633f
00000070: a78d 5c36 b90f 563b 2e5f 8cb7 ad0b 33ba
00000080: d5c2 ebb6 565b 3cb6 8f98 c23b 30f6 8a38
00000090: aa6d 9e39 684b c2b9 39ef ae3f 6ce0 8c3f
000000a0: ed74 8db8 549a 4fb8 b259 283a 498c da3b
000000b0: 639d d53a f56b 9db8 e2b5 fa38 692e 37b9
000000c0: 086b c03b 82dd 9a3a a5c8 593a 272e dab8
000000d0: 77c7 7db8 ef25 6eb9 feb6 7039 8a7d 9b3b
000000e0: 5793 833f 235e 163b 140d 9b3c a0c3 e83a
000000f0: 5640 9f38 adcb 66b6 e08c 6738 7c9e 9a3f
00000100: ec43 a439 50a8 a139 5f4b 9e38 d30a 6d3b
00000110: 781b c139 5154 64b8 6425 0539 1d2a 9e38
00000120: 238e 0ebb feb9 01b8 9366 6e3f 0b14 b139
00000130: 73bd bb39 aa90 03b9 8ec6 0bb9 fc61 53b8
00000140: e79b 2f38 06ad 6b3f f11f f2b8 84fb 0638
00000150: 16c0 2a39 2212 e338 8b3e b739 36c0 c0b6
00000160: f07f 283b e617 7fbb 3bb6 6fb8 63eb 9439
00000170: 5db0 83b9 862e 1539 3160 c03f f779 f338
00000180: 0576 ff3b 2f48 9c3a 48cf be39 40b3 53b6
00000190: 0ac5 2c39 0571 6fbb 5ed2 bcb8 1e2e b53e
000001a0: f5a9 0bb9 d9e1 373a 6a2a d7b6 0708 ed39
000001b0: ea1a 20bc b376 783e 5ff2 373f 20d5 dc38
000001c0: bc2d 80bb 5806 c3b8 206d d7b8 bab6 e9b6
000001d0: 7531 8237 c03e 4fba 139a 3c38 8b34 5439
000001e0: 1fcc 8039 7b1a 0ab9 27db dd37 b829 c6b8
000001f0: 3860 7f3e e800 713f 0521 2538 4340 b137

z_logvar f4 [128]
-6.8629065 -8.836185 -7.3499475 -6.886589 -6.3554826 -8.820541 -10.176358 -2.9168065
-8.096213 -1.986039 -2.050886 -7.95644 -1.936939 -3.3526585 -3.2161381 -9.803886
-7.3483567 -7.3125153 -5.099494 -8.651521 -8.753001 -2.3230553 -9.450178 -6.4188213
-6.620128 -8.73842 -8.925856 -1.4438607 -10.127495 -4.354527 -10.021535 -7.3572407
-9.528604 -8.533764 -2.661502 -9.911068 -3.329607 -8.344327 -2.742877 -2.959472
-9.471592 -8.060707 -3.0973656 -2.2988336 -6.4746475 -7.708683 -9.461418 -8.969997
-2.6001303 -4.6143484 -5.9742064 -9.618806 -9.453527 -10.121344 -7.8003 -1.9971921
-2.5578682 -6.5944996 -2.1104283 -3.001515 -9.6721325 -8.998153 -9.896587 -2.5316968
-10.033656 -4.656113 -7.9814577 -3.7356617 -8.512744 -10.05928 -9.563979 -9.610519
-5.385711 -10.151537 -4.905151 -2.1397605 -7.887172 -10.073079 -8.873451 -9.66114
-10.179702 -1.913681 -10.178907 -10.1201105 -7.48782 -9.748438 -7.0449867 -10.050498
-4.6808333 -5.983997 -9.432154 -9.050588 -8.881342 -3.2939422 -2.720483 -9.279464
-4.133903 -4.358188 -9.305333 -7.4145775 -9.256802 -2.3808048 -10.103892 -1.7608474
-9.928216 -4.36676 -10.073935 -8.054696 -3.19993 -1.772872 -1.7011348 -8.975148
-4.6574545 -5.082105 -6.620454 -10.050539 -9.385674 -6.3025064 -9.730005 -9.145978
-8.899758 -9.368933 -8.468151 -9.381627 -1.5194122 -2.0251129 -10.057542 -10.167025
00000000: ee9c dbc0 0461 0dc1 c532 ebc0 f05e dcc0
00000010: 1d60 cbc0 f020 0dc1 5dd2 22c1 f5ac 3ac0
00000020: 178a 01c1 8736 febf b741 03c0 289b fec0
00000030: 9eed f7bf f591 56c0 35d5 4dc0 b8dc 1cc1
00000040: bd25 ebc0 2000 eac0 0e2f a3c0 a16c 0ac1
00000050: 4b0c 0cc1 f0ac 14c0 ee33 17c1 fc66 cdc0
00000060: 17d8 d3c0 91d0 0bc1 4ed0 0ec1 6dd0 b8bf
00000070: 380a 22c1 4958 8bc0 3558 20c1 846e ebc0
00000080: 2975 18c1 4c8a 08c1 0c56 2ac0 bc93 1ec1
00000090: 4818 55c0 5d82 05c1 4c8b 2fc0 fd67 3dc0
000000a0: a48b 17c1 a8f8 00c1 3d3b 46c0 1720 13c0
000000b0: 5030 cfc0 88ad f6c0 f861 17c1 1c85 0fc1
000000c0: 8968 26c0 bea8 93c0 b32c bfc0 a1e6 19c1
000000d0: a641 17c1 06f1 21c1 0f9c f9c0 fea3 ffbf
000000e0: 1db4 23c0 2406 d3c0 4211 07c0 d218 40c0
000000f0: 0ec1 1ac1 6ff8 0fc1 6c58 1ec1 5207 22c0
00000100: db89 20c1 e1fe 94c0 1a68 ffc0 1515 6fc0
00000110: 3334 08c1 d0f2 20c1 0f06 19c1 b0c4 19c1
00000120: bf57 acc0 b26c 22c1 fff6 9cc0 d6f1 08c0
00000130: b763 fcc0 552b 21c1 a8f9 0dc1 0894 1ac1
00000140: 0fe0 22c1 80f3 f4bf cedc 22c1 f9eb 21c1
00000150: 399c efc0 9af9 1bc1 8870 e1c0 d7ce 20c1
00000160: 63c9 95c0 e77c bfc0 1aea 16c1 35cf 10c1
00000170: fa19 0ec1 f3cf 52c0 651c 2ec0 af78 14c1
00000180: ef48 84c0 4776 8bc0 a5e2 14c1 3844 edc0
00000190: dc1b 14c1 1b5f 18c0 8ba9 21c1 7363 e1bf
000001a0: f9d9 1ec1 7fbc 8bc0 d62e 21c1 09e0 00c1
000001b0: a7cb 4cc0 78ed e2bf c9be d9bf 359a 0fc1
000001c0: de09 95c0 9ba0 a2c0 c2da d3c0 02cf 20c1
000001d0: b92b 16c1 22ae c9c0 1aae 1bc1 ed55 12c1
000001e0: 6965 0ec1 26e7 15c1 8c7d 07c1 251b 16c1
000001f0: 197c c2bf 739b 01c0 b1eb 20c1 22ac 22c1

weight_mu f4 [2, 128]
-0.008655664 -0.0033371286 0.015879512 0.0041003455 -0.019271512 -0.00966176 0.0024035962 0.000591012
-0.0080246115 -0.87211967 -0.052312408 0.020254087 -0.36009952 0.006735387 -0.014585527 0.006020844
-0.0036826383 0.021692613 0.0016491654 0.008689279 -0.009059459 -1.0025265 -0.009241042 0.0037138374
-0.0052899304 0.0002798349 0.011538231 -0.7230416 0.0010043926 -0.017351175 -0.0051147584 -0.012077189
0.0034325544 0.007253193 -0.011044321 -0.0047161584 0.006421219 -0.0032242823 -1.0224468 -0.96635485
-0.009711022 -0.002362569 0.015604889 0.13094495 -0.0018915477 -0.008612916 0.0033153335 -0.0018462479
0.03573664 -0.007603801 0.004625543 0.0068483846 0.0020394516 0.0020373596 -0.008160302 -0.05510116
-0.9429817 0.013246956 -0.12683327 0.03882994 0.008166201 0.007929009 0.0028185586 -0.9339852
0.015684478 0.000917912 0.014192535 0.0036029082 -0.00040207012 0.0015997713 -0.010945234 0.00040091277
-0.007120103 0.00071327103 0.68343794 -0.024408504 -0.018589228 -0.0066872044 0.0021641667 0.010100446
0.0016218143 -0.9643226 -0.000842769 0.009032838 -0.0067906226 -0.0066450075 -0.017849874 -0.0102070095
0.033117816 -0.011197774 0.007946899 0.006842791 -0.008374276 0.018416477 0.9651971 -0.011286232
0.01603653 -0.02668169 -0.0034320292 0.00023136266 0.0017560615 0.007948394 -0.0031001735 -0.5835531
-0.004780818 -0.01121903 0.0019263889 0.015538284 0.0012406535 -0.4385708 -0.7622468 -0.0105545
0.030716104 0.006369374 -0.0027524792 0.0025927026 0.0040404205 0.0098873 0.008275805 0.014953532
0.005715695 -0.0014241035 0.001866893 -0.0022679241 -0.41669843 -0.8244969 -0.007905553 0.01618552
0.010619841 0.004468351 -0.012087808 -0.0062818285 0.019751437 0.007929778 -0.0031041245 -0.0105968835
0.011458323 0.866571 0.052336138 -0.021887735 0.34384996 -0.011717598 0.011922975 -0.0048435517
0.0063469238 -0.019322336 -0.004105751 -0.009200729 0.0054052765 1.0043335 0.008883586 -0.0032313056
0.0066111446 0.0020719864 -0.012513121 0.7322083 -0.0007920019 0.022676378 0.004503507 0.013646787
-0.0011652004 -0.006984681 0.013720388 0.0051441276 -0.009017363 0.004313147 1.0256017 0.9631835
0.00859199 0.0032952786 -0.011061023 -0.1305819 0.0018961168 0.0062636514 -0.0044579105 0.0025622358
-0.039032448 0.0036180255 -0.009571115 -0.007962124 -0.0029679749 -0.0023832605 0.006312864 0.054010067
0.9482807 -0.011965952 0.12942377 -0.04291476 -0.0071400697 -0.006845548 -0.0038159373 0.9444265
-0.015917875 -0.006074392 -0.0138960015 -0.014986829 0.00042566835 -0.0025152275 0.013187017 0.0008208779
0.0012781187 -0.003017332 -0.68066573 0.020753985 0.019938298 0.007539599 -0.00070008973 -0.009335689
-0.00051440386 0.944139 -0.00031812847 -0.008052974 0.010296015 0.0049602007 0.014344255 0.007946006
-0.038153138 0.010837242 -0.0052173575 -0.0091705695 0.008066197 -0.02089141 -0.9666917 0.011389196
-0.01895387 0.028380748 0.0015016801 -0.0017504148 -0.0016260524 -0.010243706 0.00084820256 0.5738001
0.005082714 0.018679809 -0.0024641345 -0.01387008 0.00069439004 0.43734822 0.77497447 0.0075370194
-0.026512256 -0.0030574661 0.004970188 -0.0016142776 -0.0045154467 -0.0134745175 -0.007626153 -0.015985778
-0.0055089225 -0.00078987057 -0.0017457008 0.0038453122 0.4074384 0.8293715 0.00696908 -0.012961602
00000000: 7cd0 0dbc bab3 5abb c015 823c 315c 863b
00000010: 4adf 9dbc 5c4c 1ebc a785 1d3b 25ee 1a3a
00000020: a979 03bc 3c43 5fbf 8945 56bd e6eb a53c
00000030: f75e b8be 85b4 dc3b 22f8 6ebc 804a c53b
00000040: 6b58 71bb b5b4 b13c cf28 d83a 7a5d 0e3c
00000050: 206e 14bc ca52 80bf bd67 17bc da63 733b
00000060: 2757 adbb ceb6 9239 d90a 3d3c 4119 39bf
00000070: d3a5 833a 0d24 8ebc b499 a7bb 67df 45bc
00000080: b5f4 603b 31ac ed3b 3df3 34bc 018a 9abb
00000090: 1769 d23b 7b4e 53bb 89df 82bf 0863 77bf
000000a0: fa1a 1fbc 55d5 1abb a6ab 7f3c 6f16 063e
000000b0: cfed f7ba 301d 0dbc 1146 593b cdfd f1ba
000000c0: 9560 123d 4e29 f9bb de91 973b 6a68 e03b
000000d0: 52a8 053b 3985 053b cab2 05bc c1b1 61bd
000000e0: 4067 71bf c309 593c 95e0 01be 250c 1f3d
000000f0: 88cb 053c ade8 013c 91b7 383b a719 6fbf
00000100: bc7c 803c 08a0 703a ce87 683c c51e 6c3b
00000110: f0cc d2b9 6baf d13a a453 33bc 9a31 d239
00000120: c14f e9bb cffa 3a3a caf5 2e3f 58f4 c7bc
00000130: 7048 98bc 5620 dbbb b1d4 0d3b 577c 253c
00000140: 0f93 d43a d9dd 76bf 45ed 5cba 78fe 133c
00000150: df83 debb 5dbe d9bb e639 92bc 4d3b 27bc
00000160: 8ca6 073d de76 37bc b633 023c 7e39 e03b
00000170: 4234 09bc 27de 963c 2817 773f e3e9 38bc
00000180: 0a5f 833c 8f93 dabc e5eb 60bb f199 7239
00000190: a52b e63a fb39 023c 482c 4bbb bc63 15bf
000001a0: 68a8 9cbb 06d0 37bc e37e fc3a 4994 7e3c
000001b0: 6c9d a23a 5a8c e0be 9b22 43bf c8ec 2cbc
000001c0: 57a0 fb3c 2fb6 d03b f062 34bb 55ea 293b
000001d0: 8165 843b 58fe 213c 3e97 073c a9ff 743c
000001e0: ba4a bb3b fca8 baba 89b2 f43a 74a1 14bb
000001f0: 7f59 d5be 3b12 53bf 4b86 01bc 7f97 843c
00000200: d7fe 2d3c 3f6b 923b f10b 46bc ccd7 cdbb
00000210: c4cd a13c e6eb 013c 916e 4bbb 8d9e 2dbc
00000220: b1bb 3b3c 99d7 5d3f 6b5e 563d e84d b3bc
00000230: 1a0d b03e 2bfb 3fbc 9558 433c a8b6 9ebb
00000240: dbf9 cf3b e049 9ebc 8989 86bb a8be 16bc
00000250: bf1e b13b 008e 803f 768c 113c 50c4 53bb
00000260: 4da2 d83b 2aca 073b d503 4dbc 0172 3b3f
00000270: 599e 4fba d0c3 b93c 2892 933b c696 5f3c
00000280: a3b9 98ba c0df e4bb 7acb 603c 1290 a83b
00000290: 90bd 13bc 4d55 8d3b eb46 833f 3293 763f
000002a0: 6bc5 0c3c 9af5 573b 4b39 35bc 43b7 05be
000002b0: 1f87 f83a 513f cd3b aa13 92bb 2feb 273b
000002c0: 7de0 1fbd 651c 6d3b 2ad0 1cbc 9273 02bc
000002d0: 5b82 42bb 7a30 1cbb 24dc ce3b a939 5d3d
000002e0: 86c2 723f d70c 44bc aa87 043e 63c7 2fbd
000002f0: 3ff7 e9bb 9e50 e0bb ce14 7abb efc5 713f
00000300: 3466 82bc b10b c7bb 0eac 63bc 518b 75bc
00000310: 3d2c df39 84d6 24bb 5c0e 583c 2f30 573a
00000320: 8c86 a73a 6ebe 45bb 1c40 2ebf 4304 aa3c
00000330: a455 a33c be0e f73b 3a86 37ba b8f4 18bc
00000340: 0fd9 06ba 18b3 713f 7bca a6b9 9ff0 03bc
00000350: 9eb0 283c 2e89 a23b 2b04 6b3c f72f 023c
00000360: 7746 1cbd b08e 313c 5ef6 aabb 2840 16bc
00000370: 1528 043c 7624 abbc 1b79 77bf c099 3a3c
00000380: 2545 9bbc be7e e83c 06d4 c43a 2d6e e5ba
00000390: 4421 d5ba 38d5 27bc e959 5e3a 90e4 123f
000003a0: e58c a63b 6606 993c 517d 21bb 553f 63bc
000003b0: ba07 363a 1bec df3e ba64 463f 1af9 f63b
000003c0: 3b30 d9bc c55f 48bb f5dc a23b 2b96 d3ba
000003d0: 50f6 93bb 39c4 5cbc cfe4 f9bb 9bf4 82bc
000003e0: 3184 b4bb 510f 4fba 00d0 e4ba a201 7c3b
000003f0: c49b d03e b151 543f e15c e43b e65c 54bc
