metric/3_7_probe_cifar100_retrain_seed0.pth (torch, 539679 bytes, 12 tensors)

z_mu f4 [512]
0	0xb717c2ca	-9.045654e-06
1	0xba4b63b0	-0.000775869
2	0xb96f8a9e	-0.00022844455
3	0x3c4f702c	0.012661021
4	0x398e9361	0.00027194156
5	0x3f2148b1	0.63001543
6	0xb9ff525e	-0.00048698758
7	0x390affa9	0.00013255946
8	0x399bfbd0	0.0002975152
9	0xb8944d10	-7.071544e-05
10	0x38e7d1e8	0.000110540364
11	0x3998c5f7	0.00029139195
12	0x3ca26221	0.019822182
13	0xbb0ee14b	-0.0021801766
14	0xb9d30625	-0.00040249634
15	0x37dd9c36	2.6417994e-05
16	0xb929fa22	-0.00016210278
17	0x38564ba3	5.1092018e-05
18	0xb964e607	-0.00021829466
19	0xb9300b10	-0.00016788789
20	0x38f70541	0.000117788564
21	0xb9c8a46b	-0.00038269474
22	0xb99f2d8e	-0.00030360784
23	0x3f6bdb9a	0.9213196
24	0x38b92a8a	8.829411e-05
25	0xb9031929	-0.00012502506
26	0x35b5f8b6	1.3557935e-06
27	0xb9b9b2fe	-0.0003541931
28	0x3f129491	0.57257944
29	0xba66d91d	-0.0008806156
30	0x3e88de00	0.26731873
31	0xb9509026	-0.00019890125
32	0xb9807057	-0.00024497762
33	0x3971d514	0.00023062929
34	0x3a80ef63	0.0009836968
35	0x3b04205c	0.002016089
36	0xb9fc0a42	-0.00048072828
37	0x3848a2fe	4.7835514e-05
38	0x392b37e4	0.00016328652
39	0x3996e9e9	0.00028784506
40	0x3c479a4a	0.0121827815
41	0x39e2e205	0.00043274477
42	0x3a8caa82	0.0010731968
43	0x3a30431a	0.0006723866
44	0x3963bbcf	0.00021718371
45	0x39d6d3d8	0.00040975097
46	0x39b441b2	0.00034381222
47	0x390bba70	0.00013325526
48	0xba0bebbf	-0.0005337558
49	0x3851a027	4.9978637e-05
50	0x35972280	1.1260418e-06
51	0x3f64cfdb	0.8937966
52	0xb8747e05	-5.8291498e-05
53	0xb66700db	-3.442218e-06
54	0xbb43a3fe	-0.0029852386
55	0x3884b2db	6.327565e-05
56	0xb9c90df0	-0.00038348092
57	0xba9768f3	-0.0011551663
58	0x3a8a82f4	0.0010567592
59	0x398724dd	0.00025776672
60	0xb90aca6d	-0.00013236115
61	0xb88c4ab4	-6.689635e-05
62	0x3e869d20	0.26291752
63	0x38885064	6.499959e-05
64	0x39245871	0.00015673206
65	0xba4e2c5a	-0.0007864885
66	0xb90936d9	-0.0001308577
67	0x3a27930b	0.00063924555
68	0x3a672d06	0.00088186597
69	0x3ebbd8ac	0.36688745
70	0xba723858	-0.0009239963
71	0xbaeac79f	-0.0017912275
72	0x38c93b80	9.5955096e-05
73	0x3a14182d	0.00056493544
74	0x38ac6134	8.2197046e-05
75	0x3984a014	0.0002529627
76	0xb9a99e77	-0.00032352257
77	0xb9921d88	-0.00027869293
78	0x3a2e3b9a	0.00066464546
79	0x39ac01d0	0.00032807747
80	0x3f6ae40e	0.91754234
81	0x3af19e9f	0.0018434114
82	0x36bf56ef	5.702364e-06
83	0x3c14d7f3	0.009084689
84	0x3b1bb1b6	0.0023757047
85	0xb92c312b	-0.00016421515
86	0xb8834f70	-6.261363e-05
87	0xb8e513ca	-0.00010923257
88	0xba1f0991	-0.0006066794
89	0xb80281a3	-3.111515e-05
90	0x392ec41b	0.00016666988
91	0xba85ee4b	-0.0010218112
92	0xb9830b99	-0.00024994908
93	0x392e8251	0.0001664248
94	0xb92b3e85	-0.00016331121
95	0x3f770e4c	0.9650619
96	0x3f515fbd	0.8178671
97	0x37b3da8c	2.1440232e-05
98	0x3f535983	0.8255846
99	0x39cb1ef6	0.00038742245
100	0xb8a08888	-7.6548255e-05
101	0xb9a64c59	-0.0003171887
102	0xb7eafeab	-2.8013563e-05
103	0x3c90a183	0.01765514
104	0x39490ae4	0.00019172911
105	0x3a4f53c9	0.00079089083
106	0x39403b73	0.00018332693
107	0x37544aa6	1.2653565e-05
108	0xb7a956f7	-2.0186866e-05
109	0xb9aa5878	-0.0003249084
110	0x3f5971cc	0.84939265
111	0xbb1f4ca3	-0.0024307154
112	0xb8d64bcf	-0.00010218436
113	0xb79c5cc6	-1.863985e-05
114	0xb82357c7	-3.8943977e-05
115	0xb7bc8f0f	-2.2477963e-05
116	0xbb1d7870	-0.0024028085
117	0x3962df67	0.00021636263
118	0x39febc0a	0.00048586755
119	0x39b6fc5f	0.00034901776
120	0xb840b979	-4.5949102e-05
121	0x39610e66	0.00021463036
122	0x399ceded	0.00029931907
123	0x3a537703	0.00080667454
124	0x3f36b4e3	0.7136976
125	0xb9e77cb1	-0.00044152656
126	0xba703e6e	-0.0009164576
127	0xb96c692a	-0.0002254589
128	0x3871317b	5.750496e-05
129	0xb9415706	-0.00018438333
130	0x3f3e3b31	0.7430907
131	0x389e0db6	7.536581e-05
132	0xb8832d5a	-6.255014e-05
133	0x3acb7c3d	0.0015524697
134	0x3c9b9a5a	0.018994499
135	0x3934cd12	0.00017242532
136	0xb9762884	-0.00023475481
137	0xba036105	-0.00050117105
138	0x39afd350	0.0003353604
139	0x39d3e40d	0.00040414967
140	0x3c20148d	0.009770525
141	0x395c0dfa	0.00020986042
142	0x39902a4b	0.0002749733
143	0xba64d662	-0.00087294553
144	0x39e94979	0.00044495965
145	0xb9773bbb	-0.00023578007
146	0xb754af31	-1.2676975e-05
147	0x38d24309	0.000100260666
148	0x3f445722	0.76695454
149	0x3a886b2e	0.0010407919
150	0x38e8ba57	0.000110973306
151	0x38f9ce95	0.00011911724
152	0xba3e4d01	-0.0007259399
153	0x3a54c249	0.0008116109
154	0x3911c8fe	0.00013903153
155	0xb8ac8ea6	-8.2281695e-05
156	0x3a055075	0.00050855364
157	0x3944555a	0.00018723813
158	0x39dc2dd4	0.00041995815
159	0x3f24939e	0.64287746
160	0x3b4d3ad6	0.0031315587
161	0x37a39a83	1.9503064e-05
162	0xb9cf0fde	-0.0003949394
163	0x398bc272	0.0002665702
164	0x3f97c3af	1.1856593
165	0x3e340dc6	0.17583379
166	0x390b4a38	0.00013283722
167	0xb8e2bca5	-0.000108116576
168	0x3aa0024d	0.0012207717
169	0x3ad9ea71	0.0016625655
170	0xb941a9d8	-0.00018469186
171	0xb9010f2b	-0.00012308049
172	0xb9d754e5	-0.00041071247
173	0x38ffa2c5	0.00012189666
174	0x3b1a9ac0	0.0023590773
175	0x398ba632	0.0002663597
176	0x3dfe96ee	0.12431131
177	0x389eec10	7.577997e-05
178	0x392c9203	0.00016457592
179	0x3f53f5c0	0.8279686
180	0xbb03bb4e	-0.0020100656
181	0xb9bdad85	-0.0003617817
182	0xbac81397	-0.0015264627
183	0xb842251b	-4.628776e-05
184	0x37d26128	2.5079193e-05
185	0x38da1480	0.000103988685
186	0xba8ead84	-0.0010885452
187	0x3982d9e9	0.00024957888
188	0xba0431a3	-0.0005042797
189	0x3f12efbc	0.57397056
190	0x392679b6	0.00015876335
191	0x3b209919	0.0024505316
192	0xbbc275d9	-0.0059344587
193	0x3aa58f33	0.0012631178
194	0x3b1c3a7a	0.0023838566
195	0xba0a9278	-0.0005286108
196	0x3a047fcb	0.0005054443
197	0xbb92d93b	-0.0044814623
198	0x3a320b6e	0.0006791864
199	0xb8ddf670	-0.00010584004
200	0x3acc3b64	0.0015581665
201	0x39da3320	0.0004161829
202	0xb8aaf784	-8.152335e-05
203	0x39ab539b	0.00032677953
204	0x373ee339	1.1377787e-05
205	0xb96d5d04	-0.00022636732
206	0xb93a2591	-0.00017752337
207	0xb9c09293	-0.000367303
208	0x3a1a33a5	0.00058823294
209	0x39a4724e	0.0003136568
210	0xb88d60f9	-6.7414665e-05
211	0x38eb3ed9	0.000112173795
212	0x38972252	7.206634e-05
213	0xba00953f	-0.0004905052
214	0x39655485	0.00021870628
215	0x3d1951c2	0.037431486
216	0x3f2e5e7b	0.68112916
217	0x38db9c20	0.00010471814
218	0xb96b7c66	-0.00022457688
219	0x39da5d7d	0.00041649854
220	0x39972685	0.00028829664
221	0x3b0c6b1d	0.002142615
222	0xbc14bd60	-0.009078354
223	0x3f4a3d3a	0.78999674
224	0x39791e78	0.00023757841
225	0x39f10fe5	0.00045978944
226	0x396607a0	0.0002193735
227	0x39196a82	0.00014630894
228	0x3ac9fba4	0.0015410078
229	0x3e36a038	0.17834556
230	0xb86868b3	-5.541062e-05
231	0x3904f6ee	0.0001268049
232	0x3b07bbe6	0.0020711361
233	0x3f093042	0.5358926
234	0xb8c255f3	-9.26665e-05
235	0xb90dd82e	-0.00013527341
236	0x39752f6a	0.00023382684
237	0x3b0093d6	0.0019619367
238	0x3a1fe044	0.0006098787
239	0x39e10e62	0.0004292606
240	0x38cf8d62	9.896864e-05
241	0xbaf402a3	-0.0018616508
242	0xba3ab5ed	-0.0007122446
243	0x3f67a3ae	0.9048413
244	0x3a470520	0.0007592011
245	0x390ac481	0.00013233909
246	0x37a53050	1.969203e-05
247	0xbb4117d1	-0.0029463659
248	0xb8d3329f	-0.00010070693
249	0x3f62d10d	0.88600236
250	0xb7bfd7ec	-2.286952e-05
251	0x391acba3	0.00014762445
252	0xb9cf8350	-0.00039579952
253	0xb99af118	-0.00029552798
254	0x3f38a374	0.7212441
255	0x37b84c2c	2.196998e-05

z_logvar f4 [512]
0	0xc0f7a271	-7.7385793
1	0xc0eef670	-7.4675827
2	0xc0d8d7c3	-6.776338
3	0xc0652544	-3.5803995
4	0xc0e884d5	-7.266215
5	0xc080a40e	-4.020026
6	0xc0e194e4	-7.049425
7	0xc0ddd1c7	-6.9318576
8	0xc1014f0e	-8.0818
9	0xc109b81d	-8.60745
10	0xc0ec892d	-7.391745
11	0xc0ecb8eb	-7.397573
12	0xc04d3379	-3.2062666
13	0xc0a86940	-5.262848
14	0xc0d22653	-6.5671782
15	0xc0f203b0	-7.56295
16	0xc0cd75b5	-6.4206185
17	0xc101598e	-8.084364
18	0xc0f99ad4	-7.80015
19	0xc0f17847	-7.5459323
20	0xc0e92241	-7.2854314
21	0xc0d07fcd	-6.5156007
22	0xc0f131c7	-7.5373263
23	0xc06345dd	-3.551139
24	0xc100e4c6	-8.055853
25	0xc0f21af5	-7.5657907
26	0xc105d40f	-8.364272
27	0xc0db0e52	-6.845498
28	0xc02df41b	-2.718024
29	0xc0cddd8d	-6.433295
30	0xc02b7053	-2.6787307
31	0xc1012529	-8.071572
32	0xc1076610	-8.462418
33	0xc100e332	-8.055468
34	0xc09ee405	-4.9653344
35	0xc0c773f4	-6.2329044
36	0xc0f027ee	-7.504874
37	0xc1066d1a	-8.401636
38	0xc0b8804c	-5.7656612
39	0xc105f8d9	-8.373254
40	0xc0494384	-3.1447458
41	0xc0efe2eb	-7.49645
42	0xc0e6e170	-7.215019
43	0xc0f11a1c	-7.534437
44	0xc0d86b6a	-6.763112
45	0xc0bcb786	-5.897403
46	0xc0fe3885	-7.9443994
47	0xc0dfb933	-6.9913573
48	0xc0e01c3e	-7.0034475
49	0xc1040ff7	-8.253898
50	0xc0ecb877	-7.3975177
51	0xc0844d0e	-4.134406
52	0xc0ee56c3	-7.448091
53	0xc10343f9	-8.204095
54	0xc08a321d	-4.3186173
55	0xc0e5119d	-7.1584
56	0xc0db14fb	-6.846311
57	0xc0a91399	-5.2836423
58	0xc0d22277	-6.566707
59	0xc0fbd5f2	-7.8698664
60	0xc1047f42	-8.281069
61	0xc104c9ff	-8.299315
62	0xc04cd04f	-3.2002141
63	0xc10165a6	-8.0873165
64	0xc1078e39	-8.472222
65	0xc0f88004	-7.765627
66	0xc0de9928	-6.956196
67	0xc0e41640	-7.127716
68	0xc1024b7f	-8.143432
69	0xc05191e0	-3.2745285
70	0xc0e25bb7	-7.0736957
71	0xc0a0cade	-5.024764
72	0xc0fd5343	-7.916414
73	0xc0b28a9e	-5.579421
74	0xc109de11	-8.616715
75	0xc1053bb3	-8.327075
76	0xc1027b60	-8.155121
77	0xc1067d71	-8.405625
78	0xc0ef1ebb	-7.4725013
79	0xc0ea13f6	-7.3149366
80	0xc064a8c5	-3.5728009
81	0xc0d74a8c	-6.72785
82	0xc1007c92	-8.030413
83	0xc086353c	-4.1939983
84	0xc0816898	-4.044018
85	0xc106bbcf	-8.420852
86	0xc1064363	-8.391452
87	0xc101391f	-8.076446
88	0xc0b4934a	-5.6429796
89	0xc0fe9683	-7.955873
90	0xc10243d4	-8.14156
91	0xc0fae33b	-7.840238
92	0xc103e83f	-8.244201
93	0xc10470d4	-8.277546
94	0xc107d066	-8.488379
95	0xc07ceded	-3.9520218
96	0xc0910393	-4.5316863
97	0xc105010c	-8.312756
98	0xc0430a70	-3.047512
99	0xc1049029	-8.285195
100	0xc0f39983	-7.612489
101	0xc0f6dc5d	-7.7144
102	0xc1033677	-8.200797
103	0xc05270cd	-3.2881348
104	0xc106bd6d	-8.421247
105	0xc0ce1011	-6.439461
106	0xc107ddf4	-8.491688
107	0xc1039431	-8.22368
108	0xc106f3c3	-8.434512
109	0xc103cf7d	-8.238156
110	0xc069018b	-3.6407192
111	0xc0ba44c2	-5.8208933
112	0xc10be165	-8.742528
113	0xc1054490	-8.329239
114	0xc1026574	-8.149769
115	0xc1022a52	-8.135332
116	0xc0a9ca4c	-5.3059444
117	0xc0d814eb	-6.7525535
118	0xc0cc98b2	-6.3936396
119	0xc0a763f4	-5.2309513
120	0xc10b0a6f	-8.690047
121	0xc100eb28	-8.057411
122	0xc0d96167	-6.79314
123	0xc0cf688c	-6.481512
124	0xc0827843	-4.0771804
125	0xc1014054	-8.078205
126	0xc0fae887	-7.8408847
127	0xc10a1cf7	-8.6320715
128	0xc105621b	-8.336452
129	0xc106223f	-8.383361
130	0xc07f55b6	-3.9896064
131	0xc1015cc8	-8.085152
132	0xc1033fa9	-8.203042
133	0xc0a0b0f6	-5.0216017
134	0xc0848133	-4.1407714
135	0xc0f5b784	-7.678652
136	0xc1079eea	-8.476297
137	0xc0d58377	-6.672298
138	0xc0f28d01	-7.5797124
139	0xc10079a5	-8.029698
140	0xc08e2c0c	-4.442877
141	0xc0fd332f	-7.912498
142	0xc0fc7caf	-7.89022
143	0xc1016ea3	-8.089511
144	0xc0cbac15	-6.364756
145	0xc0f5ebb3	-7.685022
146	0xc1068135	-8.406545
147	0xc0eb3596	-7.3502913
148	0xc07eed4d	-3.9832337
149	0xc0c458c0	-6.1358337
150	0xc107269b	-8.446925
151	0xc0fbaea3	-7.865068
152	0xc0cae5d2	-6.340554
153	0xc0beb2b0	-5.9593124
154	0xc0ed3f9c	-7.414015
155	0xc104fe96	-8.312155
156	0xc0b82039	-5.7539334
157	0xc0fdcad2	-7.9310083
158	0xc0e7d6d2	-7.244973
159	0xc05b7579	-3.429045
160	0xc09517ea	-4.659169
161	0xc1011ae4	-8.069065
162	0xc1016dec	-8.089336
163	0xc104a334	-8.2898445
164	0xc066950f	-3.6028478
165	0xc0715ebc	-3.7714071
166	0xc101060c	-8.063976
167	0xc0f55100	-7.6661377
168	0xc0d00bed	-6.501456
169	0xc0bb37d2	-5.850564
170	0xc0ffdaaf	-7.995445
171	0xc0e6bea7	-7.210773
172	0xc0d90c15	-6.782725
173	0xc10806b9	-8.501641
174	0xc0991d90	-4.7848587
175	0xc102fb0d	-8.186292
176	0xc05de7dc	-3.4672766
177	0xc0fc70ea	-7.8887835
178	0xc102e769	-8.181497
179	0xc071193a	-3.7671647
180	0xc0dcca20	-6.8996735
181	0xc108f669	-8.560159
182	0xc0c9b101	-6.302857
183	0xc103f630	-8.247604
184	0xc104ea64	-8.307224
185	0xc0ff4be2	-7.978013
186	0xc0d9dadf	-6.8079677
187	0xc0fd9a5f	-7.925094
188	0xc0fa1cd4	-7.816019
189	0xc0319d2d	-2.7752182
190	0xc100d662	-8.05234
191	0xc07da623	-3.9632652
192	0xc07d1e64	-3.95498
193	0xc0c135d6	-6.037822
194	0xc0987010	-4.7636795
195	0xc1048299	-8.281884
196	0xc10248f7	-8.142814
197	0xc0bab95b	-5.8351264
198	0xc0e38876	-7.110408
199	0xc102932d	-8.160932
200	0xc0ba532c	-5.822653
201	0xc103ff22	-8.249788
202	0xc10549d5	-8.330525
203	0xc100dc4c	-8.053783
204	0xc0f60000	-7.6875
205	0xc1062f02	-8.3864765
206	0xc0ffb9e5	-7.991442
207	0xc0df0675	-6.969538
208	0xc0fd1583	-7.908876
209	0xc0d37c9c	-6.608961
210	0xc0f04daa	-7.5094805
211	0xc1024064	-8.14072
212	0xc10363cb	-8.2118635
213	0xc100ad6e	-8.042341
214	0xc0fd0e6d	-7.908011
215	0xc0686538	-3.631178
216	0xc042d739	-3.0443861
217	0xc0ffb8a3	-7.9912887
218	0xc0fe71fb	-7.9514136
219	0xc0e4ce44	-7.150179
220	0xc0ce9a70	-6.456352
221	0xc0ba47fa	-5.821286
222	0xc0839cf2	-4.1129084
223	0xc09269e9	-4.5754285
224	0xc0e75ae6	-7.229846
225	0xc0f3f859	-7.624066
226	0xc0fb89dc	-7.8605785
227	0xc105c3af	-8.360274
228	0xc09ea4e9	-4.9576306
229	0xc04a2193	-3.1582992
230	0xc104148f	-8.255019
231	0xc1034f04	-8.206791
232	0xc07c7a7f	-3.9449766
233	0xc01341b4	-2.3008852
234	0xc0eb9bf6	-7.362788
235	0xc1047980	-8.279663
236	0xc0f71468	-7.721241
237	0xc09c84d0	-4.8912125
238	0xc0faebff	-7.841308
239	0xc0fb1eef	-7.847526
240	0xc0f8c317	-7.7738147
241	0xc0db32c5	-6.8499475
242	0xc0dc2322	-6.8792887
243	0xc054219b	-3.314551
244	0xc0b78657	-5.735149
245	0xc0fee2de	-7.9651937
246	0xc101da87	-8.115851
247	0xc08dc940	-4.4308167
248	0xc1034957	-8.205405
249	0xc086b019	-4.2089963
250	0xc1085cb4	-8.522633
251	0xc105e618	-8.368675
252	0xc0fe8bbd	-7.954558
253	0xc0f963e7	-7.793445
254	0xc072b4ba	-3.7922807
255	0xc100532c	-8.020306

weight_mu f4 [128, 512]
0	0x3a9b92ae	0.0011869275
1	0xbab0808a	-0.0013466042
2	0xba48c655	-0.00076589483
3	0x3c11a243	0.008888784
4	0x39768635	0.00023510384
5	0xbd1845cf	-0.03717595
6	0x3a48fbda	0.00076669233
7	0xba43b0ce	-0.00074650056
8	0xb9e4d044	-0.0004364272
9	0x38b7c484	8.762724e-05
10	0xba1f06b4	-0.00060663675
11	0x38cc62cf	9.7458826e-05
12	0xba8daf8a	-0.0010809761
13	0xba42f918	-0.00074376306
14	0xba026102	-0.0004973562
15	0xb9c24767	-0.00037055762
16	0x3b1bc6b6	0.0023769564
17	0xb88e0c80	-6.773416e-05
18	0x39375b61	0.00017486281
19	0xba36d259	-0.0006974093
20	0x3aa06188	0.0012236098
21	0x39862802	0.0002558828
22	0xba1fefa3	-0.00061010773
23	0xbd6b1c7e	-0.05740022
24	0xb968eccf	-0.00022213462
25	0xb9bccd67	-0.0003601119
26	0x3aaec588	0.0013334015
27	0x3ad8c7d3	0.0016539044
28	0xbd4d8c69	-0.050182734
29	0x3a4a6735	0.00077210675
30	0xbc0140b1	-0.007888959
31	0xba457340	-0.0007532127
32	0x3a089daa	0.0005211482
33	0x3964773b	0.00021788191
34	0xba2178a2	-0.0006159638
35	0x3a891c92	0.0010460785
36	0xb9324962	-0.0001700274
37	0x3ad4badc	0.0016230005
38	0xb98fc9aa	-0.00027425337
39	0x3aecf4a1	0.0018078276
40	0x3b24c67d	0.0025142722
41	0xb9212bfa	-0.00015370539
42	0x391b0f5e	0.00014787677
43	0x3a6836f7	0.0008858288
44	0xba6c4537	-0.00090129994
45	0x3a2ebc85	0.0006665665
46	0xbb58bab6	-0.0033070273
47	0x39965ddb	0.00028680157
48	0x3b173d76	0.0023077405
49	0x3aefe959	0.0018303796
50	0xba156181	-0.0005698428
51	0xbe07afd6	-0.1325067
52	0xb9751396	-0.00023372317
53	0x37662479	1.371756e-05
54	0xba604837	-0.0008555683
55	0xba0703d7	-0.00051504135
56	0x3a4bebff	0.00077790016
57	0xba1c7783	-0.00059687364
58	0x3a3996ba	0.000707965
59	0xb97602fa	-0.00023461497
60	0x393fe6f3	0.00018301215
61	0x3af45dc0	0.0018643662
62	0xbd1d12bd	-0.03834795
63	0x3a753e56	0.0009355297
64	0xbb499c71	-0.0030763412
65	0x3aa69777	0.0012709935
66	0x3bd17764	0.0063924063
67	0x3a94d313	0.0011354409
68	0xb8fe3d10	-0.000121230376
69	0xbd48c77a	-0.04901836
70	0xbaba86e9	-0.001423088
71	0x398a4a47	0.00026376752
72	0xb93a3f99	-0.00017762034
73	0x3a5adfe4	0.00083494023
74	0x38b379db	8.5580825e-05
75	0x3a978e19	0.0011562734
76	0x394abb1e	0.00019333928
77	0xba326376	-0.0006804982
78	0xba24d63e	-0.0006288028
79	0xba94051f	-0.001129303
80	0xbd478298	-0.04870853
81	0xb7a19161	-1.9260393e-05
82	0xba260d4f	-0.00063343806
83	0xba94f374	-0.0011364059
84	0xbb63ffc3	-0.0034789897
85	0xb8a6a117	-7.945502e-05
86	0x3a1f134d	0.00060682447
87	0xb964e154	-0.00021827716
88	0x3b56bb41	0.003276542
89	0xb86a8c9d	-5.5920904e-05
90	0x3a473051	0.0007598447
91	0xbb0fa1a8	-0.0021916423
92	0x3a16cf81	0.00057529664
93	0xba0bf10f	-0.000533835
94	0x3a197a07	0.00058546703
95	0xbddf8e47	-0.10915809
96	0xbdbf8857	-0.09352177
97	0xba0c02b7	-0.0005340981
98	0xbd45309f	-0.04814207
99	0xb90116a4	-0.00012310833
100	0xb89f6678	-7.600797e-05
101	0xb956f2c9	-0.00020499075
102	0xb9c7f0be	-0.00038135605
103	0xb8e0874b	-0.000107063526
104	0x39787f5e	0.00023698571
105	0xb8b01725	-8.396645e-05
106	0x3b04c1b9	0.002025707
107	0xb90fe91c	-0.00013724383
108	0xb91613a5	-0.00014312433
109	0xbb02881b	-0.001991755
110	0xbd6d794a	-0.057977
111	0x3b079156	0.0020685992
112	0xba89243b	-0.0010463068
113	0x3abc505c	0.0014367211
114	0x39267919	0.00015876106
115	0xb951e3a6	-0.00020016599
116	0x3bbc4b83	0.0057463064
117	0xb9e59d83	-0.0004379564
118	0x3b8cec77	0.0043006497
119	0x3be0f651	0.0068653007
120	0xb97aec59	-0.00023929904
121	0x3903e22a	0.00012577386
122	0x3b13be69	0.0022543913
123	0xbac057de	-0.0014674624
124	0xbd488b08	-0.048960716
125	0x393b8151	0.00017881884
126	0x3a8f9ad9	0.0010956182
127	0x3a2a3183	0.0006492363
128	0x394a2645	0.00019278478
129	0x3a6e918a	0.00091006665
130	0xbd5c5897	-0.053795423
131	0xba42b322	-0.00074272056
132	0x3a192188	0.00058414834
133	0x3b0fd71b	0.0021948281
134	0x3a06bdf5	0.000514
135	0xbb0b5b28	-0.002126405
136	0xb99f546f	-0.0003038975
137	0xba93c7c7	-0.0011274748
138	0x3a2435c5	0.0006264116
139	0x3a0f5321	0.0005467404
140	0xba507f06	-0.0007953498
141	0xbabce700	-0.0014412105
142	0xba04b142	-0.0005061814
143	0x394ca26a	0.0001951546
144	0xba2d58c1	-0.00066126516
145	0xbaa3d14e	-0.0012498291
146	0x393163cb	0.00016917211
147	0xbaf1b1bd	-0.0018439811
148	0xbd6fac35	-0.05851384
149	0xb98742d1	-0.0002579899
150	0xba82a0be	-0.0009966118
151	0xbadbcf1c	-0.0016770097
152	0x39010f00	0.00012307987
153	0x3b1ea65a	0.002420804
154	0x3a0ea123	0.00054408814
155	0xb8bd1b78	-9.017339e-05
156	0x3a811a31	0.0009849725
157	0x3976ee12	0.00023549076
158	0x399120c4	0.00027680967
159	0xbd53d664	-0.05171813
160	0x3a1835cb	0.00058063556
161	0xb994a769	-0.0002835349
162	0x3a0a806c	0.00052834186
163	0x39c91609	0.00038354125
164	0xbd8c85d4	-0.06861463
165	0xbd3e9687	-0.046530273
166	0xb93fb04a	-0.00018280852
167	0x381ea58c	3.7824313e-05
168	0x3af086b6	0.0018350694
169	0xba82bc01	-0.0009974242
170	0xb710e3e9	-8.636133e-06
171	0xb86b6c54	-5.6129255e-05
172	0xba152fda	-0.00056910294
173	0x3a1699b9	0.00057449524
174	0x3baa01aa	0.0051881867
175	0x3a4ed712	0.00078903243
176	0x3b610030	0.0034332387
177	0xb9f88d75	-0.0004740764
178	0x38395f80	4.419638e-05
179	0xbd4eafd8	-0.050460666
180	0x3a7bbd95	0.000960314
181	0xb9807e2e	-0.00024508074
182	0x3b900b4f	0.0043958793
183	0xba9c89ec	-0.0011942959
184	0x3835e01e	4.336249e-05
185	0x3a291c9b	0.0006451101
186	0x3b037f44	0.002006487
187	0x37484728	1.1937496e-05
188	0x3a8d4f0e	0.0010781006
189	0xbd8b75a1	-0.06809545
190	0x391353e4	0.00014050264
191	0x3ca24008	0.019805923
192	0xbb1c0361	-0.0023805725
193	0x39411247	0.00018412723
194	0x3ac4ca1c	0.0015013847
195	0x39d6ba5e	0.00040956115
196	0xb901d839	-0.00012382948
197	0xbafc2113	-0.0019235931
198	0x39a81208	0.0003205689
199	0x388ec04f	6.806908e-05
200	0x3abe6390	0.0014525522
201	0x3a6cb146	0.00090291013
202	0xb8e14b16	-0.00010742822
203	0xb8d6768d	-0.00010226397
204	0x3a00c2ae	0.0004911822
205	0x3b162525	0.0022910323
206	0xba864116	-0.0010242786
207	0x3a74c550	0.0009337263
208	0x3a5fd547	0.00085385557
209	0xbabe5ced	-0.0014523544
210	0xbae42ba7	-0.0017408029
211	0x3983fc3e	0.00025174202
212	0xb99e09d5	-0.00030143434
213	0x38efef18	0.00011440943
214	0xb96b3298	-0.00022430194
215	0xb90558e9	-0.0001271699
216	0xbd89a178	-0.06720251
217	0xbae26fb1	-0.0017275718
218	0x39767340	0.00023503322
219	0xbb69e87f	-0.0035691557
220	0xbad37fbe	-0.0016136093
221	0x395cf182	0.00021070804
222	0xbb059eec	-0.0020388914
223	0xbdb1e266	-0.0868576
224	0xba28ea78	-0.000644363
225	0x3a59d115	0.0008309049
226	0x3707a102	8.084115e-06
227	0xb98c5e2f	-0.00026773053
228	0xbb461074	-0.003022221
229	0xbc6d1c06	-0.014472013
230	0x39890f22	0.0002614195
231	0xb889229b	-6.539115e-05
232	0x3c023bd2	0.007948833
233	0xbd61d00b	-0.055130046
234	0x3b5b84f0	0.0033495985
235	0xbb5718a2	-0.0032821079
236	0x398457e0	0.00025242474
237	0x3abb84ce	0.0014306547
238	0x3897d872	7.240557e-05
239	0xbab66522	-0.0013915638
240	0xba28fcd9	-0.00064463686
241	0x39cf60d3	0.00039554256
242	0x3ae78cc9	0.0017665859
243	0xbcd974a5	-0.026544878
244	0x3af0df5a	0.0018377111
245	0x3ade8b79	0.0016978822
246	0xba0d0da2	-0.00053807546
247	0x3abee094	0.0014562779
248	0xb9688d9c	-0.00022177998
249	0xbd8536b3	-0.06504574
250	0x38c23e29	9.262219e-05
251	0x39862e55	0.00025592992
252	0xba1358c7	-0.0005620834
253	0x39601e90	0.0002137369
254	0xbda6701b	-0.08126851
255	0xb976d89b	-0.0002354108

weight_logvar f4 [128, 512]
0	0xc04e0210	-3.218876
1	0xc04e0210	-3.218876
2	0xc04e0210	-3.218876
3	0xc04e0210	-3.218876
4	0xc04e0210	-3.218876
5	0xc04e0210	-3.218876
6	0xc04e0210	-3.218876
7	0xc04e0210	-3.218876
8	0xc04e0210	-3.218876
9	0xc04e0210	-3.218876
10	0xc04e0210	-3.218876
11	0xc04e0210	-3.218876
12	0xc04e0210	-3.218876
13	0xc04e0210	-3.218876
14	0xc04e0210	-3.218876
15	0xc04e0210	-3.218876
16	0xc04e0210	-3.218876
17	0xc04e0210	-3.218876
18	0xc04e0210	-3.218876
19	0xc04e0210	-3.218876
20	0xc04e0210	-3.218876
21	0xc04e0210	-3.218876
22	0xc04e0210	-3.218876
23	0xc04e0210	-3.218876
24	0xc04e0210	-3.218876
25	0xc04e0210	-3.218876
26	0xc04e0210	-3.218876
27	0xc04e0210	-3.218876
28	0xc04e0210	-3.218876
29	0xc04e0210	-3.218876
30	0xc04e0210	-3.218876
31	0xc04e0210	-3.218876
32	0xc04e0210	-3.218876
33	0xc04e0210	-3.218876
34	0xc04e0210	-3.218876
35	0xc04e0210	-3.218876
36	0xc04e0210	-3.218876
37	0xc04e0210	-3.218876
38	0xc04e0210	-3.218876
39	0xc04e0210	-3.218876
40	0xc04e0210	-3.218876
41	0xc04e0210	-3.218876
42	0xc04e0210	-3.218876
43	0xc04e0210	-3.218876
44	0xc04e0210	-3.218876
45	0xc04e0210	-3.218876
46	0xc04e0210	-3.218876
47	0xc04e0210	-3.218876
48	0xc04e0210	-3.218876
49	0xc04e0210	-3.218876
50	0xc04e0210	-3.218876
51	0xc04e0210	-3.218876
52	0xc04e0210	-3.218876
53	0xc04e0210	-3.218876
54	0xc04e0210	-3.218876
55	0xc04e0210	-3.218876
56	0xc04e0210	-3.218876
57	0xc04e0210	-3.218876
58	0xc04e0210	-3.218876
59	0xc04e0210	-3.218876
60	0xc04e0210	-3.218876
61	0xc04e0210	-3.218876
62	0xc04e0210	-3.218876
63	0xc04e0210	-3.218876
64	0xc04e0210	-3.218876
65	0xc04e0210	-3.218876
66	0xc04e0210	-3.218876
67	0xc04e0210	-3.218876
68	0xc04e0210	-3.218876
69	0xc04e0210	-3.218876
70	0xc04e0210	-3.218876
71	0xc04e0210	-3.218876
72	0xc04e0210	-3.218876
73	0xc04e0210	-3.218876
74	0xc04e0210	-3.218876
75	0xc04e0210	-3.218876
76	0xc04e0210	-3.218876
77	0xc04e0210	-3.218876
78	0xc04e0210	-3.218876
79	0xc04e0210	-3.218876
80	0xc04e0210	-3.218876
81	0xc04e0210	-3.218876
82	0xc04e0210	-3.218876
83	0xc04e0210	-3.218876
84	0xc04e0210	-3.218876
85	0xc04e0210	-3.218876
86	0xc04e0210	-3.218876
87	0xc04e0210	-3.218876
88	0xc04e0210	-3.218876
89	0xc04e0210	-3.218876
90	0xc04e0210	-3.218876
91	0xc04e0210	-3.218876
92	0xc04e0210	-3.218876
93	0xc04e0210	-3.218876
94	0xc04e0210	-3.218876
95	0xc04e0210	-3.218876
96	0xc04e0210	-3.218876
97	0xc04e0210	-3.218876
98	0xc04e0210	-3.218876
99	0xc04e0210	-3.218876
100	0xc04e0210	-3.218876
101	0xc04e0210	-3.218876
102	0xc04e0210	-3.218876
103	0xc04e0210	-3.218876
104	0xc04e0210	-3.218876
105	0xc04e0210	-3.218876
106	0xc04e0210	-3.218876
107	0xc04e0210	-3.218876
108	0xc04e0210	-3.218876
109	0xc04e0210	-3.218876
110	0xc04e0210	-3.218876
111	0xc04e0210	-3.218876
112	0xc04e0210	-3.218876
113	0xc04e0210	-3.218876
114	0xc04e0210	-3.218876
115	0xc04e0210	-3.218876
116	0xc04e0210	-3.218876
117	0xc04e0210	-3.218876
118	0xc04e0210	-3.218876
119	0xc04e0210	-3.218876
120	0xc04e0210	-3.218876
121	0xc04e0210	-3.218876
122	0xc04e0210	-3.218876
123	0xc04e0210	-3.218876
124	0xc04e0210	-3.218876
125	0xc04e0210	-3.218876
126	0xc04e0210	-3.218876
127	0xc04e0210	-3.218876
128	0xc04e0210	-3.218876
129	0xc04e0210	-3.218876
130	0xc04e0210	-3.218876
131	0xc04e0210	-3.218876
132	0xc04e0210	-3.218876
133	0xc04e0210	-3.218876
134	0xc04e0210	-3.218876
135	0xc04e0210	-3.218876
136	0xc04e0210	-3.218876
137	0xc04e0210	-3.218876
138	0xc04e0210	-3.218876
139	0xc04e0210	-3.218876
140	0xc04e0210	-3.218876
141	0xc04e0210	-3.218876
142	0xc04e0210	-3.218876
143	0xc04e0210	-3.218876
144	0xc04e0210	-3.218876
145	0xc04e0210	-3.218876
146	0xc04e0210	-3.218876
147	0xc04e0210	-3.218876
148	0xc04e0210	-3.218876
149	0xc04e0210	-3.218876
150	0xc04e0210	-3.218876
151	0xc04e0210	-3.218876
152	0xc04e0210	-3.218876
153	0xc04e0210	-3.218876
154	0xc04e0210	-3.218876
155	0xc04e0210	-3.218876
156	0xc04e0210	-3.218876
157	0xc04e0210	-3.218876
158	0xc04e0210	-3.218876
159	0xc04e0210	-3.218876
160	0xc04e0210	-3.218876
161	0xc04e0210	-3.218876
162	0xc04e0210	-3.218876
163	0xc04e0210	-3.218876
164	0xc04e0210	-3.218876
165	0xc04e0210	-3.218876
166	0xc04e0210	-3.218876
167	0xc04e0210	-3.218876
168	0xc04e0210	-3.218876
169	0xc04e0210	-3.218876
170	0xc04e0210	-3.218876
171	0xc04e0210	-3.218876
172	0xc04e0210	-3.218876
173	0xc04e0210	-3.218876
174	0xc04e0210	-3.218876
175	0xc04e0210	-3.218876
176	0xc04e0210	-3.218876
177	0xc04e0210	-3.218876
178	0xc04e0210	-3.218876
179	0xc04e0210	-3.218876
180	0xc04e0210	-3.218876
181	0xc04e0210	-3.218876
182	0xc04e0210	-3.218876
183	0xc04e0210	-3.218876
184	0xc04e0210	-3.218876
185	0xc04e0210	-3.218876
186	0xc04e0210	-3.218876
187	0xc04e0210	-3.218876
188	0xc04e0210	-3.218876
189	0xc04e0210	-3.218876
190	0xc04e0210	-3.218876
191	0xc04e0210	-3.218876
192	0xc04e0210	-3.218876
193	0xc04e0210	-3.218876
194	0xc04e0210	-3.218876
195	0xc04e0210	-3.218876
196	0xc04e0210	-3.218876
197	0xc04e0210	-3.218876
198	0xc04e0210	-3.218876
199	0xc04e0210	-3.218876
200	0xc04e0210	-3.218876
201	0xc04e0210	-3.218876
202	0xc04e0210	-3.218876
203	0xc04e0210	-3.218876
204	0xc04e0210	-3.218876
205	0xc04e0210	-3.218876
206	0xc04e0210	-3.218876
207	0xc04e0210	-3.218876
208	0xc04e0210	-3.218876
209	0xc04e0210	-3.218876
210	0xc04e0210	-3.218876
211	0xc04e0210	-3.218876
212	0xc04e0210	-3.218876
213	0xc04e0210	-3.218876
214	0xc04e0210	-3.218876
215	0xc04e0210	-3.218876
216	0xc04e0210	-3.218876
217	0xc04e0210	-3.218876
218	0xc04e0210	-3.218876
219	0xc04e0210	-3.218876
220	0xc04e0210	-3.218876
221	0xc04e0210	-3.218876
222	0xc04e0210	-3.218876
223	0xc04e0210	-3.218876
224	0xc04e0210	-3.218876
225	0xc04e0210	-3.218876
226	0xc04e0210	-3.218876
227	0xc04e0210	-3.218876
228	0xc04e0210	-3.218876
229	0xc04e0210	-3.218876
230	0xc04e0210	-3.218876
231	0xc04e0210	-3.218876
232	0xc04e0210	-3.218876
233	0xc04e0210	-3.218876
234	0xc04e0210	-3.218876
235	0xc04e0210	-3.218876
236	0xc04e0210	-3.218876
237	0xc04e0210	-3.218876
238	0xc04e0210	-3.218876
239	0xc04e0210	-3.218876
240	0xc04e0210	-3.218876
241	0xc04e0210	-3.218876
242	0xc04e0210	-3.218876
243	0xc04e0210	-3.218876
244	0xc04e0210	-3.218876
245	0xc04e0210	-3.218876
246	0xc04e0210	-3.218876
247	0xc04e0210	-3.218876
248	0xc04e0210	-3.218876
249	0xc04e0210	-3.218876
250	0xc04e0210	-3.218876
251	0xc04e0210	-3.218876
252	0xc04e0210	-3.218876
253	0xc04e0210	-3.218876
254	0xc04e0210	-3.218876
255	0xc04e0210	-3.218876

bias_mu f4 [128]
0	0xbe807eca	-0.25096732
1	0xbc743940	-0.014906228
2	0xba3a1117	-0.00070978835
3	0xbe1be253	-0.15223055
4	0xbdb8eb34	-0.090292364
5	0x3c42c91f	0.011888771
6	0xbdda4e91	-0.106595166
7	0xbe340b1e	-0.17582366
8	0xbb0d64e4	-0.0021575028
9	0xb97a11d2	-0.00023848496
10	0xbbc69b52	-0.006060996
11	0xbb4416c5	-0.0029920798
12	0xbe3e2c35	-0.18571551
13	0xbe52e334	-0.20594484
14	0xbea407ba	-0.32037145
15	0xbda37e17	-0.07983034
16	0xbb48aafb	-0.003061949
17	0xbc33d2f2	-0.010975586
18	0x3c36ad17	0.011149666
19	0xbdfd9c82	-0.12383367
20	0xbdd8489f	-0.105607264
21	0xbe29d627	-0.16585599
22	0xbe0b77e2	-0.1361995
23	0xbe35d8a2	-0.1775842
24	0xbc61d885	-0.013784532
25	0xbdd0a687	-0.101880126
26	0xbb88cd1b	-0.004174841
27	0xbd7de946	-0.061990045
28	0x3a76ee96	0.00094197073
29	0xba67e20f	-0.0008845636
30	0xbb19eb08	-0.0023486037
31	0xbdb610af	-0.08889901
32	0xbb2c3dac	-0.0026281876
33	0xbcfe722f	-0.031060306
34	0xbe573d31	-0.21019436
35	0xbe12fe75	-0.1435488
36	0xbe1e38a0	-0.15451288
37	0xbc29b62a	-0.010358373
38	0xbdf23007	-0.11825567
39	0x3e2416e5	0.16024359
40	0xbb3c232a	-0.0028707483
41	0xbc36dcbf	-0.011161028
42	0x3e978169	0.2959092
43	0x3a8c768d	0.0010716483
44	0xbe6fbc18	-0.23411596
45	0xbd3b3790	-0.045707285
46	0xbbbba94f	-0.0057269703
47	0xbd19fc74	-0.037594274
48	0x3d9b41ac	0.07580885
49	0xbd57b845	-0.052665967
50	0xbdc38d76	-0.09548466
51	0xbc139613	-0.009007948
52	0xbbef1f32	-0.00729742
53	0xbb1522e2	-0.0022756387
54	0xbb1f9d51	-0.0024355242
55	0xbc2df3a3	-0.01061717
56	0x3da3117e	0.07962321
57	0xbda3ad7f	-0.07992076
58	0x3e041980	0.12900352
59	0xbe493d5e	-0.19652316
60	0x3aa7f1d0	0.0012813155
61	0xbafb275d	-0.0019161511
62	0xbb1c985a	-0.002389452
63	0xbe4b8cd3	-0.19877939
64	0xb9ddd3c9	-0.00042310197
65	0xbe091910	-0.13388467
66	0xbab8fcd8	-0.0014113439
67	0xbe481ec4	-0.19542986
68	0x3e5ee1a5	0.21765764
69	0xbaec824c	-0.0018044203
70	0xbb639d56	-0.003473123
71	0xbad5e201	-0.0016317965
72	0xbb72fa29	-0.0037075377
73	0xbb3f3f9a	-0.0029182197
74	0xbb0ecacd	-0.002178836
75	0xbe689ab9	-0.22715272
76	0xbe3a1ea1	-0.18175747
77	0xbb0f6084	-0.0021877596
78	0xbd069074	-0.032852605
79	0xba993143	-0.0011687655
80	0xba965d38	-0.0011471873
81	0xbce80667	-0.028323365
82	0xbac5c90a	-0.0015089822
83	0xbb539c3b	-0.0032289166
84	0xbe563c1e	-0.2092137
85	0x3d5c780f	0.053825434
86	0xbdbf9849	-0.09355218
87	0xbb85b24e	-0.0040800935
88	0x3e0b2b5b	0.13590758
89	0xbe0480ce	-0.1293976
90	0xbafd6ac1	-0.0019334183
91	0xb9808a4d	-0.00024517105
92	0xbc995f3e	-0.018722173
93	0x3e50a014	0.20373565
94	0xbbfa2969	-0.007634331
95	0xbd5af66c	-0.053457662
96	0xbe5f3bbe	-0.21800134
97	0x3d926bf8	0.071495
98	0xbba7808f	-0.005111761
99	0x3eccf49d	0.40030375
100	0xbbfa6381	-0.0076412563
101	0x3e411c3b	0.18858425
102	0xbdec2e1e	-0.11532234
103	0xbb53a06b	-0.0032291661
104	0xbee368c7	-0.44415876
105	0xbe116255	-0.14197667
106	0xbb0aaf9e	-0.0021161805
107	0xbe6c3cfa	-0.23070136
108	0xbc94075f	-0.018069921
109	0xbe18f2bb	-0.14936344
110	0xbe456de2	-0.19280198
111	0xbb0b04e5	-0.0021212634
112	0xbe00a530	-0.12563014
113	0xbe179f42	-0.14806846
114	0xbdc16658	-0.09443349
115	0xbce96c61	-0.028494062
116	0xbbb0d9e4	-0.0053970683
117	0xbd34ad4d	-0.044110585
118	0xbb13dddd	-0.002256266
119	0xbae76e1a	-0.0017656714
120	0xbb3ef705	-0.0029138934
121	0xbb7b3262	-0.003832959
122	0xbe378693	-0.1792243
123	0xbd74a251	-0.05972511
124	0x3e0599ed	0.13047
125	0xbc4ef7a1	-0.0126322815
126	0xbc24f611	-0.010068432
127	0xbb7f6877	-0.0038972178

bias_logvar f4 [128]
0	0xc04e0210	-3.218876
1	0xc04e0210	-3.218876
2	0xc04e0210	-3.218876
3	0xc04e0210	-3.218876
4	0xc04e0210	-3.218876
5	0xc05d5642	-3.4583898
6	0xc04e0210	-3.218876
7	0xc04e0369	-3.2189581
8	0xc04e0210	-3.218876
9	0xc04e0210	-3.218876
10	0xc04e0210	-3.218876
11	0xc04e0210	-3.218876
12	0xc04e0210	-3.218876
13	0xc04e0210	-3.218876
14	0xc04e0baf	-3.219463
15	0xc04e0210	-3.218876
16	0xc04e0210	-3.218876
17	0xc04e0210	-3.218876
18	0xc0698cb0	-3.649212
19	0xc07b35b3	-3.9251525
20	0xc04e0210	-3.218876
21	0xc04e0210	-3.218876
22	0xc04e0210	-3.218876
23	0xc04e0210	-3.218876
24	0xc04e0210	-3.218876
25	0xc04e0210	-3.218876
26	0xc04e0210	-3.218876
27	0xc04e0210	-3.218876
28	0xc04e0210	-3.218876
29	0xc04e0210	-3.218876
30	0xc04e0210	-3.218876
31	0xc04e0210	-3.218876
32	0xc04e0210	-3.218876
33	0xc04e0210	-3.218876
34	0xc04e0210	-3.218876
35	0xc04e0210	-3.218876
36	0xc04e0210	-3.218876
37	0xc04e0210	-3.218876
38	0xc04e0210	-3.218876
39	0xc06f46ab	-3.7386882
40	0xc04e0210	-3.218876
41	0xc04e0210	-3.218876
42	0xc058926a	-3.3839364
43	0xc04e0210	-3.218876
44	0xc04e0210	-3.218876
45	0xc04e0210	-3.218876
46	0xc04e0210	-3.218876
47	0xc04e0210	-3.218876
48	0xc04f93ae	-3.2433887
49	0xc04e0210	-3.218876
50	0xc04e0210	-3.218876
51	0xc04e0210	-3.218876
52	0xc04e0210	-3.218876
53	0xc04e0210	-3.218876
54	0xc04e0210	-3.218876
55	0xc04e0210	-3.218876
56	0xc064f8e2	-3.5776906
57	0xc04e0210	-3.218876
58	0xc04e0210	-3.218876
59	0xc04e0210	-3.218876
60	0xc04e0210	-3.218876
61	0xc04e0210	-3.218876
62	0xc04e0210	-3.218876
63	0xc04e0210	-3.218876
64	0xc04e0210	-3.218876
65	0xc04e0210	-3.218876
66	0xc04e0210	-3.218876
67	0xc04e0210	-3.218876
68	0xc04e0210	-3.218876
69	0xc04e0210	-3.218876
70	0xc04e0210	-3.218876
71	0xc04e0210	-3.218876
72	0xc04e0210	-3.218876
73	0xc04e0210	-3.218876
74	0xc04e0210	-3.218876
75	0xc04e0210	-3.218876
76	0xc04e0210	-3.218876
77	0xc04e0210	-3.218876
78	0xc04e0210	-3.218876
79	0xc04e0210	-3.218876
80	0xc04e0210	-3.218876
81	0xc04e0210	-3.218876
82	0xc04e0210	-3.218876
83	0xc04e0210	-3.218876
84	0xc04e0210	-3.218876
85	0xc04e0210	-3.218876
86	0xc04e0210	-3.218876
87	0xc04e0210	-3.218876
88	0xc04e0210	-3.218876
89	0xc04e0210	-3.218876
90	0xc04e0210	-3.218876
91	0xc04e0210	-3.218876
92	0xc04e0210	-3.218876
93	0xc04e0210	-3.218876
94	0xc04e0210	-3.218876
95	0xc04e0210	-3.218876
96	0xc04e0210	-3.218876
97	0xc0763311	-3.8468668
98	0xc04e0210	-3.218876
99	0xc0683c5e	-3.6286845
100	0xc04e0210	-3.218876
101	0xc05ff346	-3.4992232
102	0xc04e0210	-3.218876
103	0xc04e0210	-3.218876
104	0xc060bf29	-3.5116675
105	0xc04e0210	-3.218876
106	0xc04e0210	-3.218876
107	0xc04e0210	-3.218876
108	0xc04e0210	-3.218876
109	0xc04e0210	-3.218876
110	0xc04e0210	-3.218876
111	0xc04e0210	-3.218876
112	0xc04e0210	-3.218876
113	0xc04e0210	-3.218876
114	0xc04e0210	-3.218876
115	0xc04e0210	-3.218876
116	0xc04e0210	-3.218876
117	0xc04e0210	-3.218876
118	0xc04e0210	-3.218876
119	0xc04e0210	-3.218876
120	0xc04e0210	-3.218876
121	0xc04e0210	-3.218876
122	0xc04e0210	-3.218876
123	0xc04e05eb	-3.2191112
124	0xc04f86c1	-3.2425997
125	0xc04e0210	-3.218876
126	0xc04e0210	-3.218876
127	0xc04e0210	-3.218876

z_mu f4 [128]
0	0xbbad38fe	-0.005286335
1	0x39b2eaf2	0.00034125854
2	0xb8238166	-3.898274e-05
3	0xbac38ebc	-0.0014919857
4	0xbb86a5c6	-0.004109117
5	0x3fc0ec36	1.5072086
6	0xb99d2e7b	-0.00029980004
7	0x3f491cbd	0.78559476
8	0xb87bee92	-6.006525e-05
9	0x3a1686c4	0.00057421275
10	0x395fb7aa	0.00021335357
11	0xb9bcc0c2	-0.0003600177
12	0x3a84b189	0.001012371
13	0x3c00a6ae	0.0078522395
14	0x3f5bca1d	0.85855275
15	0xbaf0d456	-0.0018373828
16	0xb7adfe5b	-2.074165e-05
17	0x39c78207	0.00038053116
18	0x3f51baf8	0.81925917
19	0x3ff90150	1.9453526
20	0xb90485da	-0.00012638365
21	0xbb090722	-0.0020908793
22	0xbb452a70	-0.003008511
23	0x3f90a800	1.130127
24	0xb91f3542	-0.00015183262
25	0xbbc0e34d	-0.0058864714
26	0xb83e36af	-4.5350458e-05
27	0x3a38010c	0.0007019199
28	0x376c39dc	1.4080168e-05
29	0xb80fda80	-3.429735e-05
30	0x384e3bde	4.9169983e-05
31	0xbb86418f	-0.0040971707
32	0x382ec528	4.166845e-05
33	0xb9d246a4	-0.00040106953
34	0xbb0c41b3	-0.0021401464
35	0xb9759e20	-0.00023423927
36	0x3bafe1ad	0.005367479
37	0xb980b3bb	-0.00024547972
38	0x3b8b260b	0.0042464784
39	0x3fa586cd	1.2931763
40	0x38313df6	4.2257794e-05
41	0xb9a80bcc	-0.00032052246
42	0x3fbcbb2c	1.474462
43	0x3a0454b2	0.0005048021
44	0x3a74c5cb	0.0009337335
45	0x3a49aa3e	0.00076929096
46	0xb720414d	-9.551947e-06
47	0x3961b025	0.00021523291
48	0x3fabc105	1.341828
49	0x371dd2d2	9.407015e-06
50	0x3ab30e56	0.0013660889
51	0xb9243c16	-0.00015662643
52	0xb89bdbe5	-7.4319345e-05
53	0xb8aeb81a	-8.331258e-05
54	0x39e06930	0.0004280298
55	0xb9ad3e14	-0.00033043383
56	0x3fd40fc4	1.6567311
57	0xb8651a93	-5.4622604e-05
58	0x3f1a434f	0.60258955
59	0x3b1b66d3	0.002371241
60	0x38da0920	0.0001039675
61	0xb84dfc69	-4.9110884e-05
62	0xb7f4bc95	-2.9174882e-05
63	0xbc2482b3	-0.010040927
64	0x388b88b0	6.6534965e-05
65	0x3b6abfec	0.003581996
66	0xb8b5f3a3	-8.6761334e-05
67	0x3c098535	0.008393575
68	0x3fa13b78	1.2596273
69	0xb8386cd5	-4.3970376e-05
70	0x374dae43	1.2259526e-05
71	0xb8944304	-7.0696726e-05
72	0x3787db7a	1.6195456e-05
73	0xb8af8a89	-8.3704545e-05
74	0xb74708ac	-1.1863343e-05
75	0x3b065c97	0.0020501965
76	0x3b74bcc0	0.003734395
77	0xb8c48de4	-9.3724375e-05
78	0xb8fe7c93	-0.000121348676
79	0xb847a294	-4.759671e-05
80	0xb8ac07ae	-8.2030296e-05
81	0x3a2c2d20	0.00065680034
82	0xb8b33693	-8.5455504e-05
83	0x383b4fba	4.4658525e-05
84	0x3b2f546a	0.0026753196
85	0x3f48984d	0.7835739
86	0xbaf0e225	-0.0018377943
87	0x380be431	3.3352702e-05
88	0x3f88dd22	1.0692484
89	0x3bbfaa73	0.0058491766
90	0xb9e0bc7e	-0.00042865047
91	0x38d78b3c	0.00010277933
92	0xba12e891	-0.0005604113
93	0x3ed1e028	0.4099133
94	0xb9c3ec47	-0.0003736934
95	0xbabc2df1	-0.0014356953
96	0x3c5e87ad	0.013582152
97	0x3f51b3dc	0.8191507
98	0x391e4818	0.00015094911
99	0x3f8e7e6d	1.1132332
100	0xb9ea17e9	-0.00044649772
101	0x3f9d0eca	1.2270138
102	0x3b2a636e	0.0025999206
103	0xb901c1b8	-0.00012374565
104	0x3fbc24db	1.4698747
105	0xbaac3cfc	-0.0013140733
106	0xb84560b4	-4.7058522e-05
107	0xbb928036	-0.0044708503
108	0x399f8e65	0.00030432935
109	0xbb6581fb	-0.0035020101
110	0xbc860a87	-0.016362442
111	0xb734b5c3	-1.0771156e-05
112	0xbb192f12	-0.0023374003
113	0x3b5b2c6f	0.0033443233
114	0xbad5e4fd	-0.0016318854
115	0xba282b10	-0.0006415108
116	0xb96f27f7	-0.00022807704
117	0xba895d74	-0.0010480122
118	0x3893a710	7.040624e-05
119	0x387ecf53	6.0751405e-05
120	0x3a0968cd	0.0005241752
121	0x38bfb202	9.140746e-05
122	0xbb288628	-0.002571473
123	0x3f95ebd4	1.1712594
124	0x3fa1f069	1.2651492
125	0x39423c99	0.00018523856
126	0xb992bb46	-0.0002798682
127	0x3a04e25d	0.0005069131

z_logvar f4 [128]
0	0xc00aaf6d	-2.1669571
1	0xc102436a	-8.1414585
2	0xc1220b99	-10.127831
3	0xc07a7db8	-3.9139233
4	0xc0b2f686	-5.592593
5	0xc005876b	-2.0863903
6	0xc0a96da8	-5.294636
7	0xbfe52bbf	-1.7903975
8	0xc1232ddb	-10.198695
9	0xc1052142	-8.32062
10	0xc107c643	-8.485904
11	0xc109e7a6	-8.619055
12	0xc083c334	-4.1175785
13	0xc00554a7	-2.0832918
14	0xbfd93b62	-1.6971247
15	0xc0ba5a8c	-5.823553
16	0xc112f10a	-9.183847
17	0xc0f99e8c	-7.800604
18	0xc0a41846	-5.127963
19	0xc02cc60a	-2.6995873
20	0xc0a04b90	-5.009224
21	0xc07a8f93	-3.915013
22	0xc08e572c	-4.448141
23	0xbfc78061	-1.5586053
24	0xc10363ff	-8.211913
25	0xc09f1c74	-4.9722233
26	0xc1194811	-9.580094
27	0xc0cdaab3	-6.4270873
28	0xc1243c4d	-10.264722
29	0xc12286ba	-10.157892
30	0xc1236e1b	-10.214381
31	0xc0a896e7	-5.2684207
32	0xc11b5d7b	-9.710322
33	0xc0e69b33	-7.206445
34	0xc050aa7a	-3.260405
35	0xc0806197	-4.011913
36	0xc07b5735	-3.9271977
37	0xc0ff5e00	-7.9802246
38	0xc0959d80	-4.675476
39	0xc021fb21	-2.5309527
40	0xc123d230	-10.238815
41	0xc1032ede	-8.198942
42	0xbfed6b64	-1.8548398
43	0xc112b332	-9.168749
44	0xc019dd7c	-2.4041433
45	0xc0cf3932	-6.475732
46	0xc1153502	-9.325441
47	0xc0e10c04	-7.0327168
48	0xbff62a6c	-1.9231696
49	0xc0d2d604	-6.588625
50	0xc0a70bee	-5.2202063
51	0xc10d3ea5	-8.827794
52	0xc10e8128	-8.906532
53	0xc1251926	-10.31864
54	0xc1038dfc	-8.222164
55	0xc0ff856b	-7.9850364
56	0xc008722b	-2.1319683
57	0xc0b1bb79	-5.554135
58	0xc020fb19	-2.5153258
59	0xc03991b6	-2.8995185
60	0xc1218482	-10.094851
61	0xc12336a9	-10.200845
62	0xc11dcfd9	-9.863244
63	0xc0205855	-2.5053914
64	0xc12119be	-10.068785
65	0xc08eea8b	-4.4661307
66	0xc121dd33	-10.116504
67	0xc04921c0	-3.142685
68	0xbfc720d1	-1.555689
69	0xc123f684	-10.2476845
70	0xc11d88b3	-9.845874
71	0xc11fcc7b	-9.987422
72	0xc1220c23	-10.127963
73	0xc1233f0b	-10.202891
74	0xc1236609	-10.212411
75	0xc03317d7	-2.79833
76	0xc06411b9	-3.5635817
77	0xc1243da5	-10.26505
78	0xc0e1841f	-7.047378
79	0xc10d50b2	-8.832201
80	0xc11de7a9	-9.869058
81	0xc0f83e94	-7.757639
82	0xc1253b80	-10.327026
83	0xc11c8815	-9.783223
84	0xc04d268d	-3.205478
85	0xbfce5e47	-1.6122521
86	0xc09cd32e	-4.900779
87	0xc114e24c	-9.305248
88	0xbf891dda	-1.0712235
89	0xc090895f	-4.516769
90	0xc1109a09	-9.037606
91	0xc124804e	-10.281324
92	0xc0f46f98	-7.6386223
93	0xbfd1cabc	-1.6389995
94	0xc1058f77	-8.347526
95	0xc0c6a4ca	-6.207616
96	0xbfca4d30	-1.5804806
97	0xc0ac6854	-5.3877354
98	0xc11184c1	-9.094911
99	0xc01bc13f	-2.4336698
100	0xc101a53a	-8.1028385
101	0xc013fe0c	-2.3123808
102	0xc0a3f236	-5.123317
103	0xc10a20fb	-8.633052
104	0xc02eb6f0	-2.7299156
105	0xc088048b	-4.2505546
106	0xc1215ca8	-10.085121
107	0xc0315e86	-2.7713943
108	0xc0fd762f	-7.9206767
109	0xc08a37d2	-4.319314
110	0xc049a0b8	-3.1504345
111	0xc124fbc5	-10.311467
112	0xc0959433	-4.6743407
113	0xc08ef248	-4.4670753
114	0xc0b86868	-5.762745
115	0xc0d82912	-6.7550135
116	0xc10a7a1b	-8.654811
117	0xc0d89943	-6.7687087
118	0xc120e6fa	-10.056391
119	0xc122bec7	-10.1715765
120	0xc1178c03	-9.471683
121	0xc11fd172	-9.988634
122	0xc0728616	-3.789434
123	0xbfb2a280	-1.3955841
124	0xbfd21ef2	-1.6415694
125	0xc1033aec	-8.201885
126	0xc1184816	-9.517599
127	0xc1157f2c	-9.343548

weight_mu f4 [2, 128]
0	0x3b85a07f	0.0040779705
1	0xbbb6d6e9	-0.0055798185
2	0x3c3346ba	0.0109421555
3	0xbbb5a018	-0.0055427663
4	0xba84ffb6	-0.0010147009
5	0xbf7701df	-0.9648723
6	0x3baac81b	0.0052118427
7	0xbf4fb989	-0.8114248
8	0x3bbe9cf2	0.005817049
9	0xbd1a5bd8	-0.037685245
10	0xbaeb202f	-0.0017938669
11	0x3c9c2e58	0.019065067
12	0xbbcea5f1	-0.006306403
13	0x3b9d832b	0.004806896
14	0xbf5fa10b	-0.8735511
15	0x3c402a35	0.011728813
16	0x3a97fafa	0.0011595183
17	0x3d06f485	0.032948036
18	0x3f24127a	0.64090693
19	0xbf960f78	-1.1723471
20	0x3c5a120c	0.013309967
21	0x3c4c4e72	0.012469875
22	0xbd3b0c88	-0.045666248
23	0xbf5974f8	-0.84944105
24	0xbaa2c2b8	-0.001241765
25	0xbcda52a4	-0.026650734
26	0x3b02d970	0.0019966029
27	0x3cae4bc6	0.021276366
28	0xbaae0d97	-0.0013279197
29	0x3b2a7937	0.002601219
30	0xbbdbef54	-0.0067118797
31	0x3c798542	0.015229525
32	0x3be25563	0.0069071515
33	0x3bd308da	0.006440264
34	0xbc74ee9f	-0.01494947
35	0x3e089119	0.133366
36	0x3c4ac89c	0.012376931
37	0x3c065b0f	0.008200421
38	0xbc504e64	-0.012714002
39	0xbf730c7d	-0.9494093
40	0xbb6100b1	-0.0034332688
41	0xbb4d8137	-0.0031357536
42	0xbf82af41	-1.0209733
43	0x38021c23	3.102062e-05
44	0x3ccd52de	0.025063928
45	0xbc5d39f9	-0.013502591
46	0xbbf4f088	-0.0074749626
47	0x39e87f48	0.0004434532
48	0xbf69e11f	-0.9135913
49	0xbaec6b34	-0.001803732
50	0x3c53d588	0.012929328
51	0x39b51740	0.00034540333
52	0x3b8b108d	0.0042439164
53	0x3b2514a4	0.0025189305
54	0xbcd1c81c	-0.025608115
55	0x3c3a3092	0.011364119
56	0xbf77b001	-0.96752936
57	0x3c8cfbe4	0.017209955
58	0xbf3f687d	-0.7476881
59	0x3d49b1cc	0.049241826
60	0x3aa84331	0.0012837407
61	0x3b015e0a	0.001973989
62	0xbba803ae	-0.005127392
63	0xbd0e233a	-0.034701563
64	0x3c4a6a56	0.012354454
65	0xbc2aeeb0	-0.010432884
66	0x3c9c50ef	0.01908156
67	0xbcae0762	-0.021243755
68	0xbf67e98c	-0.9059074
69	0x3bb8d5ae	0.005640707
70	0x3b0cea98	0.0021502133
71	0x3c517a31	0.01278548
72	0x39b6c392	0.00034859456
73	0x3a978dcf	0.0011562648
74	0xbbff13fc	-0.0077843647
75	0xbc084e92	-0.008319514
76	0xbd354b2d	-0.044261146
77	0xbb98a4cc	-0.004658317
78	0x3bec5539	0.007212308
79	0x3cb22a1b	0.021748593
80	0x3c5ff9ff	0.013670444
81	0x3aecf6d7	0.0018078935
82	0x3b11b911	0.0022235552
83	0x3c5481e2	0.01297042
84	0x3b18af19	0.0023297726
85	0xbf4551d5	-0.7707799
86	0xbc710fd0	-0.014713243
87	0xbc645dbe	-0.0139383655
88	0xbf441c67	-0.7660584
89	0xbc871815	-0.016490975
90	0xb9ad1f97	-0.00033020668
91	0xba387938	-0.0007037106
92	0xbc93408c	-0.017975114
93	0xbf084be1	-0.5324078
94	0xb9cb0181	-0.00038720298
95	0xbc163030	-0.009166762
96	0xbcc17054	-0.023613133
97	0x3f1ddd59	0.61665875
98	0xbc274f11	-0.010211722
99	0xbf664d1c	-0.8996141
100	0xbba94b69	-0.0051664603
101	0xbf74afd6	-0.95580804
102	0xbbfea6ec	-0.0077713635
103	0xbb83045e	-0.0039983233
104	0xbf5b490d	-0.8565834
105	0xbcc91fee	-0.024551358
106	0x3a2c44f4	0.0006571554
107	0xbbaf47e7	-0.0053491476
108	0xbc790084	-0.015197877
109	0xbc0ac0ea	-0.008468846
110	0x3ccf7839	0.025325881
111	0x3bb0c677	0.0053947526
112	0x3d11791c	0.03551589
113	0xbcd36b0f	-0.025807885
114	0x3ba817ca	0.005129789
115	0x3bfdc567	0.0077444795
116	0x3b899e52	0.0041997815
117	0xb98a71b1	-0.00026406118
118	0xbb4aa9a7	-0.0030923875
119	0x3c90b1cf	0.01766291
120	0x3c6de1cd	0.014519167
121	0x3b7f1e4b	0.0038927968
122	0x3c0152d3	0.007893282
123	0xbf605d64	-0.876425
124	0xbf7561e6	-0.95852506
125	0xbbee5d8b	-0.007274335
126	0xbb2f71f2	-0.0026770798
127	0x3c34bc85	0.011031275
128	0x3bc357e2	0.005961404
129	0x3b507b4d	0.0031811774
130	0xbc1f5bd1	-0.009726481
131	0x3c319f13	0.010841149
132	0x3b644e84	0.0034836838
133	0x3f75adff	0.9596862
134	0xbb086c20	-0.00208164
135	0x3f4d8dcc	0.8029449
136	0x38cd23b5	9.781813e-05
137	0x3d159c34	0.03652592
138	0xba1f7ec5	-0.0006084259
139	0xbcbe5d99	-0.02323799
140	0x37d1faf3	2.5031599e-05
141	0xbabdae9e	-0.0014471596
142	0x3f5f9ef3	0.8735191
143	0xbc736aa2	-0.014856966
144	0x3b768ae7	0.0037619413
145	0xbd045815	-0.032310564
146	0xbf21a4ba	-0.6314198
147	0x3f97aaa7	1.1848954
148	0xbc88de42	-0.016707543
149	0xbc78f168	-0.0151942745
150	0x3d28ef77	0.041243996
151	0x3f596705	0.8492282
152	0x3ae817b1	0.0017707256
153	0x3cc2b630	0.023768514
154	0xbbca09ee	-0.0061657345
155	0xbc9e4a52	-0.019322548
156	0xb9e31ac6	-0.00043316762
157	0xbb55b1f3	-0.0032607287
158	0x3b3941fa	0.0028268085
159	0xbc0607be	-0.008180557
160	0xbbe14bf4	-0.0068755094
161	0xbb448e78	-0.0029992145
162	0x3c336cdc	0.010951247
163	0xbe001a42	-0.12510017
164	0xbc87beb2	-0.016570423
165	0xbbe3f61f	-0.00695683
166	0x3cb7957b	0.022410145
167	0x3f72af71	0.9479895
168	0x3b57f9e0	0.0032955334
169	0x3b5f5d91	0.003408287
170	0x3f827fa6	1.0195205
171	0x3b737342	0.0037147556
172	0xbcbf2ba6	-0.023336243
173	0x3b3cf332	0.002883148
174	0x3bd46e2f	0.0064828615
175	0x3b8ee440	0.0043607056
176	0x3f6cab71	0.924491
177	0xbb40b4d6	-0.0029404662
178	0xbc435fd1	-0.0119247
179	0x3b15e0ec	0.002286966
180	0xbc00ff61	-0.007873387
181	0xbb03c008	-0.0020103473
182	0x3cc764f7	0.024340136
183	0xbc5844d0	-0.0132
184	0x3f796e42	0.97433865
185	0xbc81d5b8	-0.01584898
186	0x3f3ec2a9	0.7451578
187	0xbd21a41a	-0.03946314
188	0xbaa32706	-0.0012447543
189	0x3ab0d758	0.0013491912
190	0x3b0d77b6	0.0021586246
191	0x3d17cfde	0.037063472
192	0xbc3ea731	-0.011636541
193	0x3bc3ac92	0.0059714997
194	0xbc7aa62d	-0.015298408
195	0x3c958cf7	0.018255694
196	0x3f66a929	0.9010187
197	0xbbcfe29c	-0.0063441526
198	0x3b480f57	0.0030526721
199	0xbc28c056	-0.010299763
200	0x3a0b75ac	0.00053199637
201	0xbb12a53f	-0.0022376326
202	0x3bf122ea	0.0073588984
203	0x3c0354eb	0.0080158515
204	0x3d54e01b	0.051971536
205	0x3b7b5d25	0.003835508
206	0xbc249c31	-0.010047005
207	0xbc8fdcc6	-0.017561328
208	0xbc37dffe	-0.0112228375
209	0x3ba5b88e	0.005057401
210	0xbb88c49c	-0.0041738283
211	0xbc3408ea	-0.010988453
212	0xbae7cc00	-0.0017684698
213	0x3f44eab3	0.7692062
214	0x3c5d2d29	0.013499537
215	0x3c4c8f41	0.012485326
216	0x3f428d0d	0.75996476
217	0x3cd51740	0.026012063
218	0x3b241eb2	0.002504271
219	0xbb3d25d9	-0.002886167
220	0x3c6acf23	0.014331612
221	0x3f0eaa77	0.5572886
222	0xb8f3d548	-0.0001162687
223	0x3c126388	0.008934863
224	0x3d104a86	0.03522732
225	0xbf1dcc2a	-0.61639655
226	0x3c305f58	0.010764919
227	0x3f680043	0.906254
228	0x3be3b59c	0.0069491398
229	0x3f71dd66	0.9447845
230	0x3b9b66d7	0.004742484
231	0x3a2a8b59	0.000650575
232	0x3f5e462f	0.8682584
233	0x3cff83dd	0.031190807
234	0xbaaac591	-0.001302885
235	0x3c219ea1	0.00986448
236	0x3c9173c7	0.017755402
237	0x3b9f450d	0.0048605264
238	0xbcd9cbc2	-0.026586417
239	0xbbb7ae28	-0.005605478
240	0xbcd70fb2	-0.026252601
241	0x3cf660ce	0.030075457
242	0xbb8f065d	-0.0043647722
243	0xbb238dc9	-0.0024956337
244	0xbbdd62f0	-0.006756179
245	0xbb949535	-0.0045343884
246	0x39a76e73	0.00031935013
247	0xbca64224	-0.02029521
248	0xbc75783a	-0.0149822775
249	0xbbbf3d76	-0.005836184
250	0xbc015298	-0.007893227
251	0x3f64a50f	0.8931436
252	0x3f7ba977	0.9830546
253	0x3c0802b2	0.008301424
254	0x3a96c718	0.0011503426
255	0xbba61a40	-0.005069047
