metric/3_7_probe_cifar100_retrain_adam_3_seed0.pth (torch, 539777 bytes, 12 tensors)

z_mu f4 [512]
0.6831691 0.0006250251 0.0021573661 -0.00014443698 0.6727808 -0.0011639263 -0.00072683685 0.8622471
0.00019253007 3.7265254e-05 0.00020619422 0.00017413053 0.00041975896 0.85590225 0.0001401353 -1.3179492e-05
-0.00018080077 -8.056665e-05 0.00036767873 1.2275258 0.0027396432 0.00017117377 -0.000111805835 0.00019790448
0.00032222702 0.00034499902 0.26018915 0.79806197 -1.1071259e-05 0.0006562063 0.00040735828 -1.7247736e-05
-0.00038302716 0.00028111238 -0.0011854112 -0.00026681923 -0.00026018437 9.2841285e-05 8.259412e-05 0.00031400166
-6.075411e-05 -2.3996063e-05 0.00020966264 0.76399416 -0.00036225887 0.70961964 -0.00012614056 -0.00029510673
-0.00016193035 8.6511856e-05 -0.00011352104 7.191563e-05 0.00028390784 0.72141814 -7.602478e-05 0.00016126233
-0.0032630933 -1.7743978e-05 4.938526e-05 0.00023456303 -9.735799e-06 -0.00011057617 0.0006490773 0.34934384
6.368235e-05 -0.0007096578 4.672238e-05 0.403689 0.00027956927 8.0600024e-05 0.0007306911 0.0004965545
-0.000119079676 -4.4994602e-05 -0.00019468462 0.0056723603 0.00022286037 0.005556479 0.00071145926 -0.00010257344
0.00010004566 -7.787404e-05 -0.00035039274 0.00021278158 0.7732025 -0.000112773334 -0.00037290304 0.019492447
0.0010837596 -0.0003248788 0.0014869012 0.77405643 0.0002543443 0.00013275223 -0.00031250218 0.00021662928
0.0002952708 -0.00024668733 0.06288356 0.00078092783 0.0029444934 -0.00017070117 -0.00017402871 0.010683554
1.012781e-05 0.0003731388 0.00064418785 6.262478e-05 -0.00052446185 0.00012237612 0.00019531195 0.0001891925
0.72596514 -0.00056658976 0.0020082917 0.00019527313 -0.00028594246 0.00021525059 -3.7226244e-05 5.682944e-05
3.5133115e-05 4.354838e-06 7.904812e-06 0.0001985109 0.0052456693 0.00034879436 0.76226085 -0.00025700303
0.011779194 -0.00028080939 -0.00025003077 0.0002863867 -0.0012136623 6.6865623e-06 0.22919774 -0.0001533405
-0.001141987 4.2257754e-05 -0.00021394758 0.49037895 -0.0005151723 0.0029225927 2.4014545e-05 0.00011025497
0.0001031942 -0.00021554183 -0.0006429274 1.1274214e-05 -0.0004947051 -7.728638e-05 -0.0008233737 2.7992433e-05
-0.0006872947 -0.0004948235 -0.00033581548 0.00055312994 0.0013609474 -0.00021368907 4.1247724e-05 -0.000161437
0.00020256876 8.0886646e-05 0.0010085352 1.2859867e-05 0.00020543081 0.00025034865 -8.3320716e-05 0.0001261416
0.000118066186 1.3687344 0.0010619232 0.00018100528 7.8537596e-05 2.6642316e-05 -0.00012818586 -0.00071044115
0.0003882623 0.00021632492 -0.00079141615 -7.635497e-05 -7.485801e-05 0.5799086 -0.0012865894 0.00053980114
-0.00025118192 0.6746962 -0.0003380188 0.00016189454 -0.0003392609 0.00057878025 -0.00017932776 -8.436553e-05
-0.0010530606 7.069339e-05 -0.00030540736 -0.0002391251 6.150152e-05 0.41270357 -0.00012625768 0.0029731265
0.00014897414 0.78416914 0.85614663 2.884344e-05 -0.0001338861 0.00012336542 -5.282911e-05 0.71266586
-0.002971804 0.00030822586 -0.00013472102 8.1467006e-05 -7.551757e-05 -0.00042567783 0.39406693 3.121395e-05
0.0012032542 -2.4776504e-05 -0.00020461749 0.04447901 0.00041760417 0.00013339451 0.00014525463 0.00037824613
0.016839616 0.06524261 0.0001401944 0.00018621788 -0.0043364293 1.2281555 0.0009599693 0.00030258714
0.0003823103 0.8096318 -0.00024805352 -0.00042108705 0.0003491159 0.00012487032 0.000765667 0.00017293189
-0.0006824111 -8.873351e-05 -0.012342636 0.0002250817 -0.00021960663 -0.00047562062 0.00011649494 0.606563
9.419438e-05 0.0002750689 0.07626635 -0.00013221688 2.0702193e-05 -0.00023499444 -0.00022845995 0.00024750357
00000000: 2ce4 2e3f b9d8 233a 9962 0d3b 0274 17b9
00000010: 5d3b 2c3f e38e 98ba 3289 3eba 3abc 5c3f
00000020: e6e1 4939 434d 1c38 d735 5839 cf96 3639
00000030: 1813 dc39 691c 5b3f 48f1 1239 7d1d 5db7
00000040: 5695 3db9 e4f5 a8b8 01c5 c039 911f 9d3f
00000050: 968b 333b 1c7d 3339 4d79 eab8 9484 4f39
00000060: 94f0 a839 fce0 b439 8337 853e ca4d 4c3f
00000070: b2be 39b7 4205 2c3a b492 d539 3baf 90b7
00000080: 09d1 c8b9 4462 9339 cd5f 9bba dfe3 8bb9
00000090: 5b69 88b9 c9b3 c238 6136 ad38 97a0 a439
000000a0: 3bd2 7eb8 274b c9b7 e3d8 5b39 1f95 433f
000000b0: 90ed bdb9 a2a9 353f 9944 04b9 8eb8 9ab9
000000c0: d9cb 29b9 b36d b538 2512 eeb8 69d1 9638
000000d0: 77d9 9439 dcae 383f 7e6f 9fb8 8718 2939
000000e0: 9fd9 55bb e7d8 94b7 0523 4f38 09f5 7539
000000f0: f056 23b7 21e5 e7b8 d726 2a3a 32dd b23e
00000100: 348d 8538 5408 3aba c6f7 4338 53b0 ce3e
00000110: 2793 9239 cf07 a938 da8b 3f3a 352b 023a
00000120: 6aba f9b8 96b8 3cb8 4124 4cb9 35df b93b
00000130: a0af 6939 2013 b63b 3981 3a3a b21c d7b8
00000140: 9bcf d138 4f50 a3b8 ebb4 b7b9 1f1e 5f39
00000150: 99f0 453f b980 ecb8 3382 c3b9 a0ae 9f3c
00000160: f00c 8e3a 7f54 aab9 20e4 c23a 9028 463f
00000170: 8459 8539 6833 0b39 55d7 a3b9 fb26 6339
00000180: 93ce 9a39 d055 81b9 19c9 803d 2eb7 4c3a
00000190: 67f8 403b 3ffe 32b9 7a7b 36b9 130a 2f3c
000001a0: 9dea 2937 d8a1 c339 b7de 283a 6c55 8338
000001b0: 0a7c 09ba 1752 0039 a7cc 4c39 fa61 4639
000001c0: dad8 393f 3287 14ba 8b9d 033b 3bc2 4c39
000001d0: 8cea 95b9 e4b4 6139 6023 1cb8 265c 6e38
000001e0: e55b 1338 c61f 9236 e99e 0437 5d27 5039
000001f0: dde3 ab3b 63de b639 8723 433f 5dbe 86b9
00000200: 85fd 403c 9939 93b9 9016 83b9 2c26 9639
00000210: c013 9fba 225d e036 d0b2 6a3e 07ca 20b9
00000220: baae 95ba eb3d 3138 1e57 60b9 f312 fb3e
00000230: a10c 07ba f888 3f3b d872 c937 b038 e738
00000240: f769 d838 1203 62b9 218a 28ba 6126 3d37
00000250: 19af 01ba cf14 a2b8 acd7 57ba 4bd1 ea37
00000260: 912b 34ba 0bb7 01ba 6410 b0b9 ecff 103a
00000270: d161 b23a b911 60b9 6801 2d38 6a47 29b9
00000280: a368 5439 b0a1 a938 d330 843a b5c0 5737
00000290: ea68 5739 3a41 8339 78bc aeb8 e144 0439
000002a0: 4d9a f738 b032 af3f 3b30 8b3a 3ccc 3d39
000002b0: 8db4 a438 f07d df37 a169 06b9 e63c 3aba
000002c0: af8f cb39 47d5 6239 0a77 4fba c320 a0b8
000002d0: 17fd 9cb8 e474 143f c7a2 a8ba 7181 0d3a
000002e0: 11b1 83b9 e4b8 2c3f 1e38 b1b9 3cc2 2939
000002f0: d4de b1b9 49b9 173a ee09 3cb9 66ed b0b8
00000300: da06 8aba 3a41 9438 151f a0b9 a8bd 7ab9
00000310: 61fa 8038 e24d d33e 0a64 04b9 c9d8 423b
00000320: f135 1c39 4fbf 483f 6d2c 5b3f d1f4 f137
00000330: c763 0cb9 a75b 0139 d394 5db8 4571 363f
00000340: 99c2 42bb 6099 a139 e643 0db9 44d9 aa38
00000350: 305f 9eb8 832d dfb9 24c3 c93e b9eb 0238
00000360: 83b6 9d3a 23d7 cfb7 978e 56b9 9f2f 363d
00000370: e2f1 da39 d1df 0b39 7e4f 1839 564f c639
00000380: 3cf3 893c eb9d 853d 2601 1339 7b43 4339
00000390: 9b18 8ebb 3334 9d3f 73a6 7b3a 8fa4 9e39
000003a0: d270 c839 0844 4f3f 2e0d 82b9 59c5 dcb9
000003b0: 8b09 b739 9fef 0239 0bb7 483a 0d55 3539
000003c0: d5e3 32ba 7116 bab8 c438 4abc e903 6c39
000003d0: 3546 66b9 b85c f9b9 bf4e f438 b647 1b3f
000003e0: 398a c538 1f37 9039 8831 9c3d b3a3 0ab9
000003f0: 9fa9 ad37 d768 76b9 c08e 6fb9 5ec3 8139

z_logvar f4 [512]
-3.1185524 -7.4227424 -5.0118465 -8.188123 -2.8047135 -6.9831243 -8.114686 -3.700128
-7.016029 -7.9945226 -7.552574 -7.9911 -6.91026 -3.9036336 -7.0508437 -8.160863
-7.1194935 -8.112164 -8.222059 -3.098451 -5.0297027 -7.4172873 -7.1939135 -8.231451
-7.060392 -7.1547165 -3.4946773 -3.0416808 -8.162655 -6.4360905 -7.019467 -6.5136685
-7.2688622 -7.954504 -3.6625004 -8.43689 -8.463867 -7.924832 -7.4015107 -7.823625
-8.599175 -6.764195 -7.901673 -2.4569368 -7.9749894 -3.1082602 -6.92487 -7.8244724
-7.998612 -8.2893915 -7.4163647 -7.918535 -8.204386 -2.9374013 -7.0407767 -7.679756
-5.5609336 -8.385176 -7.3702407 -7.694532 -7.543559 -8.27815 -7.5505004 -2.4064975
-8.265297 -6.2296505 -8.27188 -3.8380218 -7.858858 -7.3866343 -7.949213 -7.2196064
-8.391214 -8.203339 -6.613298 -5.1443167 -8.3928385 -3.8009973 -6.552151 -7.7224183
-7.7444463 -8.252998 -7.346043 -5.9234753 -2.9942174 -6.7415867 -7.6901884 -3.2290213
-7.719914 -7.4315133 -4.965114 -3.2923698 -7.973832 -8.11185 -7.5850196 -8.098921
-6.910524 -8.539007 -2.9431193 -7.018685 -6.070147 -7.7397914 -6.29071 -3.8324568
-8.26086 -8.000366 -7.5274167 -8.271256 -8.038766 -7.418648 -7.869291 -7.045298
-3.412166 -7.411412 -7.173577 -7.6097527 -6.760953 -8.1856365 -7.988915 -7.4259825
-7.509008 -7.9912834 -8.258143 -7.8796425 -4.6869693 -7.2035103 -2.9434164 -7.1183486
-4.458883 -6.51202 -8.400791 -7.5903726 -5.2029076 -8.247156 -3.128002 -8.083284
-7.2615714 -8.119199 -8.188364 -4.5120687 -6.940521 -6.36092 -7.53072 -8.247028
-7.9257293 -8.276273 -6.447887 -8.268325 -7.721025 -5.5945487 -7.400643 -8.350464
-8.072148 -6.9529147 -6.9133825 -6.358637 -6.0486183 -7.898726 -8.426098 -7.1235485
-5.9793468 -6.565032 -7.7415714 -7.8386636 -7.8971915 -7.9755917 -8.026475 -7.9441605
-8.336201 -3.7150457 -6.7862144 -7.464707 -6.774233 -8.31318 -7.9227047 -8.051136
-7.1554575 -7.934134 -4.997132 -8.549484 -7.9802155 -3.7727754 -7.951622 -7.869572
-8.146711 -3.4127314 -8.40268 -8.166349 -4.7263317 -7.381759 -7.79612 -8.208612
-6.0512886 -7.938558 -7.9970813 -7.8135595 -7.8382473 -2.3814666 -8.018837 -4.07678
-6.56664 -3.6646464 -3.1993077 -8.174187 -7.896416 -7.920012 -8.171949 -3.2587495
-4.7554655 -8.38251 -8.424684 -8.39144 -6.643139 -8.263765 -4.7642736 -8.242155
-7.533939 -7.081923 -7.603522 -3.7445805 -7.730758 -8.248476 -7.947847 -8.124336
-3.7534428 -4.004294 -7.8952503 -8.630822 -5.264975 -2.6647713 -5.053861 -7.773739
-7.6266074 -4.1817436 -7.6386337 -7.411351 -7.7935004 -7.745353 -8.124698 -8.071911
-7.968336 -7.2307105 -4.7585864 -8.0080805 -7.70314 -7.752358 -8.000509 -2.6726084
-8.326334 -7.5124106 -3.4071863 -7.497661 -8.037452 -8.067624 -7.4140296 -8.014597
00000000: 5d96 47c0 1b87 edc0 0c61 a0c0 8d02 03c1
00000010: 6d80 33c0 c175 dfc0 c1d5 01c1 e6ce 6cc0
00000020: 4f83 e0c0 21d3 ffc0 b0ae f1c0 17b7 ffc0
00000030: da20 ddc0 22d5 79c0 83a0 e1c0 e592 02c1
00000040: e4d2 e3c0 6ccb 01c1 8e8d 03c1 054d 46c0
00000050: 53f3 a0c0 6b5a edc0 8a34 e6c0 06b4 03c1
00000060: bbee e1c0 70f3 e4c0 cba8 5fc0 e6aa 42c0
00000070: 3c9a 02c1 74f4 cdc0 799f e0c0 f96f d0c0
00000080: 859a e8c0 4c8b fec0 6866 6ac0 80fd 06c1
00000090: 006c 07c1 3998 fdc0 2dd9 ecc0 235b fac0
000000a0: 3996 09c1 4974 d8c0 81da fcc0 743e 1dc0
000000b0: 1d33 ffc0 bced 46c0 8998 ddc0 1462 fac0
000000c0: a1f4 ffc0 59a1 04c1 dc52 edc0 a464 fdc0
000000d0: 2a45 03c1 62fe 3bc0 0b4e e1c0 90c0 f5c0
000000e0: 2bf3 b1c0 ae29 06c1 03d9 ebc0 9b39 f6c0
000000f0: d664 f1c0 4d73 04c1 b39d f1c0 0e04 1ac0
00000100: a83e 04c1 4c59 c7c0 9f59 04c1 26a2 75c0
00000110: c47b fbc0 4f5f ecc0 f45f fec0 0407 e7c0
00000120: 6a42 06c1 e040 03c1 23a0 d3c0 3e9e a4c0
00000130: 1149 06c1 8a43 73c0 39ab d1c0 0d1e f7c0
00000140: 81d2 f7c0 480c 04c1 c912 ebc0 1c8d bdc0
00000150: 42a1 3fc0 14bb d7c0 0616 f6c0 49a8 4ec0
00000160: 8909 f7c0 f5ce edc0 37e2 9ec0 30b6 52c0
00000170: a229 ffc0 23ca 01c1 7bb8 f2c0 2e95 01c1
00000180: 0323 ddc0 c69f 08c1 115c 3cc0 1199 e0c0
00000190: a53e c2c0 5fac f7c0 7f4d c9c0 f946 75c0
000001a0: 7c2c 04c1 8001 00c1 99e0 f0c0 1157 04c1
000001b0: c99e 00c1 9065 edc0 3bd1 fbc0 1573 e1c0
000001c0: ee60 5ac0 492a edc0 f18d e5c0 1883 f3c0
000001d0: ba59 d8c0 5ef8 02c1 31a5 ffc0 a6a1 edc0
000001e0: cb49 f0c0 98b8 ffc0 5b21 04c1 0826 fcc0
000001f0: a7fb 95c0 2883 e6c0 ef60 3cc0 83c9 e3c0
00000200: 2baf 8ec0 7862 d0c0 a469 06c1 55e4 f2c0
00000210: 387e a6c0 5af4 03c1 2f31 48c0 2255 01c1
00000220: cb5e e8c0 3de8 01c1 8a03 03c1 de62 90c0
00000230: bf18 dec0 a88c cbc0 a9fb f0c0 d4f3 03c1
00000240: 939f fdc0 9d6b 04c1 1755 cec0 0f4b 04c1
00000250: a312 f7c0 8b06 b3c0 11d2 ecc0 809b 05c1
00000260: 8527 01c1 477e dec0 6e3a ddc0 f479 cbc0
00000270: 488e c1c0 5dc2 fcc0 4cd1 06c1 1cf4 e3c0
00000280: cf56 bfc0 be14 d2c0 f4ba f7c0 55d6 fac0
00000290: cbb5 fcc0 0c38 ffc0 716c 00c1 9036 fec0
000002a0: 1461 05c1 4fc3 6dc0 ab28 d9c0 e1de eec0
000002b0: 84c6 d8c0 c902 05c1 cc86 fdc0 74d1 00c1
000002c0: 82f9 e4c0 6de4 fdc0 81e8 9fc0 b0ca 08c1
000002d0: ed5d ffc0 2775 71c0 b073 fec0 89d3 fbc0
000002e0: ee58 02c1 316a 5ac0 6171 06c1 5ea9 02c1
000002f0: 1c3e 97c0 5f37 ecc0 d179 f9c0 7a56 03c1
00000300: 28a4 c1c0 ab08 fec0 17e8 ffc0 ae08 fac0
00000310: ecd2 fac0 f369 18c0 284d 00c1 fb74 82c0
00000320: ea21 d2c0 9189 6ac0 75c1 4cc0 78c9 02c1
00000330: 71af fcc0 bd70 fdc0 4ec0 02c1 5a8f 50c0
00000340: c62c 98c0 c31e 06c1 81cb 06c1 5743 06c1
00000350: 9894 d4c0 6238 04c1 ee74 98c0 dedf 03c1
00000360: 0716 f1c0 1d9f e2c0 0d50 f3c0 35a7 6fc0
00000370: 5f62 f7c0 c2f9 03c1 c354 fec0 48fd 01c1
00000380: 6838 70c0 2d23 80c0 e4a5 fcc0 d917 0ac1
00000390: ad7a a8c0 9d8b 2ac0 3bb9 a1c0 78c2 f8c0
000003a0: 2b0d f4c0 d8d0 85c0 b06f f4c0 ca29 edc0
000003b0: 5b64 f9c0 efd9 f7c0 c3fe 01c1 8c26 01c1
000003c0: 9cfc fec0 fb61 e7c0 5746 98c0 1921 00c1
000003d0: 1f80 f6c0 5113 f8c0 1602 00c1 040c 2bc0
000003e0: aa38 05c1 ab65 f0c0 570f 5ac0 d7ec efc0
000003f0: 6799 00c1 fd14 01c1 bb3f edc0 ca3b 00c1

weight_mu f4 [128, 512]
-0.0020267346 2.6693133e-05 -0.0005020269 -7.999213e-06 -0.0014399674 -0.00015360017 0.00029286853 -0.008182328
0.0002943643 5.995146e-06 -0.00014289655 -0.00010945687 0.00011284786 -0.004792818 5.98299e-05 -0.000109499
0.00039871037 -0.00026052128 -6.280763e-05 -0.002627593 -0.00019497561 -0.00010083589 7.307954e-05 -0.00017355585
-9.501142e-05 0.00012408386 -0.0009796836 -0.0023293651 -0.00013036886 0.00011335363 -0.000463236 -0.0005811872
0.00010858638 0.00013934345 0.00048512546 3.197704e-05 -0.0002959406 0.0002369844 6.602441e-05 0.0002729402
-4.6551253e-05 -0.00015415659 0.00020021688 -0.003983048 2.943084e-05 -0.0038346506 0.00024501837 7.0655675e-05
6.79229e-05 -0.0001674255 -4.6859506e-05 0.00033979164 -2.3057799e-05 -0.0025209123 -1.9125435e-05 -0.00012568345
-0.0002622215 -3.4598448e-05 0.00022739446 0.0005398099 -3.3458935e-05 -9.9885234e-05 0.0001459091 -0.0008341772
-0.0003192294 -4.0681407e-05 -0.00038885936 -0.0038309444 -9.70215e-05 -0.00011253695 -0.00047490012 0.00031434282
4.320154e-06 -4.1029292e-05 -0.0002445709 0.001175268 -7.349342e-05 -0.00016819948 -0.0001777205 0.00015291267
0.00020889446 -0.00017700503 0.0007359916 4.5880686e-05 -0.0001767079 -0.00040075058 8.393611e-05 0.00033790924
0.00010429593 8.451275e-05 0.0005345013 -0.003901074 0.00018274234 -4.2783646e-05 1.8595229e-06 3.6824254e-05
4.696307e-05 -0.00021567715 8.719065e-05 -4.2584754e-05 -5.1388204e-05 -0.00016735135 -2.5733612e-05 -0.0003461216
-5.5458102e-05 -1.835479e-05 8.1639264e-05 -0.00029832264 1.6842509e-05 0.00013007515 -0.00014475809 -0.00012453608
0.0007570625 -3.114306e-06 0.00041480662 1.0480041e-05 -6.303718e-05 -0.0002657806 -0.00010752349 -5.256095e-05
-9.609365e-05 -0.0003291441 -3.60603e-05 9.306549e-05 -3.0786778e-05 0.00013201132 -0.0005546206 0.00014098121
0.00057281606 0.0010622244 -3.7202776e-06 -0.00010246904 0.00087641465 2.5032683e-05 -0.00204822 0.00010988937
1.8646924e-05 -7.91341e-05 0.00019535437 -0.0022048617 0.00024424386 -0.0010731214 0.00046281592 -6.8524474e-05
-0.0002502186 -0.00019378397 -0.0003116118 0.00016851586 0.00037548968 -0.00015224701 6.4139866e-05 -5.8146943e-05
3.597731e-05 -0.0001804283 -9.530255e-06 0.00045323695 -3.7279257e-05 0.00011330313 -5.176595e-05 -0.00032369
0.0005229147 -0.00029156404 3.4701698e-05 0.00014700126 -2.689564e-05 -0.00010555362 -0.00018697024 -0.00016410206
-9.5645446e-05 -0.0057464377 -0.0002565611 -0.00015401117 -2.3864714e-05 -0.00011757776 0.00010198036 6.0155824e-05
0.0002807694 -9.076567e-06 -0.00021542273 0.0003700366 6.995485e-05 -0.00405662 3.2939657e-05 2.048707e-05
-3.2679243e-06 -0.0021239426 0.00016344558 0.00013702425 -0.0004362106 -0.00014817447 0.00020849852 -0.0002019012
-0.00084600394 -0.00011549004 -2.1887612e-05 0.00032010934 0.00010977687 -0.00081302796 0.00015169547 8.0732105e-05
-0.00012260325 -0.0055358745 -0.0003712754 -8.8717825e-05 -0.0022975667 -0.00013274676 -0.00021695238 -0.0037499478
0.00023427067 7.025742e-05 0.00021285548 5.826069e-06 -0.00016832474 4.1588166e-05 0.000103482766 -6.602864e-05
-0.00023718878 0.00016322632 -0.0001679692 0.0009665443 -5.466791e-05 5.7661914e-06 -0.000110166926 9.858968e-05
0.0006801484 -0.00020257362 9.914366e-05 -3.0240986e-05 0.0007912174 -0.006593426 0.00022051396 -0.00038536804
-4.8435897e-05 -0.0018140832 2.0841176e-06 0.00015572044 -0.00028272503 -3.4674184e-05 0.00022725578 -0.0001222421
0.0011330858 -0.00012502912 0.0005330535 5.5966706e-05 -0.00016644508 -8.843601e-05 0.00014082761 -0.0024654386
7.7880424e-05 0.00010148552 0.00038363482 -0.00018897036 0.00010722225 0.0003649185 -6.953054e-05 -8.42642e-05
00000000: f7d2 04bb 11eb df37 749a 03ba 5c34 06b7
00000010: 4abd bcba bb0f 21b9 268c 9939 2c0f 06bc
00000020: e854 9a39 e929 c936 80d6 15b9 368c e5b8
00000030: bca8 ec38 120d 9dbb def1 7a38 d4a2 e5b8
00000040: 000a d139 9396 88b9 97b7 83b8 b233 2cbb
00000050: 5e72 4cb9 db77 d3b8 4742 9938 8bfc 35b9
00000060: de40 c7b8 821c 0239 ba68 80ba 43a8 18bb
00000070: a0b3 08b9 44b8 ed38 7cde f2b9 d05a 18ba
00000080: deb8 e338 b91c 1239 7058 fe39 161f 0638
00000090: 7a28 9bb9 047f 7839 9676 8a38 6a19 8f39
000000a0: 0740 43b8 18a5 21b9 4ff1 5139 3a84 82bb
000000b0: 3fe2 f637 c34e 7bbb cf75 8039 fa2c 9438
000000c0: d471 8e38 f18e 2fb9 038b 44b8 1026 b239
000000d0: 3f6c c1b7 e435 25bb 8f6f a0b7 e5c9 03b9
000000e0: c67a 89b9 cd1d 11b8 bc70 6e39 0782 0d3a
000000f0: 4256 0cb8 7a79 d1b8 2dff 1839 afac 5aba
00000100: 3f5e a7b9 54a1 2ab8 d2df cbb9 9510 7bbb
00000110: 0578 cbb8 d101 ecb8 04fc f8b9 61ce a439
00000120: d7f5 9036 de16 2cb8 c039 80b9 730b 9a3a
00000130: 7b20 9ab8 b45e 30b9 7c5a 3ab9 2f57 2039
00000140: ae0a 5b39 6d9a 39b9 8fef 403a 0370 4038
00000150: aa4a 39b9 d51b d2b9 db06 b038 6929 b139
00000160: 73b9 da38 703c b138 c61d 0c3a 29a9 7fbb
00000170: 869e 3f39 9772 33b8 b894 f935 be73 1a38
00000180: 36fa 4438 6527 62b9 20da b638 089d 32b8
00000190: aa89 57b8 097b 2fb9 83de d7b7 a877 b5b9
000001a0: af9b 68b8 9df8 99b7 bf35 ab38 3068 9cb9
000001b0: 0349 8d37 c864 0839 34ca 17b9 e695 02b9
000001c0: 9b75 463a 5fff 50b6 677a d939 6fd3 2f37
000001d0: d432 84b8 7858 8bb9 3c7e e1b8 e474 5cb8
000001e0: e385 c9b8 f990 acb9 743f 17b8 282c c338
000001f0: 0d21 01b8 856c 0a39 f563 11ba 5bd4 1339
00000200: 0929 163a 563a 8b3a e2a9 79b6 a6e4 d6b8
00000210: 31bf 653a 47fd d137 6e3b 06bb 6874 e638
00000220: f76b 9c37 ccf4 a5b8 0ad8 4c39 717f 10bb
00000230: db0d 8039 fba7 8cba 1aa6 f239 ccb4 8fb8
00000240: c62f 83b9 7d32 4bb9 d45f a3b9 a2b3 3039
00000250: 5fdd c439 7fa4 1fb9 d482 8638 cee2 73b8
00000260: 58e6 1638 5a31 3db9 22e4 1fb7 6fa0 ed39
00000270: 4c5c 1cb8 289d ed38 441f 59b8 f0b4 a9b9
00000280: 3614 093a 10dd 98b9 aa8c 1138 5a24 1a39
00000290: f29d e1b7 ab5c ddb8 710d 44b9 d012 2cb9
000002a0: 4295 c8b8 9d4c bcbb 0c83 86b9 0f7e 21b9
000002b0: 1531 c8b7 1494 f6b8 4ade d538 d34f 7c38
000002c0: 3b34 9339 8f47 18b7 19e3 61b9 7901 c239
000002d0: b9b4 9238 65ed 84bb b028 0a38 a6db ab37
000002e0: 834e 5bb6 d831 0bbb 9762 2b39 2bae 0f39
000002f0: 32b3 e4b9 485f 1bb9 65a0 5a39 71b5 53b9
00000300: 5dc6 5dba 3e33 f2b8 4a9b b7b7 59d4 a739
00000310: 0238 e638 6221 55ba 7110 1f39 b84e a938
00000320: 0f8f 00b9 4866 b5bb bea7 c2b9 050e bab8
00000330: c692 16bb f031 0bb9 b67d 63b9 afc1 75bb
00000340: 8ea6 7539 2a57 9338 f531 5f39 8d7d c336
00000350: 5480 30b9 f46e 2e38 e304 d938 db78 8ab8
00000360: e1b5 78b9 bb27 2b39 e420 30b9 b15f 7d3a
00000370: 394b 65b8 357b c136 6b09 e7b8 eec1 ce38
00000380: fd4b 323a f169 54b9 59eb cf38 06ae fdb7
00000390: b369 4f3a ab0d d8bb c439 6739 390b cab9
000003a0: a627 4bb8 88c6 edba dedc 0b36 e348 2339
000003b0: b63a 94b9 1f6f 11b8 824b 6e39 1d2e 00b9
000003c0: 0d84 943a 401a 03b9 9dbc 0b3a cbbd 6a38
000003d0: c387 2eb9 b976 b9b8 20ab 1339 3293 21bb
000003e0: bc53 a338 a0d4 d438 9822 c939 5826 46b9
000003f0: 82dc e038 8852 bf39 edd0 91b8 ffb6 b0b8

weight_logvar f4 [128, 512]
-3.218876 -3.218876 -3.218876 -3.218876 -3.218876 -3.218876 -3.218876 -3.218876
-3.218876 -3.218876 -3.218876 -3.218876 -3.218876 -3.218876 -3.218876 -3.218876
-3.218876 -3.218876 -3.218876 -3.218876 -3.218876 -3.218876 -3.218876 -3.218876
-3.218876 -3.218876 -3.218876 -3.218876 -3.218876 -3.218876 -3.218876 -3.218876
-3.218876 -3.218876 -3.218876 -3.218876 -3.218876 -3.218876 -3.218876 -3.218876
-3.218876 -3.218876 -3.218876 -3.218876 -3.218876 -3.218876 -3.218876 -3.218876
-3.218876 -3.218876 -3.218876 -3.218876 -3.218876 -3.218876 -3.218876 -3.218876
-3.218876 -3.218876 -3.218876 -3.218876 -3.218876 -3.218876 -3.218876 -3.218876
-3.218876 -3.218876 -3.218876 -3.218876 -3.218876 -3.218876 -3.218876 -3.218876
-3.218876 -3.218876 -3.218876 -3.218876 -3.218876 -3.218876 -3.218876 -3.218876
-3.218876 -3.218876 -3.218876 -3.218876 -3.218876 -3.218876 -3.218876 -3.218876
-3.218876 -3.218876 -3.218876 -3.218876 -3.218876 -3.218876 -3.218876 -3.218876
-3.218876 -3.218876 -3.218876 -3.218876 -3.218876 -3.218876 -3.218876 -3.218876
-3.218876 -3.218876 -3.218876 -3.218876 -3.218876 -3.218876 -3.218876 -3.218876
-3.218876 -3.218876 -3.218876 -3.218876 -3.218876 -3.218876 -3.218876 -3.218876
-3.218876 -3.218876 -3.218876 -3.218876 -3.218876 -3.218876 -3.218876 -3.218876
-3.218876 -3.218876 -3.218876 -3.218876 -3.218876 -3.218876 -3.218876 -3.218876
-3.218876 -3.218876 -3.218876 -3.218876 -3.218876 -3.218876 -3.218876 -3.218876
-3.218876 -3.218876 -3.218876 -3.218876 -3.218876 -3.218876 -3.218876 -3.218876
-3.218876 -3.218876 -3.218876 -3.218876 -3.218876 -3.218876 -3.218876 -3.218876
-3.218876 -3.218876 -3.218876 -3.218876 -3.218876 -3.218876 -3.218876 -3.218876
-3.218876 -3.218876 -3.218876 -3.218876 -3.218876 -3.218876 -3.218876 -3.218876
-3.218876 -3.218876 -3.218876 -3.218876 -3.218876 -3.218876 -3.218876 -3.218876
-3.218876 -3.218876 -3.218876 -3.218876 -3.218876 -3.218876 -3.218876 -3.218876
-3.218876 -3.218876 -3.218876 -3.218876 -3.218876 -3.218876 -3.218876 -3.218876
-3.218876 -3.218876 -3.218876 -3.218876 -3.218876 -3.218876 -3.218876 -3.218876
-3.218876 -3.218876 -3.218876 -3.218876 -3.218876 -3.218876 -3.218876 -3.218876
-3.218876 -3.218876 -3.218876 -3.218876 -3.218876 -3.218876 -3.218876 -3.218876
-3.218876 -3.218876 -3.218876 -3.218876 -3.218876 -3.218876 -3.218876 -3.218876
-3.218876 -3.218876 -3.218876 -3.218876 -3.218876 -3.218876 -3.218876 -3.218876
-3.218876 -3.218876 -3.218876 -3.218876 -3.218876 -3.218876 -3.218876 -3.218876
-3.218876 -3.218876 -3.218876 -3.218876 -3.218876 -3.218876 -3.218876 -3.218876
00000000: 1002 4ec0 1002 4ec0 1002 4ec0 1002 4ec0
00000010: 1002 4ec0 1002 4ec0 1002 4ec0 1002 4ec0
00000020: 1002 4ec0 1002 4ec0 1002 4ec0 1002 4ec0
00000030: 1002 4ec0 1002 4ec0 1002 4ec0 1002 4ec0
00000040: 1002 4ec0 1002 4ec0 1002 4ec0 1002 4ec0
00000050: 1002 4ec0 1002 4ec0 1002 4ec0 1002 4ec0
00000060: 1002 4ec0 1002 4ec0 1002 4ec0 1002 4ec0
00000070: 1002 4ec0 1002 4ec0 1002 4ec0 1002 4ec0
00000080: 1002 4ec0 1002 4ec0 1002 4ec0 1002 4ec0
00000090: 1002 4ec0 1002 4ec0 1002 4ec0 1002 4ec0
000000a0: 1002 4ec0 1002 4ec0 1002 4ec0 1002 4ec0
000000b0: 1002 4ec0 1002 4ec0 1002 4ec0 1002 4ec0
000000c0: 1002 4ec0 1002 4ec0 1002 4ec0 1002 4ec0
000000d0: 1002 4ec0 1002 4ec0 1002 4ec0 1002 4ec0
000000e0: 1002 4ec0 1002 4ec0 1002 4ec0 1002 4ec0
000000f0: 1002 4ec0 1002 4ec0 1002 4ec0 1002 4ec0
00000100: 1002 4ec0 1002 4ec0 1002 4ec0 1002 4ec0
00000110: 1002 4ec0 1002 4ec0 1002 4ec0 1002 4ec0
00000120: 1002 4ec0 1002 4ec0 1002 4ec0 1002 4ec0
00000130: 1002 4ec0 1002 4ec0 1002 4ec0 1002 4ec0
00000140: 1002 4ec0 1002 4ec0 1002 4ec0 1002 4ec0
00000150: 1002 4ec0 1002 4ec0 1002 4ec0 1002 4ec0
00000160: 1002 4ec0 1002 4ec0 1002 4ec0 1002 4ec0
00000170: 1002 4ec0 1002 4ec0 1002 4ec0 1002 4ec0
00000180: 1002 4ec0 1002 4ec0 1002 4ec0 1002 4ec0
00000190: 1002 4ec0 1002 4ec0 1002 4ec0 1002 4ec0
000001a0: 1002 4ec0 1002 4ec0 1002 4ec0 1002 4ec0
000001b0: 1002 4ec0 1002 4ec0 1002 4ec0 1002 4ec0
000001c0: 1002 4ec0 1002 4ec0 1002 4ec0 1002 4ec0
000001d0: 1002 4ec0 1002 4ec0 1002 4ec0 1002 4ec0
000001e0: 1002 4ec0 1002 4ec0 1002 4ec0 1002 4ec0
000001f0: 1002 4ec0 1002 4ec0 1002 4ec0 1002 4ec0
00000200: 1002 4ec0 1002 4ec0 1002 4ec0 1002 4ec0
00000210: 1002 4ec0 1002 4ec0 1002 4ec0 1002 4ec0
00000220: 1002 4ec0 1002 4ec0 1002 4ec0 1002 4ec0
00000230: 1002 4ec0 1002 4ec0 1002 4ec0 1002 4ec0
00000240: 1002 4ec0 1002 4ec0 1002 4ec0 1002 4ec0
00000250: 1002 4ec0 1002 4ec0 1002 4ec0 1002 4ec0
00000260: 1002 4ec0 1002 4ec0 1002 4ec0 1002 4ec0
00000270: 1002 4ec0 1002 4ec0 1002 4ec0 1002 4ec0
00000280: 1002 4ec0 1002 4ec0 1002 4ec0 1002 4ec0
00000290: 1002 4ec0 1002 4ec0 1002 4ec0 1002 4ec0
000002a0: 1002 4ec0 1002 4ec0 1002 4ec0 1002 4ec0
000002b0: 1002 4ec0 1002 4ec0 1002 4ec0 1002 4ec0
000002c0: 1002 4ec0 1002 4ec0 1002 4ec0 1002 4ec0
000002d0: 1002 4ec0 1002 4ec0 1002 4ec0 1002 4ec0
000002e0: 1002 4ec0 1002 4ec0 1002 4ec0 1002 4ec0
000002f0: 1002 4ec0 1002 4ec0 1002 4ec0 1002 4ec0
00000300: 1002 4ec0 1002 4ec0 1002 4ec0 1002 4ec0
00000310: 1002 4ec0 1002 4ec0 1002 4ec0 1002 4ec0
00000320: 1002 4ec0 1002 4ec0 1002 4ec0 1002 4ec0
00000330: 1002 4ec0 1002 4ec0 1002 4ec0 1002 4ec0
00000340: 1002 4ec0 1002 4ec0 1002 4ec0 1002 4ec0
00000350: 1002 4ec0 1002 4ec0 1002 4ec0 1002 4ec0
00000360: 1002 4ec0 1002 4ec0 1002 4ec0 1002 4ec0
00000370: 1002 4ec0 1002 4ec0 1002 4ec0 1002 4ec0
00000380: 1002 4ec0 1002 4ec0 1002 4ec0 1002 4ec0
00000390: 1002 4ec0 1002 4ec0 1002 4ec0 1002 4ec0
000003a0: 1002 4ec0 1002 4ec0 1002 4ec0 1002 4ec0
000003b0: 1002 4ec0 1002 4ec0 1002 4ec0 1002 4ec0
000003c0: 1002 4ec0 1002 4ec0 1002 4ec0 1002 4ec0
000003d0: 1002 4ec0 1002 4ec0 1002 4ec0 1002 4ec0
000003e0: 1002 4ec0 1002 4ec0 1002 4ec0 1002 4ec0
000003f0: 1002 4ec0 1002 4ec0 1002 4ec0 1002 4ec0

bias_mu f4 [128]
-0.014285459 -0.114056386 -0.072685406 -0.27356577 -0.0041564237 -0.020941352 -0.1434495 0.00021744358
-0.0034753648 -0.19252186 -0.21850038 0.20782448 -0.22364117 -0.78763247 -0.2667623 -0.009544975
-0.009302204 -0.0034413515 -0.13751228 -0.17764257 -0.05145767 -0.2880436 -0.0013403957 -0.01847923
-0.22848916 -0.002978933 0.5734016 -0.03788299 -0.3269701 -0.13452062 0.41187736 -0.09019998
-0.0019855546 -8.806272e-05 -0.008816844 -0.14432973 0.36305106 0.13030225 -0.049621444 -0.11666497
-0.003286091 -0.0006830231 -0.07280111 0.0011908485 -0.034361202 -0.4014781 -0.30889556 -0.10628419
-0.06389223 0.00037281905 -0.120932 -0.009573469 -0.010353156 -0.00237079 0.0025698564 -0.045296416
-0.012525072 -0.25878125 0.66196215 -0.12150525 0.00012166273 -0.0033953 -0.0040392727 -0.07627793
-0.0051397015 -0.14263757 -0.0032958826 -0.2884414 -0.003909608 -0.0015879654 -0.003060002 -0.0032721825
-0.002443334 -0.0021065483 -0.0021243477 -0.0076751336 -0.061116338 -0.0012669786 -0.12463325 -0.015607497
-0.00235723 -0.053221643 -0.0110658575 -0.002791983 -0.12804316 -0.0026502192 -0.78926826 -0.0006161648
0.05451051 -0.14815266 -0.0035609517 -0.00066792924 0.38831058 -0.090935215 -0.001405485 -0.20218706
0.21065672 -0.097953185 -0.005660535 -0.13504818 -0.0033966375 -0.2280066 -0.002383522 -0.076250084
-0.0050364514 -0.0022541357 -0.0024371045 -0.26022652 -0.11227266 -0.027913714 -0.26287585 -0.003340165
0.2022551 -0.10545684 -0.1524159 -0.0007945574 -0.0036494243 -0.27134636 -0.00069262565 -0.00055675313
-0.006318915 -0.006061147 -0.295426 -0.1774275 -0.04317378 -0.2683109 -0.01864271 -0.0058703097
00000000: 8f0d 6abc 6596 e9bd 16dc 94bd d010 8cbe
00000010: 9c32 88bb 338d abbc 6de4 12be 9101 6439
00000020: f2c2 63bb 7324 45be 90be 5fbe f1cf 543e
00000030: 3102 65be 48a2 49bf 1195 88be 8762 1cbc
00000040: 4568 18bc 4c88 61bb 05d0 0cbe efe7 35be
00000050: 47c5 52bd 737a 93be 37b0 afba c161 97bc
00000060: 10f9 69be 343a 43bb 72ca 123f 322b 1bbd
00000070: a068 a7be c6bf 09be 97e1 d23e c4ba b8bd
00000080: 1420 02bb 50ae b8b8 8674 10bc 2ccb 13be
00000090: d4e1 b93e f46d 053e db3f 4bbd 0bee eebd
000000a0: 755b 57bb e80c 33ba c018 95bd 3f16 9c3a
000000b0: 55be 0cbd 8a8e cdbe 8f27 9ebe 87ab d9bd
000000c0: eed9 82bd ed76 c339 32ab f7bd 0ada 1cbc
000000d0: 49a0 29bc 425f 1bbb 096b 283b bc88 39bd
000000e0: f635 4dbc fa7e 84be 5a76 293f bfd7 f8bd
000000f0: 2e25 ff38 ae83 5ebb e05b 84bb 9a37 9cbd
00000100: f16a a8bb 950f 12be bcff 57bb 97ae 93be
00000110: 2b1c 80bb 4723 d0ba 518a 48bb 1d72 56bb
00000120: 5820 20bb 040e 0abb a438 0bbb b07f fbbb
00000130: 2055 7abd bf10 a6ba b83f ffbd 96b6 7fbc
00000140: c27b 1abb f0fe 59bd 924d 35bc b4f9 36bb
00000150: bf1d 03be 4daf 2dbb 7c0d 4abf 1f86 21ba
00000160: 6a46 5f3d 55b5 17be db5e 69bb f917 2fba
00000170: a5d0 c63e 3e3c babd 4038 b8ba 200a 4fbe
00000180: 65b6 573e ae9b c8bd 027c b9bb 124a 0abe
00000190: 1f9a 5ebb 907a 69be dd34 1cbb 0129 9cbd
000001a0: d108 a5bb 1fba 13bb d4b7 1fbb 693c 85be
000001b0: 35ef e5bd 4dab e4bc aa97 86be abe6 5abb
000001c0: f61b 4f3e c1f9 d7bd ea12 1cbe d849 50ba
000001d0: 2e2b 6fbb e9ed 8abe 5291 35ba 12f3 11ba
000001e0: e70e cfbb 969c c6bb 1442 97be 8eaf 35be
000001f0: fdd6 30bd 0c60 89be 99b8 98bc ba5b c0bb

bias_logvar f4 [128]
-3.218876 -3.218876 -3.218876 -3.218876 -3.218876 -3.218876 -3.218876 -3.218876
-3.218876 -3.218876 -3.218876 -3.8507674 -3.218876 -3.7234106 -3.218876 -3.218876
-3.218876 -3.218876 -3.218876 -3.218876 -3.218876 -3.218876 -3.218876 -3.218876
-3.218876 -3.218876 -3.9883747 -3.218876 -3.218876 -3.218876 -4.709294 -3.218876
-3.218876 -3.218876 -3.218876 -3.218876 -3.8666747 -4.1738024 -3.218876 -3.218876
-3.218876 -3.218876 -3.218876 -3.218876 -3.218876 -3.2609816 -3.218876 -3.218876
-3.218876 -3.218876 -3.218876 -3.218876 -3.218876 -3.218876 -3.218876 -3.218876
-3.218876 -3.218876 -4.534016 -3.3962636 -3.218876 -3.218876 -3.218876 -3.218876
-3.218876 -3.218876 -3.218876 -3.218876 -3.218876 -3.218876 -3.218876 -3.218876
-3.218876 -3.218876 -3.218876 -3.218876 -3.218876 -3.218876 -3.218876 -3.218876
-3.218876 -3.218876 -3.218876 -3.218876 -3.218876 -3.218876 -3.7080846 -3.218876
-3.8319225 -3.218876 -3.218876 -3.218876 -3.377972 -3.218876 -3.218876 -3.218876
-4.022745 -3.218876 -3.218876 -3.218876 -3.218876 -3.218876 -3.218876 -3.2191656
-3.218876 -3.218876 -3.218876 -3.218876 -3.2278197 -3.218876 -3.218876 -3.218876
-3.218876 -3.218876 -3.218876 -3.218876 -3.218876 -3.218876 -3.218876 -3.218876
-3.218876 -3.218876 -3.8071306 -3.218876 -3.218876 -3.218876 -3.218876 -3.218876
00000000: 1002 4ec0 1002 4ec0 1002 4ec0 1002 4ec0
00000010: 1002 4ec0 1002 4ec0 1002 4ec0 1002 4ec0
00000020: 1002 4ec0 1002 4ec0 1002 4ec0 f972 76c0
00000030: 1002 4ec0 5c4c 6ec0 1002 4ec0 1002 4ec0
00000040: 1002 4ec0 1002 4ec0 1002 4ec0 1002 4ec0
00000050: 1002 4ec0 1002 4ec0 1002 4ec0 1002 4ec0
00000060: 1002 4ec0 1002 4ec0 8841 7fc0 1002 4ec0
00000070: 1002 4ec0 1002 4ec0 89b2 96c0 1002 4ec0
00000080: 1002 4ec0 1002 4ec0 1002 4ec0 1002 4ec0
00000090: 9977 77c0 ca8f 85c0 1002 4ec0 1002 4ec0
000000a0: 1002 4ec0 1002 4ec0 1002 4ec0 1002 4ec0
000000b0: 1002 4ec0 ecb3 50c0 1002 4ec0 1002 4ec0
000000c0: 1002 4ec0 1002 4ec0 1002 4ec0 1002 4ec0
000000d0: 1002 4ec0 1002 4ec0 1002 4ec0 1002 4ec0
000000e0: 1002 4ec0 1002 4ec0 a916 91c0 625c 59c0
000000f0: 1002 4ec0 1002 4ec0 1002 4ec0 1002 4ec0
00000100: 1002 4ec0 1002 4ec0 1002 4ec0 1002 4ec0
00000110: 1002 4ec0 1002 4ec0 1002 4ec0 1002 4ec0
00000120: 1002 4ec0 1002 4ec0 1002 4ec0 1002 4ec0
00000130: 1002 4ec0 1002 4ec0 1002 4ec0 1002 4ec0
00000140: 1002 4ec0 1002 4ec0 1002 4ec0 1002 4ec0
00000150: 1002 4ec0 1002 4ec0 4251 6dc0 1002 4ec0
00000160: 383e 75c0 1002 4ec0 1002 4ec0 1002 4ec0
00000170: b130 58c0 1002 4ec0 1002 4ec0 1002 4ec0
00000180: 54ba 80c0 1002 4ec0 1002 4ec0 1002 4ec0
00000190: 1002 4ec0 1002 4ec0 1002 4ec0 cf06 4ec0
000001a0: 1002 4ec0 1002 4ec0 1002 4ec0 1002 4ec0
000001b0: 9994 4ec0 1002 4ec0 1002 4ec0 1002 4ec0
000001c0: 1002 4ec0 1002 4ec0 1002 4ec0 1002 4ec0
000001d0: 1002 4ec0 1002 4ec0 1002 4ec0 1002 4ec0
000001e0: 1002 4ec0 1002 4ec0 07a8 73c0 1002 4ec0
000001f0: 1002 4ec0 1002 4ec0 1002 4ec0 1002 4ec0

z_mu f4 [128]
-0.0005565878 0.29628018 -0.0050544045 -0.013865551 -8.583256e-05 0.00024313464 -0.0016161302 -3.1406922e-05
3.1526673e-05 0.022966849 -0.0006701676 1.595581 -0.0027631905 1.8322337 0.0017787433 5.3372278e-05
-3.967905e-05 -2.4765075e-06 -0.00019849357 0.0008133984 -0.0013063181 -0.004369186 4.0365344e-06 0.00038251514
-0.012338496 -6.832226e-05 1.0679822 0.0007155116 0.012907036 0.0011610544 1.0064688 -0.0036721348
7.8942154e-05 3.530589e-05 -0.0006229017 0.00026345518 0.9386622 1.7927871 0.0016451137 0.003420669
-4.141605e-05 0.00018920805 0.0013481643 -7.140531e-05 -0.0003098641 1.4480069 0.02170809 0.0056166705
-9.587522e-05 2.6854963e-05 0.0045081535 7.845948e-05 2.9013965e-05 -0.0002170302 -0.00023075908 0.73020566
0.00038303467 0.03571855 1.8384875 1.4032317 -7.736217e-05 2.5403275e-05 4.6655863e-05 0.00020493542
0.0004141643 0.0045680013 -5.1200044e-05 0.014740486 -7.768585e-05 3.151415e-06 6.6463544e-05 5.4897577e-05
-5.305694e-05 0.000115506686 -9.402098e-05 -0.0002704997 0.00050607766 3.638123e-05 0.0020130866 0.0005240275
-0.00011067919 0.00038984383 -0.00015083727 2.668178e-05 -8.8310924e-05 8.6188076e-05 1.5451264 -2.4883628e-05
1.3344225 0.0018167365 -0.00026629452 0.00018208812 0.75446194 0.8560585 -7.276606e-05 -0.0014438025
1.561466 -0.0020316336 2.1182475e-05 0.0012404108 1.4232567e-05 -0.0065646605 -8.5270185e-05 0.50595766
1.4925754e-05 0.000114068745 -2.0197638e-05 0.00078543054 0.90838104 0.0004671816 -0.0089544235 2.0094009e-05
0.40080994 -0.00014577898 0.0010040278 0.000114943155 -2.4660187e-06 -0.0014875623 -1.2703033e-05 2.5618096e-05
0.00022202214 7.49996e-05 1.644576 0.00019896777 0.09492329 0.00042828842 -0.00031292986 0.00060234015
00000000: fae7 11ba 09b2 973e 6b9f a5bb 562c 63bc
00000010: 0101 b4b8 f5f1 7e39 55d4 d3ba edba 03b8
00000020: 823b 0438 f924 bc3c 30ae 2fba 003c cc3f
00000030: a516 35bb a286 ea3f b924 e93a 0cdc 5f38
00000040: 0e6d 26b8 1332 26b6 b622 50b9 3e3a 553a
00000050: c338 abba 632b 8fbb 9171 8736 508c c839
00000060: 6727 4abc 3c48 8fb8 a4b3 883f 2c91 3b3a
00000070: 0878 533c 852e 983a f8d3 803f 33a8 70bb
00000080: bf8d a538 6915 1438 3a4a 23ba 5b20 8a39
00000090: 2a4c 703f 0c7a e53f dba0 d73a 4d2d 603b
000000a0: 25b6 2db8 2666 4639 e3b4 b03a 6fbf 95b8
000000b0: 4175 a2b9 4a58 b93f 2ad5 b13c 0c0c b83b
000000c0: 9e10 c9b8 9846 e137 22b9 933b 9d8a a438
000000d0: 0463 f337 9a92 63b9 ebf7 71b9 c2ee 3a3f
000000e0: 0bd2 c839 9d4d 123d 8f53 eb3f 199d b33f
000000f0: 803d a2b8 1e19 d537 5ab0 4338 efe3 5639
00000100: 3124 d939 2caf 953b a1bf 56b8 1482 713c
00000110: 46eb a2b8 e67c 5336 5862 8b38 d341 6638
00000120: 7589 5eb8 2e3c f238 212d c5b8 dbd1 8db9
00000130: 4caa 043a 0c98 1838 fded 033b e45e 093a
00000140: 701c e8b8 f463 cc39 122a 1eb9 b0d2 df37
00000150: 9133 b9b8 dfbf b438 b4c6 c53f 2fbd d0b7
00000160: 5bce aa3f 901f ee3a 729d 8bb9 e8ee 3e39
00000170: 6b24 413f a626 5b3f fb99 98b8 f93d bdba
00000180: 1ede c73f 2825 05bb 05b1 b137 4895 a23a
00000190: 69c8 6e37 5d1c d7bb 15d3 b2b8 7186 013f
000001a0: a069 7a37 3138 ef38 196e a9b7 5ae5 4d3a
000001b0: a98b 683f 0ef0 f439 93b5 12bc 8e8f a837
000001c0: f636 cd3e 3fdc 18b9 9599 833a a30d f138
000001d0: e17d 25b6 4ffa c2ba 1c1f 55b7 71e6 d637
000001e0: 9dce 6839 1b49 9d38 7781 d23f 01a2 5039
000001f0: 2467 c23d e68b e039 bc10 a4b9 5de6 1d3a

z_logvar f4 [128]
-7.4518 -1.071639 -6.0112915 -2.5284162 -10.110172 -8.009366 -4.9352903 -10.198324
-10.109984 -2.066935 -3.6014452 -2.2082813 -3.9158401 -2.3955426 -2.701104 -8.573506
-8.690013 -8.981572 -4.661561 -3.8885446 -6.2788434 -2.4345171 -10.15312 -8.085243
-3.0720246 -9.8698 -2.505106 -7.168182 -2.1957967 -4.749041 -5.5086937 -5.2430015
-9.687913 -10.047127 -8.873027 -4.5884542 -2.5816205 -2.1972623 -6.1417627 -5.0819883
-10.041667 -9.205606 -6.096248 -10.188187 -7.137237 -1.6711668 -1.7049471 -5.287353
-6.0940394 -10.138354 -4.8273363 -8.746855 -8.482211 -10.262095 -9.676016 -0.935852
-8.6104965 -2.1515424 -2.1584864 -1.5752432 -10.08355 -9.7451105 -9.534284 -5.6792483
-8.833636 -4.352645 -10.072398 -2.3860607 -9.114697 -10.178874 -9.436776 -10.14836
-10.13902 -10.142809 -10.053666 -8.707807 -6.238863 -10.198491 -5.021755 -7.472358
-9.673379 -6.831374 -8.599198 -10.15335 -4.88123 -10.082034 -2.284455 -10.13
-2.4644096 -4.461992 -9.067316 -9.702354 -2.0654333 -0.937604 -10.11731 -3.7764494
-1.9277687 -5.466222 -9.648556 -5.0229535 -9.081409 -3.2447577 -10.141831 -1.3884002
-9.579833 -10.081651 -10.157418 -2.6767962 -1.7684948 -7.578686 -2.585952 -9.429523
-4.030053 -5.5091314 -4.80868 -10.184824 -9.19351 -2.6889853 -9.992759 -9.624124
-9.032124 -9.689267 -2.3220992 -4.2211866 -1.846022 -3.026233 -8.638275 -8.842695
00000000: 2575 eec0 772b 89bf 805c c0c0 92d1 21c0
00000010: 44c3 21c1 5d26 00c1 e6ed 9dc0 562c 23c1
00000020: 7fc2 21c1 aa48 04c0 147e 66c0 7b54 0dc0
00000030: 209d 7ac0 9250 19c0 e3de 2cc0 152d 09c1
00000040: 4b0a 0bc1 85b4 0fc1 822b 95c0 eadd 78c0
00000050: 49ec c8c0 21cf 1bc0 2e73 22c1 285d 01c1
00000060: 0d9c 44c0 b3ea 1dc1 a853 20c0 bf61 e5c0
00000070: ef87 0cc0 25f8 97c0 3847 b0c0 abc6 a7c0
00000080: b101 1bc1 08c1 20c1 ebf7 0dc1 9ed4 92c0
00000090: 4539 25c0 f29f 0cc0 5289 c4c0 a69f a2c0
000000a0: abaa 20c1 2a4a 13c1 7714 c3c0 d002 23c1
000000b0: 3f64 e4c0 cbe8 d5bf b53b dabf ff31 a9c0
000000c0: 5f02 c3c0 b336 22c1 8a79 9ac0 1ef3 0bc1
000000d0: 23b7 07c1 8b31 24c1 f6d0 1ac1 ff93 6fbf
000000e0: 98c4 09c1 dfb2 09c0 a424 0ac0 92a1 c9bf
000000f0: 3956 21c1 f9eb 1bc1 6d8c 18c1 67bc b5c0
00000100: 9356 0dc1 de48 8bc0 8b28 21c1 38b5 18c0
00000110: cdd5 11c1 abdc 22c1 09fd 16c1 af5f 22c1
00000120: 6d39 22c1 f248 22c1 d1db 20c1 2d53 0bc1
00000130: c4a4 c7c0 052d 23c1 38b2 a0c0 8f1d efc0
00000140: 29c6 1ac1 9e9a dac0 5196 09c1 1f74 22c1
00000150: 0933 9cc0 0350 21c1 8334 12c0 7b14 22c1
00000160: e3b8 1dc0 a3c8 8ec0 ba13 11c1 d83c 1bc1
00000170: 0f30 04c0 d106 70bf 80e0 21c1 59b1 71c0
00000180: 20c1 f6bf 4aeb aec0 7c60 1ac1 09bc a0c0
00000190: 744d 11c1 1caa 4fc0 f144 22c1 19b7 b1bf
000001a0: ff46 19c1 714e 21c1 c984 22c1 a150 2bc0
000001b0: 0a5e e2bf 9984 f2c0 3d80 25c0 54df 16c1
000001c0: 32f6 80c0 ce4a b0c0 b5e0 99c0 0af5 22c1
000001d0: 9e18 13c1 5618 2cc0 57e2 1fc1 69fc 19c1
000001e0: 9483 10c1 3d07 1bc1 469d 14c0 f613 87c0
000001f0: 734a ecbf cdad 41c0 6036 0ac1 ae7b 0dc1

weight_mu f4 [2, 128]
-0.0116854645 -0.36676478 0.04509187 -0.00019279834 -0.0073546316 -0.015171436 0.01410739 -0.006021792
0.0058516073 -0.12059491 -0.0033916142 -1.060459 0.021256955 -1.0748849 -0.016885618 0.007717539
-0.009505474 0.024106491 -0.005334229 0.0052390913 0.016635263 0.008230958 -0.009313832 -0.0012874742
-0.008275329 -0.0058826236 -0.9761444 0.024427073 0.0117567135 -0.011500481 0.8767064 0.0067199366
0.005528819 0.00622449 0.0056250338 0.014593086 -0.83676887 -1.0497544 -0.003570784 -0.0036744617
-0.013279209 0.0021518064 0.011310634 0.0029164145 0.004865753 -0.97590953 -0.05559377 -0.0044086976
0.038685005 0.0006709681 0.007258807 -0.0036524173 -0.0013802267 0.0026264633 -0.016159823 -0.62875503
0.0008315384 -0.16857448 -1.0781447 -0.9613302 0.008658875 -0.002192824 -0.004425317 -0.047317732
0.022087099 -0.015490025 0.0048912372 -0.010257651 -0.00012042341 0.0014177517 -0.003703629 0.005298107
0.005007662 -0.0049533444 -0.0031028967 0.007239706 -0.005934108 -0.00059958646 0.0045541297 0.015580954
0.0070716073 0.017763032 -0.010985402 0.0069087497 -0.00823129 -0.012892767 -0.936582 -0.0036817198
-0.9479268 0.017687935 0.006005763 0.0028265517 -0.8122975 -0.6902233 -0.0067451224 -0.042004686
-0.9916048 -0.0034387398 -0.0065996074 -0.004117651 0.0073696575 0.036528222 -0.003386997 -0.64066744
-0.0015989034 -0.0012745935 -0.0010822752 0.020729171 -0.7793489 0.002046109 0.028314354 -0.008463409
0.4938061 -0.00928304 -0.016103491 -0.0025780236 0.0105434 -0.013607085 0.006117565 0.020541586
0.0067444267 -0.0063005765 -1.0704833 -0.009738321 -0.25517237 -0.009175823 -0.0050960304 0.015366646
0.008647828 0.37586564 -0.0393622 -0.008819437 0.009120922 0.012305208 -0.015904997 0.006114256
-0.0027269837 0.10295426 -0.00040241814 1.0438544 -0.028913757 1.099797 0.01627594 -0.00730728
0.012087452 -0.020032693 -0.0059654806 0.0006644752 -0.022209654 -0.014963951 0.009059704 0.0018799303
0.0038733364 0.004414526 0.973965 -0.02125609 0.007295528 0.026850326 -0.8635822 -0.003658518
-0.0045812177 -0.0048263534 -0.0025778494 -0.009737564 0.8364261 1.0603245 0.004781405 0.003554381
0.010598686 -0.0012871167 -0.010974058 -0.0016531871 -0.0021886448 0.99927217 0.057458017 0.009376892
-0.033714414 -0.0015009004 -0.009040111 0.0032112144 -0.003433025 0.00049364835 0.016382227 0.6183343
0.0009261963 0.18498293 1.0918733 0.9956583 -0.008898193 0.0025678712 0.0030035034 0.043572012
-0.020301027 0.010902663 -0.0057701995 0.009143213 -0.00023405257 -0.0033732213 0.0073396727 -0.005106641
-0.0049218643 0.0040648733 0.0039860746 -0.0075157504 0.007464436 0.0005687875 -0.00012957293 -0.017591469
-0.0049969596 -0.016892875 0.00727606 -0.006149447 0.01020869 0.011054632 0.93375725 0.0019587923
0.95028836 -0.007600057 -0.0006662745 -0.0028186745 0.81763685 0.6787726 0.0056328494 0.034892086
0.9797953 0.011159189 0.006952204 -0.0051310705 -0.009525637 -0.04401867 0.0017656183 0.654398
0.0011730355 0.0041327327 -0.0008589836 -0.014070261 0.7823904 -0.0058562607 -0.019820148 0.005762266
-0.4805328 0.015211688 0.01728479 0.004373582 -0.01128 0.0067145783 -0.005621546 -0.019941153
-0.006019334 0.0038653552 1.0788254 -0.0023090967 0.25324202 0.008533526 0.00011725854 -0.011842557
00000000: 6474 3fbc 98c8 bbbe 41b2 383d e929 4ab9
00000010: 1fff f0bb 9d91 78bc af22 673c 7452 c5bb
00000020: d7be bf3b 77fa f6bd d845 5ebb 1fbd 87bf
00000030: 1123 ae3c d495 89bf b553 8abc 69e3 fc3b
00000040: d9bc 1bbc fa7a c53c c2ca aebb afac ab3b
00000050: ad46 883c 24db 063c 0b99 18bc 77c0 a8ba
00000060: 3f95 07bc 06c3 c0bb 99e4 79bf 491b c83c
00000070: 3b9f 403c 836c 3cbc d56f 603f ea32 dc3b
00000080: 182b b53b cef6 cb3b 3452 b83b d717 6f3c
00000090: 7c36 56bf 5a5e 86bf d103 6abb 3dcf 70bb
000000a0: 0a91 59bc 5205 0d3b 3d50 393c 5121 3f3b
000000b0: e570 9f3b 35d5 79bf 4bb6 63bd d676 90bb
000000c0: 2b74 1e3d e8e3 2f3a 49db ed3b 655d 6fbb
000000d0: b9e8 b4ba be20 2c3b 9b61 84bc 17f6 20bf
000000e0: 99fb 593a ca9e 2cbe a500 8abf bc19 76bf
000000f0: f4dd 0d3c 7bb5 0fbb 4002 91bb 3dd0 41bd
00000100: 01f0 b43c e0c9 7dbc ac46 a03b b50f 28bc
00000110: d38b fcb8 dad3 b93a 95b8 72bb be9b ad3b
00000120: 5017 a43b aa4f a2bb f859 4bbb 0e3b ed3b
00000130: e872 c2bb 912d 1dba cf3a 953b 4247 7f3c
00000140: f1b8 e73b c783 913c 1efc 33bc cb62 e23b
00000150: 88dc 06bc 2f3c 53bc d7c3 6fbf 0249 71bb
00000160: 55ab 72bf 4ae6 903c fecb c43b ab3d 393b
00000170: bbf2 4fbf 79b2 30bf 3006 ddbb 1b0d 2cbd
00000180: d0d9 7dbf 7b5c 61bb 8541 d8bb 5ced 86bb
00000190: 2b7d f13b 9e9e 153d 61f8 5dbb c802 24bf
000001a0: 4c92 d1ba 4310 a7ba 21db 8dba 39d0 a93c
000001b0: 6983 47bf 0318 063b 81f3 e73c 1caa 0abc
000001c0: 27d4 fc3e e417 18bc 78eb 83bc 0ff4 28bb
000001d0: 3abe 2c3c 40f0 5ebc db75 c83b d446 a83c
000001e0: 5a00 dd3b 1175 cebb 9905 89bf 7b8d 1fbc
000001f0: f4a5 82be 3156 16bc 9afc a6bb 63c4 7b3c
00000200: 9faf 0d3c 7671 c03e 423a 21bd 667f 10bc
00000210: eb6f 153c c89b 493c 324b 82bc 195a c83b
00000220: 32b7 32bb afd9 d23d a6fb d2b9 059d 853f
00000230: 8bdc ecbc 26c6 8c3f 1f55 853c e871 efbb
00000240: 730a 463c 9a1b a4bc 147a c3bb 2d30 2e3a
00000250: 05f1 b5bc 5c2b 75bc 276f 143c fe67 f63a
00000260: cdd7 7d3b baa7 903b c555 793f 4021 aebc
00000270: 530f ef3b 37f5 db3c b913 5dbf bfc3 6fbb
00000280: 0a1e 96bb 6326 9ebb 23f1 28bb 4e8a 1fbc
00000290: 0520 563f b7b8 873f 55ad 9c3b 9ef0 683b
000002a0: 1ca6 2d3c 78b4 a8ba 89cc 33bc c1af d8ba
000002b0: 5e6f 0fbb 4dd0 7f3f 1959 6b3d 89a1 193c
000002c0: 2018 0abd dcb9 c4ba f91c 14bc 3d73 523b
000002d0: 9afc 60bb 2e68 013a 0534 863c 284b 1e3f
000002e0: fbcb 723a 2a6c 3d3e 81c2 8b3f 76e3 7e3f
000002f0: bac9 11bc bb49 283b 6dd6 443b 9178 323d
00000300: 574e a6bc 15a1 323c f113 bdbb 6acd 153c
00000310: 026c 75b9 4311 5dbb a381 f03b 9c55 a7bb
00000320: 9747 a1bb a132 853b 9e9d 823b af46 f6bb
00000330: 3a98 f43b af1a 153a f8dd 07b9 fc1b 90bc
00000340: 89bd a3bb ed62 8abc 046c ee3b 4d81 c9bb
00000350: 5942 273c 7d1e 353c b70a 6f3f 155f 003b
00000360: 1946 733f e609 f9bb eda8 2eba 83b9 38bb
00000370: a650 513f 0bc4 2d3f c493 b83b 01eb 0e3d
00000380: ddd3 7a3f 08d5 363c 50cf e33b 8a22 a8bb
00000390: 6b11 1cbc ec4c 34bd 526c e73a a186 273f
000003a0: 8ac0 993a e06b 873b 6a2d 61ba f486 66bc
000003b0: bd4a 483f e0e5 bfbb dd5d a2bc 64d1 bc3b
000003c0: 6508 f6be 723a 793c d598 8d3c 4450 8f3b
000003d0: c0cf 38bc f705 dc3b f234 b8bb a15b a3bc
000003e0: d53d c5bb e651 7d3b f316 8a3f 3754 17bb
000003f0: f0a8 813e 34d0 0b3c b3e8 f538 4907 42bc
