metric/3_7_probe_cifar100_distill_first_seed0.pth (torch, 539763 bytes, 12 tensors)

z_mu f4 [512]
000000 d1 54 0b 39 32 3a 48 b9 e6 b3 8b b9 fa bd 15 39
       0.0001328767 -0.00019095166 -0.0002664618 0.00014280519
000010 ed 05 5c b8 60 aa 1b b9 24 46 45 3d a0 c3 6d 39
       -5.2457606e-05 -0.00014845422 0.048162594 0.00022674957
000020 d9 fd 39 3b d4 9a ea b9 d6 e9 38 3f 4f d5 9e 3e
       0.0028380065 -0.00044747314 0.72231805 0.31022117
000030 10 d0 de 39 65 30 e5 b7 1a e3 9d 3b 0c 53 c5 3f
       0.00042498158 -2.7321463e-05 0.0048183324 1.5415969
000040 09 90 7e ba e5 1a de 3a 85 cf 72 3f 32 ef 10 ba
       -0.0009710794 0.0016945271 0.948479 -0.0005528807
000050 4f fd 3f b9 23 e7 ae 3a a0 fa 87 3a a3 36 04 3e
       -0.00018309544 0.0013344031 0.0010374375 0.12911467
000060 15 a8 ce b9 12 25 43 b9 43 ca c0 3e 02 ad f4 39
       -0.00039416613 -0.00018610459 0.37654313 0.00046668208
000070 c8 b9 9d 39 8b fb c2 3e 09 d2 5b 3a 76 9d be b7
       0.0003008379 0.38082537 0.00083854847 -2.2723088e-05
000080 0a 34 c5 38 28 6a 08 39 8c 98 16 3f ce 38 be 38
       9.403385e-05 0.00013009517 0.5882652 9.070487e-05
000090 a7 85 9e b7 b9 35 5c b9 1f 46 15 39 62 e6 ba 3c
       -1.8897304e-05 -0.00021000848 0.0001423587 0.022814933
0000a0 d2 c2 a6 39 f5 73 ab 39 05 78 97 ba 3d f9 56 ba
       0.0003180714 0.00032702056 -0.0011556154 -0.00082005915
0000b0 69 d4 48 39 45 7b 36 ba 69 cb c2 37 e5 ef 2a b8
       0.00019152615 -0.00069611176 2.3221322e-05 -4.0754578e-05
0000c0 eb ca 2f 39 23 c8 a8 3d 11 d8 da 39 42 2a 59 b9
       0.00016764893 0.08241298 0.00041741182 -0.00020710475
0000d0 60 8a 05 b9 7e 17 92 b8 a0 02 63 3c 45 49 89 38
       -0.00012735417 -6.966198e-05 0.013855606 6.5463166e-05
0000e0 b9 e8 77 ba 07 08 1a ba 67 aa 92 3e f2 a6 bf b8
       -0.00094569806 -0.000587583 0.28645632 -9.138686e-05
0000f0 9c 5a 2d b8 34 d8 c7 b8 9c 74 ce b7 86 57 d2 38
       -4.13308e-05 -9.5293304e-05 -2.4611414e-05 0.00010029883
000100 73 fe 1b b9 f8 fa 3f 37 e9 c9 bc b9 a8 01 2f 39
       -0.00014876742 1.144292e-05 -0.0003600859 0.00016689918
000110 16 e5 78 b8 84 40 13 bb 46 33 84 3f 46 13 43 ba
       -5.934116e-05 -0.0022468874 1.0328147 -0.00074415316
000120 c8 18 6e b8 a3 73 10 3f a0 1f df 3a 17 6c b8 b9
       -5.67667e-05 0.5642645 0.0017022975 -0.00035175748
000130 46 f5 4b b7 e9 32 cf 39 42 89 42 39 c6 e2 e8 b9
       -1.215685e-05 0.00039520048 0.00018552414 -0.00044419448
000140 4d a6 9f 3d 3e 7a 69 39 d6 e6 14 b8 c8 6d 6a 39
       0.07795391 0.0002226615 -3.5500932e-05 0.00022356876
000150 31 0a d3 38 dd 78 8d 3a a4 49 9e 3d 64 5b 76 b9
       0.00010063162 0.0010793466 0.077288896 -0.00023494434
000160 4b 14 02 3a 07 3d f4 3a 22 25 18 ba 50 8a c3 38
       0.00049621303 0.001863391 -0.0005803873 9.324087e-05
000170 c4 37 29 b8 d4 10 4a 39 6e 65 95 b8 fd bd 1d 3a
       -4.0344676e-05 0.0001927049 -7.1237664e-05 0.0006017385
000180 96 28 a7 3e 3e ce 7e b8 b2 be 57 3a e8 e9 98 3e
       0.32648152 -6.0750397e-05 0.0008230015 0.29865956
000190 80 70 3f ba bf 8a 7f ba 54 0f 25 b9 2b 8a da 37
       -0.00073028356 -0.0009748153 -0.00015741336 2.6051965e-05
0001a0 1e b8 2c ba 5c ac 1a b8 21 db 01 39 fa 38 01 3a
       -0.0006588715 -3.6876983e-05 0.0001238403 0.00049294496
0001b0 ee d8 46 39 a5 b2 c9 ba ca e7 a4 38 34 6e 7a b6
       0.00018963564 -0.0015388323 7.8633035e-05 -3.731705e-06
0001c0 52 43 b1 39 f6 8c 87 38 e3 0e bc 38 07 1d 61 ba
       0.00033810228 6.463558e-05 8.9673114e-05 -0.0008587394
0001d0 92 86 68 ba a6 01 2f b8 0c ad 73 39 dd a4 98 3b
       -0.000887015 -4.1724787e-05 0.00023238751 0.004658325
0001e0 8e db da 3d 84 ce 2a 39 8a 58 4e b9 8a e5 87 38
       0.10686408 0.00016289396 -0.00019678674 6.4800566e-05
0001f0 9b cd 79 3c 59 f4 e8 3a 66 94 d3 b9 fd 31 57 39
       0.015246774 0.0017773017 -0.00040355622 0.0002052262
000200 ec 95 47 ba f5 49 0c b8 9c 9e 09 3f c7 4e d2 b7
       -0.00076135877 -3.344748e-05 0.53757644 -2.5070634e-05
000210 77 1f 86 b9 2c e7 fc b7 93 c2 98 3c cc da 4f b7
       -0.00025581915 -3.0148389e-05 0.018647468 -1.2389104e-05
000220 0c 29 c7 39 ee 85 01 ba 79 0c c4 ba 3b 2a 38 39
       0.0003798682 -0.00049409166 -0.001495733 0.0001756334
000230 54 94 8a ba a4 e0 41 3f 79 10 e3 3b a1 ea 5e 3a
       -0.001057277 0.757334 0.006929454 0.00085035904
000240 b8 8e 8b ba 3d 08 cf b7 31 08 51 b9 c7 c6 5f 3a
       -0.0010647392 -2.468016e-05 -0.00019934845 0.0008536395
000250 7c 8d fe 3a c3 fd 25 b9 3c 36 ee 3a d2 10 7f b8
       0.0019420828 -0.0001583016 0.0018174122 -6.0812403e-05
000260 4f ba 33 3f ca 19 53 b9 e4 9b 81 39 90 9c 21 3e
       0.7020616 -0.00020132135 0.00024720945 0.1578238
000270 6e b6 73 38 c0 51 6d ba 71 70 8a b8 69 ae c4 3e
       5.8105616e-05 -0.0009053014 -6.6012966e-05 0.38414314
000280 0b f8 c6 39 e3 17 a3 b9 7f 6d f2 b7 08 ba c5 39
       0.0003795031 -0.0003110758 -2.8899636e-05 0.00037713372
000290 26 50 00 3d 12 74 a7 38 ec f2 a4 37 ad 43 a7 b8
       0.031326436 7.9848e-05 1.9663443e-05 -7.975786e-05
0002a0 de c3 1b b9 60 01 c0 39 2b 97 26 b9 c3 a8 4e 39
       -0.00014854918 0.00036622118 -0.00015887308 0.0001970856
0002b0 44 b7 3c b9 0c 0d cb b9 28 6f 4a ba ab 48 b9 39
       -0.00017997349 -0.00038728898 -0.0007722252 0.00035340092
0002c0 49 bb 6b b9 7b ef 00 39 42 8f 29 ba de 1e f0 b8
       -0.00022481116 0.00012296245 -0.00064681855 -0.00011449841
0002d0 c4 7d 00 3a 01 36 25 3a 07 9a 3c b9 8e 11 91 3d
       0.0004901553 0.00063022977 -0.00017986457 0.070834264
0002e0 63 0f e5 b8 7f 7d 8c bb e4 a0 1a ba db 23 b2 b9
       -0.00010922437 -0.0042874212 -0.00058986084 -0.0003397752
0002f0 df 25 c2 b7 b3 dc 53 39 72 e7 91 b9 bd 7f ab b9
       -2.3144237e-05 0.00020204745 -0.00027828995 -0.00032710834
000300 1d 9f 44 b8 2f e6 f6 b7 bd 64 82 ba 99 f2 aa b8
       -4.6878227e-05 -2.9432673e-05 -0.0009948235 -8.151419e-05
000310 d4 d5 87 b9 72 71 0a 3a 8a 4e a5 b9 29 e6 23 3f
       -0.0002590852 0.0005281187 -0.0003152977 0.6402307
000320 9e a4 e9 39 7a b2 09 39 1b c5 85 b9 b1 57 f4 3b
       0.00044563873 0.00013131826 -0.00025514592 0.0074567427
000330 88 4a a1 3a a8 40 a6 39 be 36 28 b9 a9 16 bc ba
       0.0012305537 0.0003171016 -0.00016042122 -0.0014350015
000340 62 96 53 3f 20 5d b5 b8 8f 45 11 b9 0a 4d a5 38
       0.8265134 -8.6480984e-05 -0.0001385419 7.882163e-05
000350 fc 83 96 38 0e ab 12 ba 81 1f 2e b9 c5 d8 01 ba
       7.1771414e-05 -0.0005594947 -0.00016605669 -0.00049532606
000360 90 9e 8d b7 04 99 90 35 99 85 14 38 1d 0a fb b9
       -1.6882346e-05 1.077337e-06 3.5410372e-05 -0.00047881986
000370 94 50 95 b8 e1 d9 c8 3a ee 31 d7 b9 0e ee 84 39
       -7.1198825e-05 0.0015323722 -0.00041045196 0.00025354367
000380 3d 75 2c 38 43 e8 92 38 78 40 1c 3f c3 f4 41 3b
       4.1117182e-05 7.0050846e-05 0.6103587 0.0029595352
000390 35 e1 41 39 58 3e bc b8 08 9a 52 3f 6d e9 e0 b8
       0.0001848981 -8.976151e-05 0.82266283 -0.00010724631
0003a0 77 32 29 39 13 1e bb 3b 05 8f ed 3e a6 89 a0 ba
       0.00016135896 0.0057103722 0.46398178 -0.0012248054
0003b0 68 e0 3b ba bc cb 8d b9 e0 d4 be 39 21 f0 0d ba
       -0.0007166923 -0.0002704541 0.00036398228 -0.0005414505
0003c0 f9 a8 8e 39 d0 10 ac b8 40 6c a1 ba 42 88 26 39
       0.00027210245 -8.204731e-05 -0.0012315586 0.00015881754
0003d0 33 b3 38 ba 36 55 aa 37 e6 68 35 39 58 1a 2d 39
       -0.0007045746 2.0305259e-05 0.00017300583 0.0001650838
0003e0 1b 36 4f b9 a5 d5 77 3f ad b4 73 3a 22 90 a1 b8
       -0.00019761214 0.9681037 0.0009296637 -7.703925e-05
0003f0 14 bb 19 40 99 d1 67 39 64 5f 75 3b 31 45 ab ba
       2.4020433 0.00022107958 0.003744089 -0.0013066885

z_logvar f4 [512]
000000 e3 f6 f7 c0 03 9a f1 c0 12 c6 04 c1 96 9b 00 c1
       -7.7488875 -7.5500503 -8.298357 -8.037985
000010 53 e9 00 c1 0a 7b fd c0 b0 ad 3b c0 59 b5 a6 c0
       -8.056964 -7.9212694 -2.932476 -5.209637
000020 f3 d2 8c c0 ab e6 fa c0 19 be 34 c0 23 f8 3c c0
       -4.4007506 -7.8406577 -2.8241026 -2.952645
000030 4f 4f 04 c1 d9 56 03 c1 4c e8 8f c0 86 90 2f c0
       -8.269362 -8.208703 -4.4971066 -2.743196
000040 4a e2 cd c0 fe f0 d3 c0 b3 9b 5d c0 bf a1 00 c1
       -6.433873 -6.623168 -3.4626281 -8.039489
000050 d8 2d 07 c1 5c 02 f0 c0 94 a8 a2 c0 07 df 2e c0
       -8.448692 -7.500288 -5.0830784 -2.7323625
000060 99 87 f6 c0 ba 5e 06 c1 d6 15 64 c0 32 d1 d2 c0
       -7.7040524 -8.398127 -3.5638328 -6.5880365
000070 34 9c ff c0 ff 50 70 c0 79 22 01 c1 38 6d 09 c1
       -7.987818 -3.7549436 -8.070916 -8.589165
000080 a1 94 fc c0 ca a3 f5 c0 03 51 73 c0 54 8a 08 c1
       -7.893143 -7.676244 -3.8018196 -8.5337715
000090 6e 2e e4 c0 27 ec f0 c0 9e 92 08 c1 95 88 71 c0
       -7.1306677 -7.528827 -8.535795 -3.7739613
0000a0 85 ac 00 c1 0f 6d fa c0 76 58 d4 c0 61 72 05 c1
       -8.042119 -7.825813 -6.6357985 -8.340425
0000b0 d6 a0 f0 c0 91 ec ec c0 8c 2f 00 c1 c2 21 f1 c0
       -7.5196333 -7.4038777 -8.011608 -7.535371
0000c0 5b e5 85 c0 c5 a7 48 c0 ba a7 ac c0 38 8d f1 c0
       -4.1842475 -3.1352398 -5.3954744 -7.5484886
0000d0 45 d1 f1 c0 e6 85 05 c1 2c f3 7d c0 35 22 05 c1
       -7.5567956 -8.34519 -3.967967 -8.320851
0000e0 7d 45 95 c0 20 7b ca c0 75 fe 4a c0 c7 bd fd c0
       -4.6647325 -6.32753 -3.1717808 -7.929416
0000f0 7d 2c a8 c0 42 83 01 c1 1b c2 06 c1 29 c9 f5 c0
       -5.2554307 -8.094545 -8.422389 -7.6808057
000100 b9 13 f1 c0 e5 96 fe c0 2d ef f5 c0 4d cb 03 c1
       -7.5336576 -7.9559197 -7.6854463 -8.237134
000110 a9 18 fd c0 f6 92 ef c0 02 82 2b c0 ff 0f cc c0
       -7.9092603 -7.4866896 -2.67981 -6.3769526
000120 fa d4 06 c1 54 b1 8a c0 5f 3e d3 c0 ed 14 cf c0
       -8.426996 -4.3341465 -6.6013637 -6.4713044
000130 ca 52 fa c0 04 16 dc c0 94 fa 03 c1 e9 b5 c6 c0
       -7.822606 -6.8776875 -8.248676 -6.209706
000140 27 ce 38 c0 01 b2 fb c0 fb 33 06 c1 fd 84 00 c1
       -2.8875825 -7.865479 -8.387691 -8.032468
000150 87 0c 0b c1 a7 97 01 c1 ae 7e 54 c0 a6 52 05 c1
       -8.690558 -8.0995245 -3.320232 -8.332678
000160 62 f2 08 c1 30 84 80 c0 29 4f f0 c0 18 80 f8 c0
       -8.5591755 -4.016136 -7.509663 -7.7656364
000170 c6 43 05 c1 c4 39 fe c0 21 99 f8 c0 72 b1 f1 c0
       -8.329046 -7.9445515 -7.7686925 -7.552911
000180 79 7e 6a c0 9e c8 dd c0 4e df e7 c0 0f 95 0a c0
       -3.6639693 -6.9307394 -7.246009 -2.1653478
000190 d3 bf ef c0 6c 79 bd c0 5f 49 b0 c0 1e 27 d1 c0
       -7.492166 -5.921072 -5.5089564 -6.536025
0001a0 b3 cb 00 c1 3e 45 05 c1 e4 de 02 c1 24 f7 fa c0
       -8.049731 -8.329405 -8.179417 -7.8426685
0001b0 86 2b ff c0 27 be c9 c0 e5 52 06 c1 60 77 06 c1
       -7.974063 -6.304462 -8.395238 -8.404144
0001c0 48 7d ee c0 c9 23 03 c1 aa 3a d3 c0 e9 86 fe c0
       -7.452793 -8.196237 -6.600911 -7.9539685
0001d0 70 15 9a c0 ef 28 09 c1 80 ab f3 c0 d2 01 a0 c0
       -4.815117 -8.572494 -7.614685 -5.000222
0001e0 9d f4 58 c0 71 85 04 c1 4f cf f8 c0 6c fa f8 c0
       -3.38993 -8.282578 -7.775306 -7.780569
0001f0 fb 0c 85 c0 46 ed ad c0 03 39 00 c1 37 9a 02 c1
       -4.1578345 -5.435214 -8.013919 -8.16265
000200 ac d4 05 c1 93 59 00 c1 b4 2a 28 c0 7d 74 e3 c0
       -8.364422 -8.021869 -2.6276064 -7.1079698
000210 5c 67 04 c1 31 91 07 c1 14 9b 82 c0 69 7f fb c0
       -8.275234 -8.472947 -4.0814304 -7.859303
000220 08 77 89 c0 b0 6c f7 c0 0e c3 de c0 81 f5 fb c0
       -4.29578 -7.7320175 -6.9613104 -7.8737187
000230 84 cb ea c0 97 84 22 c0 ac 5b 92 c0 17 85 f2 c0
       -7.337343 -2.5393426 -4.5736904 -7.5787463
000240 b7 5d f0 c0 39 75 03 c1 a1 f6 d6 c0 47 67 aa c0
       -7.51144 -8.216119 -6.717606 -5.325107
000250 2b 7f e1 c0 89 87 ff c0 72 2b c1 c0 56 1a f8 c0
       -7.0467734 -7.985295 -6.0365534 -7.753215
000260 ea 49 18 c0 c1 8c e6 c0 dc b5 00 c1 26 7f 53 c0
       -2.3795114 -7.204682 -8.044399 -3.3046355
000270 d3 c5 06 c1 5f 39 b7 c0 7e f0 06 c1 e6 ed 49 c0
       -8.423297 -5.7257533 -8.433714 -3.1551452
000280 36 87 00 c1 35 c8 fe c0 48 e9 00 c1 e1 2f f6 c0
       -8.0330105 -7.9619393 -8.056953 -7.6933446
000290 37 71 63 c0 49 3b ff c0 8b 67 03 c1 50 eb ff c0
       -3.553785 -7.975987 -8.212779 -7.9974747
0002a0 10 e9 01 c1 14 8b fa c0 c7 7b 07 c1 18 c2 f8 c0
       -8.1194 -7.8294773 -8.467719 -7.773693
0002b0 61 bd 07 c1 6e bf fb c0 77 62 a3 c0 47 e6 06 c1
       -8.483735 -7.867118 -5.1057696 -8.43122
0002c0 b0 b8 04 c1 90 fd fb c0 82 96 d3 c0 00 7c 06 c1
       -8.29509 -7.8747025 -6.6121225 -8.405273
0002d0 2e e7 00 c1 27 a0 f8 c0 f6 25 03 c1 2a d2 4f c0
       -8.05644 -7.76955 -8.196768 -3.2472024
0002e0 61 68 ee c0 fd bc ba c0 24 51 d5 c0 2e d3 05 c1
       -7.4502416 -5.83557 -6.666155 -8.364058
0002f0 24 d9 02 c1 a9 3e ea c0 f1 bc e0 c0 09 7d 00 c1
       -8.178013 -7.320149 -7.023064 -8.030526
000300 5a 88 f4 c0 99 2e bc c0 7a 49 f8 c0 16 81 00 c1
       -7.6416445 -5.880688 -7.7589693 -8.031515
000310 63 10 ff c0 20 b3 d3 c0 31 0b 0c c1 fa f1 52 c0
       -7.9707503 -6.615616 -8.752732 -3.296019
000320 82 ed 04 c1 5c ff f6 c0 56 e4 f5 c0 c0 aa c5 c0
       -8.307985 -7.718672 -7.684123 -6.1770935
000330 af 21 cf c0 49 aa 00 c1 c4 b4 01 c1 31 0f fa c0
       -6.472862 -8.041574 -8.106632 -7.8143544
000340 65 ab 46 c0 75 00 d4 c0 0a df 04 c1 9f 7f 03 c1
       -3.104211 -6.625056 -8.304453 -8.2186575
000350 a7 19 01 c1 90 c3 f9 c0 96 8b fd c0 ad e0 fb c0
       -8.068763 -7.8051224 -7.9232893 -7.8711762
000360 d8 2c 00 c1 d9 75 05 c1 07 c8 ca c0 c1 8e fe c0
       -8.010948 -8.341271 -6.3369174 -7.954926
000370 ce 3b 01 c1 0d 4a 8d c0 71 96 04 c1 fc 6b f9 c0
       -8.077101 -4.4152894 -8.286729 -7.7944317
000380 2d 8a fc c0 cf 97 05 c1 22 eb 09 c0 33 79 b0 c0
       -7.891867 -8.349563 -2.1549764 -5.514795
000390 33 1c 08 c1 d8 65 05 c1 2d 3e 33 c0 78 8f e6 c0
       -8.506885 -8.337364 -2.80067 -7.2050133
0003a0 79 e7 02 c1 96 ad 6a c0 ba 89 0c c0 76 b7 c5 c0
       -8.181512 -3.6668448 -2.1959062 -6.178645
0003b0 8d 78 00 c1 b4 20 f1 c0 fd 7c 03 c1 15 d6 bd c0
       -8.029431 -7.535242 -8.218015 -5.932383
0003c0 d7 08 f9 c0 43 d4 ef c0 b9 5b e3 c0 2f a8 00 c1
       -7.782329 -7.494661 -7.1049466 -8.04106
0003d0 22 70 e3 c0 25 f2 f6 c0 82 c6 09 c1 e2 e8 02 c1
       -7.107438 -7.7170587 -8.610964 -8.181856
0003e0 79 3a c6 c0 b7 86 46 c0 13 ba d2 c0 a6 a9 01 c1
       -6.194638 -3.1019723 -6.585214 -8.103918
0003f0 cb c5 d0 bf 0b 62 04 c1 25 0d b0 c0 8e 27 79 c0
       -1.6310362 -8.273936 -5.5016046 -3.8930392

weight_mu f4 [128, 512]
000000 88 49 97 b9 91 df 19 3a 83 44 c5 b9 84 ab 74 b9
       -0.0002885575 0.0005869801 -0.00037625813 -0.00023333548
000010 c4 29 92 ba 93 43 bd 39 bf b3 04 bb 12 cc 7b 3a
       -0.0011151363 0.00036099236 -0.0020248739 0.0009605299
000020 e4 bf c9 b8 38 99 ed 38 dc d8 ab ba e1 20 40 bb
       -9.620169e-05 0.0001132958 -0.0013110894 -0.0029316472
000030 64 b4 d2 38 f3 59 8a 38 3d 74 a4 3a 50 4c c6 ba
       0.00010047181 6.597107e-05 0.0012546849 -0.0015128944
000040 38 81 cc b9 3b a9 f4 b9 e1 fc df 39 22 04 35 38
       -0.00039006188 -0.00046665393 0.00042722284 4.315761e-05
000050 f0 96 49 b9 ff b6 d1 b8 62 c5 1f ba 47 f2 6f 39
       -0.00019225082 -9.999982e-05 -0.0006094781 0.00022883072
000060 ea 54 d6 39 ce e5 10 39 b7 c8 56 b7 da de ce 39
       0.00040880527 0.00013818519 -1.2802127e-05 0.0003945742
000070 f0 12 9a 39 8a 6f d4 ba f5 52 6c ba 83 15 08 ba
       0.00029387278 -0.0016207558 -0.0009015047 -0.0005191194
000080 b4 7b 87 b8 43 bc 03 b8 60 4a 68 bb a9 f8 ab b9
       -6.460343e-05 -3.1408166e-05 -0.0035444722 -0.00032800928
000090 4d c0 bf ba 2c 10 04 ba 5b 7b 5a 39 b9 70 44 ba
       -0.0014629454 -0.000503781 0.00020836054 -0.00074936036
0000a0 33 3a 88 3a 51 a3 46 b9 d7 96 ca b9 40 bd 15 39
       0.0010393321 -0.00018943592 -0.00038640827 0.00014280248
0000b0 ae d4 a0 ba ef aa 54 39 b6 9e 0a b9 1b 4e b8 38
       -0.0012270415 0.00020281573 -0.0001321983 8.788352e-05
0000c0 19 99 bd ba 48 2b cc 3a 1f 8c 81 39 d6 7f 3e 38
       -0.0014465182 0.0015576864 0.00024709196 4.5418587e-05
0000d0 a8 d0 05 b9 2d 5c 2e 39 2a 69 5d ba 2c 2a ae b9
       -0.00012761599 0.00016628271 -0.00084461516 -0.00033219287
0000e0 e2 1e e4 b9 88 0d 71 b9 24 0a 49 b8 f9 9b d8 b8
       -0.00043510558 -0.00022988592 -4.793158e-05 -0.00010328735
0000f0 59 f7 92 39 06 b2 c5 b9 a5 09 ca 39 43 60 0f 3a
       0.00028031578 -0.00037707406 0.00038535628 0.0005469361
000100 22 ac ef 39 ee b9 33 b9 3a 7e b3 ba a3 48 93 3a
       0.0004571388 -0.00017140034 -0.0013694235 0.0011236857
000110 41 32 01 39 3e e0 72 ba b1 fc 62 bb 24 4c c4 3a
       0.0001232112 -0.0009264982 -0.003463548 0.0014976305
000120 32 02 1b 39 d4 e0 79 bb be d2 ca b9 90 85 5e ba
       0.0001478277 -0.0038128393 -0.00038685458 -0.00084885303
000130 ce 45 36 3a f0 5f 07 b8 9b 6e d4 39 f8 ed 9c ba
       0.0006953151 -3.2275857e-05 0.00040518199 -0.0011972776
000140 37 cb 5d b9 d6 71 e8 38 8c 4b ea 39 84 d9 e4 b9
       -0.00021151906 0.00011083826 0.00044688245 -0.0004364961
000150 28 14 8d b6 01 1c be 39 40 85 74 38 c0 53 2f b8
       -4.204474e-06 0.0003626049 5.8298232e-05 -4.180125e-05
000160 1e 4c be 39 7b d5 6a ba cd c4 51 b8 b6 4a 03 3a
       0.00036296336 -0.00089582027 -5.0012768e-05 0.0005008386
000170 ed 2f b6 38 61 ec 1c ba e5 35 03 3a 57 17 49 3a
       8.687363e-05 -0.0005986151 0.00050052843 0.00076710194
000180 f2 d7 07 b9 f8 fb 15 ba 02 bf 87 39 82 12 96 39
       -0.00012955049 -0.0005721445 0.00025891518 0.0002862402
000190 bf 1f 79 b9 26 ea 1d ba 15 3f 6d ba c2 0c df 39
       -0.00023758317 -0.00060239655 -0.00090502325 0.0004254338
0001a0 87 65 80 39 b4 8e 80 39 05 b6 df 37 6a ea d4 ba
       0.00024489706 0.00024520385 2.6668431e-05 -0.0016244177
0001b0 84 96 72 3a e9 65 24 b6 93 1c 2f b6 f7 02 c7 b9
       0.0009253996 -2.4497224e-06 -2.6093664e-06 -0.00037958447
0001c0 07 ad 9a 39 7b 01 76 39 82 6a 80 3a 21 4d 76 3a
       0.00029502084 0.0002346094 0.0009797367 0.00093956484
0001d0 77 b1 3f 3a 65 35 a5 b7 7e 22 73 39 f8 f3 ff b9
       0.0007312516 -1.9694397e-05 0.00023187135 -0.0004881916
0001e0 1d 25 95 b9 50 b5 d4 37 9d de 7e 39 4e df 9b b8
       -0.00028447146 2.53568e-05 0.00024306258 -7.43257e-05
0001f0 43 cc 05 3a 06 5b 4c ba 44 02 a7 b9 81 24 02 b9
       0.0005103985 -0.0007795546 -0.0003185441 -0.00012411365
000200 b5 d1 c9 39 18 fb 3f 37 a0 41 93 ba 3a 4e f9 38
       0.0003849395 1.14429495e-05 -0.0011234768 0.00011887816
000210 71 a3 f8 39 38 a1 5b 3a 97 7d e4 ba 06 f4 12 3a
       0.0004742402 0.00083782105 -0.0017432448 0.00056058203
000220 f7 9f 30 ba cc 9a 94 b8 a9 5a dd 39 a1 e5 16 b7
       -0.0006737704 -7.086023e-05 0.00042219952 -8.994161e-06
000230 4a 27 d9 b9 9f 7b 1e bb 51 68 ae ba ed 27 3c 39
       -0.00041418738 -0.002418257 -0.0013306235 0.0001794395
000240 aa 05 ef 38 61 b2 26 3a 16 d8 3a ba 66 b0 d9 ba
       0.00011397463 0.0006358978 -0.0007127536 -0.0016608357
000250 5b 40 e9 39 78 43 88 39 86 ad 83 ba 95 9a d3 b7
       0.00044489172 0.0002599021 -0.0010046221 -2.5225143e-05
000260 d5 f6 4f bb e7 92 6c b8 cc 35 eb 38 88 f9 78 ba
       -0.0031732817 -5.6403598e-05 0.00011215694 -0.0009497632
000270 77 8a 11 39 df 2a 0d ba c0 a9 f6 b8 fa 9c 6d 37
       0.0001387986 -0.00053851114 -0.000117618125 1.416285e-05
000280 8e f4 2b 3a e2 73 8c 39 f5 5a 85 3a fc b8 b7 39
       0.0006559574 0.0002678922 0.0010174202 0.00035042304
000290 59 bd c2 b8 09 0f 64 b9 14 46 b1 b9 0d 61 e2 b9
       -9.2859096e-05 -0.00021749375 -0.00033812283 -0.00043178388
0002a0 b4 c3 90 b9 bb 59 59 ba 1b a6 56 39 75 2d a8 39
       -0.0002761163 -0.0008291264 0.0002047051 0.00032077325
0002b0 a9 3e da 38 5b ce 0d ba 35 03 8d ba 07 51 8d 39
       0.000104067214 -0.00054094725 -0.0010758402 0.00026953986
0002c0 a9 c3 c1 38 e1 f2 d1 39 15 81 7a b8 32 9a 0b ba
       9.239402e-05 0.00040044545 -5.972486e-05 -0.0005325406
0002d0 3d e9 0c b9 fb a9 f6 b9 11 f1 c5 39 82 e7 90 b9
       -0.00013438328 -0.00047047422 0.00037754377 -0.00027638307
0002e0 7e 56 27 37 73 2b 41 b9 7e 51 5e 38 e9 fc c5 b8
       9.974114e-06 -0.000184221 5.300482e-05 -9.4408e-05
0002f0 47 d8 28 39 07 e2 f9 b8 22 7a 28 3a 6b da 21 b9
       0.00016102298 -0.00011915346 0.00064268906 -0.00015435524
000300 4a c5 af b9 d0 93 66 38 76 7d 41 39 55 e4 84 39
       -0.00033525593 5.4973934e-05 0.00018452652 0.00025347123
000310 d0 2c 6f ba c0 a9 ae b9 cf 82 98 b8 dd 31 05 3a
       -0.0009123804 -0.0003331434 -7.27229e-05 0.00050809776
000320 81 a0 90 b9 39 3f 8f ba 64 b3 11 38 d7 fb 8b 38
       -0.00027585405 -0.0010928876 3.4737765e-05 6.674945e-05
000330 f2 74 94 ba 70 2f b0 b8 78 6b 02 3a 2d 0c d2 38
       -0.0011326356 -8.40117e-05 0.00049751205 0.00010015848
000340 c6 cc 5d ba 59 bc de 37 e5 b5 10 39 3e 3f 92 39
       -0.00084609946 2.6552168e-05 0.00013800671 0.0002789441
000350 e9 d2 8c b8 ea d4 00 38 81 8e b5 b8 c0 d3 81 3a
       -6.715005e-05 3.071587e-05 -8.657296e-05 0.0009905025
000360 04 57 c3 39 50 94 04 ba e6 aa 9e b8 f6 eb 6d 39
       0.0003725813 -0.00050575007 -7.5658594e-05 0.00022689984
000370 b8 dc f3 38 ea 58 eb 3a 8c 09 26 ba 0e a5 b1 3a
       0.00011628255 0.0017955576 -0.000633382 0.0013553218
000380 16 60 87 3a e2 7e b3 37 57 76 d3 ba 59 94 dd 38
       0.0010328318 2.1397547e-05 -0.001613329 0.00010565733
000390 ff cc 37 35 d2 32 af 39 12 99 3e ba e2 b8 8e ba
       6.847112e-07 0.00033416465 -0.0007270734 -0.001088884
0003a0 8b 13 78 b9 ab 21 5b bb fb d7 2c 3b 1a 81 26 ba
       -0.00023658403 -0.0033436816 0.0026373852 -0.0006351635
0003b0 ad 00 8a ba f9 b8 30 39 06 8e 66 ba ab de 04 b8
       -0.0010528766 0.00016853576 -0.0008794967 -3.1678628e-05
0003c0 ca 02 1a b9 94 ff cd b9 b8 df 90 39 32 37 0c bb
       -0.00014687623 -0.00039291068 0.00027632504 -0.0021395204
0003d0 ff 3c 82 b9 44 ec 3f ba f7 01 4d 39 d9 00 23 39
       -0.00024840978 -0.0007321278 0.00019551055 0.00015545207
0003e0 f5 4f 30 3a 29 e5 76 bb ce 4d e9 b8 56 e3 24 b8
       0.0006725782 -0.0037673211 -0.00011124798 -3.931237e-05
0003f0 7c 17 d7 ba 1b 98 f0 39 f6 c4 5b 39 95 d8 09 ba
       -0.0016410197 0.00045889695 0.00020958841 -0.00052584085

weight_logvar f4 [128, 512]
000000 10 02 4e c0 10 02 4e c0 10 02 4e c0 10 02 4e c0
       -3.218876 -3.218876 -3.218876 -3.218876
000010 10 02 4e c0 10 02 4e c0 10 02 4e c0 10 02 4e c0
       -3.218876 -3.218876 -3.218876 -3.218876
000020 10 02 4e c0 10 02 4e c0 10 02 4e c0 10 02 4e c0
       -3.218876 -3.218876 -3.218876 -3.218876
000030 10 02 4e c0 10 02 4e c0 10 02 4e c0 10 02 4e c0
       -3.218876 -3.218876 -3.218876 -3.218876
000040 10 02 4e c0 10 02 4e c0 10 02 4e c0 10 02 4e c0
       -3.218876 -3.218876 -3.218876 -3.218876
000050 10 02 4e c0 10 02 4e c0 10 02 4e c0 10 02 4e c0
       -3.218876 -3.218876 -3.218876 -3.218876
000060 10 02 4e c0 10 02 4e c0 10 02 4e c0 10 02 4e c0
       -3.218876 -3.218876 -3.218876 -3.218876
000070 10 02 4e c0 10 02 4e c0 10 02 4e c0 10 02 4e c0
       -3.218876 -3.218876 -3.218876 -3.218876
000080 10 02 4e c0 10 02 4e c0 10 02 4e c0 10 02 4e c0
       -3.218876 -3.218876 -3.218876 -3.218876
000090 10 02 4e c0 10 02 4e c0 10 02 4e c0 10 02 4e c0
       -3.218876 -3.218876 -3.218876 -3.218876
0000a0 10 02 4e c0 10 02 4e c0 10 02 4e c0 10 02 4e c0
       -3.218876 -3.218876 -3.218876 -3.218876
0000b0 10 02 4e c0 10 02 4e c0 10 02 4e c0 10 02 4e c0
       -3.218876 -3.218876 -3.218876 -3.218876
0000c0 10 02 4e c0 10 02 4e c0 10 02 4e c0 10 02 4e c0
       -3.218876 -3.218876 -3.218876 -3.218876
0000d0 10 02 4e c0 10 02 4e c0 10 02 4e c0 10 02 4e c0
       -3.218876 -3.218876 -3.218876 -3.218876
0000e0 10 02 4e c0 10 02 4e c0 10 02 4e c0 10 02 4e c0
       -3.218876 -3.218876 -3.218876 -3.218876
0000f0 10 02 4e c0 10 02 4e c0 10 02 4e c0 10 02 4e c0
       -3.218876 -3.218876 -3.218876 -3.218876
000100 10 02 4e c0 10 02 4e c0 10 02 4e c0 10 02 4e c0
       -3.218876 -3.218876 -3.218876 -3.218876
000110 10 02 4e c0 10 02 4e c0 10 02 4e c0 10 02 4e c0
       -3.218876 -3.218876 -3.218876 -3.218876
000120 10 02 4e c0 10 02 4e c0 10 02 4e c0 10 02 4e c0
       -3.218876 -3.218876 -3.218876 -3.218876
000130 10 02 4e c0 10 02 4e c0 10 02 4e c0 10 02 4e c0
       -3.218876 -3.218876 -3.218876 -3.218876
000140 10 02 4e c0 10 02 4e c0 10 02 4e c0 10 02 4e c0
       -3.218876 -3.218876 -3.218876 -3.218876
000150 10 02 4e c0 10 02 4e c0 10 02 4e c0 10 02 4e c0
       -3.218876 -3.218876 -3.218876 -3.218876
000160 10 02 4e c0 10 02 4e c0 10 02 4e c0 10 02 4e c0
       -3.218876 -3.218876 -3.218876 -3.218876
000170 10 02 4e c0 10 02 4e c0 10 02 4e c0 10 02 4e c0
       -3.218876 -3.218876 -3.218876 -3.218876
000180 10 02 4e c0 10 02 4e c0 10 02 4e c0 10 02 4e c0
       -3.218876 -3.218876 -3.218876 -3.218876
000190 10 02 4e c0 10 02 4e c0 10 02 4e c0 10 02 4e c0
       -3.218876 -3.218876 -3.218876 -3.218876
0001a0 10 02 4e c0 10 02 4e c0 10 02 4e c0 10 02 4e c0
       -3.218876 -3.218876 -3.218876 -3.218876
0001b0 10 02 4e c0 10 02 4e c0 10 02 4e c0 10 02 4e c0
       -3.218876 -3.218876 -3.218876 -3.218876
0001c0 10 02 4e c0 10 02 4e c0 10 02 4e c0 10 02 4e c0
       -3.218876 -3.218876 -3.218876 -3.218876
0001d0 10 02 4e c0 10 02 4e c0 10 02 4e c0 10 02 4e c0
       -3.218876 -3.218876 -3.218876 -3.218876
0001e0 10 02 4e c0 10 02 4e c0 10 02 4e c0 10 02 4e c0
       -3.218876 -3.218876 -3.218876 -3.218876
0001f0 10 02 4e c0 10 02 4e c0 10 02 4e c0 10 02 4e c0
       -3.218876 -3.218876 -3.218876 -3.218876
000200 10 02 4e c0 10 02 4e c0 10 02 4e c0 10 02 4e c0
       -3.218876 -3.218876 -3.218876 -3.218876
000210 10 02 4e c0 10 02 4e c0 10 02 4e c0 10 02 4e c0
       -3.218876 -3.218876 -3.218876 -3.218876
000220 10 02 4e c0 10 02 4e c0 10 02 4e c0 10 02 4e c0
       -3.218876 -3.218876 -3.218876 -3.218876
000230 10 02 4e c0 10 02 4e c0 10 02 4e c0 10 02 4e c0
       -3.218876 -3.218876 -3.218876 -3.218876
000240 10 02 4e c0 10 02 4e c0 10 02 4e c0 10 02 4e c0
       -3.218876 -3.218876 -3.218876 -3.218876
000250 10 02 4e c0 10 02 4e c0 10 02 4e c0 10 02 4e c0
       -3.218876 -3.218876 -3.218876 -3.218876
000260 10 02 4e c0 10 02 4e c0 10 02 4e c0 10 02 4e c0
       -3.218876 -3.218876 -3.218876 -3.218876
000270 10 02 4e c0 10 02 4e c0 10 02 4e c0 10 02 4e c0
       -3.218876 -3.218876 -3.218876 -3.218876
000280 10 02 4e c0 10 02 4e c0 10 02 4e c0 10 02 4e c0
       -3.218876 -3.218876 -3.218876 -3.218876
000290 10 02 4e c0 10 02 4e c0 10 02 4e c0 10 02 4e c0
       -3.218876 -3.218876 -3.218876 -3.218876
0002a0 10 02 4e c0 10 02 4e c0 10 02 4e c0 10 02 4e c0
       -3.218876 -3.218876 -3.218876 -3.218876
0002b0 10 02 4e c0 10 02 4e c0 10 02 4e c0 10 02 4e c0
       -3.218876 -3.218876 -3.218876 -3.218876
0002c0 10 02 4e c0 10 02 4e c0 10 02 4e c0 10 02 4e c0
       -3.218876 -3.218876 -3.218876 -3.218876
0002d0 10 02 4e c0 10 02 4e c0 10 02 4e c0 10 02 4e c0
       -3.218876 -3.218876 -3.218876 -3.218876
0002e0 10 02 4e c0 10 02 4e c0 10 02 4e c0 10 02 4e c0
       -3.218876 -3.218876 -3.218876 -3.218876
0002f0 10 02 4e c0 10 02 4e c0 10 02 4e c0 10 02 4e c0
       -3.218876 -3.218876 -3.218876 -3.218876
000300 10 02 4e c0 10 02 4e c0 10 02 4e c0 10 02 4e c0
       -3.218876 -3.218876 -3.218876 -3.218876
000310 10 02 4e c0 10 02 4e c0 10 02 4e c0 10 02 4e c0
       -3.218876 -3.218876 -3.218876 -3.218876
000320 10 02 4e c0 10 02 4e c0 10 02 4e c0 10 02 4e c0
       -3.218876 -3.218876 -3.218876 -3.218876
000330 10 02 4e c0 10 02 4e c0 10 02 4e c0 10 02 4e c0
       -3.218876 -3.218876 -3.218876 -3.218876
000340 10 02 4e c0 10 02 4e c0 10 02 4e c0 10 02 4e c0
       -3.218876 -3.218876 -3.218876 -3.218876
000350 10 02 4e c0 10 02 4e c0 10 02 4e c0 10 02 4e c0
       -3.218876 -3.218876 -3.218876 -3.218876
000360 10 02 4e c0 10 02 4e c0 10 02 4e c0 10 02 4e c0
       -3.218876 -3.218876 -3.218876 -3.218876
000370 10 02 4e c0 10 02 4e c0 10 02 4e c0 10 02 4e c0
       -3.218876 -3.218876 -3.218876 -3.218876
000380 10 02 4e c0 10 02 4e c0 10 02 4e c0 10 02 4e c0
       -3.218876 -3.218876 -3.218876 -3.218876
000390 10 02 4e c0 10 02 4e c0 10 02 4e c0 10 02 4e c0
       -3.218876 -3.218876 -3.218876 -3.218876
0003a0 10 02 4e c0 10 02 4e c0 10 02 4e c0 10 02 4e c0
       -3.218876 -3.218876 -3.218876 -3.218876
0003b0 10 02 4e c0 10 02 4e c0 10 02 4e c0 10 02 4e c0
       -3.218876 -3.218876 -3.218876 -3.218876
0003c0 10 02 4e c0 10 02 4e c0 10 02 4e c0 10 02 4e c0
       -3.218876 -3.218876 -3.218876 -3.218876
0003d0 10 02 4e c0 10 02 4e c0 10 02 4e c0 10 02 4e c0
       -3.218876 -3.218876 -3.218876 -3.218876
0003e0 10 02 4e c0 10 02 4e c0 10 02 4e c0 10 02 4e c0
       -3.218876 -3.218876 -3.218876 -3.218876
0003f0 10 02 4e c0 10 02 4e c0 10 02 4e c0 10 02 4e c0
       -3.218876 -3.218876 -3.218876 -3.218876

bias_mu f4 [128]
000000 6b b9 3e bc e1 17 21 bc 3e d5 62 bd bf 79 fb bc
       -0.011640887 -0.009832353 -0.055379145 -0.030697701
000010 9f 9e c9 bd 68 e1 a2 bb 83 f7 31 bb a4 c8 04 ba
       -0.09844708 -0.004970718 -0.0027155585 -0.0005065298
000020 e2 6f 9b bc d2 99 d0 3c 99 e6 a1 bd 14 83 0d be
       -0.018974248 0.025463972 -0.07905311 -0.13819534
000030 28 34 0a 3e 11 54 56 be 6f 84 71 be 44 9d 55 bb
       0.13496459 -0.20930506 -0.23585676 -0.0032594958
000040 af 4d 62 bc 38 e9 39 bc d8 38 8b ba 9c 2f 47 bc
       -0.0138124665 -0.011347108 -0.0010621799 -0.012157347
000050 b2 f4 8c bc 07 97 c6 3c 5a dc a7 bb a9 39 b5 bc
       -0.017206524 0.024241937 -0.0051227035 -0.022122221
000060 0a 6a 4d be 84 2f 1f bc 16 ee 78 bb e0 4e 27 bc
       -0.20059982 -0.009715918 -0.0037983707 -0.010211676
000070 31 bc 8a 36 1d bc 5e be 22 f3 84 bb 57 b2 04 bd
       4.134629e-06 -0.21751447 -0.004057304 -0.03239664
000080 ca 4a a6 ba 5d 33 e4 ba 51 76 4a be 1a 9d 8b ba
       -0.0012687084 -0.0017410327 -0.19771697 -0.0010651678
000090 de f1 47 be ed 7b 0a bc a5 81 7e be 0a db 6d be
       -0.19525859 -0.008452398 -0.24854143 -0.23228088
0000a0 10 96 9e bb d8 9d 03 bb 4e 9a 77 be e8 5f 83 ba
       -0.004839666 -0.0020083096 -0.24179956 -0.0010023089
0000b0 1a 66 99 bc 75 97 bb bb 87 a0 64 be e5 d4 48 bc
       -0.018725444 -0.005724842 -0.22326861 -0.012257789
0000c0 81 f9 44 be ee 4b 37 be 58 37 b9 ba 09 45 b9 bb
       -0.19235803 -0.17900059 -0.0014130874 -0.0056539816
0000d0 a9 cb 77 bb f0 7c 0d bb d8 47 3b bd aa 28 77 be
       -0.00378106 -0.002158936 -0.045722812 -0.24136606
0000e0 dd 39 8f 3e 32 d3 1d bd 99 15 b7 3e ab f8 e1 bd
       0.27973834 -0.03853149 0.35758665 -0.11033758
0000f0 16 a8 11 ba f7 9a bd bb 36 9c 29 bb 79 aa 27 3e
       -0.0005556358 -0.0057862955 -0.0025880462 0.16373624
000100 1f 2d bf ba 4a b6 2e be 6e f8 6a bb 9b c0 92 3d
       -0.0014585591 -0.17061725 -0.0035853642 0.07165643
000110 39 f2 a7 b9 69 46 aa ba 7b 47 93 bb 90 07 90 bb
       -0.00032033192 -0.0012990955 -0.004494605 -0.004395433
000120 e3 6d 43 be f6 b8 9d bb 5d f0 d7 be 3c a6 d5 3e
       -0.19084887 -0.004813309 -0.4217557 0.4172839
000130 0b 84 14 bc a2 cc 30 bb f0 c0 06 bc b5 98 52 b9
       -0.009064685 -0.002697744 -0.008224711 -0.00020084048
000140 b8 bd 9e ba cb c2 d5 bc f2 a3 32 bb d6 62 21 bb
       -0.0012110984 -0.026093861 -0.0027258364 -0.0024625561
000150 5d 0d 2f bc 4c 4e 97 ba a2 c8 7e bc e6 07 11 b9
       -0.010684338 -0.001154372 -0.015550764 -0.0001383122
000160 7a 11 a9 3d e5 5a 1d bb 64 10 25 bb dd 2f b7 ba
       0.082552865 -0.0024010476 -0.0025186772 -0.0013976056
000170 07 9b 05 bc f3 50 7c be 84 fd 74 ba 4a d8 2f bb
       -0.008154637 -0.24640255 -0.0009345638 -0.00268318
000180 c0 34 69 be ca 94 29 be 39 6d 5d bc 56 ad 70 be
       -0.22774029 -0.16560665 -0.01351481 -0.23503622
000190 a1 3b 1e bb 96 ba 7e be ad d7 66 bb 76 b8 ea b9
       -0.0024144428 -0.24875864 -0.0035223768 -0.00044769392
0001a0 f2 e3 2a bb 4e d1 1d be 4c e2 44 bb 4d 44 c4 bc
       -0.0026075807 -0.15411875 -0.003004211 -0.02395835
0001b0 08 45 7a be 57 91 c6 bc b2 f8 61 be 0b 75 e4 bb
       -0.24440396 -0.024239225 -0.22067526 -0.0069719604
0001c0 dd ea 1e be 75 fa 42 be c8 4e 08 be c8 3a 43 bb
       -0.1551928 -0.19040854 -0.13311303 -0.0029789675
0001d0 93 6c 7e bc 0e cd 07 bd 13 d0 a6 ba f8 5a 34 bb
       -0.015528816 -0.03315454 -0.0012726806 -0.0027520042
0001e0 62 9a f3 bb ba cd 61 be a0 55 65 bc 3c 86 9c bb
       -0.0074341753 -0.22051135 -0.013997465 -0.004776744
0001f0 95 04 af bc 80 45 8c be 68 f0 fa bb a9 a6 0c bb
       -0.02136449 -0.27396774 -0.007658053 -0.0021461642

bias_logvar f4 [128]
000000 10 02 4e c0 10 02 4e c0 10 02 4e c0 10 02 4e c0
       -3.218876 -3.218876 -3.218876 -3.218876
000010 10 02 4e c0 10 02 4e c0 10 02 4e c0 10 02 4e c0
       -3.218876 -3.218876 -3.218876 -3.218876
000020 10 02 4e c0 6d 9c 81 c0 10 02 4e c0 10 02 4e c0
       -3.218876 -4.050345 -3.218876 -3.218876
000030 14 82 4e c0 10 02 4e c0 10 02 4e c0 10 02 4e c0
       -3.2266893 -3.218876 -3.218876 -3.218876
000040 10 02 4e c0 10 02 4e c0 10 02 4e c0 10 02 4e c0
       -3.218876 -3.218876 -3.218876 -3.218876
000050 10 02 4e c0 29 29 50 c0 10 02 4e c0 10 02 4e c0
       -3.218876 -3.2525122 -3.218876 -3.218876
000060 10 02 4e c0 10 02 4e c0 10 02 4e c0 10 02 4e c0
       -3.218876 -3.218876 -3.218876 -3.218876
000070 10 02 4e c0 10 02 4e c0 10 02 4e c0 10 02 4e c0
       -3.218876 -3.218876 -3.218876 -3.218876
000080 10 02 4e c0 10 02 4e c0 74 02 4e c0 10 02 4e c0
       -3.218876 -3.218876 -3.2188997 -3.218876
000090 10 02 4e c0 10 02 4e c0 10 02 4e c0 10 02 4e c0
       -3.218876 -3.218876 -3.218876 -3.218876
0000a0 10 02 4e c0 10 02 4e c0 10 02 4e c0 10 02 4e c0
       -3.218876 -3.218876 -3.218876 -3.218876
0000b0 10 02 4e c0 10 02 4e c0 10 02 4e c0 10 02 4e c0
       -3.218876 -3.218876 -3.218876 -3.218876
0000c0 10 02 4e c0 10 02 4e c0 10 02 4e c0 10 02 4e c0
       -3.218876 -3.218876 -3.218876 -3.218876
0000d0 10 02 4e c0 10 02 4e c0 10 02 4e c0 10 02 4e c0
       -3.218876 -3.218876 -3.218876 -3.218876
0000e0 5f f7 6a c0 10 02 4e c0 df f3 80 c0 10 02 4e c0
       -3.6713483 -3.218876 -4.0297694 -3.218876
0000f0 10 02 4e c0 10 02 4e c0 10 02 4e c0 af 7e 5d c0
       -3.218876 -3.218876 -3.218876 -3.4608572
000100 10 02 4e c0 10 02 4e c0 10 02 4e c0 10 02 4e c0
       -3.218876 -3.218876 -3.218876 -3.218876
000110 10 02 4e c0 10 02 4e c0 10 02 4e c0 10 02 4e c0
       -3.218876 -3.218876 -3.218876 -3.218876
000120 10 02 4e c0 10 02 4e c0 60 06 84 c0 ed 9d 89 c0
       -3.218876 -3.218876 -4.125778 -4.300528
000130 10 02 4e c0 10 02 4e c0 10 02 4e c0 10 02 4e c0
       -3.218876 -3.218876 -3.218876 -3.218876
000140 10 02 4e c0 10 02 4e c0 10 02 4e c0 10 02 4e c0
       -3.218876 -3.218876 -3.218876 -3.218876
000150 10 02 4e c0 10 02 4e c0 10 02 4e c0 10 02 4e c0
       -3.218876 -3.218876 -3.218876 -3.218876
000160 10 02 4e c0 10 02 4e c0 10 02 4e c0 10 02 4e c0
       -3.218876 -3.218876 -3.218876 -3.218876
000170 10 02 4e c0 10 02 4e c0 10 02 4e c0 10 02 4e c0
       -3.218876 -3.218876 -3.218876 -3.218876
000180 10 02 4e c0 10 02 4e c0 10 02 4e c0 10 02 4e c0
       -3.218876 -3.218876 -3.218876 -3.218876
000190 10 02 4e c0 10 02 4e c0 10 02 4e c0 10 02 4e c0
       -3.218876 -3.218876 -3.218876 -3.218876
0001a0 10 02 4e c0 10 02 4e c0 10 02 4e c0 10 02 4e c0
       -3.218876 -3.218876 -3.218876 -3.218876
0001b0 10 02 4e c0 10 02 4e c0 10 02 4e c0 10 02 4e c0
       -3.218876 -3.218876 -3.218876 -3.218876
0001c0 10 02 4e c0 10 02 4e c0 10 02 4e c0 10 02 4e c0
       -3.218876 -3.218876 -3.218876 -3.218876
0001d0 10 02 4e c0 10 02 4e c0 10 02 4e c0 10 02 4e c0
       -3.218876 -3.218876 -3.218876 -3.218876
0001e0 10 02 4e c0 07 44 75 c0 10 02 4e c0 10 02 4e c0
       -3.218876 -3.832277 -3.218876 -3.218876
0001f0 10 02 4e c0 10 02 4e c0 10 02 4e c0 10 02 4e c0
       -3.218876 -3.218876 -3.218876 -3.218876

z_mu f4 [128]
000000 e2 a0 6f 39 d6 5c 3e ba 36 04 12 bb a2 19 0d 3a
       0.0002285275 -0.00072617584 -0.0022280342 0.0005382543
000010 dc 8c ed ba f3 5a 23 39 fd e0 93 b8 33 05 e2 b8
       -0.0018123644 0.00015578773 -7.0514136e-05 -0.00010777488
000020 d8 28 3b ba e0 a9 9a 3f ca d6 15 3a 32 3e d8 ba
       -0.000713957 1.2083092 0.0005715905 -0.0016498028
000030 da b3 31 3f 53 ab 9f 3b 59 8c b5 bb 8a 44 93 b8
       0.69415057 0.0048727184 -0.0055404124 -7.0222726e-05
000040 f2 d0 91 39 64 99 94 b9 bf 3f cb 38 87 4c 0c 39
       0.00027812232 -0.00028343045 9.691668e-05 0.00013379949
000050 7a 22 81 b9 16 25 59 3f dc 2b e1 37 b4 4d 5f 39
       -0.00024630484 0.84822214 2.6842514e-05 0.00021295884
000060 e1 ee bc bc 5e 1e 64 ba c0 ef a8 b7 d9 48 64 38
       -0.023063125 -0.0008702035 -2.0138803e-05 5.442728e-05
000070 4c 09 1b 38 ae f7 d3 3b d3 49 36 b7 15 fb 74 ba
       3.6963538e-05 0.0064687347 -1.0865234e-05 -0.00093452755
000080 09 5d 80 b7 a3 e5 c6 b8 4f 92 85 bb 91 62 a1 38
       -1.5302112e-05 -9.484149e-05 -0.0040762792 7.695438e-05
000090 68 57 16 3c bc 12 1a ba 71 7d 19 3b eb 29 cd 3a
       0.009176113 -0.00058774254 0.0023420716 0.0015652751
0000a0 e3 b7 73 39 5d 03 f1 38 04 c4 bb bb 07 49 f0 37
       0.00023242789 0.00011492402 -0.005730154 2.8644235e-05
0000b0 6a 44 75 ba f2 10 f8 39 cf bc dd 3b c4 c0 81 b8
       -0.0009356203 0.0004731487 0.0067668925 -6.187105e-05
0000c0 f8 79 d2 3a d2 c8 f5 ba 40 85 b8 b8 1e 30 ee 38
       0.0016058078 -0.0018751866 -8.7986235e-05 0.00011357687
0000d0 60 e6 a7 38 17 3c e2 b9 d1 1b 0c ba e0 c5 bb b8
       8.006091e-05 -0.0004315085 -0.0005344721 -8.953712e-05
0000e0 92 75 88 3f e5 d0 04 3a bf 77 7d 3f 88 9d fc ba
       1.066088 0.0005066528 0.99010843 -0.0019273022
0000f0 14 f6 87 b6 e3 d6 d4 b4 4d f8 99 38 8d 21 6b 3f
       -4.051961e-06 -3.9644428e-07 7.341858e-05 0.9184807
000100 ea 89 6a 39 57 9e 9d 3b 3e b1 91 38 10 29 5e 3e
       0.00022367356 0.0048101353 6.947153e-05 0.21695352
000110 b4 ff 88 b7 58 81 b5 b7 1d 9a 31 38 c1 38 7a b6
       -1.6331534e-05 -2.1637112e-05 4.2343618e-05 -3.7285938e-06
000120 0d 50 bd bb 65 e7 9e 37 b6 82 c9 3f 1e 8a a8 3f
       -0.005777365 1.894282e-05 1.5743015 1.316715
000130 e9 b1 72 b8 af 6a 99 b8 97 14 8c 38 4f 78 b6 b6
       -5.7862988e-05 -7.31548e-05 6.6795554e-05 -5.4380284e-06
000140 c9 f5 c4 37 7c b5 88 3a a5 07 d6 b8 1c 71 b1 38
       2.3479473e-05 0.0010430063 -0.00010205739 8.461086e-05
000150 20 63 ea 3e 03 ba 62 37 38 95 e9 38 b6 88 94 b8
       0.4577875 1.3513959e-05 0.000111381 -7.082654e-05
000160 4a fb f1 3e f5 b4 02 39 7f 76 0a b8 3f bb 8b 38
       0.4726203 0.00012465178 -3.3012122e-05 6.662914e-05
000170 6a c9 19 ba 58 fe be ba 76 cc 96 b8 58 39 57 b9
       -0.00058665 -0.001457165 -7.190641e-05 -0.0002052536
000180 f4 85 84 3c 9b 0d 8a bb 94 5c b4 b8 98 2b 47 3b
       0.016177155 -0.0042130477 -8.600313e-05 0.0030390974
000190 1d 24 34 b9 a6 b4 d5 3a 7d 18 c9 b8 ff c1 04 b8
       -0.00017179591 0.0016304448 -9.588988e-05 -3.1651925e-05
0001a0 73 0f 25 b9 ae 89 b3 39 fd b6 a5 b6 83 ef 37 39
       -0.00015741382 0.0003424412 -4.938686e-06 0.00017541465
0001b0 b2 31 a9 3b 16 47 ad 3a da a5 1c bc 41 21 32 ba
       0.005163395 0.0013220038 -0.0095610265 -0.00067951164
0001c0 17 dd 3e ba 6f e2 de 3b 12 66 33 bb ee 65 a6 37
       -0.000728087 0.0068018953 -0.002737407 1.9836207e-05
0001d0 48 11 93 b9 d8 35 69 39 87 50 d0 37 60 4c 46 39
       -0.000280509 0.0002224067 2.483303e-05 0.00018911203
0001e0 73 d0 24 b9 9a cc 60 3f 19 a8 19 3a e9 42 29 b8
       -0.00015717912 0.878122 0.00058615353 -4.0355055e-05
0001f0 b2 67 e2 3e 28 a3 f6 3a 14 3e bd 37 40 8e 79 39
       0.44219738 0.0018816935 2.2559463e-05 0.00023799483

z_logvar f4 [128]
000000 fa c9 f1 c0 5e 65 07 c1 f3 72 cb c0 43 10 e6 c0
       -7.5559053 -8.462248 -6.357782 -7.189485
000010 51 c2 ac c0 bd 8b 0d c1 31 5d 22 c1 ac 82 0f c1
       -5.3987203 -8.846616 -10.147752 -8.969402
000020 ae a6 da c0 4f 1c 1d c0 9c f5 b0 c0 25 ec 8e c0
       -6.8328466 -2.4548528 -5.5299816 -4.466326
000030 07 03 07 c0 72 81 5d c0 76 66 f8 bf 1f e4 1d c1
       -2.1095598 -3.4610257 -1.9406269 -9.868194
000040 30 8d f8 c0 80 ea 00 c1 3b 90 21 c1 43 c0 f2 c0
       -7.767235 -8.057251 -10.0977125 -7.5859694
000050 e8 8a f4 c0 28 43 fb bf 3e 37 15 c1 2a 2c f3 c0
       -7.6419563 -1.962987 -9.325987 -7.599141
000060 02 7a 53 c0 ad 01 03 c1 3d 93 10 c1 95 49 0b c1
       -3.3043218 -8.187909 -9.035947 -8.705464
000070 a9 35 21 c1 e5 03 51 c0 6d cc 1f c1 9f 71 d6 c0
       -10.075601 -3.2658627 -9.987409 -6.70137
000080 35 f0 16 c1 e2 7c 20 c1 9b e3 65 c0 ac 93 1d c1
       -9.433644 -10.030489 -3.592017 -9.848553
000090 51 3d 09 c0 b3 f3 01 c1 58 6d 1e c0 66 49 2c c0
       -2.1443675 -8.121997 -2.4754238 -2.69198
0000a0 a7 b4 11 c1 d4 a8 0e c1 1a 7a 3e c0 f4 e4 1f c1
       -9.106605 -8.916218 -2.9762025 -9.993397
0000b0 54 7b f2 c0 a2 33 08 c1 b0 f9 40 c0 2f 0c 07 c1
       -7.5775547 -8.512606 -3.0152397 -8.4404745
0000c0 e6 c6 67 c0 21 b7 77 c0 62 7f 20 c1 e4 56 16 c1
       -3.6215148 -3.8705523 -10.031099 -9.396214
0000d0 b2 f1 17 c1 72 bf 0f c1 49 bc d3 c0 66 b6 14 c0
       -9.496508 -8.98424 -6.616734 -2.3236327
0000e0 1a fc 09 c0 c9 8d d2 c0 cd 81 50 c0 c8 d4 a0 c0
       -2.156012 -6.5798078 -3.2579224 -5.0259743
0000f0 cd 1f 18 c1 77 f6 07 c1 e3 d1 1d c1 0f 6f 04 c0
       -9.507764 -8.497672 -9.863742 -2.0692785
000100 b1 85 1f c1 ce eb 79 c0 09 2c 20 c1 63 d7 f8 bf
       -9.9701395 -3.9050174 -10.010751 -1.9440731
000110 45 00 22 c1 8b 4d 1f c1 c9 c1 16 c1 41 ba 18 c1
       -10.125066 -9.956431 -9.422311 -9.545472
000120 4b b2 65 c0 9d 36 1a c1 5d 61 54 c0 c4 99 30 c0
       -3.5890071 -9.638333 -3.3184426 -2.759385
000130 63 09 07 c1 58 ed 21 c1 7c 7e 04 c1 5f 15 1f c1
       -8.439792 -10.120445 -8.28088 -9.942718
000140 69 57 21 c1 16 25 ee c0 d4 e5 21 c1 48 9c 20 c1
       -10.08384 -7.442027 -10.11861 -10.038155
000150 62 88 e0 bf 65 16 1d c1 1d e7 e4 c0 c7 cf 20 c1
       -1.7541621 -9.817967 -7.153212 -10.050727
000160 4d d4 00 c0 57 db 1f c1 48 39 15 c1 cd c6 0b c1
       -2.0129578 -9.99105 -9.326485 -8.736035
000170 6d 60 09 c1 6d 67 40 c0 42 7a 1f c1 5d 94 10 c1
       -8.586041 -3.0063126 -9.967348 -9.0362215
000180 9e 5f 4b c0 ef 78 85 c0 00 e1 02 c1 44 d1 46 c0
       -3.177711 -4.1710124 -8.179932 -3.1065226
000190 06 27 0f c1 23 41 22 c0 d8 a1 20 c1 ef 0c 1e c1
       -8.947027 -2.5352256 -10.039513 -9.878158
0001a0 9e cc 1e c1 38 dd 88 c0 9a 02 20 c1 3a 4a f6 c0
       -9.924955 -4.2770042 -10.000635 -7.696561
0001b0 4e ea fa bf 8a f8 ec c0 af 9f 26 c0 5e 7e ff c0
       -1.9602754 -7.4053392 -2.6034963 -7.9841757
0001c0 dd f6 80 c0 d0 6b 76 c0 9c f7 9a c0 1b d4 20 c1
       -4.0301347 -3.8503304 -4.8427258 -10.051784
0001d0 e6 a9 f0 c0 2d 1b df c0 95 84 1a c1 2b d8 11 c1
       -7.5207396 -6.9720674 -9.657369 -9.115275
0001e0 68 95 0a c1 77 f6 67 c0 83 0a 03 c1 0d db 0f c1
       -8.661476 -3.624418 -8.190066 -8.990979
0001f0 b8 18 f7 bf 1d 9d 12 c0 1f 6d 20 c1 1c 26 22 c1
       -1.9304419 -2.2908394 -10.026641 -10.134304

weight_mu f4 [2, 128]
000000 e3 71 f8 bb c7 8c ab bb f4 86 92 3c 0a a2 08 ba
       -0.0075819357 -0.005235288 0.017886616 -0.0005212134
000010 23 32 1b bc af 0c 12 bc a3 b8 6f 3b 86 52 23 bc
       -0.009472403 -0.008914157 0.0036578558 -0.009968406
000020 e6 22 31 3a 1e 67 7a bf 18 b3 1b bb 43 44 98 3c
       0.00067572144 -0.97813594 -0.0023757871 0.018587237
000030 39 49 43 bf d8 23 8b 3c 29 cf a0 bd 28 e8 2d 3c
       -0.76283604 0.016984865 -0.07852013 0.010614432
000040 cf 7d 81 bb 2c ed cc 3c 9c 34 20 bb bb 97 a7 3b
       -0.003951765 0.025015436 -0.002444542 0.005114523
000050 96 f2 4e bc e9 ba 55 bf 8f 82 9b bb ae fb da bb
       -0.012631079 -0.8348833 -0.0047457884 -0.0066828346
000060 ac 1f 5b bc d6 b0 4e ba da 0b 47 3c a4 df 95 3c
       -0.01337425 -0.0007884627 0.012148822 0.018295117
000070 b6 07 94 3b 55 1c 91 bb fc f9 88 bb 3e 5a e0 bb
       0.004517521 -0.0044284263 -0.004180191 -0.006846695
000080 30 ca a7 3b 8c 0c 92 3b a1 51 bc bc dc 64 9f ba
       0.005120538 0.004457062 -0.022988142 -0.0012160796
000090 cb 20 88 bc 42 39 a2 bb 1b eb 04 bd fd ab 55 bc
       -0.0166172 -0.0049506733 -0.032450777 -0.0130414935
0000a0 c3 fb 1e bc dd ce 2d 3b 8d d4 3a bb ca 86 fc 3a
       -0.009703579 0.0026521005 -0.0028508038 0.0019266244
0000b0 51 41 21 bc 07 d7 e2 bb 24 3e 55 bb 3f 28 83 3b
       -0.009842233 -0.006922606 -0.003253826 0.0040026004
0000c0 6d 85 03 3d 52 a1 47 3c 41 4f 9a 3a 09 3c ea 3a
       0.032109667 0.012184458 0.0011772887 0.0017870675
0000d0 d8 e5 f6 b9 72 96 be ba 4e 1e 9a bc f4 37 ca bb
       -0.00047092023 -0.0014540686 -0.018813279 -0.006171221
0000e0 83 b3 5a bf 41 8c 96 3c 51 96 77 bf ed 5c a4 3c
       -0.85430163 0.018377425 -0.9671374 0.020063842
0000f0 14 6b b6 3b a0 cf ff 3b 65 e6 be 3a 91 fa 60 bf
       0.005566964 0.0078067333 0.0014564513 -0.87882334
000100 0b 18 61 3c 28 13 91 bc e9 fa 3e 3b 2c 6f ef be
       0.013738642 -0.01770933 0.0029141253 -0.46764505
000110 5c 55 33 bb 67 72 32 bb b9 49 5e bb 05 4f ec 3a
       -0.002736411 -0.0027228834 -0.0033918454 0.0018028921
000120 2c d2 9b 3d c8 ac 92 3b 34 b3 71 3f 63 dc 75 bf
       0.076084465 0.0044761635 0.9441407 -0.9603941
000130 f8 ba 74 bc 11 22 16 bb a0 65 21 3b 94 9f 35 3c
       -0.014937155 -0.0022908489 0.0024627224 0.01108541
000140 6f cd 9b 3b ba 4b 8f bb 99 98 d3 39 bc 93 d9 3b
       0.004754714 -0.004373041 0.0004035875 0.0066399258
000150 b0 1f 25 bf ef c1 01 bc f5 e4 28 bc f4 22 21 bc
       -0.64501476 -0.0079197725 -0.010308494 -0.009834994
000160 01 ed 28 bf 3b 03 23 bc d5 6e 8e 3b 72 09 69 3c
       -0.6598664 -0.009949501 0.0043467083 0.014223443
000170 5d 12 a5 bb d2 45 49 3c 7e e5 31 bb ef ad b2 bb
       -0.0050375895 0.012284713 -0.0027144845 -0.0054528634
000180 2d fb a5 3b 84 1b e1 bc 65 df 88 ba 17 7c 7c 3b
       0.005065343 -0.02747894 -0.0010442553 0.0038526112
000190 80 12 35 3b b3 b6 d5 3c 1b ef bb ba 73 cd 8f ba
       0.0027629435 0.026088094 -0.0014338227 -0.0010971263
0001a0 2a 45 02 bc 00 24 b6 b9 c2 2d a3 3a 17 05 9e 3c
       -0.00795106 -0.00034740567 0.001244955 0.019289536
0001b0 35 6c d8 bb dd e7 19 3c 82 ad 40 3d 18 ec 65 bc
       -0.006604696 0.009393659 0.04704047 -0.01403334
0001c0 bf 29 17 3d 22 7d b2 3b c8 d2 85 bc 40 59 41 3b
       0.036905047 0.005447046 -0.01633586 0.002950266
0001d0 3c 8d 80 bb 88 0a 15 3c 34 f4 5e 3b c4 92 9d 3c
       -0.0039230864 0.009096749 0.0034020068 0.019235022
0001e0 bf 4a 07 3c b4 20 30 3f 29 39 7d 3a 42 28 21 bb
       0.008257567 0.687999 0.00096597016 -0.0024590646
0001f0 53 2b 23 bf d2 89 a4 bb 8a d8 8b bb fc 1d 56 3c
       -0.6373798 -0.0050213123 -0.004267757 0.013068672
000200 66 18 ef 3b e6 95 8c 3b 06 ac 83 bc 27 93 3e ba
       0.0072966097 0.00429033 -0.016073238 -0.0007269852
000210 0b 4e 12 3c 1d 0a 1b 3c 72 62 86 bb 78 01 dd 3b
       0.00892974 0.00946286 -0.004101091 0.00674456
000220 f1 0f 60 3b a5 4e 79 3f 94 ee a4 b9 ea 5f ac bc
       0.003418919 0.9738563 -0.00031458272 -0.02104183
000230 22 53 42 3f 83 41 a6 bc c8 95 98 3d f9 8b 2c bc
       0.759081 -0.02029491 0.074504435 -0.010531419
000240 75 cd a3 3b 29 d0 b4 bc af d8 20 3b 7c 35 db bb
       0.0049988576 -0.022071915 0.0024543216 -0.0066897254
000250 57 11 2c 3c f2 03 57 3f bd c7 98 3b 4a ec 0a 3c
       0.010502181 0.83990395 0.0046624825 0.008479187
000260 17 55 8f 3c 7e 3c 50 3a 2a 0c 54 bc e6 d1 7a bc
       0.017496629 0.00079435844 -0.012942353 -0.015308833
000270 ba b7 8e bb 1f d6 08 3c b6 8e 42 3b 7a 48 1f 3c
       -0.004355398 0.008351832 0.0029687113 0.00972187
000280 d5 2c b0 bb e4 6a 81 bb a7 c3 8e 3c 78 e3 ed 3a
       -0.005376438 -0.00394951 0.017427279 0.0018149456
000290 9c 26 b2 3c e9 4e 9c 3b a6 c4 19 3d c5 5e 3c 3c
       0.021746926 0.004770149 0.037541054 0.011497204
0002a0 3a fe f5 3b ad b6 dc ba 8d e3 7d b9 5c 60 0e bb
       0.007507113 -0.001683911 -0.0002421273 -0.0021724915
0002b0 1a 16 44 3c 5c 6e da 3b 36 1b 90 3a 5c 3d 1d bb
       0.01196816 0.006665988 0.0010994438 -0.0023992872
0002c0 88 9e 06 bd 56 99 92 bc e6 d4 72 ba 6a e5 69 bb
       -0.03286603 -0.017895382 -0.0009263292 -0.003568972
0002d0 8f a0 01 bb 8f f0 4b 3a 3d ad 5c 3c 61 c5 e4 39
       -0.0019779538 0.00077796815 0.013469038 0.00043634608
0002e0 6b f4 5a 3f 35 91 96 bc 60 53 79 3f 15 cc 9f bc
       0.855292 -0.018379787 0.97392845 -0.019506494
0002f0 b2 3b ab bb 6f bc fb bb e3 fb 23 bb e8 6c 64 3f
       -0.005225622 -0.007682375 -0.0025021962 0.8922868
000300 a5 cd 67 bc c3 ea 82 3c 5e 88 b6 ba 8a 1d ec 3e
       -0.014148151 0.015981084 -0.0013926139 0.46116287
000310 0c d8 f4 3a ed 2c 7b 3a 53 01 a3 3b 82 17 be ba
       0.001868011 0.00095815846 0.004974523 -0.0014502855
000320 40 77 ab bd cc c6 ca bb ac a3 73 bf 5c f6 73 3f
       -0.083723545 -0.006188249 -0.9517162 0.9529779
000330 bc 38 84 3c 4d c5 3e 3b c2 ae 27 ba 8c d8 4b bc
       0.016140334 0.00291093 -0.00063965854 -0.0124417655
000340 c6 0c 5c bb 1a 88 ef 3b 98 77 08 bb e7 77 ad bb
       -0.003357695 0.0073099257 -0.0020823237 -0.0052938345
000350 53 29 24 3f 8a 02 ad 3b 8a b5 2e 3c 46 07 19 3c
       0.64125556 0.0052798437 0.0106633995 0.009340113
000360 7c 5f 27 3f fa 7d 10 3c f0 b2 10 bb 74 09 87 bc
       0.6538007 0.008819098 -0.0022079311 -0.016484
000370 5d 2d 59 3b 9e 3c 0e bc 31 04 29 3b a6 ac c0 3b
       0.003313861 -0.008681444 0.0025789852 0.0058799563
000380 6f 1b 35 bb 2b 44 e2 3c dc 7f 61 bb 34 ae d0 bb
       -0.002763476 0.027620396 -0.0034408486 -0.006368423
000390 75 f1 03 bb 68 de e3 bc 1d 44 50 3a 26 fb 01 3a
       -0.0020132933 -0.027816013 0.000794472 0.00049583835
0003a0 cf 77 e5 3b 1b ec f0 3b 7d c6 1b bb ff 73 8e bc
       0.0070028077 0.0073523647 -0.0023769431 -0.017389296
0003b0 8f b3 83 3c 38 24 1d bc 2d 46 40 bd a9 e2 22 3c
       0.016076831 -0.009591155 -0.046941925 0.009941735
0003c0 de d6 08 bd e0 d7 57 bb b4 f6 8b 3c 78 28 7f ba
       -0.03340804 -0.0032935068 0.01708541 -0.00097335083
0003d0 48 ac 36 3b 5b 30 42 bc 92 cf ac bb 97 87 a7 bc
       0.0027873684 -0.011852349 -0.0052737677 -0.020450396
0003e0 ca d9 00 bc fd 3c 2f bf f7 47 01 bb 94 6e c1 3b
       -0.007864425 -0.68452436 -0.0019726732 0.0059030745
0003f0 25 a6 21 3f 7a a4 ba 3b c1 4e 6a 3b 6b 37 26 bc
       0.6314414 0.0056958767 0.0035752507 -0.010145049
