metric/3_8_probe_random_seed_1024.pth (torch, 539531 bytes, 12 tensors)

z_mu f4 [512]
-0.0019768744 0.009571859 -0.0037649337 0.0020480994 -0.0005543142 0.7711906 -0.0030925004 0.00028448555
-0.0041247373 0.00027904406 0.001423346 0.0019780537 0.00027560754 0.0057461946 -0.00039721697 -0.0045807348
0.00061559706 0.001255388 0.008747896 0.0015209067 0.0024125 -0.0031274357 -0.0014134225 -0.00015449229
0.0070921932 0.0015557196 -0.00845191 -0.0071904836 0.0015901907 0.0030883502 0.004437846 0.40040505
-0.004706664 0.8803693 -0.0011742419 0.008319565 0.8657967 0.0022107633 0.4787723 0.0007946961
0.87339807 0.0072646528 0.0027752873 0.3023741 6.066517e-05 0.037014674 0.004521133 0.52959555
-0.03791222 0.002576761 -0.0012766961 0.0019088814 -0.004632229 0.0004705432 1.0873184 0.37669352
0.9252042 0.32939595 0.0015243368 1.1543131 -0.0003416215 0.7429739 0.0032484205 0.59956473
0.04333021 0.5531213 -0.0015022401 -0.00037875463 0.0024313333 0.00026948337 -0.0032133784 -1.2296392e-05
0.54545766 1.0818756 7.625515e-05 -0.008482434 -0.007974522 -0.00044543014 0.927415 0.009026844
1.4622487 0.0056230733 0.009436076 0.010240103 -0.0018973919 -0.0008866773 1.0319736 0.00027000843
1.2320092 -0.0076725623 0.012236621 -0.005658331 -4.5119035e-05 -0.0038326003 0.8054804 -0.0004972916
0.0016167336 -0.005213421 -0.004921838 -0.0068314276 0.005671774 0.6969558 0.006999885 0.7106747
0.0074468125 0.0032714035 0.012176535 0.0072054276 0.010525088 0.866926 0.9435554 0.0010940726
1.3076289 -0.002900898 0.00045786842 0.0005600171 0.0059759365 -0.007058366 -0.004470004 -0.0013608554
0.0032994105 -0.00082730607 -0.0019715896 -0.0021166073 0.830194 0.0111106625 0.001025561 -0.0044404217
-0.0045541646 0.0013282356 0.9407043 -0.00291362 0.023729375 0.0050196243 0.0021274483 -0.004821911
0.78946763 0.90015197 0.0039596246 0.005991001 -0.00046470814 -0.0025372356 -0.015818005 0.0001862313
0.001132055 -0.008707277 0.0023011859 -0.001740878 0.0038051333 -0.00076597073 -0.0028466058 0.0040852306
0.0022153333 -0.0016437307 -0.0022440641 -0.0013927637 0.00068404124 0.0023035933 0.0022510614 1.4783651e-06
-0.0030877888 -0.0074300924 0.002934177 0.010127367 -0.002989989 0.0010786154 0.40551025 -0.0057825623
0.8034118 -0.00404719 0.73700887 -0.0015714228 0.0053727124 0.009457849 0.81139135 0.016797468
-0.0018270634 1.2327961 0.00052193395 0.002306988 0.00083828694 -0.01733808 -0.009796707 0.4949691
0.55429614 -0.0068998463 -0.0010257867 0.9733398 0.0037225322 0.18538673 0.0034511525 0.0049490854
-0.0033109447 -0.0017191984 -0.0015691149 0.0049577397 8.020368e-05 -0.0024776869 -0.0028479123 -0.021331688
0.002993923 -0.00076010334 0.0023562517 0.0016968996 -0.0026983353 -0.0026706902 -0.00060732116 -0.00059943146
0.010597736 -0.0056142565 0.0010825862 -0.003486167 0.003020261 -0.011504524 0.0007233333 -0.004500863
-0.003489292 0.71517456 -0.013411314 0.004504838 -0.008545991 0.001673957 0.004065406 0.0066868616
1.0691295 0.7130243 0.0040890696 0.7532105 0.00014605871 0.003666793 0.008401637 0.00047900632
1.1553315 -0.004266425 0.002015564 1.009869 1.1997962 -0.0022472483 -0.009538116 0.00471498
0.0021722831 0.009264211 1.0499146 -0.005966887 -0.0026604154 0.012450074 0.00053488364 1.2306392
0.0077523347 0.0020600406 -0.0042575286 0.0032427867 -0.00060886703 -0.0050088605 -0.0034544065 -0.0045447317
00000000: 738e 01bb 49d3 1c3c 1bbd 76bb 6839 063b
00000010: 654f 11ba bf6c 453f 8cab 4abb 0127 9539
00000020: ce28 87bb a94c 9239 918f ba3a 3ca2 013b
00000030: 6b7f 9039 934a bc3b 8f41 d0b9 fd19 96bb
00000040: 0560 213a d58b a43a 5653 0f3c 2959 c73a
00000050: 091b 1e3b aaf5 4cbb 9742 b9ba 35ff 21b9
00000060: a165 e83b 4ae9 cb3a e179 0abc 269e ebbb
00000070: f26d d03a eb65 4a3b 5a6b 913b e401 cd3e
00000080: 5c3a 9abb e25f 613f 05e9 99ba c94e 083c
00000090: daa4 5d3f 74e2 103b a521 f53e 2753 503a
000000a0: 0497 5f3f 530c ee3b 98e1 353b c7d0 9a3e
000000b0: bb72 7e38 b39c 173d 0326 943b 9393 073f
000000c0: d849 1bbd e0de 283b d056 a7ba 6e33 fa3a
000000d0: f4c9 97bb 3db3 f639 402d 8b3f f9dd c03e
000000e0: 2fda 6c3f 96a6 a83e 41cc c73a 88c0 933f
000000f0: a91b b3b9 8a33 3e3f 74e3 543b 137d 193f
00000100: 057b 313d 5c99 0d3f d0e6 c4ba 9693 c6b9
00000110: 0157 1f3b 7249 8d39 8b97 52bb 9a4c 4eb7
00000120: 1da3 0b3f e67a 8a3f 2ceb 9f38 e8f9 0abc
00000130: 92a7 02bc 9f88 e9b9 126b 6d3f 54e5 133c
00000140: f72a bb3f c241 b83b c599 1a3c 1bc6 273c
00000150: e8b1 f8ba e86f 68ba b617 843f eb8f 8d39
00000160: 7ab2 9d3f 1e6a fbbb 1c7c 483c 8569 b9bb
00000170: 323e 3db8 5d2c 7bbb f733 4e3f ad5c 02ba
00000180: 94e8 d33a 58d5 aabb 5f47 a1bb 2bda dfbb
00000190: 4ada b93b b26b 323f 4b5f e53b c7ee 353f
000001a0: 6404 f43b 0b65 563b 1780 473c 821b ec3b
000001b0: 6b71 2c3c ddee 5d3f d98c 713f fc66 8f3a
000001c0: 6260 a73f fe1c 3ebb 0f0e f039 1dce 123a
000001d0: cad1 c33b de49 e7bb 1c79 92bb bb5e b2ba
000001e0: ec3a 583b 92df 58ba c935 01bb c7b6 0abb
000001f0: 9887 543f 7f09 363c 1e6c 863a f580 91bb
00000200: 1a3b 95bb 3118 ae3a ffd1 703f 6ff2 3ebb
00000210: 1b64 c23c a97b a43b a96c 0b3b 1f01 9ebb
00000220: 8d1a 4a3f 5c70 663f bdbf 813b 2950 c43b
00000230: 12a4 f3b9 c047 26bb c394 81bc 1547 4339
00000240: 7661 943a f7a8 0ebc 7ecf 163b 2c2e e4ba
00000250: 8b5f 793b 6dcb 48ba 1f8e 3abb 66dd 853b
00000260: 202f 113b 7372 d7ba 2611 13bb 658d b6ba
00000270: 3b51 333a e2f7 163b 8b86 133b 3d6c c635
00000280: 805c 4abb 2278 f3bb 524b 403b 42ed 253c
00000290: b1f3 43bb 5460 8d3a 0a9f cf3e a67b bdbb
000002a0: 65ac 4d3f 4a9e 84bb 9dac 3c3f 33f8 cdba
000002b0: 940d b03b 18f5 1a3c 58b7 4f3f d89a 893c
000002c0: 137a efba 43cc 9d3f 65d2 083a d630 173b
000002d0: 7cc0 5b3a 9708 8ebc 5e82 20bc 976c fd3e
000002e0: 5ae6 0d3f 1b18 e2bb b173 86ba cc2c 793f
000002f0: baf5 733b 05d6 3d3e bb2c 623b f02b a23b
00000300: 6ffc 58bb ba56 e1ba c2aa cdba 8974 a23b
00000310: 0633 a838 b060 22bb 0aa4 3abb cbbf aebc
00000320: b135 443b ac41 47ba 586b 1a3b 816a de3a
00000330: 8ed6 30bb bf06 2fbb a234 1fba 2a23 1dba
00000340: 20a2 2d3c ccf7 b7bb 91e5 8d3a 2d78 64bb
00000350: 92ef 453b 797d 3cbc 139e 3d3a fa7b 93bb
00000360: 9bac 64bb ae15 373f 21bb 5bbc 529d 933b
00000370: 7c04 0cbc ad68 db3a 1937 853b 761d db3b
00000380: 3cd9 883f c388 363f 9afd 853b 67d2 403f
00000390: 5627 1939 944e 703b 05a7 093c 2423 fb39
000003a0: e7e1 933f 5ecd 8bbb 8d17 043b 6343 813f
000003b0: ec92 993f 9246 13bb c245 1cbc 1e80 9a3b
000003c0: dd5c 0e3b ebc8 173c 9a63 863f e085 c3bb
000003d0: 5d5a 2ebb 65fb 4b3c 6f37 0c3a 9685 9d3f
000003e0: 4c07 fe3b bf01 073b bd82 8bbb ef84 543b
000003f0: 609c 1fba 5e21 a4bb 5363 62bb f9eb 94bb

z_logvar f4 [512]
-5.4032507 -4.769476 -5.587471 -6.2789545 -5.4372296 -3.992462 -4.44765 -5.6130977
-5.493323 -4.3321433 -6.0699515 -3.857419 -4.8206897 -5.421505 -5.412257 -4.964287
-4.4695244 -5.3769455 -5.402077 -4.568439 -5.51277 -4.789891 -5.4346156 -5.3158336
-5.070369 -5.008031 -3.775586 -3.8878973 -4.986627 -5.177431 -4.1650014 -2.9918308
-5.028175 -4.1806736 -5.4396377 -4.209388 -4.1129446 -5.4493146 -3.4141195 -5.781084
-4.099911 -4.167182 -3.9767263 -3.2626357 -4.5530605 -3.1105819 -4.3112736 -3.2893934
-3.2756886 -5.5780153 -5.1043863 -5.6926494 -5.0166154 -4.535084 -4.695523 -3.3030121
-4.260785 -3.2000933 -4.149421 -4.663215 -5.0284166 -3.6867816 -3.9021251 -3.3752642
-3.1650233 -3.3437638 -4.948815 -4.744943 -4.8724647 -5.7547984 -3.6054544 -5.59839
-3.5787826 -4.600571 -4.327372 -4.8495364 -5.341868 -4.842106 -4.3196287 -4.3730927
-5.1287675 -4.7996163 -4.455058 -4.4410295 -5.013741 -4.21429 -4.6234426 -5.6700583
-4.774093 -4.604197 -4.31526 -4.518241 -5.0857553 -4.996116 -4.020511 -4.3559246
-5.4518976 -4.3634152 -5.3804555 -4.892575 -5.6919994 -3.807979 -3.5152845 -4.3991704
-5.197375 -4.2736173 -4.801714 -5.805095 -5.859402 -4.1012235 -4.4444222 -5.155659
-4.69859 -5.4657335 -4.9713364 -4.4002485 -4.138314 -4.8079677 -4.7378626 -5.505704
-4.5522413 -5.28225 -5.048981 -5.935548 -4.211196 -4.483793 -5.996821 -4.6246715
-5.147714 -4.388532 -4.5358124 -4.8201327 -3.2174964 -4.9772606 -5.7753534 -5.0243225
-3.8166835 -4.5175304 -6.7677946 -4.0576696 -6.635796 -5.0688505 -3.524921 -6.379912
-4.5919123 -4.257537 -6.039195 -5.0866556 -4.662482 -4.9188347 -6.2227407 -4.5153
-4.919258 -4.979174 -5.7574253 -4.807313 -5.395599 -5.942634 -5.7600584 -5.1139483
-5.7612844 -3.8498363 -5.2312355 -3.8905587 -5.5708117 -4.9093003 -3.3358543 -5.6497474
-3.9207778 -4.632113 -3.7827709 -4.9551826 -4.9090934 -4.1008153 -3.872896 -3.251889
-4.3227334 -4.7577257 -4.66244 -4.2930365 -5.2255683 -3.7237134 -5.5544553 -3.4901276
-2.9866188 -5.1300097 -4.8027425 -4.080397 -5.552764 -3.0678782 -4.606693 -5.2573066
-4.2686667 -4.5972233 -5.4777355 -6.33878 -4.606532 -5.012618 -4.859515 -3.5602136
-5.5813317 -5.42539 -5.7100058 -4.066189 -4.5241804 -4.7323413 -4.5944443 -5.4724083
-4.8802757 -5.5596504 -6.5015235 -5.083591 -5.301982 -4.7516284 -5.132277 -3.3970568
-5.799328 -3.9034264 -3.8840106 -4.0841546 -6.010123 -5.1774507 -5.3961434 -5.1592536
-4.701906 -3.6928144 -4.710263 -4.0140324 -6.0218277 -4.335849 -5.141967 -4.9162745
-5.1493998 -4.696308 -4.207502 -4.223395 -5.277063 -5.268834 -4.438049 -4.4295454
-5.1642275 -4.890789 -4.4889636 -5.3627653 -4.7413435 -5.0750165 -4.0297246 -3.7831824
-5.142496 -4.503345 -5.0313168 -5.8582854 -6.261663 -4.2996836 -5.035509 -4.871331
00000000: 6ee7 acc0 8c9f 98c0 90cc b2c0 32ed c8c0
00000010: c9fd adc0 7f84 7fc0 2653 8ec0 7f9e b3c0
00000020: 4dc9 afc0 eba0 8ac0 0b3d c2c0 f4df 76c0
00000030: 1743 9ac0 f87c adc0 3631 adc0 70db 9ec0
00000040: 5806 8fc0 f00f acc0 d1dd acc0 a730 92c0
00000050: 9d68 b0c0 c946 99c0 5fe8 adc0 4f1b aac0
00000060: 7640 a2c0 ca41 a0c0 33a3 71c0 4fd3 78c0
00000070: 7392 9fc0 84ad a5c0 b147 85c0 287a 3fc0
00000080: cfe6 a0c0 14c8 85c0 8311 aec0 4eb3 86c0
00000090: 3e9d 83c0 c960 aec0 ef80 5ac0 a4fe b8c0
000000a0: 7932 83c0 8e59 85c0 af82 7ec0 06cf 50c0
000000b0: acb2 91c0 c613 47c0 f4f5 89c0 6c85 52c0
000000c0: e2a4 51c0 1a7f b2c0 2257 a3c0 2f2a b6c0
000000d0: 1d88 a0c0 681f 91c0 b941 96c0 8d64 53c0
000000e0: 5a58 88c0 54ce 4cc0 0fc8 84c0 0f39 95c0
000000f0: cae8 a0c0 3bf4 6bc0 6bbc 79c0 5404 58c0
00000100: be8f 4ac0 3a00 56c0 b15c 9ec0 93d6 97c0
00000110: 3beb 9bc0 4f27 b8c0 c4bf 66c0 0326 b3c0
00000120: c60a 65c0 e137 93c0 d579 8ac0 672f 9bc0
00000130: 95f0 aac0 88f2 9ac0 663a 8ac0 60f0 8bc0
00000140: dd1e a4c0 7596 99c0 d68f 8ec0 ea1c 8ec0
00000150: 9170 a0c0 77db 86c0 3ef3 93c0 1e71 b5c0
00000160: 5fc5 98c0 9555 93c0 9c16 8ac0 6e95 90c0
00000170: 82be a2c0 2fe0 9fc0 07a8 80c0 bc63 8bc0
00000180: f275 aec0 19a1 8bc0 b12c acc0 f98f 9cc0
00000190: dc24 b6c0 eeb5 73c0 6cfa 60c0 01c6 8cc0
000001a0: e550 a6c0 79c1 88c0 a4a7 99c0 57c3 b9c0
000001b0: 3980 bbc0 393d 83c0 b538 8ec0 29fb a4c0
000001c0: d95a 96c0 4ae7 aec0 3015 9fc0 d6ce 8cc0
000001d0: 116d 84c0 dfda 99c0 929c 97c0 ba2e b0c0
000001e0: f6ab 91c0 3108 a9c0 4191 a1c0 02f0 bdc0
000001f0: 1ec2 86c0 3b7b 8fc0 f5e5 bfc0 4ffd 93c0
00000200: 13ba a4c0 db6e 8cc0 6025 91c0 873e 9ac0
00000210: 76eb 4dc0 b845 9fc0 b2cf b8c0 40c7 a0c0
00000220: 8b44 74c0 9c8f 90c0 c691 d8c0 6ed8 81c0
00000230: 7158 d4c0 0634 a2c0 4e98 61c0 3d28 ccc0
00000240: f2f0 92c0 be3d 88c0 1641 c1c0 e2c5 a2c0
00000250: 0d33 95c0 1867 9dc0 b120 c7c0 567d 90c0
00000260: 906a 9dc0 6555 9fc0 d43c b8c0 82d5 99c0
00000270: bfa8 acc0 0f2a bec0 6652 b8c0 77a5 a3c0
00000280: 715c b8c0 b863 76c0 4866 a7c0 eafe 78c0
00000290: 1744 b2c0 fd18 9dc0 a37e 55c0 bbca b4c0
000002a0: 06ee 7ac0 453a 94c0 eb18 72c0 db90 9ec0
000002b0: 4b17 9dc0 e139 83c0 87dd 77c0 f31e 50c0
000002c0: d553 8ac0 4a3f 98c0 b532 95c0 8e60 89c0
000002d0: db37 a7c0 5251 6ec0 19be b1c0 405e 5fc0
000002e0: c324 3fc0 0a29 a4c0 11b0 99c0 9d92 82c0
000002f0: 3eb0 b1c0 1e58 44c0 076a 93c0 db3b a8c0
00000300: eb98 88c0 741c 93c0 9c49 afc0 49d7 cac0
00000310: b668 93c0 5e67 a0c0 2681 9bc0 8ada 63c0
00000320: 459a b2c0 cb9c adc0 5eb8 b6c0 381e 82c0
00000330: 16c6 90c0 576f 97c0 b005 93c0 f81d afc0
00000340: 382b 9cc0 a8e8 b1c0 7b0c d0c0 c7ac a2c0
00000350: d6a9 a9c0 570d 98c0 9d3b a4c0 6169 59c0
00000360: 1894 b9c0 bdd1 79c0 a193 78c0 65b1 82c0
00000370: ed52 c0c0 adad a5c0 35ad acc0 9b18 a5c0
00000380: 0476 96c0 1257 6cc0 79ba 96c0 f472 80c0
00000390: d0b2 c0c0 46bf 8ac0 fe8a a4c0 1f52 9dc0
000003a0: e2c7 a4c0 2848 96c0 dba3 86c0 0d26 87c0
000003b0: b3dd a8c0 4a9a a8c0 7f04 8ec0 d6be 8dc0
000003c0: 5a41 a5c0 5881 9cc0 97a5 8fc0 c69b abc0
000003d0: 16b9 97c0 8966 a2c0 81f3 80c0 a91f 72c0
000003e0: 548f a4c0 671b 90c0 8c00 a1c0 1377 bbc0
000003f0: 8b5f c8c0 0297 89c0 e422 a1c0 f2e1 9bc0

weight_mu f4 [128, 512]
0.0037215974 0.0034480775 -0.00074950897 0.0049487655 -0.0020331661 -0.042374194 -0.0058514085 0.0014096719
-0.0002631833 0.0022054825 0.0018624566 -0.003599984 -0.008170728 0.008485837 -0.0029051718 0.0009975343
0.006354656 -0.00016268721 0.00016956741 -0.0069309636 0.0047340067 0.006060566 0.003169026 0.0042400123
4.1373933e-05 -0.0038660194 -0.0007270554 0.0028515565 -0.0018232794 -0.0037190258 0.0032104747 -0.022535505
0.0018981568 -0.04039903 0.0038991724 0.0019047228 -0.02668833 0.008813077 -0.02625665 0.00013211128
-0.034387298 -0.0023959132 0.0022581934 -0.01604149 -0.0036822476 -0.0062486636 0.0007630552 -0.020970158
0.0048728487 0.00052468304 -0.0007871416 -0.00023788017 -0.002727811 0.00029152588 -0.06019478 -0.022641487
-0.056406125 -0.00606014 0.003761699 -0.043809116 -0.0015489983 -0.038899496 -0.0010272175 -0.02613494
-0.008469578 -0.029495459 -0.0008690463 0.0032766159 -0.004153686 -0.0017351708 0.0003963917 0.000899156
-0.022283984 -0.045560263 -0.0015593983 -0.0046455776 0.0013876461 -0.00048716707 -0.0422504 0.0035951543
-0.059979707 0.0029124038 -0.0033178786 -0.003511221 -0.0021947464 -0.001685962 -0.05478761 -0.0031865381
-0.04834383 0.008236924 -0.0040794886 0.0059293634 -0.0030819622 -0.0007760031 -0.04532528 -0.0048542763
-0.0018724805 0.0009231346 -0.0011170915 -0.00010544908 0.0044931 -0.024338486 -0.0021670912 -0.028605396
0.0036644652 -0.00036752844 -0.006053526 0.0004012173 0.0027888888 -0.037256684 -0.05633879 0.002637185
-0.0640742 0.0026887786 -0.01735787 0.0028488399 0.0016703691 0.007982354 0.0022122231 0.0006273401
-0.0044188313 0.0059364256 0.005142995 0.00086846633 -0.030500138 -0.004254317 0.0041351435 -0.0033223794
0.0031443753 0.0014713845 -0.038269173 -0.0031059433 -0.0018707482 0.0026484036 0.001803657 -0.0072064134
-0.03839068 -0.04836944 0.002460026 0.0011081337 -0.0011029613 -0.0034474598 0.0006803184 -0.00047184294
0.00085362425 0.006989286 0.004039652 -0.0016102396 -0.0038878606 -0.00024402421 0.0026308151 0.0017789879
-0.0007099303 0.004544503 -0.0027849984 -0.0043281238 0.0036736133 -0.0007225915 0.001465281 0.0064488174
-0.0037488448 -0.0027644394 0.003566489 0.0029105374 -0.0054246117 0.0033624251 -0.022165956 0.0008437989
-0.04521917 0.001006904 -0.024445154 -0.0040970533 -0.0031602958 -0.00078395725 -0.041612457 -0.0008427004
-0.0052756444 -0.048560318 -0.0043780394 0.0008968332 -0.009805277 -0.0033656445 0.0034003775 -0.027960446
-0.011853311 -0.0005811233 0.004828757 -0.04791431 0.0034786041 -0.01183917 -0.006211418 -0.006024778
-0.005129693 0.0010721845 -0.0009129809 0.0028892176 0.0074042007 4.121694e-05 0.002729611 0.001371029
-0.0027600634 0.0046100565 0.00069268316 -0.007818326 -0.002018169 -0.008391082 0.0029786667 -0.004523965
-0.00017945905 -0.003207601 0.0011316501 -0.00012895992 -0.004041225 -0.0036729781 0.0011701303 0.002968472
0.00091961614 -0.031562988 0.005144856 -0.00014438096 -0.0016262352 0.0050374754 0.0009246116 -0.004129799
-0.06589624 -0.034863643 0.000381449 -0.041950945 0.0018569741 0.0070569413 -0.0057576788 0.004159723
-0.044359397 0.00013565212 0.0020095855 -0.04490843 -0.07451728 0.0037847068 0.007140555 -0.0007451717
-0.00048244817 -0.0073624384 -0.053425197 -0.008230484 -0.007980823 -0.0065871035 -0.006794142 -0.057974253
0.0005026429 -0.0043363455 0.0012896233 0.003959294 -0.002025346 -0.0053393166 -0.000781268 -0.0019885646
00000000: 0be6 733b 24f9 613b b27a 44ba 4129 a23b
00000010: de3e 05bb 9090 2dbd 2cbd bfbb bdc4 b83a
00000020: ddfb 89b9 db89 103b ac1d f43a b6ed 6bbb
00000030: 84de 05bc 2e08 0b3c b264 3ebb b2bf 823a
00000040: b83a d03b 0497 2ab9 e8cd 3139 231d e3bb
00000050: ba1f 9b3b b697 c63b 6faf 4f3b cdef 8a3b
00000060: ec88 2d38 0b5d 7dbb dd97 3eba 2ee1 3a3b
00000070: 1bfb eeba e6ba 73bb d466 523b 619c b8bc
00000080: 93cb f83a 7479 25bd 4289 7f3b e4a7 f93a
00000090: 7ca1 dabc b964 103c 3018 d7bc 5a87 0a39
000000a0: b2d9 0cbd c104 1dbb 33fe 133b 7169 83bc
000000b0: dd51 71bb 97c1 ccbb c507 483a 9cc9 abbc
000000c0: 6bac 9f3b e28a 093a 2e58 4eba 796f 79b9
000000d0: 13c5 32bb f1d7 9839 cd8e 76bd a47a b9bc
000000e0: 1c0a 67bd 2494 c6bb d686 763b 3071 33bd
000000f0: c207 cbba 1455 1fbd b3a3 86ba f118 d6bc
00000100: fcc3 0abc 76a0 f1bc b6d0 63ba 7ebc 563b
00000110: a51b 88bb ac6e e3ba cbd2 cf39 56b5 6b3a
00000120: e78c b6bc 669d 3abd b964 ccba ee39 98bb
00000130: ade1 b53a 756a ffb9 c10e 2dbd ae9c 6b3b
00000140: 48ad 75bd 07de 3e3b c470 59bb 831c 66bb
00000150: bcd5 0fbb 7ffb dcba f968 60bd 3dd5 50bb
00000160: 2e04 46bd 2af4 063c 3bad 85bb 1b4b c23b
00000170: bffa 49bb b06c 4bba 00a7 39bd 9f10 9fbb
00000180: 056e f5ba 84fe 713a 5f6b 92ba 8b24 ddb8
00000190: db3a 933b 8161 c7bc c205 0ebb dd55 eabc
000001a0: 8627 703b d5b0 c0b9 a85c c6bb 795a d239
000001b0: cac5 363b 779a 18bd 81c3 66bd 9fd4 2c3b
000001c0: 5639 83bd 3836 303b 1732 8ebc 9ab3 3a3b
000001d0: 49f0 da3a 6bc8 023c f2fa 103b 1574 243a
000001e0: d8cb 90bb 5986 c23b 9286 a83b caa9 633a
000001f0: 6ddb f9bc cc67 8bbb 1980 873b 47bc 59bb
00000200: dd11 4e3b 79db c03a 23c0 1cbd 158d 4bbb
00000210: e533 f5ba d790 2d3b b068 ec3a c723 ecbb
00000220: 8c3f 1dbd 091f 46bd 6338 213b cc3e 913a
00000230: 3d91 90ba c7ee 61bb 6557 323a b061 f7b9
00000240: c1c5 5f3a 6106 e53b 0f5f 843b ad0e d3ba
00000250: 7acb 7ebb c0e0 7fb9 c169 2c3b ee2c e93a
00000260: 9e1a 3aba 0eea 943b 8584 36bb efd2 8dbb
00000270: 01c1 703b 4b6c 3dba ac0e c03a 9a50 d33b
00000280: 2eaf 75bb 992b 35bb c2bb 693b b7be 3e3b
00000290: f1c0 b1bb 225c 5c3b 6195 b5bc 6332 5d3a
000002a0: bd37 39bd 18fa 833a 3441 c8bc 9340 86bb
000002b0: f71c 4fbb 7b82 4dba d371 2abd abe8 5cba
000002c0: 50df acbb 2fe7 46bd a875 8fbb 7519 6b3a
000002d0: 50a6 20bc 2592 5cbb ded8 5e3b 4e0d e5bc
000002e0: 6434 42bc 8656 18ba 8d3a 9e3b cc41 44bd
000002f0: 4bf9 633b 14f9 41bc 2789 cbbb 806b c5bb
00000300: fc16 a8bb 8b88 8c3a 1c55 6fba 0759 3d3b
00000310: f09e f23b 5ae0 2c38 46e3 323b 19b4 b33a
00000320: 2ee2 34bb f50f 973b 2e95 353a 7018 00bc
00000330: 4243 04bb c07a 09bc bc35 433b c53d 94bb
00000340: 2c2d 3cb9 9d36 52bb e053 943a 6a39 07b9
00000350: 416c 84bb 59b6 70bb 0f5f 993a b28a 423b
00000360: 6512 713a 3148 01bd 2e96 a83b f864 17b9
00000370: 6627 d5ba 6811 a53b a261 723a 4453 87bb
00000380: 9cf4 86bd 2ecd 0ebd 38fd c739 c1d4 2bbd
00000390: b665 f33a ea3d e73b e9aa bcbb 494e 883b
000003a0: 33b2 35bd d73d 0e39 40b3 033b e7f1 37bd
000003b0: 849c 98bd d808 783b 51fb e93b a057 43ba
000003c0: 19f1 fcb9 9c40 f1bb 61d4 5abd 27d9 06bc
000003d0: ffc1 02bc a1d8 d7bb 65a1 debb 6976 6dbd
000003e0: cbc3 033a e717 8ebb 9408 a93a f7bc 813b
000003f0: abbb 04bb 6ff5 aebb 02ce 4cba 9452 02bb

weight_logvar f4 [128, 512]
-3.218876 -3.218876 -3.218876 -3.218876 -3.218876 -3.218876 -3.218876 -3.218876
-3.218876 -3.218876 -3.218876 -3.218876 -3.218876 -3.218876 -3.218876 -3.218876
-3.218876 -3.218876 -3.218876 -3.218876 -3.218876 -3.218876 -3.218876 -3.218876
-3.218876 -3.218876 -3.218876 -3.218876 -3.218876 -3.218876 -3.218876 -3.218876
-3.218876 -3.218876 -3.218876 -3.218876 -3.218876 -3.218876 -3.218876 -3.218876
-3.218876 -3.218876 -3.218876 -3.218876 -3.218876 -3.218876 -3.218876 -3.218876
-3.218876 -3.218876 -3.218876 -3.218876 -3.218876 -3.218876 -3.218876 -3.218876
-3.218876 -3.218876 -3.218876 -3.218876 -3.218876 -3.218876 -3.218876 -3.218876
-3.218876 -3.218876 -3.218876 -3.218876 -3.218876 -3.218876 -3.218876 -3.218876
-3.218876 -3.218876 -3.218876 -3.218876 -3.218876 -3.218876 -3.218876 -3.218876
-3.218876 -3.218876 -3.218876 -3.218876 -3.218876 -3.218876 -3.218876 -3.218876
-3.218876 -3.218876 -3.218876 -3.218876 -3.218876 -3.218876 -3.218876 -3.218876
-3.218876 -3.218876 -3.218876 -3.218876 -3.218876 -3.218876 -3.218876 -3.218876
-3.218876 -3.218876 -3.218876 -3.218876 -3.218876 -3.218876 -3.218876 -3.218876
-3.218876 -3.218876 -3.218876 -3.218876 -3.218876 -3.218876 -3.218876 -3.218876
-3.218876 -3.218876 -3.218876 -3.218876 -3.218876 -3.218876 -3.218876 -3.218876
-3.218876 -3.218876 -3.218876 -3.218876 -3.218876 -3.218876 -3.218876 -3.218876
-3.218876 -3.218876 -3.218876 -3.218876 -3.218876 -3.218876 -3.218876 -3.218876
-3.218876 -3.218876 -3.218876 -3.218876 -3.218876 -3.218876 -3.218876 -3.218876
-3.218876 -3.218876 -3.218876 -3.218876 -3.218876 -3.218876 -3.218876 -3.218876
-3.218876 -3.218876 -3.218876 -3.218876 -3.218876 -3.218876 -3.218876 -3.218876
-3.218876 -3.218876 -3.218876 -3.218876 -3.218876 -3.218876 -3.218876 -3.218876
-3.218876 -3.218876 -3.218876 -3.218876 -3.218876 -3.218876 -3.218876 -3.218876
-3.218876 -3.218876 -3.218876 -3.218876 -3.218876 -3.218876 -3.218876 -3.218876
-3.218876 -3.218876 -3.218876 -3.218876 -3.218876 -3.218876 -3.218876 -3.218876
-3.218876 -3.218876 -3.218876 -3.218876 -3.218876 -3.218876 -3.218876 -3.218876
-3.218876 -3.218876 -3.218876 -3.218876 -3.218876 -3.218876 -3.218876 -3.218876
-3.218876 -3.218876 -3.218876 -3.218876 -3.218876 -3.218876 -3.218876 -3.218876
-3.218876 -3.218876 -3.218876 -3.218876 -3.218876 -3.218876 -3.218876 -3.218876
-3.218876 -3.218876 -3.218876 -3.218876 -3.218876 -3.218876 -3.218876 -3.218876
-3.218876 -3.218876 -3.218876 -3.218876 -3.218876 -3.218876 -3.218876 -3.218876
-3.218876 -3.218876 -3.218876 -3.218876 -3.218876 -3.218876 -3.218876 -3.218876
00000000: 1002 4ec0 1002 4ec0 1002 4ec0 1002 4ec0
00000010: 1002 4ec0 1002 4ec0 1002 4ec0 1002 4ec0
00000020: 1002 4ec0 1002 4ec0 1002 4ec0 1002 4ec0
00000030: 1002 4ec0 1002 4ec0 1002 4ec0 1002 4ec0
00000040: 1002 4ec0 1002 4ec0 1002 4ec0 1002 4ec0
00000050: 1002 4ec0 1002 4ec0 1002 4ec0 1002 4ec0
00000060: 1002 4ec0 1002 4ec0 1002 4ec0 1002 4ec0
00000070: 1002 4ec0 1002 4ec0 1002 4ec0 1002 4ec0
00000080: 1002 4ec0 1002 4ec0 1002 4ec0 1002 4ec0
00000090: 1002 4ec0 1002 4ec0 1002 4ec0 1002 4ec0
000000a0: 1002 4ec0 1002 4ec0 1002 4ec0 1002 4ec0
000000b0: 1002 4ec0 1002 4ec0 1002 4ec0 1002 4ec0
000000c0: 1002 4ec0 1002 4ec0 1002 4ec0 1002 4ec0
000000d0: 1002 4ec0 1002 4ec0 1002 4ec0 1002 4ec0
000000e0: 1002 4ec0 1002 4ec0 1002 4ec0 1002 4ec0
000000f0: 1002 4ec0 1002 4ec0 1002 4ec0 1002 4ec0
00000100: 1002 4ec0 1002 4ec0 1002 4ec0 1002 4ec0
00000110: 1002 4ec0 1002 4ec0 1002 4ec0 1002 4ec0
00000120: 1002 4ec0 1002 4ec0 1002 4ec0 1002 4ec0
00000130: 1002 4ec0 1002 4ec0 1002 4ec0 1002 4ec0
00000140: 1002 4ec0 1002 4ec0 1002 4ec0 1002 4ec0
00000150: 1002 4ec0 1002 4ec0 1002 4ec0 1002 4ec0
00000160: 1002 4ec0 1002 4ec0 1002 4ec0 1002 4ec0
00000170: 1002 4ec0 1002 4ec0 1002 4ec0 1002 4ec0
00000180: 1002 4ec0 1002 4ec0 1002 4ec0 1002 4ec0
00000190: 1002 4ec0 1002 4ec0 1002 4ec0 1002 4ec0
000001a0: 1002 4ec0 1002 4ec0 1002 4ec0 1002 4ec0
000001b0: 1002 4ec0 1002 4ec0 1002 4ec0 1002 4ec0
000001c0: 1002 4ec0 1002 4ec0 1002 4ec0 1002 4ec0
000001d0: 1002 4ec0 1002 4ec0 1002 4ec0 1002 4ec0
000001e0: 1002 4ec0 1002 4ec0 1002 4ec0 1002 4ec0
000001f0: 1002 4ec0 1002 4ec0 1002 4ec0 1002 4ec0
00000200: 1002 4ec0 1002 4ec0 1002 4ec0 1002 4ec0
00000210: 1002 4ec0 1002 4ec0 1002 4ec0 1002 4ec0
00000220: 1002 4ec0 1002 4ec0 1002 4ec0 1002 4ec0
00000230: 1002 4ec0 1002 4ec0 1002 4ec0 1002 4ec0
00000240: 1002 4ec0 1002 4ec0 1002 4ec0 1002 4ec0
00000250: 1002 4ec0 1002 4ec0 1002 4ec0 1002 4ec0
00000260: 1002 4ec0 1002 4ec0 1002 4ec0 1002 4ec0
00000270: 1002 4ec0 1002 4ec0 1002 4ec0 1002 4ec0
00000280: 1002 4ec0 1002 4ec0 1002 4ec0 1002 4ec0
00000290: 1002 4ec0 1002 4ec0 1002 4ec0 1002 4ec0
000002a0: 1002 4ec0 1002 4ec0 1002 4ec0 1002 4ec0
000002b0: 1002 4ec0 1002 4ec0 1002 4ec0 1002 4ec0
000002c0: 1002 4ec0 1002 4ec0 1002 4ec0 1002 4ec0
000002d0: 1002 4ec0 1002 4ec0 1002 4ec0 1002 4ec0
000002e0: 1002 4ec0 1002 4ec0 1002 4ec0 1002 4ec0
000002f0: 1002 4ec0 1002 4ec0 1002 4ec0 1002 4ec0
00000300: 1002 4ec0 1002 4ec0 1002 4ec0 1002 4ec0
00000310: 1002 4ec0 1002 4ec0 1002 4ec0 1002 4ec0
00000320: 1002 4ec0 1002 4ec0 1002 4ec0 1002 4ec0
00000330: 1002 4ec0 1002 4ec0 1002 4ec0 1002 4ec0
00000340: 1002 4ec0 1002 4ec0 1002 4ec0 1002 4ec0
00000350: 1002 4ec0 1002 4ec0 1002 4ec0 1002 4ec0
00000360: 1002 4ec0 1002 4ec0 1002 4ec0 1002 4ec0
00000370: 1002 4ec0 1002 4ec0 1002 4ec0 1002 4ec0
00000380: 1002 4ec0 1002 4ec0 1002 4ec0 1002 4ec0
00000390: 1002 4ec0 1002 4ec0 1002 4ec0 1002 4ec0
000003a0: 1002 4ec0 1002 4ec0 1002 4ec0 1002 4ec0
000003b0: 1002 4ec0 1002 4ec0 1002 4ec0 1002 4ec0
000003c0: 1002 4ec0 1002 4ec0 1002 4ec0 1002 4ec0
000003d0: 1002 4ec0 1002 4ec0 1002 4ec0 1002 4ec0
000003e0: 1002 4ec0 1002 4ec0 1002 4ec0 1002 4ec0
000003f0: 1002 4ec0 1002 4ec0 1002 4ec0 1002 4ec0

bias_mu f4 [128]
-0.061262675 0.22753152 -0.028395303 -0.05188535 -0.02081096 -0.041612223 -0.055069778 -0.05852915
-0.02284982 0.09959102 -0.03436899 -0.028513398 -0.08907797 -0.051692326 -0.047933586 -0.051448986
0.05284797 0.0013394289 -0.04414047 -0.04924637 0.17379859 -0.06382702 -0.060772423 -0.07588097
-0.036278088 -0.043398924 -0.07747191 -0.044178102 0.06576227 -0.107856736 -0.051994976 -0.0562597
-0.07809638 -0.0927016 -0.02788531 -0.048958182 -0.037003823 -0.04245924 -0.05769357 -0.023126863
-0.0567879 -0.024313375 -0.06485022 0.08684308 -0.07887966 -0.06141339 -0.04240391 -0.100513965
-0.056154687 -0.024190474 -0.03701364 -0.011034922 -0.06534378 -0.11791685 -0.06881738 -0.03902408
-0.08855414 -0.077203535 -0.06794163 -0.03143584 -0.038852867 -0.04276305 -0.03365712 -0.039556198
-0.05793151 0.07838093 -0.02982454 -0.072364725 -0.059468657 -0.055977475 -0.10546748 -0.00608607
-0.055110376 -0.045703467 -0.059368335 -0.024623608 -0.057747804 -0.033651073 -0.040045496 0.05043626
-0.037608653 -0.05081104 0.024828555 -0.03453898 -0.064396225 -0.035152685 -0.028933177 -0.038136177
-0.044746228 0.25800836 -0.0784753 -0.032159194 -0.03207793 -0.03335317 -0.059496123 0.05797831
-0.027707255 -0.058947835 0.06275413 -0.056292433 -0.04518281 -0.03385056 -0.07320267 -0.03315035
-0.05537983 0.19442151 0.17855981 -0.06133758 -0.0727792 -0.04039572 -0.048151772 -0.008330856
-0.06340071 -0.048788123 -0.08243331 -0.034333285 -0.03637622 0.25390023 -0.059729394 -0.0341706
-0.03595461 -0.098827176 -0.033778697 -0.044452455 -0.03989259 -0.040871065 -0.071731366 -0.028366273
00000000: 92ee 7abd 06fe 683e 449d e8bc bc85 54bd
00000010: bf7b aabc 9471 2abd d990 61bd 43bc 6fbd
00000020: 8c2f bbbc 60f6 cb3d 80c6 0cbd ee94 e9bc
00000030: 836e b6bd 55bb 53bd 0256 44bd 2cbc 52bd
00000040: 1d77 583d c78f af3a a3cc 34bd 90b6 49bd
00000050: 42f8 313e beb7 82bd 81ec 78bd 7b67 9bbd
00000060: 5598 14bd 12c3 31bd 98a9 9ebd 19f4 34bd
00000070: 5eae 863d fee3 dcbd aff8 54bd 9270 66bd
00000080: fff0 9fbd 56da bdbd bc6f e4bc 6088 48bd
00000090: 5291 17bd bde9 2dbd 1850 6cbd 8c74 bdbc
000000a0: 6e9a 68bd d82c c7bc 31d0 84bd c9da b13d
000000b0: a98b a1bd 9b8c 7bbd b9af 2dbd 44da cdbd
000000c0: 7502 66bd 1a2b c6bc 9d9b 17bd d1cb 34bc
000000d0: f6d2 85bd 647e f1bd 20f0 8cbd b7d7 1fbd
000000e0: df5b b5bd e31c 9ebd fb24 8bbd dec2 00bd
000000f0: 2f24 1fbd 4f28 2fbd 0cdc 09bd ae05 22bd
00000100: 9749 6dbd 2e86 a03d 9852 f4bc f533 94bd
00000110: 6895 73bd a348 65bd 56ff d7bd a86d c7bb
00000120: 6bbb 61bd 8f33 3bbd 362c 73bd 73b7 c9bc
00000130: f688 6cbd b5d5 09bd bf06 24bd 4096 4e3d
00000140: 880b 1abd 3d1f 50bd 4165 cb3c bf78 0dbd
00000150: 2be2 83bd 43fc 0fbd 4505 edbc ae34 1cbd
00000160: d247 37bd ac19 843e a8b7 a0bd 5cb9 03bd
00000170: 2664 03bd 559d 08bd 35b2 73bd aa7a 6d3d
00000180: 53fa e2bc 4973 71bd 3d85 803d e592 66bd
00000190: 9c11 39bd e3a6 0abd 48eb 95bd a9c8 07bd
000001a0: f6d5 62bd 6f16 473e 62d8 363e 1d3d 7bbd
000001b0: 430d 95bd fc75 25bd cb3a 45bd 257e 08bc
000001c0: 3bd8 81bd 0ed6 47bd ccd2 a8bd 0fa1 0cbd
000001d0: 3bff 14bd 36ff 813e cfa6 74bd 79f6 0bbd
000001e0: 2445 13bd e765 cabd 885b 0abd c713 36bd
000001f0: 6a66 23bd 6b68 27bd e5e7 92bd 6360 e8bc

bias_logvar f4 [128]
-3.218876 -3.218876 -3.218876 -3.218876 -3.218876 -3.218876 -3.218876 -3.218876
-3.218876 -3.218876 -3.218876 -3.218876 -3.218876 -3.218876 -3.218876 -3.218876
-3.218876 -3.218876 -3.218876 -3.218876 -3.218876 -3.218876 -3.218876 -3.218876
-3.218876 -3.218876 -3.218876 -3.218876 -3.218876 -3.218876 -3.218876 -3.218876
-3.218876 -3.218876 -3.218876 -3.218876 -3.218876 -3.218876 -3.218876 -3.218876
-3.218876 -3.218876 -3.218876 -3.218876 -3.218876 -3.218876 -3.218876 -3.218876
-3.218876 -3.218876 -3.218876 -3.218876 -3.218876 -3.218876 -3.218876 -3.218876
-3.218876 -3.218876 -3.218876 -3.218876 -3.218876 -3.218876 -3.218876 -3.218876
-3.218876 -3.218876 -3.218876 -3.218876 -3.218876 -3.218876 -3.218876 -3.218876
-3.218876 -3.218876 -3.218876 -3.218876 -3.218876 -3.218876 -3.218876 -3.218876
-3.218876 -3.218876 -3.218876 -3.218876 -3.218876 -3.218876 -3.218876 -3.218876
-3.218876 -3.218876 -3.218876 -3.218876 -3.218876 -3.218876 -3.218876 -3.218876
-3.218876 -3.218876 -3.218876 -3.218876 -3.218876 -3.218876 -3.218876 -3.218876
-3.218876 -3.218876 -3.218876 -3.218876 -3.218876 -3.218876 -3.218876 -3.218876
-3.218876 -3.218876 -3.218876 -3.218876 -3.218876 -3.218876 -3.218876 -3.218876
-3.218876 -3.218876 -3.218876 -3.218876 -3.218876 -3.218876 -3.218876 -3.218876
00000000: 1002 4ec0 1002 4ec0 1002 4ec0 1002 4ec0
00000010: 1002 4ec0 1002 4ec0 1002 4ec0 1002 4ec0
00000020: 1002 4ec0 1002 4ec0 1002 4ec0 1002 4ec0
00000030: 1002 4ec0 1002 4ec0 1002 4ec0 1002 4ec0
00000040: 1002 4ec0 1002 4ec0 1002 4ec0 1002 4ec0
00000050: 1002 4ec0 1002 4ec0 1002 4ec0 1002 4ec0
00000060: 1002 4ec0 1002 4ec0 1002 4ec0 1002 4ec0
00000070: 1002 4ec0 1002 4ec0 1002 4ec0 1002 4ec0
00000080: 1002 4ec0 1002 4ec0 1002 4ec0 1002 4ec0
00000090: 1002 4ec0 1002 4ec0 1002 4ec0 1002 4ec0
000000a0: 1002 4ec0 1002 4ec0 1002 4ec0 1002 4ec0
000000b0: 1002 4ec0 1002 4ec0 1002 4ec0 1002 4ec0
000000c0: 1002 4ec0 1002 4ec0 1002 4ec0 1002 4ec0
000000d0: 1002 4ec0 1002 4ec0 1002 4ec0 1002 4ec0
000000e0: 1002 4ec0 1002 4ec0 1002 4ec0 1002 4ec0
000000f0: 1002 4ec0 1002 4ec0 1002 4ec0 1002 4ec0
00000100: 1002 4ec0 1002 4ec0 1002 4ec0 1002 4ec0
00000110: 1002 4ec0 1002 4ec0 1002 4ec0 1002 4ec0
00000120: 1002 4ec0 1002 4ec0 1002 4ec0 1002 4ec0
00000130: 1002 4ec0 1002 4ec0 1002 4ec0 1002 4ec0
00000140: 1002 4ec0 1002 4ec0 1002 4ec0 1002 4ec0
00000150: 1002 4ec0 1002 4ec0 1002 4ec0 1002 4ec0
00000160: 1002 4ec0 1002 4ec0 1002 4ec0 1002 4ec0
00000170: 1002 4ec0 1002 4ec0 1002 4ec0 1002 4ec0
00000180: 1002 4ec0 1002 4ec0 1002 4ec0 1002 4ec0
00000190: 1002 4ec0 1002 4ec0 1002 4ec0 1002 4ec0
000001a0: 1002 4ec0 1002 4ec0 1002 4ec0 1002 4ec0
000001b0: 1002 4ec0 1002 4ec0 1002 4ec0 1002 4ec0
000001c0: 1002 4ec0 1002 4ec0 1002 4ec0 1002 4ec0
000001d0: 1002 4ec0 1002 4ec0 1002 4ec0 1002 4ec0
000001e0: 1002 4ec0 1002 4ec0 1002 4ec0 1002 4ec0
000001f0: 1002 4ec0 1002 4ec0 1002 4ec0 1002 4ec0

z_mu f4 [128]
0.0012316434 0.34490475 -0.0007543961 0.0005111649 -0.003408429 0.00034366202 -0.00073182554 -0.0052701365
0.0010198995 0.23484132 0.0024880802 -6.441805e-05 -0.0017824434 -0.00033671426 -0.00071936054 -0.0011308051
0.10592333 0.00022302786 0.003135572 -0.00019525831 0.20174907 -0.0008673831 0.00056466914 0.0060172137
-0.0018396701 -0.0008953765 0.0050388887 -0.00040790503 0.1349203 -0.0037103829 0.00032766256 -0.004243344
-0.018354405 -0.0006435356 -9.76159e-07 0.005451151 0.00815902 0.001826163 -0.00070799654 0.00038018436
-0.0013948471 0.0025770466 0.002033847 0.26867855 -0.028343711 0.0038796621 -0.00040113373 -0.003869849
0.00413086 -4.9654655e-06 -0.0008839335 0.001727287 -0.0012477557 -0.0017936238 9.45522e-05 -0.0015050783
-0.012995457 -0.0024115494 -0.0019108278 0.007618273 -0.004627632 -0.0002309086 4.789824e-05 0.00036314357
-0.009109851 0.2228092 -0.00034840984 -0.0014721553 0.0003574818 0.00035284017 0.009835165 -0.004747222
-0.0013809169 0.0012520466 0.0023978474 0.0010388839 0.0032891042 -0.001659714 -0.0016946007 0.2878714
-0.0005002499 -0.0010118857 -0.0006588984 0.00026419837 -0.0016057922 0.004538334 -0.0013710756 0.0005164649
-0.001090381 0.34881613 -0.0042643575 -0.0009916589 0.0010794828 0.0029816963 0.00032068542 0.09470619
0.10694608 -0.009481923 0.23247863 0.008575728 0.000256665 -6.680507e-05 -0.0009953985 -7.9566395e-05
0.0009093951 0.29406407 0.26780593 0.0019197735 -0.00014952025 -0.0015685625 0.00092379743 0.0021543852
0.0038866182 -0.00028862874 0.0011851286 0.0013364324 0.0014158618 0.39335862 -0.0051851147 0.0009086
-6.573789e-05 -0.011252404 0.0002065783 0.0011299979 -0.00014231287 0.0012541995 0.0009539865 -0.0024742763
00000000: 186f a13a 5b97 b03e aac2 45ba b2ff 053a
00000010: f35f 5fbb 892d b439 fbd7 3fba 1cb1 acbb
00000020: 26ae 853a 3e7a 703e 0f0f 233b 2d18 87b8
00000030: e0a0 e9ba 0689 b0b9 7893 3cba 8637 94ba
00000040: 55ee d83d 96dc 6939 2b7e 4d3b 41be 4cb9
00000050: 4f97 4e3e 1861 63ba 4e06 143a 0c2c c53b
00000060: 1621 f1ba b3b7 6aba 431d a53b 16dc d5b9
00000070: 8c28 0a3e e529 73bb 20ca ab39 c00b 8bbb
00000080: fa5b 96bc f1b2 28ba 9104 83b5 929f b23b
00000090: 69ad 053c dd5b ef3a d898 39ba 7b53 c739
000000a0: 4dd3 b6ba abe3 283b 4a4a 053b 3c90 893e
000000b0: 1231 e8bc ee41 7e3b 424f d2b9 4b9d 7dbb
000000c0: 2a5c 873b 069d a6b6 c6b7 67ba 2266 e23a
000000d0: bc8b a3ba 0718 ebba 534a c638 0c46 c5ba
000000e0: e6ea 54bc 160b 1ebb be74 faba b5a2 f93b
000000f0: 64a3 97bb 0e20 72b9 58e6 4838 4e64 be39
00000100: 7c41 15bc 1828 643e c7aa b6b9 56f5 c0ba
00000110: 656c bb39 68fd b839 ac23 213c 968e 9bbb
00000120: e2ff b4ba b61b a43a 3425 1d3b 292b 883a
00000130: 038e 573b c38a d9ba 5d1d deba e163 933e
00000140: 3423 03ba 40a1 84ba ecb9 2cba 1b84 8a39
00000150: 7279 d2ba 4eb6 943b aab5 b3ba 5f63 073a
00000160: 1deb 8eba 0798 b23e 06bc 8bbb 8dfa 81ba
00000170: 6f7d 8d3a 9068 433b ab21 a839 52f5 c13d
00000180: 8c06 db3d 115a 1bbc e10e 6e3e 3681 0c3c
00000190: fe90 8639 b319 8cb8 0878 82ba e2dc a6b8
000001a0: 7964 6e3a 918f 963e dc1d 893e e9a0 fb3a
000001b0: 89c8 1cb9 3998 cdba ff2a 723a 9630 0d3b
000001c0: a2b6 7e3b 1853 97b9 5156 9b3a 3b2b af3a
000001d0: 7094 b93a 4d66 c93e e5e7 a9bb 1d2f 6e3a
000001e0: c3dc 89b8 015c 38bc f19c 5839 701c 943a
000001f0: d239 15b9 f463 a43a f314 7a3a 7827 22bb

z_logvar f4 [128]
-8.056689 -6.287549 -8.503604 -9.18302 -9.106673 -8.150255 -8.295775 -6.704062
-9.28218 -5.619984 -9.443622 -9.490153 -5.763309 -8.949037 -8.516943 -7.9314947
-5.5944276 -9.225339 -7.531045 -9.040403 -5.2203655 -8.086937 -7.7307177 -6.222409
-7.600416 -9.306887 -6.707335 -9.562487 -6.02692 -4.0479236 -7.8668194 -7.5507746
-4.9918647 -4.7085195 -8.734721 -7.44939 -8.323768 -8.44544 -7.1803565 -9.163918
-8.942174 -9.262524 -7.7380805 -6.201411 -4.9418693 -6.578969 -9.142017 -4.794895
-8.430892 -9.233445 -9.165803 -9.132597 -6.5530725 -4.453706 -7.549542 -9.3029
-4.2207108 -5.3149557 -7.5705404 -8.388814 -8.700297 -9.262821 -8.883167 -8.232108
-6.8909936 -5.970507 -9.446267 -7.813451 -7.4023333 -8.7436695 -4.990903 -9.191136
-8.790121 -8.295758 -6.052465 -9.236359 -5.741475 -9.200087 -8.125781 -6.0460887
-9.305312 -9.024438 -9.310284 -8.930229 -5.8590817 -7.5309806 -9.180645 -9.493276
-9.290218 -5.831195 -3.9875658 -9.241566 -8.903366 -9.276003 -8.28688 -5.3284593
-5.363955 -5.4513726 -6.1222634 -7.407898 -9.038752 -8.690896 -6.7437024 -8.926059
-8.940744 -5.6061406 -5.84387 -7.0883937 -7.6024523 -8.61512 -9.15349 -9.075349
-7.296941 -6.901417 -6.1159945 -9.358362 -9.1745615 -6.246825 -7.4687123 -9.276738
-9.275823 -5.1464796 -8.7178955 -8.898386 -9.299946 -9.265707 -6.4411883 -9.307657
00000000: 33e8 00c1 9a33 c9c0 c30e 08c1 a6ed 12c1
00000010: efb4 11c1 7267 02c1 7fbb 04c1 ad87 d6c0
00000020: cf83 14c1 e9d6 b3c0 1319 17c1 abd7 17c1
00000030: 076d b8c0 412f 0fc1 6645 08c1 cece fdc0
00000040: 8d05 b3c0 fd9a 13c1 52fe f0c0 7ea5 10c1
00000050: 3c0d a7c0 1864 01c1 0a62 f7c0 f91d c7c0
00000060: 9c36 f3c0 02e9 14c1 7da2 d6c0 f2ff 18c1
00000070: 87dc c0c0 9788 81c0 fcbc fbc0 f29f f1c0
00000080: 5bbd 9fc0 31ac 96c0 6bc1 0bc1 6761 eec0
00000090: 272e 05c1 8620 07c1 7bc5 e5c0 689f 12c1
000000a0: 2513 0fc1 4c33 14c1 5b9e f7c0 f571 c6c0
000000b0: cb23 9ec0 ea86 d2c0 b445 12c1 c86f 99c0
000000c0: efe4 06c1 31bc 13c1 21a7 12c1 1e1f 12c1
000000d0: c5b2 d1c0 c284 8ec0 d995 f1c0 aed8 14c1
000000e0: 1010 87c0 1e14 aac0 de41 f2c0 9538 06c1
000000f0: 6b34 0bc1 8434 14c1 7421 0ec1 b7b6 03c1
00000100: 0583 dcc0 650e bfc0 e923 17c1 ca07 fac0
00000110: eadf ecc0 12e6 0bc1 7ab5 9fc0 e50e 13c1
00000120: 56a4 0cc1 6dbb 04c1 cbad c1c0 20c8 13c1
00000130: 2aba b7c0 8e33 13c1 3303 02c1 8f79 c1c0
00000140: 8fe2 14c1 1964 10c1 ecf6 14c1 38e2 0ec1
00000150: 997d bbc0 cbfd f0c0 ece3 12c1 75e4 17c1
00000160: bca4 14c1 2699 bac0 4734 7fc0 74dd 13c1
00000170: 3074 0ec1 826a 14c1 0f97 04c1 bd82 aac0
00000180: 85a5 abc0 a571 aec0 95e9 c3c0 800d edc0
00000190: ba9e 10c1 e90d 0bc1 69cc d7c0 23d1 0ec1
000001a0: 4a0d 0fc1 8165 b3c0 fc00 bbc0 1fd4 e2c0
000001b0: 4a47 f3c0 88d7 09c1 b274 12c1 a134 11c1
000001c0: 8a80 e9c0 68d8 dcc0 3ab6 c3c0 dabb 15c1
000001d0: 01cb 12c1 fee5 c7c0 b1ff eec0 856d 14c1
000001e0: c569 14c1 f6af a4c0 807c 0bc1 ca5f 0ec1
000001f0: 94cc 14c1 5640 14c1 371e cec0 2aec 14c1

weight_mu f4 [2, 128]
-0.024836836 0.18774706 -0.024344618 0.0027791222 0.04617822 0.024577651 -0.053809393 0.004917545
-0.037220392 0.19937842 0.034265943 -0.048178934 -0.01709083 -0.0049193236 0.05643109 -0.0035657499
-0.22113535 -0.04583113 -0.039886836 0.022150595 0.28302848 0.0038076385 0.050021406 0.025409373
0.006824337 0.07535347 -0.023570463 0.025890306 -0.20998763 -0.016553162 0.021137645 -0.015443237
-0.029047837 0.010190862 0.0495016 0.05626641 -0.048945807 0.034467768 -0.010618765 -0.05966686
0.06639868 0.007106938 0.0026315325 -0.1625642 0.0433264 0.012616788 -0.031518932 -0.048996825
-0.050516568 -0.029221172 -0.043057185 -0.047859002 -0.0183851 0.00806269 0.012787699 -0.009625704
0.0229628 -0.029844554 0.013348109 -0.015536126 -0.0039525987 0.0036206895 -0.0018756501 -0.009338444
0.007501423 -0.14209078 0.007345665 0.05775794 -0.04076434 -0.041235648 -0.039776333 0.04564098
-0.055697344 -0.014854576 0.024084076 -0.024976833 0.033394516 0.027447047 0.01670762 -0.21434994
0.025045428 0.013200501 0.010031724 -0.041539155 0.015084509 0.034322973 0.069148935 0.015422103
-0.012005581 0.21315564 -0.034980223 0.0006285579 0.068099044 -0.0024429879 0.06310093 -0.19890791
0.21033308 0.019735962 -0.17978449 0.022112641 -0.030754393 0.03151399 -0.015269631 -0.0072106104
0.012594073 0.21250366 0.18347858 0.0012472484 0.0019818286 -0.00088902266 0.008173938 -0.04292166
-0.0025570916 0.00070531724 -0.015640916 -0.021109644 0.023642106 0.19160992 0.003970436 -0.07606509
0.05142279 -0.026928226 -0.006433251 -0.008682499 0.05036977 -0.054586776 -0.031606246 0.028535314
0.025069835 -0.187136 0.023206897 -0.0016397615 -0.046214584 -0.028371593 0.054976415 -0.009536
0.03670757 -0.20079643 -0.033582997 0.05079053 0.014754924 0.006590576 -0.057687454 0.00557519
0.2213191 0.044438012 0.036873404 -0.022527076 -0.2825534 -0.009491757 -0.049011506 -0.025857737
-0.0063771345 -0.07897898 0.022546424 -0.025446853 0.20896432 0.013036645 -0.017147537 0.018894022
0.030098632 -0.00574497 -0.051232465 -0.05147985 0.05443922 -0.038216725 0.008096879 0.056858722
-0.072696865 -0.013400768 0.00030185858 0.16239974 -0.043545432 -0.009779107 0.034837846 0.056972805
0.05107219 0.026568774 0.040631175 0.043705713 0.0145745715 -0.0065760273 -0.00809411 0.009920496
0.007758951 0.02591146 -0.010619867 0.01272416 0.0047638495 -0.0021967052 0.0056090136 0.010367749
-0.004852025 0.1431228 -0.007995253 -0.054512266 0.043208495 0.041971527 0.03576472 -0.043622732
0.05377932 0.012397035 -0.03056749 0.02881861 -0.025695022 -0.024787435 -0.017965835 0.21407534
-0.027193638 -0.014884136 -0.0045559253 0.0442275 -0.017359922 -0.034800418 -0.06533414 -0.016170336
0.014688547 -0.21273461 0.026187997 -0.0018813708 -0.06780321 0.0013356903 -0.06316532 0.20014307
-0.20769045 -0.018394982 0.17912105 -0.015746573 0.031894572 -0.03199416 0.0073916796 0.00634231
-0.0112189185 -0.21284111 -0.1852254 -0.0039785877 -0.0050312188 0.005618268 -0.011248499 0.044474155
0.0014155303 -0.0024080714 0.014888837 0.023120558 -0.02018179 -0.1915318 -0.0033975693 0.07361386
-0.051143676 0.024684884 0.00543244 0.0036566672 -0.052532084 0.05429021 0.029811991 -0.02601311
00000000: 9f76 cbbc c440 403e 5d6e c7bc ef21 363b
00000010: 6025 3d3d 1257 c93c 3d67 5cbd 5b23 a13b
00000020: 6974 18bd db29 4c3e 725a 0c3d 4657 45bd
00000030: 1102 8cbc 4732 a1bb 4924 673d 5baf 69bb
00000040: 4e71 62be 6cb9 3bbd 6160 23bd 2a75 b53c
00000050: 1ce9 903e 9389 793b 3fe3 4c3d 5127 d03c
00000060: b09e df3b ec52 9a3d d816 c1bc e817 d43c
00000070: ff06 57be 7f9a 87bc db28 ad3c a105 7dbc
00000080: bbf5 edbc 93f7 263c 31c2 4a3d 9b77 663d
00000090: 667b 48bd 132e 0d3d 54fa 2dbc 3d65 74bd
000000a0: 08fc 873d 51e1 e83b ca75 2c3b 3b77 26be
000000b0: 0677 313d a5b6 4e3c ff19 01bd e5b0 48bd
000000c0: 76ea 4ebd 3d61 efbc bb5c 30bd cd07 44bd
000000d0: 599c 96bc 5f19 043c 7f83 513c 21b5 1dbc
000000e0: 7b1c bc3c 917c f4bc 07b2 5a3c 3c8b 7ebc
000000f0: cd84 81bb 1749 6d3b 60d8 f5ba 4600 19bc
00000100: 7fce f53b 3f80 11be e7b3 f03b 9793 6c3d
00000110: 82f8 26bd b6e6 28bd 82ec 22bd 09f2 3a3d
00000120: e622 64bd 9c60 73bc f84b c53c 379c ccbc
00000130: b0c8 083d a1d8 e03c 6bde 883c 8d7e 5bbe
00000140: 122c cd3c ea46 583c 1a5c 243c f624 2abd
00000150: 0425 773c 3f96 0c3d f59d 8d3d fdac 7c3c
00000160: 0eb3 44bc 7945 5a3e 6c47 0fbd cec5 243a
00000170: 8377 8b3d 891a 20bb 0f3b 813d 84ae 4bbe
00000180: 8e61 573e 50ad a13c 6d19 38be 9225 b53c
00000190: a3f0 fbbc d014 013d 792d 7abc fc46 ecbb
000001a0: 5f57 4e3c 8f9a 593e cfe1 3b3e b67a a33a
000001b0: 91e1 013b 4d0d 69ba fbeb 053c 9fce 2fbd
000001c0: e194 27bb 0ae5 383a 6121 80bc 22ee acbc
000001d0: 17ad c13c 6435 443e 6e1a 823b 04c8 9bbd
000001e0: b4a0 523d 9598 dcbc 05ce d2bb 0a41 0ebc
000001f0: 8850 4e3d 6296 5fbd 8d75 01bd e4c2 e93c
00000200: 415f cd3c 94a0 3fbe 641c be3c 44ed d6ba
00000210: 814b 3dbd 8b6b e8bc f32e 613d e23c 1cbc
00000220: ad5a 163d 949d 4dbe 538e 09bd bb09 503d
00000230: a3be 713c c2f5 d73b ae49 6cbd 15b0 b63b
00000240: 79a1 623e a204 363d 9108 173d b48a b8bc
00000250: d7aa 90be 5083 1bbc 4ac0 48bd 9bd3 d3bc
00000260: 48f7 d0bb bbbf a1bd 47b3 b83c eb75 d0bc
00000270: befa 553e a797 553c fe78 8cbc a3c7 9a3c
00000280: 6891 f63c 4d40 bcbb 22d9 51bd 89dc 52bd
00000290: a9fb 5e3d 2489 1cbd c6a8 043c b1e4 683d
000002a0: 18e2 94bd e58e 5bbc c642 9e39 1e4c 263e
000002b0: b25c 32bd 8c38 20bc 21b2 0e3d 515c 693d
000002c0: 1331 513d c2a6 d93c e06c 263d c304 333d
000002d0: 2fca 6e3c b77b d7bb 289d 04bc 9389 223c
000002e0: cc3e fe3b 4544 d43c f3fe 2dbc ff78 503c
000002f0: 111a 9c3b 99f6 0fbb d1cb b73b 7edd 293c
00000300: bcfd 9ebb c98e 123e 86fe 02bc 4148 5fbd
00000310: 64fb 303d 56ea 2b3d 077e 123d c0ad 32bd
00000320: b447 5c3d ef1c 4b3c ac68 fabc 0115 ec3c
00000330: 5e7e d2bc 050f cbbc 162d 93bc 9136 5b3e
00000340: 31c5 debc 97dc 73bc df49 95bb e527 353d
00000350: 6536 8ebc e28a 0ebd e8cd 85bd a777 84bc
00000360: 3ba8 703c 1ad7 59be 3688 d63c 5498 f6ba
00000370: 69dc 8abd 5412 af3a d25c 81bd 4ef2 4c3e
00000380: ceac 54be 13b1 96bc 826b 373e f5fe 80bc
00000390: e2a3 023d 4f0c 03bd e735 f23b 27d3 cf3b
000003a0: 8ecf 37bc 05f3 59be baab 3dbe d05e 82bb
000003b0: ecdc a4bb 7319 b83b a04b 38bc 882a 363d
000003c0: 5189 b93a bcd0 1dbb 4ff0 733c 5367 bd3c
000003d0: 4854 a5bc ea20 44be c1a9 5ebb ddc2 963d
000003e0: 087c 51bd f437 ca3c 9c02 b23b b2a4 6f3b
000003f0: e22b 57bd 695f 5e3d 4738 f43c 7219 d5bc

weight_logvar f4 [2, 128]
-0.032421943 -7.1193094 -0.030288097 -0.026072072 0.023308804 -0.013379776 -0.013512695 -0.040266536
-0.028509814 -6.008702 -0.039399263 -0.04699541 -0.005990717 -0.06434065 -0.02308374 -0.035981566
-4.654486 -0.034568205 -0.011491731 -0.06484989 -4.8370028 -0.02884996 -0.014054564 -0.0020149916
-0.0077900393 -0.012014111 -0.071132995 -0.026027756 -5.2802258 -0.03013771 -0.03431899 -0.01429474
-0.029273946 0.026386928 -0.034262355 -0.020860987 -0.06036894 -0.031889275 -0.05712353 -0.017450964
-0.036239848 0.0013320354 -0.070541106 -7.282658 -0.028763851 -0.030202584 -0.037014432 -0.055745386
-0.026616741 -0.029191257 -0.04413643 -0.01643119 -0.050879277 -0.016178785 -0.013676661 -0.018721065
-0.041852117 -0.047689922 -0.024043329 -0.031107465 -0.021287818 -0.03803403 -0.04814678 -0.047920797
-0.04171373 -6.93868 -0.027489388 -0.047639564 -0.019096902 -0.015036531 -0.09222894 -0.030755779
-0.019126546 -0.05446039 0.004023053 -0.028436402 -0.06122674 -0.027460175 -0.028778058 -6.9494805
-0.04357185 -0.019467093 -0.022244839 -0.028806677 -0.0017851384 -0.05614691 -0.03762819 -0.046149004
-0.014545874 -7.047754 -0.021617346 -0.032951392 0.013832473 -0.023608472 -0.05308808 -4.9223638
-4.9155893 -0.08804308 -6.477879 -0.0134700965 -0.038800366 -0.03116146 -0.044437867 -0.0054546744
-0.02438669 -5.944873 -6.492125 -0.03740739 -0.070692495 -0.021557013 0.0099573545 -0.031284444
-0.05733101 -0.024694724 -0.0016380085 -0.030871755 -0.018129703 -7.553883 -0.05202035 0.016317768
-0.024224106 -0.024234384 -0.01656775 -0.024301821 -0.056480136 -0.033374604 -0.027878845 0.010245462
-0.058050554 -7.115838 -0.029310133 -0.06602193 -0.03898924 -0.03555255 -0.011487054 -0.009499765
-0.0095133325 -6.113126 -0.005491565 -0.018947862 -0.03939472 -0.014099737 -0.04154895 -0.043471456
-4.6805553 0.03985074 -0.043715645 -0.0027279316 -4.898568 -0.06468058 -0.0029976328 -0.09782834
-0.041122586 -0.04074817 -0.0155358985 -0.029239882 -5.3548465 -0.0676129 -0.03163921 -0.025059918
-0.08038318 -0.08888427 -0.020221088 -0.040022805 0.0097004725 -0.04875138 -0.06331304 -0.021793822
-0.03150695 -0.012986637 -0.02092653 -7.311624 -0.06618788 -0.019127749 -0.031474367 -0.064895906
-0.07107149 -0.032885596 -0.0051403116 -0.00571984 -0.05604168 -0.08341436 -0.04845119 -0.031073172
-0.018834693 -0.046753403 -0.02325241 -0.0075585307 -0.034441516 -0.029413246 -0.035156246 -0.039712816
-0.05296401 -6.949263 -0.037549283 0.005967402 -0.0644688 -0.03249073 -0.056042034 0.013586489
-0.014516803 -0.013250203 -0.043004625 0.00191359 -0.0037217038 -0.007007581 -0.024880469 -6.9722877
-0.02814179 -0.025042415 0.041804533 -0.028525865 -0.018657723 0.024190674 -0.0048715137 -0.019746719
-0.04298233 -7.1066504 -0.029591952 -0.038514886 -0.0647351 -0.005555912 -0.03395033 -4.9423385
-4.9854727 0.014063993 -6.6159463 -0.053366095 -0.03551644 -0.017230293 -0.0441313 -0.040840566
-0.041853104 -5.9958634 -6.4512634 -0.027194526 -0.040112376 -0.013206918 -0.048207514 -0.026697775
-0.0058535035 -0.047137056 -0.06283668 -0.037961386 -0.032256283 -7.6372576 -0.053879265 -0.079742596
-0.015494837 -0.0407571 -0.014138489 -0.032660034 0.0008835103 -0.03201243 -0.05958961 -0.04803607
00000000: dfcc 04bd 62d1 e3c0 be1e f8bc 1995 d5bc
00000010: 1bf2 be3c d936 5bbc 5a64 5dbc 86ee 24bd
00000020: 6a8d e9bc 4947 c0c0 1f61 21bd 427e 40bd
00000030: c74d c4bb 08c5 83bd 1d1a bdbc 6861 13bd
00000040: 8df1 94c0 6497 0dbd d047 3cbc 05d0 84bd
00000050: bac8 9ac0 c056 ecbc 1d45 66bc f30d 04bb
00000060: 9643 ffbb d5d6 44bc 2dae 91bd 2938 d5bc
00000070: 9cf7 a8c0 5ce3 f6bc 1292 0cbd 7c34 6abc
00000080: eacf efbc 6629 d83c af56 0cbd a9e4 aabc
00000090: 6c45 77bd 549e 02bd 5dfa 69bd 53f5 8ebc
000000a0: 3c70 14bd b197 ae3a db77 90bd 890b e9c0
000000b0: 2ba2 ebbc 696b f7bc 729c 17bd 4655 64bd
000000c0: 5a0b dabc 8122 efbc 67c8 34bd b49a 86bc
000000d0: ca66 50bd 5f89 84bc 1314 60bc eb5c 99bc
000000e0: 206d 2bbd 8256 43bd 84f6 c4bc 15d5 febc
000000f0: ca63 aebc 92c9 1bbd 8f35 45bd 9948 44bd
00000100: 04dc 2abd ab09 dec0 6d31 e1bc b421 43bd
00000110: 1b71 9cbc c85b 76bc 87e2 bcbd 8bf3 fbbc
00000120: 46af 9cbc dc11 5fbd d1d3 833b 75f3 e8bc
00000130: e4c8 7abd 29f4 e0bc f6bf ebbc 2562 dec0
00000140: 6578 32bd 7479 9fbc cf3a b6bc fbfb ebbc
00000150: 4efb e9ba 4dfa 65bd 0420 1abd bd06 3dbd
00000160: d151 6ebc 3387 e1c0 dc16 b1bc 0af8 06bd
00000170: 99a1 623c 8e66 c1bc e372 59bd 0184 9dc0
00000180: 824c 9dc0 ee4f b4bd c94a cfc0 aeb1 5cbc
00000190: 22ed 1ebd 5146 ffbc 7b04 36bd 20bd b2bb
000001a0: 99c6 c7bc 663c bec0 7dbf cfc0 7e38 19bd
000001b0: 3ac7 90bd 5598 b0bc 2c24 233c 1e24 00bd
000001c0: ecd3 6abd 974c cabc 72b2 d6ba c3e6 fcbc
000001d0: be84 94bc 69b9 f1c0 4a13 55bd d7ac 853c
000001e0: a271 c6bc 3087 c6bc 17b9 87bc 9d14 c7bc
000001f0: b757 67bd cfb3 08bd 2d62 e4bc 95dc 273c
00000200: 6bc6 6dbd f2b4 e3c0 ce1b f0bc 8136 87bd
00000210: 2eb3 1fbd 8d9f 11bd 3234 3cbc e7a4 1bbc
00000220: cfdd 1bbc ba9e c3c0 96f2 b3bb 8c38 9bbc
00000230: 5c5c 21bd 9502 67bc 3b2f 2abd 200f 32bd
00000240: 1cc7 95c0 883a 233d 2d0f 33bd 19c7 32bb
00000250: 12c1 9cc0 4077 84bd ef73 44bb 3a5a c8bd
00000260: 2870 28bd 8ee7 26bd 488a 7ebc 7a88 efbc
00000270: e75a abc0 a278 8abd 1e98 01bd 754a cdbc
00000280: f09f a4bd f508 b6bd b2a6 a5bc f4ee 23bd
00000290: bbee 1e3c 87af 47bd 44aa 81bd f588 b2bc
000002a0: 6e0d 01bd e7c5 54bc 1d6e abbc d3f8 e9c0
000002b0: 838d 87bd ccb1 9cbc 44eb 00bd 25e8 84bd
000002c0: ee8d 91bd 0cb3 06bd 0f70 a8bb 7f6d bbbb
000002d0: f68b 65bd 26d5 aabd c174 46bd 2a8d febc
000002e0: 374b 9abc 7f80 3fbd d77b bebc 8dad f7bb
000002f0: 8c12 0dbd 0cf4 f0bc ffff 0fbd e8a9 22bd
00000300: caf0 58bd 5d60 dec0 47cd 19bd 328a c33b
00000310: 3808 84bd 0015 05bd 558c 65bd dd99 5e3c
00000320: e3d7 6dbc 6117 59bc 9e25 30bd 6dd1 fa3a
00000330: d4e7 73bb da9f e5bb 20d2 cbbc fb1c dfc0
00000340: 9c89 e6bc c025 cdbc 3b3b 2b3d 13af e9bc
00000350: 15d8 98bc 852b c63c 38a1 9fbb dfc3 a1bc
00000360: 3d0e 30bd ae69 e3c0 d26a f2bc c9c1 1dbd
00000370: d693 84bd 5e0e b6bb 800f 0bbd a327 9ec0
00000380: fe88 9fc0 a96c 663c d5b5 d3c0 6896 5abd
00000390: b079 11bd 8b26 8dbc 06c3 34bd 7048 27bd
000003a0: 296e 2bbd 1dde bfc0 c070 cec0 0ec7 debc
000003b0: e04c 24bd d461 58bc 3e75 45bd 4bb5 dabc
000003c0: bfce bfbb c912 41bd 84b0 80bd 667d 1bbd
000003d0: 2a1f 04bd 6a64 f4c0 81b0 5cbd 1650 a3bd
000003e0: 0fde 7dbc ebf0 26bd 1fa5 67bc 87c6 05bd
000003f0: 5f9b 673a 771f 03bd 3c14 74bd 78c1 44bd

bias_mu f4 [2]
-0.12644039 0.1262958
00000000: 9779 01be b053 013e

bias_logvar f4 [2]
-7.7080812 -7.7334175
00000000: 9aa8 f6c0 2878 f7c0
