metric/3_8_probe_random_seed_3024.pth (torch, 539531 bytes, 12 tensors)

z_mu f4 [512]
0	0x3b73a775	0.003717867
1	0xbb230133	-0.002487254
2	0x3afacd4c	0.001913467
3	0x3f2d13d0	0.67608356
4	0x3f4cb4c6	0.7996334
5	0x3c4d5716	0.01253297
6	0x3aec0f77	0.001800998
7	0x3f881c34	1.0633607
8	0xbbdb11e5	-0.006685483
9	0x3f916ead	1.13619
10	0xb9892901	-0.00026161227
11	0x3acc5e79	0.001559212
12	0xbab015e9	-0.0013434264
13	0x3a0dc408	0.0005407934
14	0x3b0e60a2	0.0021725078
15	0x38c4d7fe	9.38624e-05
16	0xbac34ad1	-0.0014899616
17	0xbb85b0a1	-0.0040798937
18	0x3ada2ed0	0.0016646031
19	0x3b040df3	0.0020149916
20	0x3b899a05	0.0041992688
21	0x3ba40f2c	0.0050066914
22	0xbc464c62	-0.012103172
23	0xb843d8ac	-4.6693414e-05
24	0xbb329a62	-0.0027252664
25	0x3f7be75a	0.9839989
26	0x3b136948	0.0022493172
27	0xb9b4e2b4	-0.00034501182
28	0xbb37afbd	-0.0028028332
29	0x3a8c7958	0.0010717316
30	0xb9e7387e	-0.00044101843
31	0xba84aee0	-0.0010122918
32	0x3b15f1c0	0.002287969
33	0xbb3f8192	-0.0029221517
34	0x3f6c234e	0.9224137
35	0x3edac068	0.4272492
36	0x3a6f60d2	0.0009131554
37	0x3b24c920	0.0025144294
38	0x3f94401b	1.1582063
39	0x3a8fba8f	0.0010965633
40	0x3f6a5b75	0.915458
41	0x3b34d9cc	0.0027595637
42	0xba5be808	-0.00083887624
43	0x3c014cc8	0.007891841
44	0x38aa0e4c	8.108895e-05
45	0xbb53e051	-0.0032329748
46	0x3ac67f4f	0.0015144142
47	0xbac8dc62	-0.0015324468
48	0x3f8e84bf	1.1134261
49	0x3b03fb84	0.0020138929
50	0x3aea8a91	0.0017894079
51	0x3b461f4e	0.0030231061
52	0x3ad1616e	0.0015974471
53	0x3ade0a9f	0.0016940421
54	0x3c41f93a	0.011839205
55	0x3c8f0f33	0.017463302
56	0x3f675a46	0.9037212
57	0xbaba8469	-0.0014230135
58	0x3b3d342b	0.0028870206
59	0xb7bc0d00	-2.24174e-05
60	0x3a2718cc	0.00063742395
61	0x3f69d4ea	0.91340506
62	0x3b111786	0.0022139265
63	0xbadf33ec	-0.0017029024
64	0x3fa7fc0d	1.3123795
65	0x3b80fca7	0.0039363685
66	0x3b52b5c8	0.0032151807
67	0x39e4a9e9	0.00043614142
68	0x3f866a51	1.0501195
69	0xba72a4c5	-0.000925612
70	0x3f96174a	1.1725857
71	0x3ab9053e	0.0014115942
72	0x3ad2880a	0.0016062271
73	0x3f4f0d7f	0.8087997
74	0xb846efa5	-4.7430065e-05
75	0x3838ee88	4.4091168e-05
76	0x3b13fb43	0.0022580184
77	0x3edcb8a0	0.43109608
78	0x3f47c886	0.7804035
79	0x3f841927	1.0320176
80	0xbac3f9be	-0.0014951748
81	0xbb80743f	-0.0039201076
82	0x39addeec	0.0003316322
83	0xbbaf7dcf	-0.0053555737
84	0xb88fd420	-6.858283e-05
85	0xbbfde20c	-0.007747894
86	0xba61fb1b	-0.00086204865
87	0x3f5f66c8	0.87266207
88	0xbada2226	-0.0016642257
89	0xb9c17d9a	-0.0003690541
90	0xba9bbe6c	-0.0011882312
91	0xbb2c4d94	-0.0026291357
92	0x3f9885f3	1.1915878
93	0x3f2571a9	0.64626557
94	0x3992d535	0.00028006142
95	0x3ac1cb0e	0.0014785246
96	0x3c9a6401	0.018846514
97	0x3f9d1482	1.2271883
98	0x3bb7e5bd	0.0056121037
99	0x3a96d147	0.0011506461
100	0x39c1bfbe	0.00036954688
101	0x3b8a1359	0.004213732
102	0xba20d2ff	-0.00061349565
103	0xb9d4d127	-0.00040591622
104	0xb9c882c3	-0.00038244398
105	0xb96092c6	-0.00021416982
106	0x3c429d3a	0.011878306
107	0xbbb5bab4	-0.0055459384
108	0xbb36ba4e	-0.0027882042
109	0x3a3b3e05	0.00071427255
110	0x3c70129d	0.014652875
111	0xbad7d9f7	-0.0016468157
112	0x3b877692	0.0041340077
113	0x3938bc50	0.0001761776
114	0x3a34f889	0.00069034897
115	0xbbddd914	-0.0067702625
116	0x3ad7dd11	0.0016469081
117	0x399f98ed	0.00030440782
118	0xbb93ecd3	-0.0045143156
119	0xba32d9b9	-0.00068226043
120	0x3f985f35	1.1904055
121	0xbaec3c92	-0.0018023422
122	0x3b005c5d	0.0019586303
123	0xba1e25a2	-0.00060328294
124	0x3b4fc274	0.0031701596
125	0x3f60a556	0.8775228
126	0x3f5f9bbc	0.87347007
127	0x3f68024a	0.9062849
128	0x3b3cbdab	0.0028799574
129	0x3f574561	0.8409024
130	0x3c0b6576	0.008508077
131	0x389890a7	7.2748684e-05
132	0x3eea7aa0	0.4579668
133	0xbadd42ea	-0.0016880904
134	0x3a01b624	0.00049481005
135	0x3a2c65bc	0.0006576439
136	0xbaa7b4a6	-0.0012794926
137	0xba636753	-0.00086747593
138	0xba6a353a	-0.0008934323
139	0x3891b0dd	6.947082e-05
140	0x3f1c3715	0.6102155
141	0xbb0f8732	-0.002190065
142	0x3f523208	0.8210759
143	0x3f20c081	0.6279374
144	0x3bbc272d	0.005741975
145	0xbb909599	-0.0044123647
146	0x3f26e3de	0.6519145
147	0xb98c0c3b	-0.00026711993
148	0x3b91f0ed	0.0044537694
149	0xbbe8aafb	-0.0071004606
150	0xba4971b4	-0.00076844846
151	0xb88c5f2f	-6.6934495e-05
152	0x3f653203	0.89529437
153	0xb9f73db8	-0.00047157495
154	0xbb26ecf7	-0.0025470832
155	0x3a920b84	0.0011142348
156	0xb968366c	-0.00022145518
157	0x3a5cd3c8	0.0008423892
158	0xba66db70	-0.00088065024
159	0x3a0d4273	0.0005388625
160	0xbadbdbe0	-0.0016773902
161	0xbac12231	-0.0014734921
162	0x3babe103	0.0052453293
163	0xbc31387f	-0.010816692
164	0x3b0d0ddd	0.0021523156
165	0xbb800b26	-0.003907579
166	0x3b966fb6	0.0045909537
167	0x3b3ffd93	0.002929543
168	0x3a9d1dde	0.001198705
169	0xbb53d91d	-0.0032325455
170	0x393cbd93	0.00017999699
171	0x3b339d78	0.002740709
172	0xbac449e9	-0.001497564
173	0xbb7aa3f3	-0.0038244694
174	0xba83d250	-0.0010057185
175	0xb9204f99	-0.00015288442
176	0xbb1ee959	-0.0024247973
177	0x3f7cabfe	0.9869994
178	0x3f428da5	0.7599738
179	0x3a407db2	0.0007342949
180	0x3bd9df58	0.006648939
181	0x3f11032a	0.5664545
182	0xbb5fa445	-0.0034125012
183	0xbb203f8a	-0.0024451935
184	0xbb3809da	-0.0028082044
185	0x3f84b972	1.0369093
186	0xbb32ded1	-0.0027293453
187	0x3f3ede35	0.7455781
188	0x3b9038d7	0.004401307
189	0x3d3002a4	0.04297127
190	0xbb1853fc	-0.0023243418
191	0xb9f39acd	-0.00046463907
192	0x3f055e54	0.5209706
193	0x3ad33806	0.0016114719
194	0xbbdc5558	-0.006724041
195	0x3b35bd3d	0.0027731203
196	0xba063f61	-0.00051211385
197	0xbaa6effc	-0.0012736316
198	0x3f52bf66	0.823233
199	0x3b9074c8	0.0044084527
200	0xbb3c88c1	-0.0028768035
201	0x3b3c30fe	0.0028715725
202	0x3f74d3ba	0.9563557
203	0x3f689812	0.9085704
204	0xbb9d929e	-0.004808738
205	0x3bbbab5b	0.0057272143
206	0x3c24ba44	0.010054175
207	0x3befcedc	0.0073183607
208	0x3f4b9529	0.79524475
209	0xbb4be65c	-0.0031112647
210	0x3b2e0704	0.0026554475
211	0x3b82af59	0.003988188
212	0xbae11f15	-0.0017175401
213	0x3b1451b0	0.0022631697
214	0x3f870758	1.0549116
215	0x3b1cff31	0.0023955817
216	0xbc16beeb	-0.009200792
217	0xbb61e84a	-0.003447073
218	0x3b51d1a3	0.0032015822
219	0xba9389c4	-0.0011256267
220	0xbb458f47	-0.0030145214
221	0xbb20adf8	-0.0024517756
222	0x3bde8ae5	0.00679146
223	0x3a3d7a93	0.0007228043
224	0xbb64baf3	-0.003490147
225	0xbaa86ae5	-0.001284924
226	0x3f17f581	0.59358984
227	0x37853335	1.587868e-05
228	0xbab7cf38	-0.0014023548
229	0x381726ec	3.6037454e-05
230	0xbbaf2b27	-0.0053457203
231	0xb9ddbc78	-0.00042292825
232	0xbab1625a	-0.0013533339
233	0x3b94a9e1	0.0045368527
234	0xbc2a5ae0	-0.010397643
235	0xbb3b5dce	-0.0028589847
236	0x3f87490e	1.056917
237	0x3a154d53	0.0005695421
238	0xba374d9a	-0.00069924595
239	0xbb33bc09	-0.002742531
240	0xbc0a23d6	-0.0084313955
241	0x3a66b636	0.0008800955
242	0xba81bbf2	-0.0009897931
243	0xbaf502dc	-0.0018692869
244	0xbb782ee6	-0.003786975
245	0x3a867f2a	0.0010261287
246	0xba435373	-0.00074510946
247	0x3f8ac4fe	1.0841367
248	0xbb8fa1e2	-0.0043833116
249	0xbae40613	-0.001739683
250	0x3b2bc25b	0.0026208374
251	0x3e46a932	0.1940048
252	0x39d85a83	0.00041266167
253	0x3a7fe073	0.00097609236
254	0x3b99773e	0.004683404
255	0xb89f51fb	-7.596981e-05

z_logvar f4 [512]
0	0xc09c924c	-4.8928585
1	0xc09d2894	-4.9112034
2	0xc0a68b5c	-5.2045116
3	0xc07a73dc	-3.9133215
4	0xc083de4e	-4.120887
5	0xc0818e56	-4.048625
6	0xc0a7c95b	-5.2433295
7	0xc085cdcc	-4.1813717
8	0xc082d6a9	-4.0887036
9	0xc08a00ef	-4.312614
10	0xc0bbf6e2	-5.873887
11	0xc0b91f20	-5.7850494
12	0xc0a36dd4	-5.1071568
13	0xc09c6203	-4.8869643
14	0xc0b351cf	-5.6037364
15	0xc09b7600	-4.8581543
16	0xc0a72a1e	-5.2238913
17	0xc09f6c23	-4.9819503
18	0xc096d3bf	-4.713348
19	0xc0a78af1	-5.2357106
20	0xc0b1d043	-5.5566726
21	0xc0855cf9	-4.167599
22	0xc085b469	-4.1782727
23	0xc0aa4148	-5.320469
24	0xc09a99ab	-4.8312583
25	0xc099a6b5	-4.8016
26	0xc09d8451	-4.922402
27	0xc0bc1343	-5.8773513
28	0xc0852241	-4.1604314
29	0xc09ce38a	-4.902776
30	0xc0b3a113	-5.6134124
31	0xc0a1ec5d	-5.060103
32	0xc0aeb80e	-5.4599676
33	0xc0865234	-4.1975346
34	0xc0855d0d	-4.1676087
35	0xc053f6e1	-3.3119433
36	0xc0918bbe	-4.5483084
37	0xc0a16713	-5.0438323
38	0xc094706c	-4.6387234
39	0xc0b6df23	-5.7147384
40	0xc0987800	-4.7646484
41	0xc0b1cb59	-5.5560727
42	0xc09318af	-4.596763
43	0xc0804b56	-4.0091963
44	0xc0b4ccbe	-5.649993
45	0xc0975e5c	-4.7302685
46	0xc0a3304a	-5.0996447
47	0xc09d4126	-4.9142027
48	0xc08ff3d4	-4.498514
49	0xc089e0d0	-4.308693
50	0xc09739d3	-4.7258086
51	0xc0a8357c	-5.256529
52	0xc0ce2ee8	-6.443226
53	0xc08c6a3c	-4.387968
54	0xc046be9b	-3.1053836
55	0xc053709c	-3.3037481
56	0xc0741af9	-3.8141463
57	0xc0aa36d5	-5.3191934
58	0xc09317d8	-4.5966606
59	0xc09fc02a	-4.9922075
60	0xc0a85f21	-5.2616124
61	0xc0847ef7	-4.1404986
62	0xc0a83c95	-5.2573953
63	0xc09e7c43	-4.9526687
64	0xc06dfdf5	-3.7186253
65	0xc0934f7b	-4.603452
66	0xc09eec3c	-4.966337
67	0xc0a8f91f	-5.2804103
68	0xc089666f	-4.293754
69	0xc0ba066c	-5.813284
70	0xc08b18fa	-4.346799
71	0xc09fde94	-4.99592
72	0xc0b215a5	-5.565142
73	0xc0694013	-3.6445358
74	0xc0b585a9	-5.672566
75	0xc0d0f040	-6.5293274
76	0xc0a210b6	-5.06454
77	0xc05453a7	-3.3176057
78	0xc073f7b1	-3.811993
79	0xc08be499	-4.371655
80	0xc0c0afce	-6.0214605
81	0xc0a6e7b8	-5.215786
82	0xc0c2884a	-6.079137
83	0xc0864312	-4.1956873
84	0xc0b73109	-5.7247357
85	0xc0ab180c	-5.3466854
86	0xc0977afc	-4.7337627
87	0xc081a108	-4.050907
88	0xc05d6ee7	-3.459894
89	0xc092f17b	-4.5919776
90	0xc09412ea	-4.627309
91	0xc08c0829	-4.375996
92	0xc096e51a	-4.7154665
93	0xc06912f2	-3.6417813
94	0xc0aede19	-5.4646115
95	0xc0a21cce	-5.066016
96	0xc05df55d	-3.4681008
97	0xc09747ef	-4.727531
98	0xc09c0c03	-4.8764663
99	0xc0ce7ac4	-6.452486
100	0xc08a68d4	-4.3252964
101	0xc09c9f60	-4.894455
102	0xc0959756	-4.6747236
103	0xc0b904eb	-5.7818503
104	0xc0ad8ba1	-5.4232945
105	0xc09d7757	-4.920818
106	0xc062da82	-3.5445867
107	0xc0802add	-4.0052323
108	0xc0a8251c	-5.25453
109	0xc09ede93	-4.9646697
110	0xc0550c05	-3.3288586
111	0xc0a6e154	-5.215006
112	0xc0ab25fd	-5.3483872
113	0xc0a092e3	-5.0179305
114	0xc0a0241f	-5.0044093
115	0xc0a4818c	-5.140814
116	0xc0b0bcdb	-5.5230536
117	0xc0a2f365	-5.0922112
118	0xc09e6eb5	-4.951014
119	0xc0bbf410	-5.873543
120	0xc08f12f9	-4.471066
121	0xc0abaa69	-5.364552
122	0xc0b053c9	-5.5102277
123	0xc096bd46	-4.7106047
124	0xc085bdfd	-4.179442
125	0xc083fea6	-4.124835
126	0xc0814f91	-4.0409627
127	0xc093cfd0	-4.6191177
128	0xc096c4ce	-4.711524
129	0xc07f7ed9	-3.9921172
130	0xc088230c	-4.254278
131	0xc0a8a72c	-5.2704067
132	0xc05c0f2b	-3.4384258
133	0xc0947f42	-4.6405344
134	0xc09ae309	-4.8402143
135	0xc09c5b05	-4.886111
136	0xc09a6d4b	-4.8258414
137	0xc09dcf05	-4.931521
138	0xc0b6e8a1	-5.715897
139	0xc09d3b13	-4.913461
140	0xc04d24a3	-3.2053611
141	0xc093de40	-4.62088
142	0xc0641757	-3.5639246
143	0xc04e7000	-3.225586
144	0xc09a1d61	-4.8160863
145	0xc0a8bc2c	-5.27297
146	0xc05dfa56	-3.4684043
147	0xc0b065dd	-5.5124345
148	0xc09289eb	-4.5793357
149	0xc08ec8e2	-4.462022
150	0xc0c6b724	-6.209856
151	0xc07da80c	-3.9633818
152	0xc074a0fb	-3.8223255
153	0xc0becca5	-5.962481
154	0xc0908ef6	-4.5174513
155	0xc0ad658a	-5.418645
156	0xc0cb8b66	-6.3607664
157	0xc09dec63	-4.935106
158	0xc0bef64a	-5.9675646
159	0xc0c4c6f0	-6.1492844
160	0xc0aaf589	-5.3424726
161	0xc0aac425	-5.3364434
162	0xc0776d76	-3.866056
163	0xc08d2b96	-4.4115705
164	0xc09d1d4e	-4.909827
165	0xc097d270	-4.744438
166	0xc08be6be	-4.371917
167	0xc0989ed6	-4.769389
168	0xc0c3ae56	-6.1150312
169	0xc08668a3	-4.200273
170	0xc0aa057b	-5.313169
171	0xc09fd688	-4.994938
172	0xc09d6611	-4.9187093
173	0xc0afcfd2	-5.4941187
174	0xc0d6fd47	-6.7184176
175	0xc0bfb12b	-5.990377
176	0xc0a0e111	-5.027474
177	0xc086b96d	-4.210135
178	0xc0633852	-3.5503125
179	0xc0c0f129	-6.0294385
180	0xc090779b	-4.5146003
181	0xc0586354	-3.3810625
182	0xc0a5ba40	-5.1789856
183	0xc08e2308	-4.4417763
184	0xc0979bfc	-4.737791
185	0xc075b6ca	-3.8392816
186	0xc09fefc6	-4.998019
187	0xc0657350	-3.585163
188	0xc0a66af5	-5.2005563
189	0xc04cfba6	-3.2028594
190	0xc0acbe11	-5.3982015
191	0xc0b44c56	-5.6343184
192	0xc07152c5	-3.7706769
193	0xc09f71b0	-4.982628
194	0xc0965c02	-4.6987314
195	0xc095fe10	-4.6872635
196	0xc0a17378	-5.0453453
197	0xc09d3e78	-4.9138756
198	0xc072d6be	-3.7943568
199	0xc079b0cb	-3.9014156
200	0xc08689b3	-4.204309
201	0xc09d2645	-4.9109216
202	0xc08a84eb	-4.3287253
203	0xc07a3fa8	-3.9101353
204	0xc09cd8e1	-4.9014745
205	0xc0a76102	-5.230592
206	0xc086c122	-4.211076
207	0xc0861621	-4.1902013
208	0xc07559d0	-3.8336067
209	0xc09c33c2	-4.881318
210	0xc09615c0	-4.690155
211	0xc0aa4b87	-5.3217196
212	0xc0bc5d10	-5.88636
213	0xc0b7cfa8	-5.7440987
214	0xc07339a7	-3.8003938
215	0xc097eb21	-4.7474523
216	0xc0870826	-4.2197447
217	0xc09a55ed	-4.822989
218	0xc0c81175	-6.252131
219	0xc0b89067	-5.7676272
220	0xc09720d1	-4.722756
221	0xc09a809f	-4.828201
222	0xc075c549	-3.8401663
223	0xc0a0406b	-5.0078635
224	0xc0933367	-4.6000247
225	0xc0a11d59	-5.0348325
226	0xc08c7e9a	-4.3904543
227	0xc08c9968	-4.3937263
228	0xc0c1f07d	-6.0606065
229	0xc0b7f91d	-5.7491593
230	0xc091b255	-4.553019
231	0xc0adf03f	-5.435577
232	0xc0adda50	-5.4328995
233	0xc0c22e30	-6.068138
234	0xc085d20b	-4.18189
235	0xc09c95b5	-4.893275
236	0xc08771f8	-4.232662
237	0xc093880c	-4.6103573
238	0xc0bd8c08	-5.9233437
239	0xc0a85513	-5.260385
240	0xc08a740c	-4.326666
241	0xc0b3bd02	-5.6168222
242	0xc0a99895	-5.2998757
243	0xc0b5dd0f	-5.6832347
244	0xc09c32ef	-4.8812175
245	0xc09ddaca	-4.9329576
246	0xc099c7ed	-4.805655
247	0xc08e4a6c	-4.4465847
248	0xc0914435	-4.539576
249	0xc0b698da	-5.7061586
250	0xc0c419db	-6.128156
251	0xc045db4a	-3.0915093
252	0xc09a105e	-4.814498
253	0xc09763c5	-4.730929
254	0xc0aa7d8e	-5.3278265
255	0xc0c8afc0	-6.271454

weight_mu f4 [128, 512]
0	0xbb57f92c	-0.0032954914
1	0xbabb391f	-0.0014283991
2	0x39e66f98	0.00043952162
3	0xbcaf7ac0	-0.021420836
4	0xbd0d60d6	-0.034516178
5	0xbb705be5	-0.0036675867
6	0x3b1ddc9e	0.0024087797
7	0xbd1b996b	-0.037988108
8	0xbbcd8b4d	-0.0062727095
9	0xbd23b9bb	-0.03997205
10	0x3af13fa3	0.0018405806
11	0xbac45ae8	-0.0014980705
12	0xba36168f	-0.00069461105
13	0xba5d3ea9	-0.0008439818
14	0x3bd8b3a4	0.0066132117
15	0xba667216	-0.0008790804
16	0x3c156076	0.009117236
17	0xbacfb028	-0.0015845345
18	0x3bf430f7	0.007452126
19	0xb9eafefd	-0.0004482194
20	0xbbd282cb	-0.006424283
21	0x3b9569aa	0.0045597153
22	0xbb636983	-0.003470034
23	0xb7c0056a	-2.2890705e-05
24	0x3b33f7c4	0.0027460912
25	0xbd09ed5b	-0.033673625
26	0xbb8c8381	-0.0042881374
27	0x3b0eb248	0.0021773744
28	0x3b70695a	0.0036683888
29	0xbb716cfd	-0.0036838644
30	0xbb360a0b	-0.0027776982
31	0xbaad8c2d	-0.0013240628
32	0xba38d779	-0.0007051151
33	0xbbb945ce	-0.0056540733
34	0xbcecb1f2	-0.028893445
35	0xbc7980fa	-0.015228504
36	0x3900689b	0.00012246
37	0xbb7fe0a3	-0.0039043806
38	0xbd426ec4	-0.047468916
39	0xba821820	-0.0009925403
40	0xbd15d1e5	-0.036577124
41	0x3be0a75e	0.006855889
42	0xbb3a93e7	-0.0028469504
43	0xb936af0d	-0.00017422084
44	0x3b3572bc	0.0027686795
45	0xbb28bebc	-0.0025748452
46	0x3b73b64d	0.0037187517
47	0x3b8b5e03	0.0042531504
48	0xbd02dc45	-0.031948347
49	0x3c012789	0.007882961
50	0x3b395f12	0.0028285426
51	0xbbd5c268	-0.006523419
52	0x3ae5d850	0.001753578
53	0xbb835c42	-0.0040088007
54	0x3bc49947	0.0059997174
55	0x395df751	0.00021168335
56	0xbd0b48b4	-0.034004882
57	0xbb2ba485	-0.002619059
58	0xbb7d6ce9	-0.0038669652
59	0x3b007e60	0.0019606575
60	0x3ab1df6f	0.0013570617
61	0xbd14456c	-0.03619902
62	0xbb101163	-0.002198302
63	0xbb082bbf	-0.0020778028
64	0xbd44ed43	-0.048077833
65	0xba2d900b	-0.00066208903
66	0x3b349eaf	0.0027560403
67	0x3bcd0cf9	0.00625765
68	0xbd2b9b82	-0.04189635
69	0xbb5c59f8	-0.0033622961
70	0xbd65051f	-0.055913087
71	0x3b971881	0.0046110754
72	0x3b86dbd1	0.0041155596
73	0xbcc6c450	-0.024263531
74	0xbb1f6c1d	-0.0024325915
75	0xbab95ff8	-0.0014142981
76	0x3b5d85d7	0.0033801699
77	0xbc91973d	-0.017772311
78	0xbd03bd28	-0.032162815
79	0xbd01457c	-0.031560406
80	0xbb019ed3	-0.0019778505
81	0x3a8366ff	0.0010025202
82	0x3b8526f3	0.004063481
83	0xbbfffe39	-0.007812288
84	0x3bf62f35	0.0075129517
85	0xbac6fa0d	-0.0015180722
86	0x3a488676	0.0007649431
87	0xbd026635	-0.031835753
88	0xbad1ce3f	-0.0016006901
89	0x3ae7829e	0.0017662828
90	0xbae25ab0	-0.0017269459
91	0x3b97f6a5	0.0046375566
92	0xbd40c57c	-0.047063336
93	0xbcd21519	-0.025644826
94	0xbbd6763f	-0.0065448578
95	0x3b05ddc3	0.002042637
96	0x3aec9b4a	0.0018051651
97	0xbd19a011	-0.037506167
98	0x3b0f0357	0.002182206
99	0x3aad0e01	0.0013203026
100	0xbab3421c	-0.0013676318
101	0xbb246837	-0.002508653
102	0x3b2a7498	0.0026009437
103	0xbb4def05	-0.0031422984
104	0x3aa27be3	0.001239654
105	0x3b908fdb	0.00441168
106	0xbc2ab039	-0.010417991
107	0x3b7bab1a	0.0038401545
108	0xbb1c1edc	-0.0023822105
109	0x3bd2ca9c	0.0064328443
110	0xbb9336e9	-0.00449263
111	0xbb0b683f	-0.0021271852
112	0xbbd1a795	-0.006398151
113	0x3bd4ec2c	0.0064978804
114	0xbb1dfeb8	-0.0024108123
115	0x3b39938a	0.00283167
116	0x3b1b5a04	0.0023704777
117	0x3ae03400	0.0017105341
118	0xbc529f6f	-0.012855395
119	0xba7dbde9	-0.0009679483
120	0xbd286e29	-0.041120682
121	0xbb8daaa1	-0.004323319
122	0xba16f3f2	-0.00057583966
123	0x3b181012	0.0023202938
124	0x3b649c38	0.0034883153
125	0xbcf40d2c	-0.029791437
126	0xbcf28ec3	-0.02960909
127	0xbd04e95a	-0.032449104
128	0xbc01245e	-0.007882206
129	0xbcf4ffad	-0.029907072
130	0x3a459487	0.0007537086
131	0xbb90b0e6	-0.004415619
132	0xbc80310d	-0.01564839
133	0xbac67c4f	-0.0015143248
134	0xba808431	-0.0009805021
135	0x3b8e8b2d	0.004350087
136	0x3b2429e1	0.0025049376
137	0x3c0aa667	0.008462525
138	0xba21b11c	-0.0006168054
139	0x3a94a050	0.0011339281
140	0xbca8b814	-0.020595588
141	0x3ba48196	0.0050203307
142	0xbcac8135	-0.021057704
143	0xbca274b7	-0.019831045
144	0xbb3ecbb5	-0.0029113118
145	0x3b97e558	0.004635494
146	0xbce968b3	-0.028492307
147	0xbbc63309	-0.0060485643
148	0x3acf6d46	0.0015825413
149	0x3b63c8e7	0.0034757198
150	0x39c54680	0.00037627295
151	0xbc03648f	-0.0080195805
152	0xbce53020	-0.02797705
153	0xbb35ad74	-0.0027721794
154	0xbbb16ffd	-0.0054149614
155	0xba53391a	-0.000805752
156	0xbad9317a	-0.0016570531
157	0x3aef4c7c	0.0018257047
158	0xbb708105	-0.0036697995
159	0x3a476c9c	0.00076074316
160	0x3a7252a0	0.00092438795
161	0x3b89bb67	0.0042032483
162	0xbba0bbfc	-0.004905222
163	0xbb8889ec	-0.004166832
164	0x3b05d0fc	0.0020418754
165	0x3a984ed8	0.0011620177
166	0xbc09d43a	-0.008412415
167	0xbaa25525	-0.0012384994
168	0xbabb7c8a	-0.0014304083
169	0x3b09234b	0.0020925577
170	0xbb98546f	-0.004648737
171	0x3b5310e5	0.0032206115
172	0xbb8f4380	-0.0043720603
173	0x3b5c2926	0.0033593862
174	0x3b60a7c8	0.0034279693
175	0x3ba1a35c	0.004932804
176	0xbad13b47	-0.0015963101
177	0xbd19ca0d	-0.037546206
178	0xbcc33e47	-0.023833407
179	0x3c00c0d6	0.007858476
180	0x3bd33a53	0.006446162
181	0xbcb8180b	-0.022472402
182	0x3a6e7617	0.0009096576
183	0xba87d65c	-0.0010363567
184	0x3b9b97d1	0.0047483225
185	0xbd17f9eb	-0.037103575
186	0xbc345db4	-0.011008669
187	0xbcc28918	-0.023747012
188	0xba22d690	-0.0006211782
189	0xbb62d8b8	-0.0034614038
190	0xbac2827e	-0.0014839915
191	0xbaee2d90	-0.0018171538
192	0xbc9b3a3f	-0.018948672
193	0x392bd5eb	0.00016387521
194	0xbb84a63d	-0.0040481375
195	0xba035fb3	-0.0005011514
196	0x3a10e020	0.0005526561
197	0x3ac1ff28	0.0014800774
198	0xbcff32cf	-0.031152157
199	0x3b65ef57	0.0035085285
200	0xbb21e07a	-0.002470045
201	0xbb9c5f95	-0.0047721365
202	0xbcd33586	-0.025782358
203	0xbcf6df09	-0.030135648
204	0x3b3b9698	0.0028623696
205	0x3a32f7b2	0.00068270706
206	0x3ba3e1bb	0.0050012744
207	0x3bdf490e	0.0068141287
208	0xbc9d198f	-0.019177226
209	0x3a782778	0.00094663305
210	0xbbac3e6a	-0.005256464
211	0x39be1332	0.00036253926
212	0x3b416ea7	0.0029515417
213	0x3ad49c92	0.0016220978
214	0xbd31cfe6	-0.043411158
215	0xbc24637c	-0.010033485
216	0x3b11f87b	0.002227335
217	0x3b672145	0.0035267633
218	0x3c1f7bbf	0.009734093
219	0xbabda455	-0.001446853
220	0x3c557130	0.013027474
221	0xbc18cfbb	-0.009326871
222	0xbab3fd3f	-0.001373209
223	0x3b60c8bc	0.0034299335
224	0xbb54890e	-0.0032430324
225	0xbb78a598	-0.0037940498
226	0xbc8e8323	-0.017396515
227	0x3aa32630	0.0012447294
228	0xbbcfde47	-0.006343636
229	0x37b1f6ac	2.121491e-05
230	0x3ba168d7	0.004925828
231	0x3b56b0ad	0.0032759116
232	0xbb6f5a23	-0.0036522232
233	0xbba8ccf5	-0.005151386
234	0xbb07c479	-0.0020716472
235	0xbbea483c	-0.0071497243
236	0xbd25a67a	-0.040441968
237	0x3b18c7d5	0.0023312469
238	0x3b499925	0.0030761447
239	0xbb201a76	-0.0024429834
240	0xbc47e406	-0.012200361
241	0x3b3e9e82	0.0029086177
242	0x3af8b518	0.0018974869
243	0xbb555730	-0.0032553189
244	0x3b762395	0.003755783
245	0xba7b58f2	-0.0009588144
246	0x3bcd2509	0.0062605185
247	0xbceab7df	-0.02865213
248	0x3a0ecc02	0.00054472697
249	0xbb4de31a	-0.003141588
250	0x3b618c80	0.003441602
251	0xbc5f5cb0	-0.013632938
252	0xb9b66617	-0.00034789808
253	0x3c12331b	0.008923317
254	0x3a683833	0.0008858472
255	0xba8a693e	-0.0010559929

weight_logvar f4 [128, 512]
0	0xc04e0210	-3.218876
1	0xc04e0210	-3.218876
2	0xc04e0210	-3.218876
3	0xc04e0210	-3.218876
4	0xc04e0210	-3.218876
5	0xc04e0210	-3.218876
6	0xc04e0210	-3.218876
7	0xc04e0210	-3.218876
8	0xc04e0210	-3.218876
9	0xc04e0210	-3.218876
10	0xc04e0210	-3.218876
11	0xc04e0210	-3.218876
12	0xc04e0210	-3.218876
13	0xc04e0210	-3.218876
14	0xc04e0210	-3.218876
15	0xc04e0210	-3.218876
16	0xc04e0210	-3.218876
17	0xc04e0210	-3.218876
18	0xc04e0210	-3.218876
19	0xc04e0210	-3.218876
20	0xc04e0210	-3.218876
21	0xc04e0210	-3.218876
22	0xc04e0210	-3.218876
23	0xc04e0210	-3.218876
24	0xc04e0210	-3.218876
25	0xc04e0210	-3.218876
26	0xc04e0210	-3.218876
27	0xc04e0210	-3.218876
28	0xc04e0210	-3.218876
29	0xc04e0210	-3.218876
30	0xc04e0210	-3.218876
31	0xc04e0210	-3.218876
32	0xc04e0210	-3.218876
33	0xc04e0210	-3.218876
34	0xc04e0210	-3.218876
35	0xc04e0210	-3.218876
36	0xc04e0210	-3.218876
37	0xc04e0210	-3.218876
38	0xc04e0210	-3.218876
39	0xc04e0210	-3.218876
40	0xc04e0210	-3.218876
41	0xc04e0210	-3.218876
42	0xc04e0210	-3.218876
43	0xc04e0210	-3.218876
44	0xc04e0210	-3.218876
45	0xc04e0210	-3.218876
46	0xc04e0210	-3.218876
47	0xc04e0210	-3.218876
48	0xc04e0210	-3.218876
49	0xc04e0210	-3.218876
50	0xc04e0210	-3.218876
51	0xc04e0210	-3.218876
52	0xc04e0210	-3.218876
53	0xc04e0210	-3.218876
54	0xc04e0210	-3.218876
55	0xc04e0210	-3.218876
56	0xc04e0210	-3.218876
57	0xc04e0210	-3.218876
58	0xc04e0210	-3.218876
59	0xc04e0210	-3.218876
60	0xc04e0210	-3.218876
61	0xc04e0210	-3.218876
62	0xc04e0210	-3.218876
63	0xc04e0210	-3.218876
64	0xc04e0210	-3.218876
65	0xc04e0210	-3.218876
66	0xc04e0210	-3.218876
67	0xc04e0210	-3.218876
68	0xc04e0210	-3.218876
69	0xc04e0210	-3.218876
70	0xc04e0210	-3.218876
71	0xc04e0210	-3.218876
72	0xc04e0210	-3.218876
73	0xc04e0210	-3.218876
74	0xc04e0210	-3.218876
75	0xc04e0210	-3.218876
76	0xc04e0210	-3.218876
77	0xc04e0210	-3.218876
78	0xc04e0210	-3.218876
79	0xc04e0210	-3.218876
80	0xc04e0210	-3.218876
81	0xc04e0210	-3.218876
82	0xc04e0210	-3.218876
83	0xc04e0210	-3.218876
84	0xc04e0210	-3.218876
85	0xc04e0210	-3.218876
86	0xc04e0210	-3.218876
87	0xc04e0210	-3.218876
88	0xc04e0210	-3.218876
89	0xc04e0210	-3.218876
90	0xc04e0210	-3.218876
91	0xc04e0210	-3.218876
92	0xc04e0210	-3.218876
93	0xc04e0210	-3.218876
94	0xc04e0210	-3.218876
95	0xc04e0210	-3.218876
96	0xc04e0210	-3.218876
97	0xc04e0210	-3.218876
98	0xc04e0210	-3.218876
99	0xc04e0210	-3.218876
100	0xc04e0210	-3.218876
101	0xc04e0210	-3.218876
102	0xc04e0210	-3.218876
103	0xc04e0210	-3.218876
104	0xc04e0210	-3.218876
105	0xc04e0210	-3.218876
106	0xc04e0210	-3.218876
107	0xc04e0210	-3.218876
108	0xc04e0210	-3.218876
109	0xc04e0210	-3.218876
110	0xc04e0210	-3.218876
111	0xc04e0210	-3.218876
112	0xc04e0210	-3.218876
113	0xc04e0210	-3.218876
114	0xc04e0210	-3.218876
115	0xc04e0210	-3.218876
116	0xc04e0210	-3.218876
117	0xc04e0210	-3.218876
118	0xc04e0210	-3.218876
119	0xc04e0210	-3.218876
120	0xc04e0210	-3.218876
121	0xc04e0210	-3.218876
122	0xc04e0210	-3.218876
123	0xc04e0210	-3.218876
124	0xc04e0210	-3.218876
125	0xc04e0210	-3.218876
126	0xc04e0210	-3.218876
127	0xc04e0210	-3.218876
128	0xc04e0210	-3.218876
129	0xc04e0210	-3.218876
130	0xc04e0210	-3.218876
131	0xc04e0210	-3.218876
132	0xc04e0210	-3.218876
133	0xc04e0210	-3.218876
134	0xc04e0210	-3.218876
135	0xc04e0210	-3.218876
136	0xc04e0210	-3.218876
137	0xc04e0210	-3.218876
138	0xc04e0210	-3.218876
139	0xc04e0210	-3.218876
140	0xc04e0210	-3.218876
141	0xc04e0210	-3.218876
142	0xc04e0210	-3.218876
143	0xc04e0210	-3.218876
144	0xc04e0210	-3.218876
145	0xc04e0210	-3.218876
146	0xc04e0210	-3.218876
147	0xc04e0210	-3.218876
148	0xc04e0210	-3.218876
149	0xc04e0210	-3.218876
150	0xc04e0210	-3.218876
151	0xc04e0210	-3.218876
152	0xc04e0210	-3.218876
153	0xc04e0210	-3.218876
154	0xc04e0210	-3.218876
155	0xc04e0210	-3.218876
156	0xc04e0210	-3.218876
157	0xc04e0210	-3.218876
158	0xc04e0210	-3.218876
159	0xc04e0210	-3.218876
160	0xc04e0210	-3.218876
161	0xc04e0210	-3.218876
162	0xc04e0210	-3.218876
163	0xc04e0210	-3.218876
164	0xc04e0210	-3.218876
165	0xc04e0210	-3.218876
166	0xc04e0210	-3.218876
167	0xc04e0210	-3.218876
168	0xc04e0210	-3.218876
169	0xc04e0210	-3.218876
170	0xc04e0210	-3.218876
171	0xc04e0210	-3.218876
172	0xc04e0210	-3.218876
173	0xc04e0210	-3.218876
174	0xc04e0210	-3.218876
175	0xc04e0210	-3.218876
176	0xc04e0210	-3.218876
177	0xc04e0210	-3.218876
178	0xc04e0210	-3.218876
179	0xc04e0210	-3.218876
180	0xc04e0210	-3.218876
181	0xc04e0210	-3.218876
182	0xc04e0210	-3.218876
183	0xc04e0210	-3.218876
184	0xc04e0210	-3.218876
185	0xc04e0210	-3.218876
186	0xc04e0210	-3.218876
187	0xc04e0210	-3.218876
188	0xc04e0210	-3.218876
189	0xc04e0210	-3.218876
190	0xc04e0210	-3.218876
191	0xc04e0210	-3.218876
192	0xc04e0210	-3.218876
193	0xc04e0210	-3.218876
194	0xc04e0210	-3.218876
195	0xc04e0210	-3.218876
196	0xc04e0210	-3.218876
197	0xc04e0210	-3.218876
198	0xc04e0210	-3.218876
199	0xc04e0210	-3.218876
200	0xc04e0210	-3.218876
201	0xc04e0210	-3.218876
202	0xc04e0210	-3.218876
203	0xc04e0210	-3.218876
204	0xc04e0210	-3.218876
205	0xc04e0210	-3.218876
206	0xc04e0210	-3.218876
207	0xc04e0210	-3.218876
208	0xc04e0210	-3.218876
209	0xc04e0210	-3.218876
210	0xc04e0210	-3.218876
211	0xc04e0210	-3.218876
212	0xc04e0210	-3.218876
213	0xc04e0210	-3.218876
214	0xc04e0210	-3.218876
215	0xc04e0210	-3.218876
216	0xc04e0210	-3.218876
217	0xc04e0210	-3.218876
218	0xc04e0210	-3.218876
219	0xc04e0210	-3.218876
220	0xc04e0210	-3.218876
221	0xc04e0210	-3.218876
222	0xc04e0210	-3.218876
223	0xc04e0210	-3.218876
224	0xc04e0210	-3.218876
225	0xc04e0210	-3.218876
226	0xc04e0210	-3.218876
227	0xc04e0210	-3.218876
228	0xc04e0210	-3.218876
229	0xc04e0210	-3.218876
230	0xc04e0210	-3.218876
231	0xc04e0210	-3.218876
232	0xc04e0210	-3.218876
233	0xc04e0210	-3.218876
234	0xc04e0210	-3.218876
235	0xc04e0210	-3.218876
236	0xc04e0210	-3.218876
237	0xc04e0210	-3.218876
238	0xc04e0210	-3.218876
239	0xc04e0210	-3.218876
240	0xc04e0210	-3.218876
241	0xc04e0210	-3.218876
242	0xc04e0210	-3.218876
243	0xc04e0210	-3.218876
244	0xc04e0210	-3.218876
245	0xc04e0210	-3.218876
246	0xc04e0210	-3.218876
247	0xc04e0210	-3.218876
248	0xc04e0210	-3.218876
249	0xc04e0210	-3.218876
250	0xc04e0210	-3.218876
251	0xc04e0210	-3.218876
252	0xc04e0210	-3.218876
253	0xc04e0210	-3.218876
254	0xc04e0210	-3.218876
255	0xc04e0210	-3.218876

bias_mu f4 [128]
0	0xbd2cde14	-0.042203978
1	0xbd440617	-0.04785737
2	0x3e26de3d	0.16295715
3	0xbd318adf	-0.04334533
4	0xbd36eb11	-0.04465777
5	0xbd6d45fe	-0.057928078
6	0xbdbcde41	-0.09222079
7	0xbd72018b	-0.059083503
8	0xbd1e6701	-0.03867245
9	0xbdb61143	-0.08890011
10	0xbd75649a	-0.059910394
11	0xbd520181	-0.051270965
12	0xbd953d85	-0.072871245
13	0xbd7b0f53	-0.06129391
14	0xbd585868	-0.052818686
15	0xbd3063c5	-0.043063898
16	0xbd2b8668	-0.041876227
17	0xbd1a567e	-0.03768014
18	0xbdbf3dc6	-0.09337954
19	0xbd4548c1	-0.048165087
20	0xbd88f906	-0.066881225
21	0xbcb46e6b	-0.022025308
22	0xbdb9b3f5	-0.09067527
23	0xbd4778cb	-0.04869918
24	0xbd6d7f51	-0.057982747
25	0xbd8a18b6	-0.067429945
26	0xbd09eb85	-0.033671875
27	0xbdf4703c	-0.119354695
28	0xbd77f5b6	-0.060537063
29	0xbd7e66dc	-0.062109813
30	0x3e184a1a	0.14872018
31	0xbcf8889f	-0.030338584
32	0xbd39fa80	-0.04540491
33	0xbd22455d	-0.03961693
34	0xbd5e0674	-0.054205373
35	0xbdace79b	-0.08442613
36	0xbd35ed96	-0.044416033
37	0xbd47a627	-0.04874244
38	0x3e5aef99	0.21380462
39	0xbdbcf211	-0.09225858
40	0x3dce062f	0.10059773
41	0xbd4029d3	-0.046914887
42	0xbd371615	-0.044698793
43	0xbd97eef6	-0.07418625
44	0xbd95e9ea	-0.07320006
45	0xbd32dba1	-0.043666486
46	0xbd246826	-0.040138386
47	0xbd22d10e	-0.03975015
48	0xbd787810	-0.060661376
49	0xbd7ab6a6	-0.061209343
50	0xbdb60170	-0.08886993
51	0xbd199feb	-0.037506025
52	0xbdc6f9a2	-0.097155824
53	0xbd161369	-0.036639605
54	0xbdb8d7f1	-0.090255626
55	0xbd5a85e6	-0.05335035
56	0xbd3ede06	-0.046598457
57	0xbdb63420	-0.08896661
58	0x3e075187	0.13214694
59	0xbd2f4644	-0.04279162
60	0xbd15f79a	-0.036613084
61	0x3e626d6b	0.22112052
62	0xbdcd7465	-0.10031966
63	0xbd346178	-0.044038266
64	0xbd233ba6	-0.039851807
65	0xbd61bf6f	-0.055114206
66	0xbd40f6dc	-0.047110423
67	0xbd1aedda	-0.03782449
68	0xbd22a87e	-0.039711468
69	0xbd3f75ef	-0.04674333
70	0xbd918986	-0.07106309
71	0xbd6c5a98	-0.057703584
72	0xbdabb109	-0.08383376
73	0xbdc2ea2d	-0.09517322
74	0xbd134bc8	-0.035960943
75	0xbd3e9e23	-0.04653753
76	0xbde30865	-0.110855855
77	0x3ddc0902	0.107439056
78	0xbd490ed9	-0.049086425
79	0xbd8c14fc	-0.0683994
80	0xbd26dda5	-0.04073872
81	0xbd08bf91	-0.033385817
82	0xbdc44d6a	-0.09585078
83	0xbd2bb646	-0.041921876
84	0xbd2d0452	-0.04224045
85	0xbd9f2810	-0.07771313
86	0xbda0836f	-0.07837569
87	0xbd174eee	-0.036940508
88	0x3e3ec403	0.1862946
89	0xbd4fcfaf	-0.050735172
90	0xbd64032f	-0.0556671
91	0xbd6adc0c	-0.05733876
92	0x3e030b87	0.12797366
93	0xbd4ebb28	-0.050471455
94	0xbd51ca87	-0.051218536
95	0xbdae5890	-0.08512986
96	0xbd8ab0e7	-0.06772023
97	0xbd5658b0	-0.052330673
98	0xbd6b0d29	-0.057385597
99	0xbd1b277b	-0.03787945
100	0xbd2c2a06	-0.042032264
101	0xbd1643bc	-0.03668569
102	0x3e3d2db3	0.18474464
103	0xbdb2ff0a	-0.08740051
104	0xbd331909	-0.043725047
105	0xbd43c1c9	-0.04779223
106	0xbd50ca25	-0.05097403
107	0xbd32aff6	-0.04362484
108	0xbda5b63b	-0.08091398
109	0xbdd75fc5	-0.105163135
110	0x3e236134	0.15955049
111	0xbd39c24a	-0.045351304
112	0xbd4ab3e9	-0.049487982
113	0xbd23ee70	-0.040022314
114	0xbd53fcf4	-0.051754907
115	0xbd944765	-0.0724018
116	0xbd2c20c3	-0.04202343
117	0xbd825d76	-0.063654825
118	0xbdd21381	-0.10257626
119	0xbd52271f	-0.05130684
120	0xbd443565	-0.047902483
121	0xbd469ba6	-0.04848828
122	0xbd1b51c9	-0.037919793
123	0xbd9951a3	-0.07486274
124	0xbd2d0090	-0.042236865
125	0xbd822e29	-0.063564606
126	0xbd4c00e3	-0.049805533
127	0xbd863e84	-0.06554893

bias_logvar f4 [128]
0	0xc04e0210	-3.218876
1	0xc04e0210	-3.218876
2	0xc04e0210	-3.218876
3	0xc04e0210	-3.218876
4	0xc04e0210	-3.218876
5	0xc04e0210	-3.218876
6	0xc04e0210	-3.218876
7	0xc04e0210	-3.218876
8	0xc04e0210	-3.218876
9	0xc04e0210	-3.218876
10	0xc04e0210	-3.218876
11	0xc04e0210	-3.218876
12	0xc04e0210	-3.218876
13	0xc04e0210	-3.218876
14	0xc04e0210	-3.218876
15	0xc04e0210	-3.218876
16	0xc04e0210	-3.218876
17	0xc04e0210	-3.218876
18	0xc04e0210	-3.218876
19	0xc04e0210	-3.218876
20	0xc04e0210	-3.218876
21	0xc04e0210	-3.218876
22	0xc04e0210	-3.218876
23	0xc04e0210	-3.218876
24	0xc04e0210	-3.218876
25	0xc04e0210	-3.218876
26	0xc04e0210	-3.218876
27	0xc04e0210	-3.218876
28	0xc04e0210	-3.218876
29	0xc04e0210	-3.218876
30	0xc04e0210	-3.218876
31	0xc04e0210	-3.218876
32	0xc04e0210	-3.218876
33	0xc04e0210	-3.218876
34	0xc04e0210	-3.218876
35	0xc04e0210	-3.218876
36	0xc04e0210	-3.218876
37	0xc04e0210	-3.218876
38	0xc04e03a3	-3.218972
39	0xc04e0210	-3.218876
40	0xc04e0210	-3.218876
41	0xc04e0210	-3.218876
42	0xc04e0210	-3.218876
43	0xc04e0210	-3.218876
44	0xc04e0210	-3.218876
45	0xc04e0210	-3.218876
46	0xc04e0210	-3.218876
47	0xc04e0210	-3.218876
48	0xc04e0210	-3.218876
49	0xc04e0210	-3.218876
50	0xc04e0210	-3.218876
51	0xc04e0210	-3.218876
52	0xc04e0210	-3.218876
53	0xc04e0210	-3.218876
54	0xc04e0210	-3.218876
55	0xc04e0210	-3.218876
56	0xc04e0210	-3.218876
57	0xc04e0210	-3.218876
58	0xc04e0210	-3.218876
59	0xc04e0210	-3.218876
60	0xc04e0210	-3.218876
61	0xc04e0210	-3.218876
62	0xc04e0210	-3.218876
63	0xc04e0210	-3.218876
64	0xc04e0210	-3.218876
65	0xc04e0210	-3.218876
66	0xc04e0210	-3.218876
67	0xc04e0210	-3.218876
68	0xc04e0210	-3.218876
69	0xc04e0210	-3.218876
70	0xc04e0210	-3.218876
71	0xc04e0210	-3.218876
72	0xc04e0210	-3.218876
73	0xc04e0210	-3.218876
74	0xc04e0210	-3.218876
75	0xc04e0210	-3.218876
76	0xc04e0210	-3.218876
77	0xc04e0210	-3.218876
78	0xc04e0210	-3.218876
79	0xc04e0210	-3.218876
80	0xc04e0210	-3.218876
81	0xc04e0210	-3.218876
82	0xc04e0210	-3.218876
83	0xc04e0210	-3.218876
84	0xc04e0210	-3.218876
85	0xc04e0210	-3.218876
86	0xc04e0210	-3.218876
87	0xc04e0210	-3.218876
88	0xc04e0210	-3.218876
89	0xc04e0210	-3.218876
90	0xc04e0210	-3.218876
91	0xc04e0210	-3.218876
92	0xc04e0210	-3.218876
93	0xc04e0210	-3.218876
94	0xc04e0210	-3.218876
95	0xc04e0210	-3.218876
96	0xc04e0210	-3.218876
97	0xc04e0210	-3.218876
98	0xc04e0210	-3.218876
99	0xc04e0210	-3.218876
100	0xc04e0210	-3.218876
101	0xc04e0210	-3.218876
102	0xc04e161e	-3.2201
103	0xc04e0210	-3.218876
104	0xc04e0210	-3.218876
105	0xc04e0210	-3.218876
106	0xc04e0210	-3.218876
107	0xc04e0210	-3.218876
108	0xc04e0210	-3.218876
109	0xc04e0210	-3.218876
110	0xc04e0210	-3.218876
111	0xc04e0210	-3.218876
112	0xc04e0210	-3.218876
113	0xc04e0210	-3.218876
114	0xc04e0210	-3.218876
115	0xc04e0210	-3.218876
116	0xc04e0210	-3.218876
117	0xc04e0210	-3.218876
118	0xc04e0210	-3.218876
119	0xc04e0210	-3.218876
120	0xc04e0210	-3.218876
121	0xc04e0210	-3.218876
122	0xc04e0210	-3.218876
123	0xc04e0210	-3.218876
124	0xc04e0210	-3.218876
125	0xc04e0210	-3.218876
126	0xc04e0210	-3.218876
127	0xc04e0210	-3.218876

z_mu f4 [128]
0	0x3ad82a08	0.0016492018
1	0x39c98c66	0.00038442313
2	0x3e98a43e	0.29812807
3	0x3a359df5	0.00069281395
4	0xb56b381d	-8.762598e-07
5	0x3a630285	0.0008659738
6	0x3c7b2ae1	0.015330047
7	0x3a9b04be	0.0011826975
8	0x3a894c3d	0.0010474991
9	0xbb3dacc6	-0.0028942092
10	0x3671dbf6	3.6039833e-06
11	0x3b121c78	0.00222948
12	0xb9fe2dd0	-0.00048480788
13	0x3a5e47cf	0.0008479328
14	0xbaf84580	-0.0018941611
15	0x3b26728c	0.0025397865
16	0x39fb7e23	0.0004796843
17	0xbaecc743	-0.0018064756
18	0x3b077aa8	0.0020672474
19	0xb9a5f4f0	-0.00031653745
20	0xbb0b1c8c	-0.0021226732
21	0xbc03037a	-0.007996434
22	0xb8b4866b	-8.608106e-05
23	0x36ad0cbb	5.157284e-06
24	0x3b751ddc	0.003740183
25	0x3a58a17a	0.0008263808
26	0xb9c15f7b	-0.00036882967
27	0xbbeda7b6	-0.0072526587
28	0xba423e54	-0.00074098003
29	0x3b126e4d	0.0022343576
30	0x3ece22a1	0.40260795
31	0xb949e03b	-0.00019252386
32	0x3ac8172c	0.0015265695
33	0x38eec0b5	0.00011384619
34	0x3c271ae3	0.010199281
35	0xbb44b13c	-0.0030012866
36	0x39235ef6	0.00015580267
37	0x3949259d	0.00019182866
38	0x3eb8235d	0.3596448
39	0xbc1e1f2b	-0.009650986
40	0x3e7fd177	0.24982248
41	0xbaa73b90	-0.001275884
42	0xb8aea43a	-8.327556e-05
43	0xbae12e31	-0.0017179904
44	0xb968fc62	-0.00022219264
45	0x3bbbab91	0.0057272394
46	0x3c0737b6	0.008253029
47	0xbac1867e	-0.0014764813
48	0xba35da1c	-0.0006937103
49	0xbb5d793d	-0.0033794187
50	0x3ae35a38	0.0017345613
51	0x3e7e5495	0.24836953
52	0x3b9c5858	0.0047712736
53	0xbb744a6c	-0.0037275804
54	0x3ad0b297	0.0015922365
55	0xba055686	-0.00050864404
56	0xba00a9a1	-0.0004908089
57	0x3bc4189f	0.0059843804
58	0x3e685137	0.22687231
59	0xbba3bd6c	-0.004996946
60	0x3749d401	1.2029895e-05
61	0x3ecdc223	0.40187177
62	0xbaf92423	-0.0019007962
63	0x3b10519a	0.0022021295
64	0xbbecc222	-0.007225291
65	0xb8c07c66	-9.1784445e-05
66	0xb91c39f4	-0.00014898909
67	0x3547e9aa	7.4473303e-07
68	0xb969144f	-0.00022228177
69	0x38eb978d	0.00011233902
70	0x3a918be6	0.0011104315
71	0x3a05c90c	0.00051035057
72	0xb99fdc9c	-0.0003049121
73	0xbb8dd2a7	-0.00432809
74	0xbb067856	-0.0020518503
75	0x392d327d	0.00016517374
76	0x3c23a15d	0.0099872025
77	0x3e2e0ae2	0.16996339
78	0x3bb50e1d	0.005525364
79	0x3b85648b	0.0040708235
80	0x3a17eb92	0.00057952956
81	0xbafbc221	-0.0019207635
82	0x3c88e367	0.016709996
83	0x39902b28	0.00027497974
84	0x3a857ba0	0.0010183938
85	0x3b8f6f33	0.0043772697
86	0xb8cf6125	-9.888624e-05
87	0xbba4d9bb	-0.0050308383
88	0x3e839b6e	0.2570452
89	0x3a31b382	0.0006778763
90	0xba237eed	-0.000623687
91	0x3bd8ddd0	0.006618239
92	0x3e67bcc5	0.22630604
93	0xba835314	-0.0010019266
94	0x3a1322c1	0.0005612784
95	0xbab672fd	-0.0013919767
96	0x3a3b20f1	0.00071383925
97	0xbb195819	-0.0023398458
98	0xba8ee5d7	-0.0010902238
99	0xbab5db1b	-0.0013874503
100	0x3a11b8d5	0.0005558853
101	0xbb26e6cd	-0.0025467158
102	0x3eb1c2d7	0.34718964
103	0x3b7035a6	0.003665307
104	0xbaa2b1e6	-0.0012412637
105	0x3a72e565	0.000926575
106	0x3a1c04d8	0.00059516495
107	0x3baa70eb	0.005201449
108	0xbadc8483	-0.001682416
109	0xbb0081e3	-0.0019608669
110	0x3e6a86de	0.2290301
111	0x3b041126	0.0020151823
112	0xb99af49f	-0.00029555426
113	0x3b985c64	0.0046496857
114	0x390b2b69	0.00013272245
115	0x3a2de71c	0.0006633864
116	0x3af6bae3	0.0018824007
117	0xbb88dabc	-0.004176466
118	0xb814f830	-3.5517092e-05
119	0xba4ccbea	-0.0007812368
120	0xb950dbbe	-0.00019918286
121	0x3b1d1dd3	0.0023974075
122	0x3b250713	0.0025181219
123	0x3ab00ee0	0.0013432167
124	0xbac4718e	-0.0014987455
125	0xbb93bc45	-0.0045085275
126	0x3ad02cf8	0.0015882542
127	0x39f30089	0.0004634897

z_logvar f4 [128]
0	0xc11434bd	-9.262876
1	0xc0fbd556	-7.869792
2	0xc0b72724	-5.723528
3	0xc10e9752	-8.911943
4	0xc11560db	-9.336146
5	0xc0f57845	-7.6709313
6	0xc08f901b	-4.486341
7	0xc1009fe3	-8.039035
8	0xc10d94f9	-8.84887
9	0xc0a4ab5d	-5.1459184
10	0xc0bdcca9	-5.931233
11	0xc100fc04	-8.061527
12	0xc0be2307	-5.941776
13	0xc1048471	-8.282334
14	0xc10c51d7	-8.76998
15	0xc0fd6393	-7.918405
16	0xc110e929	-9.056924
17	0xc10971f8	-8.590324
18	0xc0a633cc	-5.193823
19	0xc11285d2	-9.157671
20	0xc0fca0ff	-7.894653
21	0xc1129300	-9.160889
22	0xc0d46562	-6.637376
23	0xc10d1095	-8.816548
24	0xc100ce9f	-8.050445
25	0xc0eea4ee	-7.457633
26	0xc112b60e	-9.169447
27	0xc0612d19	-3.5183775
28	0xc103c550	-8.235672
29	0xc0fba37a	-7.8637056
30	0xc0c3db94	-6.120554
31	0xc1111e5a	-9.06991
32	0xc115ddeb	-9.366679
33	0xc10c2522	-8.759066
34	0xc0a79cc8	-5.2378883
35	0xc0aa08d7	-5.313579
36	0xc10b7f89	-8.7186365
37	0xc101618e	-8.086317
38	0xc0c25de7	-6.0739627
39	0xc08d19a3	-4.4093795
40	0xc0b89867	-5.768604
41	0xc112170d	-9.130628
42	0xc10ccab3	-8.799487
43	0xc0bc2b3b	-5.880277
44	0xc0daebf8	-6.841305
45	0xc1128270	-9.156845
46	0xc11266e4	-9.15012
47	0xc10b9a8a	-8.725229
48	0xc0f0a19a	-7.5197268
49	0xc0fd074e	-7.9071417
50	0xc07ab7c7	-3.9174669
51	0xc0b5889b	-5.6729255
52	0xc0b5bd63	-5.6793685
53	0xc111d8f7	-9.11547
54	0xc09d2b06	-4.911502
55	0xc101b5e7	-8.10691
56	0xc1080b57	-8.5027685
57	0xc09881e9	-4.765858
58	0xc0c0b887	-6.0225253
59	0xc102c478	-8.172966
60	0xc1125254	-9.1451
61	0xc0b21059	-5.5644956
62	0xc0a1298a	-5.0363207
63	0xc116bdc5	-9.42133
64	0xc111ec10	-9.120132
65	0xc10b6a71	-8.713487
66	0xc0cfbcf1	-6.491814
67	0xc111e286	-9.117804
68	0xc111e727	-9.118934
69	0xc107642a	-8.461954
70	0xc0e7b3b9	-7.240689
71	0xc10077e1	-8.029267
72	0xc0abc404	-5.3676777
73	0xc06968d3	-3.647023
74	0xc116b06b	-9.418071
75	0xc0f869e9	-7.7629285
76	0xc08eef43	-4.4667068
77	0xc0b89f3a	-5.769437
78	0xc10389e6	-8.221167
79	0xc0e7f697	-7.2488513
80	0xc1115d7d	-9.085324
81	0xc117224d	-9.445874
82	0xc09edc0e	-4.964362
83	0xc112413f	-9.140929
84	0xc1153489	-9.325326
85	0xc0d18958	-6.5480156
86	0xc0dfd94c	-6.9952755
87	0xc10b836d	-8.719586
88	0xc0bc440f	-5.883308
89	0xc10b85e6	-8.72019
90	0xc105bd28	-8.358681
91	0xc0d5d7ce	-6.6825933
92	0xc0b67ce1	-5.702744
93	0xc107c185	-8.484746
94	0xc103d2ae	-8.238935
95	0xc0a29784	-5.0809956
96	0xc0ec062d	-7.375754
97	0xc1069bac	-8.413006
98	0xc1137ef1	-9.218492
99	0xc1116c41	-9.088929
100	0xc11433e7	-9.262671
101	0xc108db34	-8.553516
102	0xc0cafabe	-6.343108
103	0xc0be07ba	-5.938443
104	0xc113b031	-9.2305155
105	0xc1136aee	-9.213606
106	0xc0f538d3	-7.6631866
107	0xc0f4b32a	-7.6468706
108	0xc0caab44	-6.3334064
109	0xc099f04a	-4.810582
110	0xc0c21d1a	-6.0660524
111	0xc1119e7d	-9.101193
112	0xc11033ce	-9.012648
113	0xc1089708	-8.536873
114	0xc11400ec	-9.250225
115	0xc0f52f28	-7.6620064
116	0xc1106376	-9.024282
117	0xc0f2a2b5	-7.5823617
118	0xc081bd3e	-4.054351
119	0xc10ae18a	-8.680063
120	0xc11059f9	-9.021966
121	0xc0e071c5	-7.013888
122	0xc10bbfa4	-8.734287
123	0xc0a31b11	-5.097054
124	0xc0fb215c	-7.847822
125	0xc0e79339	-7.2367215
126	0xc10d4015	-8.828145
127	0xc0fd8a13	-7.923105

weight_mu f4 [2, 128]
0	0xbcc1ffdb	-0.023681572
1	0xbb5b3c43	-0.0033452667
2	0x3e75582c	0.23959416
3	0x3c3cd050	0.011524275
4	0xbd001dbd	-0.03127836
5	0xbd845c39	-0.064629026
6	0xbc8c5dad	-0.017134512
7	0x3b5cac6f	0.0033672114
8	0x3d2e6182	0.04257346
9	0xbd84b7b6	-0.064803526
10	0x3d00c974	0.03144212
11	0xbc880baa	-0.016607124
12	0x3d08e2ac	0.033419296
13	0x3d061fa1	0.032745007
14	0xbb0fb525	-0.002192804
15	0xbd7472f0	-0.059679925
16	0x3cbe8a42	0.023259286
17	0x3d33f59e	0.04393541
18	0x3be8f264	0.0071089733
19	0x3a402fdb	0.000733135
20	0x3d0b3a43	0.03399111
21	0xbcf88511	-0.030336889
22	0x3c376e45	0.011195724
23	0xbd51f9f7	-0.051263776
24	0xbb539f57	-0.003229102
25	0xbce18640	-0.027529836
26	0x3cacae92	0.021079335
27	0xbd18f5ba	-0.037343718
28	0xbaf5bc03	-0.0018748048
29	0xbdc683f6	-0.09693138
30	0x3e2438a3	0.1603723
31	0x3d760665	0.060064692
32	0x3c04ec29	0.008112946
33	0xbbf0db60	-0.0073503703
34	0x39ee2926	0.00045425555
35	0x3c8b02ce	0.01696911
36	0x3c8a6165	0.016892144
37	0x3d31d415	0.043415148
38	0x3e634d93	0.22197561
39	0x3d2e6f6b	0.042586725
40	0x3e4e7fd6	0.20165953
41	0xbc161f05	-0.009162669
42	0x3d226105	0.039643306
43	0x3d516295	0.051119406
44	0x3d0ff4a6	0.035145424
45	0xbc5e08dc	-0.013551917
46	0x3d322fa0	0.04350245
47	0x3d0c3370	0.034228742
48	0x3d3b6536	0.04575082
49	0xbd02932a	-0.031878628
50	0x3c4a8de8	0.012362935
51	0x3e55161e	0.20809218
52	0xbc4a4c9a	-0.012347365
53	0xbbf4c818	-0.007470142
54	0xbbb3a969	-0.0054828417
55	0x3c97f54f	0.01854959
56	0xbd094f57	-0.03352293
57	0xbc19f7a1	-0.009397418
58	0xbe3ea5e1	-0.18617965
59	0xbbfb2a4a	-0.0076649534
60	0x3c26bc75	0.010176768
61	0x3e4f9e03	0.2027512
62	0x3c253948	0.010084458
63	0x3d0dfb06	0.034663223
64	0xbcde327b	-0.02712368
65	0xbcb010c2	-0.021492366
66	0xbdaca8e2	-0.08430649
67	0x3b7056bb	0.003667279
68	0x3d0a762c	0.033804104
69	0xbcc90932	-0.024540517
70	0xbc406edf	-0.011745184
71	0xbe00d035	-0.12579425
72	0xbc0430d5	-0.008068283
73	0xbd0f72da	-0.03502164
74	0xbb9e39b0	-0.004828654
75	0xbc760b52	-0.015017347
76	0x3cf5435c	0.029939346
77	0xbe600ac9	-0.21879114
78	0xbce00b3c	-0.027349107
79	0x3b2b0388	0.0026094634
80	0x39a12b1b	0.0003074043
81	0xbbb60673	-0.005554968
82	0xbc785b1f	-0.015158444
83	0xbc74844d	-0.014924121
84	0x3c828ee5	0.015937278
85	0x3c77849d	0.015107301
86	0xbdb0f52f	-0.08640515
87	0xbc2d237d	-0.010567543
88	0x3e7a1d75	0.244253
89	0xbc415fe6	-0.011802649
90	0xbd0f154b	-0.034932416
91	0xbd8f3f44	-0.06994489
92	0xbe4bbc54	-0.1989606
93	0x3d47a13a	0.048737742
94	0xbc9cda29	-0.019146996
95	0xbcfdaa28	-0.030964926
96	0xbc2d83c9	-0.010590502
97	0xbcf7416a	-0.030182559
98	0xbcdc0391	-0.02685717
99	0xbd5ea65d	-0.054357875
100	0xbcaf66cb	-0.02141132
101	0xbc6b1674	-0.014348615
102	0xbe308aef	-0.17240499
103	0xbcc97ca3	-0.024595564
104	0xbd16bd91	-0.03680188
105	0xbc719f47	-0.014747447
106	0x3c975023	0.01847083
107	0x3d2ef395	0.042712767
108	0xbcc0b3a0	-0.023523152
109	0xbd7bcdb3	-0.061475467
110	0xbe3a0efb	-0.18169777
111	0xbc4a6ab3	-0.012354541
112	0x3d43cd36	0.047803126
113	0xbcee1431	-0.029062362
114	0xb99367bc	-0.00028115313
115	0xbb0eb30e	-0.0021774205
116	0xbc88e288	-0.016709581
117	0xbc68e676	-0.014215102
118	0x3ce4c210	0.027924567
119	0x3d0734fd	0.033009518
120	0xbc81914f	-0.015816359
121	0xb9dc6367	-0.0004203573
122	0xbcd4b21d	-0.025963837
123	0x3c46be0d	0.012130273
124	0xbc948a4f	-0.018132357
125	0x3d32b9d5	0.043634254
126	0xbd231169	-0.039811525
127	0xbc4ab642	-0.012372555
128	0x3cc0c970	0.023533553
129	0x3b7e5e83	0.0038813658
130	0xbe751346	-0.23933133
131	0xbc6d204c	-0.014473032
132	0x3d04aa8c	0.03238921
133	0x3d7ed950	0.062218964
134	0x3beb73c4	0.007185431
135	0xbbad9148	-0.00529686
136	0xbd2f39e8	-0.042779833
137	0x3d818e59	0.06325979
138	0xbd173054	-0.036911324
139	0x3c9cf770	0.019160956
140	0xbd1588d4	-0.036507443
141	0xbcfd0c7d	-0.030889744
142	0x3b15473b	0.0022778052
143	0x3d6fa6da	0.05850873
144	0xbccf0c7d	-0.02527451
145	0xbd1e2cd1	-0.03861696
146	0xbc369bf2	-0.011145579
147	0x39813be9	0.00024649434
148	0xbd0bab70	-0.034099042
149	0x3d001591	0.031270567
150	0xbc2ef010	-0.010677353
151	0x3d461354	0.048358276
152	0x3bbd32c8	0.005773876
153	0x3ceb5469	0.028726773
154	0xbca0448b	-0.019563934
155	0x3d129fa4	0.035796776
156	0x3a45eef7	0.0007550562
157	0x3dbcbbbf	0.09215497
158	0xbe26522b	-0.16242282
159	0xbd65ac06	-0.056072257
160	0xbc0c02d4	-0.008545596
161	0x3b6b80ea	0.0035934993
162	0xbbd59b01	-0.006518722
163	0xbc3dad81	-0.011577011
164	0xbc59cdd6	-0.013293704
165	0xbd1c4454	-0.0381511
166	0xbe6332e9	-0.2218739
167	0xbd3e3ca3	-0.046444546
168	0xbe4ef23f	-0.20209597
169	0x3c1e5f30	0.009666249
170	0xbd144667	-0.036199953
171	0xbd51f1cb	-0.051255982
172	0xbd0a8de1	-0.033826713
173	0x3c3e52b4	0.011616398
174	0xbd29939b	-0.041400533
175	0xbd088f8d	-0.033340026
176	0xbd569138	-0.052384585
177	0x3cf667d3	0.030078804
178	0xbc60d063	-0.013721558
179	0xbe53f1b7	-0.20697676
180	0x3c30f0c5	0.010799591
181	0x3c275248	0.0102124885
182	0x3b3487be	0.002754673
183	0xbc97a33c	-0.018510453
184	0x3cfb9800	0.030712128
185	0x3b483789	0.003055068
186	0x3e3e9ebb	0.18615238
187	0x3bfe113f	0.0077535207
188	0xbc31b7b2	-0.010847019
189	0xbe517d46	-0.20457944
190	0x3a07d295	0.00051812205
191	0xbd1b0780	-0.03784895
192	0x3cf8f5b7	0.030390603
193	0x3ca3bbf9	0.019987093
194	0x3d97675c	0.07392761
195	0xbb37b2df	-0.00280302
196	0xbd03bf6f	-0.032164987
197	0x3ca54958	0.020176575
198	0x3c2d5477	0.01057922
199	0x3dfe080a	0.12403877
200	0x3bf62eff	0.0075129266
201	0x3d1fc6f2	0.03900809
202	0x3ba2e68b	0.0049713305
203	0x3c7ff2cc	0.015621852
204	0xbcbbcb4b	-0.022924086
205	0x3e60911a	0.21930352
206	0x3cd7f348	0.026361123
207	0xbbd9deb6	-0.0066488637
208	0xbb2003d8	-0.0024416354
209	0x3b9789b6	0.0046245707
210	0x3c2efab7	0.010679892
211	0x3c495e93	0.012290615
212	0xbc688816	-0.014192602
213	0xbccd6929	-0.025074558
214	0x3dbeec3d	0.093224026
215	0x3c420f9a	0.01184454
216	0xbe7a9693	-0.24471502
217	0x3c6bfd39	0.014403635
218	0x3d0e01d9	0.03466973
219	0x3d95070b	0.07276734
220	0x3e4c062d	0.19924231
221	0xbd445b2e	-0.04793852
222	0x3ccccc64	0.024999805
223	0x3d15345f	0.036426898
224	0x3c651e76	0.013984313
225	0x3cd58882	0.026066069
226	0x3cd8088f	0.026371269
227	0x3d632260	0.055452704
228	0x3cb709d1	0.022343548
229	0x3c836176	0.016037684
230	0x3e312960	0.1730094
231	0x3cc7bc98	0.02438192
232	0x3d1ad551	0.03780109
233	0x3c83507d	0.01602959
234	0xbc594599	-0.013261222
235	0xbd58366c	-0.052786276
236	0x3c98b307	0.018640054
237	0x3d6e204f	0.05813628
238	0x3e3b17a5	0.18270738
239	0x3c3613f8	0.011113159
240	0xbd37ec57	-0.044903126
241	0x3cf9ff0a	0.03051712
242	0x3b08e182	0.0020886366
243	0x3b746f0a	0.003729763
244	0x3c619794	0.013769049
245	0x3c8efbe8	0.017454103
246	0xbca29085	-0.019844303
247	0xbd12bb1c	-0.035822973
248	0x3c7befa8	0.015376963
249	0x3b9442fb	0.0045245863
250	0x3cc9d0b7	0.024635656
251	0xbc7cdcc9	-0.015433499
252	0x3ca7cef6	0.020484429
253	0xbd27edb5	-0.04099818
254	0x3d1a50eb	0.037674826
255	0x3c6f271e	0.014596729
