metric/3_8_probe_random_seed_2024.pth (torch, 539531 bytes, 12 tensors)

z_mu f4 [512]
0	0x3f782e1b	0.9694535
1	0x39e217b7	0.00043123748
2	0x3a968853	0.001148472
3	0xbb1d7e19	-0.002403146
4	0x3b11e940	0.0022264272
5	0x3aa7b864	0.0012796042
6	0x3941a014	0.00018465548
7	0xb944f4ef	-0.00018783261
8	0xba3b3ee6	-0.00071428565
9	0x3b19376a	0.0023378977
10	0x3aa7f595	0.0012814278
11	0x3a7cb6ac	0.00096402573
12	0x3b36d92e	0.0027900445
13	0x3a883f03	0.0010394756
14	0xbb363714	-0.0027803825
15	0x384a6bcf	4.8260958e-05
16	0x398ad867	0.00026482643
17	0xba048866	-0.00050557253
18	0x3f71453c	0.9424627
19	0xbacf124a	-0.0015798297
20	0xbae141a9	-0.0017185706
21	0xbafaed6f	-0.0019144247
22	0xbac455d2	-0.001497919
23	0xb9ad643b	-0.0003307181
24	0xbb978de0	-0.004625067
25	0xbb120ce5	-0.0022285518
26	0x3f2d7332	0.677539
27	0x3837c5d0	4.3814827e-05
28	0x389d0f8f	7.4892414e-05
29	0x3a84687f	0.0010101943
30	0xbadf01a8	-0.0017014043
31	0x39a759c5	0.00031919606
32	0x3b1f5ffe	0.002431869
33	0xb903a30e	-0.00012553876
34	0xb9f897cf	-0.00047415352
35	0x3ba9766f	0.005171589
36	0xbb808c1a	-0.0039229514
37	0x3ac87068	0.0015292289
38	0x3b8021da	0.0039102854
39	0xb903e5d4	-0.00012578751
40	0xba4609d5	-0.00075545657
41	0x3e7f513c	0.24933332
42	0x3f2f468c	0.6846702
43	0xba3e336f	-0.0007255589
44	0xb9bb10fc	-0.00035680074
45	0xbb883387	-0.004156533
46	0x3d2eafee	0.04264825
47	0x3b232e1d	0.0024899312
48	0xba9a8100	-0.0011787713
49	0xba14c7e0	-0.00056755356
50	0x3b2c1348	0.002625661
51	0xbc1e292a	-0.009653369
52	0xbb769caf	-0.0037630012
53	0x3f62a041	0.8852578
54	0x3aa90e4f	0.0012897941
55	0xb9060a09	-0.00012782974
56	0x3b1966b2	0.0023407158
57	0xba9fe3a9	-0.0012198585
58	0x39277c35	0.00015972632
59	0x3f8fe07e	1.1240385
60	0x3f696105	0.91163665
61	0x3a846b21	0.0010102728
62	0x3e0c18e3	0.13681369
63	0x3b0d1adc	0.0021530902
64	0x3999c9fa	0.00029332918
65	0x3f734d75	0.95040065
66	0xbb4a0526	-0.0030825823
67	0x3aa45c70	0.0012539756
68	0x3a35938f	0.000692659
69	0x3f5733bb	0.8406331
70	0x3a45150b	0.0007518089
71	0xbb749ccf	-0.003732491
72	0x3a3cc3f1	0.00072008284
73	0xb84d55b8	-4.895564e-05
74	0x3977882c	0.00023606484
75	0x38cfbdd1	9.905885e-05
76	0xbace24b7	-0.0015727495
77	0x3b12d5f1	0.002240535
78	0x390e906d	0.00013595978
79	0x3a2cacc7	0.0006587025
80	0x395578e8	0.00020358304
81	0xba73f2bf	-0.00093058863
82	0x3b09a862	0.0021004905
83	0xbb090b8f	-0.002091143
84	0x3f9fa7d1	1.2473089
85	0xbb8e756d	-0.0043474943
86	0xbb4d0a9b	-0.003128684
87	0x3ab23a89	0.0013597767
88	0x3aaa22a6	0.0012980297
89	0x3a1127d0	0.00055372436
90	0x3f8e9978	1.1140585
91	0x3f9479ef	1.1599711
92	0x3f4ff1dc	0.81228423
93	0xbb82275b	-0.0039719767
94	0x3a1eb605	0.00060543447
95	0x3b1f46fb	0.0024303782
96	0x3ac0e138	0.0014715558
97	0xbb1f783e	-0.0024333145
98	0x3b4fdbe3	0.0031716756
99	0xb9cb3ad1	-0.00038763
100	0x3f573670	0.8406744
101	0x3b282d08	0.0025661606
102	0x3f9fbc7d	1.2479397
103	0x3f3bfa46	0.7342876
104	0x3afad7d8	0.0019137813
105	0x3fb17b87	1.3865823
106	0x3fa2b5d9	1.2711746
107	0x3a49f7e4	0.000770448
108	0x3856b778	5.1192445e-05
109	0xb9ae75a1	-0.00033275507
110	0x3b486851	0.0030579756
111	0x3a9f06ed	0.0012132801
112	0xba2aca88	-0.0006515165
113	0x3ad4516c	0.0016198582
114	0x3bf0a04d	0.007343328
115	0xb9ff7bb8	-0.00048729568
116	0x3ace8b95	0.0015758151
117	0x3b6fc845	0.0036587876
118	0x3b2800a7	0.0025635154
119	0x3c1fc0ce	0.009750558
120	0xbb14d123	-0.0022707663
121	0xbbba6b9e	-0.0056890985
122	0x3f8caff8	1.0991201
123	0xbaae4956	-0.0013297002
124	0xbb457ea0	-0.0030135289
125	0x3b091dc8	0.0020922292
126	0x3aa25294	0.0012384229
127	0x3b99a665	0.004689025
128	0x3b018881	0.00197652
129	0xba98a6fb	-0.0011646444
130	0x3b3cb970	0.0028797053
131	0x3bbd4813	0.005776414
132	0xbb018dd3	-0.0019768372
133	0x3f4f9bae	0.81096923
134	0xbac56e2d	-0.0015062742
135	0x3b1747e3	0.002308362
136	0x388d3552	6.7333356e-05
137	0xbb9f1195	-0.004854391
138	0xbb07deab	-0.0020732086
139	0xba13b63f	-0.0005634762
140	0x3995124a	0.0002843312
141	0xba875820	-0.0010325946
142	0x3f32d156	0.6985067
143	0xb99c6bcb	-0.0002983495
144	0x3ac4a938	0.0015004044
145	0x3b3febd5	0.0029284854
146	0x3b23161a	0.0024885
147	0x3acdcc74	0.001570119
148	0xba19e80c	-0.00058710645
149	0x3b0a6a44	0.0021120468
150	0xbb872ecb	-0.004125451
151	0xbaa6f879	-0.0012738846
152	0x3ac97baf	0.0015371944
153	0xbb224780	-0.0024761856
154	0x3b1fd7af	0.0024390032
155	0xba6991a8	-0.0008909949
156	0x383480e5	4.3035387e-05
157	0x3e237d4d	0.15965767
158	0xbc2a2dbd	-0.010386881
159	0x3a2dca61	0.0006629583
160	0xba33c76c	-0.0006858024
161	0xbc1967d9	-0.009363138
162	0x3a393ca0	0.0007066224
163	0x3a3c7bdc	0.00071900873
164	0x3ad7daa9	0.0016468364
165	0x3f4b2723	0.7935659
166	0x3b6604c2	0.003509805
167	0xb9f447b7	-0.00046592738
168	0x3bca25e4	0.0061690677
169	0xbc6fd2d9	-0.014637672
170	0xba857313	-0.001018139
171	0xbaa3036e	-0.0012436935
172	0x3b1e6bd2	0.0024173153
173	0x39baf0d5	0.00035656118
174	0x3b138787	0.00225112
175	0xba9b89b5	-0.0011866601
176	0x3a17d760	0.0005792286
177	0x3a85c81f	0.0010206735
178	0x3b3f1fcd	0.0029163242
179	0x3f62a719	0.8853622
180	0x3ed0912a	0.4073575
181	0x3f663601	0.89926153
182	0xbb8293b0	-0.003984891
183	0x3af7f795	0.001891839
184	0xbb82b679	-0.0039890376
185	0x3b885dd4	0.004161576
186	0x3900a599	0.00012268721
187	0x39f05160	0.00045836996
188	0xb65f16ec	-3.3242932e-06
189	0xbaaa4030	-0.00129891
190	0x3f74f240	0.95682144
191	0x3c0544db	0.008134092
192	0x3ae47121	0.0017428735
193	0x3a55cebe	0.0008156112
194	0xbaafd2e3	-0.001341429
195	0xbb841b8a	-0.004031603
196	0x3a8e2e1d	0.0010847483
197	0x3c2298dd	0.009924141
198	0x3b0fbe6d	0.002193357
199	0x3a77bec0	0.0009450726
200	0x3ab36432	0.0013686477
201	0x3af50e0d	0.0018696204
202	0xbba679ee	-0.005080453
203	0x3a5478ee	0.0008105178
204	0x3b1a9736	0.0023588664
205	0xb9a42a10	-0.00031311857
206	0x3bd8a2e2	0.006611214
207	0x3e948b33	0.2901245
208	0x3aac40a3	0.0013141822
209	0x3938b840	0.00017616246
210	0x3b06aa18	0.002054816
211	0xbac759d6	-0.0015209268
212	0xbb6b3628	-0.0035890434
213	0xb9ee08d6	-0.0004540148
214	0x3a23a2e2	0.0006242228
215	0x3af398e7	0.0018584997
216	0x3f6b8000	0.9199219
217	0xb8703204	-5.726704e-05
218	0x3f713611	0.94223124
219	0x3c42a9ef	0.011881336
220	0x3abebd67	0.0014552296
221	0xbc7378c3	-0.014860335
222	0xbb2630d1	-0.0025358687
223	0x38042467	3.1505155e-05
224	0xbbf710e8	-0.007539857
225	0x3b312fff	0.0027036665
226	0x3ad70dd0	0.0016407315
227	0x3b3400ff	0.0027466414
228	0x3b3ba840	0.002863422
229	0x3ed71e35	0.42015234
230	0x3f929226	1.1450851
231	0xbb0298f1	-0.0019927586
232	0x3a6fe8a6	0.0009151794
233	0x3a09f984	0.0005263316
234	0x3a3c3d30	0.00071807485
235	0x3f1d127e	0.6135634
236	0xb9833127	-0.00025022888
237	0xba1fd421	-0.00060969783
238	0xbab50056	-0.0013809304
239	0x3b407917	0.002936905
240	0x3a70b738	0.0009182575
241	0x3f84c5eb	1.03729
242	0x3ad22f11	0.0016035755
243	0xb62acfca	-2.5452923e-06
244	0xbaab8910	-0.0013087112
245	0x3f80e743	1.0070575
246	0x39fce1c9	0.0004823341
247	0x3acccfea	0.0015625928
248	0x3f894bed	1.0726296
249	0xbac4446f	-0.0014974008
250	0xbb4dbe06	-0.003139378
251	0x3962dc89	0.00021635195
252	0x3aaf4394	0.001337158
253	0xb940f4ba	-0.00018401715
254	0x3f87c82e	1.0607965
255	0x3ad9749f	0.0016590542

z_logvar f4 [512]
0	0xc0808dc0	-4.0173035
1	0xc0be642d	-5.9497285
2	0xc09803e2	-4.750474
3	0xc093ba47	-4.616489
4	0xc085bc56	-4.17924
5	0xc0a3a85a	-5.1143007
6	0xc08d0ba1	-4.4076695
7	0xc0a643e3	-5.195787
8	0xc0a4738a	-5.139104
9	0xc0a090d8	-5.017681
10	0xc0c41896	-6.128001
11	0xc0989390	-4.768013
12	0xc06f81ea	-3.7423043
13	0xc0abae28	-5.3650093
14	0xc0a60259	-5.1877866
15	0xc07f99b1	-3.9937556
16	0xc0b5632d	-5.6683564
17	0xc0cccc86	-6.3999662
18	0xc0847372	-4.1390924
19	0xc0842665	-4.129687
20	0xc09d2b86	-4.911563
21	0xc0aa1eaa	-5.316243
22	0xc0a7637b	-5.2308936
23	0xc0caa7f5	-6.3330026
24	0xc0a53947	-5.163242
25	0xc0620d90	-3.5320778
26	0xc068f3e7	-3.6398866
27	0xc0bf9125	-5.986468
28	0xc0a77899	-5.2334714
29	0xc0b555ab	-5.6667075
30	0xc069a877	-3.6509073
31	0xc0c0cbdd	-6.0248857
32	0xc091e329	-4.5589795
33	0xc0b5b6b5	-5.678553
34	0xc0a6d43e	-5.2134085
35	0xc0ad7bf9	-5.4213834
36	0xc08c7ba7	-4.3900943
37	0xc0b4129b	-5.627271
38	0xc096a7bf	-4.707977
39	0xc0cec08c	-6.4610043
40	0xc0bf8a65	-5.985644
41	0xc0333f3d	-2.8007348
42	0xc07bb75b	-3.9330661
43	0xc0af987f	-5.4873652
44	0xc0a65e58	-5.1990166
45	0xc0b44bf8	-5.6342735
46	0xc0407a8c	-3.0074797
47	0xc090788d	-4.5147157
48	0xc0c66172	-6.199395
49	0xc0918d03	-4.5484633
50	0xc0a128d4	-5.036234
51	0xc068945f	-3.6340559
52	0xc08064b0	-4.012291
53	0xc089031b	-4.281629
54	0xc0a6b993	-5.210153
55	0xc0a3ba2b	-5.1164756
56	0xc0c414e5	-6.1275506
57	0xc099f80b	-4.8115287
58	0xc0894848	-4.2900734
59	0xc087de96	-4.245921
60	0xc0882e80	-4.2556763
61	0xc095c199	-4.6798825
62	0xc03d673e	-2.9594264
63	0xc0ab060e	-5.344489
64	0xc0d4f30c	-6.654669
65	0xc08b7cf8	-4.359005
66	0xc09c51ac	-4.8849697
67	0xc0b2b87f	-5.5850215
68	0xc0b1869b	-5.5476813
69	0xc08018dc	-4.0030346
70	0xc08c8a01	-4.391846
71	0xc0aa2f1d	-5.318251
72	0xc0a0342b	-5.006368
73	0xc0bfd594	-5.9948215
74	0xc0b8ab7b	-5.7709327
75	0xc0bab0b2	-5.8340693
76	0xc0a1aefa	-5.0526094
77	0xc0556c5c	-3.3347387
78	0xc0a9a979	-5.3019376
79	0xc0929662	-4.5808573
80	0xc0b486dc	-5.6414623
81	0xc097697f	-4.731628
82	0xc09090a3	-4.517656
83	0xc08ef9c5	-4.4679894
84	0xc0942281	-4.629212
85	0xc0a7564a	-5.2292833
86	0xc0904d33	-4.5094237
87	0xc08b5337	-4.353908
88	0xc0b9f27a	-5.810849
89	0xc0ad66a8	-5.4187813
90	0xc08b8f58	-4.361248
91	0xc095ca03	-4.6809096
92	0xc0714fd6	-3.7704978
93	0xc07da987	-3.9634721
94	0xc08e4f8d	-4.447211
95	0xc0c8ceaa	-6.2752275
96	0xc0cec4ac	-6.461508
97	0xc08ef23b	-4.467069
98	0xc0973151	-4.72477
99	0xc0c52ff0	-6.1621017
100	0xc07b620f	-3.92786
101	0xc09f69d7	-4.98167
102	0xc096c68b	-4.711736
103	0xc07b81b6	-3.929792
104	0xc08c897c	-4.3917828
105	0xc087adf0	-4.2399826
106	0xc07f3157	-3.9873865
107	0xc0d22430	-6.5669174
108	0xc099f3fd	-4.8110337
109	0xc0b02b13	-5.505258
110	0xc0b0c8a9	-5.5244946
111	0xc09207f7	-4.5634723
112	0xc09e7035	-4.951197
113	0xc0b10e3a	-5.5329866
114	0xc0a33e6d	-5.1013703
115	0xc0c80a31	-6.251244
116	0xc0a0fda7	-5.0309634
117	0xc090b5e8	-4.5222054
118	0xc07e9190	-3.9776344
119	0xc089ab3e	-4.3021536
120	0xc09b0456	-4.8442793
121	0xc074aa41	-3.8228915
122	0xc097773e	-4.733306
123	0xc06bf296	-3.6866813
124	0xc0cf8013	-6.484384
125	0xc0a85940	-5.260895
126	0xc09ba84e	-4.864295
127	0xc0a5901a	-5.1738405
128	0xc09105b3	-4.5319457
129	0xc0ac5d41	-5.3863835
130	0xc08f66d6	-4.481303
131	0xc09cb3da	-4.8969545
132	0xc0ab1cd0	-5.347267
133	0xc0858751	-4.172768
134	0xc0a94659	-5.2898374
135	0xc0ad97cd	-5.4247804
136	0xc0a11415	-5.0337014
137	0xc081f018	-4.0605583
138	0xc0ae5199	-5.4474607
139	0xc0a8d92d	-5.2765107
140	0xc0a38224	-5.1096363
141	0xc0919b88	-4.5502357
142	0xc05b31e6	-3.4249206
143	0xc0b6039a	-5.6879396
144	0xc0b932fb	-5.787473
145	0xc0ab42ca	-5.351903
146	0xc08ff35f	-4.4984584
147	0xc0a37049	-5.1074567
148	0xc0ad83fe	-5.4223623
149	0xc0cde29a	-6.4339113
150	0xc0a8e8ed	-5.2784333
151	0xc099b0db	-4.802839
152	0xc0ca7fb2	-6.328088
153	0xc0995fdd	-4.792952
154	0xc093f1e1	-4.623276
155	0xc0c66d67	-6.200855
156	0xc09d23fd	-4.910643
157	0xc0389e24	-2.8846521
158	0xc072b817	-3.792486
159	0xc0cd4da7	-6.415729
160	0xc0a852e8	-5.2601204
161	0xc0aa1012	-5.3144617
162	0xc0bec489	-5.961491
163	0xc0a6b495	-5.2095437
164	0xc0cb4cd3	-6.353128
165	0xc07ad321	-3.9191363
166	0xc0978656	-4.7351484
167	0xc0c7b0d2	-6.2403345
168	0xc0547b00	-3.3200073
169	0xc092b56d	-4.5846467
170	0xc0c66670	-6.2000046
171	0xc0b80c4a	-5.7515
172	0xc0d30e0b	-6.595464
173	0xc0b3223e	-5.59793
174	0xc0b77307	-5.7327914
175	0xc0bc57cd	-5.885718
176	0xc0994937	-4.7901874
177	0xc0ac2412	-5.379403
178	0xc0955231	-4.666283
179	0xc087abb8	-4.2397118
180	0xc04e5e9c	-3.2245245
181	0xc07c2544	-3.9397745
182	0xc09c73f0	-4.8891525
183	0xc0b381c1	-5.609589
184	0xc0973d8a	-4.726262
185	0xc08cbf3a	-4.398343
186	0xc09668e8	-4.700306
187	0xc0a11a32	-5.0344477
188	0xc09be665	-4.8718743
189	0xc0aeb4a1	-5.4595494
190	0xc0784f48	-3.879839
191	0xc0a03e90	-5.007637
192	0xc09b03e0	-4.844223
193	0xc0b22174	-5.5665836
194	0xc0a1b032	-5.052758
195	0xc09b5e40	-4.855255
196	0xc0abbc1b	-5.366712
197	0xc07aac9e	-3.9167857
198	0xc0bc9de6	-5.8942747
199	0xc08fd29a	-4.494458
200	0xc09c4b2a	-4.8841753
201	0xc0918662	-4.547654
202	0xc07e85b1	-3.9769099
203	0xc092c2f4	-4.586298
204	0xc0a429b8	-5.1300926
205	0xc0d5b2c6	-6.678073
206	0xc08cea0f	-4.4035716
207	0xc03a97ca	-2.9155145
208	0xc0cad750	-6.3387833
209	0xc08f5bf8	-4.4799767
210	0xc0ce92c2	-6.455415
211	0xc090cbc8	-4.5248756
212	0xc0a19edc	-5.050642
213	0xc0a340c5	-5.1016564
214	0xc0c475d3	-6.139383
215	0xc0b9895a	-5.7980165
216	0xc084bd30	-4.148094
217	0xc0a4cfbd	-5.1503587
218	0xc08a5f79	-4.3241544
219	0xc0514d41	-3.2703402
220	0xc0a83568	-5.2565193
221	0xc075b79e	-3.839332
222	0xc099ed4f	-4.8102183
223	0xc0aca29d	-5.3948503
224	0xc0897294	-4.2952366
225	0xc0a286f8	-5.0789757
226	0xc0a4426d	-5.1331086
227	0xc0927fdd	-4.5781083
228	0xc08ba5e8	-4.364002
229	0xc05a202d	-3.4082139
230	0xc08e9ab5	-4.456385
231	0xc0a4699e	-5.1378927
232	0xc0c2a92f	-6.0831523
233	0xc0b21e34	-5.566187
234	0xc0c73e2a	-6.2263384
235	0xc06449bf	-3.567001
236	0xc0b15972	-5.5421686
237	0xc0c68093	-6.203195
238	0xc0b63a52	-5.694619
239	0xc099b6db	-4.803571
240	0xc0a14c99	-5.0406003
241	0xc089f13a	-4.3106966
242	0xc097b7ef	-4.741203
243	0xc0d11acc	-6.534521
244	0xc0a10bc1	-5.032685
245	0xc087b204	-4.2404804
246	0xc09ec961	-4.9620824
247	0xc0aeda55	-5.464152
248	0xc08fbb90	-4.491646
249	0xc0ca328b	-6.31867
250	0xc075e0db	-3.841849
251	0xc0c24bd4	-6.0717564
252	0xc0729b0e	-3.7907138
253	0xc0acde99	-5.4021726
254	0xc07b9294	-3.9308214
255	0xc0928cb1	-4.5796742

weight_mu f4 [128, 512]
0	0xbcbbdf0b	-0.022933504
1	0xbbb697b8	-0.0055722855
2	0xbc066be3	-0.008204433
3	0xbbbd28d4	-0.0057726894
4	0xbc0a14c0	-0.008427799
5	0xbb83ee71	-0.004026227
6	0xbb878545	-0.00413576
7	0xbb11df9e	-0.002225853
8	0xb97b8d7f	-0.00023989937
9	0xbc3e1517	-0.011601708
10	0x3af078b6	0.0018346522
11	0x3b77819f	0.003776647
12	0x3b6905bd	0.0035556399
13	0xbaee3b58	-0.0018175645
14	0xbbf1c2ed	-0.0073779733
15	0xbb98f2d6	-0.00466762
16	0xba21c835	-0.0006171496
17	0x3b6fa57f	0.003656715
18	0xbca256ca	-0.019816775
19	0x3bc4edbc	0.0060097855
20	0xbbc04c1c	-0.005868448
21	0xba060b25	-0.0005113355
22	0x3a928ead	0.0011181437
23	0x3a1c0bce	0.0005952687
24	0xbbcca560	-0.0062453
25	0xbc52035a	-0.012818182
26	0xbc680eda	-0.014163697
27	0xbb3bce59	-0.0028656928
28	0xbb55ff8b	-0.0032653536
29	0x3c0f657a	0.008752221
30	0x3a94224b	0.0011301724
31	0xbb966319	-0.00458945
32	0xbb70b553	-0.0036729171
33	0x3bca8764	0.0061806906
34	0xbadd41b5	-0.0016880544
35	0xbb8b8086	-0.0042572645
36	0x3bd3aab8	0.0064595602
37	0x3bdb3d68	0.00669067
38	0x3baaa427	0.0052075568
39	0xbb53c31f	-0.0032312346
40	0x3bc2a681	0.005940259
41	0xbb03e3cb	-0.002012479
42	0xbbfe89b5	-0.007767881
43	0xba92900c	-0.0011181845
44	0x3ae8a393	0.0017748944
45	0xbb55af63	-0.003260576
46	0x3c686d23	0.0141861765
47	0x3bda05f1	0.0066535403
48	0x3bbbc2e4	0.00573002
49	0xbc4d3509	-0.012524852
50	0x3b5b8642	0.0033496772
51	0xbb129a7b	-0.002236991
52	0xbca7953b	-0.0204569
53	0xbd43c9eb	-0.047799986
54	0xba5e17de	-0.00084721844
55	0xbb6f77e2	-0.0036539962
56	0xbbe4b789	-0.006979887
57	0x3bcd60f9	0.0062676636
58	0x3ab2b1ab	0.0013633271
59	0xbd2ae13c	-0.041718706
60	0xbcc9ea53	-0.024647867
61	0xbafc4676	-0.0019247073
62	0x3b9b7b2c	0.004744908
63	0xbbb4c3aa	-0.005516489
64	0x3be60761	0.0070199226
65	0xbb5709af	-0.0032812168
66	0x3bda3bbf	0.0066599543
67	0xb8f80be5	-0.00011827777
68	0xbb220550	-0.0024722405
69	0xbc06005a	-0.008178795
70	0xbbc70f37	-0.006074812
71	0x3ad4dc7c	0.0016240026
72	0x3b8462e4	0.004040109
73	0xbb6a0040	-0.0035705715
74	0x3ba1f799	0.004942846
75	0xbaf74c77	-0.0018867393
76	0xbbe87f90	-0.0070952848
77	0x3b064bc1	0.002049193
78	0x39a11036	0.0003072039
79	0x3b60ea8b	0.0034319486
80	0xbb99dbd3	-0.0046953945
81	0xbc0162b6	-0.00789707
82	0x3b659274	0.003502992
83	0xbb983a24	-0.004645603
84	0xbd0b9460	-0.03407705
85	0xbc13d22f	-0.00902228
86	0xbbb3684b	-0.005475079
87	0xbb0c89fe	-0.0021444554
88	0x3c059794	0.008153815
89	0xbb699bf5	-0.0035645936
90	0xbce81d65	-0.028334329
91	0xbd288fc3	-0.041152727
92	0xbc1cc1fc	-0.009567734
93	0x37cc4361	2.435007e-05
94	0xbc0fbd09	-0.008773097
95	0x3a6bd884	0.0008996802
96	0xbbe52b5c	-0.006993694
97	0x3c2cabde	0.010539023
98	0x3c1eddf9	0.009696477
99	0x3b8e1320	0.004335776
100	0xbcf57cf1	-0.029966803
101	0xbc19abdd	-0.009379354
102	0xbd229940	-0.03969693
103	0xbcbfafd2	-0.023399267
104	0x3a67ffce	0.00088500686
105	0xbcc83ae2	-0.02444214
106	0xbd0ee758	-0.034888595
107	0xbb6b6978	-0.0035921019
108	0xbc3f4c59	-0.011675918
109	0xb9254663	-0.00015761847
110	0xbb0ff0e3	-0.0021963648
111	0xbb82ec10	-0.003995426
112	0x3947fe04	0.00019072747
113	0xba030e71	-0.00049994054
114	0xbb6d0a4c	-0.0036169467
115	0x3aa637f9	0.0012681476
116	0x3c460a31	0.012087391
117	0x3c164670	0.009172067
118	0xbae3ac7f	-0.0017370133
119	0x3c308aaf	0.010775252
120	0x3c0d0318	0.008606695
121	0x3aaba9fe	0.0013096926
122	0xbcb724bd	-0.022356385
123	0x39826c59	0.00024876258
124	0x3b3bafbe	0.0028638686
125	0xbba05137	-0.004892494
126	0xbbebae84	-0.0071924347
127	0x3b2d3b43	0.0026433028
128	0x3a705321	0.00091676606
129	0xbb990744	-0.0046700556
130	0xbb4d9380	-0.0031368434
131	0x3b889a88	0.004168812
132	0x3bb1487b	0.0054102517
133	0xbccc12f8	-0.024911389
134	0x3a238816	0.0006238235
135	0xbac92bf7	-0.0015348186
136	0x3b1d4fdb	0.0024003896
137	0x3b28defa	0.002576767
138	0xbc0ae0de	-0.008476464
139	0x3b781085	0.0037851643
140	0xbbcaddb7	-0.0061909813
141	0xba03adb1	-0.00050231355
142	0xbcae8945	-0.02130569
143	0x3bebc4a3	0.007195072
144	0xbb6a5939	-0.0035758747
145	0x3ba543ce	0.0050434833
146	0xbb694006	-0.003559114
147	0xbc27aa19	-0.010233426
148	0xbbf3c0da	-0.007438761
149	0x3bb568c1	0.0055361693
150	0x3b6a11e2	0.0035716225
151	0xb9efb793	-0.00045722406
152	0xbb168cd0	-0.0022972114
153	0xbb9474c3	-0.0045305206
154	0x3b4f25af	0.0031608155
155	0xbb5e89b9	-0.00339566
156	0x3a546381	0.00081019854
157	0x3bbc4bef	0.0057463567
158	0xba9b0f47	-0.0011830115
159	0x3a743945	0.0009316395
160	0xbc57e2d9	-0.013176643
161	0x3bce0e15	0.0062883
162	0xba5ffe8d	-0.0008544706
163	0x3afdc73e	0.0019361747
164	0x3a8129f4	0.0009854422
165	0xbd014fe4	-0.03157033
166	0xbb14a405	-0.002268077
167	0xb9af6174	-0.0003345121
168	0x3ba4a733	0.0050248145
169	0x3c53d333	0.012928772
170	0xba796985	-0.000951432
171	0xba3bdc11	-0.00071662763
172	0x3b73d2d2	0.0037204516
173	0xbab22055	-0.0013589958
174	0x3b8c5cab	0.004283508
175	0x3af8e722	0.0018989781
176	0x3be4e8d1	0.0069857617
177	0x3b603e64	0.0034216875
178	0x3c1f2b53	0.009714919
179	0xbce694f1	-0.028147193
180	0xbc60c3c9	-0.013718554
181	0xbcc11e29	-0.023573952
182	0xbba88680	-0.005142987
183	0xbc0cfe10	-0.008605495
184	0x3bbf87a9	0.0058450294
185	0x3c3b0676	0.011415115
186	0x3bf7565c	0.0075481366
187	0xbc116bd4	-0.008875806
188	0x3bec1613	0.00720478
189	0x3ba15a8f	0.0049241255
190	0xbce7d7cf	-0.028301148
191	0xbb1a41e1	-0.0023537802
192	0xbacf57ed	-0.0015819051
193	0xbaa17d33	-0.0012320637
194	0x3996cf6f	0.0002876478
195	0xbc7f0203	-0.0155644445
196	0xba836c39	-0.001002676
197	0x3b0fb6b1	0.002192896
198	0x3aa1fb12	0.001235815
199	0xbad48c95	-0.0016216213
200	0xbbfa9f28	-0.0076483674
201	0xbb00ba1d	-0.0019642182
202	0xba6b9451	-0.00089866394
203	0x3b82d517	0.0039926874
204	0xbc6f2eea	-0.0145985875
205	0x3bd24eb3	0.006418073
206	0x3c10802e	0.008819623
207	0x39626ab7	0.00021592794
208	0x3af94a24	0.0019019288
209	0x39976134	0.00028873386
210	0xb9c4ceed	-0.00037538205
211	0x3bbeff71	0.005828791
212	0x387e0b06	6.0568585e-05
213	0xba82f740	-0.0009991899
214	0xbadfc3cd	-0.0017071903
215	0xb733a8e3	-1.0708553e-05
216	0xbd10f74f	-0.0353921
217	0x3b51d738	0.003201915
218	0xbc82315d	-0.015892679
219	0xbbd3256d	-0.0064436705
220	0x3b8faa51	0.004384317
221	0xbc010bfe	-0.007876394
222	0xbacd171d	-0.0015647147
223	0x3b13caef	0.0022551378
224	0x3beb2f5a	0.0071772756
225	0x3b9449c2	0.004525394
226	0x3ba7dc54	0.0051227007
227	0xbb96a0cf	-0.0045968066
228	0x3b8fb6b9	0.004385796
229	0xbb10e859	-0.0022111146
230	0xbd358131	-0.04431266
231	0xbbc38d2e	-0.0059677577
232	0xbafcb67b	-0.0019280458
233	0xbacd086d	-0.001564277
234	0x3b0afa37	0.0021206269
235	0xbccd453f	-0.025057433
236	0x3c2744dc	0.010209288
237	0x392210d4	0.00015455793
238	0x3b4369f3	0.002981779
239	0xbb814d17	-0.0039459574
240	0xbb7c1994	-0.0038467394
241	0xbd03b404	-0.0321541
242	0xb9aaf8b2	-0.0003261022
243	0x3bc5446b	0.006020119
244	0xbb234a87	-0.0024916248
245	0xbc9f33e6	-0.019433927
246	0xba5e3863	-0.000847703
247	0xba233742	-0.00062261906
248	0xbd06f7a6	-0.03295102
249	0xba799795	-0.00095211837
250	0x3b632c29	0.0034663773
251	0x3b80127d	0.003908454
252	0x3b06fedf	0.0020598692
253	0x3bf2cdaf	0.0074097733
254	0xbcd572b3	-0.02605567
255	0x3b18312b	0.0023222666

weight_logvar f4 [128, 512]
0	0xc04e0210	-3.218876
1	0xc04e0210	-3.218876
2	0xc04e0210	-3.218876
3	0xc04e0210	-3.218876
4	0xc04e0210	-3.218876
5	0xc04e0210	-3.218876
6	0xc04e0210	-3.218876
7	0xc04e0210	-3.218876
8	0xc04e0210	-3.218876
9	0xc04e0210	-3.218876
10	0xc04e0210	-3.218876
11	0xc04e0210	-3.218876
12	0xc04e0210	-3.218876
13	0xc04e0210	-3.218876
14	0xc04e0210	-3.218876
15	0xc04e0210	-3.218876
16	0xc04e0210	-3.218876
17	0xc04e0210	-3.218876
18	0xc04e0210	-3.218876
19	0xc04e0210	-3.218876
20	0xc04e0210	-3.218876
21	0xc04e0210	-3.218876
22	0xc04e0210	-3.218876
23	0xc04e0210	-3.218876
24	0xc04e0210	-3.218876
25	0xc04e0210	-3.218876
26	0xc04e0210	-3.218876
27	0xc04e0210	-3.218876
28	0xc04e0210	-3.218876
29	0xc04e0210	-3.218876
30	0xc04e0210	-3.218876
31	0xc04e0210	-3.218876
32	0xc04e0210	-3.218876
33	0xc04e0210	-3.218876
34	0xc04e0210	-3.218876
35	0xc04e0210	-3.218876
36	0xc04e0210	-3.218876
37	0xc04e0210	-3.218876
38	0xc04e0210	-3.218876
39	0xc04e0210	-3.218876
40	0xc04e0210	-3.218876
41	0xc04e0210	-3.218876
42	0xc04e0210	-3.218876
43	0xc04e0210	-3.218876
44	0xc04e0210	-3.218876
45	0xc04e0210	-3.218876
46	0xc04e0210	-3.218876
47	0xc04e0210	-3.218876
48	0xc04e0210	-3.218876
49	0xc04e0210	-3.218876
50	0xc04e0210	-3.218876
51	0xc04e0210	-3.218876
52	0xc04e0210	-3.218876
53	0xc04e0210	-3.218876
54	0xc04e0210	-3.218876
55	0xc04e0210	-3.218876
56	0xc04e0210	-3.218876
57	0xc04e0210	-3.218876
58	0xc04e0210	-3.218876
59	0xc04e0210	-3.218876
60	0xc04e0210	-3.218876
61	0xc04e0210	-3.218876
62	0xc04e0210	-3.218876
63	0xc04e0210	-3.218876
64	0xc04e0210	-3.218876
65	0xc04e0210	-3.218876
66	0xc04e0210	-3.218876
67	0xc04e0210	-3.218876
68	0xc04e0210	-3.218876
69	0xc04e0210	-3.218876
70	0xc04e0210	-3.218876
71	0xc04e0210	-3.218876
72	0xc04e0210	-3.218876
73	0xc04e0210	-3.218876
74	0xc04e0210	-3.218876
75	0xc04e0210	-3.218876
76	0xc04e0210	-3.218876
77	0xc04e0210	-3.218876
78	0xc04e0210	-3.218876
79	0xc04e0210	-3.218876
80	0xc04e0210	-3.218876
81	0xc04e0210	-3.218876
82	0xc04e0210	-3.218876
83	0xc04e0210	-3.218876
84	0xc04e0210	-3.218876
85	0xc04e0210	-3.218876
86	0xc04e0210	-3.218876
87	0xc04e0210	-3.218876
88	0xc04e0210	-3.218876
89	0xc04e0210	-3.218876
90	0xc04e0210	-3.218876
91	0xc04e0210	-3.218876
92	0xc04e0210	-3.218876
93	0xc04e0210	-3.218876
94	0xc04e0210	-3.218876
95	0xc04e0210	-3.218876
96	0xc04e0210	-3.218876
97	0xc04e0210	-3.218876
98	0xc04e0210	-3.218876
99	0xc04e0210	-3.218876
100	0xc04e0210	-3.218876
101	0xc04e0210	-3.218876
102	0xc04e0210	-3.218876
103	0xc04e0210	-3.218876
104	0xc04e0210	-3.218876
105	0xc04e0210	-3.218876
106	0xc04e0210	-3.218876
107	0xc04e0210	-3.218876
108	0xc04e0210	-3.218876
109	0xc04e0210	-3.218876
110	0xc04e0210	-3.218876
111	0xc04e0210	-3.218876
112	0xc04e0210	-3.218876
113	0xc04e0210	-3.218876
114	0xc04e0210	-3.218876
115	0xc04e0210	-3.218876
116	0xc04e0210	-3.218876
117	0xc04e0210	-3.218876
118	0xc04e0210	-3.218876
119	0xc04e0210	-3.218876
120	0xc04e0210	-3.218876
121	0xc04e0210	-3.218876
122	0xc04e0210	-3.218876
123	0xc04e0210	-3.218876
124	0xc04e0210	-3.218876
125	0xc04e0210	-3.218876
126	0xc04e0210	-3.218876
127	0xc04e0210	-3.218876
128	0xc04e0210	-3.218876
129	0xc04e0210	-3.218876
130	0xc04e0210	-3.218876
131	0xc04e0210	-3.218876
132	0xc04e0210	-3.218876
133	0xc04e0210	-3.218876
134	0xc04e0210	-3.218876
135	0xc04e0210	-3.218876
136	0xc04e0210	-3.218876
137	0xc04e0210	-3.218876
138	0xc04e0210	-3.218876
139	0xc04e0210	-3.218876
140	0xc04e0210	-3.218876
141	0xc04e0210	-3.218876
142	0xc04e0210	-3.218876
143	0xc04e0210	-3.218876
144	0xc04e0210	-3.218876
145	0xc04e0210	-3.218876
146	0xc04e0210	-3.218876
147	0xc04e0210	-3.218876
148	0xc04e0210	-3.218876
149	0xc04e0210	-3.218876
150	0xc04e0210	-3.218876
151	0xc04e0210	-3.218876
152	0xc04e0210	-3.218876
153	0xc04e0210	-3.218876
154	0xc04e0210	-3.218876
155	0xc04e0210	-3.218876
156	0xc04e0210	-3.218876
157	0xc04e0210	-3.218876
158	0xc04e0210	-3.218876
159	0xc04e0210	-3.218876
160	0xc04e0210	-3.218876
161	0xc04e0210	-3.218876
162	0xc04e0210	-3.218876
163	0xc04e0210	-3.218876
164	0xc04e0210	-3.218876
165	0xc04e0210	-3.218876
166	0xc04e0210	-3.218876
167	0xc04e0210	-3.218876
168	0xc04e0210	-3.218876
169	0xc04e0210	-3.218876
170	0xc04e0210	-3.218876
171	0xc04e0210	-3.218876
172	0xc04e0210	-3.218876
173	0xc04e0210	-3.218876
174	0xc04e0210	-3.218876
175	0xc04e0210	-3.218876
176	0xc04e0210	-3.218876
177	0xc04e0210	-3.218876
178	0xc04e0210	-3.218876
179	0xc04e0210	-3.218876
180	0xc04e0210	-3.218876
181	0xc04e0210	-3.218876
182	0xc04e0210	-3.218876
183	0xc04e0210	-3.218876
184	0xc04e0210	-3.218876
185	0xc04e0210	-3.218876
186	0xc04e0210	-3.218876
187	0xc04e0210	-3.218876
188	0xc04e0210	-3.218876
189	0xc04e0210	-3.218876
190	0xc04e0210	-3.218876
191	0xc04e0210	-3.218876
192	0xc04e0210	-3.218876
193	0xc04e0210	-3.218876
194	0xc04e0210	-3.218876
195	0xc04e0210	-3.218876
196	0xc04e0210	-3.218876
197	0xc04e0210	-3.218876
198	0xc04e0210	-3.218876
199	0xc04e0210	-3.218876
200	0xc04e0210	-3.218876
201	0xc04e0210	-3.218876
202	0xc04e0210	-3.218876
203	0xc04e0210	-3.218876
204	0xc04e0210	-3.218876
205	0xc04e0210	-3.218876
206	0xc04e0210	-3.218876
207	0xc04e0210	-3.218876
208	0xc04e0210	-3.218876
209	0xc04e0210	-3.218876
210	0xc04e0210	-3.218876
211	0xc04e0210	-3.218876
212	0xc04e0210	-3.218876
213	0xc04e0210	-3.218876
214	0xc04e0210	-3.218876
215	0xc04e0210	-3.218876
216	0xc04e0210	-3.218876
217	0xc04e0210	-3.218876
218	0xc04e0210	-3.218876
219	0xc04e0210	-3.218876
220	0xc04e0210	-3.218876
221	0xc04e0210	-3.218876
222	0xc04e0210	-3.218876
223	0xc04e0210	-3.218876
224	0xc04e0210	-3.218876
225	0xc04e0210	-3.218876
226	0xc04e0210	-3.218876
227	0xc04e0210	-3.218876
228	0xc04e0210	-3.218876
229	0xc04e0210	-3.218876
230	0xc04e0210	-3.218876
231	0xc04e0210	-3.218876
232	0xc04e0210	-3.218876
233	0xc04e0210	-3.218876
234	0xc04e0210	-3.218876
235	0xc04e0210	-3.218876
236	0xc04e0210	-3.218876
237	0xc04e0210	-3.218876
238	0xc04e0210	-3.218876
239	0xc04e0210	-3.218876
240	0xc04e0210	-3.218876
241	0xc04e0210	-3.218876
242	0xc04e0210	-3.218876
243	0xc04e0210	-3.218876
244	0xc04e0210	-3.218876
245	0xc04e0210	-3.218876
246	0xc04e0210	-3.218876
247	0xc04e0210	-3.218876
248	0xc04e0210	-3.218876
249	0xc04e0210	-3.218876
250	0xc04e0210	-3.218876
251	0xc04e0210	-3.218876
252	0xc04e0210	-3.218876
253	0xc04e0210	-3.218876
254	0xc04e0210	-3.218876
255	0xc04e0210	-3.218876

bias_mu f4 [128]
0	0xbce5e9ba	-0.028065551
1	0xbd0b46ca	-0.034003057
2	0xbbf2afaf	-0.007406197
3	0xbd718b6b	-0.05897085
4	0xbd8e226c	-0.06940159
5	0xbd354db5	-0.04426356
6	0xbd2cbc8c	-0.042172
7	0xbd489af6	-0.048975907
8	0xbd9fb3ac	-0.077979416
9	0x3e94bd8d	0.29050866
10	0xbd03ec75	-0.032207925
11	0xbca61e17	-0.02027802
12	0xbd40ec28	-0.047100216
13	0xbd383ed5	-0.044981796
14	0xbcf733a7	-0.030175997
15	0xbd2385a9	-0.03992239
16	0xbdb882b5	-0.090093054
17	0x3e81348e	0.2523541
18	0xbd1ca20f	-0.03824049
19	0xbd455e5b	-0.048185688
20	0xbd889091	-0.06668199
21	0xbd4dcb3b	-0.050242644
22	0xbd36b91a	-0.04461012
23	0xbd00ba9e	-0.031427972
24	0xbd41cd6d	-0.04731505
25	0xbd527d10	-0.0513888
26	0xbd7315e7	-0.05934706
27	0xbda4695f	-0.080279104
28	0xbd17bc80	-0.037045002
29	0xbd8426f2	-0.06452741
30	0xbd1293a4	-0.035785332
31	0xbd0e9653	-0.03481133
32	0xbbfb4456	-0.0076680584
33	0xbdb0a187	-0.08624559
34	0xbd78dd80	-0.060758114
35	0xbd2d6a59	-0.04233775
36	0xbd147dd8	-0.036252826
37	0xbd562ebd	-0.052290667
38	0xbd19fb8d	-0.037593413
39	0xbd59f815	-0.053215105
40	0xbd0acbd0	-0.033885777
41	0xbd0949c5	-0.033517618
42	0xbd3588db	-0.04431997
43	0xbd2f35b2	-0.042775817
44	0xbdcc25a6	-0.09968118
45	0xbd796ccc	-0.060894772
46	0xbd1d4899	-0.038399313
47	0xbd150ed5	-0.036391098
48	0xbd6429cc	-0.055703923
49	0xbd92c952	-0.07167305
50	0xbd66d79a	-0.056357957
51	0xbcd0d673	-0.025492882
52	0xbd37c22f	-0.044862922
53	0xbd7e7684	-0.062124744
54	0xbdc0a1fd	-0.09405897
55	0xbd2c1132	-0.042008586
56	0xbd3a3d6f	-0.045468744
57	0xbcf8e821	-0.030384125
58	0xbd358aa7	-0.044321682
59	0x3e619ed5	0.22033246
60	0xbd32e3b0	-0.04367417
61	0xbd119bec	-0.03554909
62	0xbd3fe4ff	-0.046849247
63	0xbd3baedc	-0.045821056
64	0xbd4b6031	-0.049652282
65	0xbde3bc29	-0.11119873
66	0xbd13da7c	-0.036097035
67	0x3e68c3da	0.22730961
68	0xbd757380	-0.059924603
69	0xbd38d053	-0.04512055
70	0xbd8de3b1	-0.06928194
71	0xbd4d3fce	-0.050109677
72	0xbd5935e9	-0.05302993
73	0xbc74bf79	-0.014938229
74	0xbd810cbc	-0.06301257
75	0xbd0959d2	-0.033532925
76	0x3e6369e9	0.2220837
77	0xbd2246b6	-0.039618216
78	0xbd4a0136	-0.04931756
79	0xbd4357cf	-0.047691163
80	0xbd1ec515	-0.03876217
81	0xbd3b7782	-0.04576827
82	0xbd1befc9	-0.038070474
83	0xbd4a5ad0	-0.04940301
84	0xbd861b7c	-0.06548211
85	0x3eb3b6b3	0.35100326
86	0xbd3980da	-0.045288898
87	0xbd814606	-0.06312184
88	0xbd9afd12	-0.075678006
89	0xbd456d78	-0.0482001
90	0xbd45967f	-0.048239227
91	0xbd5dad1e	-0.054120176
92	0xbd24592a	-0.040124096
93	0xbd07f756	-0.033194862
94	0xbdb4d0c5	-0.08828882
95	0xbd8a4b65	-0.067526616
96	0xbd696547	-0.05698135
97	0xbd6dd403	-0.05806352
98	0xbd144e01	-0.036207203
99	0xbda1d22b	-0.079014145
100	0xb92aa085	-0.00016272262
101	0xbcebf5a9	-0.028803663
102	0xbdcea4d2	-0.10090031
103	0xbd27bda9	-0.04095236
104	0xbd2f2938	-0.04276392
105	0xbd24d877	-0.0402455
106	0xbc5c9b91	-0.013464824
107	0xbd2cf5e2	-0.04222668
108	0xbd8b1dd1	-0.067927964
109	0xbd2e93cf	-0.04262143
110	0xbd559458	-0.052143425
111	0xbd4f335c	-0.05058609
112	0xbdb35388	-0.08756167
113	0xbd08e80e	-0.03342443
114	0xbb0bb035	-0.0021314744
115	0xbd186c9e	-0.03721296
116	0xbd5f5b0e	-0.054530196
117	0xbd7bceec	-0.061476633
118	0xbd2f66e4	-0.042822734
119	0xbd7fd0d7	-0.062455025
120	0xbd7f7733	-0.062369537
121	0xbd4cb6aa	-0.04997889
122	0xbdbadbd6	-0.09123962
123	0xbd8e54c8	-0.069497645
124	0xbd38d886	-0.045128368
125	0xbd2e3427	-0.042530205
126	0xbd55151f	-0.052022096
127	0xbd83d33e	-0.064367756

bias_logvar f4 [128]
0	0xc04e0210	-3.218876
1	0xc04e0210	-3.218876
2	0xc04e0210	-3.218876
3	0xc04e0210	-3.218876
4	0xc04e0210	-3.218876
5	0xc04e0210	-3.218876
6	0xc04e0210	-3.218876
7	0xc04e0210	-3.218876
8	0xc04e0210	-3.218876
9	0xc04e0210	-3.218876
10	0xc04e0210	-3.218876
11	0xc04e0210	-3.218876
12	0xc04e0210	-3.218876
13	0xc04e0210	-3.218876
14	0xc04e0210	-3.218876
15	0xc04e0210	-3.218876
16	0xc04e0210	-3.218876
17	0xc04e0210	-3.218876
18	0xc04e0210	-3.218876
19	0xc04e0210	-3.218876
20	0xc04e0210	-3.218876
21	0xc04e0210	-3.218876
22	0xc04e0210	-3.218876
23	0xc04e0210	-3.218876
24	0xc04e0210	-3.218876
25	0xc04e0210	-3.218876
26	0xc04e0210	-3.218876
27	0xc04e0210	-3.218876
28	0xc04e0210	-3.218876
29	0xc04e0210	-3.218876
30	0xc04e0210	-3.218876
31	0xc04e0210	-3.218876
32	0xc04e0210	-3.218876
33	0xc04e0210	-3.218876
34	0xc04e0210	-3.218876
35	0xc04e0210	-3.218876
36	0xc04e0210	-3.218876
37	0xc04e0210	-3.218876
38	0xc04e0210	-3.218876
39	0xc04e0210	-3.218876
40	0xc04e0210	-3.218876
41	0xc04e0210	-3.218876
42	0xc04e0210	-3.218876
43	0xc04e0210	-3.218876
44	0xc04e0210	-3.218876
45	0xc04e0210	-3.218876
46	0xc04e0210	-3.218876
47	0xc04e0210	-3.218876
48	0xc04e0210	-3.218876
49	0xc04e0210	-3.218876
50	0xc04e0210	-3.218876
51	0xc04e0210	-3.218876
52	0xc04e0210	-3.218876
53	0xc04e0210	-3.218876
54	0xc04e0210	-3.218876
55	0xc04e0210	-3.218876
56	0xc04e0210	-3.218876
57	0xc04e0210	-3.218876
58	0xc04e0210	-3.218876
59	0xc04e0210	-3.218876
60	0xc04e0210	-3.218876
61	0xc04e0210	-3.218876
62	0xc04e0210	-3.218876
63	0xc04e0210	-3.218876
64	0xc04e0210	-3.218876
65	0xc04e0210	-3.218876
66	0xc04e0210	-3.218876
67	0xc04e0210	-3.218876
68	0xc04e0210	-3.218876
69	0xc04e0210	-3.218876
70	0xc04e0210	-3.218876
71	0xc04e0210	-3.218876
72	0xc04e0210	-3.218876
73	0xc04e0210	-3.218876
74	0xc04e0210	-3.218876
75	0xc04e0210	-3.218876
76	0xc04e0210	-3.218876
77	0xc04e0210	-3.218876
78	0xc04e0210	-3.218876
79	0xc04e0210	-3.218876
80	0xc04e0210	-3.218876
81	0xc04e0210	-3.218876
82	0xc04e0210	-3.218876
83	0xc04e0210	-3.218876
84	0xc04e0210	-3.218876
85	0xc04e0210	-3.218876
86	0xc04e0210	-3.218876
87	0xc04e0210	-3.218876
88	0xc04e0210	-3.218876
89	0xc04e0210	-3.218876
90	0xc04e0210	-3.218876
91	0xc04e0210	-3.218876
92	0xc04e0210	-3.218876
93	0xc04e0210	-3.218876
94	0xc04e0210	-3.218876
95	0xc04e0210	-3.218876
96	0xc04e0210	-3.218876
97	0xc04e0210	-3.218876
98	0xc04e0210	-3.218876
99	0xc04e0210	-3.218876
100	0xc04e0210	-3.218876
101	0xc04e0210	-3.218876
102	0xc04e0210	-3.218876
103	0xc04e0210	-3.218876
104	0xc04e0210	-3.218876
105	0xc04e0210	-3.218876
106	0xc04e0210	-3.218876
107	0xc04e0210	-3.218876
108	0xc04e0210	-3.218876
109	0xc04e0210	-3.218876
110	0xc04e0210	-3.218876
111	0xc04e0210	-3.218876
112	0xc04e0210	-3.218876
113	0xc04e0210	-3.218876
114	0xc04e0210	-3.218876
115	0xc04e0210	-3.218876
116	0xc04e0210	-3.218876
117	0xc04e0210	-3.218876
118	0xc04e0210	-3.218876
119	0xc04e0210	-3.218876
120	0xc04e0210	-3.218876
121	0xc04e0210	-3.218876
122	0xc04e0210	-3.218876
123	0xc04e0210	-3.218876
124	0xc04e0210	-3.218876
125	0xc04e0210	-3.218876
126	0xc04e0210	-3.218876
127	0xc04e0210	-3.218876

z_mu f4 [128]
0	0x3b5a0d53	0.0033272102
1	0x3a38ab00	0.0007044524
2	0x3e6140c4	0.21997362
3	0x3ad2b2bd	0.0016074997
4	0x3b0029e3	0.0019556216
5	0x3a82d986	0.000998304
6	0x3a327b57	0.000680854
7	0xbb04aa8c	-0.0020243255
8	0x3a7040a3	0.0009164905
9	0x3ed95870	0.42450285
10	0xba3e9de1	-0.00072714506
11	0x3e702aed	0.23453875
12	0xbb6d7441	-0.0036232623
13	0x39d1fd36	0.00040052243
14	0xba3888d1	-0.000703943
15	0xb9cdfed5	-0.00039290512
16	0x3b6f2c48	0.00364949
17	0x3e868d0f	0.26279494
18	0xba3dd24b	-0.0007241114
19	0x3af05629	0.0018336225
20	0x3bf9cee4	0.0076235402
21	0x3a1eeaf5	0.0006062233
22	0xba831b90	-0.0010002721
23	0x3b3b8e7d	0.0028618865
24	0x38887ba2	6.508014e-05
25	0x3b9a665a	0.0047119083
26	0x385dc8b5	5.287743e-05
27	0xbb2829d0	-0.0025659688
28	0xbb318b1b	-0.002709097
29	0xbb4c144c	-0.0031140028
30	0xbaf2b9ae	-0.0018518472
31	0x3a9a7c7a	0.0011786364
32	0x3dbed5a3	0.09318092
33	0x3ace305c	0.0015730965
34	0x3a0a2813	0.0005270254
35	0x39889321	0.0002604956
36	0xbb2e3216	-0.0026580147
37	0x393128df	0.00016895261
38	0xba8449d9	-0.0010092809
39	0xbb0cd78e	-0.0021490785
40	0x3a214fed	0.00061535725
41	0x3a08d5f7	0.00052198715
42	0x390baa2e	0.0001331947
43	0x39de55f5	0.00042407183
44	0x3a97d439	0.0011583633
45	0xba5b9b83	-0.000837736
46	0x3a04d159	0.00050665956
47	0x3a8a53e5	0.0010553567
48	0xbb1b417c	-0.0023690155
49	0xbaeea9d7	-0.0018208575
50	0x3b32915e	0.002724729
51	0x3ba9b098	0.0051785223
52	0x3a5a11d9	0.00083186995
53	0xbbe52ff4	-0.006994242
54	0x3c2ed3ec	0.010670643
55	0xbb6fba1f	-0.0036579443
56	0xba70a955	-0.0009180506
57	0xba9b6e51	-0.0011858438
58	0x3950e6c2	0.0001992239
59	0x3e57fb21	0.21091892
60	0xb9129389	-0.00013978606
61	0x3a30fa8b	0.0006751201
62	0x3be3f2d7	0.006956439
63	0xb8539e61	-5.0453822e-05
64	0xba588456	-0.00082594657
65	0xbb04e0cb	-0.0020275589
66	0xbb8a0e76	-0.0042131497
67	0x3e98675d	0.2976636
68	0x3a67ecc8	0.0008847234
69	0x39378a06	0.00017503658
70	0x3ab4af58	0.0013785167
71	0x38190066	3.6478414e-05
72	0x3b8e9af6	0.004351969
73	0x3ea73ce6	0.3266365
74	0x3971adce	0.00023048298
75	0xbb1189fd	-0.0022207492
76	0x3e9b12b1	0.30287698
77	0xba4184c6	-0.00073821505
78	0xbaa54ed3	-0.0012611992
79	0x3944b1d5	0.00018758264
80	0xb93d9d08	-0.00018082943
81	0x391f21b7	0.00015175981
82	0x3b467057	0.0030279362
83	0x387695e3	5.8790563e-05
84	0x3a2a0068	0.0006485046
85	0x3eda7f5e	0.42675298
86	0xb9b42dc8	-0.00034366385
87	0x3a6bf574	0.0009001114
88	0xbb8015f4	-0.003908867
89	0xbafe5b36	-0.0019405845
90	0xb906700e	-0.0001282098
91	0x3aeb0c5f	0.0017932764
92	0x3b5d5953	0.0033775165
93	0xba926d33	-0.001117146
94	0x3b09ad54	0.0021007853
95	0x3bba9e03	0.005695106
96	0x3af37b67	0.0018576205
97	0x3a183410	0.0005806098
98	0x3aa8c566	0.0012876212
99	0x3b7e13a2	0.0038769026
100	0x3e03a0ed	0.12854357
101	0x3a20d70f	0.0006135562
102	0xbb6247a9	-0.0034527576
103	0x38a2b31d	7.7581244e-05
104	0x3b6e15f9	0.0036329015
105	0xbb4bf12b	-0.003111909
106	0xb8a4c647	-7.8570614e-05
107	0xbb16fcd4	-0.002303888
108	0x3b654c55	0.0034988124
109	0xbc340088	-0.010986455
110	0x3ac7a603	0.001523197
111	0x3a148497	0.00056655094
112	0x3a603df6	0.0008554155
113	0xbb5f4c24	-0.0034072483
114	0x3e60dcde	0.21959254
115	0xbae5fe92	-0.0017547181
116	0xb9dd67f4	-0.00042229856
117	0x3c1ce336	0.009575656
118	0x3b08f333	0.002089691
119	0x39a162ce	0.00030781928
120	0xbb4042d4	-0.0029336708
121	0x3b4d5416	0.0031330637
122	0xbbc1c643	-0.005913527
123	0xb9582aff	-0.00020615383
124	0x3a0568cf	0.0005089165
125	0xba401683	-0.0007327573
126	0xb991329a	-0.00027694256
127	0xba00b9c8	-0.0004910496

z_logvar f4 [128]
0	0xc10e4e20	-8.8940735
1	0xc10fa94b	-8.978831
2	0xc0c52e08	-6.161869
3	0xc0be6d83	-5.950868
4	0xc0db4e0c	-6.853277
5	0xc11065f4	-9.024891
6	0xc113a4fe	-9.227781
7	0xc1122368	-9.133644
8	0xc0e737ad	-7.2255464
9	0xc0c019d1	-6.0031514
10	0xc1154dc4	-9.331486
11	0xc0c86e97	-6.2634997
12	0xc11224eb	-9.134013
13	0xc10bff15	-8.749776
14	0xc115cad1	-9.362016
15	0xc10d3f46	-8.827948
16	0xc0bf6642	-5.9812326
17	0xc0b91460	-5.783737
18	0xc10f2128	-8.945595
19	0xc110e556	-9.05599
20	0xc0d574d5	-6.6705117
21	0xc1145804	-9.271488
22	0xc10f59ac	-8.959393
23	0xc102175a	-8.130701
24	0xc10f0085	-8.937627
25	0xc10596ef	-8.349349
26	0xc0e5bc95	-7.1792703
27	0xc0ec69df	-7.3879237
28	0xc1128925	-9.158483
29	0xc0fab09a	-7.834058
30	0xc114319e	-9.262114
31	0xc10fd0f8	-8.988518
32	0xc0b257f6	-5.5732374
33	0xc0ba428e	-5.8206244
34	0xc0f4dbe5	-7.6518426
35	0xc110471d	-9.017362
36	0xc1036856	-8.212973
37	0xc1023edd	-8.1403475
38	0xc1108c4e	-9.034254
39	0xc10da06e	-8.851667
40	0xc1139585	-9.224004
41	0xc11674e2	-9.403536
42	0xc1135671	-9.208604
43	0xc1113121	-9.074494
44	0xc0a0cb65	-5.0248284
45	0xc0fe2330	-7.9417953
46	0xc1137b03	-9.217532
47	0xc113d08e	-9.238417
48	0xc0c6e827	-6.215839
49	0xc0f1d67d	-7.5574327
50	0xc0ecd96f	-7.401542
51	0xc1106208	-9.023933
52	0xc111adb8	-9.104912
53	0xc0d8e751	-6.778237
54	0xc0967035	-4.701197
55	0xc1097175	-8.590199
56	0xc1132038	-9.195366
57	0xc111f173	-9.121448
58	0xc113180d	-9.193372
59	0xc0ac110d	-5.3770814
60	0xc10a724a	-8.652903
61	0xc112ffb2	-9.187426
62	0xc10445df	-8.267058
63	0xc1128cfa	-9.159418
64	0xc10ecda6	-8.925207
65	0xc0a15447	-5.041538
66	0xc108afbf	-8.542907
67	0xc0b99b3a	-5.8001986
68	0xc101f134	-8.1213875
69	0xc1171668	-9.44297
70	0xc0d33d8f	-6.6012645
71	0xc11070a4	-9.0275
72	0xc0c94f54	-6.2909336
73	0xc0ccf169	-6.404469
74	0xc0fe21e8	-7.941639
75	0xc11562e8	-9.336647
76	0xc0c073c5	-6.014132
77	0xc109f261	-8.621675
78	0xc101d44f	-8.114333
79	0xc11181ea	-9.094217
80	0xc1172a7a	-9.44787
81	0xc1141854	-9.2559395
82	0xc1124ce9	-9.143777
83	0xc1107fd6	-9.03121
84	0xc10049fd	-8.018064
85	0xc0c2b326	-6.0843687
86	0xc116e0c9	-9.429879
87	0xc10a2711	-8.634538
88	0xc0e75732	-7.229394
89	0xc112ab67	-9.166846
90	0xc0e7f2fe	-7.248412
91	0xc104fc7b	-8.311641
92	0xc1124a1f	-9.143096
93	0xc112e6eb	-9.181376
94	0xc0ceadee	-6.4587317
95	0xc0d3d6d1	-6.6199727
96	0xc1085743	-8.521304
97	0xc0f8ff62	-7.7811747
98	0xc110beca	-9.046579
99	0xc0b09b0c	-5.5189266
100	0xc0b38005	-5.6093774
101	0xc114662b	-9.274943
102	0xc0881a7b	-4.2532325
103	0xc10b5dc2	-8.71039
104	0xc0f99f1a	-7.8006716
105	0xc111effc	-9.12109
106	0xc10d37e5	-8.826146
107	0xc110aed6	-9.042685
108	0xc0bfa3e5	-5.9887567
109	0xc0ee4248	-7.445591
110	0xc1073bd5	-8.452107
111	0xc1128286	-9.156866
112	0xc0b79249	-5.736607
113	0xc10fffd0	-8.999954
114	0xc0bff86f	-5.9990764
115	0xc0ddff2f	-6.9374003
116	0xc0fe2149	-7.941563
117	0xc0cba373	-6.3637023
118	0xc101546f	-8.083114
119	0xc0f70da3	-7.7204146
120	0xc0d8c4d2	-6.774026
121	0xc110d84e	-9.052809
122	0xc0be9d5f	-5.9567103
123	0xc10ba017	-8.726584
124	0xc10e66ce	-8.900099
125	0xc11038a4	-9.013828
126	0xc1135f7c	-9.210812
127	0xc0fdf5d8	-7.93626

weight_mu f4 [2, 128]
0	0x3d5c37b1	0.05376405
1	0xbd166e33	-0.036726188
2	0xbe5de5b5	-0.21669658
3	0x3c57c10b	0.013168584
4	0xbcf8082e	-0.030277338
5	0x3b962448	0.004581962
6	0x3bad4619	0.0052878973
7	0x3dd147aa	0.10218747
8	0x3cf5f2eb	0.030023059
9	0x3e150cac	0.14555615
10	0xbc5523bd	-0.013009009
11	0xbe371a73	-0.17881183
12	0xbd83cac4	-0.06435159
13	0xbd052bd1	-0.03251249
14	0xbd584774	-0.052802518
15	0x3cd88b34	0.026433565
16	0xbd111ba6	-0.03542676
17	0x3e654aff	0.2239189
18	0x3a28c4b8	0.0006438005
19	0xbcfe9a9d	-0.031079585
20	0x3cd1aa71	0.025593968
21	0x3c6f1aba	0.014593774
22	0x3cea53db	0.028604439
23	0x3c7b23c5	0.015328352
24	0x3c613f6b	0.01374803
25	0xbb31758f	-0.0027078127
26	0x3ba73e5b	0.005103869
27	0xbca5a42c	-0.020219885
28	0xbc5949c4	-0.013262216
29	0x3bfe130e	0.0077537363
30	0x3b332aef	0.0027338823
31	0x3beb6c4d	0.0071845413
32	0xbe57da8a	-0.2107946
33	0x3d00139f	0.031268712
34	0xbcd52707	-0.026019586
35	0xbc972043	-0.018448
36	0x3c919e15	0.017775575
37	0xbc64b414	-0.01395895
38	0x3c2501a7	0.010071195
39	0xbbc24a84	-0.005929293
40	0xbc76804b	-0.015045236
41	0x3c52269b	0.012826587
42	0xb8129616	-3.494889e-05
43	0xbc5136b3	-0.012769389
44	0xbd028289	-0.03186277
45	0xbd170040	-0.036865473
46	0x3c8e3992	0.017361436
47	0xbb9eb8e2	-0.004843817
48	0xbb813b47	-0.003943834
49	0x3cca5cdc	0.024702482
50	0x3d5f1a3b	0.054468375
51	0xbd57bb6d	-0.052668978
52	0xbc0111a7	-0.007877744
53	0xbdbeacfc	-0.09310338
54	0x3d089f20	0.03335488
55	0xbcfe6827	-0.031055523
56	0x3bf66988	0.0075199045
57	0x3cc32ef6	0.023826104
58	0x3c836909	0.016041296
59	0x3e73db6f	0.23814176
60	0x3b3128ad	0.0027032301
61	0xbdd90cf5	-0.105981745
62	0xbd25537b	-0.040362816
63	0xbc9ff2c8	-0.019524947
64	0x3d00a007	0.031402614
65	0x3dbafcd7	0.091302566
66	0x3d40ca63	0.04706801
67	0x3e40bbd9	0.18821658
68	0xbc97c5d3	-0.018526947
69	0x3b92f629	0.004484911
70	0x3b89dd9d	0.0042073266
71	0xbc314675	-0.010820021
72	0xbcb00980	-0.021488905
73	0xbe1e5723	-0.15462928
74	0x3d1a19e0	0.037622333
75	0xbcf9d1e5	-0.030495593
76	0x3e58c631	0.21169354
77	0xbc64a9c2	-0.013956489
78	0xbcaf280f	-0.021381406
79	0xbb316339	-0.0027067198
80	0x3d0b1039	0.033951018
81	0xbc8a55c3	-0.016886597
82	0xbb8ae1d0	-0.0042383447
83	0xbc72ec1e	-0.014826803
84	0xbd10ae0f	-0.035322245
85	0x3e22ebb6	0.15910229
86	0x3c3112f1	0.010807739
87	0x3708971b	8.141414e-06
88	0xbd7a160d	-0.061056186
89	0xbc86627b	-0.016404381
90	0x3c428f39	0.011874967
91	0xbd0ac144	-0.03387572
92	0xbc4aff15	-0.012389918
93	0xbc573b7e	-0.013136743
94	0xbcad4090	-0.02114895
95	0x3cb12280	0.021622896
96	0xbc734f82	-0.014850499
97	0x3c1c7020	0.009548217
98	0x3c54bd86	0.012984639
99	0x3d606d1a	0.054791547
100	0xbe5a81b9	-0.21338548
101	0xbca99adc	-0.020703726
102	0x3d02d2d9	0.03193936
103	0xbb7bda63	-0.003842973
104	0xbcbf0c06	-0.023321163
105	0x3d1977e1	0.03746784
106	0xbcac6e31	-0.021048637
107	0x3c87c46b	0.016573152
108	0xbba7add7	-0.005117159
109	0xbc8b2be7	-0.016988708
110	0xbc1d72a5	-0.009609853
111	0x3bb7786d	0.0055990727
112	0xbcd78b57	-0.02631156
113	0x3d248baa	0.040172257
114	0xbe334cf0	-0.17509818
115	0xbd0e619f	-0.034761067
116	0x3d323651	0.04350883
117	0xbb3f9fbc	-0.0029239496
118	0xbccc0c3c	-0.024908178
119	0xbd7e4609	-0.06207851
120	0x3d02005a	0.031738617
121	0xbcf078f6	-0.029354554
122	0x3d7e5532	0.062092967
123	0xbcebb934	-0.028774835
124	0xb9a108c1	-0.00030714835
125	0x3cc50af9	0.024053084
126	0x3d2d49e4	0.042306796
127	0x3d4010c2	0.04689098
128	0xbd53dd20	-0.051724553
129	0x3d24525c	0.040117607
130	0x3e5d4bf6	0.21611008
131	0xbc88a335	-0.016679386
132	0x3d0183ef	0.031619962
133	0xbbf8469e	-0.0075767776
134	0xbbcbfda0	-0.006225303
135	0xbdcd9e64	-0.10039976
136	0xbcf8f960	-0.030392349
137	0xbe1575a6	-0.1459566
138	0x3c44731f	0.011990338
139	0x3e38297b	0.17984574
140	0x3d774d24	0.0603763
141	0x3d0b9be6	0.034084223
142	0x3d4ec106	0.05047705
143	0xbcda6185	-0.026657829
144	0x3d2e7acd	0.04259758
145	0xbe66245b	-0.22474806
146	0x3a980eff	0.0011601149
147	0x3cf88823	0.030338353
148	0xbcca8d7e	-0.024725672
149	0xbc8c229b	-0.017106345
150	0xbcdb2442	-0.026750688
151	0xbc409e1c	-0.011756446
152	0xbc658232	-0.014008092
153	0x3c030c02	0.007998468
154	0xbb660785	-0.0035099697
155	0x3c541270	0.012943849
156	0x3c4b311f	0.012401848
157	0xbc100254	-0.008789618
158	0xbb3ea75c	-0.0029091453
159	0xbb460d54	-0.0030220347
160	0x3e573d4e	0.2101948
161	0xbcfa59b1	-0.030560346
162	0x3ce462ab	0.02787908
163	0x3c8238db	0.015896251
164	0xbc9af4a0	-0.018915474
165	0x3c51dfce	0.012809707
166	0xbc474f5c	-0.012164917
167	0x3bdc9808	0.0067319907
168	0x3ca8d4cf	0.020609288
169	0xbc3ca88f	-0.011514797
170	0xb9ddcec4	-0.00042306457
171	0x3c35ab0a	0.011088142
172	0x3d15b383	0.03654815
173	0x3d1aeb4e	0.03782206
174	0xbc8c82c2	-0.017152194
175	0x3c1530ec	0.009105902
176	0x3bddec12	0.0067725265
177	0xbcdf04c9	-0.027223961
178	0xbd528f11	-0.05140597
179	0x3d5524b8	0.05203697
180	0x3bd0f268	0.0063765533
181	0x3db140d2	0.086549416
182	0xbd018b5b	-0.03162704
183	0x3d000d40	0.031262636
184	0xbc11cc74	-0.008898843
185	0xbcaab3e5	-0.020837734
186	0xbc6108ca	-0.013735006
187	0xbe721184	-0.23639494
188	0xbbf5e11b	-0.0075036413
189	0x3dd59e19	0.10430545
190	0x3d24b7c0	0.0402143
191	0x3c9b070a	0.018924255
192	0xbceac7d7	-0.028659744
193	0xbdc6ce45	-0.097073115
194	0xbd37e062	-0.044891723
195	0xbe3f6893	-0.18692236
196	0x3cb44ac2	0.022008304
197	0xbb2c81cb	-0.002632248
198	0xbc07e2b0	-0.008293793
199	0x3c332b1f	0.010935574
200	0x3c9552d7	0.018227978
201	0x3e1e7e58	0.15477884
202	0xbd1234e7	-0.035694983
203	0x3ce750d4	0.028236784
204	0xbe58dd1f	-0.21178101
205	0x3c597322	0.013272079
206	0x3ca4fe90	0.020140916
207	0x3ba0c9e1	0.0049068783
208	0xbd136174	-0.03598161
209	0x3ca17190	0.019707471
210	0x3bb54d10	0.005532868
211	0x3c8f57dc	0.01749795
212	0x3d1ba49a	0.037998773
213	0xbe23b669	-0.15987553
214	0xbc1b22ed	-0.009468776
215	0xbb4be916	-0.0031114272
216	0x3d7ee9c4	0.062234655
217	0x3c5286eb	0.01284955
218	0xbc2b0974	-0.0104392655
219	0x3d23f412	0.040027685
220	0x3c6a9b35	0.014319231
221	0x3c890e44	0.016730435
222	0x3cbef7ee	0.023311581
223	0xbcb861a2	-0.022507492
224	0x3c56ba15	0.013105889
225	0xbc387afc	-0.0112597905
226	0xbc3a7b9b	-0.011382009
227	0xbd537dc3	-0.051633608
228	0x3e5c948a	0.21541038
229	0x3ccc5d88	0.024946943
230	0xbc9b1fb0	-0.018936008
231	0x3b6b7149	0.0035925678
232	0x3ccbce45	0.02487863
233	0xbd167ebf	-0.03674197
234	0x3cbc7229	0.023003655
235	0xbc8334d8	-0.016016409
236	0x3b3da327	0.0028936358
237	0x3c83383a	0.016018022
238	0x3c1a3aee	0.009413464
239	0xbbcc7c06	-0.0062403707
240	0x3cdd8eef	0.027045695
241	0xbd1aa96b	-0.037759226
242	0x3e355066	0.17706451
243	0x3d1d610d	0.038422633
244	0xbd247074	-0.040146306
245	0x3b976a83	0.0046208515
246	0x3ccaee95	0.024771968
247	0x3d786993	0.06064756
248	0xbd0967d4	-0.033546284
249	0x3cf2e608	0.029650703
250	0xbd886175	-0.066592135
251	0x3d01bcfc	0.03167437
252	0x3a4ed8ac	0.0007890563
253	0xbcb7822f	-0.022400944
254	0xbd26985f	-0.040672656
255	0xbd5180a5	-0.051148076
