metric/auxillary_probe_adam_seed6.pth (torch, 547787 bytes, 12 tensors)

z_mu f4 [512]
000000 db 57 d6 3b 6f 30 9d 3f ab 7c 3c 3f 70 25 fd 39
       0.006541235 1.2280406 0.7362773 0.00048283814
000010 3e a4 5e 3f d6 b4 cf 39 d8 4a 1e 3a b7 c6 00 3c
       0.86969364 0.0003961685 0.0006038374 0.007859877
000020 b6 c4 cd 3e fe 60 7a 3a b8 82 b0 ba 17 b2 2d 3e
       0.4018914 0.0009551196 -0.0013466692 0.16962467
000030 15 7d d5 3a e3 30 a7 b9 ff 54 2f 39 8a a0 d7 ba
       0.0016287888 -0.00031889146 0.00016720964 -0.0016451043
000040 4e a6 9a b9 76 8b c6 3f 75 bc 8f 3f b0 60 0a 3c
       -0.00029497076 1.551131 1.1229388 0.008445904
000050 54 40 b9 3b 37 90 c0 3b ad 34 68 ba d4 b4 ac 3e
       0.0056534205 0.0058765667 -0.0008857947 0.3373171
000060 be 58 d3 3a b5 5d a6 ba 17 c8 0a 3f f1 46 62 bb
       0.001612447 -0.0012692722 0.5421156 -0.0034527148
000070 50 53 8e 3f ae 6c 8e 3b eb 53 85 3e 71 28 b7 39
       1.1119175 0.0043464517 0.26040587 0.0003493461
000080 07 74 71 3b aa 94 c2 3d 79 1d 90 3c 98 bb b4 b9
       0.003684284 0.09501012 0.017592179 -0.00034472044
000090 90 63 17 3f 21 d7 0c 3b ee c8 ea 3e d8 1b 81 3f
       0.59136295 0.0021490532 0.45856422 1.0086622
0000a0 11 9e a8 b9 67 73 e6 3a a2 0d 38 3f 84 39 cd 3b
       -0.00032161226 0.0017582 0.718958 0.00626296
0000b0 c5 60 14 38 b8 89 b7 ba 6f eb 18 ba 6c 23 6f b9
       3.5376073e-05 -0.0014002835 -0.0005833422 -0.00022806012
0000c0 6c a7 4a 3b 5b 97 07 3c 88 1c 55 3b 9a 6c 9f 3c
       0.0030922545 0.008275832 0.0032518227 0.019460965
0000d0 26 04 26 3f d3 fb 2b bb 5c 58 4e 3c 88 93 65 bb
       0.6485008 -0.0026242628 0.012594309 -0.0035030562
0000e0 41 58 f6 39 af bf cc 39 d6 81 c2 ba 25 db 85 3e
       0.0004698653 0.00039052728 -0.001483972 0.26143757
0000f0 95 b7 2e 3b 29 9f f1 3c 2b 49 c4 39 5c e7 09 3b
       0.0026659716 0.029494839 0.00037438548 0.0021042442
000100 e2 25 b3 3f 5b df 95 3e 58 f4 be 3b 66 b3 60 3c
       1.3995936 0.2927197 0.005827468 0.013714647
000110 bc 43 24 3f 9f 4c 01 bb 49 72 0d 3b b3 0d 06 3b
       0.64165854 -0.0019729508 0.0021583012 0.0020454943
000120 85 ff 05 3b a3 05 29 3a 01 54 a6 ba 88 08 52 3f
       0.002044649 0.00064476783 -0.001268983 0.8204427
000130 c2 ce 9d ba 9c 79 0f 3d 41 89 17 ba f4 36 ff 3a
       -0.0012039768 0.035028085 -0.00057806453 0.0019471333
000140 5b 83 fe ba ae 0b 48 3b 92 4f 08 3f 96 3a 90 3f
       -0.0019417809 0.003052454 0.53246415 1.1267879
000150 2f 5b 1e bb 11 0c 83 3f 10 aa 25 3a 00 53 96 3e
       -0.0024163236 1.0238057 0.0006319592 0.293602
000160 f4 bd 98 3e cc f4 a8 b9 e6 a8 12 3f 0d cb be 3a
       0.29832423 -0.00032225845 0.5728897 0.0014556363
000170 69 27 9c bb b8 aa dc b9 0d 3e 06 bb 11 e7 15 bb
       -0.0047654402 -0.00042088865 -0.0020483762 -0.0022873322
000180 0e af 87 3f 9b 78 13 3f 57 7b 02 bb 3d a3 56 3c
       1.0600297 0.57605904 -0.0019909942 0.0131004425
000190 51 7f 0a bb 39 e8 45 ba dd ed bf 3c 2f 1d be 3a
       -0.0021133015 -0.00075495575 0.023428852 0.0014504547
0001a0 6f d3 bd 3f a6 92 57 3a 2c 31 51 3c 57 9f c4 3a
       1.483015 0.00082234514 0.012768071 0.00150011
0001b0 8c 3f e8 3e 7c 3b 26 3e 53 73 5f 3e 19 f6 3c 3f
       0.45360982 0.16233629 0.21821336 0.73813015
0001c0 bb 38 1f 3c ad 8a e2 ba be 66 a1 39 7c e7 01 bb
       0.009718115 -0.001728376 0.00030784862 -0.0019821813
0001d0 c6 b4 91 3f 1a 38 f4 ba da b6 18 3f 8f 2b 9c 3a
       1.1383293 -0.0018632442 0.5965401 0.0011914837
0001e0 7a 05 c8 b9 0a 42 ad bb 6c 91 de 39 6e a2 36 bb
       -0.00038151053 -0.0052874135 0.00042451487 -0.0027867812
0001f0 32 f6 95 ba b2 aa e5 3e 9d e2 62 3f c3 c5 46 3b
       -0.001144117 0.44856793 0.88627034 0.0030330278
000200 94 63 2a bb 3a f5 18 3a dc 5e f2 3d 66 4b 4b bb
       -0.0025999295 0.00058348814 0.11834499 -0.0031020283
000210 35 8a 70 3f f2 4b bb 3b 1e 1b 18 3a d8 42 76 39
       0.9396089 0.0057158405 0.00058023806 0.0002348529
000220 51 94 26 3b 0b 77 00 3c 72 90 63 ba 62 08 26 3b
       0.0025417993 0.007840882 -0.0008680887 0.0025334586
000230 f3 6c 6a 3d 08 50 49 ba 12 3f 6c 39 bb c7 2b 3f
       0.05723281 -0.0007679467 0.0002253021 0.6710164
000240 05 4a 12 3c 04 06 4e 3a d7 6a 03 3f 44 7a 7d 3a
       0.00892878 0.0007859173 0.513349 0.0009669403
000250 26 1c 86 3c de 79 eb 3e 3c 18 8e 3f f9 46 1b bb
       0.016370844 0.45991415 1.1101146 -0.0023693426
000260 43 5f fe 3f d7 34 e4 3e ae ca 41 3a cd 8d 9c 3d
       1.9872822 0.44571564 0.00073925673 0.07644234
000270 76 7f ff 3a 4f 6b ad b9 ef 90 25 3f c6 0c a6 3a
       0.0019492942 -0.00033077082 0.64674276 0.0012668602
000280 7a aa 4b 3f ac a4 ca ba 93 fd cd 3e 09 18 49 3f
       0.79557 -0.0015460453 0.40232524 0.785523
000290 81 50 cd 3a 63 65 a5 3b 1b c8 85 ba 1a cc 16 3f
       0.0015664251 0.0050474866 -0.0010206731 0.58905184
0002a0 17 e9 66 3d 61 ee 50 3f 40 5f ec 3e 4a 39 db b8
       0.056374636 0.8161374 0.4616642 -0.00010453405
0002b0 31 c1 8b 3b 43 22 60 3f 00 39 ac 3b 77 6b c4 3d
       0.0042649736 0.8755228 0.0052558184 0.0959081
0002c0 1d fa 77 3d 4b 23 86 3c ae ee a4 ba a7 04 b5 3f
       0.06054126 0.01637425 -0.0012583339 1.4142045
0002d0 79 5a 82 3f ce 9a 3d 3d 5d b6 65 3b ac ee 20 3f
       1.018386 0.04629021 0.0035051324 0.62864184
0002e0 b2 a0 af 3f a8 e7 92 ba 62 f3 eb ba 0d 68 ac ba
       1.3720915 -0.0011207955 -0.0018001611 -0.0013153568
0002f0 ee 4b a6 3a 5e 01 a0 b9 5f bc dd ba a1 5e 4e ba
       0.0012687424 -0.00030518597 -0.0016917101 -0.0007872377
000300 7d 31 5a 3f 24 43 eb 3e a4 d0 b9 3f 1a 06 af ba
       0.85231763 0.45949662 1.4516797 -0.0013353259
000310 67 fd c8 b9 64 9d a0 3f 3d 37 88 ba 21 14 ef 39
       -0.00038335772 1.2548032 -0.0010392439 0.0004560063
000320 c7 c2 b8 3a 9f 2a 0b 3f dd 61 88 bb 1e 04 09 ba
       0.0014096134 0.5436191 -0.004162057 -0.0005226749
000330 03 59 f4 3e b9 48 32 bb 02 a1 9f 3c 8d 15 97 39
       0.4772416 -0.002720399 0.019485954 0.0002881702
000340 d4 f1 02 3f bf a9 17 bb c5 33 c8 b9 2e 74 e8 ba
       0.5115025 -0.0023141948 -0.00038185544 -0.001773482
000350 a6 66 e2 3d 81 b4 a0 3e 80 a8 78 39 a0 09 0e 3b
       0.11054735 0.31387714 0.00023713894 0.0021673217
000360 07 c2 21 3f cc 1b 30 bb 67 04 ae 3e 54 1d 8e 3f
       0.6318669 -0.0026872037 0.33987734 1.11027
000370 6d ab cd 3e ec ef 39 3f c6 5a 89 3a 83 6f f1 3d
       0.4016985 0.72631717 0.0010479323 0.11788847
000380 43 0b b6 3e e4 00 35 3b a5 1c 72 bb 16 5e 0e 3b
       0.35555467 0.002761894 -0.0036943343 0.002172356
000390 74 d4 9c 3a d7 8e 88 3f 12 1c e8 39 b6 5d b0 3f
       0.0011965171 1.0668591 0.00044271402 1.3778598
0003a0 0e cd 98 3e a0 32 fa 3e 99 64 a7 3f 33 f1 23 3b
       0.29843944 0.4886675 1.3077575 0.0025015592
0003b0 a6 2b 1c b9 fd 8e c6 39 b5 b8 1b 3b 5e 83 e6 3a
       -0.0001489358 0.00037872038 0.0023761217 0.0017586758
0003c0 9a 9c ef 3c 5a 5c 80 3a 5a 37 dd ba 26 5d aa ba
       0.029249478 0.0009793148 -0.0016877458 -0.0012997731
0003d0 26 fe 41 bb c6 ff 98 3d 89 49 eb ba 3a c2 20 bb
       -0.0029600947 0.0747066 -0.0017950992 -0.002452983
0003e0 3c 3e 26 3a ad 55 6b 3c 59 88 50 bb 52 e8 d9 ba
       0.0006341671 0.014363688 -0.003181955 -0.0016625023
0003f0 7e c7 90 b8 eb d3 f1 3a 4e 79 22 39 3d e1 89 ba
       -6.9036134e-05 0.0018449997 0.00015494713 -0.0010519397

z_logvar f4 [512]
000000 6b ae ad c0 c8 b9 92 c0 be 42 9a c0 a1 c0 00 c1
       -5.4275413 -4.5851784 -4.8206472 -8.047029
000010 9a ae ab c0 ea ad 05 c1 da dc b3 c0 55 07 bb c0
       -5.3650637 -8.3549595 -5.6207094 -5.844645
000020 44 d3 b8 c0 cc 31 e9 c0 77 29 08 c1 96 8f 80 c0
       -5.7757893 -7.2873287 -8.510123 -4.0175276
000030 fe d9 02 c1 d9 c5 e9 c0 d0 1a 0a c1 bb 6e ea c0
       -8.178221 -7.3054013 -8.631546 -7.326017
000040 34 45 ff c0 c4 28 c1 c0 79 15 af c0 e0 2c 9c c0
       -7.9771976 -6.0362263 -5.471371 -4.880478
000050 d3 da c6 c0 bd 3d ba c0 a1 14 0c c1 51 9a aa c0
       -6.214212 -5.8200364 -8.755036 -5.3313375
000060 6c 0c dd c0 fb 9b 11 c1 8f 6d bc c0 06 39 c7 c0
       -6.9077663 -9.100581 -5.888374 -6.225711
000070 48 95 97 c0 93 df 03 c1 95 1a 9f c0 33 16 06 c1
       -4.736973 -8.242084 -4.971995 -8.38042
000080 dc a8 c9 c0 24 13 ac c0 51 55 c1 c0 11 d5 0c c1
       -6.3018627 -5.3773365 -6.0416646 -8.802018
000090 d7 b5 b5 c0 a1 e1 f5 c0 0c 73 9a c0 48 26 9c c0
       -5.6784472 -7.6837926 -4.826544 -4.879673
0000a0 47 3a 03 c1 28 f7 0d c1 55 7d 99 c0 1e e5 b3 c0
       -8.201728 -8.872841 -4.7965493 -5.6217184
0000b0 1b 4b 1b c1 22 5b e9 c0 3e 07 cd c0 1f 05 fa c0
       -9.705836 -7.2923746 -6.407134 -7.813125
0000c0 f9 6a b6 c0 a3 2f b7 c0 6e a5 b6 c0 f0 8c a0 c0
       -5.700558 -5.724565 -5.707694 -5.0172043
0000d0 f0 d4 a7 c0 31 be ef c0 4e 87 ab c0 3f 6c da c0
       -5.2447433 -7.4919667 -5.3602667 -6.8257136
0000e0 8c 85 e7 c0 87 14 0c c1 21 ee d1 c0 04 46 9f c0
       -7.235052 -8.755012 -6.5603185 -4.977297
0000f0 ac fb f8 c0 62 b9 aa c0 c7 0e 0d c1 97 91 c6 c0
       -7.7807217 -5.3351297 -8.816108 -6.205272
000100 f2 b7 bc c0 6d 94 b7 c0 b6 9f 9d c0 56 f5 c6 c0
       -5.8974543 -5.7368684 -4.925746 -6.217448
000110 cd 0d aa c0 81 01 e5 c0 ec 67 06 c1 38 1f d2 c0
       -5.3141847 -7.1564336 -8.400372 -6.566311
000120 fd 04 10 c1 0e 5b fc c0 bb df 04 c1 07 07 a9 c0
       -9.001218 -7.886115 -8.304622 -5.282108
000130 6d 1a 15 c1 35 7e a1 c0 92 22 d3 c0 5d 7e 02 c1
       -9.318952 -5.046656 -6.59797 -8.15585
000140 4f ac df c0 0f 04 eb c0 ed 94 95 c0 96 02 c3 c0
       -6.989784 -7.3442454 -4.6744294 -6.0940657
000150 d3 9b da c0 60 0b a0 c0 4f f9 d8 c0 14 40 c1 c0
       -6.8315215 -5.0013885 -6.780433 -6.039072
000160 59 56 b9 c0 e4 b1 05 c1 38 3c b2 c0 fa c4 fc c0
       -5.7917905 -8.35593 -5.569851 -7.899045
000170 10 f1 dd c0 56 64 e2 c0 a5 44 e4 c0 22 ba 00 c1
       -6.9356766 -7.074748 -7.1333795 -8.045443
000180 76 24 c6 c0 15 80 ac c0 e4 2e d8 c0 8c 1b 9d c0
       -6.191951 -5.390635 -6.755724 -4.9096127
000190 13 5e ec c0 36 8c eb c0 77 d8 9a c0 26 fd 0b c1
       -7.3864837 -7.3608656 -4.838924 -8.749304
0001a0 6b 67 b6 c0 b2 e3 08 c1 89 f0 96 c0 ae 3b dd c0
       -5.7001243 -8.55559 -4.716862 -6.913535
0001b0 11 65 94 c0 dd 92 c0 c0 99 c4 9a c0 aa e0 97 c0
       -4.637337 -6.0179276 -4.8364987 -4.746175
0001c0 7e 05 c2 c0 06 21 cd c0 23 e8 c8 c0 8f f9 f1 c0
       -6.0631704 -6.410281 -6.278337 -7.5617137
0001d0 8f f4 aa c0 ee b8 04 c1 97 85 a1 c0 48 9f e9 c0
       -5.3423533 -8.295149 -5.0475574 -7.3006935
0001e0 6b 50 13 c1 6f 9e d9 c0 58 3e 17 c1 d0 e4 d9 c0
       -9.207133 -6.80059 -9.452721 -6.809181
0001f0 00 9d 05 c1 25 5b b0 c0 2d 23 9e c0 cd 6f 08 c1
       -8.35083 -5.511126 -4.941794 -8.527295
000200 b2 6a d6 c0 05 a6 c7 c0 c6 12 bb c0 64 2c d6 c0
       -6.7005243 -6.239016 -5.8460417 -6.692919
000210 23 30 a1 c0 d2 7a bd c0 d9 50 12 c1 c7 e9 e8 c0
       -5.037126 -5.9212427 -9.144738 -7.2785373
000220 41 d2 ed c0 58 53 bb c0 a5 60 d3 c0 5c d1 b2 c0
       -7.4319158 -5.853924 -6.6055474 -5.5880566
000230 73 87 a9 c0 5e ba 01 c1 eb 85 d8 c0 cf 5b aa c0
       -5.2977843 -8.108 -6.7663474 -5.323707
000240 a8 45 be c0 2c b1 f7 c0 7a 3d a9 c0 9c 59 ad c0
       -5.946003 -7.7403774 -5.2887545 -5.4171886
000250 1e 00 a9 c0 60 84 a2 c0 94 3a ae c0 3c a4 18 c1
       -5.2812643 -5.078659 -5.4446507 -9.540096
000260 9f 79 b5 c0 bf 9a bf c0 cd 91 f5 c0 70 21 9c c0
       -5.6710963 -5.98764 -7.674048 -4.8790817
000270 7f c0 f1 c0 52 4f 13 c1 77 af 9e c0 4f c5 fb c0
       -7.554748 -9.206865 -4.958919 -7.8678355
000280 0a 84 9f c0 93 dc 0a c1 a5 b0 9c c0 98 7c 9c c0
       -4.984868 -8.678851 -4.896563 -4.890209
000290 1e aa b4 c0 f2 5d db c0 bc dc 12 c1 25 c1 96 c0
       -5.6457663 -6.855218 -9.17889 -4.711077
0002a0 20 44 9a c0 00 8c b2 c0 57 78 99 c0 f4 cc d9 c0
       -4.820816 -5.57959 -4.79594 -6.8062687
0002b0 d7 7b d4 c0 54 39 9d c0 40 15 ca c0 7b 8b aa c0
       -6.640117 -4.913248 -6.315094 -5.3295264
0002c0 8b 98 a3 c0 26 e6 a7 c0 e9 01 05 c1 45 85 a7 c0
       -5.112371 -5.2468443 -8.312966 -5.2350183
0002d0 d4 fa a2 c0 0d 1c 97 c0 a7 c1 c6 c0 fa 6a bd c0
       -5.0931187 -4.722174 -6.211139 -5.9193087
0002e0 6b 92 a2 c0 c0 3f 07 c1 ef c8 ff c0 c1 0c f6 c0
       -5.0803733 -8.453064 -7.993278 -7.689057
0002f0 81 e4 d2 c0 8c a4 b3 c0 cd 6e e1 c0 ca 37 01 c1
       -6.5903935 -5.6138363 -7.0447755 -8.07612
000300 fa cb af c0 aa cc b2 c0 b9 51 95 c0 0c 1d ea c0
       -5.4936495 -5.5874834 -4.666226 -7.3160458
000310 31 cd 04 c1 7c e7 b6 c0 b3 87 ca c0 22 4f 05 c1
       -8.300096 -5.7157574 -6.329065 -8.33182
000320 bd e5 04 c1 2e 62 b8 c0 24 46 d3 c0 9a 07 07 c1
       -8.306088 -5.761985 -6.602312 -8.439356
000330 fd 66 9d c0 62 a5 05 c1 ac f1 ab c0 94 b9 10 c1
       -4.918822 -8.352877 -5.373251 -9.045307
000340 09 65 aa c0 10 d4 03 c1 85 1a f8 c0 36 8f e5 c0
       -5.3248334 -8.239273 -7.7532372 -7.173732
000350 15 67 ad c0 ef be a2 c0 4a 58 16 c1 da 41 df c0
       -5.4188333 -5.0858073 -9.396555 -6.9767885
000360 01 ef ac c0 e8 ad ba c0 c9 e2 a1 c0 06 c9 9f c0
       -5.4041753 -5.833729 -5.0589337 -4.993289
000370 e7 45 b5 c0 57 d3 ad c0 53 38 0e c1 f8 3e a4 c0
       -5.664783 -5.4320483 -8.888751 -5.1326866
000380 69 5c a5 c0 1f 14 04 c1 83 c2 f6 c0 03 c9 b6 c0
       -5.1675305 -8.254912 -7.711244 -5.7120376
000390 b4 0b bf c0 bd ae c2 c0 f5 ef fd c0 04 a7 be c0
       -5.9701786 -6.0838304 -7.9355416 -5.9578876
0003a0 43 59 b1 c0 fb 5d ab c0 54 9a c0 c0 aa 9f bb c0
       -5.542146 -5.355222 -6.018839 -5.8632402
0003b0 fa ac ec c0 42 5c 0c c1 db 41 e6 c0 a7 aa df c0
       -7.3961153 -8.772524 -7.195539 -6.9895816
0003c0 69 bf 8f c0 7e 92 e1 c0 d8 dd e9 c0 88 e2 fa c0
       -4.4921155 -7.0491323 -7.3083305 -7.8401527
0003d0 06 6c 0d c1 b0 76 b7 c0 a5 e1 dc c0 7a 7f e7 c0
       -8.838873 -5.733238 -6.9025445 -7.234311
0003e0 a1 ac f4 c0 68 00 ad c0 f5 7a 0b c1 ff b0 f6 c0
       -7.646073 -5.4062996 -8.717519 -7.709106
0003f0 95 13 fb c0 17 26 11 c1 b8 d9 e1 c0 ca 29 cf c0
       -7.8461404 -9.071799 -7.057827 -6.473851

weight_mu f4 [128, 512]
000000 8e d9 21 3b 2f e7 a0 bd 6a 49 4a bd 56 75 35 3a
       0.0024696323 -0.07856595 -0.04938642 0.00069220865
000010 13 56 ac bd 2c d7 5c 39 2c ca b8 3b ae b2 5f 3b
       -0.08414855 0.00021060993 0.005639335 0.00341336
000020 fc b4 66 bd fd fe 49 bb da c0 0c bb cf 77 a3 bc
       -0.056324944 -0.003082215 -0.0021477253 -0.01995459
000030 98 79 c6 3b 6d 61 03 bb ef d3 8a ba a5 e1 ab 3a
       0.0060569756 -0.0020047084 -0.0010591726 0.0013113512
000040 7d 30 e5 ba f0 53 36 be ac 49 16 be b5 79 e2 bb
       -0.0017485764 -0.17805457 -0.14676541 -0.0069114813
000050 22 bf ed bb d5 5a 4e bb 82 28 aa 3b 67 d3 41 bc
       -0.007255451 -0.0031487246 0.005192817 -0.011830187
000060 26 8b cb 3b 8d 31 5f bb fb 57 bc bd e3 48 96 3b
       0.006211656 -0.0034056634 -0.091964684 0.0045863255
000070 74 fd 8b bd a5 d6 0e 3b 49 09 1a bd 80 0d 79 3b
       -0.06835452 0.0021795419 -0.03760651 0.0038002431
000080 41 17 1d bc ee 14 a9 bc 2d b9 ac bc 84 17 04 3b
       -0.009588064 -0.020639863 -0.021084392 0.0020155618
000090 73 d6 e9 bc 81 c8 8a 3b d2 70 13 bd 6b 83 89 bd
       -0.02854464 0.0042353277 -0.035996266 -0.06714519
0000a0 60 0c ab b8 14 66 a1 bb 52 04 9d bd 3a c0 b6 bb
       -8.1562204e-05 -0.0049254987 -0.0766684 -0.0055771144
0000b0 fd fa cf bb 72 af 49 bc 5b 5e 02 bc 26 db db bb
       -0.006347059 -0.012309896 -0.007957066 -0.006709474
0000c0 f5 ee 8c bb 8a d9 e3 bc 5c 2e b2 3b a9 c6 49 3c
       -0.004300947 -0.027813692 0.0054376554 0.012315431
0000d0 58 e2 9e bd 40 79 e9 3a 83 93 80 bc 6a b4 02 bc
       -0.077580154 0.0017812625 -0.01569534 -0.007977584
0000e0 6c 16 03 ba f6 3e 8b bb 91 87 36 bc 31 2f 07 bd
       -0.00050005945 -0.004249449 -0.01114072 -0.03300399
0000f0 b1 c1 6e bb 11 65 ba bc aa dc c1 3a bc 50 00 3b
       -0.0036431367 -0.02275327 0.0014790494 0.0019579371
000100 34 0b 5a be d3 34 ba bc 31 3a 5d bb 8c 0d fb bb
       -0.21293336 -0.022730267 -0.0033756609 -0.007661527
000110 5c 88 47 bd b4 58 aa bb 4b 19 1f ba 2a 41 06 3b
       -0.048714027 -0.0051985625 -0.00060691376 0.0020485618
000120 ff 10 7a 3b 14 db 83 3a 77 d3 88 b9 ae 5f e1 bd
       0.0038157103 0.0010059797 -0.00026097495 -0.110045776
000130 57 4f c0 38 56 88 d8 39 14 5d 1e 3c 91 e5 0d 3a
       9.1700516e-05 0.0004130031 0.009665746 0.0005412931
000140 ca 32 55 bb 08 42 8c bb 08 a7 58 bd b3 4b 36 be
       -0.0032531493 -0.0042803325 -0.05289367 -0.17802314
000150 00 ce 50 3c 19 a9 a3 bd 50 82 9d bb 45 e4 2d bc
       0.012744427 -0.07991237 -0.004806794 -0.010613506
000160 4d f7 d5 bc 18 c8 9c 3b 97 f2 71 bd 11 e3 a0 ba
       -0.026118899 0.004784595 -0.059069242 -0.0012274702
000170 1f b3 92 3c dd 73 86 3b c5 5f 93 3a 03 87 ea ba
       0.017907677 0.0041031674 0.0011243752 -0.001789302
000180 3a 26 49 be 51 a5 89 bd e8 b6 86 3a a8 c7 d7 bb
       -0.19643489 -0.06720985 0.0010277899 -0.00658508
000190 35 e3 65 bb b4 73 a0 3a 5a 88 82 bc 81 0e 76 3a
       -0.0035078053 0.0012241513 -0.015934158 0.00093863165
0001a0 a2 5f 09 be a7 0d 10 ba 06 33 75 3a 66 22 32 bb
       -0.13415387 -0.00054951984 0.00093536114 -0.0027181148
0001b0 d7 d2 43 bd 2c fc 0d bd 74 93 89 bc 20 26 89 bd
       -0.047808494 -0.034664318 -0.016793944 -0.06696725
0001c0 fd d4 8d 3b fd 24 ac bb a6 52 fa 3c e4 5a 3a bb
       0.0043283687 -0.005253433 0.030556988 -0.0028435523
0001d0 93 8c d8 bd 63 5d 2d bb f4 94 6c bd 05 10 93 3b
       -0.105736874 -0.0026453368 -0.05775924 0.0044879937
0001e0 cf 05 97 3b 9f 79 75 3b 20 83 01 3a 7c f9 92 3b
       0.0046088467 0.0037456525 0.00049404986 0.0044853073
0001f0 cb 7b 80 bb 11 8b 3c bd ec ac a4 bd bf 23 01 38
       -0.0039210073 -0.04603106 -0.08040795 3.0789288e-05
000200 84 31 1e bc bd bb a5 bc 92 b8 4f bc 34 b0 99 3b
       -0.00965536 -0.020231122 -0.012678282 0.0046901945
000210 5b fe ba bd 76 36 95 3b 58 6f 22 3c f7 33 1d 3a
       -0.09130546 0.0045536114 0.009914242 0.0005996818
000220 40 30 35 39 fb 85 6e 3c 0f 4c f2 bb c4 0e 38 3b
       0.0001727948 0.014558311 -0.007394321 0.0028084973
000230 97 7a 72 bb 4e 63 db 3b d1 63 c3 ba a9 e0 92 bd
       -0.0036999339 0.0066951877 -0.0014907067 -0.07171757
000240 46 6d 94 3b 22 1f 3f bb 50 98 93 bd 97 e6 cd b9
       0.004529628 -0.0029162844 -0.07206786 -0.0003927245
000250 7d 2e ef 3a 9a 09 1c bd 0e df ae bd de 6c d5 ba
       0.0018248108 -0.038095094 -0.08538638 -0.0016283055
000260 1c ed 25 be 69 e2 9d bd 2a 50 a6 3a 67 a0 e9 bc
       -0.16203731 -0.077092 0.0012688686 -0.028518869
000270 89 82 b7 bb 04 a1 de ba 2a 10 a1 bd 79 62 fe 3b
       -0.005600278 -0.0016985242 -0.07864411 0.0077632037
000280 2a 4e 4b bd 2a e1 4e 3b 3b 43 2a bd df 33 6c bd
       -0.04963509 0.0031567314 -0.041568022 -0.057666656
000290 44 ff b1 bb 29 f4 3d bb 22 eb 88 3b d8 bb 84 bd
       -0.0054320414 -0.0028984642 0.0041784206 -0.06481141
0002a0 2b 29 47 bb bf e6 f4 bd 11 a1 55 bd 57 5f 8b 3b
       -0.0030389528 -0.11958074 -0.052155558 0.0042533088
0002b0 0a 62 2b bb 6a 16 ab bd 7e 7b c4 bb cf 21 60 bc
       -0.0026150965 -0.083538845 -0.0059961667 -0.013679936
0002c0 b2 89 d1 b8 ac 07 aa 3a 06 a6 83 bb 4e 4c 0f be
       -9.991544e-05 0.0012972257 -0.0040175943 -0.13993952
0002d0 f3 5f a9 bd eb 1b 08 bd 20 68 97 3c bf ca 08 be
       -0.08270254 -0.03322975 0.018482268 -0.13358591
0002e0 4f 11 22 be 9b 7b d9 bb 62 20 16 bc 7a a0 93 3a
       -0.15826915 -0.0066370494 -0.009162994 0.0011263036
0002f0 87 70 b4 3c f1 a3 07 bc 04 04 44 3b be 38 9a 3b
       0.022026313 -0.008278833 0.002990962 0.004706471
000300 60 b5 e7 bd 38 87 9c bd b4 f3 e6 bd b0 d1 97 3b
       -0.113138914 -0.076429784 -0.112769514 0.004633151
000310 8b 35 98 3b 3e 06 1f be d9 fe 61 ba 76 7c 18 3c
       0.0046450547 -0.15529725 -0.0008621044 0.009307018
000320 6b 7b a1 3a 89 7b d3 bd c8 72 69 bb 5b bd 9f 3b
       0.0012320107 -0.10326297 -0.0035621393 0.004874868
000330 ab b2 39 bd d8 95 51 bb 75 b0 6a bc 12 b0 6f ba
       -0.045336407 -0.0031980183 -0.014324297 -0.0009143363
000340 21 55 de bd df b0 bf bb bb 19 53 3b 83 d0 aa 3a
       -0.10856081 -0.005849942 0.0032211381 0.0013032112
000350 f0 1b 90 b9 15 b4 af bb cf 11 51 bb ec 09 12 bc
       -0.00027486635 -0.0053620436 -0.0031901484 -0.008913498
000360 ed d0 b5 bd 80 bb 0c bc 46 da 44 bd 7a ba e6 bd
       -0.0887774 -0.008589625 -0.048059724 -0.11266036
000370 1e 14 66 bd af cd b8 bd dc 87 1c bb f7 f0 e6 bc
       -0.05617153 -0.09023606 -0.002388469 -0.028191073
000380 05 53 49 bd 6b 80 97 3a 10 96 f3 bb b6 0f 98 ba
       -0.04915144 0.0011558657 -0.0074336603 -0.0011601362
000390 e4 ee 2f bc ed 8f b0 bd 88 cf 33 3b 3d 7b 39 be
       -0.010738108 -0.08621202 0.002743693 -0.18113418
0003a0 07 39 14 bd 35 22 57 bd 24 82 17 be 5c be 04 bc
       -0.036187198 -0.052522857 -0.14795738 -0.008102026
0003b0 aa 6a 86 bb 03 29 b8 b9 79 f9 a5 3b 85 c0 2b 3c
       -0.004102071 -0.0003512577 0.00506514 0.010482912
0003c0 11 b3 34 ba cd 36 29 3c e4 f8 2c bb 78 21 29 bc
       -0.0006893138 0.010328007 -0.0026393468 -0.010322921
0003d0 a4 94 9d ba 3e 7f cd bc de f6 7d bb 05 f5 f0 bb
       -0.0012022448 -0.025085088 -0.003875188 -0.0073534274
0003e0 f9 46 ed 3a 81 42 2a bb e9 8b d4 3a 46 55 7c bc
       0.0018102817 -0.002597958 0.0016216013 -0.01540119
0003f0 7e 14 08 3c 4e 32 46 bb ad 7d e0 3a e2 7c a4 ba
       0.008305667 -0.0030242386 0.0017127298 -0.0012549425

weight_logvar f4 [128, 512]
000000 97 e1 6e 39 f4 1d 51 bc d5 af 6d bc cf 9b bb b6
       0.00022781487 -0.012763489 -0.014507254 -5.591173e-06
000010 60 79 95 3a 94 90 4a 38 a1 40 43 b9 f5 f4 15 ba
       0.001140397 4.8295202e-05 -0.00018620725 -0.00057204004
000020 c5 18 db bb 5d f7 81 b7 5e 95 8d b8 17 98 1e 3a
       -0.0066863024 -1.5493186e-05 -6.751226e-05 0.0006049885
000030 ba bf f8 b7 91 7f 88 b8 29 88 33 b8 d9 b0 04 b8
       -2.9653183e-05 -6.5087464e-05 -4.2803735e-05 -3.1635955e-05
000040 1f 31 c9 b8 e4 b8 82 bd 55 c8 63 bd 26 13 5d b9
       -9.5935764e-05 -0.06382921 -0.055610973 -0.00021083336
000050 de cc a0 39 97 46 de 35 0e f3 2c b9 a8 be 2d 3c
       0.00030670216 1.6560833e-06 -0.00016493743 0.010604538
000060 b7 b7 12 39 ac 8d 05 b6 45 69 90 bc 7b 53 2b bb
       0.00013992084 -1.9901008e-06 -0.017628321 -0.0026142288
000070 11 62 15 bc 75 93 74 b8 e7 20 35 bb 22 26 9d b8
       -0.009117619 -5.8311463e-05 -0.002763802 -7.493446e-05
000080 96 43 78 3a 68 8c a4 ba f5 5a 65 3a be 64 5d 38
       0.00094705203 -0.0012554051 0.00087492104 5.278433e-05
000090 92 1e 17 3c d0 dd c3 38 05 5c fc bb 8f 73 c2 3a
       0.009223597 9.3396404e-05 -0.0077013993 0.0014835465
0000a0 ae de c0 b7 4e 00 79 b8 15 cf 95 bc 01 06 4f 39
       -2.2991877e-05 -5.936651e-05 -0.018287221 0.00019743295
0000b0 4a 19 cb b8 5b 18 c0 3a 87 94 36 ba ca bb 95 b8
       -9.684505e-05 0.0014655696 -0.00069648813 -7.139852e-05
0000c0 56 44 04 ba 71 51 73 b9 e0 e9 d2 b9 92 f9 34 bb
       -0.0005045583 -0.00023204625 -0.00040228572 -0.0027614576
0000d0 ba c3 a2 bc 7b a5 63 b8 f2 6e 03 39 33 49 3a 3a
       -0.01986872 -5.4275133e-05 0.00012534464 0.00071062444
0000e0 7c f2 cd 37 42 a7 d4 36 bf 33 4e b9 49 8e 92 bb
       2.455082e-05 6.3375637e-06 -0.00019664968 -0.004472528
0000f0 d7 ad 13 b8 99 b5 85 39 52 22 7a b5 70 44 c7 36
       -3.5209432e-05 0.00025503038 -9.31822e-07 5.9386293e-06
000100 b4 99 73 bd 8b ec a8 39 e1 af 1c b9 56 dc 51 b7
       -0.059472755 0.00032219695 -0.0001494284 -1.2508672e-05
000110 86 d6 ec 3b 4e 16 2f 38 cd f4 9d b7 e3 d8 29 38
       0.0072277216 4.1744024e-05 -1.8829853e-05 4.049473e-05
000120 2f 8c af 37 8d 8a c6 b5 67 45 10 b8 2f cf d4 bc
       2.0926904e-05 -1.4792473e-06 -3.439691e-05 -0.0259777
000130 2f 6e 6c 36 db d7 93 39 f9 50 25 3a c3 92 04 37
       3.5230876e-06 0.0002819885 0.00063063164 7.901984e-06
000140 4e 92 86 b8 a2 75 a5 39 d3 46 4b bc 28 f7 80 bd
       -6.416869e-05 0.00031558896 -0.0124070225 -0.06297141
000150 c4 86 eb b7 5c 93 fb bc 18 96 70 b9 35 7e 22 3c
       -2.8076938e-05 -0.030709915 -0.00022944098 0.009917785
000160 cd e4 fd 3b af a2 58 38 f5 e4 85 bb 98 af 16 b9
       0.0077482224 5.1649924e-05 -0.0040861317 -0.00014370529
000170 6a cd ab 39 85 a5 96 37 a2 62 f4 b7 49 cf b7 36
       0.00032768707 1.795847e-05 -2.9132996e-05 5.477956e-06
000180 0f de ab bd e3 ff f7 bb c7 7c b2 b8 9c 40 d0 b9
       -0.08391964 -0.007568346 -8.510943e-05 -0.0003972099
000190 bb 4e b6 39 93 dc e1 b9 62 ba 42 b9 32 49 72 37
       0.00034772404 -0.00043079685 -0.00018570715 1.4441366e-05
0001a0 8d c4 21 bd bb 42 74 b7 15 3a 56 ba cf c5 fb 37
       -0.039494086 -1.455907e-05 -0.0008172107 3.0013643e-05
0001b0 f1 5c 42 bc 0e d3 f6 ba 8d b7 1a bb e7 0e 29 bc
       -0.011862979 -0.001883121 -0.002360794 -0.010318494
0001c0 e1 0d a4 b8 d0 dd e5 b8 b2 7c 24 ba bd e0 de 38
       -7.8227145e-05 -0.00010960887 -0.00062746846 0.00010627646
0001d0 7a cf e3 bc 42 d8 87 38 ac c7 aa bc 98 70 7c 36
       -0.027808893 6.477583e-05 -0.020847164 3.7616464e-06
0001e0 19 b3 12 37 8e 40 85 37 99 4e 1f 38 a6 47 29 39
       8.743978e-06 1.5884896e-05 3.7981754e-05 0.00016143787
0001f0 c1 2f 31 b7 77 05 52 bb 1b be f0 bb d1 1d 52 b8
       -1.0561141e-05 -0.0032046714 -0.007346881 -5.009567e-05
000200 64 3e 18 37 3c 3f d7 39 d9 e0 84 3a 61 8d 1d b9
       9.0744325e-06 0.0004105511 0.0010137811 -0.00015025355
000210 4c 11 89 bc f4 dd 64 38 9d 1c 95 b9 f1 70 a6 b7
       -0.01673188 5.4566146e-05 -0.00028440813 -1.9841335e-05
000220 14 f5 d6 b8 32 b4 46 b8 64 2d 7a 37 42 bd 65 38
       -0.000102499645 -4.73747e-05 1.49117295e-05 5.4774115e-05
000230 9a 52 1d ba 34 a9 07 b9 fb f5 40 b7 dc fd 9f bb
       -0.00060013833 -0.00012937636 -1.1501364e-05 -0.0048825573
000240 bd 86 0d b9 00 c3 fd b8 f4 05 94 bc 2d 0e 0d 3a
       -0.00013497002 -0.00012100302 -0.018069245 0.00053808355
000250 b8 10 85 38 c5 f1 0b bc b4 00 6f bc d9 de 99 b7
       6.345048e-05 -0.008541529 -0.01458757 -1.8342793e-05
000260 ff b6 95 bd 17 e3 20 bc b5 36 47 b9 4a 8b 0a 3a
       -0.07310294 -0.009819767 -0.00018998499 0.0005285038
000270 49 91 20 b9 4e 86 c4 b8 f1 2f 32 bc 5e d1 2f 39
       -0.00015312912 -9.3710245e-05 -0.010875688 0.00016767296
000280 fb 48 2c ba ae dc ad 37 b6 c6 95 bc d6 5b 46 bc
       -0.0006572154 2.0725969e-05 -0.01828323 -0.012106856
000290 77 c9 9b 39 59 a1 8b 38 13 52 02 38 8e b7 bb bc
       0.00029714007 6.65809e-05 3.1070853e-05 -0.022914674
0002a0 1f 43 a7 b9 7f de 0c bc 3c 67 b9 bb c1 41 8f b8
       -0.0003190273 -0.008597969 -0.0056580584 -6.831019e-05
0002b0 be c1 99 b8 e6 1a 8b bb 83 34 11 3a 7c 00 84 bb
       -7.331696e-05 -0.00424515 0.0005539136 -0.004028378
0002c0 55 61 27 39 5a 65 be 37 46 bd ae 38 11 5c 78 bd
       0.0001596262 2.269696e-05 8.3322215e-05 -0.060634676
0002d0 0e b7 c9 bc 82 66 2b ba 19 56 94 ba 04 94 29 bd
       -0.02462342 -0.0006538407 -0.0011317163 -0.041400924
0002e0 03 aa 69 bd 86 d5 d0 b8 1f f8 21 39 6a 71 4e 38
       -0.0570469 -9.957985e-05 0.00015446589 4.9219852e-05
0002f0 eb a2 c2 38 3c ff 61 b9 4d 0b 4a b7 b2 bc 8c b8
       9.280987e-05 -0.00021552754 -1.2042769e-05 -6.7108675e-05
000300 d3 8f 8c bc a4 43 17 bc de ea 18 bd f3 ea 0f b9
       -0.017158424 -0.009232435 -0.03733336 -0.00013725068
000310 57 9b 16 37 c6 53 d4 bc a9 51 8d 39 e5 d0 7c b9
       8.976865e-06 -0.025918853 0.00026954457 -0.00024110412
000320 30 93 73 38 db db b3 bc af 46 72 39 b9 a3 56 b8
       5.8072794e-05 -0.021955421 0.0002310525 -5.1174055e-05
000330 60 18 a0 bc 9f bd 51 b7 01 cc 81 37 c6 b0 86 38
       -0.019542873 -1.250152e-05 1.5472995e-05 6.4225445e-05
000340 01 7d f9 bc 62 f2 45 b9 a9 42 56 38 7f 61 1c b9
       -0.030455114 -0.00018877679 5.1083658e-05 -0.0001491364
000350 a5 cc 05 3b 0f 7a bd bb 1a 17 5e b8 05 31 26 38
       0.0020416167 -0.005782373 -5.295044e-05 3.9623137e-05
000360 a4 2c 71 bc d3 18 40 ba e5 cc 84 bc 7e 12 41 bd
       -0.014720116 -0.0007327918 -0.016210983 -0.047136776
000370 96 da 38 bc b2 74 23 bc b3 c8 64 b9 51 70 c0 ba
       -0.011282584 -0.009976553 -0.0002181854 -0.001468191
000380 e3 5d 1c 3a 76 0d 7b b8 0c 56 05 b8 23 74 0f ba
       0.0005964918 -5.98556e-05 -3.178981e-05 -0.0005472323
000390 24 47 ac b8 6c 60 d4 38 bc 35 2e b8 ac 73 94 bd
       -8.21485e-05 0.00010126908 -4.1534877e-05 -0.07248625
0003a0 29 ed 44 bc e5 4e 2c bc 21 a1 f5 bc 71 8d c5 b9
       -0.012019434 -0.010516857 -0.029984059 -0.0003768015
0003b0 cc a3 fd b8 a1 e7 72 b6 cb 13 b3 39 2e bb 24 b9
       -0.0001209449 -3.6195636e-06 0.00034156287 -0.00015709989
0003c0 bc 44 80 b9 a6 b6 af 39 5d 57 fd 39 48 22 67 b9
       -0.00024465274 0.00033514685 0.0004832101 -0.00022042647
0003d0 98 e7 44 b9 96 06 67 38 f0 1e ee b8 03 2c 89 38
       -0.00018778292 5.5080825e-05 -0.00011354487 6.540867e-05
0003e0 af 6c a7 b9 ee 60 2c 38 dc 70 61 b9 c6 e6 01 38
       -0.00031933698 4.109827e-05 -0.00021499716 3.097092e-05
0003f0 fc a5 e9 b7 34 50 87 b7 e2 76 02 3a 52 a6 97 b9
       -2.7853057e-05 -1.6130602e-05 0.00049768214 -0.00028924883

bias_mu f4 [128]
000000 ec 70 54 be 94 a2 75 be ae 12 08 be 73 70 9d bd
       -0.20746201 -0.239878 -0.13288376 -0.076874636
000010 3f 63 9e bd c2 08 80 be 3f 79 ee bd ea 35 20 be
       -0.077337734 -0.25006682 -0.116442196 -0.15645567
000020 4b 75 ef be 93 fc 8e be 1b 48 59 be 4b 58 48 be
       -0.46769175 -0.27927074 -0.21218912 -0.19564931
000030 af 44 92 be 62 b1 3e be de 28 a8 3e e9 cf 72 be
       -0.28568026 -0.18622354 0.3284368 -0.23712124
000040 55 df 8a be 02 50 8d 3e 25 68 71 be 65 b1 22 be
       -0.27123514 0.27600104 -0.23574884 -0.15887983
000050 18 84 94 be fb e4 93 be e6 93 b2 be ef 34 54 be
       -0.2900703 -0.28885636 -0.34878463 -0.20723318
000060 b4 df 36 be 61 1c 85 bc 2c b3 44 be 6f f1 83 3e
       -0.17858773 -0.016248884 -0.19208974 0.25770137
000070 1a f4 4e be aa c8 73 be 1a 10 3d 3c a2 c1 80 be
       -0.20210305 -0.23807016 0.011539483 -0.2514773
000080 c7 cf 07 be 22 77 1e 3c a6 d2 ae be 03 dc b3 bd
       -0.13262855 0.009671958 -0.34145087 -0.08782198
000090 6d 2a 1e bd a6 dd 3b be 08 55 f7 bd 9d f1 36 be
       -0.03861468 -0.18346271 -0.12076765 -0.17865606
0000a0 99 5f 64 be df f9 66 3e 65 44 9a 3d 5e d1 74 be
       -0.22302093 0.22556256 0.075325765 -0.23907992
0000b0 18 9b 5b 3d 66 b2 71 be d6 25 7a be 0d 62 2b be
       0.053614706 -0.2360321 -0.24428496 -0.16736622
0000c0 b2 ba 47 be 89 f3 55 be 0c 8e 08 be 2b f9 36 be
       -0.19504812 -0.20893683 -0.13335437 -0.17868488
0000d0 8b 1c 33 be 1c df 0f 3e 00 bb 37 be 23 ae 04 3e
       -0.17491357 0.14049953 -0.17942429 0.12957053
0000e0 71 59 2a bd ec ca 3c be 45 bb 43 be b5 47 21 be
       -0.041589204 -0.18436784 -0.19114406 -0.1575001
0000f0 88 e6 7e be 46 4e 8a be 74 4a 8e be 46 9b 8c 3e
       -0.24892628 -0.27012843 -0.27791178 0.27462214
000100 0c d2 83 be 00 9e 4b be 7e 97 71 be 93 5b 91 be
       -0.2574619 -0.19884491 -0.23592946 -0.28390178
000110 18 35 2e 3d 3b 57 b3 bc 02 7e 86 be 48 8b 10 be
       0.042531103 -0.02189218 -0.2626801 -0.14115632
000120 09 eb b0 be f7 00 55 be ac 00 98 be 5e 7c e4 3e
       -0.34554318 -0.2080115 -0.29688013 0.44626135
000130 0c c3 9c bd 0c 7d 3c be 9d f3 37 bd c5 9d 70 be
       -0.0765439 -0.18407077 -0.044910062 -0.23497684
000140 3b 08 28 be 98 f4 01 be b9 4d 6a be e5 c7 39 be
       -0.1640939 -0.12690961 -0.22881211 -0.1814266
000150 b6 5d 64 be 8f fa 16 be 2f 01 6b be e5 7a 28 be
       -0.22301373 -0.14744018 -0.2294967 -0.1645313
000160 04 39 ea bd 10 e5 4d be fc d7 ad 3c 43 a6 53 bd
       -0.11436656 -0.20106912 0.021221153 -0.05167223
000170 2d 02 b8 bd 06 4e e4 bd a2 30 57 be d2 9a bd bd
       -0.0898479 -0.11147694 -0.21014646 -0.09258045
000180 37 ff 92 be 87 5a de 3c 5c a1 41 3e 48 d6 71 3e
       -0.28710338 0.027142776 0.1890921 0.23616898
000190 20 21 91 be fd f7 15 be 65 95 8c 3d dc a0 4c 3d
       -0.28345585 -0.14645381 0.06864432 0.049958095
0001a0 c2 8d 71 be 30 62 24 be 34 10 93 be 7c fb 6d be
       -0.23589233 -0.1605308 -0.287233 -0.23240465
0001b0 93 cd 26 be 36 80 86 be 79 27 23 be 3b 79 60 be
       -0.16289358 -0.26269692 -0.15933026 -0.21921246
0001c0 e2 45 50 be 22 dd b1 bc 35 de 63 be 4d 86 1c be
       -0.20339158 -0.02171189 -0.22252734 -0.15285607
0001d0 6d 84 41 be 7b 31 3d 3e c8 d3 92 3d f1 75 03 be
       -0.18898173 0.18475907 0.071693 -0.1283796
0001e0 4a 40 60 be 02 87 85 be 31 3c 17 be 74 9c 64 be
       -0.21899524 -0.26079565 -0.14769055 -0.22325307
0001f0 d5 86 81 be 19 2e 43 be a3 75 cb be da f1 88 be
       -0.2529818 -0.19060554 -0.39738187 -0.26747018

bias_logvar f4 [128]
000000 f4 74 52 bd db fe 90 bd 20 9a 99 c0 e8 89 aa be
       -0.051381066 -0.0707986 -4.800064 -0.3330834
000010 42 d4 5c bd 5c cd d4 bd a7 f4 95 bd 3e 6a 38 bd
       -0.053913362 -0.10390732 -0.07322054 -0.045023195
000020 6e 03 41 be e8 73 9c bd f4 fe 4c bd fa 48 43 bd
       -0.18848965 -0.07639295 -0.05004783 -0.047677018
000030 0b 63 8d bd 77 56 69 bd 04 d6 49 bf 99 4a 82 bd
       -0.069036566 -0.056967225 -0.78842187 -0.063618846
000040 1f 97 79 bd 8c 95 97 bf 96 c4 90 bd c3 41 0f bd
       -0.060935136 -1.1842513 -0.07068746 -0.034974825
000050 6c 09 ac bd e3 0a 82 bd 8f ab e2 bd 17 d9 26 bd
       -0.084002346 -0.06349733 -0.110678785 -0.040734377
000060 61 b7 07 bd 64 ee b9 be 07 f8 3a bd 98 61 85 c0
       -0.033133868 -0.3631469 -0.045646694 -4.1681633
000070 3c fa 32 bd a0 83 98 bd ea 75 ba bc 37 f4 9c bd
       -0.043695673 -0.074469805 -0.022761304 -0.07663768
000080 2a 11 d1 bc d8 f6 30 bf 52 58 f5 bd 77 e7 e1 bc
       -0.02552088 -0.69126654 -0.119797364 -0.027576191
000090 b1 ee 00 bf bb ac 25 bd d9 90 42 be b2 57 49 be
       -0.50364214 -0.04044793 -0.19000567 -0.1966236
0000a0 f1 4e 6c bd 65 69 3d c0 6c 89 52 c0 f9 9a 8c bd
       -0.057692472 -2.9595578 -3.2896376 -0.06865496
0000b0 2a 98 87 bf b0 09 34 bd d7 ec 92 bd 8c ad 41 bd
       -1.0593312 -0.04395455 -0.0717408 -0.047284648
0000c0 ea f4 26 bd 33 a1 7e bd 01 32 fa bc 89 d1 03 bd
       -0.040760912 -0.06216545 -0.030541422 -0.03218225
0000d0 69 c9 8c bd 7c 6a 50 c0 af ad 56 bd 19 7f cd bf
       -0.068743534 -3.2564993 -0.05241173 -1.6054412
0000e0 7e 0d 80 bf 5f 1a 2d bd fd b2 4d bd 53 a4 1c bd
       -1.0004117 -0.042261478 -0.050219525 -0.03824265
0000f0 15 04 98 bd 0d cf bd bd 2b 1e a3 bd ff c4 42 c0
       -0.074226536 -0.092680074 -0.079647385 -3.0432737
000100 c0 0b 88 bd 8e 75 26 bd 02 8c 97 bd 91 8f 97 bd
       -0.06642866 -0.040639453 -0.07399751 -0.0740043
000110 6a f8 88 c0 75 1f 03 bd c3 ab c7 bd 11 e9 20 bd
       -4.280324 -0.03201242 -0.09749558 -0.03928477
000120 40 4d ef bd fe ab 50 bd b6 d5 ad bd 12 a0 73 c0
       -0.11684656 -0.050945275 -0.08488028 -3.806645
000130 85 d2 03 bd df d8 68 bd f1 11 61 bd 4f b2 65 bd
       -0.03218319 -0.05684745 -0.05494875 -0.05607825
000140 12 9b 1c bd 13 09 a7 be b7 38 98 bd 03 6e 71 bd
       -0.038233824 -0.3262411 -0.074326925 -0.058942806
000150 9b b8 5e bd 82 e9 14 bd d1 1c a9 bd 94 15 12 bd
       -0.054375272 -0.036355503 -0.082574494 -0.03566511
000160 8c df 2e bd 18 b5 20 bd 96 fc 06 be ff b8 47 bf
       -0.04269366 -0.039235204 -0.13182291 -0.78016657
000170 4f a9 b3 be 90 5c 63 bd fe 68 8e bd c1 a8 ae bc
       -0.3509011 -0.055508196 -0.069536194 -0.021320703
000180 8b b8 b0 bd c2 5e 2e c0 91 ae 11 c0 a0 38 a3 bf
       -0.08628949 -2.7245336 -2.2762797 -1.2751656
000190 55 dd b9 bd 09 54 92 bc 3f 27 14 c0 98 ca 9b be
       -0.09075419 -0.017862337 -2.3148954 -0.30428004
0001a0 77 1e 72 bd 0f 15 e0 bc 56 a4 c9 bd 03 f2 84 bd
       -0.059111085 -0.027353792 -0.09845798 -0.064914726
0001b0 a6 b4 e4 bd fc ab b1 bd 1b 7f 3f bd fd 9a 87 bd
       -0.111672685 -0.086753815 -0.046752077 -0.066213585
0001c0 4d 90 2e bd 4a 2c f4 bd c7 4f 42 bd 5e 6a 2c bd
       -0.042618085 -0.1192251 -0.047439363 -0.042093627
0001d0 95 6f 4e bd 25 52 74 c0 ce d0 9d bd 3c 25 d7 bc
       -0.05039938 -3.8175137 -0.07705842 -0.026262872
0001e0 b8 7a 37 bd fe b2 c7 bd ba f1 a0 bc d5 b4 84 bd
       -0.044794768 -0.09750937 -0.019646514 -0.064798035
0001f0 22 22 94 bd 67 30 2c bd e6 84 0b be aa 98 c4 bd
       -0.07233073 -0.042038348 -0.13624915 -0.09599431

z_mu f4 [128]
000000 79 4b 9f bc 1d 70 45 3b ac be 4d 3f 37 55 71 3e
       -0.019445168 0.003012664 0.8036907 0.23567663
000010 1e 51 88 3c 31 7b 19 3b d0 0b 35 3d 3d 0f d0 bb
       0.016640242 0.0023419375 0.04420072 -0.006349473
000020 75 04 1c bc 80 05 44 3b e9 0a 08 bc 0d ca fa bb
       -0.009522547 0.0029910505 -0.008303382 -0.007653481
000030 9e 3b 42 3b ed ed 80 ba 73 f8 3a 3e 13 a7 5d 3b
       0.0029637585 -0.0009836532 0.18258838 0.0033821508
000040 98 1a 1c bb 2e 41 91 3e d2 97 33 3a 35 73 e1 3a
       -0.0023819562 0.2837004 0.0006850931 0.0017200472
000050 14 3c 37 3c 7b 09 9d 3c 96 92 a2 ba 62 ec de bb
       0.011183757 0.01916956 -0.0012403305 -0.0068030814
000060 16 78 c5 bb f9 c9 f7 3d 1d 5c 2d 3b 02 58 26 3f
       -0.0060262782 0.1209907 0.002645261 0.6497804
000070 ce 26 1e bc 97 36 15 bb 0f 59 a3 3b d0 c8 ba 38
       -0.009652806 -0.0022768134 0.004984982 8.9065754e-05
000080 59 58 d7 3b 48 80 b3 3e 92 c2 ea bc c9 0b 7e bc
       0.006571811 0.35058808 -0.028657231 -0.0155057395
000090 3a 9e e3 3d c4 f2 fa b9 91 30 13 3e a3 db da 3d
       0.11114164 -0.0004786459 0.14373995 0.10686424
0000a0 34 f6 54 3c 90 e5 f3 3e 3f 0f 0e 3f 5d f1 1d 3c
       0.0129981525 0.4763608 0.55492014 0.009640065
0000b0 82 1c e9 3e 44 33 10 bc c0 43 37 3a 09 25 ef bb
       0.45529562 -0.008801285 0.00069909915 -0.007298116
0000c0 2b 42 ce bb 99 94 4e 3c e9 f8 35 b9 cf 67 0d 3c
       -0.006294509 0.012608671 -0.00017354231 0.008630707
0000d0 3d e2 eb bb 89 81 3c 3f 34 6f 1c 3c 03 e8 81 3e
       -0.0071986006 0.73635155 0.009547997 0.25372323
0000e0 3a dc 94 3e 21 6f ec 39 db b8 75 bb 39 e5 d8 bb
       0.2907427 0.00045096225 -0.0037494216 -0.0066191223
0000f0 47 71 7a 3b 9e c5 7a 3b 4b 60 23 bc 7a da e1 3e
       0.0038214491 0.0038264762 -0.0099716885 0.44111997
000100 9a 0a 32 bc e7 e7 75 ba 6e fa c7 bb 8e a7 8f 3c
       -0.010866785 -0.00093805644 -0.0061028516 0.017535951
000110 c7 99 4b 3f 61 b2 20 3c cf e4 2a 3c 02 68 27 bc
       0.7953152 0.009808154 0.010430529 -0.0102176685
000120 46 d7 88 3c ad cf b2 bb 1b 22 00 3c 90 44 37 3f
       0.016704213 -0.005456886 0.007820631 0.71588993
000130 a9 db 85 bb a9 ba d1 3b 45 2b 27 3d 47 70 92 3b
       -0.0040850234 0.0064004255 0.04081275 0.004468951
000140 11 d6 bf ba b1 e9 21 3e c9 91 0e 3c c6 cb 40 bb
       -0.001463594 0.15811802 0.00870175 -0.0029418333
000150 78 9b 7b ba 02 57 7c bb 1d e0 5a 3b 61 de 92 bb
       -0.0009598057 -0.003850401 0.0033397742 -0.004482076
000160 f6 2a 5f bb 05 88 90 bc 0c 1f 01 3d a1 55 a5 3e
       -0.0034052706 -0.017642984 0.03152375 0.32291892
000170 a1 4b 9c 3e e7 ee d3 3c 55 8f 23 bc 8f dc cb bb
       0.3052645 0.025870753 -0.0099829035 -0.006221361
000180 71 58 a5 bb 3d d8 3d 3f ec 56 ec 3e 32 4a 91 3e
       -0.0050459434 0.7415808 0.46160066 0.2837692
000190 41 f2 16 3c 3d 22 c6 ba 27 77 5a 3f 76 8b 55 3e
       0.009213031 -0.0015116405 0.8533806 0.20853981
0001a0 8b 6e ce bb 96 04 c7 3a da 51 f0 3c e0 c2 d3 38
       -0.006299799 0.0015183862 0.029335905 0.00010097562
0001b0 bc 4e b2 3d df f9 77 3b 5b 89 12 bb 9e 68 19 bc
       0.08706424 0.0037838144 -0.0022359702 -0.009363322
0001c0 2e c5 ea 3a d2 5f 1e 3d 88 c9 76 3c b2 6f 0d 3c
       0.0017911547 0.0386656 0.015062697 0.008632587
0001d0 22 0a 22 bb a1 5c 67 3f 13 eb bd 3c 1f ec b7 3c
       -0.0024725278 0.90375715 0.023183381 0.022451458
0001e0 31 5b cf 3b 1c b9 a7 b9 27 3b bb b9 15 14 8d 3b
       0.0063280095 -0.0003199064 -0.0003571149 0.0043053725
0001f0 6f 60 a0 bb 14 8e ab 3c 39 61 ed 3a 4c 05 3a bb
       -0.0048943083 0.020941772 0.001811064 -0.0028384505

z_logvar f4 [128]
000000 9f 11 e8 c0 52 0b e3 c0 4b 91 07 c1 3c 91 ce c0
       -7.252151 -7.095132 -8.472972 -6.455229
000010 f8 0b dc c0 12 c5 e5 c0 60 2e c3 c0 38 f9 e5 c0
       -6.876461 -7.1803064 -6.099411 -7.186672
000020 16 63 91 c0 e2 bb c7 c0 0d c3 e8 c0 4a 69 10 c1
       -4.5433455 -6.241685 -7.27381 -9.025705
000030 00 20 be c0 b4 04 1d c1 19 e7 f5 c0 10 d8 c5 c0
       -5.9414062 -9.813648 -7.68446 -6.182625
000040 00 01 fc c0 b3 0e ee c0 81 24 b2 c0 8b f3 e1 c0
       -7.875122 -7.4392943 -5.566956 -7.0609794
000050 0d ce c5 c0 5f 49 b4 c0 57 35 c7 c0 eb 7e c8 c0
       -6.1814027 -5.6339564 -6.225261 -6.265493
000060 11 49 e4 c0 12 0a d5 c0 06 39 e4 c0 86 f6 01 c1
       -7.1339192 -6.6574793 -7.131961 -8.122686
000070 d5 c0 cd c0 8b 0e dd c0 36 7a df c0 07 96 d4 c0
       -6.429789 -6.9080253 -6.9836683 -6.643314
000080 9f 82 1f c1 72 d5 dc c0 20 f3 ad c0 57 ed ea c0
       -9.96939 -6.9010553 -5.4359283 -7.341472
000090 7c 00 f7 c0 07 71 16 c1 5a 2c b2 c0 e7 2b c2 c0
       -7.718809 -9.402595 -5.567914 -6.067859
0000a0 1d 87 d2 c0 86 71 03 c1 1f 3d 03 c1 3d a4 db c0
       -6.5789933 -8.215216 -8.202422 -6.8637986
0000b0 4d 9e d1 c0 d9 8e b6 c0 44 42 cb c0 c6 37 d8 c0
       -6.550574 -5.7049375 -6.351839 -6.7568083
0000c0 3a ca dd c0 9a 69 c1 c0 67 41 23 c1 16 77 db c0
       -6.930936 -6.044141 -10.203467 -6.858287
0000d0 d8 98 d4 c0 b7 15 f9 c0 af de d7 c0 67 e5 01 c1
       -6.6436577 -7.7839007 -6.745933 -8.118506
0000e0 8a 3b e2 c0 39 7f de c0 ab 84 d7 c0 c8 94 dd c0
       -7.069768 -6.95303 -6.734945 -6.924412
0000f0 5a 1c c1 c0 66 29 e2 c0 74 b8 d9 c0 03 c8 03 c1
       -6.034711 -7.0675535 -6.8037663 -8.236331
000100 14 d9 d2 c0 f7 43 c6 c0 a6 ba e0 c0 48 e7 bf c0
       -6.588999 -6.1957965 -7.022784 -5.9969826
000110 85 7e 06 c1 3b e0 e5 c0 79 c4 bd c0 4d 40 ea c0
       -8.405889 -7.183622 -5.9302335 -7.320349
000120 80 50 a1 c0 48 9b 12 c1 7d b1 b0 c0 d8 4b 05 c1
       -5.0410767 -9.16291 -5.521666 -8.331017
000130 ef 0c e5 c0 12 19 d7 c0 14 5e d8 c0 52 2f c8 c0
       -7.157829 -6.7218103 -6.761484 -6.2557764
000140 88 39 e1 c0 dd da cc c0 b5 76 ca c0 3f 9f e5 c0
       -7.038273 -6.4017167 -6.3269906 -7.175689
000150 91 ac dc c0 39 df d3 c0 10 c9 e2 c0 04 26 19 c1
       -6.896065 -6.620999 -7.087044 -9.571781
000160 03 cd e2 c0 4c 20 d0 c0 38 d6 eb c0 c3 a2 d7 c0
       -7.087526 -6.5039425 -7.3698997 -6.7386184
000170 57 f9 b6 c0 c7 49 c0 c0 5a 8a cd c0 4d 7c e0 c0
       -5.717937 -6.009006 -6.4231386 -7.0151734
000180 ab de c3 c0 e7 95 e2 c0 2a bd f4 c0 5a 35 f4 c0
       -6.120931 -7.0807986 -7.6480913 -7.6315126
000190 90 cc b2 c0 8c a6 de c0 dd 7e d4 c0 98 ea e1 c0
       -5.587471 -6.9578304 -6.6404862 -7.059887
0001a0 4d d0 cf c0 53 41 19 c1 c9 c9 c2 c0 c6 a9 0e c1
       -6.4941773 -9.578448 -6.087132 -8.916449
0001b0 1c 09 c9 c0 af 57 cc c0 c1 54 d3 c0 e7 45 d9 c0
       -6.282362 -6.3857036 -6.604096 -6.789783
0001c0 14 0d e7 c0 0d b9 df c0 b3 3e d1 c0 f2 21 c9 c0
       -7.2203465 -6.991339 -6.5389037 -6.2853937
0001d0 61 ae 17 c1 0a 3c 02 c1 5e c4 de c0 29 a8 b2 c0
       -9.480073 -8.139658 -6.9614706 -5.5830274
0001e0 28 b1 c8 c0 29 6b cf c0 74 47 d1 c0 84 d0 0f c1
       -6.2716255 -6.481831 -6.5399723 -8.988407
0001f0 e6 e1 05 c1 46 ad de c0 7d be 93 c0 75 f2 04 c1
       -8.367651 -6.9586515 -4.617003 -8.309194

weight_mu f4 [10, 128]
000000 e1 d8 60 3d 88 2c 8b 3d 0b 06 1f be a3 93 1f bd
       0.05489433 0.06795603 -0.15529649 -0.038959157
000010 f3 43 20 be b1 13 8b bc 2b 48 b9 bd 2f 74 93 bd
       -0.1565092 -0.016977163 -0.09046968 -0.07199895
000020 5c 76 1b 3d 06 36 16 3b 17 9d 53 3d be bd d5 3d
       0.037954673 0.0022920384 0.051663484 0.10436581
000030 ca 46 e0 bc 08 85 73 bb c0 f0 ed bd 7e 49 c6 3b
       -0.027377505 -0.003715815 -0.11618185 0.0060512414
000040 9c 28 24 3d 89 42 05 bd 17 1c a0 bd 3f 70 17 3d
       0.04007779 -0.032534156 -0.07817858 0.03697228
000050 76 d1 61 bd 50 6e b3 bc 89 0c 3b 3b 87 6b 03 3b
       -0.0551314 -0.021903187 0.0028541407 0.0020053105
000060 41 6e 8a 3b 70 8f 13 3e 03 5f 3f 3d 23 8e 04 3e
       0.004224569 0.14410186 0.04672147 0.12944846
000070 af 88 d3 bd 5a 21 39 bd fd e2 3d bd e4 47 45 bc
       -0.10328805 -0.045197822 -0.04635905 -0.012041066
000080 97 87 80 bd c8 da 82 bd d6 e3 0f bc af 9f 89 3c
       -0.06275862 -0.063893855 -0.008782348 0.016799776
000090 f5 89 0b bd 77 3c 2e 3d a5 81 35 3b cd 29 03 bd
       -0.034067113 0.042538133 0.0027695682 -0.032022286
0000a0 28 49 e5 bc ea f4 88 be 17 e5 8a bd 73 ef 20 3e
       -0.027988985 -0.26749355 -0.06781977 0.15716343
0000b0 fd ad f3 bd f1 da 13 be e0 40 30 3d e8 fb 4c bc
       -0.1189842 -0.14438988 0.04303062 -0.012511231
0000c0 95 56 d5 3d d9 db 7e be b5 46 3f 3d 08 36 99 bc
       0.10416905 -0.24888553 0.04669829 -0.018702522
0000d0 5d 49 9c bb 27 af e2 bd d2 98 05 be be b8 c8 be
       -0.004769488 -0.11068564 -0.13046578 -0.39203447
0000e0 34 3a 3c bd 21 59 8f bd b7 c0 a4 bd fa 5c b6 bd
       -0.045953944 -0.06999422 -0.0804457 -0.089044526
0000f0 dd 7b e9 bd ef 88 aa bc f0 1a 43 bd 18 ad 48 be
       -0.11400578 -0.020817248 -0.04763311 -0.1959728
000100 ab 80 31 3c c9 1e 20 bb 4c 1a 4b bd 29 fa 8f bd
       0.0108338995 -0.0024432412 -0.049585626 -0.07030136
000110 b7 85 29 be 89 23 1d be 74 5f 9e 3b 9d 8e bb ba
       -0.16554914 -0.15345587 0.0048331562 -0.001430947
000120 9b e0 41 bd 3a 1e 04 be 72 22 0c 3d c9 8e a1 bd
       -0.04733334 -0.12902156 0.034212537 -0.07888562
000130 d1 b2 7d b9 00 2c 8e 3d 8e 46 20 bc b4 fd 96 bd
       -0.00024194575 0.06941986 -0.009782447 -0.07372609
000140 42 ba 32 bd 6b 81 1b bd 35 d3 52 3d 94 16 a2 bd
       -0.04363466 -0.03796522 0.051470954 -0.07914463
000150 36 34 04 be c1 1d 78 bd 11 9e 6a 3d f3 3b ba 3d
       -0.12910542 -0.06057525 0.05727965 0.09093466
000160 e5 6c 62 bd 73 77 c9 bc 8b 94 e1 bd 48 b0 28 bd
       -0.05527963 -0.02459309 -0.110146604 -0.04118374
000170 f5 da 19 be a6 de b7 bd b0 92 12 3e 3f f3 7d bd
       -0.15024932 -0.08978014 0.1431377 -0.061999556
000180 95 3f a6 bd 64 78 c5 bd ce 23 ea bd 83 cb 12 be
       -0.08117596 -0.09642103 -0.114326105 -0.14335446
000190 55 14 05 bd c5 0c 37 3d 78 6d 3f be 46 9c 9a 3d
       -0.032490093 0.044689912 -0.18694103 0.07549338
0001a0 35 fd 85 bd 6b 59 ac bd 01 44 3a 3d fd 36 7c bd
       -0.06542436 -0.084154926 0.04547501 -0.06157588
0001b0 2d e0 91 39 8f c7 c0 3c d3 b9 df 3c 9e db 8c bd
       0.0002782358 0.023532657 0.027310288 -0.06877826
0001c0 86 c7 df 3c 4d 48 c5 bd 1a 20 f5 3d 0c 85 01 be
       0.02731682 -0.09632931 0.119690135 -0.1264841
0001d0 1e 85 4d bd c9 00 04 3f c1 fe fa bd 02 d0 16 bc
       -0.05017578 0.515637 -0.12255622 -0.009204866
0001e0 8f 45 a4 bd 97 44 1e bb 72 32 13 3c 6a 68 83 3d
       -0.0802108 -0.002414977 0.008984195 0.064164
0001f0 66 18 32 3d 38 f5 60 3d 0e d8 ec bd 89 6e 36 3d
       0.0434803 0.05492136 -0.11564647 0.04453901
000200 d5 e4 7e bc a0 c8 bf bd 5a 6a 2b be 73 b6 0a bd
       -0.0155574875 -0.09364438 -0.16739789 -0.033865403
000210 eb 9d 06 3e 02 6c 26 3d e6 bc ec bd c5 8b 9f be
       0.13146178 0.040630348 -0.11559467 -0.31161323
000220 e6 eb 04 bb 55 1e b2 3d 00 07 0a bd 3d 9e 6e bc
       -0.0020282208 0.086971916 -0.033698082 -0.014564094
000230 ab c9 c4 bc a2 cf 0d 3d c2 1c e6 bd d3 20 a4 3c
       -0.024021944 0.034621842 -0.11235954 0.020035183
000240 07 3b b0 3b 4f 1c 9b bd 24 b4 7c 3e be c0 05 be
       0.0053781304 -0.07573759 0.24678093 -0.13061807
000250 77 83 8a 3d 85 74 d6 bd 6d 00 39 bd c3 ce 4f 3e
       0.06763356 -0.10471443 -0.04516642 0.20293717
000260 fe 93 d0 3d bb 47 01 3c aa b8 f6 3d 46 21 ca be
       0.10184477 0.007890637 0.120469406 -0.3947851
000270 d9 d1 a6 3a b3 14 9c bd 3d 8a e2 3c 8d 67 88 bd
       0.0012727334 -0.076211356 0.027653808 -0.06660376
000280 f5 8f 81 3b d4 96 d1 3e 54 d3 01 be a4 54 55 be
       0.0039539286 0.40935385 -0.12678272 -0.20833069
000290 4e 52 1f bc 16 20 51 3b ae 22 12 3e 3d 8e dd 3d
       -0.009724213 0.0031909994 0.14271042 0.108181454
0002a0 3d 1d b9 bd 26 14 ac be fb c5 6c be 74 af 68 3d
       -0.0903878 -0.33609122 -0.23122399 0.05680795
0002b0 c5 8d 02 3e 4c 26 85 bd dc 70 19 bb d5 ca 78 3e
       0.12749393 -0.06501445 -0.0023413217 0.24296124
0002c0 33 64 e4 bd 31 ed a0 3d ae 7d c5 bd 1c 44 f6 3d
       -0.11151924 0.07857741 -0.09643112 0.120247096
0002d0 4a 27 6d ba 04 b8 41 be 99 bc b0 3d 0a 12 42 be
       -0.0009046687 -0.18917853 0.08629722 -0.18952194
0002e0 b0 a0 2e 3e 95 ad 48 3d ce 97 c3 bd 11 e6 9b bd
       0.17053485 0.048993666 -0.09550439 -0.07612241
0002f0 76 4e 46 3c 52 70 db bc 91 09 3d 3b 2f 90 dd be
       0.0121036675 -0.026786957 0.0028844813 -0.43274066
000300 c7 21 a8 bd 5f d0 f9 3d ad b0 47 be 93 29 07 3e
       -0.082095675 0.12197947 -0.1950099 0.13199453
000310 0f 69 f8 bd 45 25 7e bd 2a d0 09 bc 45 66 95 be
       -0.12129413 -0.06204726 -0.008411447 -0.29179588
000320 c8 ee 41 bd 20 b1 21 3d 2d ae 71 bd f4 a0 80 be
       -0.04734686 0.03947556 -0.059003998 -0.25122797
000330 71 38 cc bc 15 1b f5 bd 53 56 1e 3e 42 15 87 bd
       -0.024929257 -0.11968056 0.15462618 -0.065958515
000340 ee 1d 5d be a9 e8 b8 bc a3 12 28 be 27 25 f8 b9
       -0.21593449 -0.022571879 -0.1641336 -0.00047329927
000350 54 43 d1 3c 4c 0c 2e 3b ec 37 28 be d0 7a a4 bd
       0.0255448 0.0026557622 -0.16427583 -0.08031237
000360 5e 5c 7d be 46 6d 06 3e 9d 30 06 be b5 05 6d bc
       -0.24742267 0.13127622 -0.13104482 -0.014466693
000370 30 85 8c 3e 97 b8 5e 3e ae 37 e7 bd a7 7e 70 3d
       0.27445364 0.21750103 -0.11289917 0.058714535
000380 4f 76 9b 3d 76 28 12 be ac 1e 56 be bd 53 bc be
       0.07590925 -0.14273247 -0.20910138 -0.36782637
000390 ae 49 3a bd 57 3a 48 3a 0a de fd 3e 32 80 98 bb
       -0.045480423 0.0007638088 0.49583465 -0.004653954
0003a0 24 df 82 3d 6d 95 14 bb f6 6a 18 3e 95 4b 1d bd
       0.06390217 -0.0022672073 0.14884552 -0.03840216
0003b0 ac 94 da bc 84 ca 78 bd bc ca 35 bd 84 54 98 3d
       -0.02668222 -0.06074001 -0.044382796 0.07437995
0003c0 e2 ae 58 3d 81 3c 15 bd f7 0a ea bc 7b 6b 8e 3e
       0.052901156 -0.036434654 -0.028569682 0.27816376
0003d0 9d 92 2c bd b0 0e 52 be bd 62 8a 3c 86 bc 86 3e
       -0.04213201 -0.20513415 0.016892785 0.26315707
0003e0 0b ae 57 bc 03 37 2b be bd e3 1f bc ca 4a 07 3d
       -0.013164054 -0.16720204 -0.009758887 0.03303031
0003f0 36 bf 55 3d c4 6e 3d be f2 01 38 3d 62 30 de bd
       0.052184306 -0.18499285 0.04492373 -0.10849072
