metric/auxillary_probe_cifar10_sample.pth (torch, 547843 bytes, 12 tensors)

z_mu f4 [512]
0	0xbad817ec	-0.0016486621
1	0x3ac928e3	0.0015347268
2	0x3b70c4e0	0.003673844
3	0x3f2adef5	0.66746455
4	0x3a5f53c4	0.0008519257
5	0xb8f0f73f	-0.00011490145
6	0xbaaaa30b	-0.0013018561
7	0x3b95f9b2	0.004576885
8	0x3b461a62	0.0030228128
9	0x3c1c2a92	0.009531634
10	0xb9a8d2ce	-0.0003220052
11	0xbaf87a07	-0.0018957265
12	0x3b157973	0.0022807985
13	0x3dc4f1cb	0.09616431
14	0x3b04fdaa	0.0020292797
15	0x3ee8a777	0.45440266
16	0x3ec70509	0.3887103
17	0x3bd6f5ec	0.006560078
18	0x39aa4815	0.00032478632
19	0xb824bb40	-3.9275037e-05
20	0x3b9a3896	0.0047064526
21	0xbaba7611	-0.001422586
22	0x3ae1fb9a	0.0017241121
23	0x3f35d8aa	0.7103373
24	0x3e764abe	0.2405195
25	0xbae16d87	-0.0017198779
26	0xbae97969	-0.0017812672
27	0x3f450e02	0.769745
28	0x3cbd0366	0.02307291
29	0x3f81d216	1.0142238
30	0x3aa88e48	0.0012859786
31	0x3f6546b2	0.89561
32	0x3ea4f5e2	0.32218844
33	0x3aa3d762	0.0012500102
34	0x3f9c97cb	1.2233824
35	0x3f440a37	0.76578087
36	0x3af24d88	0.0018486241
37	0x3c1764a0	0.009240299
38	0x3f960d17	1.1722745
39	0x3f482ac9	0.78190285
40	0x3cd799d5	0.02631847
41	0x3bcfe061	0.0063438867
42	0x3b853c04	0.0040659923
43	0x3a95d586	0.0011431433
44	0x3b350f42	0.0027627503
45	0xbaa91762	-0.0012900645
46	0x3e888320	0.2666254
47	0x3e01d765	0.12679823
48	0x3fb2570c	1.3932815
49	0x3ee65326	0.44985312
50	0xba33a6ed	-0.0006853182
51	0x3e427e37	0.1899346
52	0xbb0cde42	-0.002149478
53	0x3d8fd8a4	0.07023743
54	0x3b9bc599	0.00475378
55	0x3ab282ea	0.0013619338
56	0x39e0e2e1	0.00042893647
57	0xb9277c45	-0.00015972655
58	0x3c64fe6f	0.013976677
59	0x3f2047b5	0.62609416
60	0xb92c8ff1	-0.0001645682
61	0x3b0c266f	0.0021385213
62	0x3c9729b1	0.018452497
63	0x3fed4995	1.853808
64	0x3f1080f1	0.5644675
65	0x3eb64966	0.35602874
66	0x3f721b4f	0.9457292
67	0x3e292769	0.1651894
68	0x3aa4e63b	0.0012580821
69	0x3e9fe2fb	0.3122786
70	0x3f4024ee	0.7505635
71	0x3cf95a9e	0.030438717
72	0xb9868c51	-0.00025663016
73	0x3f9e9f28	1.2392321
74	0x3f39782d	0.72449
75	0x3c9b0379	0.018922554
76	0x40149032	2.321301
77	0xbb8bf309	-0.0042709154
78	0xbb186b90	-0.0023257472
79	0x3b8eb262	0.004354761
80	0x3cb26ddf	0.021780906
81	0x3faac614	1.3341699
82	0x3c60d622	0.013722928
83	0xb9fee3f7	-0.00048616502
84	0x3eea59cd	0.45771638
85	0x3f131805	0.57458526
86	0x3f9c1d97	1.219653
87	0x3aa4e3f6	0.0012580145
88	0x3e08154e	0.13289377
89	0x3f2414cc	0.64094234
90	0x3f31664c	0.6929672
91	0xb9ce613f	-0.00039363836
92	0x3d1866d6	0.037207447
93	0x3bb3b3fe	0.005484103
94	0x3f78ca65	0.9718383
95	0x3f4ce768	0.800406
96	0x3fdd413c	1.7285533
97	0x3a4a6fc3	0.0007722342
98	0x3c249e96	0.010047575
99	0x3f88d92c	1.0691276
100	0x3a204816	0.0006114257
101	0x3b13ea42	0.0022570048
102	0x3f0f4cc3	0.55976504
103	0x3ea30281	0.31837848
104	0x3b799349	0.0038082174
105	0xb99d2d18	-0.0002997897
106	0x3e865fc5	0.2624494
107	0x3fdb1ce4	1.7118192
108	0x3b518056	0.0031967363
109	0x3e41ba06	0.18918619
110	0x3b8911b9	0.004183021
111	0x3f7a3021	0.9772969
112	0x3a59797b	0.0008295995
113	0x3eecc2ae	0.4624228
114	0x3baea2eb	0.00532948
115	0x3c62528d	0.013813627
116	0x3f4d78bb	0.80262345
117	0x3ccf3e77	0.02529834
118	0x3bf81cd6	0.007571797
119	0xbb12e4a5	-0.0022414115
120	0x3ef06b05	0.4695665
121	0xba19ae55	-0.00058624643
122	0x39b294d3	0.00034061688
123	0x39a74f73	0.00031911916
124	0x3e34e702	0.17666247
125	0x3f98fc7e	1.1952055
126	0x3f152b7c	0.58269477
127	0xb975848d	-0.000234144
128	0x3f9c2487	1.2198647
129	0x3d895e7d	0.06707475
130	0x3a1d0194	0.000598931
131	0x3b66ea26	0.0035234778
132	0x3b7fcf10	0.003903333
133	0x3ba94715	0.0051659443
134	0x3f011385	0.5042041
135	0x3b9790b5	0.0046254047
136	0x3ba2d970	0.004969768
137	0x3c0fe68d	0.008782995
138	0x3f500104	0.8125155
139	0x3ee5bdad	0.44871274
140	0x3a133c06	0.0005616549
141	0x3a12622c	0.0005584087
142	0xb995e4a8	-0.00028589857
143	0x3f00c596	0.5030149
144	0x3f3de9c5	0.7418483
145	0x3f093ca7	0.53608173
146	0xbaa9c3e0	-0.0012952052
147	0x376ca12d	1.4104223e-05
148	0xb9425735	-0.00018533769
149	0xbafcfa9c	-0.0019300762
150	0xbac3993a	-0.0014922984
151	0x3dc9cfb4	0.09854069
152	0xbb84812a	-0.004043718
153	0x3b8d5870	0.004313521
154	0x3a086343	0.00052027794
155	0x39e98f90	0.00044548186
156	0x3d99f1e0	0.07516837
157	0xba01ef41	-0.0004956611
158	0x3f159a40	0.5843849
159	0x398119db	0.0002462406
160	0x3d0cf5f8	0.03441426
161	0x3f0448d9	0.51673657
162	0x3ed4a816	0.4153449
163	0xb9846928	-0.0002525535
164	0x3d371517	0.044697847
165	0xba23c08a	-0.0006246647
166	0x3db4005e	0.087891325
167	0xbb046f4b	-0.0020207937
168	0x3f1284b3	0.5723373
169	0x3b99f8f0	0.004698865
170	0x3faa4d3f	1.3304824
171	0x3aaba06e	0.0013094076
172	0x3cff8c84	0.031194933
173	0x3f958827	1.1682175
174	0x39a08598	0.00030617113
175	0x3dec8f35	0.11550752
176	0xba801c76	-0.0009774107
177	0x3fb5abc2	1.4193041
178	0x3f63cca5	0.8898414
179	0x3bbc054a	0.005737935
180	0x3f9f0e54	1.2426248
181	0x3f5668b5	0.8375352
182	0x3aaa1c7d	0.0012978461
183	0x3f1546cb	0.58311146
184	0x3b261614	0.002534275
185	0x3a4f311b	0.00079037406
186	0x3e8f9362	0.28042132
187	0x3b89255b	0.0041853613
188	0xb93ecb03	-0.0001819544
189	0x3c1d6c3c	0.009608325
190	0x3b5e393f	0.0033908633
191	0x3ca1229e	0.019669827
192	0xbb2ccfdc	-0.002636901
193	0xb9032191	-0.00012505638
194	0x3ec5da67	0.3864319
195	0xba63658a	-0.00086744933
196	0x3ce4cfca	0.027931113
197	0x3a855de3	0.0010175075
198	0x3f508fa4	0.8146918
199	0xb9e29732	-0.00043218728
200	0x3edf631a	0.43630296
201	0x3eb12160	0.34595776
202	0x3b9669a7	0.0045902315
203	0xb92d26ce	-0.00016513022
204	0x3f2d65b1	0.67733294
205	0x3fa220ea	1.2666295
206	0x3b8320d2	0.004001715
207	0x3c9f4d6d	0.0194461
208	0x3f5e817f	0.86916345
209	0x3dfa57a7	0.122237496
210	0x3ad02a25	0.0015881701
211	0x3b389cf5	0.0028169726
212	0x3b9016bd	0.004397242
213	0x3e14aa15	0.14518006
214	0x3b7c4051	0.0038490484
215	0x3a60aa73	0.0008570321
216	0xb9c56410	-0.0003764932
217	0x3937b0da	0.00017518122
218	0x3abef1fb	0.0014567965
219	0xba53cbc1	-0.0008079373
220	0xb88b0231	-6.628445e-05
221	0xb97ad891	-0.00023922535
222	0x3e6ecab7	0.23319517
223	0x3f78288f	0.9693689
224	0x3f75df74	0.9604409
225	0x3ebb6bf0	0.36605787
226	0x3d5e560b	0.054281276
227	0x3b33de37	0.0027445683
228	0x3f89187e	1.07106
229	0xbae217af	-0.001724949
230	0x3f602451	0.87555414
231	0xb88881d0	-6.509165e-05
232	0x3a867657	0.0010258657
233	0x3b1fcb9e	0.002438284
234	0x3e02a122	0.1275678
235	0x3b724a4a	0.003697055
236	0x3cbf7d8d	0.023375297
237	0x39b373bc	0.0003422777
238	0xba7d618d	-0.000966572
239	0x3f218a2a	0.63101447
240	0x3bb9d56f	0.005671195
241	0x3c8086ff	0.015689371
242	0x3fcc210b	1.5947584
243	0x3c92ede0	0.017935693
244	0xbaec5021	-0.0018029251
245	0x3b101a51	0.0021988342
246	0x3a7afb00	0.0009574145
247	0x39fdf2e7	0.00048436897
248	0x3ca3a2a1	0.019975008
249	0x3f77077f	0.96495813
250	0x3af61a4b	0.0018776146
251	0x40046ce9	2.0691473
252	0xbad0455a	-0.0015889809
253	0x3b0e8f21	0.0021752792
254	0x3dec589e	0.1154034
255	0x3a9af8d2	0.0011823422

z_logvar f4 [512]
0	0xc0fb6c76	-7.85699
1	0xc1138483	-9.2198515
2	0xc0d64e2d	-6.697043
3	0xc0b00981	-5.50116
4	0xc0e6e65d	-7.2156205
5	0xc1019202	-8.098146
6	0xc0f8cc09	-7.7749066
7	0xc0e00d0c	-7.0015926
8	0xc0c5b3e0	-6.1782074
9	0xc0b7d67f	-5.7449336
10	0xc0ed798b	-7.421087
11	0xc0c7aa99	-6.239575
12	0xc0bd17ef	-5.9091716
13	0xc0a3cdbc	-5.118864
14	0xc0c45a4b	-6.136022
15	0xc09e82c6	-4.9534636
16	0xc09fa66f	-4.9890666
17	0xc0c8809d	-6.2657
18	0xc0c49e78	-6.1443443
19	0xc0f197a6	-7.549762
20	0xc0f26946	-7.5753508
21	0xc0d1be7c	-6.5545025
22	0xc0c8c906	-6.274539
23	0xc0a363bd	-5.105925
24	0xc0acd357	-5.4007983
25	0xc1138af2	-9.221422
26	0xc0c942c8	-6.289402
27	0xc0ae96dd	-5.455916
28	0xc0b6e0d8	-5.7149467
29	0xc0af85d1	-5.485085
30	0xc1076594	-8.462299
31	0xc09ba214	-4.863535
32	0xc0a87afb	-5.2650123
33	0xc1008b73	-8.034045
34	0xc0babb26	-5.8353453
35	0xc0a912ea	-5.283559
36	0xc0dc5a69	-6.8860364
37	0xc0b95316	-5.7913923
38	0xc0b572e5	-5.670275
39	0xc0a60f68	-5.1893806
40	0xc0ac8185	-5.3908105
41	0xc0b30f1d	-5.595595
42	0xc1032520	-8.196564
43	0xc0d849a3	-6.758989
44	0xc0f725c1	-7.7233586
45	0xc0fc68b4	-7.887781
46	0xc09867cf	-4.762672
47	0xc0b0934d	-5.517981
48	0xc0aa7e29	-5.3279004
49	0xc0bba9e2	-5.8644876
50	0xc0d80bb0	-6.7514267
51	0xc0991152	-4.7833643
52	0xc0ce7361	-6.4515843
53	0xc0a59298	-5.1741447
54	0xc0c49ac7	-6.1438937
55	0xc0db88c6	-6.860446
56	0xc0f06f6a	-7.5136003
57	0xc1014a1e	-8.080595
58	0xc0b818ef	-5.7530437
59	0xc09f0fd0	-4.97068
60	0xc0fc3540	-7.8815002
61	0xc0e188da	-7.0479555
62	0xc0b97398	-5.7953606
63	0xc0aebbf4	-5.4604435
64	0xc0b176e4	-5.545763
65	0xc0b0de5e	-5.5271444
66	0xc0b2bc08	-5.585453
67	0xc0a5c1ec	-5.179922
68	0xc0ee9806	-7.4560575
69	0xc0b175c7	-5.545627
70	0xc0aad19e	-5.338088
71	0xc09efa61	-4.968064
72	0xc1101800	-9.005859
73	0xc0c8948f	-6.2681346
74	0xc0a3f732	-5.123925
75	0xc0bafb71	-5.8431935
76	0xc09ae987	-4.8410068
77	0xc0ee0ad4	-7.438822
78	0xc1038770	-8.220566
79	0xc0bc0b4f	-5.8763804
80	0xc0aabb22	-5.3353434
81	0xc0bdbda1	-5.929398
82	0xc0b602bc	-5.687834
83	0xc10fcd8b	-8.987681
84	0xc0b8953e	-5.768218
85	0xc0a0d9ab	-5.026571
86	0xc0ba9ddf	-5.8317714
87	0xc11012d8	-9.004601
88	0xc0935e6a	-4.605275
89	0xc0b07d86	-5.5153227
90	0xc0a048cc	-5.0088863
91	0xc0fea46c	-7.957571
92	0xc0a6e264	-5.2151356
93	0xc0cf28df	-6.473739
94	0xc099ef6d	-4.810477
95	0xc0a6cf91	-5.2128377
96	0xc09e58de	-4.948348
97	0xc104f728	-8.310341
98	0xc0b34896	-5.6026106
99	0xc0a6a7d7	-5.2079883
100	0xc0cb9a64	-6.3625965
101	0xc0d6c5cc	-6.711645
102	0xc0a5f1ca	-5.1857653
103	0xc0b4e4ac	-5.652914
104	0xc0df3d3a	-6.976224
105	0xc0bf4b7e	-5.9779654
106	0xc0b88892	-5.766671
107	0xc09882ac	-4.765951
108	0xc0e54f25	-7.165911
109	0xc09027ea	-4.5048723
110	0xc0c0935f	-6.0179896
111	0xc0b4cb00	-5.6497803
112	0xc10c06ec	-8.75169
113	0xc0a0a89b	-5.0205817
114	0xc0cbf7a1	-6.373978
115	0xc0a9305b	-5.287153
116	0xc0aa9707	-5.330936
117	0xc0afb73f	-5.491119
118	0xc0b42ab3	-5.6302123
119	0xc0f1879e	-7.547805
120	0xc0b41eb5	-5.6287484
121	0xc0b2db86	-5.5892973
122	0xc102455c	-8.141933
123	0xc0c8f476	-6.2798414
124	0xc09fa512	-4.9889
125	0xc0b98a4f	-5.7981334
126	0xc0a67f58	-5.203045
127	0xc1002f7d	-8.011594
128	0xc09ff716	-4.998912
129	0xc0a21e59	-5.0662045
130	0xc0e58a95	-7.1731668
131	0xc0bbeff7	-5.8730426
132	0xc0bbb62d	-5.8659883
133	0xc0e0e98d	-7.0285096
134	0xc0b77194	-5.7326145
135	0xc0b43034	-5.630884
136	0xc0c642c2	-6.195649
137	0xc0b82452	-5.7544336
138	0xc0a07a38	-5.0149193
139	0xc09b7b73	-4.8588195
140	0xc106cb37	-8.424613
141	0xc0e7019b	-7.218946
142	0xc0da248d	-6.816962
143	0xc0b322cb	-5.597997
144	0xc0a359fd	-5.104735
145	0xc098e7fd	-4.778319
146	0xc10ac5d9	-8.673303
147	0xc0e1b4d5	-7.053324
148	0xc0f3a0a1	-7.613358
149	0xc0ef653c	-7.4811077
150	0xc0e52cb7	-7.1617084
151	0xc0a47277	-5.1389728
152	0xc0d0aac8	-6.5208473
153	0xc0c34d1c	-6.103163
154	0xc0c76dd0	-6.232155
155	0xc106df48	-8.429512
156	0xc09647b4	-4.696253
157	0xc1048c37	-8.284232
158	0xc095a4a0	-4.676346
159	0xc1072731	-8.447068
160	0xc0a5323e	-5.162383
161	0xc0b2a20d	-5.5822816
162	0xc0b15c75	-5.5425363
163	0xc0c24134	-6.0704594
164	0xc0af7ae7	-5.4837527
165	0xc1096d79	-8.589227
166	0xc0aaeb2f	-5.341209
167	0xc0ffa971	-7.989434
168	0xc0b0311d	-5.5059953
169	0xc0c7d9d3	-6.24534
170	0xc0a626b2	-5.1922235
171	0xc1072014	-8.445332
172	0xc0a43642	-5.1316233
173	0xc09c5e8c	-4.8865414
174	0xc105f539	-8.372369
175	0xc0b82b3f	-5.755279
176	0xc0d57edc	-6.671736
177	0xc0b2a1da	-5.5822573
178	0xc0a421e7	-5.1291385
179	0xc0b25f2b	-5.574117
180	0xc0c04af2	-6.0091486
181	0xc0ad9107	-5.4239535
182	0xc0f39c42	-7.6128244
183	0xc0945293	-4.63508
184	0xc0d3bd20	-6.6168365
185	0xc0f10e14	-7.5329685
186	0xc0b97b97	-5.7963367
187	0xc0dc8403	-6.8911147
188	0xc110665e	-9.024992
189	0xc0abed81	-5.372742
190	0xc0be238f	-5.9418406
191	0xc0c09b8b	-6.018987
192	0xc0d4a5b0	-6.6452255
193	0xc1103ed7	-9.015342
194	0xc09de228	-4.933857
195	0xc0f06dd1	-7.5134053
196	0xc0ab8d86	-5.361026
197	0xc0f5402a	-7.6640825
198	0xc09b2fbc	-4.849577
199	0xc0e8f3eb	-7.279775
200	0xc0a87cc0	-5.2652283
201	0xc09968f1	-4.79406
202	0xc0f6575c	-7.698164
203	0xc1110546	-9.063787
204	0xc0b6a988	-5.7081947
205	0xc0aeb4e3	-5.459581
206	0xc0d4b6e6	-6.6473265
207	0xc0aedaff	-5.464233
208	0xc0c31f9f	-6.09761
209	0xc0b2fd58	-5.5934258
210	0xc0dfa859	-6.9893003
211	0xc0bd5f4b	-5.9178824
212	0xc0d4737f	-6.6390986
213	0xc0a5d085	-5.181704
214	0xc0c54d07	-6.1656528
215	0xc103168f	-8.193007
216	0xc0fb53a7	-7.8539615
217	0xc106b4bd	-8.419126
218	0xc0edf5a8	-7.4362373
219	0xc0fe8b29	-7.9544873
220	0xc1050d4e	-8.315748
221	0xc0e9fae9	-7.3118787
222	0xc0aed0de	-5.4629965
223	0xc0b1e126	-5.558734
224	0xc0b111ce	-5.5334234
225	0xc0975a10	-4.729744
226	0xc0a62896	-5.1924543
227	0xc0d04385	-6.508242
228	0xc0a417eb	-5.1279197
229	0xc103fe81	-8.249635
230	0xc0a48c50	-5.142128
231	0xc1039924	-8.224888
232	0xc10efbc9	-8.936471
233	0xc0c2c725	-6.0868096
234	0xc08b18f1	-4.3467946
235	0xc0ea6064	-7.3242664
236	0xc0af7ec2	-5.4842234
237	0xc1016c98	-8.089012
238	0xc10d1c20	-8.819366
239	0xc0a63c5d	-5.1948686
240	0xc0d757d4	-6.729471
241	0xc0b20e79	-5.5642667
242	0xc0b3285f	-5.598678
243	0xc0a6e14d	-5.2150025
244	0xc0e03e80	-7.0076294
245	0xc0cc09ea	-6.37621
246	0xc1083c1f	-8.514678
247	0xc10dcc4e	-8.862379
248	0xc0a860f6	-5.261836
249	0xc0a64dc6	-5.196994
250	0xc0e6dfb6	-7.2148085
251	0xc0d0fdbf	-6.530975
252	0xc1028ae4	-8.158909
253	0xc0e05486	-7.010318
254	0xc09aec11	-4.8413167
255	0xc0d80bab	-6.7514243

weight_mu f4 [128, 512]
0	0xbbc0a21b	-0.0058786995
1	0xbb33e6c4	-0.002745078
2	0x3b22a821	0.002481945
3	0xbd480cc7	-0.04884031
4	0xb9428983	-0.00018552509
5	0xba163a82	-0.0005730764
6	0xbaff92ec	-0.0019498742
7	0x3adbe989	0.0016777973
8	0x3c0beba1	0.008540065
9	0x3b773bd0	0.003772486
10	0xba5b3759	-0.00083624345
11	0x3be3b66a	0.0069492357
12	0xba3e485c	-0.0007258707
13	0xbb5b80eb	-0.003349359
14	0xbae462a4	-0.0017424417
15	0xbcae3c49	-0.02126898
16	0xbcb35d7d	-0.021895165
17	0xbbdb2056	-0.0066872044
18	0xbc118db7	-0.008883885
19	0xbb1906c9	-0.0023349992
20	0xbb4bef6d	-0.003111805
21	0xbaaac547	-0.0013028764
22	0xb9726976	-0.00023118206
23	0xbd7eb243	-0.062181722
24	0xbc85e14f	-0.016342787
25	0xbaa2688d	-0.0012390778
26	0x3b89bb29	0.0042032194
27	0xbd7d8193	-0.06189115
28	0xbbae2147	-0.0053140256
29	0xbdb9410d	-0.090456106
30	0x3b381197	0.0028086656
31	0xbd38b4f4	-0.045094445
32	0xbc8b4472	-0.01700041
33	0xbbc83eed	-0.006111017
34	0xbe1651ac	-0.14679593
35	0xbd598be8	-0.05311194
36	0xbb636985	-0.0034700346
37	0xbbbe3f0b	-0.005805855
38	0xbe1fb8cd	-0.1559784
39	0xbd4e4cd7	-0.05036625
40	0xbb3f6fd2	-0.0029210937
41	0x3bbf9780	0.0058469176
42	0xbadee9b0	-0.00170069
43	0x39cd7806	0.0003919007
44	0xbbfacdd9	-0.0076539335
45	0xbc1f4d43	-0.0097230105
46	0xbc30a51a	-0.010781551
47	0xbc7523c2	-0.014962139
48	0xbe008902	-0.12552264
49	0xbd50aa35	-0.050943572
50	0x3b8c3850	0.004279174
51	0xbbf5d09a	-0.007501674
52	0xbaa2d95c	-0.0012424397
53	0xba3f47c2	-0.00072967645
54	0x3bac71e0	0.0052625984
55	0x3a849b32	0.0010117053
56	0xbc1ffcf6	-0.0097649
57	0xbb40f84b	-0.002944487
58	0xba261417	-0.0006335391
59	0xbce94632	-0.028475855
60	0xbb00df7d	-0.001966446
61	0xbaeac4e4	-0.0017911461
62	0xbbe4c733	-0.006981754
63	0xbe08f227	-0.13373624
64	0xbd55de32	-0.052213855
65	0xbd40fb0b	-0.047114413
66	0xbdb2c3c7	-0.08728748
67	0xbc91ec24	-0.017812796
68	0xb904ae0f	-0.00012653343
69	0xbd0009e7	-0.031259444
70	0xbd3a8bb0	-0.045543373
71	0x3c011c8c	0.007880341
72	0x3884008d	6.294353e-05
73	0xbe0cfa28	-0.13767302
74	0xbd882169	-0.066469975
75	0x3a6697db	0.0008796432
76	0xbdef4d15	-0.11684624
77	0x3aa7e33c	0.001280881
78	0x3ba029d0	0.004887797
79	0xbc3dd702	-0.011586906
80	0xbbb91396	-0.005648087
81	0xbe052c15	-0.13005097
82	0x3b7b729f	0.003836788
83	0xb98e0abb	-0.00027092345
84	0xbcd69507	-0.026194109
85	0xbd8c29ec	-0.068439335
86	0xbdf44cde	-0.11928724
87	0x3b935df1	0.0044972827
88	0xb93196a0	-0.00016936148
89	0xbd647147	-0.055772092
90	0xbd5b125d	-0.05348431
91	0x3bada81a	0.0052995803
92	0x3b7bdf47	0.0038432644
93	0x3c13b6b5	0.009015729
94	0xbd9b4ab0	-0.07582605
95	0xbd8f69da	-0.070026115
96	0xbdefa24b	-0.11700877
97	0xbaf33f69	-0.0018558326
98	0xbb9b901d	-0.0047474043
99	0xbdaa0e71	-0.08303536
100	0xbbaaa12c	-0.0052072015
101	0xbb2cdf71	-0.0026378299
102	0xbd210e24	-0.039320126
103	0xbcf2ca72	-0.02963755
104	0x3bb98fe0	0.005662903
105	0x3acd5b8c	0.0015667542
106	0xbcd7529b	-0.026284507
107	0xbdded1a6	-0.10879831
108	0x3a9138e2	0.0011079574
109	0xbbfb7c83	-0.007674755
110	0x3babdae9	0.005244602
111	0xbdd7dfbe	-0.10540722
112	0x3b372439	0.0027945174
113	0xbd15379e	-0.036429994
114	0xbaa5f354	-0.0012661018
115	0xbb8f859a	-0.00437994
116	0xbd785031	-0.06062335
117	0xbba2ffaa	-0.004974325
118	0xbb2a3cac	-0.0025976105
119	0xbc339af9	-0.010962241
120	0xbd2ccdbd	-0.042188395
121	0xbc446004	-0.0119857825
122	0x3ba6cec1	0.005090565
123	0x3a946096	0.0011320289
124	0xbc2e1a28	-0.010626353
125	0xbdd51205	-0.104038276
126	0xbd5242bf	-0.051333185
127	0xbb0793f0	-0.0020687543
128	0xbdb51787	-0.08842378
129	0xbc526d3e	-0.012843428
130	0xbb53944f	-0.0032284444
131	0xbaa1678d	-0.0012314186
132	0xbbbf38e2	-0.0058356384
133	0xbb85f71f	-0.004088297
134	0xbd764fad	-0.06013458
135	0xbb8abb9a	-0.0042337896
136	0xbc2b5ca8	-0.010459103
137	0x3a462ece	0.0007560075
138	0xbd7677ab	-0.060172718
139	0xbcfad158	-0.030617401
140	0x384a8276	4.8282054e-05
141	0x3b98a7d7	0.00465868
142	0x396d0bda	0.00022606496
143	0xbd83c702	-0.06434442
144	0xbd36640b	-0.044529002
145	0xbcf0c7d1	-0.029392155
146	0x3bd9fa41	0.006652147
147	0x3ba07c5e	0.004897638
148	0x3993c7ac	0.00028186792
149	0xbc0a1067	-0.008426762
150	0xba933aac	-0.0011232696
151	0xbb4c0a21	-0.0031133967
152	0xbbd4454d	-0.006477988
153	0x3c28fb39	0.010313802
154	0x3c55a7b1	0.013040469
155	0xbab3085b	-0.0013659106
156	0xbc38b61b	-0.011273886
157	0xbaf9b9b3	-0.0019052535
158	0xbd4196a0	-0.047262788
159	0x3bb52f49	0.0055293185
160	0xbbbbe3fd	-0.0057339654
161	0xbccc703c	-0.024955861
162	0xbd4a8c8e	-0.04945045
163	0x3bb3f80d	0.0054922164
164	0xbbace605	-0.005276444
165	0xbb771c37	-0.0037706026
166	0xbbaba8bb	-0.00523862
167	0x3a12641f	0.0005584377
168	0xbd189b35	-0.037257392
169	0xbb29d4c6	-0.0025914176
170	0xbe1cf9aa	-0.15329614
171	0x3b3addda	0.0028513581
172	0xbc38cecb	-0.011279772
173	0xbda8eff3	-0.08248892
174	0x3b9fbe31	0.0048749675
175	0xbc869acf	-0.01643124
176	0x3a899e4e	0.0010499449
177	0xbdf3e49a	-0.11908837
178	0xbd73a9d7	-0.059488144
179	0xbbe00953	-0.006837049
180	0xbe156952	-0.14590958
181	0xbdae4e75	-0.08511058
182	0x3bb3f265	0.005491542
183	0xbd14ea63	-0.03635634
184	0xb8d8eaf2	-0.000103434446
185	0xbb53da91	-0.003232632
186	0xbc9d7d37	-0.019224746
187	0xbabdd864	-0.0014484045
188	0x3b0411c1	0.0020152184
189	0xbba5c390	-0.0050587133
190	0xba1de660	-0.0006023403
191	0xbc49bba6	-0.012312805
192	0x3ba8fa66	0.005156803
193	0xbb8bbbaf	-0.004264317
194	0xbce1db2c	-0.02757033
195	0xbb30257d	-0.0026877814
196	0xb97cd4eb	-0.00024111911
197	0xbb4a8488	-0.0030901749
198	0xbd613ead	-0.054991413
199	0xbba61bc4	-0.005069228
200	0xbd11dbb3	-0.035609912
201	0xbc82840e	-0.01593211
202	0x3af0ba3b	0.0018366048
203	0x3a4ca182	0.0007806049
204	0xbd7f0111	-0.062256876
205	0xbddb49c5	-0.1070743
206	0xbb719807	-0.0036864297
207	0x3aeedf04	0.0018224423
208	0xbdce6939	-0.100786634
209	0xbca4fed6	-0.020141046
210	0x3b1955fc	0.0023397198
211	0xb88e2e0a	-6.779663e-05
212	0x3b8f6b28	0.0043767877
213	0xbbd955a2	-0.0066325227
214	0x3bf94b9e	0.007607891
215	0x3b0fc0ef	0.0021935066
216	0xbaf2440a	-0.0018483412
217	0x3b69a91b	0.0035653773
218	0x3b6d5603	0.0036214597
219	0xbb426afc	-0.0029665818
220	0x3be1843e	0.0068822196
221	0xbb657719	-0.0035013615
222	0xbccc8387	-0.02496506
223	0xbd88efb6	-0.06686346
224	0xbdd256b4	-0.102704436
225	0xbc6f1372	-0.0145920385
226	0xbc237b03	-0.009978059
227	0xbb9d87e8	-0.004807461
228	0xbda2f68f	-0.079571836
229	0xbb5b02c6	-0.00334184
230	0xbd7db472	-0.061939664
231	0x3ac4250a	0.0014964652
232	0x3b6da3dc	0.0036260998
233	0xbae65b42	-0.0017574804
234	0x3c0b94e2	0.008519383
235	0xbb585e5b	-0.0033015225
236	0xbca31e5d	-0.01991194
237	0x3b27f9d2	0.0025631082
238	0x3af93aeb	0.0019014751
239	0xbd500650	-0.05078727
240	0xbb147c03	-0.0022656925
241	0x3bd2b7c8	0.0064306
242	0xbe005750	-0.12533307
243	0xba86ab65	-0.0010274468
244	0xba610182	-0.00085832935
245	0x3b81573d	0.003947167
246	0xb9e49f01	-0.00043606016
247	0xbb58561f	-0.0033010317
248	0xba9c0c75	-0.0011905568
249	0xbdc8670b	-0.09785279
250	0x3abbf88d	0.0014341042
251	0xbe4c2dd0	-0.19939351
252	0x3baa442a	0.005196114
253	0xb9042fa9	-0.00012606256
254	0xbb93e334	-0.0045131687
255	0x3b8ff230	0.0043928847

weight_logvar f4 [128, 512]
0	0x3920a3a4	0.0001531975
1	0xb758eabd	-1.29292575e-05
2	0xb98cae0d	-0.0002683256
3	0x3bb8f432	0.0056443447
4	0xb9cfc18d	-0.00039626323
5	0x385f77db	5.3278967e-05
6	0x3865e0b1	5.4807115e-05
7	0x37533613	1.258917e-05
8	0x397b29dd	0.0002395282
9	0xb90d9f72	-0.00013506206
10	0x37fb4019	2.995138e-05
11	0xb927a667	-0.00015988351
12	0x37c903a1	2.3962757e-05
13	0x3824948f	3.9239003e-05
14	0x398eca1e	0.0002723494
15	0xba96a501	-0.0011493267
16	0xbb99ddab	-0.0046956143
17	0xba62613a	-0.00086357037
18	0x3934df05	0.00017249219
19	0x38d7de47	0.00010293401
20	0x3826e4f5	3.9790717e-05
21	0x38c19b64	9.231901e-05
22	0xb7e6231a	-2.7434482e-05
23	0xbc3f1340	-0.011662304
24	0xba7b0183	-0.00095751154
25	0xb5b6d675	-1.3622472e-06
26	0x38c476da	9.368146e-05
27	0xbaef92d5	-0.0018278012
28	0x368c0ec3	4.1740436e-06
29	0xbccc78c4	-0.02495993
30	0xb6157ac6	-2.2274194e-06
31	0xb9f70519	-0.0004711531
32	0xba80d416	-0.0009828832
33	0x37efe0ee	2.8595761e-05
34	0xbcfdc35b	-0.030976942
35	0xbb252683	-0.0025199957
36	0x3803078d	3.1239866e-05
37	0x38812aac	6.1591476e-05
38	0xbd887d65	-0.06664542
39	0xbbc48740	-0.0059975684
40	0xba5028ce	-0.00079406507
41	0x37110880	8.644653e-06
42	0xb7a18d5d	-1.9258523e-05
43	0xb70ab46b	-8.267448e-06
44	0x3868f3c7	5.5540146e-05
45	0x38e46441	0.00010890561
46	0xba8c9811	-0.0010726472
47	0xba99c160	-0.0011730604
48	0xbd2e797f	-0.042596336
49	0xb9bee9fc	-0.00036413956
50	0xb68d3c87	-4.2091738e-06
51	0x3a99eeca	0.0011744138
52	0x37bfc0bf	2.2858729e-05
53	0x3950df1f	0.00019919545
54	0xb90f41c7	-0.00013662047
55	0x3949ebf9	0.0001925676
56	0xb8ca14d1	-9.635988e-05
57	0x3819163b	3.6498746e-05
58	0xb9c74045	-0.00038004122
59	0x3904a805	0.00012651093
60	0xb6124628	-2.1796532e-06
61	0xb7fa6d43	-2.9853201e-05
62	0xb9a787e3	-0.00031953966
63	0xbd36df8a	-0.044646777
64	0xbabd1eac	-0.0014428697
65	0xbbed6099	-0.0072441814
66	0xbc4ebb68	-0.012617923
67	0x398ec36d	0.00027229954
68	0x383b895f	4.471221e-05
69	0xbbb584fd	-0.005539535
70	0xbad7fd39	-0.0016478664
71	0xb923d2b8	-0.0001562339
72	0xb6eb3751	-7.0099854e-06
73	0xbcd7e20f	-0.02635291
74	0xbc3765e2	-0.011193724
75	0x39c9a181	0.00038458037
76	0xbccb186b	-0.024791917
77	0xb9d012bc	-0.0003968681
78	0xb7e5e2ec	-2.7404596e-05
79	0x394bba56	0.00019429004
80	0x3976f481	0.00023551473
81	0xbd1c0d28	-0.038098484
82	0x3879cbdb	5.955608e-05
83	0xb7dbbe72	-2.6195517e-05
84	0x3ae561a8	0.0017500417
85	0xbcf46710	-0.0298343
86	0xbc16aadd	-0.00919601
87	0xb8fc2246	-0.0001202268
88	0xba1d94cb	-0.00060112466
89	0xba9f1ecd	-0.0012139917
90	0xbc2fa1a6	-0.010719692
91	0x39154cc5	0.00014238346
92	0x38915af8	6.931083e-05
93	0x395b6d08	0.00020926085
94	0xbc239867	-0.009985066
95	0xbc0ee7ca	-0.008722255
96	0xbd38ed36	-0.045148097
97	0x39cd897a	0.00039203075
98	0x3945df0d	0.00018870477
99	0xbca8cf36	-0.020606618
100	0x3980a760	0.00024538767
101	0x38022fc8	3.1038915e-05
102	0xbb9035de	-0.0044009527
103	0x3ab7d5ec	0.0014025546
104	0xb8cd6f2f	-9.795871e-05
105	0xb76fcb07	-1.4292781e-05
106	0xbb9da39d	-0.004810764
107	0xbcc42606	-0.023943912
108	0x39776a30	0.00023595314
109	0x39e550fe	0.00043738628
110	0x399c64ad	0.00029829648
111	0xbd2fc0fd	-0.042908657
112	0xb7aac2a6	-2.035622e-05
113	0xbb3024c2	-0.0026877378
114	0xb7d26e1b	-2.5085223e-05
115	0x39f8cf13	0.00047456528
116	0xbbb2c5c8	-0.0054557063
117	0xb9569d7a	-0.00020467295
118	0x39b30c42	0.00034150673
119	0x38cc6b91	9.747514e-05
120	0xbb15566c	-0.0022787107
121	0x3987cc27	0.00025901312
122	0x39341f2b	0.00017177749
123	0xb81b7a4e	-3.7068785e-05
124	0xba32fac8	-0.00068275305
125	0xbcb4af1b	-0.022056153
126	0xbb8bcb69	-0.0042661917
127	0xb7b635fa	-2.1721225e-05
128	0xbc36a650	-0.01114805
129	0x39daf8d6	0.00041765597
130	0x38ba24df	8.876039e-05
131	0x382a54b1	4.0610033e-05
132	0x39a9cbea	0.0003238612
133	0xb8282aaf	-4.0094073e-05
134	0xbba45fb1	-0.00501629
135	0xba0f0f1f	-0.00054572703
136	0xb8f48798	-0.00011660083
137	0xb8e5f0eb	-0.000109644454
138	0xbb99f10f	-0.004697926
139	0xbba86cec	-0.0051399376
140	0xb74e27ea	-1.228785e-05
141	0xb8a4290c	-7.827775e-05
142	0xb9c31af7	-0.0003721339
143	0xbc4926ee	-0.012277348
144	0xbb07fb6c	-0.0020749224
145	0xba253be0	-0.00063031726
146	0x3a119002	0.000555277
147	0xb9b5ee9e	-0.00034700794
148	0x37541acc	1.2642424e-05
149	0x36c56268	5.8825135e-06
150	0xb9be00f3	-0.0003624033
151	0xb9ac51a4	-0.00032867223
152	0x39f6fcf5	0.00047109244
153	0xb96b1db7	-0.00022422416
154	0x39a29e25	0.00031016875
155	0x37b03e3d	2.1009817e-05
156	0xba07e392	-0.0005183752
157	0xb74eb0f3	-1.2319756e-05
158	0xbb802d1e	-0.0039116284
159	0xb81c3fcf	-3.7252725e-05
160	0xb9428e55	-0.00018554305
161	0x3b44bcf9	0.0030019863
162	0xbc4a194d	-0.012335134
163	0xb903c1f9	-0.00012565394
164	0xb8ecae69	-0.00011285843
165	0x37b104bf	2.1102254e-05
166	0xba54dfad	-0.00081204885
167	0xb63d0432	-2.8165637e-06
168	0x3b2693dc	0.002541772
169	0x3978b4f0	0.00023718528
170	0xbd25353b	-0.040333968
171	0x3757e7d4	1.2868975e-05
172	0x393d33b7	0.0001804371
173	0xbb943a1c	-0.0045235287
174	0xb861ac38	-5.380457e-05
175	0xba80b9ff	-0.0009821056
176	0xb99d7500	-0.00030032545
177	0xbccd32f6	-0.025048714
178	0xbc1a0f25	-0.009403025
179	0xb983240e	-0.0002501313
180	0xbd53a811	-0.051673952
181	0xbbc64a98	-0.0060513727
182	0xb9fef62e	-0.00048630073
183	0x3bb9ca1e	0.005669846
184	0x3911225c	0.00013841077
185	0xb8815f82	-6.168989e-05
186	0xbb8e9729	-0.004351516
187	0x3918bf76	0.00014567174
188	0x38be091e	9.061604e-05
189	0xb91dda14	-0.00015053927
190	0x38d78390	0.00010276504
191	0xbb098324	-0.0020982707
192	0x39132de8	0.00014036114
193	0xb8aa5822	-8.122648e-05
194	0x3a50268e	0.00079403154
195	0x3891c584	6.950929e-05
196	0x388862aa	6.503363e-05
197	0x389479ad	7.079854e-05
198	0xbb3c7ea8	-0.0028762016
199	0x381cb249	3.735934e-05
200	0x3b730039	0.003707899
201	0xbb45c532	-0.0030177352
202	0x38a7b1d0	7.996301e-05
203	0xb91849b2	-0.00014523303
204	0xba6ee474	-0.00091130217
205	0xbc911e1e	-0.017714556
206	0x39597fcd	0.00020742342
207	0xba68b8c9	-0.0008877633
208	0xbcbe0bbf	-0.02319896
209	0xbaa09bb8	-0.0012253439
210	0x384eec5d	4.9334358e-05
211	0xb9655889	-0.00021872124
212	0xb8b791e7	-8.7532964e-05
213	0xba551cb3	-0.00081295817
214	0xb8d266a9	-0.00010032702
215	0x3910bc69	0.00013803098
216	0x38886a69	6.504806e-05
217	0xb7dcde9c	-2.6329704e-05
218	0xb7f285e2	-2.8910992e-05
219	0x36f30d61	7.243522e-06
220	0x39631993	0.00021657934
221	0xb7a7bd54	-1.9996114e-05
222	0xbc31f959	-0.010862672
223	0xbadf05df	-0.00170153
224	0xbc8a7fd9	-0.016906666
225	0x3aafc80e	0.0013411061
226	0x3a3957d7	0.0007070279
227	0x39508bd5	0.00019888517
228	0xbc42083c	-0.011842784
229	0x37641e94	1.35969785e-05
230	0xbbb0df30	-0.0053977
231	0xb7c3e7e4	-2.3353794e-05
232	0x36c7269b	5.9351564e-06
233	0xb9635f0c	-0.00021683815
234	0x3a5f9665	0.00085291854
235	0x39804e6f	0.000244725
236	0xbafa6401	-0.001910329
237	0x368062ff	3.826222e-06
238	0xb6fc965d	-7.52769e-06
239	0xbc240458	-0.010010801
240	0x3887555f	6.453203e-05
241	0xb98d571e	-0.00026958523
242	0xbd0fe4a9	-0.035130177
243	0x39e59e5e	0.00043796276
244	0xb95cacd9	-0.00021045226
245	0x3a021a29	0.00049630046
246	0xb7a9f055	-2.0258283e-05
247	0xb812f0f4	-3.5033518e-05
248	0x3a4eab9e	0.00078838493
249	0xbce7fd9a	-0.028319169
250	0xb8b959e4	-8.838231e-05
251	0xbdd94536	-0.10608904
252	0xb91a8960	-0.0001473776
253	0xb88aa9f6	-6.6120105e-05
254	0x39815c36	0.000246735
255	0xb98dce26	-0.00027047208

bias_mu f4 [128]
0	0xbe2b12b3	-0.16706352
1	0xbe465b9d	-0.19370885
2	0x3b3472de	0.0027534286
3	0xbe66794e	-0.22507212
4	0xbc0d9ae2	-0.008642884
5	0x3e8c5cf3	0.27414665
6	0xbe57dde4	-0.21080738
7	0x3e8e7ccd	0.2782959
8	0xbe4398a0	-0.1910119
9	0xbe7cef10	-0.2470057
10	0xbc848ba5	-0.016179869
11	0xbe9d095c	-0.30671203
12	0xbe87681e	-0.26446623
13	0xbd0956a1	-0.03352988
14	0x3ece9906	0.40351123
15	0xbdfbc5d8	-0.12293595
16	0xbe82ae29	-0.255235
17	0x3e2ae80d	0.16690083
18	0xbd33860a	-0.043829
19	0xbe5e13a4	-0.2168718
20	0xbe54e7fd	-0.20791622
21	0xbe96174f	-0.29314658
22	0xbe8a6079	-0.27026728
23	0xbeb5790d	-0.35443917
24	0xbe385729	-0.18001999
25	0x3e024bfe	0.12724301
26	0xbd8e80f3	-0.06958189
27	0xbdebe072	-0.11517419
28	0xbdee08b6	-0.11622755
29	0xbe66932b	-0.22517078
30	0xbe8799ca	-0.2648452
31	0xbe81e25c	-0.2536801
32	0xbe77b6e6	-0.24190864
33	0xbe5aa225	-0.21350916
34	0xbc6430a0	-0.013927609
35	0xbe3eeb48	-0.1864444
36	0xbe727909	-0.23678984
37	0xbe736490	-0.2376883
38	0xbe802615	-0.25029054
39	0xbe00476c	-0.12527245
40	0x3eb6d462	0.3570891
41	0xbe464a3d	-0.19364257
42	0xbed4efab	-0.41589102
43	0xbe53218f	-0.2061827
44	0xbe56bca8	-0.20970404
45	0xbe9ebf23	-0.310052
46	0x3dea3620	0.11436105
47	0xbe41d931	-0.18930508
48	0xbe24f9bb	-0.1611089
49	0xbe8317ab	-0.25603995
50	0xbe1d916e	-0.15387508
51	0xbe25c535	-0.1618851
52	0xbe0d05ec	-0.1377179
53	0xbe5e4e32	-0.21709517
54	0xbd9183dc	-0.07105228
55	0x3ed41391	0.41421178
56	0xbdfb863b	-0.12281462
57	0xbe2cac4f	-0.16862606
58	0x3daa80cb	0.083253466
59	0xbe5ed36d	-0.2176034
60	0xbe6091d0	-0.21930623
61	0xbe843dc1	-0.25828364
62	0xbb5b74cb	-0.0033486362
63	0xbe163ca3	-0.14671569
64	0xbe28a706	-0.16469964
65	0xbea29def	-0.3176112
66	0xbe132d2a	-0.14372697
67	0xbe327126	-0.17425975
68	0xbe44db6c	-0.19224328
69	0xbe1fb494	-0.15596229
70	0xbe3239d6	-0.17404875
71	0xbd49ebca	-0.04929713
72	0xbe39947a	-0.18123046
73	0xbe3b7f3b	-0.18310253
74	0xbe669ed9	-0.22521533
75	0x3e4ca464	0.19984585
76	0xbe82916e	-0.2550158
77	0xbec63367	-0.38711092
78	0xbe4a7114	-0.19769698
79	0x3da01b53	0.07817712
80	0xbf018f1e	-0.50609004
81	0xbe664669	-0.22487797
82	0xbe4c10ec	-0.1992833
83	0xbef39262	-0.4757262
84	0xbe49d1ae	-0.19708893
85	0xbe08e072	-0.13366869
86	0xbec3aedb	-0.38219342
87	0xbe0e86c1	-0.13918592
88	0xbe232dd6	-0.15935454
89	0xbe5ca328	-0.21546614
90	0xbe73564b	-0.23763387
91	0xbe242781	-0.16030695
92	0xbe6e68de	-0.23282191
93	0xbe459fae	-0.19299194
94	0xbce24b98	-0.027623937
95	0xbe3df6b8	-0.18551147
96	0x3e2e54ef	0.17024587
97	0xbe064bbb	-0.13114826
98	0x3c2a2e7c	0.010387059
99	0xbec810d6	-0.39075345
100	0xbdb3a325	-0.08771352
101	0xbe10a4bc	-0.14125341
102	0xbe5d26d6	-0.21596846
103	0xbe4a83df	-0.19776867
104	0xbde745dc	-0.112926215
105	0xbe7809c6	-0.24222478
106	0xbe91f4c9	-0.2850707
107	0xbe6f4fc8	-0.23370278
108	0xbe6c86b8	-0.23098266
109	0xbe58aec0	-0.21160412
110	0xbe770aed	-0.24125262
111	0xbdad32da	-0.08456965
112	0xbe440384	-0.19141966
113	0xbe2aa6b7	-0.16665159
114	0xbe1dfaf1	-0.15427758
115	0xbe885e96	-0.26634663
116	0xbe3050f0	-0.17218375
117	0x3df41f51	0.11920036
118	0xbdceb8db	-0.10093852
119	0xbe084b72	-0.1331003
120	0xbe49fa4b	-0.19724385
121	0x3d911295	0.07083622
122	0xbe30c374	-0.1726206
123	0xbe23692a	-0.15958086
124	0xbe05de1a	-0.13073006
125	0xbe21cdd3	-0.15801172
126	0xbe5f54a9	-0.21809639
127	0xbe35eff5	-0.17767318

bias_logvar f4 [128]
0	0xbd032743	-0.032019865
1	0xbd654bf4	-0.055980638
2	0xbfd63693	-1.6735405
3	0xbd97fd08	-0.07421309
4	0xc0305602	-2.7552495
5	0xbff43b92	-1.908068
6	0xbd503daf	-0.050840076
7	0xbfa3b1f1	-1.2788678
8	0xbd1a4ac3	-0.037668955
9	0xbdaf0b11	-0.085470326
10	0xc08904f2	-4.2818537
11	0xbdadff9e	-0.08496021
12	0xbd8f2b53	-0.06990685
13	0xbfea46cd	-1.8302857
14	0xc00d79ba	-2.2105546
15	0xbc896d24	-0.016775675
16	0xbd85df0a	-0.06536682
17	0xc0365ca9	-2.8494055
18	0xc04faf22	-3.2450643
19	0xbd39acfa	-0.04533098
20	0xbd88d935	-0.06682054
21	0xbdb6f22d	-0.0893291
22	0xbdbc34b3	-0.09189739
23	0xbddbdcf1	-0.107355006
24	0xbd26c6d3	-0.040716957
25	0xc04ad263	-3.169091
26	0xbe7e6baa	-0.24845758
27	0xbcde946b	-0.02717038
28	0xbd11e7b0	-0.035621345
29	0xbd56bb02	-0.05242444
30	0xbd893aa6	-0.067006394
31	0xbda594e7	-0.080850415
32	0xbd82db2c	-0.0638946
33	0xbd4b4c0b	-0.049633067
34	0xbf9f4286	-1.2442176
35	0xbd38b7df	-0.04509723
36	0xbd9c3540	-0.07627344
37	0xbd802c0a	-0.062584
38	0xbd88b5f7	-0.06675332
39	0xbd1df3c1	-0.03856254
40	0xc00819a4	-2.126565
41	0xbd5b90bc	-0.053604826
42	0xbe2f967b	-0.17147247
43	0xbd892ea5	-0.0669835
44	0xbd26a938	-0.040688723
45	0xbdbe2dfc	-0.092861146
46	0xc053121e	-3.2979808
47	0xbd5bcc99	-0.053661916
48	0xbd10ab36	-0.03531953
49	0xbdbc6f11	-0.09200872
50	0xbd081968	-0.033227354
51	0xbd16fcec	-0.0368623
52	0xbd38312b	-0.044968765
53	0xbd5ec4f0	-0.054387033
54	0xbf1404be	-0.57819736
55	0xc0793f63	-3.8944938
56	0xbdb5a8d7	-0.08870094
57	0xbd1f8a83	-0.038950454
58	0xc033cfcf	-2.8095586
59	0xbd7e82a2	-0.0621363
60	0xbd2adc2d	-0.041713882
61	0xbda3fe11	-0.08007444
62	0xc0103d0d	-2.2537262
63	0xbd0cde19	-0.034391496
64	0xbd1430e8	-0.036179453
65	0xbdeea86d	-0.116532184
66	0xbce1f6f5	-0.027583579
67	0xbd3b9808	-0.045799285
68	0xbd547b63	-0.051875483
69	0xbd48bc3d	-0.049007643
70	0xbd0f8209	-0.03503612
71	0xbcb94dec	-0.022620164
72	0xbd6aabf7	-0.057292905
73	0xbd40915b	-0.04701362
74	0xbd6d81f8	-0.057985276
75	0xbfe8cde3	-1.8187832
76	0xbdac398f	-0.08409416
77	0xbe0491bd	-0.1294622
78	0xbd422baf	-0.04740494
79	0xbe2655ae	-0.16243622
80	0xbe52432b	-0.20533435
81	0xbd8e0c8c	-0.06935987
82	0xbd0d7236	-0.03453275
83	0xbe48cbd1	-0.19609
84	0xbd4cbd74	-0.049985364
85	0xbd191161	-0.03737009
86	0xbe04536d	-0.1292245
87	0xbce82841	-0.028339507
88	0xbcebef37	-0.02880059
89	0xbd97c990	-0.07411492
90	0xbd872f97	-0.06600874
91	0xbe9f5a59	-0.31123617
92	0xbd804d64	-0.06264761
93	0xbd6b7994	-0.057488993
94	0xbd8550b0	-0.065095305
95	0xbd4ed520	-0.05049622
96	0xc08b2f76	-4.3495436
97	0xbf83754a	-1.0270169
98	0xc0032d7a	-2.0496507
99	0xbe0b1852	-0.13583496
100	0xbcf63bd7	-0.03005783
101	0xbd27c4d4	-0.040959194
102	0xbd8d1819	-0.06889362
103	0xbd65a680	-0.05606699
104	0xbc851326	-0.016244482
105	0xbd856f74	-0.065153986
106	0xbdcbd43b	-0.09952589
107	0xbd92f343	-0.07175305
108	0xbd7f67d4	-0.062354878
109	0xbd41b595	-0.04729231
110	0xbd8b8140	-0.06811762
111	0xbc897fdb	-0.016784599
112	0xbd45c58a	-0.04828409
113	0xbd278b61	-0.040904406
114	0xbd178466	-0.0369915
115	0xbda173ba	-0.07883401
116	0xbd3d3fa7	-0.04620328
117	0xc02ba3a0	-2.6818619
118	0xbd339105	-0.043839473
119	0xbcf67701	-0.030086042
120	0xbd2e97f6	-0.04262539
121	0xbfdfa1af	-1.7471217
122	0xbcfa9739	-0.030589687
123	0xbd3207f5	-0.04346462
124	0xbd1e1824	-0.03859724
125	0xbd3a8cb6	-0.04554435
126	0xbd6b4a59	-0.05744395
127	0xbd18c89c	-0.03730069

z_mu f4 [128]
0	0xbbc926ba	-0.00613865
1	0x3c0a0b23	0.008425507
2	0x3ebf9327	0.37416956
3	0x3bc4d2ee	0.00600659
4	0x3f8cccc2	1.0999987
5	0x3e87d8f3	0.26532707
6	0x3c2dd602	0.0106101055
7	0x3e7ce483	0.24696545
8	0x3c39dbc8	0.011343904
9	0xbc02af67	-0.0079763895
10	0x3f540f81	0.8283616
11	0xbced0ddb	-0.02893727
12	0xba160b1e	-0.00057237025
13	0x3f23e2e0	0.6401806
14	0x3ec08912	0.37604576
15	0xb93d215c	-0.00018036872
16	0xbb93701b	-0.004499448
17	0x3f0decbf	0.5543937
18	0x3f2d71c1	0.677517
19	0x3b4c35be	0.0031159963
20	0xbbe68908	-0.0070353784
21	0xbb79a788	-0.0038094241
22	0xbba6237c	-0.005070148
23	0xbb84c8bb	-0.0040522492
24	0xb6a4b1c4	-4.9082755e-06
25	0x3f407ea6	0.7519325
26	0x3dcd4d72	0.10024537
27	0xbbe9e222	-0.007137553
28	0xbb7c9b2d	-0.003854464
29	0x3bb6c9e9	0.005578269
30	0x3bb7ec65	0.005612897
31	0x3b5c6acf	0.0033632999
32	0x3c01acaa	0.0079147015
33	0xbb7cbbb8	-0.0038564038
34	0x3e7088e6	0.23489723
35	0xbc16f50b	-0.009213696
36	0x3c3caad2	0.011515336
37	0x3a36cb91	0.0006973083
38	0x3c830683	0.015994316
39	0x39a7d832	0.000320138
40	0x3ec4a416	0.38406438
41	0xbab1a1fb	-0.0013552302
42	0xbbce4c67	-0.006295729
43	0x3c6a71d6	0.014309367
44	0xbc599c91	-0.013281957
45	0xbc5f2f90	-0.01362218
46	0x3f3e057a	0.74227107
47	0x3bf2afc9	0.007406209
48	0xbc07be5e	-0.008285133
49	0x3b37a44b	0.002802151
50	0x3a852140	0.0010157004
51	0x3c173a0b	0.009230147
52	0xbb9cfd58	-0.004790943
53	0xbc4632c5	-0.012097065
54	0x3e31d99d	0.17368169
55	0x3f082e48	0.5319562
56	0x3d8a740f	0.06760418
57	0x3bb07b1a	0.0053857686
58	0x3f5de69a	0.86679995
59	0xba47af82	-0.00076174
60	0x3bcc48c4	0.0062342603
61	0xbb500c31	-0.0031745548
62	0x3ef8f6f1	0.486259
63	0x3bfb5637	0.0076701897
64	0x3ae4f651	0.0017468428
65	0xbcb3eee5	-0.0219645
66	0xba1e1f43	-0.000603188
67	0x3b418892	0.0029530865
68	0x3a375bf2	0.0006994597
69	0x3c368b5f	0.011141627
70	0xbc27acab	-0.010234038
71	0xbc8934ff	-0.016748903
72	0x3c80dc37	0.015730007
73	0x3c55b4a6	0.013043558
74	0x3c4048d8	0.011736117
75	0x3ed00242	0.40626723
76	0x3bc1c842	0.005913765
77	0x3c145471	0.0090533355
78	0xbaa71db7	-0.0012749945
79	0x3d003e16	0.03130921
80	0x3cb8b691	0.022547992
81	0xbbdd129d	-0.0067466036
82	0xbbdd8b51	-0.0067609926
83	0xbc8a380f	-0.016872434
84	0xbc160deb	-0.009158592
85	0xba396be2	-0.0007073266
86	0x3b1ed7af	0.0024237444
87	0xbba64698	-0.0050743334
88	0x3b119637	0.002221478
89	0x3b2b43d0	0.0026132949
90	0xbbb4fc27	-0.005523223
91	0x3e36b7c7	0.17843543
92	0xbd114949	-0.03547028
93	0xbb6af241	-0.003584996
94	0x3bb57f6f	0.005538873
95	0xbc4eeb97	-0.012629411
96	0x3f4e2a4a	0.8053328
97	0x3eb5e081	0.35522845
98	0x3f0a3e58	0.5400138
99	0xbada0743	-0.0016634244
100	0x3c67adf2	0.014140593
101	0xbba94a99	-0.0051663634
102	0xbaab3060	-0.0013060682
103	0xb9a3eb35	-0.00031265026
104	0xbb3ca615	-0.0028785516
105	0x3bac8c97	0.005265783
106	0x3cd82046	0.026382577
107	0x3ae1a4be	0.0017215235
108	0x3bc602f2	0.0060428316
109	0x3c5ba995	0.013407131
110	0x3bff6886	0.0077944426
111	0xba5d8030	-0.00084495824
112	0xbb261b76	-0.0025345958
113	0xba511afb	-0.00079767377
114	0x3c4a408f	0.0123444935
115	0x3bedd7e6	0.007258403
116	0xbba4febe	-0.0050352504
117	0x3f3f01f0	0.7461233
118	0xbc423b1d	-0.011854914
119	0xbabad92e	-0.0014255398
120	0xbb22cf9f	-0.002484299
121	0x3ecf82f3	0.40529594
122	0x3c65e8c2	0.014032545
123	0x3ac81192	0.0015264025
124	0x3c6c1c9b	0.014411117
125	0x3d14a687	0.036291625
126	0x3a035046	0.0005009215
127	0xbbc3c6aa	-0.0059746103

z_logvar f4 [128]
0	0xc0ea6c57	-7.325725
1	0xc0e5c00d	-7.1796937
2	0xc0f2a94e	-7.583167
3	0xc0b7510c	-5.7286434
4	0xc0de599f	-6.94844
5	0xc0f8249f	-7.7544703
6	0xc0cc66a0	-6.3875275
7	0xc0f715a6	-7.7213926
8	0xc0d2d491	-6.588448
9	0xc0d117a4	-6.534136
10	0xc100d6ae	-8.052412
11	0xc0d404fc	-6.6256084
12	0xc0d8fb2a	-6.7806597
13	0xc0dadc0d	-6.8393617
14	0xc101ab96	-8.104391
15	0xc0ecc784	-7.399355
16	0xc0feb458	-7.9595146
17	0xc0ff843d	-7.9848924
18	0xc1037dcd	-8.218213
19	0xc104a837	-8.291068
20	0xc0d004c2	-6.500581
21	0xc0b16a33	-5.544214
22	0xc0cfdc2f	-6.495628
23	0xc09dfc60	-4.9370575
24	0xc0dbe848	-6.8721046
25	0xc0f68e6c	-7.7048855
26	0xc0cd17a2	-6.409135
27	0xc0db92ba	-6.861661
28	0xc0eb7b9f	-7.3588405
29	0xc0c13130	-6.0372543
30	0xc0cf0aa8	-6.470051
31	0xc0dd5a87	-6.9173007
32	0xc1024106	-8.140875
33	0xc10bf729	-8.747842
34	0xc0f1a5ef	-7.5515056
35	0xc0e742e7	-7.226917
36	0xc0e40e47	-7.126743
37	0xc0dc87de	-6.8915854
38	0xc0ba4c3d	-5.8218064
39	0xc0c4ac48	-6.1460304
40	0xc0f8ef8f	-7.779243
41	0xc110ea34	-9.0571785
42	0xc0a5ae93	-5.1775603
43	0xc0e08f9c	-7.0175304
44	0xc0c57993	-6.1710906
45	0xc0b04c9b	-5.5093513
46	0xc0f45acb	-7.636083
47	0xc0c5df97	-6.1835437
48	0xc0e88654	-7.2663975
49	0xc1029f95	-8.16396
50	0xc11d0bba	-9.815363
51	0xc0d5bda7	-6.679401
52	0xc0e4e5ac	-7.153036
53	0xc0d36259	-6.6057553
54	0xc0e57f93	-7.171823
55	0xc10c0039	-8.750054
56	0xc0c5d64e	-6.1824102
57	0xc0de81e8	-6.9533577
58	0xc0ea37fd	-7.3193345
59	0xc11013f7	-9.004874
60	0xc0d3de61	-6.620896
61	0xc0c7eb80	-6.2474976
62	0xc0ef8930	-7.4854965
63	0xc11f7a90	-9.9674225
64	0xc0ddb6c1	-6.928559
65	0xc0ab26f7	-5.3485065
66	0xc11faaf1	-9.979234
67	0xc0ede88b	-7.4346366
68	0xc118b010	-9.542984
69	0xc0dfe263	-6.996385
70	0xc0e724ab	-7.223226
71	0xc0e2fb3d	-7.0931687
72	0xc0b3dbb7	-5.6205707
73	0xc0e3f832	-7.1240473
74	0xc0d7981e	-6.737319
75	0xc0f0873d	-7.5165086
76	0xc0aff4b4	-5.498621
77	0xc0bd2596	-5.910838
78	0xc0d37811	-6.6084065
79	0xc0e85ffb	-7.2617164
80	0xc081394b	-4.038244
81	0xc0c7db82	-6.2455454
82	0xc0c3bfb9	-6.1171536
83	0xc08694f6	-4.2056837
84	0xc0ca1a37	-6.3157
85	0xc0cd936e	-6.424247
86	0xc0b01891	-5.502999
87	0xc11e0d5d	-9.8782625
88	0xc0e230c5	-7.0684533
89	0xc0be2d43	-5.943025
90	0xc108c1dc	-8.547329
91	0xc0da3407	-6.818851
92	0xc0c45376	-6.135188
93	0xc1147798	-9.279198
94	0xc0db9e66	-6.8630857
95	0xc0db8b2e	-6.8607397
96	0xc1061c5a	-8.381922
97	0xc0d3d946	-6.6202726
98	0xc0ee7454	-7.4517
99	0xc0aaa67c	-5.332823
100	0xc0d7ddbc	-6.745817
101	0xc12004d5	-10.00118
102	0xc11d3f1a	-9.827906
103	0xc0f85a23	-7.761003
104	0xc0da40ff	-6.820434
105	0xc0ff3562	-7.9752665
106	0xc0c51e20	-6.1599274
107	0xc10e0ae9	-8.877664
108	0xc0e172b9	-7.045254
109	0xc0cf11f5	-6.470942
110	0xc0c1193d	-6.034331
111	0xc0ea0497	-7.3130603
112	0xc0e2d9e6	-7.089099
113	0xc0dd83ec	-6.9223537
114	0xc0deb637	-6.959743
115	0xc0a8c4ae	-5.2740088
116	0xc119178c	-9.568249
117	0xc0f17ee0	-7.5467377
118	0xc0d08ba7	-6.5170474
119	0xc120aae3	-10.04172
120	0xc11254bd	-9.145688
121	0xc0f47721	-7.639542
122	0xc0d99df3	-6.800531
123	0xc11c757f	-9.778686
124	0xc0c9df58	-6.3085136
125	0xc0c0cb79	-6.024838
126	0xc0e2c1e7	-7.0861697
127	0xc0d9a000	-6.8007812

weight_mu f4 [10, 128]
0	0xba3d5556	-0.0007222494
1	0xbd4e2194	-0.05032499
2	0xbe4b28b3	-0.19839744
3	0x3c19ea4f	0.009394242
4	0xbe8bd537	-0.27311108
5	0x3d118573	0.035527658
6	0xbdf8af96	-0.12142865
7	0x3de038a0	0.109483
8	0xbd2fdc7a	-0.042934872
9	0xbd8b40c5	-0.06799463
10	0xbe1a0fbb	-0.15045063
11	0x3e08a8fd	0.13345714
12	0x3d875e0a	0.066097334
13	0xbe1b3777	-0.15157877
14	0xbdc37660	-0.095440626
15	0x3d9a2c69	0.07528002
16	0xbd4fd223	-0.05073751
17	0xbe4bb798	-0.19894254
18	0xbd3fb499	-0.04680309
19	0x3cd42435	0.025896171
20	0xbd6d79a9	-0.057977352
21	0x3bd09780	0.0063657165
22	0xbd939241	-0.0720563
23	0x3d8d9967	0.06914025
24	0xbcec0593	-0.028811252
25	0x3eb4f7ee	0.35345405
26	0x3d29ca38	0.041452616
27	0x3d089a12	0.033350058
28	0xbd93967e	-0.072064385
29	0xbd9e8f50	-0.077421784
30	0xbc0bf8b3	-0.008543181
31	0xbbe051b5	-0.0068456777
32	0x3d02de27	0.031950142
33	0x3c3dd9d5	0.01158758
34	0xbd6789a5	-0.056527752
35	0xbd8525f3	-0.06501379
36	0x3ce5e653	0.028063929
37	0x3c8c07f5	0.017093638
38	0x3d238780	0.039924145
39	0xbdeb67d3	-0.11494412
40	0xbdf96f7c	-0.12179467
41	0x3d871a68	0.065968335
42	0x3cca6c3e	0.024709817
43	0x3dd8849c	0.10572168
44	0xbe31a0e0	-0.17346525
45	0x3ddc7a1f	0.1076548
46	0xbbfae8f8	-0.0076571666
47	0x3d41bd32	0.04729957
48	0x3d2a0e4c	0.04151754
49	0x3a8d2436	0.0010768238
50	0xbc8e4eb7	-0.017371519
51	0xbd855e1d	-0.06512091
52	0xbc1c191e	-0.009527473
53	0x3d8c698c	0.06856069
54	0xbe196691	-0.14980532
55	0xbeaf78c6	-0.3427183
56	0xbddaba16	-0.10680024
57	0xbd6aebce	-0.057353787
58	0xbdc29d6d	-0.09502683
59	0x3cbcaf84	0.023032911
60	0xbdac47e5	-0.0841215
61	0xbdf4019c	-0.119143695
62	0x3dab34d4	0.083596855
63	0xbbf745b9	-0.0075461534
64	0x3c9cfaef	0.019162623
65	0x3e49c802	0.19705203
66	0xbd8e0aaf	-0.069356315
67	0x3cfa3926	0.030544829
68	0xbd386eae	-0.045027427
69	0xbdf3b6bf	-0.119000904
70	0xbd2fca71	-0.042917673
71	0xbd8ee288	-0.06976801
72	0xbe015d91	-0.12633349
73	0xbb930460	-0.0044866055
74	0x3cfa8f2d	0.03058585
75	0xbdf5f7ae	-0.12010132
76	0xbcb428ee	-0.021992173
77	0x3cd0323d	0.02541458
78	0xbd1c794a	-0.038201608
79	0xbd86117c	-0.06546304
80	0xbc93d686	-0.018046629
81	0x3d577e34	0.05261059
82	0x3e035bc9	0.12827982
83	0x3dabf6fe	0.083967194
84	0xbd9d082f	-0.076675765
85	0xbe1a8bc6	-0.15092382
86	0x3dafbdd8	0.08581132
87	0x3cb4a599	0.02205162
88	0xbe3de3ff	-0.18544005
89	0xbd3499af	-0.044091877
90	0xbc4a3a68	-0.012343027
91	0xbd8d6113	-0.06903281
92	0x3e205d91	0.15660693
93	0x3dbed9fe	0.093189225
94	0x3dc6fa51	0.09715713
95	0xbd86390e	-0.06553851
96	0x3c260bcd	0.010134649
97	0xbdaf7b02	-0.08568384
98	0xbd8b1265	-0.06790618
99	0xbd746d47	-0.059674527
100	0xbd172ec9	-0.036909852
101	0x3d82a2e2	0.06378724
102	0x3bed1fe2	0.0072364667
103	0x3dfceaea	0.12349494
104	0xbadeade6	-0.0016989082
105	0xbdaa019a	-0.08301087
106	0x3defa6ba	0.117017224
107	0xbbea48a4	-0.0071497727
108	0xbc94f618	-0.018183753
109	0x3db56516	0.08857171
110	0x3deef675	0.11668102
111	0xbd515fd6	-0.051116787
112	0xbd59dcb6	-0.053189002
113	0x3cdc58e3	0.026897853
114	0xbd484444	-0.04889323
115	0xbe4e935c	-0.201734
116	0xbcdf27bf	-0.027240632
117	0x3ec3acf7	0.382179
118	0xbdcbbedf	-0.09948515
119	0xbd9f2d2b	-0.07772287
120	0xbc074bc8	-0.008257814
121	0xbddf1eee	-0.10894571
122	0xbdd60f8e	-0.104521856
123	0x3d724a91	0.059153143
124	0x3df30f05	0.11868099
125	0xbd8c4954	-0.06849924
126	0xbdf95914	-0.121751934
127	0xbd3c4e43	-0.045973074
128	0xbda9986f	-0.082810275
129	0xbd005015	-0.031326372
130	0xbe888a1e	-0.26667875
131	0xbcde6c64	-0.027151294
132	0x3f0c9837	0.5491976
133	0xbe2b7d5b	-0.16747038
134	0xbdc584d4	-0.096444756
135	0xbe648dbc	-0.22319692
136	0x3e1ea137	0.15491186
137	0x3d850700	0.06495476
138	0xbcab1b2e	-0.020886984
139	0x3c61dd5c	0.013785686
140	0xbda56e5d	-0.08077691
141	0xbc722f5b	-0.014781798
142	0xbf21ea8c	-0.63248515
143	0xbe1eb46c	-0.15498513
144	0xbc6772be	-0.014126478
145	0x3d846536	0.06464617
146	0x3e9b059e	0.30277723
147	0x3d2970e5	0.04136743
148	0x3e1da997	0.15396725
149	0x3da5b5f8	0.080913484
150	0xbd8d0bbe	-0.06887005
151	0x3e20e11c	0.15710872
152	0x3c6906dd	0.014222828
153	0xbdcea6b4	-0.1009039
154	0xbe7e77b2	-0.24850348
155	0xbe63850d	-0.22218724
156	0xbddf6097	-0.10907095
157	0x369ba4fb	4.638566e-06
158	0x3c71e127	0.014763153
159	0xbdd3cc9c	-0.103417605
160	0x3d4e14ad	0.050312687
161	0xbafd4381	-0.0019322486
162	0xbe997352	-0.29970795
163	0xbd6633ab	-0.05620162
164	0x3d3b2fed	0.045700002
165	0x3d0e1bd1	0.034694497
166	0x3e0a54fb	0.1350898
167	0x3e71263b	0.2354974
168	0xbf059f2c	-0.52196
169	0xbccd18d4	-0.025036253
170	0xbd1c8be6	-0.038219355
171	0xbdede297	-0.11615484
172	0x3d9718f3	0.073778056
173	0xbe16ff63	-0.1474586
174	0xbcf7be0d	-0.03024199
175	0x3ea76157	0.32691452
176	0xbd954ccf	-0.07290041
177	0xbd0969a6	-0.03354802
178	0xbcdf53f4	-0.027261712
179	0x3debd189	0.11514575
180	0xbd4794a4	-0.04872574
181	0xbdd12e89	-0.10213954
182	0xbd32c9f5	-0.043649632
183	0xbf01686a	-0.5054995
184	0x3dbfeb1d	0.09371016
185	0x3d9d38f5	0.07676879
186	0xbe5b7383	-0.21430783
187	0x3c96a919	0.018391179
188	0x3c3aaeb9	0.011394196
189	0xbe0684b6	-0.13136563
190	0xbe7ee8d8	-0.2489351
191	0x3d7c9fc8	0.061675817
192	0xbdbedbb3	-0.09319248
193	0x3d568198	0.052369684
194	0x3cd90a03	0.026494032
195	0xbd9573ed	-0.07297502
196	0x3d18be45	0.03729083
197	0xbd386f1e	-0.045027845
198	0x3cf9c5de	0.030489858
199	0xbdec036f	-0.115240924
200	0xbd41e1bd	-0.04733442
201	0x3d8b4e51	0.06802047
202	0xbd9ced32	-0.07662429
203	0xbe49d6b7	-0.19710813
204	0x3e20d3d7	0.1570581
205	0xbcf1f03a	-0.029533494
206	0x3dcd0edc	0.100126
207	0xbe96e1c8	-0.29469132
208	0x3da3d21f	0.07999062
209	0xbd63dbf1	-0.055629674
210	0xbe248394	-0.16065818
211	0x3be7649d	0.0070615546
212	0x3e0079df	0.1254649
213	0xbd2f2f2b	-0.042769592
214	0xbd7c4e55	-0.06159814
215	0xbc432f95	-0.0119132
216	0xbe073c2a	-0.13206545
217	0x3d17fe54	0.03710778
218	0x3cccd9f6	0.025006276
219	0xbd9df856	-0.07713382
220	0xbd955dd9	-0.07293291
221	0x3c124a29	0.008928814
222	0xbe265a78	-0.16245449
223	0xbd9c7bcd	-0.076408006
224	0x3d1d8d11	0.03846461
225	0xbb58e6c1	-0.0033096524
226	0xbe5a08eb	-0.21292464
227	0xbc666562	-0.0140622575
228	0x3d92f0b3	0.07174816
229	0xbcb55979	-0.02213739
230	0xbc45749b	-0.012051727
231	0xbbc52335	-0.00601616
232	0xbdb91fa9	-0.09039242
233	0x3d9682e7	0.073491864
234	0x3d7422f3	0.059603643
235	0xbcee70ca	-0.029106516
236	0x3dbb9fff	0.09161376
237	0xbd3d5721	-0.04622567
238	0x3bc8bc96	0.006125997
239	0xbcb0b9bc	-0.02157294
240	0xbc567016	-0.013088247
241	0x3d9fdbb1	0.07805575
242	0xbdfdac06	-0.123863265
243	0x3d541eba	0.051787116
244	0xbdbc9848	-0.09208733
245	0xbe59fbbb	-0.21287434
246	0x3ce2f6cc	0.027705573
247	0x3aeb79ef	0.0017965416
248	0x3c9ecafc	0.0193839
249	0xbdcaf5f7	-0.09910195
250	0xbda7984f	-0.081833474
251	0xbc95c201	-0.018280985
252	0x3d1a92d2	0.037737675
253	0xbd68e159	-0.056855533
254	0xbdc26db8	-0.094935834
255	0xbe4bfb5d	-0.19920106
