metric/probe_distill_first_sample0.pth (torch, 539609 bytes, 12 tensors)

z_mu f4 [512]
0	0x3f5aaeef	0.8542318
1	0x3c5d0d02	0.013491871
2	0x3f009984	0.50234246
3	0x3f8f7074	1.1206193
4	0xb8253421	-3.9387614e-05
5	0x3abe3d28	0.0014514076
6	0x3bd67b4b	0.0065454594
7	0xb95e28bc	-0.00021186745
8	0x3f3ac5c3	0.7295801
9	0xbbdb75cd	-0.0066973926
10	0x3b3c60b5	0.0028744165
11	0x3b89e632	0.0042083496
12	0xbc2b48b7	-0.010454348
13	0x384d7649	4.898597e-05
14	0x3ae0ffee	0.0017166117
15	0x3adca9a1	0.0016835221
16	0xbb695314	-0.0035602497
17	0x3a9c300a	0.0011916172
18	0x3bed90ff	0.007249951
19	0x3af2b016	0.0018515612
20	0xbb273288	-0.0025512297
21	0xbb6aaeb2	-0.0035809693
22	0x3b001990	0.0019546486
23	0x3b84ee54	0.0040567312
24	0x3fa77c4c	1.3084807
25	0x3f28fa2d	0.6600674
26	0xbb0177de	-0.0019755284
27	0x3b572eb5	0.0032834236
28	0xba4fa8d6	-0.0007921582
29	0xba590e11	-0.0008279989
30	0x3f2ccdce	0.67501533
31	0x3b2340e6	0.0024910509
32	0xbbc42551	-0.005985894
33	0x3c24d2ef	0.010060056
34	0xba012091	-0.0004925812
35	0x3bb518a3	0.0055266186
36	0xba885235	-0.0010400476
37	0xba83d271	-0.0010057223
38	0x3f786cab	0.97040814
39	0x38c96b6f	9.604438e-05
40	0x3a5e4b36	0.0008479835
41	0xbb896454	-0.0041928682
42	0x3a9437ad	0.0011308097
43	0xba68c888	-0.0008879979
44	0x3b394d3b	0.0028274793
45	0x3ae88b4c	0.0017741709
46	0xbb7985f8	-0.0038074236
47	0x3b90b686	0.0044162897
48	0x3a411e7f	0.000736691
49	0x3d7d8dd0	0.06190282
50	0x3f9abd92	1.2089102
51	0x3c9097be	0.017650481
52	0x3f95d5e2	1.1705897
53	0xbac4673f	-0.0014984383
54	0x3a7f518a	0.00097396283
55	0xba4dc1f1	-0.0007849029
56	0x3aa0ad00	0.0012258589
57	0xb81ea75b	-3.7825997e-05
58	0x392af809	0.00016304864
59	0xbb2fcb9c	-0.0026824242
60	0x3fa23c50	1.2674656
61	0xb835b508	-4.332236e-05
62	0xba9f1402	-0.00121367
63	0x401ceb5b	2.451865
64	0x3f298eca	0.66233504
65	0xbb3489a6	-0.0027547865
66	0xba3d5f60	-0.000722399
67	0xbb14d9ab	-0.0022712748
68	0xb8205d86	-3.8234073e-05
69	0x3a8b5b52	0.0010632074
70	0x38da0073	0.00010395134
71	0xbb89a07a	-0.0042000385
72	0xba82aae3	-0.0009969141
73	0x3f50248d	0.8130577
74	0x3bf3889a	0.0074320557
75	0xbacd88e3	-0.0015681054
76	0x3bffb8ec	0.007804027
77	0xbb5e9548	-0.003396349
78	0x3b3f998f	0.0029235815
79	0xb9fa76e3	-0.00047772293
80	0x3ab808fb	0.0014040762
81	0xba2f5f88	-0.00066899555
82	0x3c1ccd44	0.0095704235
83	0xba8ebd78	-0.0010890206
84	0x398bf76b	0.00026696487
85	0x3aa0f717	0.001228067
86	0xbbe1492d	-0.0068751783
87	0xba3c6133	-0.00071861147
88	0x3d3d3a65	0.046198267
89	0x3a77c6ad	0.0009451907
90	0x3f8dd982	1.1082003
91	0xba1ab67a	-0.0005901825
92	0x3f8d61f9	1.1045524
93	0x3f5e2bbd	0.8678549
94	0x3a2070e9	0.00061203405
95	0x3b959e57	0.0045659947
96	0x3fbdfbc6	1.484246
97	0x3a461079	0.0007555555
98	0xbb28345b	-0.0025665972
99	0x3a82ed7e	0.0009988991
100	0xbaf4d782	-0.0018679949
101	0xb99981d1	-0.00029279155
102	0xb980b5c7	-0.00024549497
103	0x3f52dad0	0.8236513
104	0x3a85f7d7	0.0010220957
105	0xb9a02690	-0.0003054631
106	0x3af41a07	0.0018623479
107	0xbb459a72	-0.003015187
108	0x3c531019	0.012882256
109	0xba2df742	-0.00066362706
110	0x3bd8e3db	0.0066189594
111	0xbc94c836	-0.018161874
112	0x3f8aeb79	1.085311
113	0xba1d110d	-0.00059916155
114	0xbaf1ef25	-0.0018458111
115	0xbab55688	-0.0013834992
116	0x3aa09b4b	0.0012253312
117	0xbb0880d9	-0.0020828752
118	0x3a5df5ed	0.0008467127
119	0x3a41c60f	0.0007391879
120	0xb999990e	-0.0002929647
121	0xbbaf3d29	-0.005347867
122	0xb91e22c8	-0.00015081011
123	0x3eeabd86	0.4584772
124	0xbb855225	-0.0040686303
125	0xbb16811f	-0.0022965146
126	0x3f50f6a6	0.81626356
127	0x3f8812a7	1.0630692
128	0x3f8209b7	1.0159215
129	0x3c8c0c9d	0.017095858
130	0x3aa90bea	0.0012897227
131	0x3f41e90a	0.75746214
132	0x3b5e7315	0.0033943106
133	0x3fd5c97a	1.6702111
134	0x3f8f9f2d	1.1220452
135	0x3eace912	0.3377157
136	0x4036c70d	2.855899
137	0x3a814da5	0.0009865059
138	0x4008e9fa	2.1392808
139	0x3fd7ddcb	1.6864561
140	0x3f022766	0.5084137
141	0x3a8bbef6	0.0010661769
142	0x3f84c2a6	1.0371902
143	0x3ac3f7f4	0.0014951215
144	0xbb828080	-0.0039826035
145	0x3c846679	0.016162144
146	0x3b672694	0.0035270797
147	0x3b8e7554	0.0043474827
148	0x3f640130	0.8906431
149	0x3f198f1c	0.5998399
150	0x3f548507	0.83015484
151	0xbb4b21b2	-0.0030995426
152	0x3fd47563	1.6598324
153	0x3c61cb63	0.013781401
154	0xbb8f5414	-0.0043740366
155	0xbb05cffb	-0.0020418155
156	0xb9edc0f1	-0.00045347915
157	0x3faafdfd	1.3358761
158	0x3b027e3b	0.0019911665
159	0xba997faa	-0.001171102
160	0x3fb8300c	1.4389663
161	0x3a9491f1	0.0011334998
162	0x3f7a07b9	0.97668034
163	0xba0453d4	-0.0005047892
164	0x3c0f25d7	0.008737049
165	0xbb0faeb6	-0.0021924204
166	0x3b32b97a	0.0027271197
167	0x3b60a42b	0.003427754
168	0x3f8988da	1.0744889
169	0x3b32ef92	0.002730344
170	0x3fb72dbd	1.4310833
171	0xbb199e7b	-0.002344041
172	0x3f1a6334	0.6030762
173	0x3f4a7bc5	0.7909511
174	0x3f1917e7	0.598021
175	0x3fb6fc2a	1.4295704
176	0xbaf4ded5	-0.0018682132
177	0x3afe9f4b	0.0019426135
178	0x3ec66bcb	0.38754115
179	0xbad29b85	-0.0016068077
180	0x39a27e90	0.00030993344
181	0x3f46bd66	0.7763275
182	0xbbb0dd2f	-0.005397461
183	0x3981e2b6	0.0002477371
184	0x3b444517	0.0029948407
185	0xba970dce	-0.00115245
186	0xbad0be10	-0.0015925784
187	0x3f9b899b	1.2151369
188	0xbba340d9	-0.0049820957
189	0xba2fa911	-0.0006700913
190	0x3f8ebe66	1.1151855
191	0xbaa201d2	-0.0012360162
192	0x3fa52883	1.2902988
193	0x3eeb1c30	0.45919943
194	0xbb021974	-0.0019851597
195	0xbbef1f58	-0.0072974376
196	0xbaddb892	-0.0016915968
197	0x3a052966	0.0005079716
198	0xb8a3a9cc	-7.804073e-05
199	0x3f469a78	0.7757945
200	0xba1eb53f	-0.00060542295
201	0x3fea800a	1.8320324
202	0x3f8e3dba	1.1112587
203	0x3b770d64	0.003769719
204	0x3a8efc8c	0.0010909005
205	0xbc12bcb4	-0.008956123
206	0x3ec911dc	0.39271438
207	0x3f937dcb	1.1522764
208	0x3ab9fa12	0.0014188907
209	0x3f9ad47c	1.2096095
210	0x3b6ee303	0.0036451227
211	0xb9d2b653	-0.00040190163
212	0xba4e5c5a	-0.0007872038
213	0xba46fa2d	-0.00075903797
214	0x3776c25e	1.4707997e-05
215	0x3bc9f4f5	0.0061632344
216	0x3a9dd3cd	0.0012041271
217	0x3e9df696	0.30852193
218	0x3faa9c03	1.3328861
219	0x3b709a99	0.003671324
220	0x3ff241ee	1.892637
221	0x3f9e73e2	1.2379115
222	0x3a4ceed7	0.00078175723
223	0xb990fd14	-0.00027654378
224	0x3b488d61	0.0030601847
225	0x3bba5e66	0.0056875227
226	0xbac52504	-0.0015040939
227	0x3ef94953	0.48688754
228	0x3b4fa72b	0.0031685333
229	0x3af75767	0.0018870652
230	0x3ae95e16	0.0017804529
231	0x3aa05c49	0.0012234534
232	0xba0d3c9c	-0.00053877546
233	0xbb3e8d2a	-0.002907584
234	0xbb0decf1	-0.002165612
235	0x3aa14d98	0.001230645
236	0x3f8de4fd	1.1085507
237	0x3fb37b28	1.4021959
238	0xbc46bf5a	-0.012130583
239	0xbad44589	-0.001619504
240	0x3af9e117	0.0019064274
241	0x3a60f89a	0.00085819664
242	0xbb08cc28	-0.002087364
243	0x3986ce34	0.00025712105
244	0x3ba43df2	0.0050122673
245	0x3fc3a930	1.5286007
246	0x3b8ce719	0.00430001
247	0xb9977513	-0.0002888819
248	0x3f96715d	1.1753346
249	0x3fb4df4e	1.4130647
250	0x38795003	5.9440743e-05
251	0x3887dd36	6.4785054e-05
252	0xbb47a338	-0.0030462276
253	0xba7e8834	-0.0009709627
254	0xba5f8aa3	-0.00085274334
255	0x3a003e76	0.000489212

z_logvar f4 [512]
0	0xc087cbff	-4.243652
1	0xc089fbf7	-4.3120074
2	0xc08cebc0	-4.403778
3	0xc0d456c3	-6.635591
4	0xc07c83bf	-3.9455411
5	0xc08a5065	-4.322314
6	0xc08da5af	-4.426475
7	0xc0a416ab	-5.127767
8	0xc0b16fcb	-5.5448966
9	0xc060dd6a	-3.513514
10	0xc09e52a4	-4.947588
11	0xc084ad42	-4.1461496
12	0xc04f6699	-3.240637
13	0xc0c2a03a	-6.082059
14	0xc0b45777	-5.635677
15	0xc0bcb12c	-5.8966274
16	0xc0bb9d7e	-5.862975
17	0xc0c3b62f	-6.115989
18	0xc0a4e172	-5.15252
19	0xc0b8aabe	-5.7708426
20	0xc074c767	-3.8246706
21	0xc0b7b545	-5.7408776
22	0xc093e72e	-4.62197
23	0xc05ed96e	-3.4820209
24	0xc0c7c360	-6.2425995
25	0xc0b380fd	-5.6094956
26	0xc098f4d3	-4.779886
27	0xc0ad956b	-5.4244895
28	0xc05778f4	-3.3667574
29	0xc0ad63b9	-5.418423
30	0xc0aee70e	-5.465705
31	0xc0af546d	-5.479056
32	0xc07106c3	-3.7660377
33	0xc07f0af3	-3.9850433
34	0xc0b03cec	-5.5074368
35	0xc0b025f5	-5.5046334
36	0xc0c390d0	-6.1114273
37	0xc0bcc62d	-5.8991914
38	0xbf362e0e	-0.71164024
39	0xc08d4128	-4.4142036
40	0xc0a7998f	-5.237495
41	0xc0782bc8	-3.8776722
42	0xc0c96715	-6.2938333
43	0xc0c6485c	-6.196333
44	0xc0a612d1	-5.189797
45	0xc0a58f75	-5.173762
46	0xc0c061a9	-6.0119214
47	0xc0442d2d	-3.0652573
48	0xc0b1bc79	-5.554257
49	0xc06ec71d	-3.730903
50	0xc0c8b606	-6.2722197
51	0xc0309d1c	-2.7595892
52	0xc088bad2	-4.272805
53	0xc0b35a79	-5.604794
54	0xc0a0f151	-5.0294576
55	0xc0885b28	-4.2611275
56	0xc0ad2cdc	-5.411726
57	0xc0ae16f3	-5.4403014
58	0xc0b48b7f	-5.6420283
59	0xc0c0954a	-6.018224
60	0xc04e6971	-3.2251856
61	0xc0ce4ebc	-6.447111
62	0xc08871d9	-4.2638974
63	0xc0a590f2	-5.1739435
64	0xc0ae4bbc	-5.446745
65	0xc0a6ad8a	-5.208684
66	0xc0821108	-4.064579
67	0xc0c64ddd	-6.197005
68	0xc0312135	-2.7676518
69	0xc0ac6140	-5.3868713
70	0xc0477b4b	-3.1169002
71	0xc08e7bcf	-4.4526134
72	0xc08dbc32	-4.429223
73	0xbfe5bb29	-1.7947742
74	0xc046e937	-3.1079843
75	0xc0acc254	-5.3987217
76	0xc093bc77	-4.616756
77	0xc0b52f79	-5.662045
78	0xc0abeb6a	-5.372487
79	0xc09e118a	-4.939641
80	0xc05cce0a	-3.4500756
81	0xc0a8ab49	-5.270909
82	0xc04a33d6	-3.1594138
83	0xc0c1289c	-6.036207
84	0xc0aa958f	-5.3307567
85	0xc0876d9e	-4.232131
86	0xc099f915	-4.8116555
87	0xc09c212e	-4.8790503
88	0xc0676ae9	-3.6159003
89	0xc0828e22	-4.07985
90	0xc0b76931	-5.7315907
91	0xc0b3f9d7	-5.624248
92	0xc0dd7443	-6.920442
93	0xc0a671ed	-5.201407
94	0xc0c9b111	-6.3028646
95	0xc0a9c678	-5.305477
96	0xc09fd535	-4.9947762
97	0xc0bc3900	-5.881958
98	0xc0af9db4	-5.488001
99	0xc0abccfe	-5.3687735
100	0xc0ac7d6a	-5.3903093
101	0xc0aa5652	-5.323037
102	0xc0b2dc02	-5.5893564
103	0xc0c6da72	-6.2141657
104	0xc0a9fab1	-5.311852
105	0xc0bd1653	-5.908975
106	0xc0a43301	-5.131226
107	0xc0432389	-3.049044
108	0xc08e2e97	-4.443187
109	0xc0b8cc28	-5.7749214
110	0xc0c65e7b	-6.1990333
111	0xc089e742	-4.3094797
112	0xc0c77b59	-6.233807
113	0xc0bbe195	-5.871287
114	0xc0a68eaa	-5.204915
115	0xc0b0e3ee	-5.5278234
116	0xc0a9dc12	-5.308114
117	0xc0b2e366	-5.5902586
118	0xc0ac9e30	-5.39431
119	0xc0ae2fd1	-5.443337
120	0xc0acb7b0	-5.397423
121	0xc0ae2184	-5.4415913
122	0xc0d54476	-6.664607
123	0xc097a6c3	-4.7391067
124	0xc0a72fdb	-5.2245917
125	0xc03fa3e5	-2.9943783
126	0xc0c119c8	-6.034397
127	0xc0cbd438	-6.3696556
128	0xc0c19425	-6.049334
129	0xc08d6dfa	-4.419675
130	0xc0a6be4c	-5.2107296
131	0xc0543a8b	-3.3160732
132	0xc0899642	-4.299592
133	0xc0c04f16	-6.009654
134	0xc0c2a3fa	-6.0825167
135	0xc089f462	-4.311082
136	0xc095f8de	-4.6866293
137	0xc0bd0467	-5.9067874
138	0xc042f6b9	-3.0463088
139	0xc087fadb	-4.249372
140	0xc0a44846	-5.1338224
141	0xc085c3f3	-4.1801696
142	0xc0db149d	-6.8462663
143	0xc0ab0396	-5.3441877
144	0xc0bd436b	-5.9144797
145	0xc03862ff	-2.8810422
146	0xc0740de2	-3.8133473
147	0xc08e730f	-4.4515452
148	0xc09102eb	-4.531606
149	0xc070749f	-3.757118
150	0xc03bc73d	-2.9340355
151	0xc097d3d0	-4.744606
152	0xc04e8083	-3.2265937
153	0xc0a92f0d	-5.2869935
154	0xc0ace4b4	-5.402918
155	0xc0b14dde	-5.5407553
156	0xc0bab9d1	-5.8351827
157	0xc068f882	-3.6401677
158	0xc0b61ebd	-5.691252
159	0xc08b8f2f	-4.3612285
160	0xc09e36db	-4.944196
161	0xc0ae7e54	-5.452921
162	0xc0252d48	-2.5808887
163	0xc0aef5a7	-5.467487
164	0xc07cbf13	-3.9491622
165	0xc06b12a3	-3.6730125
166	0xc0aeb9af	-5.4601665
167	0xc0b369dd	-5.606673
168	0xc0c691e7	-6.2053103
169	0xc0895df5	-4.2927194
170	0xc0c628f5	-6.1924996
171	0xc0bf1813	-5.9716887
172	0xc093cfae	-4.6191015
173	0xc0b8410a	-5.7579393
174	0xc084d2b1	-4.150719
175	0xc0a180e7	-5.046985
176	0xc0bca566	-5.8951902
177	0xc0c43a18	-6.1320915
178	0xc088c58b	-4.274114
179	0xc07f4894	-3.9888048
180	0xc0c1f0d3	-6.0606475
181	0xc0a47116	-5.1388044
182	0xc0c2ce58	-6.0876884
183	0xc0a96106	-5.2930937
184	0xc097bb3d	-4.741606
185	0xc0c4d55f	-6.1510463
186	0xc0ab4384	-5.3519917
187	0xc00286bd	-2.0394738
188	0xc06fb6be	-3.7455287
189	0xc08392bc	-4.111662
190	0xc0911b00	-4.534546
191	0xc0b313c0	-5.596161
192	0xc0cc60ec	-6.3868313
193	0xc0ab7d92	-5.3590784
194	0xc0c886f5	-6.2664742
195	0xc0a0313f	-5.0060115
196	0xc0ac5756	-5.385661
197	0xc0ac1056	-5.376994
198	0xc0bd70d8	-5.920025
199	0xc081b17a	-4.0529146
200	0xc0a96c0a	-5.2944384
201	0xc0d10882	-6.5322886
202	0xc08d313e	-4.412261
203	0xc0971124	-4.7208424
204	0xc09dc514	-4.9303074
205	0xc0ad0898	-5.407299
206	0xc0a578a1	-5.170975
207	0xc08cc8d5	-4.3995156
208	0xc094778a	-4.639592
209	0xc0c9addb	-6.3024726
210	0xc0982b8f	-4.755317
211	0xc0ca54e1	-6.322861
212	0xc040108f	-3.0010107
213	0xc0023676	-2.034574
214	0xc0a96cb5	-5.29452
215	0xc035d701	-2.8412478
216	0xc0bca70b	-5.895391
217	0xc085dbcc	-4.1830807
218	0xc0d77349	-6.732823
219	0xc086981d	-4.2060685
220	0xc065a7d6	-3.588369
221	0xc010234c	-2.2521544
222	0xc0a41934	-5.1280766
223	0xc0c40e55	-6.1267495
224	0xc085b0c6	-4.177829
225	0xc045010f	-3.0781896
226	0xc0bb08c4	-5.84482
227	0xc09ce41f	-4.902847
228	0xc0bec4fb	-5.9615455
229	0xc0b3394a	-5.6007433
230	0xc0ad9cb8	-5.4253807
231	0xc0a7e033	-5.246118
232	0xc09a533f	-4.822662
233	0xc0d6c650	-6.711708
234	0xc08c186b	-4.3779807
235	0xc06ebf25	-3.7304165
236	0xc0bdc55e	-5.9303427
237	0xc0a5537c	-5.166441
238	0xc09f8a9e	-4.985671
239	0xc092c048	-4.585972
240	0xc0c6f6dc	-6.217634
241	0xc0b0bb2e	-5.522849
242	0xc0c25183	-6.07245
243	0xc0bf7b50	-5.983803
244	0xc09273c9	-4.576634
245	0xc01c38f5	-2.4409764
246	0xc0a96926	-5.2940855
247	0xc0b57c20	-5.671402
248	0xc0d8f766	-6.7802
249	0xc0442833	-3.0649536
250	0xc0ccbb91	-6.3978963
251	0xc0b09256	-5.5178633
252	0xc0a52ec8	-5.1619606
253	0xc0b74901	-5.7276616
254	0xc0b4c233	-5.648706
255	0xc0b32f9b	-5.599561

weight_mu f4 [128, 512]
0	0x3a4a75b5	0.0007723228
1	0x3c60a9d2	0.013712363
2	0xbbc4c7e8	-0.006005276
3	0xbd0c8081	-0.03430224
4	0xbafa1b01	-0.0019081534
5	0x3c8e86e7	0.01739831
6	0x3878a86c	5.9284663e-05
7	0x3b8fe77a	0.004391608
8	0xbcf67d3c	-0.030089013
9	0x3b3bf514	0.0028680013
10	0x3bbb8aa1	0.005723313
11	0x3c522af3	0.012827623
12	0xbc67dde0	-0.01415202
13	0xbab47c0a	-0.0013769877
14	0x3b46e797	0.003035044
15	0xbc809db3	-0.015700197
16	0xbb4c376d	-0.0031160966
17	0x3b1b2424	0.0023672665
18	0xbc6db529	-0.014508524
19	0xbbc4808a	-0.0059967684
20	0x3b76daf0	0.0037667118
21	0xbb9dd22f	-0.0048163156
22	0x3af9ad03	0.0019048754
23	0xbb368095	-0.0027847637
24	0xbd929840	-0.07157946
25	0xbcd32c6b	-0.025778016
26	0xbba15c10	-0.004924305
27	0xbbee3f98	-0.0072707646
28	0xba36d98d	-0.00069751666
29	0xbc103274	-0.008801091
30	0xbcd1d584	-0.025614507
31	0x3c5ba570	0.013406143
32	0x3ce0f959	0.027462648
33	0xbab55e83	-0.0013837371
34	0xbbf6b03e	-0.007528334
35	0xbaed68a9	-0.0018112856
36	0x3af11157	0.0018392008
37	0xbbe89f2d	-0.0070990534
38	0x3c72aaa3	0.014811191
39	0xba991e73	-0.0011682048
40	0xbb8b1a6d	-0.0042450936
41	0xbc02cca0	-0.007983357
42	0x3a80a50d	0.0009814814
43	0xbc53dc99	-0.012931013
44	0x38e2ea7e	0.00010820197
45	0x3b8eed5b	0.004361791
46	0x3c1e2421	0.0096521685
47	0x3c846576	0.016161662
48	0x382b9bce	4.091468e-05
49	0x3b987170	0.0046521947
50	0xbd94df92	-0.07269205
51	0x3b86911e	0.004106655
52	0xbcf08621	-0.029360833
53	0x3bcb8db7	0.006211962
54	0xbc22fb51	-0.009947614
55	0x3be176d5	0.006880621
56	0x3b14fea5	0.0022734788
57	0x3ba58d89	0.0050522727
58	0xbb0b62a5	-0.0021268514
59	0x3bd1aa8d	0.006398505
60	0x3c12a518	0.008950494
61	0x3ae3c8c4	0.0017378558
62	0x39402be1	0.00018326893
63	0xbc700018	-0.01464846
64	0xbd0273b7	-0.031848636
65	0x3acf0a8f	0.0015795993
66	0xbc91966f	-0.017771928
67	0xbc8b7129	-0.017021732
68	0xba903d7f	-0.0011004655
69	0x3a06a434	0.00051361625
70	0xbb4feb16	-0.0031725815
71	0xb9fe6918	-0.00048524956
72	0xb93b0f90	-0.00017839507
73	0xbc2cdd6f	-0.010550841
74	0x3c541513	0.012944478
75	0xb88567f2	-6.3612955e-05
76	0xbc2aaaba	-0.010416681
77	0xbb55dc22	-0.003263243
78	0xbb9616a0	-0.004580334
79	0xbb9e15b5	-0.004824365
80	0xbb801ccf	-0.0039096843
81	0xba9597d2	-0.0011413044
82	0xbae85e72	-0.0017728342
83	0x3c9079bd	0.017636174
84	0x39bf5327	0.00036492312
85	0x395fd53e	0.00021346376
86	0x3b3650d8	0.0027819183
87	0x3c0541cf	0.008133366
88	0x3baafa81	0.0052178507
89	0x3bedf120	0.0072614104
90	0xbd3a36be	-0.045462362
91	0x3beb438b	0.0071796826
92	0xbd481f9d	-0.048858274
93	0xbca5c367	-0.020234777
94	0xbb8ee417	-0.0043606865
95	0xbc3d9201	-0.011570455
96	0xbce12962	-0.027485553
97	0x3b2e8a06	0.0026632561
98	0x3b269123	0.0025416098
99	0xbb7dc2e3	-0.0038720898
100	0xbbb481a6	-0.0055086194
101	0xbbb7be19	-0.005607378
102	0xbb2eab03	-0.0026652224
103	0xbd1dabfb	-0.03849409
104	0x3be7b98e	0.0070716804
105	0x38f688ab	0.000117556505
106	0x3c9870ff	0.018608568
107	0x3a2187bb	0.0006161888
108	0x3bab9085	0.005235734
109	0x3c21eee8	0.00988362
110	0x3ab551d8	0.0013833595
111	0xbadd092b	-0.0016863694
112	0xbcf7692f	-0.030201523
113	0x3bbe3c75	0.005805547
114	0x3c53e75f	0.012933581
115	0x3c0ab2ff	0.008465528
116	0xbc4f117e	-0.012638448
117	0xbc2e834d	-0.010651422
118	0x3c240963	0.010012004
119	0xbcae15d7	-0.021250648
120	0x3a094427	0.0005236291
121	0x3bfab299	0.007650685
122	0x3b0f99b7	0.002191169
123	0xbc6ffe57	-0.014648042
124	0xbb15e1cc	-0.002287018
125	0xbb9d9a5d	-0.0048096613
126	0xbd204ca4	-0.03913559
127	0xbd41b5a1	-0.047292355
128	0xbd3a8185	-0.045533676
129	0xbd0262fe	-0.031832688
130	0x3c1d4689	0.009599336
131	0xba61bf73	-0.0008611597
132	0x3b9357f7	0.00449657
133	0xbd6746ff	-0.05646419
134	0xbd4f0913	-0.050545763
135	0x3bb79460	0.0056024045
136	0xbcf9a38f	-0.030473499
137	0x3ad7d8a5	0.0016467763
138	0xbc8de3c3	-0.01732052
139	0xbbb63bc6	-0.005561325
140	0xbc85b37f	-0.016320942
141	0xbbd79e40	-0.006580144
142	0xbd8763d0	-0.066108346
143	0x3b7c569f	0.0038503779
144	0xbbb6fe96	-0.005584548
145	0xbc062093	-0.008186477
146	0xbbbedb01	-0.005824447
147	0xb9f1f149	-0.00046146874
148	0xbd3eaf2d	-0.04655378
149	0xbc9c4fb3	-0.019080972
150	0x3b45943d	0.0030148171
151	0x3c29793c	0.010343846
152	0xbcb26f86	-0.021781694
153	0xbb01714c	-0.0019751368
154	0xbb8b0af5	-0.0042432495
155	0xbc5b8552	-0.013398485
156	0xbc28f30e	-0.010311855
157	0xbc81fb6d	-0.01586696
158	0xbbe72c45	-0.007054838
159	0x3c9c670e	0.019092109
160	0xbd045c3f	-0.032314535
161	0xbc07e7ae	-0.008294983
162	0xbc84c9f0	-0.016209573
163	0x3bb3e128	0.005489487
164	0x3b92e90b	0.0044833473
165	0xba7f2562	-0.00097330485
166	0x3a90a3d3	0.0011035152
167	0x3bb45301	0.005503059
168	0xbd3ff078	-0.04686019
169	0x3ab43089	0.0013747375
170	0xbd8c5d3a	-0.06853719
171	0x3a8efd00	0.001090914
172	0xbc1c7ad1	-0.009550766
173	0xbd1f272e	-0.038855724
174	0xbcb5fe41	-0.022215964
175	0xbccc6949	-0.024952548
176	0xbb9479b2	-0.004531109
177	0xbbaabaf2	-0.005210274
178	0xbc09397a	-0.00837552
179	0xbbbc6db1	-0.005750381
180	0x39a7b5d2	0.0003198819
181	0xbc9f14c3	-0.01941908
182	0x3a15f14e	0.0005719856
183	0x3a1a7f44	0.0005893598
184	0xba89609a	-0.001048106
185	0xbb196a72	-0.0023409394
186	0x3a8ac3fb	0.0010586971
187	0xbc4d16a4	-0.012517605
188	0x3c058b97	0.008150957
189	0x3c66382c	0.014051478
190	0xbd0e2f05	-0.03471281
191	0x3bd6f1d0	0.006559588
192	0xbd713798	-0.05889091
193	0xbc9378b0	-0.018001884
194	0x3c2489bf	0.010042607
195	0x3c14eaa7	0.009089149
196	0x3c62c669	0.01384125
197	0x3b613f7c	0.0034370115
198	0xbc2f4de6	-0.010699725
199	0xbb70509a	-0.0036669136
200	0xbcdc57f2	-0.026897404
201	0xbda4bbba	-0.080436185
202	0xbca018fd	-0.019543165
203	0x3c8a0d95	0.01685218
204	0xb9b965be	-0.00035361754
205	0xbbf54692	-0.0074852193
206	0xbc173bfb	-0.009230609
207	0xbceee4b4	-0.029161789
208	0x3c6a137e	0.014286874
209	0xbd493a13	-0.04912765
210	0xbc1e3a27	-0.009657419
211	0x3c4d0bcc	0.01251502
212	0x3a6453bb	0.00087099866
213	0x3ad408e4	0.0016176966
214	0xbca1ef91	-0.019767554
215	0x3bbb47dc	0.0057153534
216	0xba83ea77	-0.0010064383
217	0xbca833c1	-0.02053249
218	0xbd8ac7f9	-0.06776423
219	0xbc109393	-0.008824247
220	0xbd09181f	-0.03347027
221	0xbc9305e9	-0.017947154
222	0x3bcf1666	0.006319809
223	0x3c152eff	0.009105443
224	0x3b72e867	0.0037064792
225	0xbad6b904	-0.0016382043
226	0xbadc3a54	-0.0016802051
227	0xbca0e720	-0.019641459
228	0xbc7f8cde	-0.01559755
229	0xbcb1f275	-0.021722058
230	0xbba5624c	-0.0050471183
231	0xbc5c5233	-0.013447332
232	0xbb80c871	-0.0039301445
233	0x3bb18b29	0.0054182005
234	0xbb02d0de	-0.001996092
235	0x39801205	0.00024427488
236	0xbd7c1b04	-0.0615492
237	0xbccd390b	-0.025051614
238	0x3c0b2e80	0.008494973
239	0x3c897629	0.016779976
240	0xbc56f1dc	-0.013119187
241	0xbbd3e15c	-0.006466074
242	0xbbe78142	-0.0070649693
243	0x3b2346da	0.0024914057
244	0xbc28532f	-0.010273739
245	0xbcb306ee	-0.02185389
246	0x3c333234	0.010937262
247	0xbb50bbac	-0.0031850142
248	0xbd762644	-0.060095087
249	0xbc64ed18	-0.013972543
250	0x3a462062	0.0007557926
251	0xbaa79b94	-0.0012787455
252	0xbaa35600	-0.0012461543
253	0xbc6ef0d2	-0.014583783
254	0xbb01e357	-0.0019819343
255	0x3c1e6459	0.009667479

weight_logvar f4 [128, 512]
0	0xc04e0210	-3.218876
1	0xc04e0210	-3.218876
2	0xc04e0210	-3.218876
3	0xc04e0210	-3.218876
4	0xc04e0210	-3.218876
5	0xc04e0210	-3.218876
6	0xc04e0210	-3.218876
7	0xc04e0210	-3.218876
8	0xc04e0210	-3.218876
9	0xc04e0210	-3.218876
10	0xc04e0210	-3.218876
11	0xc04e0210	-3.218876
12	0xc04e0210	-3.218876
13	0xc04e0210	-3.218876
14	0xc04e0210	-3.218876
15	0xc04e0210	-3.218876
16	0xc04e0210	-3.218876
17	0xc04e0210	-3.218876
18	0xc04e0210	-3.218876
19	0xc04e0210	-3.218876
20	0xc04e0210	-3.218876
21	0xc04e0210	-3.218876
22	0xc04e0210	-3.218876
23	0xc04e0210	-3.218876
24	0xc04e0210	-3.218876
25	0xc04e0210	-3.218876
26	0xc04e0210	-3.218876
27	0xc04e0210	-3.218876
28	0xc04e0210	-3.218876
29	0xc04e0210	-3.218876
30	0xc04e0210	-3.218876
31	0xc04e0210	-3.218876
32	0xc04e0210	-3.218876
33	0xc04e0210	-3.218876
34	0xc04e0210	-3.218876
35	0xc04e0210	-3.218876
36	0xc04e0210	-3.218876
37	0xc04e0210	-3.218876
38	0xc04e0210	-3.218876
39	0xc04e0210	-3.218876
40	0xc04e0210	-3.218876
41	0xc04e0210	-3.218876
42	0xc04e0210	-3.218876
43	0xc04e0210	-3.218876
44	0xc04e0210	-3.218876
45	0xc04e0210	-3.218876
46	0xc04e0210	-3.218876
47	0xc04e0210	-3.218876
48	0xc04e0210	-3.218876
49	0xc04e0210	-3.218876
50	0xc04e0210	-3.218876
51	0xc04e0210	-3.218876
52	0xc04e0210	-3.218876
53	0xc04e0210	-3.218876
54	0xc04e0210	-3.218876
55	0xc04e0210	-3.218876
56	0xc04e0210	-3.218876
57	0xc04e0210	-3.218876
58	0xc04e0210	-3.218876
59	0xc04e0210	-3.218876
60	0xc04e0210	-3.218876
61	0xc04e0210	-3.218876
62	0xc04e0210	-3.218876
63	0xc04e0210	-3.218876
64	0xc04e0210	-3.218876
65	0xc04e0210	-3.218876
66	0xc04e0210	-3.218876
67	0xc04e0210	-3.218876
68	0xc04e0210	-3.218876
69	0xc04e0210	-3.218876
70	0xc04e0210	-3.218876
71	0xc04e0210	-3.218876
72	0xc04e0210	-3.218876
73	0xc04e0210	-3.218876
74	0xc04e0210	-3.218876
75	0xc04e0210	-3.218876
76	0xc04e0210	-3.218876
77	0xc04e0210	-3.218876
78	0xc04e0210	-3.218876
79	0xc04e0210	-3.218876
80	0xc04e0210	-3.218876
81	0xc04e0210	-3.218876
82	0xc04e0210	-3.218876
83	0xc04e0210	-3.218876
84	0xc04e0210	-3.218876
85	0xc04e0210	-3.218876
86	0xc04e0210	-3.218876
87	0xc04e0210	-3.218876
88	0xc04e0210	-3.218876
89	0xc04e0210	-3.218876
90	0xc04e0210	-3.218876
91	0xc04e0210	-3.218876
92	0xc04e0210	-3.218876
93	0xc04e0210	-3.218876
94	0xc04e0210	-3.218876
95	0xc04e0210	-3.218876
96	0xc04e0210	-3.218876
97	0xc04e0210	-3.218876
98	0xc04e0210	-3.218876
99	0xc04e0210	-3.218876
100	0xc04e0210	-3.218876
101	0xc04e0210	-3.218876
102	0xc04e0210	-3.218876
103	0xc04e0210	-3.218876
104	0xc04e0210	-3.218876
105	0xc04e0210	-3.218876
106	0xc04e0210	-3.218876
107	0xc04e0210	-3.218876
108	0xc04e0210	-3.218876
109	0xc04e0210	-3.218876
110	0xc04e0210	-3.218876
111	0xc04e0210	-3.218876
112	0xc04e0210	-3.218876
113	0xc04e0210	-3.218876
114	0xc04e0210	-3.218876
115	0xc04e0210	-3.218876
116	0xc04e0210	-3.218876
117	0xc04e0210	-3.218876
118	0xc04e0210	-3.218876
119	0xc04e0210	-3.218876
120	0xc04e0210	-3.218876
121	0xc04e0210	-3.218876
122	0xc04e0210	-3.218876
123	0xc04e0210	-3.218876
124	0xc04e0210	-3.218876
125	0xc04e0210	-3.218876
126	0xc04e0210	-3.218876
127	0xc04e0210	-3.218876
128	0xc04e0210	-3.218876
129	0xc04e0210	-3.218876
130	0xc04e0210	-3.218876
131	0xc04e0210	-3.218876
132	0xc04e0210	-3.218876
133	0xc04e0210	-3.218876
134	0xc04e0210	-3.218876
135	0xc04e0210	-3.218876
136	0xc04e0210	-3.218876
137	0xc04e0210	-3.218876
138	0xc04e0210	-3.218876
139	0xc04e0210	-3.218876
140	0xc04e0210	-3.218876
141	0xc04e0210	-3.218876
142	0xc04e0210	-3.218876
143	0xc04e0210	-3.218876
144	0xc04e0210	-3.218876
145	0xc04e0210	-3.218876
146	0xc04e0210	-3.218876
147	0xc04e0210	-3.218876
148	0xc04e0210	-3.218876
149	0xc04e0210	-3.218876
150	0xc04e0210	-3.218876
151	0xc04e0210	-3.218876
152	0xc04e0210	-3.218876
153	0xc04e0210	-3.218876
154	0xc04e0210	-3.218876
155	0xc04e0210	-3.218876
156	0xc04e0210	-3.218876
157	0xc04e0210	-3.218876
158	0xc04e0210	-3.218876
159	0xc04e0210	-3.218876
160	0xc04e0210	-3.218876
161	0xc04e0210	-3.218876
162	0xc04e0210	-3.218876
163	0xc04e0210	-3.218876
164	0xc04e0210	-3.218876
165	0xc04e0210	-3.218876
166	0xc04e0210	-3.218876
167	0xc04e0210	-3.218876
168	0xc04e0210	-3.218876
169	0xc04e0210	-3.218876
170	0xc04e0210	-3.218876
171	0xc04e0210	-3.218876
172	0xc04e0210	-3.218876
173	0xc04e0210	-3.218876
174	0xc04e0210	-3.218876
175	0xc04e0210	-3.218876
176	0xc04e0210	-3.218876
177	0xc04e0210	-3.218876
178	0xc04e0210	-3.218876
179	0xc04e0210	-3.218876
180	0xc04e0210	-3.218876
181	0xc04e0210	-3.218876
182	0xc04e0210	-3.218876
183	0xc04e0210	-3.218876
184	0xc04e0210	-3.218876
185	0xc04e0210	-3.218876
186	0xc04e0210	-3.218876
187	0xc04e0210	-3.218876
188	0xc04e0210	-3.218876
189	0xc04e0210	-3.218876
190	0xc04e0210	-3.218876
191	0xc04e0210	-3.218876
192	0xc04e0210	-3.218876
193	0xc04e0210	-3.218876
194	0xc04e0210	-3.218876
195	0xc04e0210	-3.218876
196	0xc04e0210	-3.218876
197	0xc04e0210	-3.218876
198	0xc04e0210	-3.218876
199	0xc04e0210	-3.218876
200	0xc04e0210	-3.218876
201	0xc04e0210	-3.218876
202	0xc04e0210	-3.218876
203	0xc04e0210	-3.218876
204	0xc04e0210	-3.218876
205	0xc04e0210	-3.218876
206	0xc04e0210	-3.218876
207	0xc04e0210	-3.218876
208	0xc04e0210	-3.218876
209	0xc04e0210	-3.218876
210	0xc04e0210	-3.218876
211	0xc04e0210	-3.218876
212	0xc04e0210	-3.218876
213	0xc04e0210	-3.218876
214	0xc04e0210	-3.218876
215	0xc04e0210	-3.218876
216	0xc04e0210	-3.218876
217	0xc04e0210	-3.218876
218	0xc04e0210	-3.218876
219	0xc04e0210	-3.218876
220	0xc04e0210	-3.218876
221	0xc04e0210	-3.218876
222	0xc04e0210	-3.218876
223	0xc04e0210	-3.218876
224	0xc04e0210	-3.218876
225	0xc04e0210	-3.218876
226	0xc04e0210	-3.218876
227	0xc04e0210	-3.218876
228	0xc04e0210	-3.218876
229	0xc04e0210	-3.218876
230	0xc04e0210	-3.218876
231	0xc04e0210	-3.218876
232	0xc04e0210	-3.218876
233	0xc04e0210	-3.218876
234	0xc04e0210	-3.218876
235	0xc04e0210	-3.218876
236	0xc04e0210	-3.218876
237	0xc04e0210	-3.218876
238	0xc04e0210	-3.218876
239	0xc04e0210	-3.218876
240	0xc04e0210	-3.218876
241	0xc04e0210	-3.218876
242	0xc04e0210	-3.218876
243	0xc04e0210	-3.218876
244	0xc04e0210	-3.218876
245	0xc04e0210	-3.218876
246	0xc04e0210	-3.218876
247	0xc04e0210	-3.218876
248	0xc04e0210	-3.218876
249	0xc04e0210	-3.218876
250	0xc04e0210	-3.218876
251	0xc04e0210	-3.218876
252	0xc04e0210	-3.218876
253	0xc04e0210	-3.218876
254	0xc04e0210	-3.218876
255	0xc04e0210	-3.218876

bias_mu f4 [128]
0	0xbdc9c7d3	-0.098525666
1	0xbd6c0941	-0.057626013
2	0xbdcef1e9	-0.101047345
3	0xbbc67f9b	-0.006057692
4	0xbbd382ef	-0.0064548175
5	0xbde58d5f	-0.11208605
6	0xbe16a61b	-0.14711802
7	0xbe2e99a9	-0.17050804
8	0xbe4fa750	-0.20278668
9	0xbdfdab86	-0.12386231
10	0xbe69f574	-0.22847539
11	0xbc1b2545	-0.009469335
12	0xbec8bf19	-0.39208296
13	0xbed46999	-0.41486815
14	0xbe17de4f	-0.14830898
15	0x3e0c090c	0.13675326
16	0xbb30a434	-0.0026953341
17	0xbe1b2244	-0.1514979
18	0x3cfee9c2	0.031117324
19	0xbc39870a	-0.0113237
20	0xbe0d98c8	-0.13827813
21	0xbd9e6624	-0.077343255
22	0xbe1ca3d2	-0.15296867
23	0xbec743b7	-0.3891885
24	0xbe0a2bc6	-0.1349326
25	0xbb6f343a	-0.0036499635
26	0xbb9f167d	-0.0048549757
27	0x3bbeab88	0.005818788
28	0xbe1e7de3	-0.1547771
29	0xbe149d6e	-0.1451318
30	0x3c1032e7	0.008801199
31	0xbdf92243	-0.12164738
32	0xbdceb4e3	-0.10093095
33	0xbe20a7f9	-0.15689076
34	0xbbe30255	-0.0069277682
35	0xbe136c50	-0.14396787
36	0xbc8a1c02	-0.016859058
37	0xbdf86346	-0.1212831
38	0xbdd1132e	-0.10208736
39	0xbd81a6fb	-0.06330677
40	0xbe0ba155	-0.13635762
41	0xbc6798de	-0.0141355675
42	0x3bb59bcd	0.0055422545
43	0xbe04a493	-0.12953405
44	0xbe155ef5	-0.14587004
45	0xbe78a6c8	-0.24282372
46	0xbc235913	-0.009969967
47	0xbcc89379	-0.024484383
48	0xbd91eb25	-0.071249284
49	0xbc73bf53	-0.014877158
50	0xbbaeb358	-0.005331438
51	0xbdf82b3b	-0.121176206
52	0xbd66b478	-0.056324452
53	0xbc14395a	-0.009046877
54	0xbdfc3dc7	-0.123164706
55	0xbe2f176f	-0.17098783
56	0x3dfb618c	0.12274465
57	0xbe06188b	-0.130953
58	0xb948c825	-0.00019148046
59	0xbc38b5ff	-0.01127386
60	0xbe290bf3	-0.16508465
61	0xbe19fa67	-0.15036927
62	0xbe51d7b6	-0.20492443
63	0xbe3f1b32	-0.18662718
64	0xbc21dbe9	-0.009879091
65	0xbdb21ffd	-0.086975075
66	0xbb35dd66	-0.0027750372
67	0xbd6ab8c1	-0.0573051
68	0xbe34ee50	-0.17669034
69	0xbe1fd3f4	-0.15608197
70	0xbe68b11c	-0.22723812
71	0xbdf8998a	-0.1213866
72	0xbdf959ff	-0.121753685
73	0xbb8d4c64	-0.004312085
74	0xbc9ad700	-0.018901348
75	0xbc6f74dc	-0.014615264
76	0xbdf672cc	-0.120336145
77	0xbdee2b29	-0.11629326
78	0xbdf36a66	-0.11885528
79	0xbc073942	-0.008253397
80	0xbd6c3f58	-0.057677597
81	0xbdee91da	-0.11648913
82	0xbe26a8bd	-0.16275306
83	0xbe1244f6	-0.14284119
84	0xbdf311a3	-0.11868598
85	0x3c2df360	0.010617107
86	0xbb619476	-0.0034420765
87	0xbca4f961	-0.020138444
88	0xbe01482a	-0.12625185
89	0xbe0c0ba7	-0.1367632
90	0xba6b5b6a	-0.00089781603
91	0xbe49c29a	-0.19703141
92	0xbdab7bf4	-0.083732516
93	0x3c7dd10b	0.015491734
94	0xbe4eaa17	-0.20182072
95	0xbe1f7a4b	-0.15573995
96	0xbc91b9ab	-0.017788729
97	0xbdc6d334	-0.097082525
98	0xbc8b1ee0	-0.016982496
99	0x3bad8e01	0.005296469
100	0xbd903150	-0.070406556
101	0xbd3a1f71	-0.04544014
102	0xbe0624a6	-0.13099918
103	0xbce5b23b	-0.028039088
104	0xbe3f582e	-0.18685982
105	0xbc15f49c	-0.009152558
106	0xbe255827	-0.16146909
107	0xba25e8c2	-0.0006328934
108	0xbe1dd4c4	-0.15413195
109	0x3c490f8a	0.012271771
110	0xbc6ddcbc	-0.014517959
111	0xbe2affeb	-0.16699187
112	0xbd95f00d	-0.07321177
113	0xbe156f5d	-0.14593263
114	0xbdc832b6	-0.09775297
115	0xbe0dedcd	-0.13860245
116	0xbd96a7aa	-0.07356198
117	0xbe084287	-0.13306628
118	0xbe12e609	-0.14345564
119	0x3b889ffb	0.004169462
120	0xbcf0bfae	-0.029388275
121	0xbded5636	-0.11588709
122	0xbe62da40	-0.22153568
123	0xbb893851	-0.0041876216
124	0xbc278e6f	-0.01022683
125	0xbbe4e7db	-0.006985647
126	0xbe1321b2	-0.14368322
127	0xbbcb2f31	-0.006200694

bias_logvar f4 [128]
0	0xc04e0210	-3.218876
1	0xc06d1321	-3.7042925
2	0xc04e0210	-3.218876
3	0xc04e0210	-3.218876
4	0xc04e0210	-3.218876
5	0xc0516507	-3.2717912
6	0xc04e0210	-3.218876
7	0xc04e0210	-3.218876
8	0xc04e0210	-3.218876
9	0xc04e0210	-3.218876
10	0xc04e0420	-3.2190018
11	0xc04e0210	-3.218876
12	0xc04e0210	-3.218876
13	0xc04e0210	-3.218876
14	0xc04eac9d	-3.2292855
15	0xc04e0fce	-3.2197146
16	0xc04e0210	-3.218876
17	0xc04e0210	-3.218876
18	0xc04e0210	-3.218876
19	0xc04e0210	-3.218876
20	0xc04e0210	-3.218876
21	0xc0525b0c	-3.286807
22	0xc04e0210	-3.218876
23	0xc04e0210	-3.218876
24	0xc04e0210	-3.218876
25	0xc04e0210	-3.218876
26	0xc04e0210	-3.218876
27	0xc04e0210	-3.218876
28	0xc04e0210	-3.218876
29	0xc04e0210	-3.218876
30	0xc04e0210	-3.218876
31	0xc04e0210	-3.218876
32	0xc04e0210	-3.218876
33	0xc04e0210	-3.218876
34	0xc04e0210	-3.218876
35	0xc04e0210	-3.218876
36	0xc04e0210	-3.218876
37	0xc04e0210	-3.218876
38	0xc04e0210	-3.218876
39	0xc04e0210	-3.218876
40	0xc04e0210	-3.218876
41	0xc04e0210	-3.218876
42	0xc04e0210	-3.218876
43	0xc04e0210	-3.218876
44	0xc04e2b5b	-3.2213962
45	0xc04e0210	-3.218876
46	0xc04e0210	-3.218876
47	0xc04e0210	-3.218876
48	0xc059e64c	-3.4046812
49	0xc04e0210	-3.218876
50	0xc04e0210	-3.218876
51	0xc04e0210	-3.218876
52	0xc04e6f27	-3.2255342
53	0xc04e0210	-3.218876
54	0xc04e0210	-3.218876
55	0xc04e17d9	-3.2202055
56	0xc04e02a0	-3.2189102
57	0xc04e0210	-3.218876
58	0xc04e0210	-3.218876
59	0xc04e0210	-3.218876
60	0xc04e0210	-3.218876
61	0xc04e0210	-3.218876
62	0xc04e0210	-3.218876
63	0xc04e0210	-3.218876
64	0xc04e0210	-3.218876
65	0xc050bda3	-3.2615745
66	0xc04e0210	-3.218876
67	0xc04e0210	-3.218876
68	0xc04e0210	-3.218876
69	0xc04e0210	-3.218876
70	0xc04e03d7	-3.2189844
71	0xc04e0210	-3.218876
72	0xc04e0210	-3.218876
73	0xc04e0210	-3.218876
74	0xc04e0210	-3.218876
75	0xc04e0210	-3.218876
76	0xc04e0210	-3.218876
77	0xc04e0210	-3.218876
78	0xc04e0210	-3.218876
79	0xc04e0210	-3.218876
80	0xc04e0210	-3.218876
81	0xc04e0210	-3.218876
82	0xc04e0210	-3.218876
83	0xc04e0210	-3.218876
84	0xc04e0210	-3.218876
85	0xc04e0210	-3.218876
86	0xc04e0210	-3.218876
87	0xc04e0210	-3.218876
88	0xc04e0210	-3.218876
89	0xc04e0210	-3.218876
90	0xc04e0210	-3.218876
91	0xc04e15c7	-3.2200792
92	0xc04eec2d	-3.233165
93	0xc04e0210	-3.218876
94	0xc04f9ec9	-3.2440665
95	0xc04e0210	-3.218876
96	0xc04e0210	-3.218876
97	0xc0655f0c	-3.5839262
98	0xc04e0210	-3.218876
99	0xc04e0210	-3.218876
100	0xc050c870	-3.2622337
101	0xc04fea98	-3.2486935
102	0xc04ed58d	-3.231784
103	0xc059f176	-3.4053626
104	0xc04e0210	-3.218876
105	0xc04e0210	-3.218876
106	0xc0586a9d	-3.3815072
107	0xc04e0210	-3.218876
108	0xc04e0210	-3.218876
109	0xc04e0210	-3.218876
110	0xc04e0210	-3.218876
111	0xc04e0210	-3.218876
112	0xc04e03db	-3.2189853
113	0xc04e0210	-3.218876
114	0xc04e0210	-3.218876
115	0xc04e02ef	-3.218929
116	0xc04e0210	-3.218876
117	0xc04e0210	-3.218876
118	0xc04e0210	-3.218876
119	0xc04e0210	-3.218876
120	0xc04e6ea6	-3.2255034
121	0xc04e0210	-3.218876
122	0xc04f69d5	-3.2408345
123	0xc04e0210	-3.218876
124	0xc04e0210	-3.218876
125	0xc04e0210	-3.218876
126	0xc04e0210	-3.218876
127	0xc04e0210	-3.218876

z_mu f4 [128]
0	0x3bf68eeb	0.0075243614
1	0x3f42971c	0.76011825
2	0x3b6a1ce3	0.0035722784
3	0xb88e4f45	-6.785853e-05
4	0xb70ba9b2	-8.324556e-06
5	0x3f0e8b30	0.55681133
6	0x3e90afac	0.28259027
7	0x3df4330f	0.11923801
8	0x3e7e4ab1	0.2483318
9	0x3e7c0cc5	0.24614246
10	0x3f404362	0.7510282
11	0xb88cbd84	-6.71102e-05
12	0x3ec5de7f	0.38646314
13	0x3f497303	0.7869112
14	0x3f0ce6dd	0.5503977
15	0x3ebc121f	0.36732575
16	0xb995d62f	-0.00028579074
17	0xb88afe39	-6.6277054e-05
18	0x3d487230	0.048937023
19	0x39e071d3	0.00042809415
20	0x3c2df21c	0.010616805
21	0x3f13675c	0.5757959
22	0x3b5967b9	0.0033173396
23	0x3ee08a14	0.43855345
24	0x3c25d45f	0.010121434
25	0x3995c760	0.0002856804
26	0xb9b0d2ce	-0.00033726398
27	0xb9000b8f	-0.00012211337
28	0xbb361f53	-0.0027789667
29	0x3b9d04a0	0.004791811
30	0x3a104165	0.00055029086
31	0xbbe4a6d5	-0.0069778957
32	0xbd88b2ef	-0.06674754
33	0xba71d13e	-0.00092246
34	0xb949984a	-0.00019225586
35	0x3beb9742	0.007189662
36	0x3a120bb9	0.0005571205
37	0xbca3ebdf	-0.020009933
38	0xbb78cfe2	-0.0037965705
39	0x3e45e7e3	0.19326739
40	0xbc666386	-0.014061814
41	0x391dc5f8	0.00015046436
42	0xb86ef135	-5.6968263e-05
43	0xbbc0c6d4	-0.005883077
44	0x3ede6920	0.4343958
45	0x3ea4a780	0.32159042
46	0x390d9840	0.00013503525
47	0xb905ccef	-0.00012760212
48	0x3f23970b	0.6390235
49	0x3e15ada5	0.14617021
50	0x39b3ffe3	0.0003433219
51	0xbd09a7ed	-0.033607412
52	0x3ee73f4c	0.4516548
53	0x3a5e74b7	0.000848602
54	0xbd19f49c	-0.037586793
55	0x3f11b44e	0.5691575
56	0x3e96d282	0.2945748
57	0xbb9c1e91	-0.004764386
58	0xb96c1ae2	-0.00022516728
59	0x3e734246	0.2375575
60	0x3b61f107	0.003447594
61	0x3d06f891	0.032951895
62	0x3e8c3d5a	0.27390558
63	0x3f1a66a8	0.6031289
64	0xb95eedb0	-0.00021260115
65	0x3f02d3f4	0.51104665
66	0xb81e4faf	-3.7744347e-05
67	0x3e95b151	0.29236844
68	0x3eb035c1	0.3441601
69	0x3b0eae8a	0.0021771514
70	0x3f3530b0	0.70777416
71	0xbbece6bf	-0.0072296555
72	0x3ba07a6a	0.0048974054
73	0xba275a21	-0.00063839747
74	0xb812b82d	-3.498064e-05
75	0x390c9d9a	0.00013410152
76	0x3cacfb0a	0.021115799
77	0x3ee7cdde	0.45274252
78	0x3bad89fb	0.0052959896
79	0xb9808b36	-0.00024517783
80	0x3e672e78	0.2257632
81	0x3df2327f	0.118260376
82	0x3dc072b4	0.09396878
83	0x3b2335d7	0.0024903917
84	0xbc4f3793	-0.012647527
85	0x3d7d807b	0.061890107
86	0x3869a619	5.570622e-05
87	0xb941c841	-0.00018480515
88	0x3b46f6e1	0.0030359554
89	0xbaeb96b5	-0.0017973991
90	0xba13b5b8	-0.0005634683
91	0x3ea19a1a	0.31562883
92	0x3ecd3872	0.40082127
93	0x3d4e274e	0.050330453
94	0x3ec5d157	0.38636276
95	0xbbff28cd	-0.0077868463
96	0xb97c50d6	-0.00024062707
97	0x3f254898	0.64563894
98	0x39293a3c	0.0001613879
99	0x39d51058	0.00040638703
100	0x3f088ffd	0.5334471
101	0x3ee5e1ad	0.4489874
102	0x3efb386f	0.49066493
103	0x3f274401	0.6533814
104	0x3d560bab	0.05225722
105	0x3a19e773	0.00058709754
106	0x3f1dccdf	0.61640733
107	0x396c95f1	0.00022562571
108	0x3c931275	0.017953137
109	0x39d335b7	0.00040285077
110	0x38647268	5.4465985e-05
111	0x3b95208d	0.0045509995
112	0x3ed8c5f5	0.4233853
113	0x3c11e054	0.008903582
114	0x3eff0901	0.49811557
115	0x3f3279db	0.69717187
116	0x3e89a268	0.2688172
117	0xba411a2a	-0.00073662645
118	0x3af05db4	0.0018338473
119	0xba39dcdc	-0.00070901006
120	0x3ec5a55a	0.38602716
121	0xba09e737	-0.0005260589
122	0x3ee6627b	0.4499701
123	0xb60288f2	-1.9451222e-06
124	0xb93d67a7	-0.00018063058
125	0x39e72ce3	0.00044093197
126	0x3c0df0f2	0.008663403
127	0x393e6ccf	0.00018160346

z_logvar f4 [128]
0	0xc0960ca2	-4.689042
1	0xc0961826	-4.690448
2	0xc082b9f5	-4.0852
3	0xc13024fa	-11.0090275
4	0xc1310f6f	-11.066268
5	0xc08bcaed	-4.368521
6	0xc094f67b	-4.655088
7	0xc09056c8	-4.5105934
8	0xc084cf1e	-4.150283
9	0xc08b8364	-4.359789
10	0xc08bc029	-4.367207
11	0xc12aa4d2	-10.665239
12	0xc06d85ed	-3.7112992
13	0xc0911b19	-4.534558
14	0xc0a098f8	-5.018673
15	0xc099766d	-4.7957063
16	0xc12d647b	-10.837031
17	0xc0811ede	-4.035018
18	0xc08d5b13	-4.4173675
19	0xc130072d	-11.001752
20	0xc08fa7dc	-4.4892406
21	0xc08e4ae5	-4.4466424
22	0xc0921c79	-4.5659757
23	0xc06063be	-3.5060878
24	0xc082a734	-4.0829105
25	0xc1332f5d	-11.199063
26	0xc12b8d7c	-10.722042
27	0xc12e2d5e	-10.886076
28	0xc08857ef	-4.260734
29	0xc088208d	-4.2539735
30	0xc12cdc26	-10.803747
31	0xc09016f0	-4.5028
32	0xc084fb7b	-4.1556983
33	0xc08f01c7	-4.468967
34	0xc12fe832	-10.994188
35	0xc081d67b	-4.0574317
36	0xc12a34c8	-10.637886
37	0xc085a5f8	-4.17651
38	0xc0886a6d	-4.2629914
39	0xc08720bf	-4.2227473
40	0xc097181d	-4.7216935
41	0xc131419b	-11.078517
42	0xc12d3615	-10.825704
43	0xc08c2558	-4.3795586
44	0xc09ad3d2	-4.838357
45	0xc0a11a02	-5.034425
46	0xc136979d	-11.412015
47	0xc11aaeb7	-9.667655
48	0xc08fb802	-4.491212
49	0xc0859ffb	-4.175779
50	0xc135407c	-11.328243
51	0xc07d0907	-3.953676
52	0xc0918abf	-4.548187
53	0xc12f43cb	-10.954051
54	0xc08319b3	-4.096887
55	0xc08c8a3c	-4.3918743
56	0xc0954936	-4.665187
57	0xc079504c	-3.895526
58	0xc12f42ab	-10.953776
59	0xc091de87	-4.558414
60	0xc060d2d2	-3.5128675
61	0xc07f651d	-3.9905465
62	0xc0a11897	-5.0342517
63	0xc0783abb	-3.8785846
64	0xc12f0c44	-10.940495
65	0xc094d3fc	-4.650877
66	0xc132833c	-11.15704
67	0xc085d860	-4.182663
68	0xc069c99e	-3.6529307
69	0xc08978b7	-4.2959857
70	0xc07ed4da	-3.9817414
71	0xc08a2090	-4.316475
72	0xc08cb6ef	-4.3973308
73	0xc12f82a0	-10.969391
74	0xc11cc87d	-9.798947
75	0xc128201b	-10.507838
76	0xc08249a3	-4.071489
77	0xc08f437e	-4.476989
78	0xc09b2cc4	-4.8492146
79	0xc12cb998	-10.795311
80	0xc08cf346	-4.4046965
81	0xc07abe8f	-3.9178808
82	0xc091353c	-4.5377483
83	0xc08dff5f	-4.437423
84	0xc0906422	-4.5122232
85	0xc08b4baa	-4.3529863
86	0xc135a9f9	-11.353997
87	0xc127b75d	-10.482266
88	0xc090fdbe	-4.5309744
89	0xc0893b26	-4.2884703
90	0xc12e63fe	-10.899412
91	0xc0a4cc80	-5.1499634
92	0xc09278e2	-4.577256
93	0xc08d9aec	-4.4251614
94	0xc0a863af	-5.2621684
95	0xc0843f30	-4.1327133
96	0xc128284f	-10.509841
97	0xc09706b4	-4.7195683
98	0xc12bdf99	-10.742089
99	0xc12f11d8	-10.941856
100	0xc092e8e5	-4.5909295
101	0xc09c4210	-4.8830643
102	0xc097618f	-4.730659
103	0xc09305a9	-4.594441
104	0xc0820bc2	-4.0639353
105	0xc12faae2	-10.979219
106	0xc0974c68	-4.728077
107	0xc12ff85e	-10.9981365
108	0xc086153e	-4.190093
109	0xc12b5812	-10.709002
110	0xc123efb9	-10.246026
111	0xc07bb74e	-3.933063
112	0xc086400c	-4.195318
113	0xc090dc37	-4.5268817
114	0xc08b6d82	-4.3571177
115	0xc08053d6	-4.010234
116	0xc090124c	-4.5022335
117	0xc0a57de9	-5.17162
118	0xc08534da	-4.1627016
119	0xc12dd558	-10.864586
120	0xc09a5938	-4.823391
121	0xc098435a	-4.7582216
122	0xc0a84d11	-5.2594075
123	0xc12bb58c	-10.731823
124	0xc12d886a	-10.845804
125	0xc1311e6b	-11.069926
126	0xc081d424	-4.057146
127	0xc12c3ab6	-10.764334

weight_mu f4 [2, 128]
0	0x3ce31715	0.027720967
1	0x3eb85f85	0.36010376
2	0x3dd92d39	0.10604329
3	0xbc283cd0	-0.010268405
4	0x3a0d38ee	0.00053872063
5	0x3ecea1d6	0.40357846
6	0x3ebfcc82	0.37460715
7	0x3eb32c9f	0.3499498
8	0xbed6757d	-0.4188651
9	0xbed02617	-0.4065406
10	0xbef3d6df	-0.4762487
11	0x3c0415e2	0.008061858
12	0xbf11935b	-0.5686547
13	0xbf054d76	-0.5207132
14	0xbea7e81e	-0.3279428
15	0xbebd81b0	-0.37013006
16	0xbd1637c7	-0.036674287
17	0x3df21e0c	0.11822137
18	0xbeb26624	-0.34843552
19	0xbcc5a192	-0.024124894
20	0x3c77eb9b	0.015131856
21	0x3eb8531c	0.36000907
22	0xbc52f2a4	-0.012875233
23	0xbf050996	-0.5196775
24	0x3d0873b9	0.033313487
25	0x3b557e4b	0.0032576497
26	0xbbbc8887	-0.00575358
27	0x3d1b376c	0.03789465
28	0xbd217a39	-0.0394232
29	0x3cdbdbdd	0.026838237
30	0xbd2e1b11	-0.04250628
31	0xbd679023	-0.056533944
32	0xbdd72c35	-0.10506479
33	0x3d39d914	0.045373037
34	0x3ba4ccbf	0.0050292904
35	0xbbc56110	-0.0060235336
36	0xbccd3022	-0.025047366
37	0xbd3d5a20	-0.046228528
38	0xbcaf5115	-0.021400968
39	0xbecbb687	-0.39787695
40	0x3d3cce39	0.046095107
41	0xbc0f3378	-0.008740298
42	0x3d0deda7	0.03465047
43	0x3d3eee9b	0.04661427
44	0xbebe8b7a	-0.37215787
45	0x3ead2aef	0.33821818
46	0x3ce4c636	0.027926546
47	0x3887e205	6.479401e-05
48	0x3ec334df	0.38126275
49	0xbed63f7c	-0.4184531
50	0xbbf33378	-0.007421907
51	0xbdb834dd	-0.08994458
52	0xbec48c5c	-0.38388336
53	0xbc8e16e6	-0.017344903
54	0x3cf5357e	0.029932734
55	0xbf1548dd	-0.58314306
56	0xbeb08dcd	-0.34483185
57	0x3bb72cd8	0.0055900626
58	0x3c03295a	0.008005464
59	0xbeda08a9	-0.42584732
60	0x3c8d77d8	0.01726906
61	0x3e7c566a	0.2464234
62	0x3e924f4c	0.28576124
63	0xbf0c06f3	-0.54698104
64	0x3c0ce247	0.008598871
65	0x3ec28462	0.37991625
66	0xbc580da3	-0.013186845
67	0xbef416ef	-0.47673747
68	0xbf0c5d8e	-0.54830253
69	0x3cfdca89	0.030980365
70	0xbf1bd89c	-0.60877395
71	0xbd25467b	-0.04035042
72	0x3c50b0eb	0.012737493
73	0x3d0ad4fd	0.033894528
74	0xbd058d6b	-0.03260557
75	0xbb185c57	-0.0023248398
76	0x3d2eab76	0.042643987
77	0xbecccd37	-0.40000317
78	0xbc533602	-0.012891294
79	0x3cacbda9	0.02108653
80	0xbec27aee	-0.37984413
81	0x3ec712e1	0.3888159
82	0x3e98085a	0.29693872
83	0xbd4108ce	-0.047127537
84	0xbd6fba42	-0.05852724
85	0xbea45372	-0.32094914
86	0x3b1a7281	0.0023566785
87	0xbc8ff938	-0.017574891
88	0xbae2b0f5	-0.0017295169
89	0xbd20390b	-0.0391169
90	0x3b7c629b	0.0038510922
91	0x3ea701fb	0.32618698
92	0x3ea9f7bf	0.33196828
93	0xbe8666fd	-0.2625045
94	0x3ea08387	0.31350347
95	0x3ceb12b7	0.028695447
96	0xbacb5ff5	-0.0015516268
97	0x3eb0048b	0.34378466
98	0xbb3604c6	-0.0027773841
99	0x3d386b68	0.045024306
100	0x3ec6065a	0.3867672
101	0xbecb0da6	-0.3965885
102	0xbeb678e6	-0.35639113
103	0x3ecb6040	0.3972187
104	0xbeb52a17	-0.35383675
105	0xbd07cdd5	-0.03315528
106	0xbebf6eb2	-0.3738914
107	0x3c220bda	0.009890521
108	0x3e311576	0.17293343
109	0xbd68d437	-0.05684301
110	0xbc80e6d7	-0.015735073
111	0xbc0da669	-0.008645632
112	0x3ecdadfc	0.40171802
113	0x3cb98188	0.022644773
114	0x3ece1611	0.4025121
115	0xbf1c1c7e	-0.60980976
116	0xbec21af9	-0.37911204
117	0xbd03a22c	-0.03213708
118	0xbd2ef2bc	-0.04271196
119	0x3cc6d584	0.024271734
120	0xbec088e3	-0.37604436
121	0x3cd7eccd	0.026358033
122	0x3e8971c0	0.26844597
123	0x3cc5edc6	0.02416123
124	0xbbf39c0d	-0.007434374
125	0xbd04d09c	-0.032425508
126	0xbcddfc61	-0.027097883
127	0x3c9d9c7a	0.019239653
128	0xbcea467a	-0.028598059
129	0xbeb889e3	-0.360427
130	0xbde0083c	-0.109390706
131	0x3c104db0	0.008807585
132	0xba37a616	-0.0007005645
133	0xbed13463	-0.4086028
134	0xbebeb4a1	-0.37247184
135	0xbeb51df0	-0.35374403
136	0x3ed58dc3	0.41709718
137	0x3ed1fe60	0.41014385
138	0x3ef3b0c9	0.47595814
139	0xbbb8a6f2	-0.005635136
140	0x3f0eff6e	0.55858505
141	0x3f0499e0	0.51797295
142	0x3ea61c4f	0.32443473
143	0x3ebd2884	0.36944973
144	0x3d0a7171	0.033799592
145	0xbde32359	-0.110907264
146	0x3eb617a0	0.355649
147	0x3cea480e	0.028598811
148	0xbc21a901	-0.009866954
149	0xbeb9ea6c	-0.36311662
150	0x3caab010	0.020835906
151	0x3f06b4be	0.5261954
152	0xbd133450	-0.03593856
153	0xbac0d2cd	-0.0014711261
154	0x3c4631c9	0.012096831
155	0xbd105653	-0.035238575
156	0x3d6cbb39	0.057795737
157	0xbc916524	-0.017748423
158	0x3d1deea5	0.038557667
159	0x3d331bd1	0.0437277
160	0x3db3c6b0	0.08778131
161	0xbd1c91b8	-0.038224906
162	0xbbde5827	-0.006785411
163	0x3c38037e	0.011231301
164	0x3cba1840	0.022716641
165	0x3d72d6cd	0.05928688
166	0x3cc3aded	0.023886645
167	0x3ecc7dc1	0.39939693
168	0xbd3a56f6	-0.04549309
169	0x3c3aeb85	0.011408691
170	0xbd062083	-0.03274585
171	0xbd7d7bca	-0.061885633
172	0x3ebe317b	0.37147126
173	0xbeabf793	-0.33587322
174	0xbcea4a53	-0.028599894
175	0x39b818d3	0.0003511371
176	0xbec33dd2	-0.38133103
177	0x3ed6b195	0.4193236
178	0x3ba24a1b	0.0049526817
179	0x3d972fb8	0.073821485
180	0x3ec24a9a	0.3794754
181	0x3c8f956b	0.017527303
182	0xbd3e02f5	-0.04638954
183	0x3f1523ec	0.5825794
184	0x3eb198a2	0.34686762
185	0xbb321084	-0.0027170489
186	0xbbe91876	-0.0071135117
187	0x3ed9ccbd	0.42539015
188	0xbcc08ba8	-0.023504093
189	0xbe70e53c	-0.23524946
190	0xbe919f70	-0.28441954
191	0x3f09a875	0.5377267
192	0xbc13f1f5	-0.009029855
193	0xbec58c1c	-0.38583457
194	0x3c0b7277	0.008511177
195	0x3ef525af	0.47880313
196	0x3f091d0b	0.5355994
197	0xbcf667b5	-0.030078748
198	0x3f1c3d48	0.6103101
199	0x3d14b931	0.036309425
200	0xba1e3485	-0.00060350477
201	0xbd140892	-0.036140986
202	0x3d11a2d7	0.035555687
203	0x3af6e007	0.0018835076
204	0xbcf698f3	-0.030102229
205	0x3ecd6271	0.40114167
206	0x3c509537	0.012730888
207	0xbcc41044	-0.023933537
208	0x3ec29d2b	0.38010535
209	0xbec10cf7	-0.37705204
210	0xbe98f55d	-0.29874697
211	0x3d499bd1	0.049220864
212	0x3d97d5cc	0.074138254
213	0x3ea31fe1	0.3186026
214	0xbaa33e8e	-0.0012454556
215	0x3c8c4eea	0.017127473
216	0x3b936c3b	0.004498986
217	0x3d35915b	0.044328075
218	0xbacb9f9f	-0.0015535242
219	0xbea6a865	-0.3255035
220	0xbeaba311	-0.33522847
221	0x3e8993d3	0.26870593
222	0xbe9fe816	-0.31231755
223	0xbc80ee7e	-0.015738722
224	0x3af057b5	0.0018336686
225	0xbeaee2cc	-0.34157407
226	0x3bc0df29	0.0058859778
227	0xbd309848	-0.043113977
228	0xbec8b4d9	-0.39200476
229	0x3ecd0ef6	0.40050477
230	0x3eb6ad79	0.35679224
231	0xbecb20de	-0.39673513
232	0x3eb37b58	0.3505504
233	0x3cf56d7a	0.029959429
234	0x3ebf84bf	0.37405965
235	0xbc582b77	-0.013193957
236	0xbe2bc388	-0.16773808
237	0x3d587d73	0.052854013
238	0x3c621098	0.013797902
239	0x3c056183	0.008140924
240	0xbecde204	-0.402115
241	0xbd130664	-0.035894766
242	0xbeccb36d	-0.3998064
243	0x3f1d44bc	0.61433005
244	0x3ec4ad19	0.38413313
245	0x3d04ccd0	0.032421887
246	0x3d2cd30d	0.04219346
247	0xbcd82131	-0.026383014
248	0x3ebde03c	0.3708514
249	0xbcce3613	-0.025172269
250	0xbe89cb98	-0.26913142
251	0xbcd6472c	-0.026156984
252	0x3c13d4e2	0.009022923
253	0x3d0326aa	0.032019295
254	0x3c9e90d2	0.019356165
255	0xbca7325d	-0.020409757
