metric/probe_ft_20000_seed0.pth (torch, 539447 bytes, 12 tensors)

z_mu f4 [512]
0	0x3da45a33	0.08025017
1	0xbb85ff16	-0.0040892465
2	0x39dd2138	0.00042177155
3	0xbafebdc1	-0.0019435213
4	0x3b983876	0.0046454025
5	0x3f0380c5	0.5136836
6	0x3a2f0e6b	0.00066778687
7	0x3aab7604	0.0013081436
8	0xb97634eb	-0.00023480102
9	0x3b06cee3	0.0020570091
10	0x3b7141b0	0.0036812834
11	0x3f34a01f	0.70556825
12	0x3f4dccb8	0.803905
13	0x3b7d82f2	0.0038682786
14	0x3b5def18	0.0033864435
15	0xbaa853e1	-0.0012842381
16	0x3b0f444a	0.0021860772
17	0x3ac035b5	0.0014664443
18	0xbb9069d3	-0.0044071465
19	0x3b99b689	0.0046909493
20	0xbc2b3045	-0.01044852
21	0x3f4b8bbc	0.7951009
22	0x3b0091ac	0.0019618077
23	0x3ea1153a	0.31461507
24	0x3b6e1d99	0.003633356
25	0xbb52fa9f	-0.003219284
26	0x3f728989	0.9474111
27	0xbb357e69	-0.0027693755
28	0x3b9ac9f7	0.004723783
29	0x3b05af0e	0.002039853
30	0xbc069d3f	-0.008216201
31	0xbb0050d3	-0.0019579425
32	0x3f83358f	1.025072
33	0xbb5c7c01	-0.0033643248
34	0x3ac3f9e7	0.0014951796
35	0xb7bc3c48	-2.2439417e-05
36	0x3a391d36	0.0007061543
37	0x3f40fa80	0.7538223
38	0x3f8a6058	1.0810652
39	0xbbb7d33d	-0.0056098984
40	0x3f00fe67	0.5038819
41	0x3b8778b1	0.0041342606
42	0xbb8846a6	-0.0041588126
43	0x3b2c95ee	0.0026334482
44	0x3f83466f	1.025587
45	0x3f46897a	0.7755352
46	0x3ef711da	0.48255807
47	0xbb92a247	-0.0044749114
48	0xbbbc0dd7	-0.0057389545
49	0x3b91a954	0.0044452343
50	0x3a57b1cd	0.00082280935
51	0xbb3cad83	-0.0028789944
52	0x3f28a269	0.6587282
53	0x3bd6bca6	0.0065532504
54	0x3f87b6f3	1.0602707
55	0x3f92aa45	1.1458212
56	0x3bd14ddd	0.006387456
57	0xbb7f46b8	-0.0038952064
58	0x3e6b77c5	0.22994907
59	0x3f9d04bb	1.2267069
60	0x3f19f382	0.6013719
61	0x3e4a9cb9	0.19786347
62	0x39810531	0.00024608665
63	0xbac2bbf0	-0.0014857035
64	0xba70caff	-0.0009185522
65	0xb904022d	-0.00012589312
66	0x3f6dac97	0.92841476
67	0x3c5e5459	0.013569915
68	0xba7ebe3d	-0.0009717679
69	0x3a5f31a3	0.00085141713
70	0x3f7a1dad	0.9770153
71	0x3fcb975b	1.5905565
72	0x3eb555d4	0.35417044
73	0x3fb94324	1.4473615
74	0x3d80c432	0.06287421
75	0x3f87bc8b	1.0604414
76	0xba927aa1	-0.0011175462
77	0x3b3f9a18	0.0029236134
78	0xb9bd91c1	-0.00036157484
79	0xba113efc	-0.00055406964
80	0x3f9fa266	1.2471435
81	0xbc49a00c	-0.012306225
82	0x3d89bcc2	0.06725456
83	0x3e13c384	0.14430052
84	0x3bdb88b3	0.0066996454
85	0xba8ee1de	-0.0010901054
86	0xb9cecde0	-0.0003944477
87	0xb7a5fa67	-1.9786135e-05
88	0xbab7ef37	-0.0014033084
89	0x3bc07a0d	0.0058739246
90	0xbb3af968	-0.0028530005
91	0xbb09e42a	-0.0021040537
92	0x3f902f8a	1.1264508
93	0xbb4ff39d	-0.0031730898
94	0x39ce76a3	0.00039379773
95	0x3c065137	0.008198074
96	0x3f398469	0.72467667
97	0xbb624997	-0.0034528726
98	0xbbff2940	-0.0077869
99	0x3fb541d3	1.4160713
100	0xbb6d4a41	-0.003620759
101	0x3fc62007	1.5478524
102	0x3b8493b2	0.004045927
103	0xb8cbeb3e	-9.7236116e-05
104	0x3f8cfbf6	1.1014392
105	0x3f277402	0.6541139
106	0x3b6f0a14	0.0036474513
107	0xba81efb8	-0.0009913361
108	0x3f23f3ff	0.64044183
109	0xb486b210	-2.5089003e-07
110	0xbb34145d	-0.0027477958
111	0x3f80ad7a	1.0052941
112	0x3bb79af5	0.005603189
113	0xb9b3ebdd	-0.00034317272
114	0x3f564385	0.83696777
115	0xba03f770	-0.00050341245
116	0x3f8ad0ab	1.084493
117	0xbba2a5fa	-0.0049636336
118	0x3ea33801	0.31878665
119	0xbb0dee13	-0.0021656796
120	0xba8f17d9	-0.0010917141
121	0x3b1a2ff9	0.002352713
122	0x3ee8d69d	0.45476237
123	0xb95e1b1c	-0.00021181669
124	0xbb995735	-0.0046795853
125	0xbb09b8d5	-0.002101471
126	0x3b0c5886	0.0021415069
127	0xbb873af0	-0.004126899
128	0xbbf4df32	-0.007472896
129	0xb9d31964	-0.00040263974
130	0x38ba5275	8.88453e-05
131	0xbb10aa37	-0.0022074112
132	0xbabd25f4	-0.0014430867
133	0x3f2a20e1	0.6645642
134	0x3f08f5b4	0.53499913
135	0x3ef0599a	0.4694336
136	0x3f448901	0.7677155
137	0x3cda0190	0.026612073
138	0x3ff7b077	1.9350728
139	0x3f82ae40	1.0209427
140	0xbab3773d	-0.0013692152
141	0x3f35cec6	0.71018636
142	0x3bacbe93	0.0052717417
143	0x3ac2b546	0.0014855049
144	0x3a9fd3c0	0.0012193844
145	0x3914d309	0.00014192997
146	0x3d429eb1	0.04751462
147	0x3e0c66f5	0.1371115
148	0xbb3e4667	-0.0029033662
149	0x3b25bd4a	0.0025289827
150	0xbae628a7	-0.0017559723
151	0x3ab7d10a	0.001402409
152	0xbb1b7236	-0.0023719198
153	0x3fabbe0b	1.3417372
154	0x3f8b6db6	1.0892856
155	0x3f593734	0.8484986
156	0xbc12539e	-0.008931069
157	0xbb622f8b	-0.00345132
158	0xbac3d403	-0.0014940504
159	0x3f757881	0.95887
160	0x3b8d14b6	0.0043054475
161	0x3a37bef4	0.000700935
162	0x3c1f14f3	0.0097095845
163	0x3c0591e2	0.008152457
164	0x3f2fa2c3	0.6860773
165	0xbabcd300	-0.0014406145
166	0xba053012	-0.00050807104
167	0x3b2a4d8e	0.0025986168
168	0x3af1f474	0.0018459694
169	0xbc3dd510	-0.011586443
170	0x3a45cfe9	0.00075459346
171	0xb99640a3	-0.00028658388
172	0xbb8043af	-0.0039143185
173	0x3b9a9909	0.0047179502
174	0x3eb0394e	0.3441872
175	0xbb775aa7	-0.0037743242
176	0x39c110e7	0.00036824422
177	0x3f0c0df3	0.54708785
178	0x3f4109b5	0.75405437
179	0x3b16a3a3	0.0022985719
180	0x3b4bad42	0.0031078612
181	0xbb255c6b	-0.0025232087
182	0xbbe7b2bf	-0.0070708687
183	0x3b5bf4d5	0.003356268
184	0x383e25fd	4.533491e-05
185	0xbc8516e7	-0.016246272
186	0xbb419447	-0.0029537843
187	0x3b289627	0.0025724263
188	0xbac9158a	-0.0015341502
189	0x3a94f9df	0.0011365971
190	0x3fef5906	1.8699043
191	0x3fa2d620	1.2721596
192	0xb9c2d4c6	-0.00037161092
193	0x3cbd958b	0.023142597
194	0x3f660e98	0.8986602
195	0x3b054f6e	0.0020341533
196	0x3c1cbf7c	0.009567138
197	0x3f391391	0.7229548
198	0x3e82a396	0.2551543
199	0x3f7f80d0	0.9980593
200	0xbab4946f	-0.0013777147
201	0xbbb21006	-0.005434039
202	0xb9aeaf44	-0.0003331845
203	0xbab657c0	-0.001391165
204	0x3ac24e5c	0.0014824378
205	0xbb91898d	-0.004441446
206	0x3ad15e7b	0.0015973592
207	0x3fb2d094	1.3969903
208	0x39803ecf	0.0002446086
209	0x3f6fe41e	0.93707454
210	0x3eb23e12	0.3481298
211	0xbc55c4d5	-0.013047417
212	0x3c44cbb2	0.012011455
213	0x3b2e0a70	0.0026556514
214	0xbc3b5e27	-0.011436022
215	0x3f56206c	0.8364322
216	0x3f8687c8	1.0510187
217	0xbb9126c4	-0.00442967
218	0xbb4a78a7	-0.0030894668
219	0xbb48aaa6	-0.0030619293
220	0x3f954d26	1.1664169
221	0x3faa78a0	1.3318062
222	0x3f105b6e	0.5638951
223	0x3f7c9a0c	0.98672557
224	0xbb895a24	-0.004191654
225	0x3f2fa00c	0.6860359
226	0xb9b72eb5	-0.0003493928
227	0xbbcd1929	-0.006259103
228	0x3ba05491	0.0048928936
229	0x3c2236f7	0.0099008
230	0xbb3184d7	-0.0027087235
231	0xbaedd18c	-0.0018144115
232	0x3f558b82	0.83416
233	0x3b335b71	0.0027367736
234	0x3d851318	0.064977825
235	0x3a43f73b	0.00074755
236	0x3b8299fe	0.0039856425
237	0x3f25965b	0.6468255
238	0x3f5cada3	0.8620245
239	0x3bebdccf	0.0071979533
240	0x3b2e63b4	0.002660972
241	0xba3ab462	-0.0007122216
242	0xbb62f411	-0.0034630338
243	0x3b11c5bc	0.0022243103
244	0x3f39ca44	0.7257426
245	0x3f70d128	0.9406915
246	0x3fadef52	1.358866
247	0x3bec035f	0.0072025503
248	0xbbbbf85f	-0.0057363953
249	0x3bd9faeb	0.006652226
250	0x3e11afd7	0.14227234
251	0x3b1cca9c	0.0023924476
252	0x3fb7bc14	1.4354272
253	0x3f267842	0.6502725
254	0xbb523ac4	-0.0032078484
255	0xba19dcc2	-0.00058693823

z_logvar f4 [512]
0	0xc047f685	-3.1244214
1	0xc0af8628	-5.4851265
2	0xc0760b31	-3.844433
3	0xc0aea0b1	-5.4571157
4	0xc09f2237	-4.9729266
5	0xc0870308	-4.21912
6	0xc097e25f	-4.746383
7	0xc0871a3e	-4.2219534
8	0xc0c7a904	-6.239382
9	0xc08469a4	-4.1378956
10	0xc0938aa7	-4.6106753
11	0xc09cab47	-4.895908
12	0xc00a0c2e	-2.1569934
13	0xc091d147	-4.5567966
14	0xc09f7407	-4.9829135
15	0xc0aec17b	-5.461118
16	0xc0a8e2d0	-5.277687
17	0xc0be8686	-5.9539213
18	0xc0bae2d2	-5.840188
19	0xc0a738c4	-5.2256794
20	0xc090f4fc	-4.5299053
21	0xc047b277	-3.1202676
22	0xc0a730d4	-5.2247105
23	0xc01c6d74	-2.4441805
24	0xc0b1ffd7	-5.5624804
25	0xc0a0b1fa	-5.0217257
26	0xc02b162a	-2.6732278
27	0xc0c5a78f	-6.176704
28	0xc098b238	-4.771755
29	0xc0966733	-4.7000976
30	0xc0982c9d	-4.755446
31	0xc08db7fc	-4.428709
32	0xc05f3e98	-3.4881954
33	0xc0a6c7ba	-5.2118807
34	0xc0acde1f	-5.4021144
35	0xc0ae2a98	-5.4426994
36	0xc090957e	-4.5182486
37	0xc07f8ba4	-3.992898
38	0xc09ca54b	-4.8951774
39	0xc073cc54	-3.8093462
40	0xc070d6d2	-3.7631116
41	0xc0b9b8f1	-5.803826
42	0xc0a5f025	-5.1855645
43	0xc09db345	-4.9281335
44	0xc08d98dc	-4.4249096
45	0xc0b1228e	-5.535468
46	0xc0479de2	-3.1190114
47	0xc0a8778b	-5.2645926
48	0xc0adf1c3	-5.435762
49	0xc0a31e98	-5.0974846
50	0xc0accd31	-5.400048
51	0xc0af75e3	-5.4831405
52	0xc04f208f	-3.2363622
53	0xc0962532	-4.6920404
54	0xc0846dbd	-4.138396
55	0xc081e1c6	-4.05881
56	0xc0694599	-3.644873
57	0xc091fb7f	-4.56195
58	0xc04cde31	-3.2010615
59	0xc0a3e470	-5.1216354
60	0xc073edcd	-3.8113892
61	0xc00db444	-2.2141275
62	0xc08787fc	-4.2353497
63	0xc0b96d56	-5.7945967
64	0xc09eec9d	-4.9663835
65	0xc0ace80d	-5.4033265
66	0xc0a794f8	-5.2369347
67	0xc0895f99	-4.2929196
68	0xc09c76d1	-4.889504
69	0xc09d251f	-4.9107814
70	0xc04bd158	-3.1846523
71	0xc058c7d9	-3.3871977
72	0xc08cd987	-4.4015536
73	0xc05128d2	-3.2681165
74	0xc038fb87	-2.890352
75	0xc06cca41	-3.6998446
76	0xc05ddd48	-3.466631
77	0xc0700441	-3.7502596
78	0xc0a4131a	-5.1273317
79	0xc09278d5	-4.57725
80	0xc07b9aca	-3.9313226
81	0xc08ed9ad	-4.4640718
82	0xc023e43d	-2.5608056
83	0xc0221191	-2.5323222
84	0xc0a88110	-5.2657547
85	0xc0c4c45e	-6.1489706
86	0xc0abe655	-5.3718667
87	0xc0aa72d2	-5.326516
88	0xc092c107	-4.586063
89	0xc0a2673a	-5.075101
90	0xc08fc232	-4.4924555
91	0xc09e7165	-4.951342
92	0xc0c2d464	-6.0884266
93	0xc08e1581	-4.440125
94	0xc0a98636	-5.297633
95	0xc0879be8	-4.2377815
96	0xc08f8fd1	-4.4863057
97	0xc0adf0a9	-5.4356275
98	0xc098fe2f	-4.7810283
99	0xc082eac3	-4.0911574
100	0xc0ab8627	-5.360126
101	0xc02494e9	-2.5715888
102	0xc0b405a0	-5.6256866
103	0xc0940dd2	-4.626687
104	0xc0922e09	-4.5681195
105	0xc090ead7	-4.528667
106	0xc085b68b	-4.178533
107	0xc096587e	-4.6983023
108	0xc0b9a2a0	-5.8011017
109	0xc0a1bd23	-5.054338
110	0xc096f9fe	-4.7180166
111	0xc07d30fb	-3.9561145
112	0xc093cb0d	-4.6185365
113	0xc0920ff2	-4.5644464
114	0xc0afd436	-5.4946547
115	0xc09be297	-4.87141
116	0xc08da28f	-4.4260936
117	0xc09a6566	-4.8248777
118	0xbfb554c0	-1.4166489
119	0xc0c42314	-6.129282
120	0xc0a50604	-5.1569843
121	0xc0a6ad59	-5.2086606
122	0xc002931a	-2.0402284
123	0xc09dbda8	-4.9294014
124	0xc0a64f9c	-5.197218
125	0xc08d6774	-4.4188786
126	0xc0433bc0	-3.0505219
127	0xc0a5dc11	-5.1831136
128	0xc091d59d	-4.557326
129	0xc0c4d294	-6.1507053
130	0xc0a123ae	-5.0356054
131	0xc0956468	-4.6685066
132	0xc08fa822	-4.489274
133	0xc0530e23	-3.2977378
134	0xc08d812b	-4.4220176
135	0xc080c48f	-4.023994
136	0xc00a89c0	-2.1646576
137	0xc05ee7b5	-3.4828923
138	0xc0985228	-4.760029
139	0xc06bd032	-3.6845822
140	0xc0999839	-4.799832
141	0xc056e19b	-3.3575199
142	0xc0bee87e	-5.9658804
143	0xc09fa308	-4.9886513
144	0xc08bb4ce	-4.365821
145	0xc099676b	-4.7938743
146	0xc05b524e	-3.4268985
147	0xc06862f2	-3.6310391
148	0xc093e2b4	-4.6214237
149	0xc0ad3a37	-5.4133563
150	0xc0b4b9ad	-5.6476655
151	0xc09fff39	-4.999905
152	0xc094ecf8	-4.653927
153	0xc06dcc09	-3.7155783
154	0xc0a84c57	-5.259319
155	0xc08f9f6c	-4.4882107
156	0xc0afa609	-5.489018
157	0xc0a81399	-5.2523923
158	0xc08718f3	-4.2217956
159	0xc09971e8	-4.7951546
160	0xc0a1bade	-5.054061
161	0xc09abe80	-4.8357544
162	0xc07ce8fd	-3.9517205
163	0xc097cfc6	-4.744113
164	0xc08547ec	-4.1650295
165	0xc094131e	-4.6273336
166	0xc0b2dbd1	-5.589333
167	0xc0a58243	-5.172151
168	0xc0873244	-4.224886
169	0xc08075d8	-4.014385
170	0xc08f9488	-4.4868813
171	0xc0a87e13	-5.26539
172	0xc0a1bf18	-5.054577
173	0xc093d21e	-4.619399
174	0xc09472a1	-4.638993
175	0xc09bf967	-4.8741946
176	0xc0a09a0e	-5.0188055
177	0xc0900b66	-4.5013914
178	0xc080f91d	-4.0304093
179	0xc093df17	-4.6209826
180	0xc08a814c	-4.3282833
181	0xc09d223b	-4.9104285
182	0xc0a0b288	-5.0217934
183	0xc09e4e91	-4.9470906
184	0xc0abd510	-5.3697586
185	0xc091d882	-4.557679
186	0xc07e6268	-3.9747562
187	0xc0ac6608	-5.387455
188	0xc086c6e6	-4.2117796
189	0xc0a957c8	-5.2919655
190	0xc03a4f47	-2.9110887
191	0xc060c045	-3.5117352
192	0xc0ae4218	-5.445568
193	0xc04ae6af	-3.1703298
194	0xc0a79eb2	-5.238122
195	0xc07bb27e	-3.9327693
196	0xc09ed4f2	-4.9634943
197	0xc0855f4b	-4.1678824
198	0xc02e6de0	-2.7254562
199	0xc09ef163	-4.966966
200	0xc08654a0	-4.19783
201	0xc0903f25	-4.507708
202	0xc0b80eaa	-5.75179
203	0xc0b1c1f2	-5.554925
204	0xc09a11df	-4.8146815
205	0xc0a36509	-5.1060834
206	0xc0b0f44d	-5.529822
207	0xc099d120	-4.806778
208	0xc0885da9	-4.261433
209	0xc0837965	-4.1085687
210	0xc0873911	-4.225716
211	0xc0994413	-4.78956
212	0xc04a1636	-3.1576056
213	0xc08f9c45	-4.487826
214	0xc086ce49	-4.2126813
215	0xc0877fa0	-4.234329
216	0xc08a294c	-4.317541
217	0xc09a8cb8	-4.8296776
218	0xc0aa5695	-5.323069
219	0xc08b9d68	-4.3629646
220	0xc0b9b2db	-5.803083
221	0xc0499299	-3.1495726
222	0xc0747f0b	-3.820254
223	0xc09ec929	-4.9620557
224	0xc0a03984	-5.007021
225	0xc071e627	-3.7796724
226	0xc0a68c20	-5.204605
227	0xc0b098bc	-5.5186443
228	0xc08905db	-4.281965
229	0xc06a2c8e	-3.6589694
230	0xc08be1f9	-4.3713346
231	0xc0964bb2	-4.69674
232	0xc0827bc2	-4.077607
233	0xc0aae22e	-5.34011
234	0xc0499d61	-3.1502306
235	0xc0acc6ce	-5.399268
236	0xc0a209a1	-5.0636754
237	0xbfd9a0ce	-1.7002199
238	0xc07a0129	-3.9063208
239	0xc09a1fd5	-4.8163857
240	0xc0a91287	-5.2835116
241	0xc0c40632	-6.1257563
242	0xc0aa8135	-5.3282723
243	0xc09dc689	-4.9304852
244	0xc0690431	-3.6408808
245	0xc0a4ea79	-5.153622
246	0xc0804b6d	-4.0092072
247	0xc08cae47	-4.396274
248	0xc09d69a5	-4.919146
249	0xc0ad4216	-5.414317
250	0xc01eaf65	-2.4794552
251	0xc0bfee4a	-5.997838
252	0xc0923eb9	-4.5701566
253	0xc05704b8	-3.359663
254	0xc0b69c5f	-5.7065883
255	0xc08bf0f2	-4.3731623

weight_mu f4 [128, 512]
0	0x3a05e350	0.00051074196
1	0x3c01b558	0.007916771
2	0xbc62cc03	-0.0138425855
3	0xbc0c843f	-0.008576452
4	0x3be94b40	0.007119566
5	0xbca65a68	-0.020306781
6	0x3b45878a	0.0030140602
7	0x3b890858	0.004181903
8	0x3a2d1201	0.0006602109
9	0xbb97a1bc	-0.0046274345
10	0x3b00cac6	0.0019652112
11	0xbc8c4fcb	-0.017127892
12	0xbcb46e54	-0.022025265
13	0x3c5a89c1	0.013338507
14	0x3be604df	0.0070196236
15	0x3b92975a	0.004473609
16	0xbbf6ef1e	-0.007535829
17	0x3b478765	0.0030445692
18	0xbad6ab54	-0.0016377964
19	0x3b193ef6	0.0023383475
20	0xbc79ac4c	-0.015238833
21	0xbcbe0af1	-0.023198577
22	0xbb61b331	-0.0034439082
23	0x3cd42f34	0.025901414
24	0xba7b2e15	-0.0009581757
25	0x3923ec26	0.00015632864
26	0xbcc16071	-0.023605557
27	0xba746c88	-0.0009324034
28	0xbaa8d855	-0.0012881855
29	0xbb58525a	-0.003300807
30	0xb95eb680	-0.00021239556
31	0x3ba47dab	0.0050198636
32	0xbcc79b3a	-0.02436601
33	0x3c7bff14	0.01538064
34	0x3af81a14	0.001892867
35	0xb93016c6	-0.00016793152
36	0xba102219	-0.0005498245
37	0xbcdcb1f6	-0.026940327
38	0xbd1064bc	-0.035252318
39	0x3b51f6cb	0.003203797
40	0xbba533c0	-0.0050415695
41	0xbc80e2b1	-0.015733095
42	0xbc165cce	-0.0091774
43	0x3bad3b59	0.005286616
44	0xbd512234	-0.05105801
45	0xbd93204b	-0.07183894
46	0xbd054f5c	-0.032546386
47	0xbbc64152	-0.0060502673
48	0xbb5d7585	-0.003379197
49	0xbbedcda9	-0.0072571826
50	0x3a10943a	0.00055152515
51	0x3b24b75a	0.00251337
52	0xbcc8369c	-0.024440102
53	0xba944b66	-0.0011313974
54	0xbd1add35	-0.037808616
55	0xbc920c4a	-0.017828126
56	0x3c2ab9d6	0.010420283
57	0xbb83a6f9	-0.0040177074
58	0x3cc68161	0.024231615
59	0xbd0be8f1	-0.034157697
60	0xbca58de3	-0.020209258
61	0x3c5d0f3f	0.0134924045
62	0xbacec966	-0.0015776574
63	0x3aab575e	0.0013072302
64	0x3bf0e417	0.007351409
65	0x3b631b82	0.0034653847
66	0xbd55beaa	-0.052183785
67	0xbbaddc81	-0.005305827
68	0x399720ac	0.00028825307
69	0xbb00e446	-0.0019667312
70	0xbcea8f49	-0.028632777
71	0xbc56d1b6	-0.013111522
72	0xbc33e3df	-0.010979622
73	0xbd28d325	-0.041216988
74	0x3a63093e	0.000866074
75	0xbcce5f31	-0.025191875
76	0x3bfc1a8d	0.007693595
77	0xbbef036e	-0.00729411
78	0x3b125cb7	0.0022333094
79	0x3bb81431	0.0056176414
80	0xbd0c0025	-0.034179825
81	0xba0c7df0	-0.00053593423
82	0x3b8e62ce	0.0043452745
83	0xbc517702	-0.012784721
84	0xbc524371	-0.012833462
85	0xbc05004d	-0.0081177475
86	0x3b62a0e0	0.0034580752
87	0x3a7a9e8b	0.0009560368
88	0x3c3ffd33	0.011718082
89	0x3b45e465	0.0030195948
90	0xbc52ed20	-0.012873918
91	0x3c035faf	0.008018418
92	0xbd5930a3	-0.0530249
93	0x3c1ea862	0.0096837
94	0xbbffb734	-0.007803822
95	0xbc3e9ed1	-0.0116345445
96	0xbd5599c9	-0.052148614
97	0x3ac4d5d2	0.0015017337
98	0x3af8f9dd	0.0018995363
99	0xbccb4e7d	-0.0248177
100	0xbbe2137f	-0.006899297
101	0xbc87829c	-0.016541772
102	0x3b3dfbda	0.0028989227
103	0x3b264d3c	0.0025375625
104	0xbcf9f4b1	-0.030512186
105	0xbcea9fbe	-0.028640624
106	0x3c098e4c	0.008395743
107	0x3bc23a45	0.0059273564
108	0xbd2d3620	-0.042287946
109	0xbc4ad78c	-0.012380492
110	0xbb275c96	-0.0025537363
111	0xbcef0729	-0.029178219
112	0xbbcf20f5	-0.0063210675
113	0xbae90b58	-0.001777987
114	0xbd1cb49b	-0.038258176
115	0x3b74a61b	0.0037330452
116	0xbd5fb6bf	-0.05461764
117	0x3b958303	0.004562737
118	0xbc6a26b3	-0.014291453
119	0xbb4dc308	-0.0031396765
120	0x3b8cc53f	0.0042959745
121	0x3aa43a91	0.0012529661
122	0xbc27ed97	-0.010249517
123	0xbb423d45	-0.002963857
124	0x3cb90d4d	0.02258935
125	0xbc7f2f68	-0.015575267
126	0xbc4eed96	-0.012629887
127	0xbb1498f1	-0.0022674168
128	0xbc1c652c	-0.009545606
129	0xbb3c8904	-0.002876819
130	0x3c11ed64	0.008906696
131	0xbb7299f6	-0.0037018037
132	0x3a6047f4	0.0008555644
133	0xbca11291	-0.019662173
134	0xbbe97b9f	-0.0071253325
135	0xbc9b2122	-0.018936697
136	0xbd14597e	-0.03621816
137	0x3be5a702	0.0070084343
138	0xbd5a88ca	-0.05335311
139	0xbd0d28ab	-0.034462612
140	0x3b2ae0dc	0.0026073968
141	0xbcdea45e	-0.027177986
142	0x3a87b515	0.0010353649
143	0x3b9d4ef9	0.004800674
144	0x3c55d6b4	0.0130516775
145	0xbb46ced4	-0.0030335682
146	0xbba33bc2	-0.004981489
147	0xbbc9aab8	-0.0061543845
148	0xbb89092d	-0.004182002
149	0x3c160bc9	0.009158083
150	0xbbcd08c1	-0.006257147
151	0x3c6b4ad7	0.014361105
152	0xba8c92e5	-0.001072493
153	0xbd09247c	-0.03348206
154	0xbc429a83	-0.011877659
155	0xbd4dffdb	-0.05029283
156	0xbb8b9500	-0.0042597055
157	0xbc0589a8	-0.008150496
158	0x3b4cd63f	0.003125563
159	0xbd558868	-0.05213204
160	0xbbc507c1	-0.006012887
161	0x3a3deadf	0.00072447764
162	0x3ba200d9	0.0049439487
163	0xbb00e158	-0.0019665565
164	0xbcb0f315	-0.021600286
165	0xbc352812	-0.011056917
166	0x3b488b67	0.0030600668
167	0xba3b98be	-0.0007156244
168	0xbc797049	-0.015224525
169	0xba21a34d	-0.00061659963
170	0xbc038337	-0.0080268895
171	0x3bc1f458	0.0059190206
172	0x3bc65e9a	0.006053758
173	0x3c34c879	0.0110341245
174	0xbc145241	-0.009052814
175	0xbbefe0f6	-0.0073205186
176	0x3ca2eab8	0.019887313
177	0xbcb8d309	-0.022561567
178	0xbd913255	-0.07089678
179	0x3b517901	0.0031962993
180	0xbc5d94d0	-0.013524249
181	0x3b5405ef	0.003235217
182	0x3c78be18	0.015182041
183	0xbbb2d957	-0.005458038
184	0x3ad542ad	0.0016270481
185	0xbc7863f3	-0.0151605485
186	0x3ba6a1d5	0.00508521
187	0xbc000356	-0.007813295
188	0xbbeb5c6e	-0.0071826493
189	0xbbc138f9	-0.0058966842
190	0xbd40e57d	-0.047093857
191	0xbc3b8332	-0.011444854
192	0x39a0a849	0.0003064296
193	0xbbc12fcc	-0.0058955904
194	0xbc7b1d78	-0.01532685
195	0x3b504a7c	0.0031782677
196	0x3c460875	0.012086977
197	0xbcb24e3c	-0.02176582
198	0xbc3de397	-0.011589906
199	0xbc94e4cb	-0.018175503
200	0x3be62ca5	0.007024365
201	0x3c824ba5	0.01590521
202	0x3bf67bb5	0.0075220712
203	0x3ba4ee42	0.0050332854
204	0xbbb8000a	-0.005615239
205	0x3b38294a	0.0028100782
206	0xbc471a42	-0.012152256
207	0xbd3348c5	-0.04377057
208	0xbc019aa1	-0.007910402
209	0xbd3636bb	-0.04448579
210	0xbcb376eb	-0.02190729
211	0x3cb2b273	0.021813607
212	0x3c0a81a2	0.008453758
213	0xba46b88d	-0.0007580601
214	0xba3301ad	-0.0006828558
215	0xbcb4a3ef	-0.022050826
216	0xbce44d48	-0.027868882
217	0xbada8801	-0.0016672612
218	0x3bb8ceb1	0.005639874
219	0x3bb5ce02	0.0055482397
220	0xbc86da12	-0.016461406
221	0xbd1a60d3	-0.037689995
222	0xbb2f2b50	-0.0026728697
223	0xbd46e1f9	-0.048555348
224	0xbbdbbfb8	-0.0067062043
225	0xbc74a868	-0.014932729
226	0xba9214df	-0.0011145136
227	0x3b55c02d	0.0032615766
228	0x3bbd3ae1	0.005774841
229	0x3b937287	0.0044997367
230	0xbc146ae7	-0.009058691
231	0x3b2a5ae4	0.0025994116
232	0xbd8aeb89	-0.06783206
233	0x3c1a1cc1	0.0094062695
234	0x3bbf584d	0.0058393837
235	0x3babf19b	0.0052473075
236	0x3b893a98	0.004187893
237	0x3bd6939f	0.0065483595
238	0xbbc2681d	-0.0059328214
239	0xbc28c6f5	-0.010301341
240	0x3b7d79db	0.0038677368
241	0x3ad810bf	0.0016484483
242	0xbc1c2c68	-0.009532072
243	0xbb9ae012	-0.0047264183
244	0xbd1b2df0	-0.037885606
245	0xbd616d8f	-0.055036124
246	0xbd8aabe6	-0.06771068
247	0x3b8fe657	0.0043914723
248	0xbc3a21b6	-0.011360576
249	0xbbb47bd9	-0.005507928
250	0x3c3f2cfc	0.01166844
251	0xbb25f5a7	-0.0025323422
252	0xbd29029b	-0.04126225
253	0xbbfcf4c0	-0.007719606
254	0xbb347689	-0.0027536473
255	0x3b9af39a	0.0047287466

weight_logvar f4 [128, 512]
0	0xc04e0210	-3.218876
1	0xc04e0210	-3.218876
2	0xc04e0210	-3.218876
3	0xc04e0210	-3.218876
4	0xc04e0210	-3.218876
5	0xc04e0210	-3.218876
6	0xc04e0210	-3.218876
7	0xc04e0210	-3.218876
8	0xc04e0210	-3.218876
9	0xc04e0210	-3.218876
10	0xc04e0210	-3.218876
11	0xc04e0210	-3.218876
12	0xc04e0210	-3.218876
13	0xc04e0210	-3.218876
14	0xc04e0210	-3.218876
15	0xc04e0210	-3.218876
16	0xc04e0210	-3.218876
17	0xc04e0210	-3.218876
18	0xc04e0210	-3.218876
19	0xc04e0210	-3.218876
20	0xc04e0210	-3.218876
21	0xc04e0210	-3.218876
22	0xc04e0210	-3.218876
23	0xc04e0210	-3.218876
24	0xc04e0210	-3.218876
25	0xc04e0210	-3.218876
26	0xc04e0210	-3.218876
27	0xc04e0210	-3.218876
28	0xc04e0210	-3.218876
29	0xc04e0210	-3.218876
30	0xc04e0210	-3.218876
31	0xc04e0210	-3.218876
32	0xc04e0210	-3.218876
33	0xc04e0210	-3.218876
34	0xc04e0210	-3.218876
35	0xc04e0210	-3.218876
36	0xc04e0210	-3.218876
37	0xc04e0210	-3.218876
38	0xc04e0210	-3.218876
39	0xc04e0210	-3.218876
40	0xc04e0210	-3.218876
41	0xc04e0210	-3.218876
42	0xc04e0210	-3.218876
43	0xc04e0210	-3.218876
44	0xc04e0210	-3.218876
45	0xc04e0210	-3.218876
46	0xc04e0210	-3.218876
47	0xc04e0210	-3.218876
48	0xc04e0210	-3.218876
49	0xc04e0210	-3.218876
50	0xc04e0210	-3.218876
51	0xc04e0210	-3.218876
52	0xc04e0210	-3.218876
53	0xc04e0210	-3.218876
54	0xc04e0210	-3.218876
55	0xc04e0210	-3.218876
56	0xc04e0210	-3.218876
57	0xc04e0210	-3.218876
58	0xc04e0210	-3.218876
59	0xc04e0210	-3.218876
60	0xc04e0210	-3.218876
61	0xc04e0210	-3.218876
62	0xc04e0210	-3.218876
63	0xc04e0210	-3.218876
64	0xc04e0210	-3.218876
65	0xc04e0210	-3.218876
66	0xc04e0210	-3.218876
67	0xc04e0210	-3.218876
68	0xc04e0210	-3.218876
69	0xc04e0210	-3.218876
70	0xc04e0210	-3.218876
71	0xc04e0210	-3.218876
72	0xc04e0210	-3.218876
73	0xc04e0210	-3.218876
74	0xc04e0210	-3.218876
75	0xc04e0210	-3.218876
76	0xc04e0210	-3.218876
77	0xc04e0210	-3.218876
78	0xc04e0210	-3.218876
79	0xc04e0210	-3.218876
80	0xc04e0210	-3.218876
81	0xc04e0210	-3.218876
82	0xc04e0210	-3.218876
83	0xc04e0210	-3.218876
84	0xc04e0210	-3.218876
85	0xc04e0210	-3.218876
86	0xc04e0210	-3.218876
87	0xc04e0210	-3.218876
88	0xc04e0210	-3.218876
89	0xc04e0210	-3.218876
90	0xc04e0210	-3.218876
91	0xc04e0210	-3.218876
92	0xc04e0210	-3.218876
93	0xc04e0210	-3.218876
94	0xc04e0210	-3.218876
95	0xc04e0210	-3.218876
96	0xc04e0210	-3.218876
97	0xc04e0210	-3.218876
98	0xc04e0210	-3.218876
99	0xc04e0210	-3.218876
100	0xc04e0210	-3.218876
101	0xc04e0210	-3.218876
102	0xc04e0210	-3.218876
103	0xc04e0210	-3.218876
104	0xc04e0210	-3.218876
105	0xc04e0210	-3.218876
106	0xc04e0210	-3.218876
107	0xc04e0210	-3.218876
108	0xc04e0210	-3.218876
109	0xc04e0210	-3.218876
110	0xc04e0210	-3.218876
111	0xc04e0210	-3.218876
112	0xc04e0210	-3.218876
113	0xc04e0210	-3.218876
114	0xc04e0210	-3.218876
115	0xc04e0210	-3.218876
116	0xc04e0210	-3.218876
117	0xc04e0210	-3.218876
118	0xc04e0210	-3.218876
119	0xc04e0210	-3.218876
120	0xc04e0210	-3.218876
121	0xc04e0210	-3.218876
122	0xc04e0210	-3.218876
123	0xc04e0210	-3.218876
124	0xc04e0210	-3.218876
125	0xc04e0210	-3.218876
126	0xc04e0210	-3.218876
127	0xc04e0210	-3.218876
128	0xc04e0210	-3.218876
129	0xc04e0210	-3.218876
130	0xc04e0210	-3.218876
131	0xc04e0210	-3.218876
132	0xc04e0210	-3.218876
133	0xc04e0210	-3.218876
134	0xc04e0210	-3.218876
135	0xc04e0210	-3.218876
136	0xc04e0210	-3.218876
137	0xc04e0210	-3.218876
138	0xc04e0210	-3.218876
139	0xc04e0210	-3.218876
140	0xc04e0210	-3.218876
141	0xc04e0210	-3.218876
142	0xc04e0210	-3.218876
143	0xc04e0210	-3.218876
144	0xc04e0210	-3.218876
145	0xc04e0210	-3.218876
146	0xc04e0210	-3.218876
147	0xc04e0210	-3.218876
148	0xc04e0210	-3.218876
149	0xc04e0210	-3.218876
150	0xc04e0210	-3.218876
151	0xc04e0210	-3.218876
152	0xc04e0210	-3.218876
153	0xc04e0210	-3.218876
154	0xc04e0210	-3.218876
155	0xc04e0210	-3.218876
156	0xc04e0210	-3.218876
157	0xc04e0210	-3.218876
158	0xc04e0210	-3.218876
159	0xc04e0210	-3.218876
160	0xc04e0210	-3.218876
161	0xc04e0210	-3.218876
162	0xc04e0210	-3.218876
163	0xc04e0210	-3.218876
164	0xc04e0210	-3.218876
165	0xc04e0210	-3.218876
166	0xc04e0210	-3.218876
167	0xc04e0210	-3.218876
168	0xc04e0210	-3.218876
169	0xc04e0210	-3.218876
170	0xc04e0210	-3.218876
171	0xc04e0210	-3.218876
172	0xc04e0210	-3.218876
173	0xc04e0210	-3.218876
174	0xc04e0210	-3.218876
175	0xc04e0210	-3.218876
176	0xc04e0210	-3.218876
177	0xc04e0210	-3.218876
178	0xc04e0210	-3.218876
179	0xc04e0210	-3.218876
180	0xc04e0210	-3.218876
181	0xc04e0210	-3.218876
182	0xc04e0210	-3.218876
183	0xc04e0210	-3.218876
184	0xc04e0210	-3.218876
185	0xc04e0210	-3.218876
186	0xc04e0210	-3.218876
187	0xc04e0210	-3.218876
188	0xc04e0210	-3.218876
189	0xc04e0210	-3.218876
190	0xc04e0210	-3.218876
191	0xc04e0210	-3.218876
192	0xc04e0210	-3.218876
193	0xc04e0210	-3.218876
194	0xc04e0210	-3.218876
195	0xc04e0210	-3.218876
196	0xc04e0210	-3.218876
197	0xc04e0210	-3.218876
198	0xc04e0210	-3.218876
199	0xc04e0210	-3.218876
200	0xc04e0210	-3.218876
201	0xc04e0210	-3.218876
202	0xc04e0210	-3.218876
203	0xc04e0210	-3.218876
204	0xc04e0210	-3.218876
205	0xc04e0210	-3.218876
206	0xc04e0210	-3.218876
207	0xc04e0210	-3.218876
208	0xc04e0210	-3.218876
209	0xc04e0210	-3.218876
210	0xc04e0210	-3.218876
211	0xc04e0210	-3.218876
212	0xc04e0210	-3.218876
213	0xc04e0210	-3.218876
214	0xc04e0210	-3.218876
215	0xc04e0210	-3.218876
216	0xc04e0210	-3.218876
217	0xc04e0210	-3.218876
218	0xc04e0210	-3.218876
219	0xc04e0210	-3.218876
220	0xc04e0210	-3.218876
221	0xc04e0210	-3.218876
222	0xc04e0210	-3.218876
223	0xc04e0210	-3.218876
224	0xc04e0210	-3.218876
225	0xc04e0210	-3.218876
226	0xc04e0210	-3.218876
227	0xc04e0210	-3.218876
228	0xc04e0210	-3.218876
229	0xc04e0210	-3.218876
230	0xc04e0210	-3.218876
231	0xc04e0210	-3.218876
232	0xc04e0210	-3.218876
233	0xc04e0210	-3.218876
234	0xc04e0210	-3.218876
235	0xc04e0210	-3.218876
236	0xc04e0210	-3.218876
237	0xc04e0210	-3.218876
238	0xc04e0210	-3.218876
239	0xc04e0210	-3.218876
240	0xc04e0210	-3.218876
241	0xc04e0210	-3.218876
242	0xc04e0210	-3.218876
243	0xc04e0210	-3.218876
244	0xc04e0210	-3.218876
245	0xc04e0210	-3.218876
246	0xc04e0210	-3.218876
247	0xc04e0210	-3.218876
248	0xc04e0210	-3.218876
249	0xc04e0210	-3.218876
250	0xc04e0210	-3.218876
251	0xc04e0210	-3.218876
252	0xc04e0210	-3.218876
253	0xc04e0210	-3.218876
254	0xc04e0210	-3.218876
255	0xc04e0210	-3.218876

bias_mu f4 [128]
0	0xbe333fd0	-0.17504811
1	0xb999c6fa	-0.00029330683
2	0x3ed823bf	0.42214772
3	0x3e927c9f	0.28610703
4	0xbc1f8c9d	-0.009738115
5	0xbe299186	-0.16559419
6	0xbc13f1e5	-0.00902984
7	0x3e9e2b7d	0.30892554
8	0xbe2f6aeb	-0.1713063
9	0xbe7e470e	-0.24831793
10	0xbf024080	-0.5087967
11	0xbe1ca9cd	-0.15299149
12	0xbbd71fac	-0.006565055
13	0xbc520997	-0.012819669
14	0xbe3407d6	-0.17581114
15	0x3e1ff999	0.15622558
16	0xbbf030fa	-0.007330057
17	0xbe94d8f5	-0.29071775
18	0xbe8e74f6	-0.2782361
19	0xbaba66d2	-0.0014221317
20	0xbe311a08	-0.17295086
21	0xbe3b93b4	-0.18318063
22	0x3e810c5e	0.25204748
23	0xbe6cf41e	-0.23139998
24	0xbb1b06cd	-0.0023655177
25	0xbe33035a	-0.17481747
26	0xb8410874	-4.602266e-05
27	0xba98a892	-0.0011646918
28	0xbe919f16	-0.28441685
29	0xbe4bcd9c	-0.19902653
30	0xbed4d17b	-0.4156607
31	0xbe3e600f	-0.18591331
32	0xbddf3f92	-0.10900797
33	0xbe2f4cf9	-0.17119206
34	0xbb6109dc	-0.0034338152
35	0xbe326b2b	-0.17423694
36	0xbbe049c0	-0.006844729
37	0xbe35b71d	-0.17745633
38	0xbbc1520b	-0.005899673
39	0xbe54eac9	-0.20792688
40	0x3e3a75c3	0.18208985
41	0xbc1e955c	-0.009679165
42	0x3e8edabe	0.27901262
43	0xbe2f9054	-0.171449
44	0xbf39de5c	-0.7260492
45	0xbe230277	-0.15918909
46	0xbbc14116	-0.0058976514
47	0xbe2b1c67	-0.16710053
48	0xbc4894b1	-0.012242482
49	0xbe992270	-0.29909086
50	0xbe7c55ec	-0.24642152
51	0xbf0d1059	-0.5510307
52	0xbf43c476	-0.7647165
53	0xbbda2fd9	-0.006658536
54	0xbde32b17	-0.11092203
55	0xbe26f416	-0.16304049
56	0x3df9d93a	0.12199636
57	0xbc60d2ea	-0.013722161
58	0xbb10b7ce	-0.0022082212
59	0xbeb835ab	-0.35978445
60	0xbe363353	-0.17793016
61	0x3ea6b809	0.32562283
62	0xbe2cc408	-0.16871655
63	0x39eebdb6	0.00045536243
64	0xbc8b08cd	-0.01697197
65	0x3ec7250a	0.38895446
66	0x3ee76d89	0.45200756
67	0xbef082cb	-0.46974787
68	0xbe43080c	-0.19046038
69	0x3d0c8cf9	0.03431413
70	0xbe2ca4c3	-0.16859727
71	0xbe3002d5	-0.1718858
72	0xbe36d5cf	-0.17854999
73	0xbe25b106	-0.1618081
74	0x3ea17e2b	0.3154157
75	0xbe3eb08f	-0.1862204
76	0xbf1b0c8d	-0.60566026
77	0xbe4e6bf4	-0.20158368
78	0xbe2c88e4	-0.16849095
79	0xbc40b5ae	-0.011762066
80	0xbf00fdc5	-0.5038722
81	0xbc22ce8e	-0.009936942
82	0xbce0db8b	-0.027448436
83	0x3d064194	0.032777384
84	0xbe3866ed	-0.18008013
85	0xbe1fbca8	-0.1559931
86	0x3e1e23d8	0.15443361
87	0xbe54714e	-0.20746347
88	0xbe03300d	-0.12811299
89	0xbe537646	-0.20650586
90	0x3af19548	0.001843133
91	0xbe0dc5f8	-0.1384505
92	0xbc197075	-0.009365191
93	0x3e335fda	0.17517033
94	0x3eae5c3f	0.34054753
95	0xbe3e8472	-0.18605211
96	0x3ee75946	0.45185298
97	0xbc254eee	-0.010089619
98	0xbc11af1f	-0.00889185
99	0xbe36b558	-0.17842615
100	0xbc858be6	-0.01630206
101	0xbad9ae37	-0.0016607706
102	0xbb50d426	-0.0031864732
103	0xbca2b470	-0.01986143
104	0xbf02f073	-0.51148146
105	0x3e7453b5	0.23860057
106	0xbe30644b	-0.17225759
107	0xbbedc48a	-0.0072560953
108	0x3cbfb84f	0.023403315
109	0xbe28398b	-0.16428201
110	0xbca925aa	-0.020647842
111	0xbe413e0e	-0.18871328
112	0xbc71feb7	-0.014770201
113	0xbc1817f7	-0.009283057
114	0x3e9ba547	0.30399534
115	0xbc47fee1	-0.012206764
116	0xbc04e48d	-0.008111131
117	0x3dfef89d	0.12449763
118	0xbe20f23a	-0.15717402
119	0xbdd8ab3b	-0.105795346
120	0xbbc8277b	-0.006108222
121	0xbc266bcf	-0.0101575395
122	0xbcae9966	-0.02131338
123	0xbb98f49b	-0.004667831
124	0xbaf7d34b	-0.0018907575
125	0xbc5a51a6	-0.013325131
126	0xbe53c84b	-0.20681874
127	0x3ed5659a	0.41679078

bias_logvar f4 [128]
0	0xc04e0210	-3.218876
1	0xc04e0210	-3.218876
2	0xc05404ad	-3.3127854
3	0xc04e4429	-3.2229102
4	0xc04e0210	-3.218876
5	0xc04e0210	-3.218876
6	0xc04e0210	-3.218876
7	0xc04e3026	-3.2216887
8	0xc04e0210	-3.218876
9	0xc04e0210	-3.218876
10	0xc08725c8	-4.223362
11	0xc04e0210	-3.218876
12	0xc04e0210	-3.218876
13	0xc04e0210	-3.218876
14	0xc04e0210	-3.218876
15	0xc07af3fb	-3.9211414
16	0xc04e0210	-3.218876
17	0xc04e0210	-3.218876
18	0xc04e0210	-3.218876
19	0xc04e0210	-3.218876
20	0xc04e0210	-3.218876
21	0xc04e0210	-3.218876
22	0xc04e23f3	-3.2209442
23	0xc04e0210	-3.218876
24	0xc04e0210	-3.218876
25	0xc04e0210	-3.218876
26	0xc04e0210	-3.218876
27	0xc04e0210	-3.218876
28	0xc060ee80	-3.514557
29	0xc04e0210	-3.218876
30	0xc08072bc	-4.0140057
31	0xc04e0210	-3.218876
32	0xc04e0210	-3.218876
33	0xc04e0210	-3.218876
34	0xc04e0210	-3.218876
35	0xc04e0210	-3.218876
36	0xc04e0210	-3.218876
37	0xc04e0210	-3.218876
38	0xc04e0210	-3.218876
39	0xc04e0210	-3.218876
40	0xc0646a2d	-3.5689805
41	0xc04e0210	-3.218876
42	0xc04e05c2	-3.2191014
43	0xc04e0210	-3.218876
44	0xc0551099	-3.329138
45	0xc04e0210	-3.218876
46	0xc04e0210	-3.218876
47	0xc04e0210	-3.218876
48	0xc04e0210	-3.218876
49	0xc0684885	-3.6294262
50	0xc04e58fa	-3.2241807
51	0xc079d262	-3.9034657
52	0xc08699a2	-4.206254
53	0xc04e0210	-3.218876
54	0xc04e0210	-3.218876
55	0xc04e0210	-3.218876
56	0xc066f9a0	-3.608986
57	0xc04e0210	-3.218876
58	0xc04e0210	-3.218876
59	0xc04e0210	-3.218876
60	0xc04e0210	-3.218876
61	0xc04e1c3d	-3.2204735
62	0xc04e0210	-3.218876
63	0xc04e0210	-3.218876
64	0xc04e0210	-3.218876
65	0xc04e0210	-3.218876
66	0xc06ee7d2	-3.7328992
67	0xc053d996	-3.3101554
68	0xc04e0210	-3.218876
69	0xc068217c	-3.6270437
70	0xc04e0210	-3.218876
71	0xc04e0210	-3.218876
72	0xc04e0210	-3.218876
73	0xc04e0210	-3.218876
74	0xc04f9dd2	-3.2440076
75	0xc04e0210	-3.218876
76	0xc0811ece	-4.0350103
77	0xc04e0210	-3.218876
78	0xc04e0210	-3.218876
79	0xc04e0210	-3.218876
80	0xc04e24a8	-3.2209873
81	0xc04e0210	-3.218876
82	0xc04e0210	-3.218876
83	0xc04e0210	-3.218876
84	0xc04e0210	-3.218876
85	0xc04e0210	-3.218876
86	0xc04e0210	-3.218876
87	0xc04e0210	-3.218876
88	0xc04e0210	-3.218876
89	0xc04e0210	-3.218876
90	0xc04e0210	-3.218876
91	0xc04e0210	-3.218876
92	0xc04e0210	-3.218876
93	0xc057b3be	-3.3703456
94	0xc076d404	-3.8566904
95	0xc04e0210	-3.218876
96	0xc07b5a35	-3.9273808
97	0xc04e0210	-3.218876
98	0xc04e0210	-3.218876
99	0xc04e0210	-3.218876
100	0xc04e0210	-3.218876
101	0xc04e0210	-3.218876
102	0xc04e0210	-3.218876
103	0xc04e0210	-3.218876
104	0xc04e0210	-3.218876
105	0xc04e0210	-3.218876
106	0xc04e0210	-3.218876
107	0xc04e0210	-3.218876
108	0xc04e0210	-3.218876
109	0xc04e0210	-3.218876
110	0xc04e0210	-3.218876
111	0xc04e0210	-3.218876
112	0xc04e0210	-3.218876
113	0xc04e0210	-3.218876
114	0xc04e0210	-3.218876
115	0xc04e0210	-3.218876
116	0xc04e0210	-3.218876
117	0xc04e0210	-3.218876
118	0xc0584e02	-3.3797612
119	0xc06b225b	-3.673972
120	0xc04e0210	-3.218876
121	0xc04e0210	-3.218876
122	0xc04e0210	-3.218876
123	0xc04e0210	-3.218876
124	0xc04e0210	-3.218876
125	0xc04e0210	-3.218876
126	0xc04e0210	-3.218876
127	0xc051f0d4	-3.280324

z_mu f4 [128]
0	0xbabdb44f	-0.0014473292
1	0x39bbe2cc	0.00035836396
2	0x3eca06a0	0.3945818
3	0x3e8aa7c3	0.27081117
4	0x37e00607	2.6705688e-05
5	0x3bc17876	0.0059042526
6	0xb673f036	-3.6349643e-06
7	0x3ea61844	0.32440388
8	0xbb33f086	-0.0027456596
9	0xb7cf8e55	-2.4742601e-05
10	0x3fae768d	1.3629929
11	0xb9e68de2	-0.0004397473
12	0x390e7298	0.00013584865
13	0x395f64c4	0.00021304475
14	0x3ab5503c	0.0013833116
15	0x3f1edc4c	0.62054896
16	0xb8e0f18f	-0.00010726146
17	0x3f18a4f4	0.596267
18	0x3ecbd6c8	0.39812303
19	0x3a4d33f0	0.00078278687
20	0x3ca6eb92	0.020376
21	0xbbebb86e	-0.0071936166
22	0x3e80b6d8	0.251395
23	0xbc65ec2d	-0.0140333595
24	0xb88fadd3	-6.851149e-05
25	0x3b7de45a	0.0038740844
26	0xb8b1bee9	-8.4755775e-05
27	0xb88608d7	-6.3912645e-05
28	0x3f7f9c82	0.99848187
29	0xbb7228ba	-0.0036950544
30	0x3f8a62db	1.0811418
31	0xbb5e442d	-0.0033915148
32	0x3e2d2a69	0.1691071
33	0x3adf0e63	0.0017017837
34	0xb8d937a5	-0.00010357731
35	0x3ae18479	0.0017205618
36	0x393d921c	0.00018078875
37	0x3c1e0036	0.009643605
38	0x38873ad6	6.448261e-05
39	0xba41e9ad	-0.0007397186
40	0x3ee369ef	0.44416758
41	0xb9db1f0e	-0.00041794073
42	0x3e5c85ba	0.21535388
43	0xbcd400d6	-0.025879305
44	0x3f86ff45	1.0546652
45	0xbc056994	-0.008142848
46	0xb998adad	-0.00029121098
47	0x3ac8d216	0.00153214
48	0xba08e0b8	-0.0005221474
49	0x3f46baa8	0.77628565
50	0x3f4663b3	0.7749588
51	0x3f9e1c7e	1.2352445
52	0x3fa482dc	1.2852435
53	0x37799dd1	1.4878301e-05
54	0x3db0e6f7	0.08637803
55	0x3c200619	0.009767079
56	0x3f02c8c9	0.51087624
57	0x343be8cf	1.7500427e-07
58	0xb8ae38cf	-8.307548e-05
59	0x3dc995a8	0.09842998
60	0x3bab1649	0.0052211625
61	0x3e9ffbd1	0.31246808
62	0x3bb5007a	0.0055237385
63	0x39b55c7d	0.0003459192
64	0x399d72c0	0.0003003087
65	0x3ecce2ba	0.4001673
66	0x3f22d4d9	0.6360603
67	0x3f6b2b36	0.9186281
68	0xbbd3705e	-0.006452604
69	0x3f02fb5f	0.5116481
70	0xbc25b6bb	-0.010114367
71	0x3bc18e3a	0.0059068473
72	0x3c3e6a50	0.011622027
73	0xbb873e8b	-0.0041273287
74	0x3eb00bdb	0.34384045
75	0xbc0525f5	-0.008126725
76	0x3f91fd1a	1.1405365
77	0xbb1b474c	-0.002369362
78	0xba938b35	-0.0011256697
79	0x3908736f	0.00013012973
80	0x3ebcb18e	0.36854213
81	0xb79798f4	-1.8071827e-05
82	0x3abd51ed	0.0014443971
83	0x3e0517e4	0.12997395
84	0xbc6ebb5a	-0.014571035
85	0x3bda28a3	0.0066576763
86	0x3d360a0c	0.044443175
87	0xbb9eb120	-0.0048428923
88	0x3bc8f0a8	0.006132204
89	0xbba629b2	-0.0050708884
90	0xb9238d02	-0.00015597421
91	0x3b9eb0ab	0.004842838
92	0xb9a8d314	-0.00032200722
93	0x3eae725f	0.34071633
94	0x3f0b16ca	0.5433165
95	0x3c0de18b	0.008659731
96	0x3f2bdaf9	0.67131
97	0x393ac331	0.00017811057
98	0x3949fd7c	0.00019263284
99	0x3b0a2532	0.00210793
100	0xb9add4ea	-0.00033155765
101	0x393568c2	0.0001730053
102	0x37862a7d	1.599383e-05
103	0x39229757	0.00015505902
104	0x3f153c75	0.58295375
105	0x3df5f634	0.1200985
106	0x3bec4f87	0.007211629
107	0xb998e86a	-0.0002916486
108	0x3c6795f0	0.014134869
109	0xbbafff43	-0.0053710057
110	0x3a119fa3	0.0005555099
111	0xb8477e0d	-4.756269e-05
112	0xb9231c30	-0.00015555392
113	0xb85329cf	-5.0345257e-05
114	0x3e25e91a	0.16202202
115	0xb72f3073	-1.0442093e-05
116	0x37307eca	1.0519938e-05
117	0x3cc3e86b	0.023914536
118	0x3f5ac74a	0.8546034
119	0x3f3299c0	0.69765854
120	0x38d700e4	0.00010252165
121	0xb978b4f8	-0.00023718539
122	0xb8b2171a	-8.4920044e-05
123	0xb93c641e	-0.00017966374
124	0x399cb132	0.0002988666
125	0xb98bfa48	-0.0002669862
126	0xbbb0036a	-0.0053715007
127	0x3ef27f91	0.4736295

z_logvar f4 [128]
0	0xc097e653	-4.7468657
1	0xc12d4fbe	-10.831968
2	0xc0a9bc8b	-5.3042655
3	0xc09d9c19	-4.925305
4	0xc13131b9	-11.074639
5	0xc09e7deb	-4.952871
6	0xc12fdeca	-10.991892
7	0xc0aa614c	-5.324377
8	0xc094481e	-4.6338034
9	0xc03792a0	-2.8683243
10	0xc0b30208	-5.593998
11	0xc09ea9e1	-4.958237
12	0xc134b87f	-11.295043
13	0xc12f96e4	-10.974339
14	0xc0908249	-4.515904
15	0xc0a8af33	-5.2713866
16	0xc134292a	-11.26005
17	0xc088d152	-4.275552
18	0xc08916e0	-4.2840424
19	0xc12e1395	-10.879781
20	0xc094975a	-4.6434755
21	0xc0940d8a	-4.6266527
22	0xc09d1dd3	-4.9098907
23	0xc062cb17	-3.5436456
24	0xc1302190	-11.008194
25	0xc0a77a97	-5.2337146
26	0xc1261b1d	-10.381619
27	0xc12dd788	-10.86512
28	0xc09829dc	-4.75511
29	0xc089fd3f	-4.312164
30	0xc0c70ebe	-6.2205496
31	0xc0959653	-4.6746
32	0xc06f8bee	-3.7429156
33	0xc0896411	-4.293465
34	0xc1319214	-11.098164
35	0xc0922bd3	-4.5678496
36	0xc12e0154	-10.875324
37	0xc082f7ef	-4.0927653
38	0xc12db39d	-10.856351
39	0xc07996d9	-3.899832
40	0xc0a4ef12	-5.1541834
41	0xc1327c05	-11.155278
42	0xc0998fb6	-4.798793
43	0xc0960520	-4.6881256
44	0xc07729bb	-3.861922
45	0xc0a32a56	-5.098918
46	0xc12c8327	-10.78202
47	0xc0a990d5	-5.2989297
48	0xc12f1a97	-10.943992
49	0xc09e70a3	-4.9512496
50	0xc08ecfe1	-4.462876
51	0xc0a009b2	-5.0011835
52	0xc0b4a8f1	-5.6456227
53	0xc1323d0d	-11.139905
54	0xc075ccc5	-3.8406231
55	0xc08bcef9	-4.369015
56	0xc09d6a7f	-4.91925
57	0xc12b6448	-10.711983
58	0xc1346f3d	-11.277158
59	0xc080abe2	-4.020982
60	0xc082f3b2	-4.092248
61	0xc0974054	-4.7266026
62	0xc09a8fca	-4.8300524
63	0xc134ad6d	-11.29234
64	0xc12b57d4	-10.708942
65	0xc09c1006	-4.876956
66	0xc0b8356c	-5.756521
67	0xc0b1a5df	-5.551498
68	0xc08a8dea	-4.3298235
69	0xc09e7e7a	-4.952939
70	0xc0894d2a	-4.2906694
71	0xc0977ee6	-4.7342405
72	0xc069be39	-3.6522353
73	0xc0a0cd8a	-5.02509
74	0xc0a33806	-5.100589
75	0xc092f24f	-4.5920787
76	0xc0a282eb	-5.078481
77	0xc08b3136	-4.349757
78	0xc08f4b58	-4.477947
79	0xc12df96f	-10.873397
80	0xc047e598	-3.1233883
81	0xc12d0561	-10.813813
82	0xc1187f0b	-9.531016
83	0xc08d30e1	-4.4122167
84	0xc0845047	-4.1347995
85	0xc08f575a	-4.479413
86	0xc090c4fd	-4.5240464
87	0xc08b1f83	-4.3475966
88	0xc0b2fe14	-5.5935154
89	0xc085f10e	-4.1856756
90	0xc131b480	-11.106567
91	0xc09c94af	-4.89315
92	0xc12eb493	-10.9190855
93	0xc0a91dfe	-5.284911
94	0xc0ba4866	-5.8213377
95	0xc07a3c45	-3.9099286
96	0xc0bbbf6a	-5.867116
97	0xc13388fd	-11.220944
98	0xc131222d	-11.070844
99	0xc09f6913	-4.9815764
100	0xc1308c8c	-11.034313
101	0xc1319c37	-11.100638
102	0xc12f9ace	-10.975294
103	0xc123c8fa	-10.236567
104	0xc047f6f2	-3.1244473
105	0xc0963bd3	-4.6948028
106	0xc082a541	-4.0826726
107	0xc137670a	-11.462656
108	0xc08c9f0a	-4.394414
109	0xc09f068d	-4.9695497
110	0xc11ff29e	-9.996733
111	0xc08c311a	-4.380994
112	0xc132c437	-11.172904
113	0xc12fbb52	-10.9832325
114	0xc0947967	-4.6398196
115	0xc1313e29	-11.077676
116	0xc13394c5	-11.223821
117	0xc09d6882	-4.9190073
118	0xc091ea5f	-4.5598598
119	0xc0a22ff7	-5.068355
120	0xc1318564	-11.095066
121	0xc12cf7a5	-10.81046
122	0xc12a861d	-10.6577425
123	0xc1316880	-11.088013
124	0xc134408e	-11.26576
125	0xc1303ae3	-11.014377
126	0xc08d1885	-4.409243
127	0xc0a2f1f6	-5.0920362

weight_mu f4 [2, 128]
0	0xbd195684	-0.037436023
1	0x3d0ed3b9	0.034869883
2	0x3e9d63dc	0.3074025
3	0x3ea94d3b	0.33066735
4	0xbb35588b	-0.0027671184
5	0x3d37c0bc	0.04486154
6	0xbb44d8ce	-0.0030036452
7	0x3ea51951	0.32245877
8	0xbcd47e0d	-0.025939012
9	0xbe09257b	-0.13393204
10	0xbf12b3e6	-0.57305753
11	0xbc5620f0	-0.013069376
12	0x3cd45f00	0.025924206
13	0x3ab1213a	0.0013513931
14	0x3d5090ba	0.050919272
15	0xbe9dcf1c	-0.30822074
16	0xbccb2c54	-0.02480141
17	0xbea9ebb4	-0.3318764
18	0xbecf2808	-0.4046023
19	0x3cc2542c	0.023721777
20	0xbce2b3e8	-0.027673677
21	0xbcd39e1f	-0.025832234
22	0x3eaecd27	0.34140894
23	0xbdd0e555	-0.101999916
24	0x3c392607	0.01130057
25	0x3ceaf90b	0.028683206
26	0x3cd4e94a	0.025990147
27	0x3c829c50	0.015943676
28	0xbeed6dc9	-0.46372822
29	0xbb0a63f9	-0.0021116717
30	0xbf0ab106	-0.54176366
31	0xbccc0b2a	-0.024907667
32	0xbeae3959	-0.34028128
33	0xbd4c538a	-0.049884357
34	0xbb6b8db2	-0.0035942611
35	0xbc020086	-0.007934695
36	0xbc99b5e1	-0.018763484
37	0xbd026527	-0.031834748
38	0xbc518190	-0.012787238
39	0x3c4f87d6	0.012666663
40	0xbec104da	-0.37699014
41	0xbd0b8f4a	-0.034072198
42	0x3eaed394	0.34145796
43	0xbd67a8cb	-0.056557458
44	0xbf40711a	-0.7517258
45	0x3c416dfb	0.011806007
46	0xbc380736	-0.011232188
47	0x3aa3d6a3	0.001249988
48	0xbcceadf4	-0.025229432
49	0xbed226ba	-0.4104517
50	0xbed0820e	-0.40724224
51	0xbf200f05	-0.6252292
52	0xbf12c17a	-0.5732647
53	0xbbf8f009	-0.007596974
54	0xbe918c6c	-0.28427446
55	0xbd4bae7a	-0.04972694
56	0xbea6a486	-0.32547396
57	0x3cf11782	0.029430155
58	0xba942d21	-0.0011304953
59	0xbeb39d25	-0.3508083
60	0x3c617025	0.0137596475
61	0x3ec2add3	0.38023242
62	0xbc955272	-0.01822779
63	0x3b435735	0.0029806618
64	0x3cffb526	0.031214308
65	0x3ec6670b	0.3875049
66	0x3ea0f7be	0.31439012
67	0xbeb2c096	-0.34912556
68	0xbd532fac	-0.051559135
69	0xbebc1aad	-0.36739102
70	0x3c910af9	0.017705427
71	0xbd61e6dc	-0.055151805
72	0xbd65acd9	-0.056073043
73	0x3d777864	0.060417548
74	0x3ea7cdac	0.32774103
75	0x3d006445	0.031345624
76	0xbf19963a	-0.5999485
77	0xbcbd9473	-0.023142075
78	0x3ccdfad5	0.02514402
79	0x3c89f5b3	0.016840791
80	0xbf276ee7	-0.654036
81	0xbcfb8408	-0.030702606
82	0xbd1da278	-0.03848502
83	0xbeb36ac2	-0.35042387
84	0x3d846469	0.06464464
85	0xbc18f0e4	-0.009334777
86	0x3e9ac466	0.30227965
87	0xbcda3545	-0.026636729
88	0x3d6a502b	0.05720536
89	0x3c0d8102	0.008636715
90	0x3d02fd0d	0.03197961
91	0x3c428bfe	0.011874197
92	0xbc8c3532	-0.01711521
93	0xbea61582	-0.32438284
94	0x3e8da9ea	0.27668697
95	0x3d9b20eb	0.07574638
96	0x3ea30b09	0.31844357
97	0xbbc04745	-0.005867871
98	0xbbc74da9	-0.006082256
99	0x3d162ef3	0.036665868
100	0xbc55ea0f	-0.013056292
101	0xbccf5d4d	-0.025313044
102	0xbd12d116	-0.03584393
103	0x3c7555e1	0.014974088
104	0xbf0c2715	-0.54747134
105	0x3e9ce41a	0.30642778
106	0xbd626ce0	-0.055279613
107	0xbbcf5eaa	-0.0063284235
108	0x3e1ce56f	0.15321897
109	0xbb8ddba2	-0.004329161
110	0x3c8b345e	0.016992744
111	0x3aab2cf1	0.0013059658
112	0xbc890dbd	-0.016730184
113	0x39cfd344	0.00039639522
114	0x3ecf316f	0.40467402
115	0x3ca286fd	0.019839758
116	0x3ba8f2fb	0.0051559187
117	0x3e800303	0.25002298
118	0xbf16b1c4	-0.58865
119	0xbf04845b	-0.5176446
120	0x3cbd7d06	0.023130905
121	0xbc97a736	-0.01851235
122	0xbbca72d9	-0.0061782417
123	0xbd0effd8	-0.03491196
124	0x3c3d8d3f	0.01156932
125	0x3c452075	0.012031664
126	0x3d88b68a	0.066754416
127	0x3eb4a1ce	0.35279697
128	0x3d1f20ac	0.038849518
129	0xbd1cf769	-0.038321886
130	0xbe9cd31f	-0.30629823
131	0xbea9bb57	-0.3315074
132	0x3b403ae9	0.0029331988
133	0xbd4a12f4	-0.04933448
134	0x3bdb3b9e	0.0066904565
135	0xbea68f97	-0.32531425
136	0x3ced9e74	0.02900622
137	0x3e018b06	0.1265069
138	0x3f12acfd	0.5729521
139	0x3c88db64	0.016706176
140	0xbcd75979	-0.026287781
141	0xbbb0094f	-0.0053722034
142	0xbd54bf57	-0.05194029
143	0x3e9dbaef	0.30806682
144	0x3cb6ca0d	0.022313142
145	0x3ead3eef	0.33837077
146	0x3ecd6975	0.4011952
147	0xbcadc592	-0.021212373
148	0x3ca40c95	0.02002553
149	0x3cc3aacf	0.023885159
150	0xbead2587	-0.33817694
151	0x3dd940aa	0.10608037
152	0xbc2ab1da	-0.01041838
153	0xbd017fea	-0.03161613
154	0xbcbe25df	-0.023211418
155	0xbc23e130	-0.010002419
156	0x3eedfe5e	0.4648313
157	0x3b977d7b	0.0046231127
158	0x3f0b12e2	0.5432569
159	0x3c90e8ca	0.017689127
160	0x3ead4d6f	0.3384814
161	0x3d587d82	0.05285407
162	0x3b6204d7	0.0034487748
163	0x3c857bc4	0.016294368
164	0x3c8a85a7	0.016909434
165	0x3d2b4d32	0.041821666
166	0x3c81358f	0.015772609
167	0xbbd038fa	-0.0063544484
168	0x3ec05ee3	0.37572393
169	0x3d1283d8	0.035770267
170	0xbeaf2ff0	-0.3421626
171	0x3d77c8ca	0.06049422
172	0x3f409a2f	0.75235265
173	0xbc28de0f	-0.010306849
174	0x3c3cd289	0.011524805
175	0xb9ec2936	-0.00045044132
176	0x3cdf68f3	0.027271723
177	0x3ed31716	0.4122855
178	0x3ed0e973	0.40803108
179	0x3f1f44e7	0.6221451
180	0x3f122c1a	0.57098544
181	0x3be7d7d7	0.0070752907
182	0x3e8fac64	0.2806121
183	0x3d48417e	0.048890583
184	0x3ea61613	0.32438716
185	0xbcd86a42	-0.026417855
186	0xb99b4570	-0.0002961564
187	0x3eb2236a	0.34792644
188	0xbc9f0301	-0.019410612
189	0xbec2b248	-0.38026643
190	0x3c5b2755	0.013376077
191	0xbb047689	-0.0020212254
192	0xbd099678	-0.033590764
193	0xbec5d610	-0.3863988
194	0xbea0580d	-0.31317177
195	0x3eb047ae	0.34429687
196	0x3d5be958	0.05368933
197	0x3ebc7c97	0.36813805
198	0xbc050718	-0.008119367
199	0x3d754330	0.059878528
200	0x3d5bc665	0.053656
201	0xbd6a325c	-0.057176933
202	0xbea7115b	-0.3263043
203	0xbcfb2511	-0.030657323
204	0x3f19ff3f	0.601551
205	0x3bfcc1a8	0.0077135153
206	0xbcfc9f28	-0.03083761
207	0xbc9296da	-0.017894197
208	0x3f2685d8	0.6504798
209	0x3cdf8d5f	0.02728909
210	0x3d20c9f3	0.039255094
211	0x3eb60e68	0.35557866
212	0xbd847c5a	-0.06469031
213	0x3ac3f885	0.0014951384
214	0xbe96b939	-0.2943819
215	0x3d1e8763	0.038703334
216	0xbd73d2e2	-0.059527285
217	0xbbf77a2f	-0.007552407
218	0xbd02e8e6	-0.03196039
219	0xbc254383	-0.010086897
220	0x3ca87421	0.020563187
221	0x3ea4b7db	0.3217152
222	0xbe8ca9ae	-0.27473205
223	0xbd647eec	-0.055785105
224	0xbea3af59	-0.31969717
225	0x3c2ddc3d	0.010611591
226	0x3bc9c0a8	0.0061569996
227	0xbd092b67	-0.033488657
228	0x3c8d38ae	0.017238941
229	0x3cd49f6f	0.02595493
230	0x3d0f6a75	0.035013635
231	0xbc5a992f	-0.013342186
232	0x3f0ba54c	0.545491
233	0xbea01e98	-0.3127334
234	0x3d715784	0.058921352
235	0x3b42c903	0.0029721863
236	0xbe19f5a2	-0.15035108
237	0x3b2c9da5	0.002633908
238	0xbc98fb98	-0.018674657
239	0xbb328136	-0.002723766
240	0x3c89a467	0.016802026
241	0x3b843922	0.004035131
242	0xbecc6e5e	-0.39927953
243	0xbc9a9696	-0.018870633
244	0xbbbea02f	-0.005817435
245	0xbe7d42ad	-0.24732466
246	0x3f163ad8	0.5868354
247	0x3f03fa92	0.51554215
248	0xbcc59336	-0.024118047
249	0x3c99026a	0.018677909
250	0x3c0c0993	0.008547205
251	0x3d0cf03a	0.034408785
252	0xbc35498e	-0.0110649
253	0xbc53bd14	-0.012923498
254	0xbd9be830	-0.076126456
255	0xbeb3040a	-0.3496402
