metric/probe_finetune_sample3.pth (torch, 539539 bytes, 12 tensors)

z_mu f4 [512]
0	0x3ab63397	0.0013900873
1	0x3a1887c5	0.0005818571
2	0xba1bdec0	-0.0005945973
3	0xbb77a201	-0.003778577
4	0xba1c9c2d	-0.00059742
5	0xbb38ee6d	-0.0028218285
6	0xbbc69eaf	-0.006061397
7	0x3f35a5d3	0.7095615
8	0xba281383	-0.0006411599
9	0x3eafddba	0.3434885
10	0x3a5d24d6	0.000843597
11	0xbb9ec9aa	-0.0048458176
12	0x3fa240a7	1.267598
13	0x3d405fb5	0.046966273
14	0x3f8ffda3	1.1249279
15	0x3914a6a3	0.00014176457
16	0xb940c7f5	-0.00018385037
17	0xbb1bcc12	-0.0023772758
18	0xbbd9a3b3	-0.006641829
19	0xbbab31d1	-0.0052244444
20	0x3be85122	0.00708975
21	0xb98e4917	-0.00027138807
22	0x3af683eb	0.0018807625
23	0xb96d9d67	-0.00022660718
24	0xbae3666d	-0.0017349251
25	0x3b2f11b1	0.0026713426
26	0x3b427458	0.0029671397
27	0xbaec46d6	-0.0018026482
28	0x3f6e2aae	0.93033874
29	0xbbf16613	-0.0073669045
30	0xbbca32ec	-0.006170621
31	0x3d185eff	0.03719997
32	0xbbe10ece	-0.00686822
33	0xba098137	-0.000524539
34	0x3f6c1061	0.9221249
35	0xbb855fdb	-0.0040702648
36	0x3b42d3cb	0.002972829
37	0xbb83adaf	-0.0040185074
38	0x3b6fe690	0.0036605932
39	0x3fb5190e	1.4148271
40	0x3f2cc2cc	0.67484736
41	0x3f2ed389	0.6829153
42	0xbb34c0cb	-0.0027580734
43	0x3aaffcb9	0.0013426758
44	0x3a97e25d	0.0011587847
45	0x3b8d8cb1	0.0043197502
46	0x3f9a921b	1.2075838
47	0xbaa217ac	-0.0012366674
48	0xbb6e7009	-0.0036382696
49	0x3ab5484c	0.001383075
50	0x3f6e2931	0.93031603
51	0x3a92c1fa	0.0011196726
52	0x3a20316f	0.0006110882
53	0xbbab2e5e	-0.0052240333
54	0x3f50509c	0.81373
55	0x3f2d2754	0.67638135
56	0x3f5ea27d	0.8696669
57	0xbb467bbd	-0.0030286156
58	0x3aef05d7	0.0018235993
59	0xbb92d23a	-0.0044806274
60	0xbb81b756	-0.003958623
61	0x3b3d92f3	0.00289267
62	0xba50cd32	-0.0007965147
63	0xba1b72be	-0.00059298787
64	0x3c8aefe9	0.016960101
65	0x3bd490ef	0.006487004
66	0x3c293257	0.010326943
67	0xbb969632	-0.0045955414
68	0xbb9a4bd8	-0.0047087483
69	0xbaa25001	-0.0012383462
70	0x3ee3af1e	0.4446954
71	0xbab9c268	-0.0014172317
72	0xbb05dbe9	-0.0020425266
73	0xba08e191	-0.00052216003
74	0x3b33bdad	0.0027426288
75	0xbadea03e	-0.0016985012
76	0x3a07e404	0.0005183818
77	0x3f2c114a	0.6721388
78	0x3b803c80	0.003913462
79	0x3fb0c51a	1.3810151
80	0x3f70645c	0.93903136
81	0x3aefcf16	0.0018295969
82	0x38bca2b9	8.994848e-05
83	0x3a4f1c04	0.0007900598
84	0x3b8f7eb9	0.00437912
85	0x3c05eb75	0.008173813
86	0xbb7c254e	-0.0038474384
87	0x3f78f075	0.9724191
88	0xbaf5f545	-0.0018765113
89	0x3f7d1e6d	0.9887455
90	0x3f6fbe7d	0.9365004
91	0x3acf0de0	0.0015796982
92	0xbacbafcd	-0.0015540064
93	0x3f9fdf6d	1.2490059
94	0x3a374dc6	0.0006992485
95	0x3b382f21	0.0028104263
96	0xb9e6d49a	-0.0004402742
97	0x3f3cc15b	0.7373254
98	0xb91f063c	-0.00015165744
99	0x3b4efe4a	0.0031584674
100	0xbac1bafa	-0.0014780455
101	0x3ac673c9	0.0015140708
102	0xba958938	-0.0011408692
103	0x3bae5343	0.005319984
104	0x3a84e1b2	0.0010138063
105	0x3f154ef3	0.5832359
106	0x3f8bc214	1.0918603
107	0x3b422730	0.0029625408
108	0x3c154927	0.009111679
109	0x3c375a02	0.011190893
110	0x3b8a7cb8	0.0042262934
111	0xbb92b7f2	-0.0044774944
112	0xbaf708b4	-0.0018847198
113	0x3b55e2f2	0.003263649
114	0x3f8f5ee4	1.1200833
115	0x3f887911	1.0661947
116	0xbb5a2e68	-0.003329182
117	0x3be4d910	0.0069838837
118	0x3edf5a82	0.4362374
119	0x3b031c34	0.0020005824
120	0x3f6cb62c	0.9246547
121	0x3adc08ba	0.0016787269
122	0xbc02b255	-0.007977088
123	0x3f7d0771	0.9883948
124	0x3c5007c0	0.01269716
125	0x3b7dcaa5	0.0038725522
126	0xba88b27d	-0.001042917
127	0x3ea55d18	0.32297587
128	0xbaeea64d	-0.001820752
129	0x3b4b402f	0.0031013598
130	0xbba8b698	-0.00514872
131	0xbad30e2d	-0.0016102247
132	0x3b2d61c4	0.0026455978
133	0x3af32de4	0.0018553105
134	0x3f085c3f	0.53265756
135	0xbb8d1bc2	-0.0043062875
136	0x3fcad7c9	1.5847102
137	0xb9a8af03	-0.0003217385
138	0x3bc468ff	0.005993962
139	0x3f980bba	1.1878579
140	0xbab1e2c3	-0.0013571609
141	0x3f996eca	1.1986935
142	0x3f883a55	1.0642802
143	0x3b52d96e	0.0032173055
144	0x3c5eb89a	0.013593817
145	0x3a9a0643	0.0011751134
146	0x3a3833f9	0.00070267875
147	0xbba25c15	-0.0049548247
148	0xbb5e63dc	-0.0033934033
149	0x3c8971e3	0.016777938
150	0xba8a3197	-0.0010543343
151	0xbae5cb46	-0.0017531894
152	0x3a912212	0.0011072776
153	0x3a231913	0.0006221693
154	0xbb9d4cbb	-0.0048004068
155	0xbbc2c72f	-0.0059441547
156	0x3fa14d46	1.2601707
157	0x3fa98380	1.3243256
158	0x3b8a1e2a	0.0042150216
159	0x3bf0c732	0.0073479647
160	0x3f17729d	0.5915926
161	0x3a99c6cd	0.0011732221
162	0x3ebef2ed	0.37294713
163	0x3f5318af	0.8245954
164	0x3b9d37f2	0.004797929
165	0x3adb9347	0.0016752266
166	0x39ced400	0.00039449334
167	0x3f891422	1.0709269
168	0x3fa7ec9e	1.3119085
169	0xbb42fa66	-0.00297513
170	0x3f39cd9f	0.7257938
171	0x3f83ef07	1.030732
172	0x3d26e3a9	0.040744457
173	0x3bc6245d	0.0060468153
174	0x3f447142	0.7673532
175	0x3a8a597c	0.0010555233
176	0xb9fcfa67	-0.0004825175
177	0x3e315e61	0.17321159
178	0xba89a3d3	-0.0010501094
179	0x3b300030	0.002685558
180	0x3f24fd5f	0.64449114
181	0x3ade3df2	0.0016955717
182	0x3b3d4f4f	0.0028886383
183	0x3b698d93	0.0035637363
184	0x3dd4ede7	0.10396939
185	0x3f8d1bbb	1.1024088
186	0x3bec4677	0.0072105485
187	0x3f82c20b	1.0215467
188	0x3fc521c2	1.5400927
189	0x3f12aab5	0.5729173
190	0x3ea694f1	0.32535508
191	0x3b47c5b6	0.0030482835
192	0x39cfd159	0.00039638093
193	0xbb2b0f99	-0.0026101826
194	0xbb01ac8f	-0.001978669
195	0xb90d9c4d	-0.00013505034
196	0xbb08be4c	-0.002086538
197	0x3f1a2c30	0.60223675
198	0x3f60248d	0.8755577
199	0x3ef18e2e	0.47178787
200	0x3b7c45d4	0.003849377
201	0x3e86977e	0.26287454
202	0x3f65d2cc	0.89774776
203	0x38691812	5.5573946e-05
204	0x3f076633	0.5289032
205	0xbb51c719	-0.003200954
206	0x3841a032	4.616398e-05
207	0xbaf60258	-0.0018769009
208	0xba137f6a	-0.0005626591
209	0xbb357dbb	-0.002769335
210	0x3be1714c	0.006879961
211	0xbb84f9a6	-0.0040580807
212	0x3fa433cf	1.2828311
213	0x3bd9b9d3	0.0066444664
214	0x3b58ff11	0.0033111016
215	0x3f2d7cf7	0.67768806
216	0x3f670c99	0.902536
217	0x3bd354db	0.0064493245
218	0x3dcaf5f2	0.099101916
219	0xbb0dc7d8	-0.0021634009
220	0x3f719f59	0.9438377
221	0x39b4e1de	0.0003450056
222	0x3f94c6da	1.1623185
223	0x3f6a2fde	0.9147929
224	0x3b3898b3	0.0028167188
225	0xbb8e34c2	-0.0043397853
226	0xbb99fe0d	-0.0046994747
227	0x3d138869	0.036018763
228	0x3c0a7c1a	0.00845244
229	0xba7c4c56	-0.0009624412
230	0xbb1f891b	-0.0024343196
231	0x3a2288c0	0.0006200187
232	0x3bd64b70	0.0065397546
233	0x3b668a6d	0.0035177723
234	0xbb4e2171	-0.0031453038
235	0x3fa4148b	1.2818769
236	0x3f3617be	0.7112998
237	0x3a346401	0.0006881357
238	0xbc1a49f0	-0.009417042
239	0x3f49d12f	0.78834814
240	0x3b650577	0.0034945884
241	0xbb3cf72d	-0.0028833852
242	0xba8091af	-0.0009809042
243	0x3a626ce4	0.0008637442
244	0x3f81dbcd	1.0145203
245	0x3b4ef55d	0.0031579353
246	0x3b6f3e50	0.0036505647
247	0x3b779a0e	0.0037781033
248	0xbb1c4249	-0.002384322
249	0x3f8cb5b4	1.0992951
250	0xba138933	-0.0005628049
251	0x3f8389ae	1.0276392
252	0xba2f6536	-0.0006690802
253	0x3fa7c15e	1.3105886
254	0x3adc0783	0.0016786907
255	0xba571038	-0.0008204016

z_logvar f4 [512]
0	0xc0be06f9	-5.938351
1	0xc0a599c1	-5.175019
2	0xc0a100d5	-5.0313516
3	0xc0a003f3	-5.000482
4	0xc0ad3e95	-5.4138894
5	0xc0a73b71	-5.226006
6	0xc0a072b9	-5.014004
7	0xc087142b	-4.221212
8	0xc0963ad6	-4.694682
9	0xc081d81a	-4.0576296
10	0xc0a431b7	-5.1310687
11	0xc0747052	-3.8193555
12	0xc0a57930	-5.1710434
13	0xc05731f1	-3.3624232
14	0xc0b72b59	-5.7240415
15	0xc0a63a23	-5.194597
16	0xc0b0f1f1	-5.529534
17	0xc09ad417	-4.83839
18	0xc08fbbb8	-4.491665
19	0xc0b53b86	-5.663516
20	0xc0918196	-4.5470686
21	0xc08ece93	-4.4627166
22	0xc0a8e253	-5.2776275
23	0xc09db8c8	-4.9288063
24	0xc0ac326e	-5.381156
25	0xc09d67a4	-4.9189014
26	0xc08f6508	-4.481083
27	0xc0aa7e8a	-5.3279467
28	0xc09f7cc9	-4.9839826
29	0xc09d5c44	-4.917513
30	0xc06e2cf7	-3.7214944
31	0xc04f1a56	-3.2359824
32	0xc0a77271	-5.23272
33	0xc07d1f10	-3.955021
34	0xc082a30e	-4.082404
35	0xc0a6ea79	-5.216122
36	0xc092fc13	-4.593271
37	0xc098c652	-4.774209
38	0xc0b52a05	-5.6613793
39	0xc053651c	-3.3030462
40	0xc090f452	-4.5298243
41	0xc09353e6	-4.6039915
42	0xc0a89fd4	-5.2695103
43	0xc086fa87	-4.218082
44	0xc0a49b9c	-5.1439953
45	0xc0a2a31a	-5.08241
46	0xc0aa8b00	-5.329468
47	0xc0a49900	-5.1436768
48	0xc0945fc3	-4.6366897
49	0xc088874e	-4.2665167
50	0xc0964101	-4.695435
51	0xc094cb10	-4.649788
52	0xc0900184	-4.500185
53	0xc09b9716	-4.862193
54	0xc09a1d17	-4.816051
55	0xc084fa3d	-4.1555467
56	0xc08a4388	-4.3207436
57	0xc0a98e33	-5.2986083
58	0xc085576a	-4.1669207
59	0xc0911d5f	-4.5348353
60	0xc09658ee	-4.6983557
61	0xc093f8a2	-4.6241007
62	0xc090beda	-4.5232973
63	0xc09c6b1e	-4.888076
64	0xc0600ac9	-3.5006583
65	0xc0a0885a	-5.0166445
66	0xc0a00824	-5.0009937
67	0xc08908fd	-4.282347
68	0xc0aa1e19	-5.316174
69	0xc098bd6e	-4.7731237
70	0xc06ecb76	-3.7311683
71	0xc088d30c	-4.2757626
72	0xc0974ebd	-4.7283616
73	0xc06aa8a0	-3.666542
74	0xc095837c	-4.6723003
75	0xc0a4f9c2	-5.155488
76	0xc0b4471a	-5.6336794
77	0xc09a2fd5	-4.818339
78	0xc08ef8bf	-4.4678645
79	0xc0baac64	-5.833544
80	0xc099c57f	-4.8053584
81	0xc0adbcca	-5.4292955
82	0xc0a1ae0a	-5.052495
83	0xc0b164a5	-5.5435357
84	0xc0776e24	-3.8660975
85	0xc09c180d	-4.877936
86	0xc0a77636	-5.23318
87	0xc0a67026	-5.20119
88	0xc093bb66	-4.616626
89	0xc081cdef	-4.0563884
90	0xc098de80	-4.7771606
91	0xc092a22b	-4.582296
92	0xc0b50c9c	-5.657789
93	0xc0bf73bb	-5.9828773
94	0xc09d5dc6	-4.917697
95	0xc0b50253	-5.6565337
96	0xc0b0bf39	-5.5233426
97	0xc0a5fa57	-5.186809
98	0xc09e94e5	-4.9556756
99	0xc094745a	-4.639203
100	0xc0a7d8cf	-5.245216
101	0xc094b2ac	-4.6468105
102	0xc0a88f9e	-5.2675314
103	0xc09aad87	-4.8336825
104	0xc098db34	-4.776758
105	0xc085ab5d	-4.1771684
106	0xc0a0638b	-5.0121512
107	0xc08feb3e	-4.497466
108	0xc0a0682e	-5.0127172
109	0xc0867047	-4.2012057
110	0xc0a0208b	-5.0039725
111	0xc098930f	-4.7679515
112	0xc0b62b32	-5.692773
113	0xc09ecddb	-4.962629
114	0xc0a756cd	-5.229346
115	0xc0a7389a	-5.2256594
116	0xc0a3f4b2	-5.12362
117	0xc08b4ad5	-4.352885
118	0xc0819e4a	-4.0505724
119	0xc0c9f728	-6.3114204
120	0xc0a12cdf	-5.0367274
121	0xc083b431	-4.115746
122	0xc07cf42f	-3.9524038
123	0xc09b5563	-4.854173
124	0xc08f1422	-4.4712076
125	0xc09a00f1	-4.812615
126	0xc0af0bdb	-5.470197
127	0xc02be14e	-2.6856265
128	0xc096c03c	-4.710966
129	0xc0a91dcb	-5.284887
130	0xc0992a92	-4.7864466
131	0xc0b6ffe0	-5.7187347
132	0xc09626c4	-4.692232
133	0xc0a39c48	-5.1128273
134	0xc0828b54	-4.079508
135	0xc0b0fd6c	-5.5309353
136	0xc0b80519	-5.7506223
137	0xc0a3365b	-5.100385
138	0xc05c67be	-3.443832
139	0xc09dc7fd	-4.9306626
140	0xc0b74fc9	-5.7284894
141	0xc0aba4a6	-5.3638487
142	0xc0c33124	-6.0997486
143	0xc0a7dcf7	-5.2457232
144	0xc07708d2	-3.8599133
145	0xc0937056	-4.607463
146	0xc0985383	-4.7601943
147	0xc0ad9977	-5.4249835
148	0xc0aa62e7	-5.324573
149	0xc07c45db	-3.9417636
150	0xc08b1275	-4.346003
151	0xc0a7a8a6	-5.239337
152	0xc0b551d6	-5.6662397
153	0xc0aea76f	-5.4579387
154	0xc0aad39e	-5.338332
155	0xc0b0919f	-5.517776
156	0xc0af913c	-5.486479
157	0xc0b66d49	-5.7008405
158	0xc092db36	-4.589259
159	0xc0aa02d4	-5.312845
160	0xc061e6a6	-3.5297027
161	0xc09a26c5	-4.8172326
162	0xc04c7c41	-3.1950839
163	0xc0a1f872	-5.061578
164	0xc08f7459	-4.4829526
165	0xc09fa0ba	-4.98837
166	0xc0ad1145	-5.408358
167	0xc0b4d9a5	-5.651568
168	0xc0b9f46d	-5.811087
169	0xc085d0f6	-4.181758
170	0xc04b9e6e	-3.1815448
171	0xc0bb9a3a	-5.8625765
172	0xc06ca221	-3.6973956
173	0xc09ba960	-4.8644257
174	0xc08a7213	-4.326425
175	0xc0973222	-4.7248697
176	0xc0990780	-4.7821655
177	0xc06771ea	-3.6163278
178	0xc0adec00	-5.4350586
179	0xc0a22fa7	-5.068317
180	0xc08c40eb	-4.3829246
181	0xc09dd3b6	-4.9320936
182	0xc0923745	-4.569247
183	0xc0aae726	-5.3407164
184	0xc06246a9	-3.5355628
185	0xc08dd84a	-4.4326525
186	0xc09ad387	-4.838321
187	0xc0956c03	-4.669435
188	0xc0b787ba	-5.735318
189	0xc0817064	-4.0449696
190	0xc055f873	-3.3432891
191	0xc08ba885	-4.364321
192	0xc0931836	-4.5967054
193	0xc09a0b43	-4.8138747
194	0xc0adae0e	-5.427497
195	0xc0a39efb	-5.113157
196	0xc08b2ee4	-4.349474
197	0xc075ae91	-3.8387797
198	0xc09d8d62	-4.9235086
199	0xc072d13e	-3.7940211
200	0xc0b2f307	-5.5921664
201	0xc036a874	-2.8540316
202	0xc09eddbe	-4.964568
203	0xc0a304b9	-5.0943265
204	0xc064f755	-3.577596
205	0xc0a6621c	-5.1994762
206	0xc0902be9	-4.50536
207	0xc0aad7d3	-5.3388457
208	0xc0951b1a	-4.6595583
209	0xc0943162	-4.631028
210	0xc08a6f1e	-4.326064
211	0xc08d1f7d	-4.410094
212	0xc0a4a89c	-5.145582
213	0xc08a8fb8	-4.330044
214	0xc08976c5	-4.295748
215	0xc07c43ef	-3.9416463
216	0xc0a46055	-5.1367593
217	0xc087d2bf	-4.244476
218	0xc0586545	-3.381181
219	0xc09e5076	-4.947322
220	0xc06f2103	-3.7363899
221	0xc08b4b97	-4.3529773
222	0xc0b40adf	-5.626327
223	0xc095d496	-4.6822004
224	0xc089a7f6	-4.301753
225	0xc0a4652f	-5.1373515
226	0xc095774d	-4.670813
227	0xc066a8a1	-3.6040423
228	0xc0644ec2	-3.567307
229	0xc0a95965	-5.2921624
230	0xc09a6c3d	-4.8257127
231	0xc09ba5c3	-4.8639846
232	0xc079ac41	-3.9011385
233	0xc0981ff1	-4.753899
234	0xc0afb682	-5.491029
235	0xc0ac84d4	-5.3912144
236	0xc098424e	-4.758094
237	0xc0992546	-4.7858
238	0xc0a48f08	-5.14246
239	0xc0a3619b	-5.1056647
240	0xc09df0bd	-4.935637
241	0xc09801b9	-4.7502103
242	0xc0a2229a	-5.066724
243	0xc0b923b3	-5.785608
244	0xc0961627	-4.690204
245	0xc0bb504f	-5.8535533
246	0xc09770f1	-4.732537
247	0xc09375c2	-4.6081247
248	0xc0aa250c	-5.3170223
249	0xc09b421a	-4.851819
250	0xc08f078a	-4.4696703
251	0xc09b6b11	-4.8568196
252	0xc0a23bfd	-5.069823
253	0xc0a5fea9	-5.1873364
254	0xc09ffe31	-4.999779
255	0xc0aab6db	-5.334821

weight_mu f4 [128, 512]
0	0xbc41f202	-0.011837484
1	0xbba1f5f4	-0.00494265
2	0x3c625719	0.013814711
3	0xbc975c1a	-0.018476535
4	0x3cbe6636	0.023242097
5	0x3c4929f0	0.012278065
6	0xbbb0929a	-0.00538857
7	0xbc91032e	-0.017701712
8	0x3a901013	0.0010991119
9	0x3ba72cdb	0.0051017827
10	0x3c1dacb2	0.009623693
11	0xbc8859d9	-0.016644405
12	0xbd9ebe76	-0.07751171
13	0xbcd06fd8	-0.025443956
14	0xbd8a34ab	-0.06748327
15	0xbc093bf2	-0.0083761085
16	0xbd18e95a	-0.037331916
17	0x3c2f0d84	0.010684375
18	0xbcba12d1	-0.02271405
19	0xb993087f	-0.00028044355
20	0x3c9d25e7	0.019183112
21	0xbc8f356f	-0.017481534
22	0x3ca68ccd	0.02033081
23	0x3bb56283	0.005535425
24	0x3bfcbfa6	0.007713276
25	0x3c8942f0	0.016755551
26	0x3c935308	0.017983928
27	0x3bad843d	0.005295305
28	0xbd5068e4	-0.05088128
29	0x3c9d9450	0.01923576
30	0x3c002fde	0.007823912
31	0xbc03bfae	-0.0080413055
32	0x3bf0074f	0.00732509
33	0x3d16744b	0.036732
34	0xbcc515d2	-0.024058256
35	0x3ba62c1f	0.0050711776
36	0xbaf44eb7	-0.0018639182
37	0xbcda6961	-0.026661577
38	0xbc8624fc	-0.016375057
39	0xbdb375d1	-0.08762706
40	0xbd0e4c07	-0.034740474
41	0xbd0fea84	-0.03513576
42	0x3bae66b2	0.005322301
43	0x3cf1d448	0.029520169
44	0xbb13b374	-0.0022537382
45	0xbadb29ad	-0.0016720794
46	0xbd974a30	-0.07387197
47	0x3bdfe1c5	0.0068323337
48	0x3c87d92e	0.016583052
49	0xbc9bfd69	-0.019041734
50	0xbd79e1fa	-0.061006524
51	0x3b0e1661	0.002168082
52	0xbc391feb	-0.011299114
53	0xba488b44	-0.0007650147
54	0xbd037a40	-0.03209901
55	0xbc220ae8	-0.009890296
56	0xbc244163	-0.010025355
57	0xbb83688e	-0.0040102666
58	0xbc3b6ecf	-0.011439993
59	0xbbc18a80	-0.005906403
60	0xbbdc7b64	-0.0067285765
61	0xbc13d89b	-0.009023811
62	0x3cc632d9	0.024194168
63	0x3b13cb34	0.0022551538
64	0x3c94d091	0.018165858
65	0xbc1c1933	-0.009527492
66	0x3c75c500	0.015000582
67	0xbcb30e1c	-0.021857314
68	0xbb2b0425	-0.0026095
69	0x3a8b3748	0.0010621333
70	0xbc1eaccb	-0.009684752
71	0xbc9b36ec	-0.018947087
72	0xbbbc7e09	-0.0057523292
73	0x3d04ad3b	0.032391768
74	0xba14ab11	-0.0005671243
75	0x3b0defdf	0.0021657867
76	0xbbbd1056	-0.0057697697
77	0xbc5cbe1f	-0.013473063
78	0xbc47c536	-0.012193015
79	0xbdab0906	-0.083513305
80	0xbd8d9add	-0.069143035
81	0x3cb52180	0.0221107
82	0x3c322555	0.010873158
83	0x3ca37088	0.01995112
84	0xbb8eb382	-0.004354895
85	0xbc00e219	-0.007866406
86	0x3c17c9e9	0.009264448
87	0xbd29c916	-0.041451536
88	0x3cd6d953	0.026226675
89	0xbd03ac49	-0.032146726
90	0xbcdedbb8	-0.02720438
91	0x3c3af5f6	0.011411181
92	0xbbd287b4	-0.0064248685
93	0xbd9d2483	-0.0767298
94	0xbc3c9759	-0.0115106935
95	0x3bb83b0f	0.0056222747
96	0x3a83b409	0.0010048161
97	0xbca83dfd	-0.02053737
98	0xb97a1a54	-0.00023851666
99	0xbb9ea4fa	-0.004841444
100	0x3bed611a	0.0072442414
101	0x3b3a550a	0.0028432035
102	0x3c570916	0.013124725
103	0x3ad7d221	0.0016465822
104	0xbb355008	-0.002766611
105	0xbd44703f	-0.04795861
106	0xbd1981b9	-0.03747723
107	0xbbaee4b2	-0.005337321
108	0xbd11c78f	-0.035590705
109	0xbc81350e	-0.015772369
110	0xbb23f36e	-0.0025016922
111	0x3c155d0b	0.009116421
112	0x3b61336c	0.0034362925
113	0x3bc16327	0.0059017125
114	0xbd921653	-0.07133164
115	0xbd439b87	-0.047755744
116	0xbbd3eec5	-0.0064676725
117	0xbc6fd132	-0.014637278
118	0xbd0296fc	-0.03188227
119	0x3b659c82	0.0035035913
120	0xbd25e4eb	-0.040501516
121	0x3d0e5865	0.03475227
122	0x39a587d2	0.00031572446
123	0xbd4e31bf	-0.05034041
124	0xbcd2c428	-0.0257283
125	0xbbb6c158	-0.0055772476
126	0x3af1cf0e	0.0018448548
127	0xbd142570	-0.036168516
128	0xbbd00cb3	-0.00634917
129	0x3c5ba944	0.013407055
130	0x3a89487b	0.0010473871
131	0x3ba59455	0.005053083
132	0x3c1caa0d	0.009562028
133	0x3c8b55c8	0.017008677
134	0xbc84e32d	-0.016221607
135	0xbcab9844	-0.02094663
136	0xbdcaf44c	-0.09909877
137	0x3b9e4818	0.0048303716
138	0x3d10adcd	0.035322
139	0xbd64373a	-0.05571673
140	0xbbd7f470	-0.0065904185
141	0xbd4c5649	-0.049886975
142	0xbdb580d5	-0.088624634
143	0x3b11d255	0.0022250612
144	0xbcd2b249	-0.025719779
145	0x3ca70f23	0.02039296
146	0x3bc0a3b9	0.0058788923
147	0x3c1e909d	0.009678033
148	0x3c649aac	0.013952892
149	0x3c1cac75	0.009562601
150	0xbd537fd0	-0.051635563
151	0xbc85d173	-0.016335225
152	0xbcda9cb6	-0.026686054
153	0x3b2f2b4a	0.0026728683
154	0xbc3e1895	-0.0116025405
155	0x3cb66a33	0.022267437
156	0xbdb1ea5e	-0.0868728
157	0xbdaf3b2f	-0.0855621
158	0x3c4eba2e	0.012617631
159	0xbbbf522c	-0.005838653
160	0xbd0ddf1f	-0.034636613
161	0xb90533c5	-0.00012703154
162	0xbcfbe663	-0.030749505
163	0xbd5af72d	-0.05345838
164	0xbc04164d	-0.008061958
165	0xbc552372	-0.013008939
166	0xbb5efdc4	-0.0034025768
167	0xbd7930b1	-0.06083745
168	0xbd8e7e98	-0.069577396
169	0xbbfe58f6	-0.00776207
170	0xbd26572d	-0.04061048
171	0xbd5105a4	-0.05103077
172	0x3c5b14a1	0.0133716175
173	0x3c70a337	0.014687351
174	0xbd150802	-0.03638459
175	0xbc91898b	-0.01776578
176	0x3be1ccba	0.0068908604
177	0xbc4a3e36	-0.012343934
178	0xbd202957	-0.039101925
179	0x3c5ebfdd	0.013595548
180	0xbcfb89e0	-0.030705392
181	0xbc6242d9	-0.013809883
182	0xbbeba237	-0.0071909684
183	0xbd30111d	-0.04298507
184	0x3d0a2866	0.033729933
185	0xbd60e483	-0.054905426
186	0xbd030a53	-0.031992268
187	0xbd838c58	-0.06423253
188	0xbd486f0e	-0.048934035
189	0xbce21712	-0.027598891
190	0x3b74651b	0.003729171
191	0xbd009810	-0.031395018
192	0xbc95c95e	-0.018284496
193	0xbb0f0e12	-0.0021828455
194	0x3c58d646	0.0132346805
195	0xbd1d20df	-0.038361426
196	0xbc2d6a8e	-0.010584487
197	0xbc34d9af	-0.011038228
198	0xbce4703a	-0.027885545
199	0xbd47e2f3	-0.04880042
200	0x3ce88c68	0.028387263
201	0x3c66cb6b	0.014086585
202	0xbd34d5b3	-0.044149112
203	0xbc8f670a	-0.017505188
204	0xbcc4ce51	-0.02402416
205	0x3cbbe796	0.022937577
206	0x3ca4f2c2	0.020135287
207	0xbc222edd	-0.009898868
208	0xbc92bcdb	-0.017912319
209	0xbd0e9af8	-0.03481576
210	0xbc69f37f	-0.014279245
211	0xbcfdb156	-0.03096835
212	0xbdacc368	-0.08435708
213	0xbc1dfbae	-0.009642525
214	0xbd21493a	-0.039376475
215	0xbcfb1124	-0.030647822
216	0xbd39d149	-0.045365606
217	0x3c68b8fb	0.014204259
218	0xbc534e0b	-0.012897025
219	0xbca4a4c4	-0.020098098
220	0xbd1a8fd2	-0.037734814
221	0x3c3e8d2a	0.011630336
222	0xbd224956	-0.03962072
223	0xbd7e0d0b	-0.062024157
224	0x3b8f10cf	0.0043660174
225	0xbb1dced4	-0.0024079578
226	0xbc865a54	-0.016400494
227	0x3b65adc9	0.003504621
228	0x393d0eeb	0.00018030002
229	0x3c12cd3b	0.008960064
230	0x3bfb313a	0.0076657804
231	0x3cc203ab	0.02368339
232	0x3c2e887e	0.010652659
233	0x3cd8d505	0.026468763
234	0xbc11ecba	-0.008906538
235	0xbdcbec8c	-0.09957227
236	0xbd0d9ff5	-0.034576375
237	0x3bdb58a1	0.006693915
238	0xbc03ab72	-0.008036481
239	0xbc993403	-0.018701559
240	0xbc51bd3f	-0.012801467
241	0xbc0795eb	-0.008275489
242	0x3c34103f	0.0109902015
243	0xbc94ff4a	-0.018188138
244	0xbd771fed	-0.06033318
245	0x3c5537f0	0.013013825
246	0x3cd2883c	0.025699727
247	0xbc3778ea	-0.011198262
248	0x3c294da6	0.010333454
249	0xbd27d074	-0.04097028
250	0x3bbf5fe9	0.005840291
251	0xbd954378	-0.07288259
252	0x3b816711	0.003949054
253	0xbd3c7ea3	-0.046019208
254	0x3beb5c73	0.0071826517
255	0xbc2f85cb	-0.010713051

weight_logvar f4 [128, 512]
0	0xc04e0210	-3.218876
1	0xc04e0210	-3.218876
2	0xc04e0210	-3.218876
3	0xc04e0210	-3.218876
4	0xc04e0210	-3.218876
5	0xc04e0210	-3.218876
6	0xc04e0210	-3.218876
7	0xc04e0210	-3.218876
8	0xc04e0210	-3.218876
9	0xc04e0210	-3.218876
10	0xc04e0210	-3.218876
11	0xc04e0210	-3.218876
12	0xc04e0210	-3.218876
13	0xc04e0210	-3.218876
14	0xc04e0210	-3.218876
15	0xc04e0210	-3.218876
16	0xc04e0210	-3.218876
17	0xc04e0210	-3.218876
18	0xc04e0210	-3.218876
19	0xc04e0210	-3.218876
20	0xc04e0210	-3.218876
21	0xc04e0210	-3.218876
22	0xc04e0210	-3.218876
23	0xc04e0210	-3.218876
24	0xc04e0210	-3.218876
25	0xc04e0210	-3.218876
26	0xc04e0210	-3.218876
27	0xc04e0210	-3.218876
28	0xc04e0210	-3.218876
29	0xc04e0210	-3.218876
30	0xc04e0210	-3.218876
31	0xc04e0210	-3.218876
32	0xc04e0210	-3.218876
33	0xc04e0210	-3.218876
34	0xc04e0210	-3.218876
35	0xc04e0210	-3.218876
36	0xc04e0210	-3.218876
37	0xc04e0210	-3.218876
38	0xc04e0210	-3.218876
39	0xc04e0210	-3.218876
40	0xc04e0210	-3.218876
41	0xc04e0210	-3.218876
42	0xc04e0210	-3.218876
43	0xc04e0210	-3.218876
44	0xc04e0210	-3.218876
45	0xc04e0210	-3.218876
46	0xc04e0210	-3.218876
47	0xc04e0210	-3.218876
48	0xc04e0210	-3.218876
49	0xc04e0210	-3.218876
50	0xc04e0210	-3.218876
51	0xc04e0210	-3.218876
52	0xc04e0210	-3.218876
53	0xc04e0210	-3.218876
54	0xc04e0210	-3.218876
55	0xc04e0210	-3.218876
56	0xc04e0210	-3.218876
57	0xc04e0210	-3.218876
58	0xc04e0210	-3.218876
59	0xc04e0210	-3.218876
60	0xc04e0210	-3.218876
61	0xc04e0210	-3.218876
62	0xc04e0210	-3.218876
63	0xc04e0210	-3.218876
64	0xc04e0210	-3.218876
65	0xc04e0210	-3.218876
66	0xc04e0210	-3.218876
67	0xc04e0210	-3.218876
68	0xc04e0210	-3.218876
69	0xc04e0210	-3.218876
70	0xc04e0210	-3.218876
71	0xc04e0210	-3.218876
72	0xc04e0210	-3.218876
73	0xc04e0210	-3.218876
74	0xc04e0210	-3.218876
75	0xc04e0210	-3.218876
76	0xc04e0210	-3.218876
77	0xc04e0210	-3.218876
78	0xc04e0210	-3.218876
79	0xc04e0210	-3.218876
80	0xc04e0210	-3.218876
81	0xc04e0210	-3.218876
82	0xc04e0210	-3.218876
83	0xc04e0210	-3.218876
84	0xc04e0210	-3.218876
85	0xc04e0210	-3.218876
86	0xc04e0210	-3.218876
87	0xc04e0210	-3.218876
88	0xc04e0210	-3.218876
89	0xc04e0210	-3.218876
90	0xc04e0210	-3.218876
91	0xc04e0210	-3.218876
92	0xc04e0210	-3.218876
93	0xc04e0210	-3.218876
94	0xc04e0210	-3.218876
95	0xc04e0210	-3.218876
96	0xc04e0210	-3.218876
97	0xc04e0210	-3.218876
98	0xc04e0210	-3.218876
99	0xc04e0210	-3.218876
100	0xc04e0210	-3.218876
101	0xc04e0210	-3.218876
102	0xc04e0210	-3.218876
103	0xc04e0210	-3.218876
104	0xc04e0210	-3.218876
105	0xc04e0210	-3.218876
106	0xc04e0210	-3.218876
107	0xc04e0210	-3.218876
108	0xc04e0210	-3.218876
109	0xc04e0210	-3.218876
110	0xc04e0210	-3.218876
111	0xc04e0210	-3.218876
112	0xc04e0210	-3.218876
113	0xc04e0210	-3.218876
114	0xc04e0210	-3.218876
115	0xc04e0210	-3.218876
116	0xc04e0210	-3.218876
117	0xc04e0210	-3.218876
118	0xc04e0210	-3.218876
119	0xc04e0210	-3.218876
120	0xc04e0210	-3.218876
121	0xc04e0210	-3.218876
122	0xc04e0210	-3.218876
123	0xc04e0210	-3.218876
124	0xc04e0210	-3.218876
125	0xc04e0210	-3.218876
126	0xc04e0210	-3.218876
127	0xc04e0210	-3.218876
128	0xc04e0210	-3.218876
129	0xc04e0210	-3.218876
130	0xc04e0210	-3.218876
131	0xc04e0210	-3.218876
132	0xc04e0210	-3.218876
133	0xc04e0210	-3.218876
134	0xc04e0210	-3.218876
135	0xc04e0210	-3.218876
136	0xc04e0210	-3.218876
137	0xc04e0210	-3.218876
138	0xc04e0210	-3.218876
139	0xc04e0210	-3.218876
140	0xc04e0210	-3.218876
141	0xc04e0210	-3.218876
142	0xc04e0210	-3.218876
143	0xc04e0210	-3.218876
144	0xc04e0210	-3.218876
145	0xc04e0210	-3.218876
146	0xc04e0210	-3.218876
147	0xc04e0210	-3.218876
148	0xc04e0210	-3.218876
149	0xc04e0210	-3.218876
150	0xc04e0210	-3.218876
151	0xc04e0210	-3.218876
152	0xc04e0210	-3.218876
153	0xc04e0210	-3.218876
154	0xc04e0210	-3.218876
155	0xc04e0210	-3.218876
156	0xc04e0210	-3.218876
157	0xc04e0210	-3.218876
158	0xc04e0210	-3.218876
159	0xc04e0210	-3.218876
160	0xc04e0210	-3.218876
161	0xc04e0210	-3.218876
162	0xc04e0210	-3.218876
163	0xc04e0210	-3.218876
164	0xc04e0210	-3.218876
165	0xc04e0210	-3.218876
166	0xc04e0210	-3.218876
167	0xc04e0210	-3.218876
168	0xc04e0210	-3.218876
169	0xc04e0210	-3.218876
170	0xc04e0210	-3.218876
171	0xc04e0210	-3.218876
172	0xc04e0210	-3.218876
173	0xc04e0210	-3.218876
174	0xc04e0210	-3.218876
175	0xc04e0210	-3.218876
176	0xc04e0210	-3.218876
177	0xc04e0210	-3.218876
178	0xc04e0210	-3.218876
179	0xc04e0210	-3.218876
180	0xc04e0210	-3.218876
181	0xc04e0210	-3.218876
182	0xc04e0210	-3.218876
183	0xc04e0210	-3.218876
184	0xc04e0210	-3.218876
185	0xc04e0210	-3.218876
186	0xc04e0210	-3.218876
187	0xc04e0210	-3.218876
188	0xc04e0210	-3.218876
189	0xc04e0210	-3.218876
190	0xc04e0210	-3.218876
191	0xc04e0210	-3.218876
192	0xc04e0210	-3.218876
193	0xc04e0210	-3.218876
194	0xc04e0210	-3.218876
195	0xc04e0210	-3.218876
196	0xc04e0210	-3.218876
197	0xc04e0210	-3.218876
198	0xc04e0210	-3.218876
199	0xc04e0210	-3.218876
200	0xc04e0210	-3.218876
201	0xc04e0210	-3.218876
202	0xc04e0210	-3.218876
203	0xc04e0210	-3.218876
204	0xc04e0210	-3.218876
205	0xc04e0210	-3.218876
206	0xc04e0210	-3.218876
207	0xc04e0210	-3.218876
208	0xc04e0210	-3.218876
209	0xc04e0210	-3.218876
210	0xc04e0210	-3.218876
211	0xc04e0210	-3.218876
212	0xc04e0210	-3.218876
213	0xc04e0210	-3.218876
214	0xc04e0210	-3.218876
215	0xc04e0210	-3.218876
216	0xc04e0210	-3.218876
217	0xc04e0210	-3.218876
218	0xc04e0210	-3.218876
219	0xc04e0210	-3.218876
220	0xc04e0210	-3.218876
221	0xc04e0210	-3.218876
222	0xc04e0210	-3.218876
223	0xc04e0210	-3.218876
224	0xc04e0210	-3.218876
225	0xc04e0210	-3.218876
226	0xc04e0210	-3.218876
227	0xc04e0210	-3.218876
228	0xc04e0210	-3.218876
229	0xc04e0210	-3.218876
230	0xc04e0210	-3.218876
231	0xc04e0210	-3.218876
232	0xc04e0210	-3.218876
233	0xc04e0210	-3.218876
234	0xc04e0210	-3.218876
235	0xc04e0210	-3.218876
236	0xc04e0210	-3.218876
237	0xc04e0210	-3.218876
238	0xc04e0210	-3.218876
239	0xc04e0210	-3.218876
240	0xc04e0210	-3.218876
241	0xc04e0210	-3.218876
242	0xc04e0210	-3.218876
243	0xc04e0210	-3.218876
244	0xc04e0210	-3.218876
245	0xc04e0210	-3.218876
246	0xc04e0210	-3.218876
247	0xc04e0210	-3.218876
248	0xc04e0210	-3.218876
249	0xc04e0210	-3.218876
250	0xc04e0210	-3.218876
251	0xc04e0210	-3.218876
252	0xc04e0210	-3.218876
253	0xc04e0210	-3.218876
254	0xc04e0210	-3.218876
255	0xc04e0210	-3.218876

bias_mu f4 [128]
0	0xbe217a7a	-0.15769377
1	0xbf37b9bf	-0.717678
2	0x3ead23af	0.33816287
3	0x3f720175	0.94533473
4	0xbc2e5bb0	-0.010641977
5	0xbc37ace6	-0.011210656
6	0xbe32b63a	-0.17452326
7	0xbf2f48db	-0.68470544
8	0xbf2898f3	-0.6585838
9	0xbeaf6b10	-0.3426137
10	0xbf252269	-0.6450563
11	0xbe2fc276	-0.17164025
12	0xbe3f6506	-0.18690881
13	0xbe13de8e	-0.14440367
14	0xbeed8d68	-0.46396947
15	0xbe150795	-0.14553674
16	0xbc7b4e45	-0.015338485
17	0xbe1dc14d	-0.1540577
18	0xbe1b76bc	-0.15182012
19	0xbf1c7fb9	-0.6113239
20	0xbf590c5f	-0.847845
21	0xbe143b70	-0.14475799
22	0xbf196f13	-0.5993511
23	0xbf3de777	-0.7418131
24	0x3f3d1802	0.7386476
25	0x3f2af03d	0.66772825
26	0xbf240bfc	-0.64080787
27	0xbbaa4665	-0.00519638
28	0xbf52edfa	-0.82394373
29	0xbefca2f8	-0.49343085
30	0x3f510562	0.8164884
31	0xbc8f4ad3	-0.017491734
32	0xbf008331	-0.5020018
33	0xbf390e75	-0.72287685
34	0xbc771169	-0.0150798345
35	0x3f2dd3d2	0.6790134
36	0x3f0937c2	0.53600705
37	0xbe308574	-0.17238408
38	0xbe2a3f70	-0.16625762
39	0xbe9c35c7	-0.3050978
40	0xbf0b771a	-0.5447861
41	0x3f16ada3	0.588587
42	0xbecc95cb	-0.39958033
43	0x3ea63587	0.32462713
44	0x3f323065	0.69605094
45	0xbe1f9a1e	-0.15586135
46	0xbf0637d9	-0.52428967
47	0x3f25c215	0.6474927
48	0xbe25bad0	-0.16184545
49	0xbe169a0e	-0.14707205
50	0xbe13117f	-0.14362143
51	0xbc731387	-0.014836199
52	0x3e865ab4	0.26241076
53	0x3f562a2e	0.8365811
54	0x3f8129e9	1.0090915
55	0xbe2abbe6	-0.1667324
56	0xbe1a1769	-0.15047993
57	0x3bafc30e	0.0053638285
58	0xbe37bb49	-0.17942537
59	0xbb96251f	-0.004582062
60	0xbad06e13	-0.0015901945
61	0xbf2dc3f7	-0.67877144
62	0xbf190340	-0.59770584
63	0xbf123357	-0.5710959
64	0xbc0c1867	-0.00855074
65	0xbf264e18	-0.6496291
66	0xbe1c8e47	-0.1528865
67	0xbe2bd818	-0.16781652
68	0xbe321b50	-0.17393231
69	0x3f506134	0.8139832
70	0xbf1c1b61	-0.60979277
71	0xbbb246f0	-0.0054405853
72	0xbf13fefa	-0.5781094
73	0x3f44da80	0.76895905
74	0xbe26f922	-0.16305974
75	0xbf4482ec	-0.7676227
76	0xbe06dc91	-0.13170077
77	0xbc68bf5e	-0.014205782
78	0xbc1f379f	-0.009717851
79	0xbc93cdbc	-0.018042438
80	0xbf5a3b46	-0.85246694
81	0xbf4856b3	-0.7825729
82	0xbccdcbb5	-0.02512155
83	0xbc154d4c	-0.009112667
84	0xbe5c5e10	-0.21520257
85	0xbf378ab0	-0.71695995
86	0xbe22509d	-0.15851064
87	0xbf787d1a	-0.9706589
88	0xbc24339b	-0.010022069
89	0x3f2dbbbb	0.6786458
90	0xbe340253	-0.17579012
91	0xbba561f6	-0.0050470782
92	0xbe283b0e	-0.16428778
93	0xbf0605eb	-0.5235278
94	0xbe365b4a	-0.17808262
95	0xbb988038	-0.0046539567
96	0xbc78a32d	-0.015175623
97	0x3f4d883e	0.80286014
98	0xbe118a48	-0.14212906
99	0xbedb3ccc	-0.42819822
100	0x3f506bdf	0.814146
101	0x3f3e3629	0.7430139
102	0xbe2b9e7b	-0.16759674
103	0xbbee70ac	-0.007276615
104	0xbf5fb910	-0.8739176
105	0xbc34df7b	-0.01103961
106	0xbc4473a8	-0.011990465
107	0x3f4e6d88	0.8063588
108	0xbe275144	-0.16339594
109	0xbe095435	-0.13411029
110	0xbe414768	-0.18874896
111	0xbf34d0f4	-0.7063134
112	0xbe06ee00	-0.13176727
113	0xbcb58aba	-0.022160877
114	0xbf0927ba	-0.5357624
115	0xbf27ec72	-0.6559516
116	0xbe0d1681	-0.13778116
117	0xbe13a893	-0.14419775
118	0xbe2d8b45	-0.16947658
119	0xbb1011e3	-0.0021983318
120	0xbe115574	-0.14192754
121	0xbf452220	-0.77005196
122	0xbe09fd19	-0.13475455
123	0xbe174d94	-0.14775687
124	0xbf290544	-0.6602366
125	0xbe1608ac	-0.14651746
126	0xbe25ecc3	-0.16203599
127	0xbc318532	-0.010834979

bias_logvar f4 [128]
0	0xc04e0210	-3.218876
1	0xc04e0210	-3.218876
2	0xc04e0210	-3.218876
3	0xc04e0210	-3.218876
4	0xc04e0210	-3.218876
5	0xc04e0210	-3.218876
6	0xc04e0210	-3.218876
7	0xc04e0210	-3.218876
8	0xc05075b6	-3.2571845
9	0xc04e0210	-3.218876
10	0xc04e0210	-3.218876
11	0xc04e0210	-3.218876
12	0xc04e0210	-3.218876
13	0xc04e0210	-3.218876
14	0xc04e8f7c	-3.2275076
15	0xc04e0210	-3.218876
16	0xc04e0210	-3.218876
17	0xc04e0210	-3.218876
18	0xc04e0210	-3.218876
19	0xc050717e	-3.256927
20	0xc04f7990	-3.2417946
21	0xc04e0210	-3.218876
22	0xc05c51f2	-3.4425015
23	0xc04e0594	-3.2190905
24	0xc04e0645	-3.2191327
25	0xc04e0210	-3.218876
26	0xc04e03a3	-3.218972
27	0xc04e0210	-3.218876
28	0xc04e0509	-3.2190573
29	0xc04e0210	-3.218876
30	0xc04e33fb	-3.2219226
31	0xc04e0210	-3.218876
32	0xc04e0210	-3.218876
33	0xc04e0210	-3.218876
34	0xc04e0210	-3.218876
35	0xc04e0210	-3.218876
36	0xc04e0210	-3.218876
37	0xc04e0210	-3.218876
38	0xc04e0210	-3.218876
39	0xc04e0210	-3.218876
40	0xc04ed78b	-3.2319057
41	0xc04e0210	-3.218876
42	0xc04e0210	-3.218876
43	0xc04e0210	-3.218876
44	0xc04e0210	-3.218876
45	0xc04e0210	-3.218876
46	0xc04e0210	-3.218876
47	0xc04e0210	-3.218876
48	0xc04e0210	-3.218876
49	0xc04e0210	-3.218876
50	0xc04e0210	-3.218876
51	0xc04e0210	-3.218876
52	0xc04e0210	-3.218876
53	0xc04e0210	-3.218876
54	0xc056bdc8	-3.3553333
55	0xc04e0210	-3.218876
56	0xc04e0210	-3.218876
57	0xc04e0210	-3.218876
58	0xc04e0210	-3.218876
59	0xc04e0210	-3.218876
60	0xc04e0210	-3.218876
61	0xc04e0210	-3.218876
62	0xc04e1f01	-3.2206423
63	0xc04e0210	-3.218876
64	0xc04e0210	-3.218876
65	0xc04e17b6	-3.2201972
66	0xc04e0210	-3.218876
67	0xc04e0210	-3.218876
68	0xc04e0210	-3.218876
69	0xc04e0210	-3.218876
70	0xc04e0210	-3.218876
71	0xc04e0210	-3.218876
72	0xc04e0210	-3.218876
73	0xc04e073c	-3.2191916
74	0xc04e0210	-3.218876
75	0xc04e0210	-3.218876
76	0xc04e0210	-3.218876
77	0xc04e0210	-3.218876
78	0xc04e0210	-3.218876
79	0xc04e0210	-3.218876
80	0xc057cd7f	-3.3719175
81	0xc04f017d	-3.2344658
82	0xc04e0210	-3.218876
83	0xc04e0210	-3.218876
84	0xc04e0210	-3.218876
85	0xc0505b1e	-3.2555614
86	0xc04e0210	-3.218876
87	0xc0675091	-3.6142924
88	0xc04e0210	-3.218876
89	0xc04e0210	-3.218876
90	0xc04e0210	-3.218876
91	0xc04e0210	-3.218876
92	0xc04e0210	-3.218876
93	0xc050c8f1	-3.2622645
94	0xc04e0210	-3.218876
95	0xc04e0210	-3.218876
96	0xc04e0210	-3.218876
97	0xc04e575f	-3.2240827
98	0xc04e0210	-3.218876
99	0xc04e0210	-3.218876
100	0xc04e2ef9	-3.221617
101	0xc04e179a	-3.2201905
102	0xc04e0210	-3.218876
103	0xc04e0210	-3.218876
104	0xc051843d	-3.2736962
105	0xc04e0210	-3.218876
106	0xc04e0210	-3.218876
107	0xc04e55ff	-3.2239988
108	0xc04e0210	-3.218876
109	0xc04e0210	-3.218876
110	0xc04e0210	-3.218876
111	0xc04e0210	-3.218876
112	0xc04e0210	-3.218876
113	0xc04e0210	-3.218876
114	0xc04e0210	-3.218876
115	0xc04e0210	-3.218876
116	0xc04e0210	-3.218876
117	0xc04e0210	-3.218876
118	0xc04e0210	-3.218876
119	0xc04e0210	-3.218876
120	0xc04e0210	-3.218876
121	0xc04e3207	-3.2218034
122	0xc04e0210	-3.218876
123	0xc04e0210	-3.218876
124	0xc04e0454	-3.2190142
125	0xc04e0210	-3.218876
126	0xc04e0210	-3.218876
127	0xc04e0210	-3.218876

z_mu f4 [128]
0	0xbbaa423d	-0.0051958845
1	0x3e846b16	0.2586295
2	0x3cd9c050	0.02658096
3	0x3f202575	0.62557155
4	0xb840fd39	-4.60122e-05
5	0xb77e7912	-1.5167769e-05
6	0xb90f6286	-0.00013674246
7	0x3e9473bc	0.28994548
8	0x3ed7ccfd	0.4214858
9	0x3eb9be57	0.3627803
10	0x3e47178d	0.19442578
11	0xba076551	-0.00051649386
12	0xbb6d8143	-0.0036240376
13	0xbb6e1eef	-0.0036334356
14	0x3f34cc30	0.70624065
15	0xbbc902e4	-0.006134378
16	0x3925763e	0.00015779675
17	0x3b9b6044	0.0047417004
18	0xbc042810	-0.008066192
19	0x3ead5e36	0.3386094
20	0x3ede1e5b	0.43382534
21	0x3c7890e7	0.015171266
22	0x3f2c4d5a	0.6730553
23	0x3e93b524	0.28849137
24	0x3ebee96b	0.3728746
25	0x3e71fd29	0.23631729
26	0x3e7d33fa	0.24726859
27	0x39025a0c	0.00012431311
28	0x3f8b312e	1.0874383
29	0x3eaf392a	0.342233
30	0x3ef1b18f	0.4720578
31	0x38ed2b4e	0.00011309107
32	0x3ebe57bd	0.37176314
33	0x3f09cc29	0.5382715
34	0x381a433b	3.6779074e-05
35	0x3e782974	0.24234563
36	0x3e24d0a6	0.16095218
37	0xba9fb70c	-0.001218529
38	0x3c5ca36b	0.013466696
39	0xbbacf2f4	-0.0052779857
40	0x3f909f1b	1.1298555
41	0x3e280a0a	0.1641008
42	0x3ef2daa2	0.4743243
43	0x3cb30cf5	0.021856764
44	0x3e5d46b7	0.21609007
45	0xbc69770e	-0.014249576
46	0x3f1fa36a	0.62358725
47	0x3e6563d3	0.22401361
48	0x3b635668	0.0034688953
49	0x3c7341d0	0.014847234
50	0xbc9ac1a3	-0.018891161
51	0x38c54208	9.405991e-05
52	0x3b9e6702	0.004834057
53	0x3edaf7b7	0.42767116
54	0x3f3c5e5e	0.7358149
55	0x3af6647c	0.0018798257
56	0xbc649c9e	-0.013953356
57	0xba03fa85	-0.0005034584
58	0xba8e7dab	-0.0010871192
59	0x3987b7d6	0.00025886175
60	0xb995c3b6	-0.0002856531
61	0x3e1f9c3c	0.15586942
62	0x3f16e15d	0.5893763
63	0x3db3c717	0.08778208
64	0xb7f7f377	-2.9558067e-05
65	0x3ea8b76f	0.3295245
66	0xba0c7596	-0.0005358098
67	0xbbd9894a	-0.0066386806
68	0xbbea2d66	-0.007146525
69	0x3eec0fe0	0.46105862
70	0x3e8daec8	0.2767241
71	0xb964c13b	-0.00021815758
72	0x3eac501e	0.33654875
73	0x3eab2885	0.3342935
74	0x3b85e2e5	0.004085886
75	0x3ec84ea9	0.39122513
76	0xbb0bf6bf	-0.002135679
77	0xb949312d	-0.00019187173
78	0xb968bef8	-0.00022196386
79	0x3c0fa01c	0.0087662
80	0x3f25429d	0.6455477
81	0x3f66ce2e	0.90158355
82	0x39be49e3	0.00036294674
83	0xb89cf617	-7.4844975e-05
84	0x3c97da7b	0.018536797
85	0x3f5c433a	0.8604008
86	0x3b520509	0.0032046458
87	0x3f8e3cb3	1.1112274
88	0xb9220cf6	-0.00015454352
89	0x3ea7e2ae	0.3279013
90	0xb8f42da4	-0.00011643328
91	0x3807be8c	3.236397e-05
92	0x3951653e	0.00019969509
93	0x3f839f04	1.0282903
94	0x3b75ae08	0.0037487764
95	0xb925a00f	-0.00015795253
96	0xb9bd98a5	-0.00036162618
97	0x3ed116b3	0.4083763
98	0x3b9a8351	0.004715361
99	0x3ec1efc6	0.37878245
100	0x3ef128f6	0.47101563
101	0x3e9fb66d	0.31193867
102	0x3cd49c21	0.025953354
103	0x39a15c6c	0.00030777173
104	0x3f04f4be	0.51935947
105	0x39570bbd	0.0002050837
106	0x38a30939	7.7741635e-05
107	0x3ecdaa98	0.40169215
108	0xbb7552c8	-0.0037433375
109	0x3aac0bc9	0.0013126071
110	0x3c75a4ab	0.014992873
111	0x3ec39040	0.38195992
112	0x3bfd5a19	0.0077316877
113	0x38b7d41e	8.76563e-05
114	0x3f07a7c0	0.5299034
115	0x3e212ba7	0.15739308
116	0xb9ac1111	-0.00032819112
117	0x3c5e67bd	0.013574538
118	0x3c04fa5e	0.008116333
119	0xb9771642	-0.00023564047
120	0x3ba0c173	0.0049058734
121	0x3f03542b	0.51300305
122	0x3b29d42d	0.002591382
123	0xbb4e189c	-0.0031447774
124	0x3e63f035	0.222596
125	0xbc83428b	-0.016022941
126	0xbc0ca77f	-0.008584856
127	0x39c58302	0.00037672376

z_logvar f4 [128]
0	0xc070281b	-3.7524478
1	0xc08ddfe4	-4.4335804
2	0xc084ce2d	-4.150168
3	0xc09dd9eb	-4.9328513
4	0xc133b70d	-11.23219
5	0xc1267a75	-10.404897
6	0xc0876d8d	-4.232123
7	0xc096cf65	-4.7128167
8	0xc0a319d4	-5.096903
9	0xc084ce0b	-4.1501517
10	0xc08336e9	-4.100453
11	0xc086b8f0	-4.2100754
12	0xc05a3bf0	-3.4099083
13	0xc0970126	-4.71889
14	0xc0731144	-3.7979288
15	0xc0949ef9	-4.644406
16	0xc130cf34	-11.050587
17	0xc09176b3	-4.5457397
18	0xc08b8ef9	-4.3612027
19	0xc0a67260	-5.201462
20	0xc0a2ba98	-5.0852776
21	0xc0829e99	-4.08186
22	0xc0b2fc74	-5.593317
23	0xc08b08da	-4.3448305
24	0xc09880ea	-4.7657366
25	0xc090f757	-4.530193
26	0xc07d689a	-3.9595094
27	0xc135aaa5	-11.354161
28	0xc09fdac3	-4.9954543
29	0xc03f8471	-2.9924586
30	0xc09a0d1a	-4.8140993
31	0xc12b7326	-10.715612
32	0xc099b537	-4.803371
33	0xc080c195	-4.0236306
34	0xc12fca66	-10.986914
35	0xc08b784c	-4.3584347
36	0xc0901f83	-4.5038466
37	0xc092aae5	-4.583361
38	0xc07e2bdc	-3.971427
39	0xc07016bb	-3.7513874
40	0xc0ae2f5a	-5.44328
41	0xc0895d8b	-4.292669
42	0xc0a2113c	-5.064604
43	0xc084b297	-4.1468005
44	0xc08ed517	-4.463512
45	0xc08487e0	-4.1415863
46	0xc06cd308	-3.7003803
47	0xc0905644	-4.5105305
48	0xc0925b4c	-4.5736446
49	0xc09ad247	-4.8381686
50	0xc0847f3c	-4.1405315
51	0xc12b205d	-10.695401
52	0xc09762c9	-4.7308087
53	0xc098d192	-4.7755823
54	0xc0a31ab7	-5.097011
55	0xc091c6da	-4.555524
56	0xc0813c69	-4.0386243
57	0xc11dc44c	-9.860424
58	0xc06cde19	-3.7010558
59	0xc1333907	-11.201423
60	0xc12fcbb4	-10.987232
61	0xc07314f7	-3.7981546
62	0xc0918f8c	-4.548773
63	0xc07dd365	-3.9660275
64	0xc12adf94	-10.6795845
65	0xc0709ef0	-3.7597008
66	0xc083dc0f	-4.1206126
67	0xc0811b9d	-4.034621
68	0xc084ce27	-4.150165
69	0xc098834e	-4.7660284
70	0xc07cb946	-3.9488082
71	0xc130a4c1	-11.040223
72	0xc09db464	-4.9282703
73	0xc08e379d	-4.4442887
74	0xc08ab1d4	-4.3342075
75	0xc09ed960	-4.964035
76	0xc09cb17e	-4.8966665
77	0xc12c5a4e	-10.772047
78	0xc133cea2	-11.237947
79	0xc086ecd2	-4.2164087
80	0xc0ac3261	-5.38115
81	0xc0885df7	-4.2614703
82	0xc12c3aa9	-10.764321
83	0xc13099aa	-11.037516
84	0xc08185ca	-4.0475817
85	0xc08c93c6	-4.3930387
86	0xc083af86	-4.115176
87	0xc0a12ae1	-5.0364842
88	0xc1345b78	-11.272331
89	0xc09267f3	-4.575189
90	0xc07633ce	-3.846912
91	0xc130d8e2	-11.05295
92	0xc0814bf2	-4.0405207
93	0xc08f936d	-4.4867463
94	0xc07bd403	-3.9348152
95	0xc1341de4	-11.2572975
96	0xc12da65d	-10.853116
97	0xc0a15725	-5.0418878
98	0xc090b47f	-4.522033
99	0xc0339a1e	-2.8062816
100	0xc0988407	-4.7661166
101	0xc096d0e9	-4.7130017
102	0xc07628eb	-3.8462474
103	0xc12d8f33	-10.847461
104	0xc09d6841	-4.9189763
105	0xc130982c	-11.037151
106	0xc12ce2e4	-10.805393
107	0xc09c4bdc	-4.88426
108	0xc08ceba7	-4.403766
109	0xc099d2b0	-4.8069687
110	0xc08367c2	-4.1064157
111	0xc0752792	-3.8305402
112	0xc09e4afe	-4.9466543
113	0xc11d8337	-9.844535
114	0xc07083fc	-3.7580557
115	0xc08cc5fd	-4.3991685
116	0xc0a0db57	-5.026775
117	0xc086c60b	-4.211675
118	0xc080e70b	-4.0282035
119	0xc12f8a19	-10.971215
120	0xc09ba75f	-4.864181
121	0xc0a18014	-5.0468845
122	0xc078c98b	-3.8873012
123	0xc0831a08	-4.0969276
124	0xc080979f	-4.0185084
125	0xc090d747	-4.526279
126	0xc08adb30	-4.3392563
127	0xc130cec8	-11.050484

weight_mu f4 [2, 128]
0	0x3c4bfef1	0.0124509195
1	0xbed3b932	-0.4135223
2	0x3e821d93	0.25413188
3	0x3eeed1db	0.46644482
4	0x3c0c1c96	0.008551737
5	0xbc0ae50b	-0.00847746
6	0xbb3ab8ae	-0.0028491425
7	0xbea98dfa	-0.33116132
8	0xbea8c728	-0.32964444
9	0xbee8afb8	-0.45446563
10	0xbedd2102	-0.43189245
11	0xbc785e38	-0.015159182
12	0x3bced18c	0.006311601
13	0x3cbde59c	0.023180775
14	0xbf281df4	-0.65670705
15	0x3c169d2e	0.009192748
16	0xbc14ebac	-0.009089392
17	0x3d9a921e	0.07547401
18	0x3d029ca5	0.03188767
19	0xbebd4b2b	-0.3697141
20	0xbec98ebc	-0.3936671
21	0x3bbac3a4	0.0056995917
22	0xbe9856b7	-0.29753658
23	0xbecd9e83	-0.40159997
24	0x3efda7ee	0.49542183
25	0x3eba95cc	0.3644241
26	0xbecaed73	-0.39634284
27	0x3bd8087c	0.0065928083
28	0xbf129ba5	-0.57268745
29	0xbf1d1b15	-0.6136945
30	0x3ee0dbf9	0.43917826
31	0x3c12d104	0.008960966
32	0xbec2f801	-0.38079837
33	0xbf0be4a4	-0.5464575
34	0xbb6ca4df	-0.0036109013
35	0x3ec04869	0.37555245
36	0x3eb14f9e	0.34631056
37	0x3dc3f16d	0.09567533
38	0xbb0e524a	-0.0021716529
39	0xbe003efa	-0.12524024
40	0xbf056342	-0.5210458
41	0x3eae380a	0.3402713
42	0xbee5943e	-0.44839662
43	0x3e835957	0.25654098
44	0x3ede773e	0.4345035
45	0xbd2fe905	-0.042946834
46	0xbf305232	-0.6887542
47	0x3eba29e4	0.36360085
48	0xbd13832b	-0.036013763
49	0xbd2a8b09	-0.0416365
50	0xbd14e8d0	-0.03635484
51	0x3cd86074	0.02641318
52	0x3e7b8829	0.2456366
53	0x3ecb0f8f	0.39660308
54	0x3ed959cb	0.4245132
55	0xbcc3d39b	-0.023904612
56	0x3c9621ef	0.018326728
57	0xbd2dc8c1	-0.042427782
58	0x3ba4318c	0.0050107893
59	0xbcaf99b2	-0.021435592
60	0x3ca34755	0.019931475
61	0xbed66d10	-0.41880083
62	0xbeda2bda	-0.4261158
63	0xbebea736	-0.37236947
64	0xbc9508ea	-0.018192727
65	0xbee135a5	-0.4398624
66	0xbd851850	-0.06498778
67	0xbd8de79f	-0.06928944
68	0xbcb7e075	-0.022445897
69	0x3ecf1950	0.40449
70	0xbee39b75	-0.44454542
71	0x3a859017	0.0010190037
72	0xbeae6dbd	-0.340681
73	0x3ed27e5f	0.41112038
74	0x3c0d188c	0.008611809
75	0xbeacf7fe	-0.33782953
76	0xbc549e6f	-0.012977227
77	0xbd1b4174	-0.037904218
78	0xbc60c468	-0.013718702
79	0x3d4b40db	0.049622398
80	0xbea2ab4a	-0.31771308
81	0xbf21c46b	-0.63190335
82	0x3d85cb2b	0.06532892
83	0xbbda70a0	-0.006666258
84	0xbde7e0d6	-0.11322181
85	0xbf0a9cad	-0.5414532
86	0x3d975c78	0.07390684
87	0xbf1e40d1	-0.6181765
88	0xbc05a2dd	-0.008156505
89	0x3ec65feb	0.38745055
90	0xbd8199ac	-0.06328139
91	0x3cb5815e	0.022156414
92	0x3d08da6a	0.03341142
93	0xbf1d8ae0	-0.6154003
94	0xbc9d5419	-0.01920514
95	0xb90bac8b	-0.0001332035
96	0xbcbade98	-0.02281122
97	0x3ea76036	0.3269059
98	0xbc0c161e	-0.008550195
99	0xbf2cf0de	-0.67555034
100	0x3ec39dbe	0.38206285
101	0x3eb92bfe	0.36166376
102	0x3c7db8e5	0.015485977
103	0x3c0584d4	0.0081493445
104	0xbeb287bf	-0.3486919
105	0xbcb73762	-0.022365276
106	0xbbbf0980	-0.00582999
107	0x3eb5673e	0.3543033
108	0x3b4e062d	0.0031436787
109	0x3bfe3570	0.007757835
110	0xbcc776a4	-0.024348564
111	0xbefd297f	-0.49445722
112	0xbd116867	-0.035499956
113	0xbc085fb6	-0.0083236005
114	0xbef8ceea	-0.48595363
115	0xbebe04c1	-0.37113002
116	0x3d2b8c4e	0.04188185
117	0xbe0257dc	-0.12728828
118	0x3cd0c9b5	0.025486806
119	0x3cbb2de7	0.022849036
120	0xbd05d64b	-0.03267507
121	0xbebcc314	-0.36867583
122	0x3c5facaa	0.013652006
123	0xbb8fcb98	-0.004388284
124	0xbeeebeb5	-0.46629873
125	0x3cc38054	0.023864903
126	0x3c30dcbc	0.010794815
127	0xbbe360a7	-0.006939012
128	0xbc404ebf	-0.0117375245
129	0x3ed3ea38	0.41389632
130	0xbe83231a	-0.25612718
131	0xbeee5309	-0.46547726
132	0xbb7963d3	-0.0038053885
133	0x3bd6c467	0.0065541747
134	0xbbd5b95f	-0.006522342
135	0x3eaa62bb	0.3327845
136	0x3ea6952e	0.3253569
137	0x3eeb6397	0.4597442
138	0x3edaf50b	0.42765078
139	0x3c84a102	0.016190056
140	0xbc60acba	-0.013713056
141	0xbc907c33	-0.017637348
142	0x3f2a59d6	0.6654333
143	0xbc9409ad	-0.01807102
144	0x3c6dcc03	0.014513972
145	0xbdb27b94	-0.08714977
146	0xbd0e068c	-0.034674212
147	0x3ebb4825	0.3657848
148	0x3ec7f325	0.39052692
149	0xbc78b3a4	-0.015179548
150	0x3e9762fe	0.29567713
151	0x3ec992e2	0.39369875
152	0xbef9ff1f	-0.48827454
153	0xbebb9ea5	-0.36644474
154	0x3ecf8778	0.40533042
155	0xbb88b5e0	-0.004172072
156	0x3f125828	0.57165766
157	0x3f1f6dfb	0.6227719
158	0xbeddbf86	-0.43310183
159	0xbc53f4a1	-0.012936742
160	0x3ec56cb6	0.38559502
161	0x3f0b21b7	0.5434832
162	0x3bb0323f	0.0053770836
163	0xbebf8f4b	-0.3741401
164	0xbeb1f401	-0.34756473
165	0xbdc4d861	-0.096115835
166	0x3c247316	0.010037204
167	0x3dfc9b32	0.12334289
168	0x3f055cae	0.5209454
169	0xbeb0971c	-0.34490287
170	0x3ee3b395	0.44472948
171	0xbe827fb4	-0.25488055
172	0xbeda69eb	-0.42658934
173	0x3d18e09d	0.037323583
174	0x3f32ce67	0.69846195
175	0xbeba4515	-0.3638083
176	0x3d0403bb	0.03223012
177	0x3d3dc281	0.04632807
178	0x3cbfe9f0	0.02342698
179	0xbcc7eee0	-0.024405897
180	0xbe7aa7e5	-0.24478109
181	0xbecc7465	-0.39932552
182	0xbed8d756	-0.42351788
183	0x3cf25dcb	0.02958574
184	0xbcca26be	-0.024676677
185	0x3d293ba7	0.041316655
186	0xbbaf0442	-0.0053410837
187	0x3c6347d9	0.01387211
188	0xbca89ea7	-0.020583464
189	0x3ed81e82	0.42210776
190	0x3edb7cdc	0.42868698
191	0x3ec082d2	0.37599808
192	0x3c5a834a	0.013336966
193	0x3ee66113	0.44995937
194	0x3d5f99be	0.05458998
195	0x3d74f401	0.059803013
196	0x3d094fa8	0.03352323
197	0xbed1f9f5	-0.41011015
198	0x3edbb3f0	0.4291072
199	0xb9bc15aa	-0.00035874295
200	0x3eaf7166	0.34266204
201	0xbed202d1	-0.41017774
202	0xbcade936	-0.021229368
203	0x3eaefdba	0.34177953
204	0x3c379643	0.011205259
205	0x3d10b735	0.03533097
206	0x3c4fd027	0.012683905
207	0xbd30acb9	-0.04313347
208	0x3ea5cdab	0.32383475
209	0x3f226f5b	0.63451165
210	0xbd84cd0e	-0.064844236
211	0x3c33f338	0.010983281
212	0x3de54c57	0.11196201
213	0x3f0ce897	0.55042404
214	0xbd640c2b	-0.055675667
215	0x3f1ee7cb	0.6207244
216	0x3c150efd	0.009097812
217	0xbec64c08	-0.38729882
218	0x3d66c471	0.056339685
219	0xbc860231	-0.016358467
220	0xbd1a20ac	-0.037628815
221	0x3f1e8ac4	0.6193049
222	0x3bb011e8	0.0053732283
223	0xba6be0bf	-0.00089980284
224	0x3cc50ea2	0.024054829
225	0xbea84b8f	-0.32870147
226	0x3c3d636b	0.011559348
227	0x3f24b2b3	0.64335173
228	0xbec7465d	-0.3892087
229	0xbeb39c67	-0.35080263
230	0xbca01d4c	-0.01954522
231	0xbbd15410	-0.006388195
232	0x3eb2a436	0.34890908
233	0x3ca34568	0.019930556
234	0x3bf1f5e0	0.007384047
235	0xbeb5351c	-0.35392082
236	0xbc4ca05c	-0.0124894045
237	0xbc44779f	-0.0119914105
238	0x3ce66970	0.028126448
239	0x3ef72ca7	0.48276255
240	0x3d34a599	0.04410324
241	0x3c37d09a	0.011219168
242	0x3ef93250	0.48671198
243	0x3ebc95f3	0.36833152
244	0xbd2745cf	-0.04083806
245	0x3e0d62ef	0.13807271
246	0xbc98d523	-0.018656319
247	0xbce01920	-0.02735573
248	0x3d118425	0.035526413
249	0x3ebfeaef	0.37483928
250	0xbc3a3642	-0.011365475
251	0x3b882a47	0.0041554305
252	0x3eea039e	0.45705885
253	0xbcc5a54f	-0.024126677
254	0xbc0e9b94	-0.008704085
255	0x3bd63b9a	0.006537867
