metric/probe_cifar100_retrain_seed0_30000.pth (torch, 539707 bytes, 12 tensors)

z_mu f4 [512]
000000 e7 e7 90 b9 a4 33 a7 38 f2 2c e0 39 bc 0d 5b 38
       -0.000276386 7.972799e-05 0.00042758096 5.222646e-05
000010 e7 39 81 39 7a 10 16 3f cc a9 b7 39 94 b3 82 ba
       0.00024647938 0.5861889 0.00035030989 -0.0009971731
000020 df 84 c4 b8 9d 21 8d 36 ba 21 fd 38 1d 81 60 b8
       -9.3707575e-05 4.2060406e-06 0.00012070262 -5.3526008e-05
000030 ce e0 77 3b 78 13 12 3a 4b dd 3c 39 4a ad 63 3a
       0.0037823203 0.0005572359 0.00018011515 0.0008685185
000040 31 8b 16 b9 7b ad 0f b6 8c ce 8c 38 f3 8a 0c 3a
       -0.00014356968 -2.140964e-06 6.7141926e-05 0.0005361281
000050 a9 23 5e b9 7b 61 10 3b 3e 39 f9 38 c8 ae 65 3f
       -0.00021184854 0.002203076 0.000118839074 0.8971982
000060 38 ad fc 37 0d 68 4e b9 5c 56 da b9 93 f7 cc 38
       3.0121402e-05 -0.00019684453 -0.00041644543 9.773592e-05
000070 43 9f f3 3e 6c 78 4f 39 e9 8c dc 3e 18 50 b1 36
       0.47582445 0.00019785919 0.43076256 5.284335e-06
000080 33 e6 22 39 2b ed 52 b9 30 47 95 3f c1 cd b9 37
       0.0001553528 -0.00020115513 1.166235 2.214953e-05
000090 29 d3 df b7 64 2f 20 b9 df 09 60 39 d1 bb d8 b8
       -2.6682e-05 -0.00015276443 0.00021365982 -0.00010334666
0000a0 20 d1 38 bb 89 bc 8f b8 ff cd ed b9 e0 b7 69 b8
       -0.002820082 -6.853889e-05 -0.00045357642 -5.5722776e-05
0000b0 11 f1 74 ba 52 28 bb 3f 63 3e 1b 39 86 93 2c 38
       -0.0009343783 1.462168 0.00014805193 4.1145388e-05
0000c0 21 0d ec 39 ec ca 01 b9 78 b8 2c 39 f2 4a 76 3f
       0.0004502321 -0.00012377993 0.00016471918 0.9620811
0000d0 e3 6f bb b7 41 54 43 b9 25 e1 b8 3b 5c 3f a1 39
       -2.2344238e-05 -0.00018628036 0.0056420737 0.0003075552
0000e0 a3 e1 6d 39 db 8d 0f bb 9e a4 08 ba 32 9d 3b 39
       0.00022686138 -0.002190462 -0.0005212518 0.0001789227
0000f0 50 3c 74 b9 b1 1f 5d b8 3e ef ca ba ab ef 75 b9
       -0.00023292121 -5.272002e-05 -0.0015482677 -0.00023454304
000100 64 95 89 b9 84 92 04 ba f3 5f dc 38 b0 7a 50 b9
       -0.0002624198 -0.0005057233 0.000105082894 -0.0001988213
000110 09 b1 ed 36 c6 fc 39 3f 03 ae c6 3a f1 03 96 3e
       7.08376e-06 0.72651327 0.0015158061 0.29299882
000120 57 5b 84 b8 8e 1e 97 b9 3f 37 cb b9 80 d5 58 39
       -6.311264e-05 -0.0002882373 -0.0003876034 0.000206789
000130 86 f1 9e 39 b4 fa 23 b6 f7 2c e1 b8 b1 dd e0 38
       0.00030316057 -2.4434821e-06 -0.000107372114 0.000107224456
000140 9c 76 55 3f 51 ee 61 39 df 69 68 b7 1a 66 a9 b9
       0.8338411 0.00021546452 -1.3852928e-05 -0.00032310263
000150 4b a6 19 3a e7 1a fc b8 e4 d1 35 39 ef 43 e5 b8
       0.00058612664 -0.00012021307 0.00017339695 -0.000109322245
000160 61 4b 14 3a e5 61 8d 39 43 9f 92 b9 24 ad e6 39
       0.0005656984 0.00026966553 -0.0002796595 0.00043998018
000170 53 3b 1c b9 61 9f 3b b9 dd b9 d7 b7 97 69 57 3f
       -0.0001489942 -0.00017893083 -2.5716547e-05 0.8414549
000180 60 9e 46 3f 2d 06 bd 36 7c f5 ce 3a 80 89 0d ba
       0.7758541 5.633358e-06 0.0015789713 -0.0005399212
000190 f8 d1 de b9 61 5b 78 b9 60 a5 ad 39 5c 74 07 3c
       -0.0004249958 -0.00023685164 0.00033120345 0.008267488
0001a0 8f e9 db b6 12 f6 1d 3b a9 8e 8e 39 a5 ac 3f b8
       -6.5538984e-06 0.0024102968 0.0002719064 -4.5698736e-05
0001b0 60 05 ea 39 b9 80 83 39 76 c6 65 3f 5b 3e 10 3b
       0.00044635963 0.00025082173 0.8975595 0.0022009823
0001c0 e4 11 26 38 95 be 6f 38 ca a4 08 39 80 23 3d 38
       3.9594146e-05 5.7159534e-05 0.0001303136 4.5094173e-05
0001d0 69 b6 03 bb de 4c 35 ba 24 6d 1d 3a 8e 4a ff b9
       -0.0020097739 -0.0006916056 0.0006005338 -0.00048692938
0001e0 8d c6 af b7 bb 09 f9 b9 f4 cf b4 3a 18 10 94 38
       -2.0954083e-05 -0.0004750023 0.0013794885 7.0601876e-05
0001f0 cc e8 fa 3d 3f 12 8c 38 ec 9f 00 b9 8f d1 f0 38
       0.12251434 6.679119e-05 -0.00012266607 0.00011483125
000200 25 5e 42 b8 0e e4 8b 37 7d 02 4b 3f 4f 9b 4a 38
       -4.6340883e-05 1.6676287e-05 0.7930067 4.8305195e-05
000210 d5 8d 17 39 43 af 08 3a f0 73 0e ba 53 3e 14 ba
       0.00014453319 0.00052141043 -0.0005434146 -0.0005655039
000220 a0 fd 25 b8 69 33 93 b8 10 38 97 b8 d7 59 90 b9
       -3.9575272e-05 -7.019082e-05 -7.2106835e-05 -0.00027532756
000230 b3 8e 15 3a cb 4a a1 b9 57 aa 3b ba 41 14 69 b8
       0.0005705163 -0.00030764038 -0.00071588665 -5.5570392e-05
000240 b7 69 bb b9 3f dd 1c 39 62 1c 59 b8 ff 60 99 39
       -0.00035746183 0.0001495974 -5.1763265e-05 0.00029254702
000250 02 9c 26 3f 57 56 99 37 36 20 7d 38 52 6f e4 b8
       0.650818 1.8279226e-05 6.03499e-05 -0.00010892622
000260 21 e4 a5 38 3b 07 f6 3a b9 a7 cf b9 7f f5 c8 b8
       7.9103054e-05 0.0018770465 -0.0003960708 -9.5824704e-05
000270 22 06 4d 3a 30 b0 5b 39 57 94 db 39 cb 5e 3d 3f
       0.0007821043 0.00020951102 0.00041881457 0.7397277
000280 57 c2 f8 ba 26 15 d0 b9 5e a7 e4 b9 b7 f8 0e b8
       -0.0018978816 -0.00039688608 -0.00043612247 -3.4087072e-05
000290 c7 68 a2 3f fc 05 7d ba 93 b6 8b 36 29 e7 05 b9
       1.2688226 -0.0009652076 4.1637772e-06 -0.00012769982
0002a0 0c fc fa 39 0c 60 85 ba 45 93 54 b8 1e 52 35 39
       0.00047871505 -0.0010175719 -5.0681894e-05 0.00017292096
0002b0 32 5f 6d 3a ba b5 2d b9 71 01 aa 38 fd 71 37 b8
       0.0009055018 -0.00016566264 8.1065e-05 -4.373676e-05
0002c0 28 54 ee 39 1e 1d 08 b8 28 80 56 b8 09 fc 63 3f
       0.000454576 -3.2452044e-05 -5.114093e-05 0.8905645
0002d0 64 9d 02 3a 41 22 3b b8 35 6f 23 37 ac 82 ff b8
       0.00049825595 -4.4616176e-05 9.7414495e-06 -0.00012183687
0002e0 64 c7 39 38 1b c2 d5 39 f8 79 19 b6 b2 48 a6 b8
       4.4293134e-05 0.00040771146 -2.2869772e-06 -7.9290374e-05
0002f0 88 58 d6 38 be b1 07 3f 10 d7 2e b9 54 5f b8 39
       0.000102208054 0.5300559 -0.0001667405 0.0003516624
000300 1d 06 31 3b ab 9f 02 b9 8e 38 c0 39 96 97 25 39
       0.00270117 -0.00012457247 0.0003666323 0.00015792096
000310 19 07 85 b8 c9 0d 7f b9 11 13 18 3a 7b fe 1c b9
       -6.343256e-05 -0.0002432383 0.0005801181 -0.0001497212
000320 ae 0c 00 39 f9 93 ef 37 01 fe f4 38 09 17 84 37
       0.00012211755 2.8559925e-05 0.000116821386 1.5746353e-05
000330 8e 06 82 b9 39 cf 62 39 42 bb d0 39 5a 11 f6 b8
       -0.00024800416 0.00021630236 0.0003981237 -0.00011733426
000340 eb 8d 34 39 da 03 ca 39 cf 4d 77 39 34 78 02 ba
       0.00017219006 0.00038531312 0.00023584742 -0.0004977018
000350 3c 50 20 37 a5 d2 e3 b9 8a d9 26 38 3b 77 a6 3c
       9.555424e-06 -0.00043453756 3.9780083e-05 0.020320525
000360 a0 82 e1 3e d7 05 0f 38 2f 10 78 b7 0c 67 6c b9
       0.4404497 3.4099296e-05 -1.478572e-05 -0.00022545102
000370 df 80 69 39 64 99 80 39 a5 f6 0b b9 eb 97 50 3f
       0.0002226862 0.00024528347 -0.00013347955 0.8148181
000380 f6 cc 93 b9 9e fa 84 37 4f 62 f1 38 ea 44 6a 39
       -0.00028190733 1.5852329e-05 0.00011510087 0.00022341651
000390 70 dc 49 b9 fd bd 5c 3c 18 59 db 39 e2 47 cb 39
       -0.00019250973 0.013473031 0.00041837315 0.00038772734
0003a0 dd 86 82 3f ab 32 60 3f fa 4d 64 3f 83 d9 10 38
       1.0197407 0.87577313 0.8918148 3.453485e-05
0003b0 db e6 c3 39 52 f5 8b ba 1e 28 76 37 2a 79 d5 b8
       0.000373653 -0.001067797 1.4672083e-05 -0.000101792
0003c0 d2 48 14 38 83 fa 73 39 57 55 aa 38 5d 98 df 3d
       3.535377e-05 0.00023267609 8.1221275e-05 0.10917733
0003d0 74 91 e5 39 7d 95 ac b9 ae c2 43 b9 53 44 97 3a
       0.00043786655 -0.00032917774 -0.00018669173 0.0011540748
0003e0 f3 e1 cb b9 42 bc 5b 3f b6 52 9a b8 bf f9 9c b9
       -0.00038887523 0.85834134 -7.358698e-05 -0.00029940714
0003f0 da 84 72 36 c1 47 92 38 f6 1f 42 3f ea 80 51 39
       3.613814e-06 6.975188e-05 0.7583002 0.00019979817

z_logvar f4 [512]
000000 36 f9 fa c0 21 c7 ff c0 31 ae df c0 9c 78 e4 c0
       -7.8429213 -7.9930577 -6.9900136 -7.139723
000010 26 fe 06 c1 d7 25 6d c0 f2 a7 fb c0 4e b6 da c0
       -8.437048 -3.7054346 -7.864251 -6.834754
000020 d0 6d 09 c1 e4 5e 0c c1 e8 55 03 c1 93 ab fb c0
       -8.58931 -8.773167 -8.208473 -7.864694
000030 eb 07 82 c0 03 b5 fd c0 ce 62 dd c0 8b 21 f2 c0
       -4.0634665 -7.928346 -6.918311 -7.5665946
000040 cd 49 f2 c0 fb 5e fe c0 e2 43 f4 c0 ca 66 e0 c0
       -7.571509 -7.9490943 -7.6332865 -7.0125475
000050 79 50 05 c1 c0 55 cc c0 05 69 ff c0 0b c6 62 c0
       -8.332147 -6.3854675 -7.98157 -3.5433376
000060 3a 0f 05 c1 23 28 04 c1 fe 23 03 c1 84 a5 f6 c0
       -8.316217 -8.259799 -8.196287 -7.7077045
000070 af dd 17 c0 bf fe f6 c0 82 77 2a c0 72 fa 07 c1
       -2.3729055 -7.718597 -2.6635442 -8.498644
000080 54 7e 05 c1 17 a6 01 c1 b2 c8 49 c0 ce 07 e2 c0
       -8.343342 -8.103049 -3.1528745 -7.0634527
000090 2a dc fc c0 a7 1b 0a c1 ae 2e d2 c0 9d a3 0c c1
       -7.9018755 -8.631751 -6.568198 -8.789945
0000a0 f3 fa b5 c0 e1 64 04 c1 dc 57 c6 c0 e8 a3 01 c1
       -5.6868834 -8.274629 -6.198225 -8.102516
0000b0 96 02 ea c0 df 22 30 c0 03 2a 06 c1 86 44 e6 c0
       -7.3128157 -2.7521284 -8.385257 -7.1958647
0000c0 d0 69 c6 c0 2d b4 08 c1 9b 2b 04 c1 81 ca 88 c0
       -6.2004166 -8.543988 -8.260646 -4.2747197
0000d0 f6 89 f5 c0 a6 bb 0c c1 87 6e 6d c0 6f 32 e4 c0
       -7.673091 -8.795813 -3.709871 -7.1311564
0000e0 5d e0 f2 c0 c2 e0 a8 c0 3e b1 f0 c0 2d 27 02 c1
       -7.589888 -5.2774363 -7.521636 -8.134564
0000f0 a2 ce 0a c1 bd 29 08 c1 18 db b8 c0 0e 83 01 c1
       -8.675447 -8.51019 -5.776745 -8.094496
000100 89 a4 0b c1 ec 21 0c c1 65 16 e6 c0 54 cf 07 c1
       -8.72767 -8.758282 -7.1902337 -8.488117
000110 2d 7d 07 c1 bc 4f 81 c0 5d 6b b8 c0 1d f7 36 c0
       -8.4680605 -4.040983 -5.763106 -2.8588326
000120 d9 58 fb c0 ee 3d af c0 ca b8 0c c1 e0 f4 0c c1
       -7.8545957 -5.47631 -8.7951145 -8.809784
000130 ea 83 06 c1 d6 32 0a c1 4f 82 05 c1 d7 ad 00 c1
       -8.407206 -8.637411 -8.344314 -8.042441
000140 8c 93 59 c0 3c 14 e5 c0 9a 4a 08 c1 a0 a2 cf c0
       -3.3996305 -7.15872 -8.518213 -6.4886017
000150 28 51 e0 c0 29 8b 0b c1 ef 5a 04 c1 3b 0a 0c c1
       -7.009907 -8.721475 -8.272201 -8.752498
000160 97 24 e1 c0 8c 2a 05 c1 5e 59 fd c0 8e 64 f9 c0
       -7.0357165 -8.322887 -7.917159 -7.7935247
000170 a6 9d 05 c1 1b 3b 06 c1 5e c1 0d c1 f2 95 6f c0
       -8.350988 -8.38943 -8.859709 -3.743527
000180 24 7e 9b c0 d9 f9 06 c1 12 5a de c0 bc ef 09 c1
       -4.859148 -8.435998 -6.948495 -8.621029
000190 71 5c f9 c0 cc 0f ef c0 a1 18 0a c1 6e 24 5d c0
       -7.7925344 -7.4706783 -8.631013 -3.4553485
0001a0 b6 29 09 c1 62 f5 86 c0 40 dc 0b c1 0d fe 05 c1
       -8.572683 -4.217454 -8.741272 -8.374524
0001b0 b5 5d 09 c1 3b 18 0b c1 1a 09 64 c0 2b f9 c2 c0
       -8.585378 -8.693416 -3.5630555 -6.092916
0001c0 25 86 0c c1 c9 0c 0d c1 7f f0 0b c1 42 10 03 c1
       -8.78275 -8.815621 -8.746215 -8.191469
0001d0 2a e6 b6 c0 7a 47 b9 c0 be c4 ec c0 d6 33 dd c0
       -5.715596 -5.789975 -7.3990164 -6.9125776
0001e0 35 1a 0e c1 8d 6d 04 c1 ac 72 ea c0 49 66 ec c0
       -8.881398 -8.276746 -7.326498 -7.387486
0001f0 3e f8 44 c0 a4 f5 fe c0 47 dc 09 c1 97 8b 0b c1
       -3.0776515 -7.9674854 -8.616279 -8.72158
000200 cf b0 09 c1 26 43 09 c1 9e dd 86 c0 36 d1 0a c1
       -8.605666 -8.578894 -4.214553 -8.676077
000210 65 e6 0a c1 20 ad 8a c0 31 3c d6 c0 a5 99 f6 c0
       -8.681249 -4.3336334 -6.6948476 -7.7062554
000220 a9 6e 08 c1 f3 54 ea c0 aa ae fe c0 19 27 06 c1
       -8.527017 -7.32287 -7.9588213 -8.384545
000230 f9 ef b3 c0 90 76 05 c1 f3 db 04 c1 3f d1 07 c1
       -5.6230435 -8.341446 -8.303699 -8.488585
000240 14 89 ea c0 a2 a0 00 c1 1e 79 08 c1 34 12 f8 c0
       -7.329233 -8.039217 -8.52957 -7.752222
000250 66 ad 6d c0 d9 ba e6 c0 5f f9 0c c1 5c ac 08 c1
       -3.7137084 -7.2103086 -8.810882 -8.54208
000260 82 b5 e4 c0 82 0e d8 c0 84 b3 df c0 9f 15 06 c1
       -7.1471567 -6.751771 -6.9906635 -8.380279
000270 65 f5 ed c0 55 ea ec c0 26 0d fb c0 91 6b 5a c0
       -7.4362054 -7.403605 -7.845355 -3.4128153
000280 4e ae a8 c0 54 04 02 c1 6d 16 07 c1 b1 3e 06 c1
       -5.2712774 -8.126057 -8.442975 -8.3903055
000290 0e 0b 82 c0 0e ca d9 c0 30 28 03 c1 bf b8 02 c1
       -4.0638494 -6.805915 -8.197311 -8.170104
0002a0 11 f5 e8 c0 44 b5 b2 c0 49 f8 05 c1 de b9 f3 c0
       -7.2799153 -5.584627 -8.3731165 -7.616439
0002b0 69 36 de c0 8b 2b 0e c1 18 3a fd c0 3e 96 08 c1
       -6.944142 -8.885631 -7.9133415 -8.53668
0002c0 f5 47 ce c0 bd 13 06 c1 0d b0 09 c1 7b a2 6f c0
       -6.446284 -8.379819 -8.605481 -3.744292
0002d0 45 45 f6 c0 da 45 0e c1 2e 4f d6 c0 18 46 09 c1
       -7.6959558 -8.892054 -6.6971655 -8.579613
0002e0 35 d8 08 c1 1c 6d fc c0 70 06 f6 c0 fa ac 09 c1
       -8.552785 -7.888319 -7.688286 -8.604731
0002f0 98 9e 08 c1 83 6d 26 c0 1b 1f 02 c1 5f 72 cd c0
       -8.538719 -2.600434 -8.132594 -6.4202113
000300 45 4f aa c0 83 0a db c0 13 f3 cf c0 ad 07 09 c1
       -5.3221765 -6.845033 -6.498422 -8.564374
000310 51 25 02 c1 d6 7e 08 c1 e3 65 00 c1 d4 e4 05 c1
       -8.13411 -8.530966 -8.024875 -8.368366
000320 e3 55 e8 c0 98 c4 07 c1 57 08 09 c1 21 88 05 c1
       -7.260484 -8.4854965 -8.564536 -8.345735
000330 93 e8 fa c0 15 b1 09 c1 72 9d 00 c1 38 ef f6 c0
       -7.8408904 -8.605733 -8.038439 -7.7167015
000340 5b 32 07 c1 f7 63 e1 c0 64 bd f8 c0 1a 5b 06 c1
       -8.449794 -7.0434527 -7.773119 -8.397242
000350 66 90 09 c1 44 36 fe c0 1f 6b 08 c1 11 71 6c c0
       -8.597754 -7.944124 -8.526153 -3.694401
000360 7c ae 3a c0 c5 d9 07 c1 17 05 04 c1 a1 04 00 c1
       -2.9168997 -8.490666 -8.251243 -8.00113
000370 ae f8 d8 c0 0e 96 ed c0 11 77 b4 c0 fb 7c a0 c0
       -6.7803564 -7.424567 -5.6395345 -5.0152564
000380 f1 6f 02 c1 0b 33 03 c1 f8 b2 02 c1 d2 17 05 c1
       -8.152329 -8.199962 -8.168694 -8.3183155
000390 9e d9 bb c0 63 bb 6b c0 da 8d 08 c1 83 65 01 c1
       -5.8703146 -3.6833122 -8.534632 -8.087283
0003a0 5f 31 4f c0 87 d1 1f c0 d7 50 80 c0 13 9e 07 c1
       -3.2373884 -2.4971635 -4.009868 -8.476092
0003b0 9c d7 03 c1 73 74 be c0 1f 1c ff c0 71 01 00 c1
       -8.240139 -5.951715 -7.9721828 -8.000352
0003c0 2b dc ff c0 f4 89 e3 c0 c4 a2 fe c0 6b 2e 2a c0
       -7.995626 -7.11059 -7.957369 -2.6590831
0003d0 5a fb c3 c0 32 b8 eb c0 f8 da 03 c1 cc 05 bb c0
       -6.1244326 -7.366235 -8.240959 -5.8444576
0003e0 0a 90 03 c1 c5 a3 81 c0 82 8a 06 c1 3a c8 0d c1
       -8.222666 -4.0512414 -8.408815 -8.861383
0003f0 92 e8 f7 c0 0b e2 02 c1 fc 23 7f c0 4f 76 05 c1
       -7.74714 -8.180186 -3.9865713 -8.341384

weight_mu f4 [128, 512]
000000 37 05 1f 3a 74 4f 4c 3a f4 04 cb ba a5 8e 39 39
       0.0006066146 0.0007793822 -0.0015489147 0.00017696114
000010 c0 ad 90 3a 01 fa 2d bd 8c ce 7a ba ec 65 7c 3b
       0.001103811 -0.04247475 -0.0009567521 0.0038512899
000020 f9 a2 c6 ba 63 cd 5f 3a 2a a3 a1 39 64 ab 9f b9
       -0.0015154771 0.000853738 0.0003082988 -0.0003045454
000030 4c 3c 06 3b e8 ed 56 b8 48 9f 90 ba e4 7c 92 3a
       0.0020482717 -5.1243143e-05 -0.0011033798 0.0011176136
000040 38 3c fc 39 7e c1 00 39 36 79 19 39 1d 0d 52 ba
       0.00048110052 0.00012279113 0.00014636372 -0.0008012818
000050 84 10 e5 b9 4e e5 26 3a e1 4f ad ba 78 95 94 bd
       -0.0004369059 0.00063665665 -0.0013222658 -0.072550714
000060 df 92 ad 3a cd cc 65 ba a7 24 f8 b9 5e eb c7 ba
       0.0013242624 -0.00087661744 -0.00047329554 -0.001525264
000070 36 93 dc bc 93 4d 4b ba ed 49 ab bc 88 0d 05 3a
       -0.026925664 -0.0007755395 -0.020909274 0.00050755637
000080 13 f8 09 b9 78 24 3a bb aa 18 32 bd 60 57 e6 3a
       -0.00013157753 -0.0028403085 -0.043480553 0.0017573647
000090 b6 33 76 38 01 19 d4 39 15 e8 dc 3a da 99 30 3b
       5.869913e-05 0.0004045442 0.0016853834 0.0026947171
0000a0 b0 15 8f b9 d5 8b ce ba f7 40 dd 3a 19 c5 cd 3a
       -0.00027291244 -0.0015758226 0.0016880323 0.0015698998
0000b0 cd 17 08 ba ba e9 a7 bd 62 fe 42 3a 36 25 30 3a
       -0.0005191535 -0.08198877 0.00074384187 0.0006719412
0000c0 11 9a 05 3b 6e ef 45 3a f1 84 59 ba b7 ce ef bd
       0.002038602 0.00075506314 -0.0008297703 -0.117093496
0000d0 6b 21 05 3a 41 c8 88 ba 09 18 02 3b 49 dc 39 39
       0.0005078527 -0.0010435657 0.0019850752 0.00017725037
0000e0 10 48 97 3a 84 a5 e4 3b da 59 75 bb 43 0d 75 3a
       0.0011541862 0.006977739 -0.003743759 0.00093479845
0000f0 4f c1 67 b9 ac 32 5e ba 8d 60 59 bb aa 78 4d ba
       -0.0002210189 -0.00084761786 -0.003316912 -0.000783811
000100 a3 c4 52 b9 16 0c f7 3a 25 40 9b 39 fe 23 be bb
       -0.00020100414 0.0018848206 0.00029611695 -0.0058026304
000110 ad 7e 25 3a b4 f7 b0 bd 90 a0 71 bb 21 6a cf bc
       0.00063131267 -0.086409956 -0.0036869384 -0.02531916
000120 e5 09 e0 b9 16 0c 43 3b e8 11 7a 39 34 3f ae ba
       -0.0004273198 0.0029761842 0.00023848529 -0.0013293982
000130 d4 b1 ba 3a a2 60 59 3a 87 60 85 39 ca a6 6e 3b
       0.0014243671 0.00082922925 0.00025439655 0.0036415332
000140 3e bd 40 bd d7 ee fd 38 28 8a d1 b9 d2 e0 66 ba
       -0.047055475 0.000121084675 -0.0003996652 -0.00088073045
000150 6d 82 42 ba c2 99 e7 39 fc ed af 3a 5e c6 71 b9
       -0.00074199477 0.00044174312 0.0013422365 -0.00023057449
000160 ea 08 bd 38 bd cf 8d ba b7 e7 21 bb 57 18 8c 39
       9.013883e-05 -0.0010819357 -0.0024704763 0.00026721015
000170 9b f1 9f b9 04 d0 0e b9 43 b0 3b bb aa 05 af bd
       -0.00030506853 -0.00013619667 -0.0028638996 -0.08546002
000180 e5 c1 95 bd 96 2b f7 39 e0 65 16 ba 6f 8f 90 ba
       -0.07312373 0.00047143985 -0.00057372265 -0.0011029075
000190 bd 25 ab b9 4d 4c 9b b7 f1 43 54 3a 0b b8 c3 3a
       -0.0003264378 -1.851297e-05 0.0008097282 0.0014932168
0001a0 37 23 a8 ba 79 68 06 39 5e 33 21 ba c7 35 fd 38
       -0.0012827878 0.00012818155 -0.0006149317 0.00012073997
0001b0 96 a6 cb b8 5c ba 1d 3b b5 ff 8b bd 78 29 b4 3a
       -9.710823e-05 0.0024067378 -0.068358816 0.0013745269
0001c0 68 eb 2d bb c2 e6 47 ba 26 b0 94 3a 93 e2 3f ba
       -0.0026538018 -0.0007625633 0.0011344 -0.0007319834
0001d0 5a 68 8d bb 65 ce 64 3a a7 a5 ab 3a 66 31 57 3b
       -0.004315418 0.0008728265 0.0013095633 0.003283584
0001e0 e2 10 15 3a 04 1b 16 bb 30 f8 78 3b 11 5f 6b 3a
       0.00056864147 -0.0022904286 0.0037989728 0.00089787046
0001f0 cb 9e 37 3b bb c5 02 bb db 40 86 b9 a7 5a 12 3a
       0.0028018232 -0.0019954282 -0.00025606793 0.0005582966
000200 70 de ca ba f1 82 a1 ba f6 64 6a bd 41 a8 c2 ba
       -0.0015477668 -0.0012322349 -0.05722519 -0.0014851169
000210 b4 ed b9 3a 86 a3 91 bb 6a c6 5e 3a 26 26 9b 38
       0.0014185221 -0.0044445423 0.0008498194 7.398082e-05
000220 73 da 3a 3a 2b 7a bb b8 49 ad 08 b9 be 2e 1f 39
       0.00071278884 -8.9396104e-05 -0.00013034524 0.00015180834
000230 a7 3d a2 bb 4f 9e fb b8 e5 81 08 3a 6f b9 dc 3a
       -0.004951197 -0.000119981 0.0005207344 0.0016839931
000240 50 a2 d9 b9 75 5a c3 b9 bf 03 51 ba 3a 15 6a ba
       -0.00041510398 -0.00037260694 -0.00079732755 -0.00089295546
000250 ad 4d ff bc 9a 1d 1c ba 52 2c 43 3a 59 8a 37 3b
       -0.031164968 -0.0005955339 0.0007445264 0.0028006046
000260 fb d3 cd b9 a3 72 91 3b 1a 9b 1d bb 19 da b6 39
       -0.00039258585 0.0044387146 -0.0024048747 0.0003487624
000270 a4 88 98 bb 33 39 68 3b 2e 64 38 ba 7c ae 55 bd
       -0.0046549607 0.0035434484 -0.0007033971 -0.052168354
000280 4b ca 16 3b d5 c1 1f 3a 51 ca 06 ba b8 ed f8 3a
       0.002300876 0.0006094252 -0.0005141842 0.0018991744
000290 f3 7d df bd a1 4a e3 bb a6 58 a0 b8 da 9b 54 ba
       -0.10912695 -0.0069363867 -7.6459066e-05 -0.0008110382
0002a0 45 15 60 3b 34 ec 0b 3b e3 91 0c b7 72 5e 07 3b
       0.0034192365 0.0021350505 -8.378617e-06 0.002065566
0002b0 55 32 cb b8 b5 b6 78 3a 30 d4 f2 3a be d1 81 ba
       -9.6891694e-05 0.00094876747 0.0018526372 -0.0009904427
0002c0 a1 fc 47 ba f6 1c bc ba f4 5c b4 b9 88 9c 6a bd
       -0.0007628892 -0.0014351893 -0.0003440153 -0.057278186
0002d0 6e 10 cf 38 c3 2d ab 3a 65 a3 96 3b e7 a5 95 bb
       9.8735894e-05 0.0013059903 0.004597115 -0.0045668962
0002e0 ee cb 4d bb 08 4b 84 ba 1a fd 80 3b e0 66 9c 3a
       -0.003140207 -0.0010093162 0.003936422 0.0011932515
0002f0 83 ac ec 3a 82 16 8a bd 02 e2 f5 37 2d 72 c6 3a
       0.0018056784 -0.06742574 2.9311519e-05 0.0015140228
000300 03 4d 65 3b 7a d9 20 3b 45 94 27 3b d3 87 c5 3a
       0.003498853 0.0024543689 0.0025570553 0.0015070386
000310 93 fc 1c 3a 63 7c ca 3a d1 0d 7a 3a 9d 43 95 3a
       0.0005988564 0.0015448447 0.0009538802 0.0011387948
000320 78 e7 b0 3a d5 2c 90 39 ef 40 7c b9 5b 15 c0 b9
       0.0013496717 0.00027499223 -0.00024056782 -0.00036637005
000330 69 9a 02 3a 4e 36 f1 ba d3 c4 18 3a 85 cf 49 ba
       0.00049821154 -0.0018403025 0.0005827669 -0.00076984643
000340 1f c5 85 3a a3 f5 f5 39 76 3f 2b b9 80 af 74 b9
       0.0010205841 0.00046913055 -0.00016331472 -0.00023335032
000350 83 0c 35 3a 16 f3 3f 3a 4a b8 1e b9 74 62 14 bb
       0.00069064664 0.00073222944 -0.00015136707 -0.002264169
000360 12 8f 5c bd e3 a6 c7 ba dc 40 6b b9 b1 43 61 38
       -0.05384738 -0.0015232231 -0.00022435508 5.3707223e-05
000370 aa 64 75 3b 58 de 0c bb a1 3a f0 38 8a 87 80 bd
       0.0037444034 -0.0021494832 0.00011455012 -0.06275852
000380 de 2e 98 3b 3c a7 6d b9 b4 7d e2 ba 8b e3 89 bb
       0.004644259 -0.00022664381 -0.0017279894 -0.0042080334
000390 0b a6 12 ba 6a 3f 74 3b ed 8e 7c b8 8a 6b e6 39
       -0.00055942003 0.0037269243 -6.0214592e-05 0.0004394914
0003a0 6e 3d 71 bd 3d 69 12 bd 7b 8d 80 bd 10 a9 e5 3a
       -0.058896475 -0.035744894 -0.06276985 0.0017521698
0003b0 fa 8c 9c b8 8d 72 32 bc 3e 6a 38 bb 3d 0d 8b ba
       -7.4649186e-05 -0.010891569 -0.0028139497 -0.0010608804
0003c0 83 c5 94 38 06 b0 f1 b9 73 7e d2 b9 47 10 64 bc
       7.0939794e-05 -0.0004609825 -0.00040148533 -0.013919896
0003d0 f5 47 12 bb d4 1a 54 3a 19 4c 20 3a 0b 82 93 3b
       -0.0022320722 0.0008091156 0.0006114855 0.0045015863
0003e0 56 e2 ea 39 ca ef 37 bd 46 7d c7 ba 92 70 27 ba
       0.0004480059 -0.044906415 -0.001521983 -0.0006387319
0003f0 cf ba e8 38 98 a4 ab 3a da 74 7a bd fd a1 34 3b
       0.00011097418 0.0013095317 -0.061146595 0.0027562373

weight_logvar f4 [128, 512]
000000 10 02 4e c0 10 02 4e c0 10 02 4e c0 10 02 4e c0
       -3.218876 -3.218876 -3.218876 -3.218876
000010 10 02 4e c0 10 02 4e c0 10 02 4e c0 10 02 4e c0
       -3.218876 -3.218876 -3.218876 -3.218876
000020 10 02 4e c0 10 02 4e c0 10 02 4e c0 10 02 4e c0
       -3.218876 -3.218876 -3.218876 -3.218876
000030 10 02 4e c0 10 02 4e c0 10 02 4e c0 10 02 4e c0
       -3.218876 -3.218876 -3.218876 -3.218876
000040 10 02 4e c0 10 02 4e c0 10 02 4e c0 10 02 4e c0
       -3.218876 -3.218876 -3.218876 -3.218876
000050 10 02 4e c0 10 02 4e c0 10 02 4e c0 10 02 4e c0
       -3.218876 -3.218876 -3.218876 -3.218876
000060 10 02 4e c0 10 02 4e c0 10 02 4e c0 10 02 4e c0
       -3.218876 -3.218876 -3.218876 -3.218876
000070 10 02 4e c0 10 02 4e c0 10 02 4e c0 10 02 4e c0
       -3.218876 -3.218876 -3.218876 -3.218876
000080 10 02 4e c0 10 02 4e c0 10 02 4e c0 10 02 4e c0
       -3.218876 -3.218876 -3.218876 -3.218876
000090 10 02 4e c0 10 02 4e c0 10 02 4e c0 10 02 4e c0
       -3.218876 -3.218876 -3.218876 -3.218876
0000a0 10 02 4e c0 10 02 4e c0 10 02 4e c0 10 02 4e c0
       -3.218876 -3.218876 -3.218876 -3.218876
0000b0 10 02 4e c0 10 02 4e c0 10 02 4e c0 10 02 4e c0
       -3.218876 -3.218876 -3.218876 -3.218876
0000c0 10 02 4e c0 10 02 4e c0 10 02 4e c0 10 02 4e c0
       -3.218876 -3.218876 -3.218876 -3.218876
0000d0 10 02 4e c0 10 02 4e c0 10 02 4e c0 10 02 4e c0
       -3.218876 -3.218876 -3.218876 -3.218876
0000e0 10 02 4e c0 10 02 4e c0 10 02 4e c0 10 02 4e c0
       -3.218876 -3.218876 -3.218876 -3.218876
0000f0 10 02 4e c0 10 02 4e c0 10 02 4e c0 10 02 4e c0
       -3.218876 -3.218876 -3.218876 -3.218876
000100 10 02 4e c0 10 02 4e c0 10 02 4e c0 10 02 4e c0
       -3.218876 -3.218876 -3.218876 -3.218876
000110 10 02 4e c0 10 02 4e c0 10 02 4e c0 10 02 4e c0
       -3.218876 -3.218876 -3.218876 -3.218876
000120 10 02 4e c0 10 02 4e c0 10 02 4e c0 10 02 4e c0
       -3.218876 -3.218876 -3.218876 -3.218876
000130 10 02 4e c0 10 02 4e c0 10 02 4e c0 10 02 4e c0
       -3.218876 -3.218876 -3.218876 -3.218876
000140 10 02 4e c0 10 02 4e c0 10 02 4e c0 10 02 4e c0
       -3.218876 -3.218876 -3.218876 -3.218876
000150 10 02 4e c0 10 02 4e c0 10 02 4e c0 10 02 4e c0
       -3.218876 -3.218876 -3.218876 -3.218876
000160 10 02 4e c0 10 02 4e c0 10 02 4e c0 10 02 4e c0
       -3.218876 -3.218876 -3.218876 -3.218876
000170 10 02 4e c0 10 02 4e c0 10 02 4e c0 10 02 4e c0
       -3.218876 -3.218876 -3.218876 -3.218876
000180 10 02 4e c0 10 02 4e c0 10 02 4e c0 10 02 4e c0
       -3.218876 -3.218876 -3.218876 -3.218876
000190 10 02 4e c0 10 02 4e c0 10 02 4e c0 10 02 4e c0
       -3.218876 -3.218876 -3.218876 -3.218876
0001a0 10 02 4e c0 10 02 4e c0 10 02 4e c0 10 02 4e c0
       -3.218876 -3.218876 -3.218876 -3.218876
0001b0 10 02 4e c0 10 02 4e c0 10 02 4e c0 10 02 4e c0
       -3.218876 -3.218876 -3.218876 -3.218876
0001c0 10 02 4e c0 10 02 4e c0 10 02 4e c0 10 02 4e c0
       -3.218876 -3.218876 -3.218876 -3.218876
0001d0 10 02 4e c0 10 02 4e c0 10 02 4e c0 10 02 4e c0
       -3.218876 -3.218876 -3.218876 -3.218876
0001e0 10 02 4e c0 10 02 4e c0 10 02 4e c0 10 02 4e c0
       -3.218876 -3.218876 -3.218876 -3.218876
0001f0 10 02 4e c0 10 02 4e c0 10 02 4e c0 10 02 4e c0
       -3.218876 -3.218876 -3.218876 -3.218876
000200 10 02 4e c0 10 02 4e c0 10 02 4e c0 10 02 4e c0
       -3.218876 -3.218876 -3.218876 -3.218876
000210 10 02 4e c0 10 02 4e c0 10 02 4e c0 10 02 4e c0
       -3.218876 -3.218876 -3.218876 -3.218876
000220 10 02 4e c0 10 02 4e c0 10 02 4e c0 10 02 4e c0
       -3.218876 -3.218876 -3.218876 -3.218876
000230 10 02 4e c0 10 02 4e c0 10 02 4e c0 10 02 4e c0
       -3.218876 -3.218876 -3.218876 -3.218876
000240 10 02 4e c0 10 02 4e c0 10 02 4e c0 10 02 4e c0
       -3.218876 -3.218876 -3.218876 -3.218876
000250 10 02 4e c0 10 02 4e c0 10 02 4e c0 10 02 4e c0
       -3.218876 -3.218876 -3.218876 -3.218876
000260 10 02 4e c0 10 02 4e c0 10 02 4e c0 10 02 4e c0
       -3.218876 -3.218876 -3.218876 -3.218876
000270 10 02 4e c0 10 02 4e c0 10 02 4e c0 10 02 4e c0
       -3.218876 -3.218876 -3.218876 -3.218876
000280 10 02 4e c0 10 02 4e c0 10 02 4e c0 10 02 4e c0
       -3.218876 -3.218876 -3.218876 -3.218876
000290 10 02 4e c0 10 02 4e c0 10 02 4e c0 10 02 4e c0
       -3.218876 -3.218876 -3.218876 -3.218876
0002a0 10 02 4e c0 10 02 4e c0 10 02 4e c0 10 02 4e c0
       -3.218876 -3.218876 -3.218876 -3.218876
0002b0 10 02 4e c0 10 02 4e c0 10 02 4e c0 10 02 4e c0
       -3.218876 -3.218876 -3.218876 -3.218876
0002c0 10 02 4e c0 10 02 4e c0 10 02 4e c0 10 02 4e c0
       -3.218876 -3.218876 -3.218876 -3.218876
0002d0 10 02 4e c0 10 02 4e c0 10 02 4e c0 10 02 4e c0
       -3.218876 -3.218876 -3.218876 -3.218876
0002e0 10 02 4e c0 10 02 4e c0 10 02 4e c0 10 02 4e c0
       -3.218876 -3.218876 -3.218876 -3.218876
0002f0 10 02 4e c0 10 02 4e c0 10 02 4e c0 10 02 4e c0
       -3.218876 -3.218876 -3.218876 -3.218876
000300 10 02 4e c0 10 02 4e c0 10 02 4e c0 10 02 4e c0
       -3.218876 -3.218876 -3.218876 -3.218876
000310 10 02 4e c0 10 02 4e c0 10 02 4e c0 10 02 4e c0
       -3.218876 -3.218876 -3.218876 -3.218876
000320 10 02 4e c0 10 02 4e c0 10 02 4e c0 10 02 4e c0
       -3.218876 -3.218876 -3.218876 -3.218876
000330 10 02 4e c0 10 02 4e c0 10 02 4e c0 10 02 4e c0
       -3.218876 -3.218876 -3.218876 -3.218876
000340 10 02 4e c0 10 02 4e c0 10 02 4e c0 10 02 4e c0
       -3.218876 -3.218876 -3.218876 -3.218876
000350 10 02 4e c0 10 02 4e c0 10 02 4e c0 10 02 4e c0
       -3.218876 -3.218876 -3.218876 -3.218876
000360 10 02 4e c0 10 02 4e c0 10 02 4e c0 10 02 4e c0
       -3.218876 -3.218876 -3.218876 -3.218876
000370 10 02 4e c0 10 02 4e c0 10 02 4e c0 10 02 4e c0
       -3.218876 -3.218876 -3.218876 -3.218876
000380 10 02 4e c0 10 02 4e c0 10 02 4e c0 10 02 4e c0
       -3.218876 -3.218876 -3.218876 -3.218876
000390 10 02 4e c0 10 02 4e c0 10 02 4e c0 10 02 4e c0
       -3.218876 -3.218876 -3.218876 -3.218876
0003a0 10 02 4e c0 10 02 4e c0 10 02 4e c0 10 02 4e c0
       -3.218876 -3.218876 -3.218876 -3.218876
0003b0 10 02 4e c0 10 02 4e c0 10 02 4e c0 10 02 4e c0
       -3.218876 -3.218876 -3.218876 -3.218876
0003c0 10 02 4e c0 10 02 4e c0 10 02 4e c0 10 02 4e c0
       -3.218876 -3.218876 -3.218876 -3.218876
0003d0 10 02 4e c0 10 02 4e c0 10 02 4e c0 10 02 4e c0
       -3.218876 -3.218876 -3.218876 -3.218876
0003e0 10 02 4e c0 10 02 4e c0 10 02 4e c0 10 02 4e c0
       -3.218876 -3.218876 -3.218876 -3.218876
0003f0 10 02 4e c0 10 02 4e c0 10 02 4e c0 10 02 4e c0
       -3.218876 -3.218876 -3.218876 -3.218876

bias_mu f4 [128]
000000 c1 9e 4d be 81 2d 26 bb 72 50 90 ba 4a ae 68 bd
       -0.20080091 -0.0025356712 -0.0011010303 -0.05680684
000010 ce cf 80 bd eb 9e 1b 3e b3 74 e5 bd c4 28 a0 bd
       -0.062896356 0.15197341 -0.11203899 -0.078202754
000020 7e b6 22 bb e8 93 f4 ba 6e 28 c7 bd e3 45 25 bb
       -0.0024828012 -0.0018659802 -0.09724508 -0.0025218658
000030 a4 f1 1c be 66 ec 4d be b5 a9 47 be 40 25 30 bc
       -0.15326554 -0.2010971 -0.19498332 -0.010751069
000040 e4 49 47 3a f1 9d 3b bc 01 b3 22 bb 31 9f 56 be
       0.0007602258 -0.01145123 -0.0024825933 -0.20959164
000050 a8 1c 63 bd 7c b7 3e be e7 c1 a7 bd 4e e1 90 bc
       -0.05544725 -0.18624681 -0.08191281 -0.017685559
000060 56 87 af bd 92 e8 61 bb 27 a1 95 3a 8b eb a9 bc
       -0.08570735 -0.0034470898 0.0011415825 -0.020742198
000070 3c d9 0e bb 3b 58 a5 ba 3b eb 17 bb 36 ae 42 bd
       -0.0021796962 -0.0012614796 -0.002318098 -0.04752942
000080 9b d5 b1 ba 52 45 0d bc 13 b6 df bd 65 29 e4 bd
       -0.0013567688 -0.008622484 -0.109234 -0.11140708
000090 a3 0b 84 bd a4 5d f2 bd 8f ab b1 bd 57 c2 36 3e
       -0.06447532 -0.11834267 -0.086753 0.17847572
0000a0 bd ad 9c ba 79 2f ab bc b6 a6 4d be 32 9a d8 ba
       -0.0011953634 -0.02089666 -0.20083126 -0.0016525446
0000b0 e2 f1 c9 be 76 9d 35 bd 03 38 16 bb a3 da dd bb
       -0.39442354 -0.04433962 -0.002292157 -0.0067704483
0000c0 8c c6 27 be c7 3c ce bc 62 d2 dd bb 08 04 59 ba
       -0.16384333 -0.025175465 -0.0067694644 -0.0008278494
0000d0 6c be 9a bc 4e 48 33 b8 4d 15 f8 bb 9c 88 07 be
       -0.018889628 -4.2744265e-05 -0.0075708986 -0.13235706
0000e0 02 4f 8d 3e 6f 53 87 bb 33 19 6f bc da 89 4b be
       0.2759934 -0.004129819 -0.01459341 -0.19876805
0000f0 26 9b 22 bb c1 9c ee ba bf 82 6e ba 95 7f fa ba
       -0.0024811714 -0.0018204675 -0.0009098462 -0.0019111509
000100 cc ca 7d b9 ce 0a 79 bd e2 b5 55 bd 44 16 ec bd
       -0.00024203508 -0.06080132 -0.05217541 -0.11527684
000110 11 60 94 bd 4d 1a ec b9 d2 04 15 bb 03 59 19 bb
       -0.07244886 -0.00045033023 -0.0022738469 -0.0023399002
000120 7b 10 4d ba f2 69 39 bb 27 06 9e ba e7 5b 4b be
       -0.0007822585 -0.0028291908 -0.0012056277 -0.19859277
000130 28 cb 48 be 9d 68 5a bb 74 ee b6 bc 0c 31 9c 3a
       -0.19608748 -0.0033326515 -0.0223305 0.0011916473
000140 f1 51 12 bb 51 f4 4d bc e9 e9 d4 b9 fb 04 53 bb
       -0.0022326673 -0.012570457 -0.00040610068 -0.0032199014
000150 79 b0 0d be 0b 47 35 3f 9f fc e3 bd d6 d1 63 bb
       -0.1383685 0.7081153 -0.11132168 -0.0034762523
000160 fd 84 81 be f8 27 98 bd 89 b1 59 ba d0 d1 d2 39
       -0.25296775 -0.074294984 -0.0008304348 0.00040210644
000170 15 a9 58 bb 4f 2e b9 3d 1e a8 0d bc d5 8c 39 bd
       -0.0033059765 0.09042036 -0.008646039 -0.045300324
000180 db b6 82 be 51 e3 74 bd 58 87 56 bb 8e b0 36 be
       -0.25530133 -0.0597871 -0.003273448 -0.17840788
000190 ce df 11 bc e9 7d 3c bd 06 a2 b2 bd 69 48 49 bb
       -0.008903457 -0.046018515 -0.0872231 -0.0030713326
0001a0 de a5 31 bf 3e 06 96 bd b3 4e ff 39 2c 9d b5 bd
       -0.6939372 -0.07325409 0.00048696026 -0.08867869
0001b0 84 8f 48 bc ef a0 b7 3e 30 1c fd bd 83 7d b9 ba
       -0.012241248 0.3586497 -0.12358892 -0.0014151785
0001c0 ef 7e d2 bd cc b7 bb bd 8c 96 a9 bc cf 15 66 ba
       -0.10278117 -0.09165916 -0.02070167 -0.00087770534
0001d0 5e 8e e3 bb a2 16 99 bc 1d ff b7 ba 42 74 71 bb
       -0.0069444617 -0.01868755 -0.0014037822 -0.0036842977
0001e0 2f 2a 93 bb 78 1a 8c bb d9 6b 2d be a8 58 ba 3d
       -0.0044911127 -0.0042756163 -0.16935672 0.09098941
0001f0 0d cf 7c be 1a 82 16 bd 7b 66 3f 3b 1c 27 54 3a
       -0.24688359 -0.03674517 0.002920537 0.0008092986

bias_logvar f4 [128]
000000 10 02 4e c0 10 02 4e c0 10 02 4e c0 10 02 4e c0
       -3.218876 -3.218876 -3.218876 -3.218876
000010 10 02 4e c0 be 59 5e c0 10 02 4e c0 10 02 4e c0
       -3.218876 -3.4742274 -3.218876 -3.218876
000020 10 02 4e c0 10 02 4e c0 10 02 4e c0 10 02 4e c0
       -3.218876 -3.218876 -3.218876 -3.218876
000030 10 02 4e c0 10 02 4e c0 10 02 4e c0 10 02 4e c0
       -3.218876 -3.218876 -3.218876 -3.218876
000040 10 02 4e c0 10 02 4e c0 10 02 4e c0 10 02 4e c0
       -3.218876 -3.218876 -3.218876 -3.218876
000050 10 02 4e c0 10 02 4e c0 10 02 4e c0 10 02 4e c0
       -3.218876 -3.218876 -3.218876 -3.218876
000060 10 02 4e c0 10 02 4e c0 10 02 4e c0 10 02 4e c0
       -3.218876 -3.218876 -3.218876 -3.218876
000070 10 02 4e c0 10 02 4e c0 10 02 4e c0 10 02 4e c0
       -3.218876 -3.218876 -3.218876 -3.218876
000080 10 02 4e c0 10 02 4e c0 10 02 4e c0 10 02 4e c0
       -3.218876 -3.218876 -3.218876 -3.218876
000090 61 c5 54 c0 10 02 4e c0 10 02 4e c0 5f 0f 7e c0
       -3.324547 -3.218876 -3.218876 -3.9696882
0000a0 10 02 4e c0 10 02 4e c0 10 02 4e c0 10 02 4e c0
       -3.218876 -3.218876 -3.218876 -3.218876
0000b0 10 02 4e c0 10 02 4e c0 10 02 4e c0 10 02 4e c0
       -3.218876 -3.218876 -3.218876 -3.218876
0000c0 10 02 4e c0 10 02 4e c0 10 02 4e c0 10 02 4e c0
       -3.218876 -3.218876 -3.218876 -3.218876
0000d0 10 02 4e c0 10 02 4e c0 10 02 4e c0 10 02 4e c0
       -3.218876 -3.218876 -3.218876 -3.218876
0000e0 f2 76 6e c0 10 02 4e c0 10 02 4e c0 10 02 4e c0
       -3.7260098 -3.218876 -3.218876 -3.218876
0000f0 10 02 4e c0 10 02 4e c0 10 02 4e c0 10 02 4e c0
       -3.218876 -3.218876 -3.218876 -3.218876
000100 10 02 4e c0 10 02 4e c0 1b d0 8f c0 10 02 4e c0
       -3.218876 -3.218876 -4.4941535 -3.218876
000110 bf 7a 4f c0 10 02 4e c0 10 02 4e c0 10 02 4e c0
       -3.2418668 -3.218876 -3.218876 -3.218876
000120 10 02 4e c0 10 02 4e c0 10 02 4e c0 10 02 4e c0
       -3.218876 -3.218876 -3.218876 -3.218876
000130 10 02 4e c0 10 02 4e c0 10 02 4e c0 10 02 4e c0
       -3.218876 -3.218876 -3.218876 -3.218876
000140 10 02 4e c0 10 02 4e c0 10 02 4e c0 10 02 4e c0
       -3.218876 -3.218876 -3.218876 -3.218876
000150 10 02 4e c0 13 47 7d c0 10 02 4e c0 10 02 4e c0
       -3.218876 -3.957463 -3.218876 -3.218876
000160 10 02 4e c0 10 02 4e c0 10 02 4e c0 10 02 4e c0
       -3.218876 -3.218876 -3.218876 -3.218876
000170 10 02 4e c0 8d 5d 58 c0 10 02 4e c0 10 02 4e c0
       -3.218876 -3.38071 -3.218876 -3.218876
000180 10 02 4e c0 10 02 4e c0 10 02 4e c0 10 02 4e c0
       -3.218876 -3.218876 -3.218876 -3.218876
000190 10 02 4e c0 10 02 4e c0 10 02 4e c0 10 02 4e c0
       -3.218876 -3.218876 -3.218876 -3.218876
0001a0 c3 89 6c c0 10 02 4e c0 10 02 4e c0 10 02 4e c0
       -3.6959083 -3.218876 -3.218876 -3.218876
0001b0 10 02 4e c0 3a 6d 6f c0 10 02 4e c0 10 02 4e c0
       -3.218876 -3.7410417 -3.218876 -3.218876
0001c0 10 02 4e c0 10 02 4e c0 10 02 4e c0 10 02 4e c0
       -3.218876 -3.218876 -3.218876 -3.218876
0001d0 10 02 4e c0 10 02 4e c0 10 02 4e c0 10 02 4e c0
       -3.218876 -3.218876 -3.218876 -3.218876
0001e0 10 02 4e c0 10 02 4e c0 10 02 4e c0 66 d6 7e c0
       -3.218876 -3.218876 -3.218876 -3.9818358
0001f0 10 02 4e c0 10 02 4e c0 10 02 4e c0 10 02 4e c0
       -3.218876 -3.218876 -3.218876 -3.218876

z_mu f4 [128]
000000 8f 2b 5c bc a4 9c 4e 38 93 02 17 37 9d c8 37 ba
       -0.01343812 4.926011e-05 9.000901e-06 -0.00070107897
000010 a6 82 ec 3a db 9d b2 3f e6 be e2 ba d9 91 6a ba
       0.0018044307 1.3954424 -0.0017299324 -0.00089481246
000020 fa 81 fe 37 c8 22 75 b8 69 28 ed 39 56 7f 22 b8
       3.0339685e-05 -5.8444944e-05 0.0004523427 -3.87424e-05
000030 8b 37 40 3b 81 7a f2 b9 7a fe 87 3b cc 31 85 ba
       0.0029329981 -0.0004624911 0.004150209 -0.0010161935
000040 64 cc 17 b9 0f fe 02 b9 07 09 e5 37 0e 0e 8c 3b
       -0.00014476624 -0.0001249241 2.7303131e-05 0.0042741364
000050 2f f4 cc 39 42 48 9b 3a b3 71 05 bb 56 12 df 39
       0.00039091843 0.0011847096 -0.002036196 0.00042547536
000060 bd 20 37 3a e9 18 80 37 3c 22 8b 38 cb f4 88 39
       0.00069857744 1.5270389e-05 6.634413e-05 0.00026122326
000070 cd ce a9 38 4b 13 42 37 a3 7a cd 37 f5 6a 13 bb
       8.0970676e-05 1.1567793e-05 2.4495012e-05 -0.0022494171
000080 a1 09 e0 37 bb 7b 3a 39 3a 26 84 3b 6e 97 af b7
       2.6707365e-05 0.00017784435 0.0040328773 -2.093214e-05
000090 42 5f c1 3f 65 f6 a8 3b e0 47 4a 3b f5 63 ab 3f
       1.5107195 0.0051563256 0.0030865595 1.338988
0000a0 af a9 40 37 ad b6 c7 ba e8 21 5d bb 61 cd 56 b7
       1.1483599e-05 -0.0015236937 -0.0033742134 -1.28032125e-05
0000b0 bd 7e 93 3f c0 4e 7e 3a a3 f1 4e b6 6e ee 35 39
       1.1523052 0.0009701066 -3.0837043e-06 0.00017350327
0000c0 45 e5 4b 3d 49 38 12 39 63 9a 86 b9 cd 2d b0 37
       0.049779195 0.00013944613 -0.000256735 2.1002163e-05
0000d0 18 e0 f1 b9 f9 42 c5 35 90 04 84 b7 99 46 3c 3b
       -0.00046134065 1.4697135e-06 -1.573775e-05 0.0028728603
0000e0 00 20 d2 3f 4b d2 c4 39 2d ef 7d b8 38 55 df 3a
       1.6416016 0.00037540714 -6.054265e-05 0.0017038947
0000f0 9b 3e b9 b6 37 2e 2b b9 93 a6 83 b8 d9 a4 8f 35
       -5.520718e-06 -0.00016325047 -6.277594e-05 1.0702307e-06
000100 33 7a 06 b8 6a 3b 0a 3b 67 85 7e 3f 7c 25 75 bb
       -3.2061896e-05 0.0021092542 0.99422306 -0.0037406376
000110 d4 cd 96 3f 29 a1 80 37 7e c8 ce 38 11 5b 65 38
       1.1781564 1.5333835e-05 9.86019e-05 5.4682667e-05
000120 b1 2a 5c 38 d9 c8 df 36 72 88 4b b8 5f c7 37 3b
       5.2491847e-05 6.6692996e-06 -4.8526046e-05 0.0028042418
000130 bb 9d 9f 3a 1c 54 5a 38 f0 47 d1 b9 d3 75 a1 36
       0.0012177745 5.2053583e-05 -0.00039917184 4.8118904e-06
000140 d6 b2 44 b6 28 c5 58 38 70 e8 7c 38 15 e8 f0 b8
       -2.9310372e-06 5.168203e-05 6.0297956e-05 -0.000114873204
000150 aa f1 2e bb 66 74 b1 3f 04 09 2f bb a0 70 f9 35
       -0.0026694336 1.3863647 -0.0026708255 1.8584724e-06
000160 21 3a 21 3c be 1e bf 39 e1 ca 79 38 4e 3e 93 37
       0.009840519 0.00036453264 5.9555172e-05 1.7552778e-05
000170 20 a9 55 39 65 5b b2 3f 5a 9a 06 39 1c 8b 20 b8
       0.00020376267 1.3934141 0.00012836736 -3.827653e-05
000180 2d b7 58 b9 00 61 42 bb ba 82 1b 39 6f 5c 11 bb
       -0.00020667604 -0.0029659867 0.00014830651 -0.002218034
000190 cc d7 ca 37 6b 4b 3f 3b 78 8c 12 bb 53 a1 1c b8
       2.4180765e-05 0.002918924 -0.0022361558 -3.7343543e-05
0001a0 ff 18 c6 3f 4e 28 e9 ba ad aa 95 b8 bf 98 01 bb
       1.5476378 -0.0017788501 -7.1366645e-05 -0.0019774882
0001b0 2d 7a 76 b9 82 59 c6 3f d1 44 e2 bb 64 f7 1e b7
       -0.00023505902 1.5496066 -0.006905176 -9.475134e-06
0001c0 dc da f6 b9 cd 75 c1 39 74 13 5b 3a b3 0c a3 b6
       -0.0004708384 0.00036899597 0.0008357086 -4.859257e-06
0001d0 bf c1 91 b8 1a 1b 20 3a de 67 bf 37 40 af b5 38
       -6.950227e-05 0.0006107554 2.2817341e-05 8.6633954e-05
0001e0 c1 78 f8 37 5b 38 21 b9 08 e2 1c 3c 86 18 fb 3f
       2.9620134e-05 -0.0001537515 0.009575374 1.9616859
0001f0 e9 37 0e 3d 85 44 83 39 39 08 fd b7 2a f1 b5 b8
       0.03472129 0.00025037318 -3.016378e-05 -8.675673e-05

z_logvar f4 [128]
000000 fd 77 21 c0 45 6d 19 c1 7b 76 2b c1 1a ef cf c0
       -2.5229485 -9.589177 -10.716426 -6.497937
000010 8f 37 ca c0 1d 9c 0a c0 b5 53 a1 c0 62 47 c2 c0
       -6.319282 -2.1657784 -5.041468 -6.0712137
000020 5f c0 2a c1 94 86 19 c1 b9 97 ae c0 0b 30 0e c1
       -10.671966 -9.595356 -5.456021 -8.886729
000030 65 1d 80 c0 de c4 3d c0 b9 59 50 c0 88 3a f0 c0
       -4.003588 -2.9651408 -3.2554762 -7.507145
000040 3d 6f 26 c1 67 ff 10 c1 9e 68 23 c1 3f d5 34 c0
       -10.402158 -9.062354 -10.213041 -2.8255155
000050 f0 73 cb c0 86 8f 62 c0 82 92 a4 c0 f1 05 f1 c0
       -6.3579025 -3.54001 -5.1428843 -7.5319753
000060 a0 69 a6 c0 74 43 21 c1 98 02 29 c1 ea 7e ed c0
       -5.2003937 -10.078968 -10.563133 -7.4217424
000070 42 82 2c c1 d1 ca 2a c1 7b 03 2d c1 44 72 cf c0
       -10.781801 -10.674516 -10.81335 -6.4826984
000080 e0 0c 29 c1 51 cf 16 c1 6c 9d 9b c0 b4 fc 9a c0
       -10.565643 -9.425614 -4.8629665 -4.8433475
000090 82 37 00 c0 86 74 94 c0 c6 cb ad c0 02 86 42 c0
       -2.003388 -4.639224 -5.4311247 -3.0394292
0000a0 df 09 2d c1 52 2d ea c0 53 4a 4e c0 46 c6 2c c1
       -10.81491 -7.3180323 -3.2232864 -10.798407
0000b0 c2 04 fd bf 2a c7 cc c0 d5 5d 26 c1 8b 3b 0f c1
       -1.9767077 -6.399312 -10.397908 -8.952037
0000c0 51 e3 aa bf 1b 80 e4 c0 c9 68 11 c1 5a 96 28 c1
       -1.3350621 -7.140638 -9.088082 -10.536707
0000d0 95 69 f7 c0 5d 43 2c c1 8b 2e 0b c1 97 3f 94 c0
       -7.7316384 -10.766446 -8.698863 -4.6327624
0000e0 11 61 13 c0 bf 8b 11 c1 d7 2e fb c0 43 20 5b c0
       -2.3027995 -9.096618 -7.8494678 -3.423844
0000f0 4a b5 2b c1 34 58 2c c1 6b 64 29 c1 50 e2 19 c1
       -10.73176 -10.771534 -10.587016 -9.617752
000100 62 26 2b c1 3e 28 bc c0 f7 bb c9 c0 17 7e a7 c0
       -10.696871 -5.8799124 -6.304195 -5.234142
000110 1f ce 04 c0 8a 11 2d c1 06 5f 2b c1 4f 56 29 c1
       -2.0750806 -10.816782 -10.710699 -10.583571
000120 e0 54 2c c1 66 6b 2d c1 91 bd 2b c1 3b 06 52 c0
       -10.770721 -10.83872 -10.733781 -3.2816303
000130 f4 3d 4b c0 d2 d4 2b c1 1a 89 fa c0 99 a9 1f c1
       -3.1756563 -10.739458 -7.829236 -9.978906
000140 0b eb 29 c1 b1 56 0d c1 a3 40 11 c1 6c ed 26 c1
       -10.619884 -8.833665 -9.07828 -10.432964
000150 25 23 94 c0 96 de 36 c0 f8 1d 92 c0 11 2f 29 c1
       -4.62929 -2.8573356 -4.5661583 -10.573991
000160 23 00 f7 bf a9 3f b9 c0 b9 3d 26 c1 b0 8f 2c c1
       -1.9296917 -5.789021 -10.390069 -10.78508
000170 ac 64 0c c1 46 3c 07 c0 45 23 0e c1 14 3a ce c0
       -8.774578 -2.1130538 -8.883611 -6.4445896
000180 5f 64 fc bf 28 86 cd c0 5e 87 22 c1 c4 f4 40 c0
       -1.9718131 -6.4226265 -10.158049 -3.0149393
000190 f9 f7 10 c1 51 83 cf c0 2c e1 b1 c0 8a b2 2a c1
       -9.06054 -6.48478 -5.558737 -10.668589
0001a0 8b 91 31 c0 e1 57 b7 c0 a1 89 2c c1 bf 97 a2 c0
       -2.7745082 -5.7294774 -10.783601 -5.0810237
0001b0 31 45 0e c1 a8 6c 25 c0 7d 3f 07 c0 5d 52 2c c1
       -8.891892 -2.5847569 -2.11325 -10.770108
0001c0 6d de a9 c0 46 83 af c0 72 7a ed c0 59 90 2b c1
       -5.3084016 -5.4847746 -7.421197 -10.722741
0001d0 9a ac 1a c1 71 c4 00 c1 4d 53 2b c1 45 03 2e c1
       -9.667139 -8.047959 -10.707837 -10.875798
0001e0 1d 6f 23 c1 f7 04 2d c1 51 82 63 c0 a4 21 1b c0
       -10.214627 -10.813712 -3.554829 -2.4239283
0001f0 31 8d 09 c0 dd 17 d7 c0 cf 8a 25 c1 4a ef 26 c1
       -2.1492426 -6.721663 -10.346389 -10.43342

weight_mu f4 [2, 128]
000000 d2 15 75 bc ac 4e 23 bc 02 d4 36 3a 23 8e f9 3b
       -0.014958816 -0.009967487 0.00069743406 0.007615821
000010 43 76 ad ba 37 6f 6e bf ca 3c 15 3c ea 84 80 3b
       -0.0013234097 -0.9313845 0.0091087315 0.0039220946
000020 2c 9d 32 3a 9c ef ea 3a eb ef a0 bc bf 25 5b 3b
       0.00068135816 0.0017924192 -0.019645652 0.0033439246
000030 f6 91 c6 bc 49 7c d4 3b c0 6b 41 3c 6e 96 98 3c
       -0.024239521 0.0064845425 0.011805475 0.018626418
000040 67 f5 f1 3b 55 e7 9e 3b 3c 54 d5 3b e4 92 0d bd
       0.0073839906 0.0048493543 0.0065102857 -0.034563914
000050 f8 fb 0e 3d e2 0d 89 bc eb 4f fe 3c 91 e4 6e 3c
       0.034908265 -0.016730253 0.031043967 0.014580862
000060 da 5c 10 3d 31 11 af 3b 00 8c a6 3a 1d 5b 98 bc
       0.0352448 0.0053426255 0.0012706518 -0.018598134
000070 48 f4 9b ba 68 7a f0 ba 8a f3 28 ba 79 d4 c9 bc
       -0.0011898363 -0.0018347027 -0.00064449816 -0.024637448
000080 40 ff 04 bc f6 3b f0 3b e9 4e 87 bb 2d ea 36 bc
       -0.008117497 0.0073313667 -0.00412928 -0.01116423
000090 fd 9f 80 bf 18 39 8b bc b3 c0 c4 bc 15 03 5a bf
       -1.0048825 -0.016994998 -0.024017667 -0.8516095
0000a0 96 68 fa 3b 5a e3 75 3c 8f d1 96 3c a9 e9 93 bb
       0.007641862 0.015007818 0.018410472 -0.0045139384
0000b0 6f 1c 72 bf 40 34 44 3b 3c 3c d0 3b dc 09 76 3a
       -0.94574636 0.002993837 0.0063548367 0.00093856244
0000c0 4f 08 e1 bd 20 34 96 3c cf e5 f5 ba 07 33 97 bb
       -0.10987913 0.018335402 -0.0018760505 -0.004614237
0000d0 09 56 86 3b 08 d9 fd 3b 6e 8d 0b 3d 5a a6 4a bb
       0.0040996117 0.0077468194 0.034070425 -0.0030921907
0000e0 65 9c 7b bf ae 97 ba bc 2e a7 10 bc b3 18 3b bc
       -0.98285514 -0.022777405 -0.008828921 -0.011419463
0000f0 bc 47 d0 bb 8d bc 92 3b 2f 62 83 ba 46 5e 95 bb
       -0.0063562077 0.0044780434 -0.0010023768 -0.0045583574
000100 72 08 36 3b 4c 8a fe 3c d9 2d 35 3f 73 7f 08 3d
       0.002777603 0.031071804 0.7077308 0.03332467
000110 45 2d 70 bf 08 08 77 b9 92 f4 fc 3b 0c 2c f5 3b
       -0.93819076 -0.00023558747 0.0077195847 0.0074820574
000120 1f 2c 9f 3b ca b6 28 bb 73 78 9d 3b 34 cf c5 3c
       0.0048575546 -0.0025743716 0.0048056184 0.024146654
000130 fa 2f d2 ba 7c 9d a8 3b ea e9 0e 3b 81 c3 79 bb
       -0.0016036027 0.0051457267 0.0021806904 -0.0038110914
000140 45 3d a2 b8 80 9a 05 3c 3c 36 95 bc 6a 75 f2 3b
       -7.736174e-05 0.008154511 -0.018214338 0.0073992508
000150 71 d0 bb 3b 1f 77 75 bf 15 4b b0 3b d1 16 a5 bb
       0.0057316353 -0.9588489 0.005380044 -0.0050381203
000160 cd 8f 50 bb 0a c3 37 3b 80 bf 25 3c fa 33 0d bb
       -0.0031823993 0.0028039836 0.010116458 -0.0021545873
000170 ce de 00 bc aa 55 83 bf af 5d 06 bc eb 75 55 bb
       -0.007865621 -1.0260518 -0.008201047 -0.0032571505
000180 6f 4d 98 3c ba f1 d7 bc d8 df ac bb cb 31 ef bc
       0.01859161 -0.026360381 -0.0052757077 -0.029198548
000190 ad 48 82 3b ab 44 b9 bb 4a ec c0 bb e5 04 6d bb
       0.003975949 -0.005653938 -0.005887543 -0.0036166247
0001a0 66 3b 76 bf 38 29 92 3b 4a 3a 66 bb 01 e1 fa 3b
       -0.96184385 0.00446048 -0.0035129958 0.007656217
0001b0 0d f9 15 bc 9d 67 7e bf 13 9f 65 bd 53 5a bc bb
       -0.009153617 -0.9937685 -0.056059908 -0.005748072
0001c0 8e e9 e5 bb 66 b0 94 bc b7 cd 9e 3c 78 2b 35 3b
       -0.0070163673 -0.01815052 0.019385202 0.0027644318
0001d0 e2 8f 80 3b 42 eb 25 3c 29 aa 7c bb 0b 8a ba 3b
       0.003923402 0.010126891 -0.0038553572 0.0056927255
0001e0 09 7b 83 3b f0 e3 c6 3b 4f bb 95 bc da d8 8e bf
       0.0040124697 0.0060696527 -0.018277792 -1.1159928
0001f0 ca 53 7b ba 01 10 86 39 2b b1 7b 3c 9b e2 47 bc
       -0.00095873757 0.00025570396 0.015362064 -0.012200023
000200 a3 29 1f 3c 09 c1 32 3c 41 54 e1 ba ae 1f c6 bb
       0.009714517 0.010910281 -0.0017191247 -0.006046257
000210 7c 39 8e ba 4e 94 71 3f 3e 4a 8e bc b3 70 7d bb
       -0.0010850872 0.9436692 -0.017369386 -0.003867191
000220 6e 2f a2 ba 7d 34 3b bb 2a 07 a5 3c 2e 93 c4 bb
       -0.0012373754 -0.002856522 0.020145018 -0.0059989905
000230 3c 96 34 3c 4b 15 8f bb 1b 70 58 bc 6d 0a c1 bc
       0.011022147 -0.004366552 -0.013210322 -0.023564542
000240 ee d8 d8 bb 0f 65 76 bb 2b bd bc bb 47 51 c8 3c
       -0.006617657 -0.0037596857 -0.0057598553 0.024452819
000250 46 0e 10 bd 3b 8f 90 3c 36 e5 f2 bc 35 44 17 bc
       -0.035169862 0.017646423 -0.029650312 -0.00923257
000260 59 af 02 bd 1e 0d 06 bc 77 c4 fb 39 c1 fd 6a 3c
       -0.031905506 -0.008181838 0.00048020828 0.014342726
000270 ff 9a 8c ba cb ee 34 3b 24 9c 0c 3b ba 4f ba 3c
       -0.0010727345 0.0027608152 0.0021455372 0.022743095
000280 53 b7 29 3c 7e 2f 2d bc e7 4b 3e 3c 3b dd 8e 3c
       0.010358649 -0.010570405 0.011614776 0.017439475
000290 f6 aa 82 3f b5 94 94 3c 49 08 09 3d 43 b6 5a 3f
       1.0208423 0.018137315 0.033455167 0.8543436
0002a0 39 3c db bb ac e6 82 bc 01 aa a0 bc 4e f2 62 3b
       -0.0066905287 -0.015979134 -0.019612314 0.0034629288
0002b0 52 06 6c 3f 27 a7 2c 3b 25 f4 a2 bb 4d e4 65 ba
       0.92197144 0.0026344748 -0.004972952 -0.0008769676
0002c0 59 0d fd 3d 37 5c 4b bc 01 65 4f ba f1 f9 37 3b
       0.123560615 -0.012412122 -0.0007911474 0.002807256
0002d0 fb c4 7f bb 2e da 11 bc e8 97 f5 bc a4 8a 05 bc
       -0.0039027322 -0.008902116 -0.029979661 -0.00815073
0002e0 8c 0e 7d 3f 6e c2 b3 3c 92 a7 30 3c 15 ae ea 3b
       0.9885032 0.021943297 0.010782139 0.0071618655
0002f0 47 d2 da 3b 99 af 8d bb 99 62 da 39 95 cc 48 3a
       0.006677899 -0.0043239114 0.0004165366 0.00076598796
000300 78 e5 be ba fa 7f b9 bc 32 98 35 bf 69 d7 f9 bc
       -0.0014564237 -0.022644032 -0.70935357 -0.030498223
000310 ce 90 6c 3f af 07 05 3b 95 a3 f0 bb b8 ad f7 bb
       0.92408454 0.002029877 -0.0073437192 -0.0075585507
000320 48 e1 f5 bb 28 85 52 3b 3e aa a5 bb 35 69 ce bc
       -0.0075036623 0.0032122824 -0.005055695 -0.025196651
000330 57 ce ab bb c5 c5 dd ba c3 fc e6 ba 12 77 a4 3b
       -0.0052431035 -0.0016919902 -0.0017622936 0.005019077
000340 e2 1e 90 3a a8 cf a9 bb d6 64 ab 3c be cd 00 bc
       0.0010995532 -0.0051822253 0.020922106 -0.007861553
000350 5c 36 09 bb f6 38 75 3f 83 2f 8e ba 17 1f 93 3b
       -0.0020936942 0.9579004 -0.00108479 0.00448979
000360 20 87 86 bb c2 e5 86 bb ad b7 24 bc b1 cf 8b 3b
       -0.0041054636 -0.0041167447 -0.010053557 0.004266702
000370 57 90 b8 3b 23 52 85 3f 32 c1 20 3c ef de b5 bb
       0.005632441 1.0415691 0.009811686 -0.0055502574
000380 ca f3 12 bc 52 c5 be 3c b5 f7 e4 3b 49 c2 d6 3c
       -0.008969257 0.023287449 0.006987537 0.02621569
000390 40 a1 ba bb 2d 9d ea 3b d6 25 43 3b 7b 76 96 3b
       -0.005695492 0.00715985 0.002977719 0.0045917607
0003a0 4c f6 75 3f 59 b9 24 bc 2b dc f8 39 3e 6c 81 bb
       0.96078944 -0.010053956 0.00047466284 -0.003949671
0003b0 11 99 14 3c 49 88 7b 3f 72 6a 1f 3d 00 0a d5 3b
       0.009069697 0.9825483 0.038919874 0.0065014362
0003c0 e0 54 07 3c eb c2 87 3c 5c 35 ab bc 71 cc a2 ba
       0.008259982 0.016572436 -0.020899467 -0.0012420547
0003d0 78 be 15 bc 08 82 19 bc 46 bb 5f 3b 92 6f b3 bb
       -0.00913965 -0.009369381 0.0034138723 -0.0054759467
0003e0 b6 a4 40 bb 18 82 a1 bb b1 4f bd 3b b8 b0 92 3f
       -0.002939505 -0.0049288385 0.005777322 1.146018
0003f0 7d f1 bd 38 6f 34 c9 ba 93 f3 80 bc a9 59 29 3c
       9.057203e-05 -0.001535071 -0.015741145 0.010336318
