metric/probe_cifar10_another_retrain_seed0.pth (torch, 539721 bytes, 12 tensors)

z_mu f4 [512]
0	0x3b21203b	0.0024585861
1	0x3f114ea6	0.56760633
2	0x3c282b98	0.0102643
3	0x3b854392	0.004066893
4	0x3f804fd0	1.0024357
5	0xb7e954dd	-2.7815282e-05
6	0x3f5bfbc9	0.8593107
7	0x3f9def34	1.2338624
8	0x3b4565f8	0.0030120593
9	0xbc17ed4f	-0.009272887
10	0x3a305422	0.0006726404
11	0x3a1b1d75	0.000591717
12	0x3f251e33	0.64499205
13	0x3adcdb6c	0.0016850061
14	0x3b8a9fa7	0.004230458
15	0x3c202579	0.009774559
16	0x3ed3c0c4	0.41358006
17	0xbb236f82	-0.002493829
18	0xbb020dd6	-0.0019844673
19	0x3add15ff	0.0016867517
20	0xbb7f80a4	-0.0038986588
21	0x3a6c9eb3	0.00090263336
22	0x3c2fdf2c	0.010734361
23	0x392a563e	0.00016244591
24	0x3a85d3e6	0.0010210245
25	0x3a822d07	0.0009931632
26	0x3b57bc86	0.0032918765
27	0x3b1a021f	0.00234998
28	0x3f889533	1.0670532
29	0xb8007c0a	-3.06331e-05
30	0x3cc6c93a	0.024265874
31	0xbb402216	-0.0029317192
32	0x3dcde895	0.10054127
33	0x3b0b8287	0.0021287517
34	0xbb9af7af	-0.004729233
35	0xbb25dd8b	-0.0025309052
36	0x3aea78d6	0.0017888795
37	0x3b9f7e63	0.0048673614
38	0xb9a0f774	-0.00030701945
39	0xbb64897e	-0.003487199
40	0x3f61abf5	0.8815301
41	0x3b6bed37	0.0035999545
42	0x3a8d05bd	0.0010759156
43	0xbb6d4a15	-0.0036207486
44	0x3b7d3fb4	0.0038642706
45	0x3c152898	0.009103917
46	0x3c61e426	0.013787305
47	0x3b4977bd	0.0030741536
48	0x3be31f1f	0.0069312
49	0x3f931490	1.149065
50	0x3f0a30c5	0.53980666
51	0xbac14b99	-0.0014747261
52	0xb9896199	-0.00026203392
53	0xbb933ba2	-0.004493193
54	0x3b6d70a0	0.003623046
55	0xb7d8f6b6	-2.586409e-05
56	0x3c056ca7	0.0081435805
57	0x3b96ff89	0.004608099
58	0x3b8394ac	0.004015526
59	0x3f6a747a	0.9158398
60	0x3cc50f7b	0.024055233
61	0x3f928fdc	1.1450152
62	0xbb1a1ebb	-0.0023516852
63	0x3c1129f5	0.008860101
64	0x3fc6afa8	1.5522356
65	0x3aee4dcb	0.0018181143
66	0x3af32086	0.0018549121
67	0x3c188c02	0.009310724
68	0x3f6f5380	0.93486786
69	0x3eb0573c	0.34441555
70	0xbb856132	-0.0040704245
71	0x3b72ac6e	0.0037029046
72	0x3b859529	0.004076619
73	0x3b601c5e	0.0034196596
74	0xba9525d8	-0.0011379076
75	0x3fadaf02	1.3569033
76	0x3fbaedbc	1.4603801
77	0x3b23456b	0.0024913203
78	0x3bd8109a	0.006593776
79	0x3ab2e2a7	0.001364787
80	0xbb300314	-0.0026857303
81	0xbb32d02e	-0.002728473
82	0xba0c8134	-0.0005359829
83	0x3ee35bab	0.44405875
84	0xbbb09b43	-0.0053896024
85	0x39f6a495	0.000470434
86	0x39bcffbf	0.000360487
87	0x3c031646	0.008000916
88	0x3e2e50a1	0.17022945
89	0xb90b46cd	-0.00013282448
90	0x3abd2376	0.0014430124
91	0x3bbfa715	0.005848775
92	0xba6d64b8	-0.0009055841
93	0x3f15c801	0.58508307
94	0x3aee9dc0	0.0018204972
95	0x3bb2f69f	0.0054615284
96	0x3f2628e6	0.64906156
97	0x3ebcf1c0	0.3690319
98	0x3f65b07e	0.8972243
99	0x3f83d9bd	1.0300823
100	0xbafd5517	-0.0019327727
101	0x3f41730c	0.7556617
102	0x3fc1d63f	1.5143508
103	0x3b0e4333	0.0021707534
104	0xbb9622bf	-0.004581779
105	0x3f6b0220	0.9180012
106	0x395df1b1	0.0002116624
107	0x38743eb6	5.8232537e-05
108	0x3faab3e0	1.3336143
109	0x3f935a92	1.1512015
110	0x39692971	0.0002223605
111	0x3b95a6ba	0.0045669945
112	0xbb553986	-0.0032535507
113	0x3beb45a2	0.0071799317
114	0x3b86cb33	0.0041135787
115	0xbb78e3e3	-0.0037977628
116	0x3d80a465	0.06281356
117	0x3bcd7f58	0.006271284
118	0xb9432452	-0.0001861018
119	0xbabb5662	-0.0014292712
120	0xbb6a7311	-0.0035774151
121	0xbc180a5f	-0.009279816
122	0x3fc71001	1.5551759
123	0xb7f587ee	-2.9269573e-05
124	0xbb1d0914	-0.002396171
125	0x3f47af04	0.7800143
126	0x3f460bd8	0.7736182
127	0xbb35e601	-0.0027755501
128	0x3ae7846d	0.0017663367
129	0xbc6f0a3f	-0.014589845
130	0x3fa2761a	1.2692292
131	0xbb79e892	-0.0038133007
132	0x3fdba21a	1.7158844
133	0x3fc4e3dc	1.5382037
134	0xbb8901a9	-0.004181106
135	0xbb04abdf	-0.0020244045
136	0x3eefa4ec	0.46805513
137	0x3c3b6f1a	0.011440063
138	0x3fb3ff05	1.4062201
139	0xbb8b9353	-0.004259506
140	0x3d1db534	0.038502887
141	0x3a58e6fd	0.0008274166
142	0x3b193da0	0.0023382679
143	0x3df96753	0.12177911
144	0x3b1589f9	0.0022817834
145	0x3c7f10be	0.0155679565
146	0x3fc02c24	1.5013471
147	0x3b43fed6	0.0029906533
148	0xbaf6ec67	-0.0018838764
149	0x3fcb842a	1.5899708
150	0x3a0bd34c	0.0005333915
151	0xbbc0d82f	-0.005885146
152	0x3a60cd97	0.0008575557
153	0x3aab4feb	0.0013070082
154	0x3bafb795	0.005362461
155	0xbac0d8b0	-0.0014713015
156	0xbbd7b926	-0.0065833507
157	0x3fab8f47	1.34031
158	0x3d927c75	0.071526445
159	0x3b79ddbd	0.003812655
160	0x3c3b775e	0.011442034
161	0x3b807eb5	0.0039213547
162	0x3b6adf75	0.0035838757
163	0x3f8814cb	1.0631346
164	0x3a98e5eb	0.00116652
165	0xba80a2e0	-0.0009814166
166	0x3ead4a66	0.33845824
167	0x3b659168	0.0035029296
168	0x3f89da7c	1.0769801
169	0x3f93456a	1.1505558
170	0x3fc3b3a3	1.5289196
171	0x391e9483	0.00015123379
172	0x3b43b91b	0.002986497
173	0xbaed749b	-0.0018116416
174	0x3ef40ddb	0.4766682
175	0x3f4f4d53	0.8097736
176	0xbb4d69c7	-0.0031343566
177	0xbbbcdb27	-0.0057634297
178	0x3b8a273f	0.0042161043
179	0x3c2ff027	0.010738409
180	0x3b39219a	0.0028248788
181	0xbbf0d97d	-0.0073501454
182	0xbbcff6db	-0.006346566
183	0x3f5baa20	0.85806465
184	0xb983786c	-0.00025075988
185	0xbb0efcf2	-0.0021818248
186	0xbaaca282	-0.001317099
187	0x3f1f7572	0.6228858
188	0x3a51da38	0.00080052344
189	0x3bda5e11	0.0066640456
190	0xbaacdf7e	-0.0013189164
191	0x3f3b293e	0.73109806
192	0x3a889c14	0.0010422491
193	0xbba95de2	-0.0051686624
194	0x3a86d722	0.0010287503
195	0xbb8ad83a	-0.004237202
196	0xbbcf607c	-0.0063286405
197	0x3c532495	0.01288714
198	0x3b6574f2	0.0035012332
199	0xbb81cafe	-0.003960966
200	0x3f96f8c6	1.179467
201	0x3fa6c35f	1.3028373
202	0xbb443938	-0.0029941332
203	0xbbad1e46	-0.00528315
204	0x3b954b93	0.0045561283
205	0x3bb21744	0.0054349024
206	0x3b05139d	0.002030588
207	0xbad27885	-0.0016057646
208	0xbc2a211a	-0.010383869
209	0x3c17bca0	0.00926128
210	0x3f6f9076	0.93579805
211	0x3c24aeb7	0.010051421
212	0xb79e9964	-1.8906496e-05
213	0xbbc5763c	-0.0060260575
214	0x3fb7e9b9	1.4368201
215	0x3ef078d8	0.46967196
216	0xbae9bbda	-0.0017832473
217	0x3884e1e2	6.3363244e-05
218	0x3a22b6d2	0.0006207052
219	0xbc32b1f7	-0.010906688
220	0xbb1f178c	-0.002427551
221	0x3b27cfbb	0.0025605995
222	0xbae098e7	-0.0017135412
223	0x3a5cf416	0.00084287056
224	0x3a02ecf7	0.0004994417
225	0x3ff1c11a	1.8887055
226	0xba75f46a	-0.0009382429
227	0x3b5f7ed1	0.0034102688
228	0x3d9c5213	0.07632842
229	0xba14c276	-0.0005674729
230	0x3b1011aa	0.0021983185
231	0x3a8daf79	0.0010809741
232	0xbb1e54cd	-0.0024159432
233	0x3f13b07d	0.57691175
234	0x3fc0ecdf	1.5072287
235	0x3a24d694	0.0006288078
236	0x3f00c8c4	0.50306344
237	0x3fa56ee9	1.2924472
238	0xbbbd2b57	-0.005772989
239	0xbb63cbd8	-0.0034758952
240	0x3e79acec	0.2438237
241	0xbba2aebf	-0.004964679
242	0xba382686	-0.00070247834
243	0xba39010a	-0.0007057345
244	0x3bd72122	0.006565229
245	0x3bb3ede4	0.0054910053
246	0xbbf32e7e	-0.007421314
247	0x3a1c77d4	0.00059687835
248	0xbba9124b	-0.0051596514
249	0xbb125d66	-0.0022333502
250	0x3f35296c	0.7076633
251	0x3e9f1911	0.31073812
252	0xbab277fb	-0.0013616079
253	0xbadf598f	-0.001704024
254	0x3ae95940	0.0017803088
255	0x3f407be4	0.7518904

z_logvar f4 [512]
0	0xc0aa56e5	-5.3231072
1	0xc0857228	-4.170185
2	0xc07a5441	-3.9113925
3	0xc081fffa	-4.062497
4	0xc0947939	-4.6397977
5	0xc05f2bf2	-3.4870572
6	0xc04299ac	-3.0406294
7	0xc0b38fea	-5.6113176
8	0xc0a485e5	-5.1413445
9	0xc0a2ae16	-5.0837507
10	0xc0942d07	-4.6304965
11	0xc0ab8c7a	-5.360898
12	0xc0af8bae	-5.4858007
13	0xc099df70	-4.808525
14	0xc0a35e3d	-5.1052537
15	0xc0934c9d	-4.603102
16	0xc06470ae	-3.5693774
17	0xc08f9b0f	-4.487678
18	0xc0c18945	-6.0480065
19	0xc09f5a5d	-4.9797807
20	0xc0b1c3ee	-5.555167
21	0xc091ba32	-4.553979
22	0xc084d439	-4.150906
23	0xc09ed867	-4.9639163
24	0xc0abd024	-5.369158
25	0xc0be7a75	-5.9524484
26	0xc0a265d0	-5.0749283
27	0xc0a22d57	-5.0680346
28	0xc0a9fe3b	-5.312284
29	0xc0cb7591	-6.3581014
30	0xc0800426	-4.0005064
31	0xc0c72caf	-6.2242045
32	0xc02b313f	-2.6748807
33	0xc078f0aa	-3.889689
34	0xc0a116c7	-5.0340304
35	0xc0849f3e	-4.1444387
36	0xc0cc540f	-6.385261
37	0xc0aa50ac	-5.3223476
38	0xc0a231e4	-5.06859
39	0xc0aa2a90	-5.3176956
40	0xc094c579	-4.6491055
41	0xc0a7be67	-5.2419925
42	0xc0cedac9	-6.464207
43	0xc0cc6e4d	-6.3884645
44	0xc08a7caf	-4.32772
45	0xc08f53e9	-4.478993
46	0xc0330dc8	-2.7977161
47	0xc0b14e2a	-5.5407915
48	0xc0a58862	-5.1728983
49	0xc0a57356	-5.170329
50	0xc06c8559	-3.695639
51	0xc08c3873	-4.381891
52	0xc0c01441	-6.0024724
53	0xc0b1d8e2	-5.557725
54	0xc0c2988c	-6.0811214
55	0xc0910729	-4.532124
56	0xc07eea53	-3.983052
57	0xc0b609ee	-5.688712
58	0xc097ad46	-4.7399015
59	0xc097d331	-4.74453
60	0xc0680821	-3.6254961
61	0xc0b451a1	-5.6349645
62	0xc0980554	-4.7506504
63	0xc06a5999	-3.6617186
64	0xc006cecf	-2.1063726
65	0xc0953438	-4.6626244
66	0xc056db6f	-3.3571432
67	0xc0810a03	-4.032472
68	0xc0a453c7	-5.1352267
69	0xc075e89f	-3.842323
70	0xc0b0648a	-5.512273
71	0xc0c0eb22	-6.0287027
72	0xc07da426	-3.9631438
73	0xc0c879c4	-6.264864
74	0xc092b197	-4.5841784
75	0xc0a0d68b	-5.0261893
76	0xc0a13dbf	-5.0387874
77	0xc0a2a287	-5.08234
78	0xc0959a8d	-4.675116
79	0xc088abd5	-4.2709756
80	0xc0b27b67	-5.577564
81	0xc0a4a82a	-5.145528
82	0xc0996d7e	-4.7946157
83	0xc0921ce5	-4.566027
84	0xc09271a5	-4.5763726
85	0xc0ae3f5c	-5.4452343
86	0xc0a86d50	-5.263344
87	0xc09a5a83	-4.823549
88	0xc057c138	-3.3711681
89	0xc09c8ffc	-4.892576
90	0xc04f7057	-3.2412317
91	0xc0bc2a3f	-5.880157
92	0xc0c42a47	-6.130161
93	0xc0ad39ac	-5.41329
94	0xc0439765	-3.0561154
95	0xc08a26aa	-4.3172197
96	0xc08db20d	-4.4279847
97	0xc088776c	-4.264578
98	0xc083e868	-4.12212
99	0xc07ec052	-3.9804883
100	0xc07617e8	-3.8452091
101	0xc0b22043	-5.566438
102	0xc09b4507	-4.852176
103	0xc09de373	-4.934015
104	0xc0b0f375	-5.529719
105	0xc0805983	-4.0109267
106	0xc08cf92a	-4.4054155
107	0xc0cb2ef4	-6.3494816
108	0xc0b10f13	-5.53309
109	0xc074a4ae	-3.8225513
110	0xc0b064da	-5.512311
111	0xc0a82255	-5.254191
112	0xc0b4026d	-5.625296
113	0xc0812384	-4.0355854
114	0xc0ba0dba	-5.8141756
115	0xc06521a1	-3.5801775
116	0xc0729a2b	-3.7906597
117	0xc0891ea6	-4.2849913
118	0xc0c2c2f9	-6.0863004
119	0xc0be7202	-5.951417
120	0xc09a4785	-4.8212304
121	0xc0a855e2	-5.2604837
122	0xc0c66a26	-6.2004576
123	0xc0a317b9	-5.096646
124	0xc0b0b02d	-5.521506
125	0xc09fae72	-4.9900446
126	0xc07fdf36	-3.9979987
127	0xc0c7c519	-6.24281
128	0xc0cb1bbe	-6.3471365
129	0xc087209d	-4.222731
130	0xc09c512b	-4.884908
131	0xc0a1879c	-5.047804
132	0xc0a01f46	-5.0038176
133	0xc0681926	-3.626535
134	0xc0b8341b	-5.7563605
135	0xc0851400	-4.1586914
136	0xc04bad57	-3.1824548
137	0xc06259b7	-3.5367258
138	0xc0a8f3be	-5.2797537
139	0xc0a71799	-5.2216306
140	0xc04af20d	-3.1710236
141	0xc099a5e2	-4.8014994
142	0xc096b79e	-4.709914
143	0xc04cff01	-3.2030642
144	0xc0709643	-3.7591712
145	0xc03aae9b	-2.916907
146	0xc0369aed	-2.853206
147	0xc09e3478	-4.943905
148	0xc00b8e2a	-2.180552
149	0xbfbfcf26	-1.4985092
150	0xc0a410d7	-5.1270556
151	0xc0a04f42	-5.009675
152	0xc07ce701	-3.9515994
153	0xc0b0bd77	-5.523128
154	0xc060b5a1	-3.5110857
155	0xc0889c27	-4.2690616
156	0xc0874ad5	-4.227885
157	0xc06f22d9	-3.736502
158	0xc059ab3d	-3.4010766
159	0xc09c6237	-4.886989
160	0xc0a06258	-5.012005
161	0xc0a23865	-5.069384
162	0xc0aed656	-5.463664
163	0xc09d1494	-4.908762
164	0xc0ac64c9	-5.387303
165	0xc08407c7	-4.1259494
166	0xc0b7ed02	-5.7476816
167	0xc0b9811d	-5.797011
168	0xc02b748c	-2.6789885
169	0xc08a8d96	-4.3297834
170	0xc07339b7	-3.8003976
171	0xc0bbca13	-5.8684173
172	0xc0a36f9c	-5.107374
173	0xc0bd0f51	-5.9081197
174	0xbff681d9	-1.9258376
175	0xc0d049d7	-6.5090137
176	0xc083c196	-4.117381
177	0xc08d3830	-4.413109
178	0xc0a8e832	-5.278344
179	0xc0953c13	-4.6635833
180	0xc08db70f	-4.428596
181	0xc0981860	-4.7529755
182	0xc0b246ff	-5.5711665
183	0xc0a31963	-5.096849
184	0xc08b0b63	-4.34514
185	0xc0949c92	-4.6441126
186	0xc0969839	-4.706082
187	0xc09ff595	-4.9987283
188	0xc079cb16	-3.9030204
189	0xc08ea8fd	-4.4581285
190	0xc0b1d013	-5.5566497
191	0xc07eaa09	-3.9791281
192	0xc0a549c0	-5.1652527
193	0xc0aa51f0	-5.322502
194	0xc0c92234	-6.285425
195	0xc0a6426b	-5.1956077
196	0xc08f1eb7	-4.4724994
197	0xc057c061	-3.3711169
198	0xc09d18ef	-4.9092937
199	0xc0a09b08	-5.0189247
200	0xc088ba3b	-4.272733
201	0xc0c016da	-6.0027895
202	0xc0a5ee3f	-5.185333
203	0xc07c80a4	-3.9453516
204	0xc08ac9ad	-4.3371186
205	0xc0aa8b02	-5.3294687
206	0xc0b93a43	-5.788362
207	0xc096a705	-4.707888
208	0xc0972195	-4.7228494
209	0xc0890ff0	-4.2831955
210	0xc09609c4	-4.688692
211	0xc06e5afa	-3.7243028
212	0xc08d100c	-4.408209
213	0xc087792f	-4.233543
214	0xc0534aa4	-3.3014307
215	0xc0523d0f	-3.2849767
216	0xc0b53ff7	-5.664058
217	0xc09e5771	-4.948174
218	0xc096d19f	-4.7130885
219	0xc06c5c0e	-3.6931186
220	0xc0a7cd8c	-5.243841
221	0xc0bb4500	-5.852173
222	0xc070c466	-3.7619872
223	0xc0a41056	-5.126994
224	0xc08d60e0	-4.4180756
225	0xc0a757fb	-5.22949
226	0xc0b636b0	-5.6941757
227	0xc0a9c3be	-5.3051443
228	0xc0349632	-2.8216672
229	0xc0b11a0b	-5.534429
230	0xc0ccefff	-6.4042964
231	0xc0a996e3	-5.299669
232	0xc0a467d0	-5.1376724
233	0xc09e23e5	-4.9418817
234	0xc0a134b8	-5.0376854
235	0xc0b368e0	-5.606552
236	0xc0bffbd0	-5.999489
237	0xc076efc4	-3.8583841
238	0xc08e7ebf	-4.452972
239	0xc093456c	-4.6022243
240	0xbff3667d	-1.9015652
241	0xc08aa6a4	-4.332842
242	0xc08c6cef	-4.3882976
243	0xc0ae1770	-5.440361
244	0xc08ec70e	-4.4617987
245	0xc0354bdc	-2.832755
246	0xc0a5460a	-5.1647997
247	0xc0802d63	-4.0055404
248	0xc08dacab	-4.4273276
249	0xc0bdfdaf	-5.937217
250	0xc05d50f6	-3.4580665
251	0xc0100fdc	-2.250968
252	0xc0c97b01	-6.296265
253	0xc0a809dd	-5.251204
254	0xc0c424b5	-6.129481
255	0xc09f35ec	-4.9753323

weight_mu f4 [128, 512]
0	0x39f3c731	0.0004649698
1	0xbb1d6da0	-0.002402164
2	0xb9d736d5	-0.0004104885
3	0xb9947077	-0.00028312553
4	0x3b11f2b2	0.0022269902
5	0x37febfab	3.0368412e-05
6	0xba1f1039	-0.0006067786
7	0x3ab555b7	0.0013834749
8	0x39e73114	0.0004409632
9	0x3698ac45	4.550008e-06
10	0xb8d73e32	-0.00010263584
11	0x398b0612	0.0002651667
12	0xba32a387	-0.00068145286
13	0x39f66a27	0.00046999866
14	0xb7612944	-1.3420653e-05
15	0xb8d973ba	-0.00010368922
16	0xbaf94fd8	-0.0019020988
17	0x39c6dcbe	0.0003792997
18	0xb83f5196	-4.561393e-05
19	0x380bdbe2	3.3344964e-05
20	0xb9850f57	-0.00025379166
21	0xb8761b95	-5.867666e-05
22	0x3a0cdf03	0.00053738075
23	0x39e569e1	0.0004375717
24	0xb9a3b0c8	-0.00031221495
25	0x360f8228	2.1384421e-06
26	0xb97464c5	-0.00023307193
27	0xba2afef7	-0.0006522978
28	0xba6d5373	-0.00090532674
29	0xb6aa1ca9	-5.0697313e-06
30	0x3a4b98b2	0.0007766589
31	0x3a5b7f2c	0.0008373137
32	0xb8292a6c	-4.033225e-05
33	0x3a0f33ec	0.0005462754
34	0x3901d5db	0.00012382066
35	0xb712ebbe	-8.757166e-06
36	0xb9e8254c	-0.00044278277
37	0x3939d3f9	0.00017721941
38	0x3a66c5d1	0.00088032807
39	0xb9ca8444	-0.00038626988
40	0xbaa7b976	-0.001279636
41	0xb9f744ca	-0.00047162763
42	0x39832072	0.0002501044
43	0x396ced8a	0.00022595204
44	0xb7c51d6c	-2.349793e-05
45	0x3a731c46	0.00092739274
46	0xba2e517a	-0.0006649714
47	0x3956025f	0.00020409514
48	0xb891a059	-6.944006e-05
49	0xbb8e8945	-0.00434986
50	0xbb0f7396	-0.0021888963
51	0xb9b7f687	-0.00035088157
52	0x3a1ce837	0.00059855304
53	0x396fe1d4	0.00022876944
54	0x399423a7	0.00028255323
55	0xba4048af	-0.00073350494
56	0xba494d4a	-0.00076790585
57	0xb9f05c78	-0.00045845262
58	0x39994cfc	0.00029239792
59	0xba2e4db1	-0.000664915
60	0x3a3eb151	0.0007274347
61	0x3af4ae12	0.00186676
62	0xb9a91deb	-0.00032256483
63	0x3948aa59	0.00019136946
64	0xbb274b4a	-0.0025527054
65	0xb96c4469	-0.00022532199
66	0x39c0860f	0.00036720975
67	0xb83c2555	-4.485746e-05
68	0xb9dc0878	-0.0004196798
69	0xbaf60fc3	-0.0018773008
70	0x3967b41c	0.00022096973
71	0xb93cb061	-0.00017994783
72	0x399cff4a	0.00029944844
73	0x3a3522ed	0.00069098064
74	0xb907b3fc	-0.00012941653
75	0x3ac71f6b	0.0015191858
76	0xbb60d899	-0.003430879
77	0xb9945be8	-0.00028297235
78	0x3a103a98	0.0005501895
79	0x39d2538e	0.00040116574
80	0xb90e0de5	-0.00013547351
81	0xba122cf3	-0.0005576156
82	0x39ebd462	0.0004498093
83	0xbb1fe8a0	-0.002440013
84	0x39d6d8ca	0.0004097878
85	0xba0f1168	-0.0005457611
86	0xb979f6a2	-0.00023838368
87	0xb8c99a97	-9.6132215e-05
88	0xb93b2f2e	-0.00017851286
89	0x399c9b16	0.00029870187
90	0x39dfd90b	0.00042695584
91	0x39fa3681	0.00047724324
92	0xb7d5bf7f	-2.5480751e-05
93	0xba807c23	-0.0009802621
94	0xba8924c8	-0.0010463232
95	0x3aa86c8f	0.0012849736
96	0xba294dff	-0.00064584607
97	0xba97e301	-0.0011588038
98	0xbaaead8e	-0.001332687
99	0xbb0094ba	-0.0019619898
100	0x3a32f4f2	0.0006826661
101	0xb9a880de	-0.0003213947
102	0xbaca551e	-0.0015436744
103	0xb9861674	-0.000255752
104	0xb8f5b6bf	-0.000117165495
105	0xbb942adc	-0.004521711
106	0x38c21b60	9.25574e-05
107	0xb9e7fd88	-0.0004424865
108	0x3b778112	0.003776614
109	0xbb3ee789	-0.0029129705
110	0xb99771b6	-0.00028885686
111	0x38796efa	5.946958e-05
112	0xb9a5c374	-0.00031616876
113	0x39a4d8bd	0.00031442
114	0xb9b68922	-0.00034815917
115	0x394b9b7a	0.00019417508
116	0x3a21a1cc	0.0006165772
117	0x38b54674	8.6438755e-05
118	0xb8586eac	-5.1601484e-05
119	0x3797dab6	1.8102448e-05
120	0xba534750	-0.00080596376
121	0xba1289f7	-0.00055900164
122	0xbbb1915a	-0.0054189386
123	0x38251f3b	3.936815e-05
124	0xb91be66c	-0.00014867791
125	0xba7cdb6c	-0.00096457335
126	0x3a81e466	0.0009909987
127	0xb8db6e69	-0.00010463299
128	0x38f6fa8f	0.00011776864
129	0x38d5bd38	0.00010191876
130	0xbab6cba6	-0.001394619
131	0x38cb92b5	9.7071206e-05
132	0xbbbaa4ce	-0.005695916
133	0xba962856	-0.0011456113
134	0xb95c37f4	-0.00021001679
135	0x3a12bee3	0.00055979023
136	0xbaae17a1	-0.0013282188
137	0x3a19f85d	0.0005873496
138	0xbb461880	-0.0030227005
139	0x388be881	6.671344e-05
140	0xb6f67ad5	-7.345671e-06
141	0xba4a87e0	-0.00077259354
142	0x391c5d45	0.00014912065
143	0xba9453b4	-0.0011316449
144	0xb94c0ed2	-0.00019460477
145	0xba0b84e6	-0.00053222326
146	0xba95c7f2	-0.0011427386
147	0x38806f58	6.124255e-05
148	0xba26fd72	-0.0006370164
149	0x3b438b84	0.0029837796
150	0xb9e6928e	-0.0004397821
151	0xba179858	-0.0005782894
152	0xba7e1a0c	-0.00096932123
153	0x392b2d0f	0.00016324616
154	0x39e0f008	0.00042903447
155	0x38e02a10	0.00010688987
156	0xb91ab7d3	-0.00014755064
157	0xbb07095a	-0.002060494
158	0xb9f6cfab	-0.000470755
159	0xb8fd3af1	-0.00012074959
160	0xb82d5886	-4.1328858e-05
161	0x39021559	0.00012405719
162	0xb828f16f	-4.0279174e-05
163	0x3b58d5bf	0.0033086387
164	0x372d1fcd	1.0319008e-05
165	0x3a330dc7	0.0006830361
166	0xbaac561a	-0.0013148219
167	0xb964b1ee	-0.00021810058
168	0xbb1857dc	-0.0023245728
169	0xb9e38d0a	-0.00043401896
170	0xbabb1a55	-0.0014274815
171	0xba6e44cd	-0.00090892316
172	0xba4f5f1b	-0.0007910595
173	0x3843d060	4.6685687e-05
174	0xba8f0d21	-0.0010913947
175	0x3a474ef4	0.00076030125
176	0x3a4e11e2	0.0007860941
177	0x38ac8ae8	8.2274724e-05
178	0x391f202b	0.00015175405
179	0xb94db1fb	-0.00019616626
180	0xba2911d6	-0.0006449496
181	0xb98fbbd4	-0.00027415028
182	0x3911f72d	0.00013920358
183	0xbaede91b	-0.0018151136
184	0x39d4c5e0	0.0004058322
185	0x38f5cacd	0.00011720285
186	0xba13546e	-0.0005620186
187	0xbb25ed60	-0.0025318488
188	0xb91a2219	-0.00014699287
189	0x3a358225	0.0006923995
190	0xb9b4a0eb	-0.0003445217
191	0xb9f1cd75	-0.0004612018
192	0xb59df971	-1.1770009e-06
193	0xba65bec4	-0.0008764083
194	0x391f487f	0.00015190429
195	0xba138446	-0.0005627315
196	0xba13c161	-0.00056364207
197	0xb813ec9e	-3.5267898e-05
198	0xb9559320	-0.00020368071
199	0x39871a84	0.00025768962
200	0x3a73f296	0.00093058625
201	0x3afa00ba	0.0019073703
202	0xba2f150e	-0.00066788576
203	0x3abf702d	0.0014605575
204	0x37a0cf88	1.9170126e-05
205	0x395bdb0d	0.0002096707
206	0x39caef6c	0.00038706826
207	0xb7b8fc5f	-2.2052029e-05
208	0xb98d6f59	-0.00026976576
209	0x3902520d	0.00012428332
210	0xbb5dc1b0	-0.003383737
211	0xb9dcfee7	-0.00042151587
212	0xba0d4bd7	-0.0005390024
213	0x3a190634	0.0005837411
214	0xbb14db81	-0.0022713842
215	0xba9642a8	-0.0011463957
216	0x3a27997b	0.0006393415
217	0x3843b5c1	4.6660894e-05
218	0x39c1a206	0.00036932545
219	0x39a66d5f	0.00031743475
220	0x39ce7ca7	0.00039384255
221	0x3894ffeb	7.1048584e-05
222	0x3a5945f6	0.0008288318
223	0xb9c40c8f	-0.0003739339
224	0xb93aab09	-0.00017802058
225	0x3b80df09	0.003932838
226	0xb86dd0aa	-5.6699537e-05
227	0x3a32ec82	0.00068254035
228	0xb65236fa	-3.132444e-06
229	0xba1a570c	-0.0005887605
230	0xba46988e	-0.0007575833
231	0xb9c682cb	-0.0003786295
232	0xb992d371	-0.00028004826
233	0xbb16fb68	-0.0023038033
234	0x395d1b90	0.0002108647
235	0x3990fad0	0.0002765269
236	0xb8747fd8	-5.8293197e-05
237	0xbada528b	-0.001665668
238	0xba10f351	-0.0005529421
239	0x39ccbc80	0.00039050356
240	0x3b1e1a0e	0.0024124417
241	0xba6c6306	-0.0009017441
242	0xbac71254	-0.0015187957
243	0x36d80d05	6.4388173e-06
244	0x36c95baa	6.000938e-06
245	0xba145463	-0.00056583266
246	0xb9df8a4b	-0.0004263691
247	0x397fd7b4	0.00024399051
248	0xba827c24	-0.000995521
249	0xb9edc866	-0.0004535347
250	0xbb2eaa2b	-0.002665172
251	0x3942aed8	0.00018566416
252	0xb90bd446	-0.00013335151
253	0xba4f35fa	-0.00079044665
254	0xb9197c48	-0.00014637515
255	0xb8b0a799	-8.4235515e-05

weight_logvar f4 [128, 512]
0	0xc04e0210	-3.218876
1	0xc04e0210	-3.218876
2	0xc04e0210	-3.218876
3	0xc04e0210	-3.218876
4	0xc04e0210	-3.218876
5	0xc04e0210	-3.218876
6	0xc04e0210	-3.218876
7	0xc04e0210	-3.218876
8	0xc04e0210	-3.218876
9	0xc04e0210	-3.218876
10	0xc04e0210	-3.218876
11	0xc04e0210	-3.218876
12	0xc04e0210	-3.218876
13	0xc04e0210	-3.218876
14	0xc04e0210	-3.218876
15	0xc04e0210	-3.218876
16	0xc04e0210	-3.218876
17	0xc04e0210	-3.218876
18	0xc04e0210	-3.218876
19	0xc04e0210	-3.218876
20	0xc04e0210	-3.218876
21	0xc04e0210	-3.218876
22	0xc04e0210	-3.218876
23	0xc04e0210	-3.218876
24	0xc04e0210	-3.218876
25	0xc04e0210	-3.218876
26	0xc04e0210	-3.218876
27	0xc04e0210	-3.218876
28	0xc04e0210	-3.218876
29	0xc04e0210	-3.218876
30	0xc04e0210	-3.218876
31	0xc04e0210	-3.218876
32	0xc04e0210	-3.218876
33	0xc04e0210	-3.218876
34	0xc04e0210	-3.218876
35	0xc04e0210	-3.218876
36	0xc04e0210	-3.218876
37	0xc04e0210	-3.218876
38	0xc04e0210	-3.218876
39	0xc04e0210	-3.218876
40	0xc04e0210	-3.218876
41	0xc04e0210	-3.218876
42	0xc04e0210	-3.218876
43	0xc04e0210	-3.218876
44	0xc04e0210	-3.218876
45	0xc04e0210	-3.218876
46	0xc04e0210	-3.218876
47	0xc04e0210	-3.218876
48	0xc04e0210	-3.218876
49	0xc04e0210	-3.218876
50	0xc04e0210	-3.218876
51	0xc04e0210	-3.218876
52	0xc04e0210	-3.218876
53	0xc04e0210	-3.218876
54	0xc04e0210	-3.218876
55	0xc04e0210	-3.218876
56	0xc04e0210	-3.218876
57	0xc04e0210	-3.218876
58	0xc04e0210	-3.218876
59	0xc04e0210	-3.218876
60	0xc04e0210	-3.218876
61	0xc04e0210	-3.218876
62	0xc04e0210	-3.218876
63	0xc04e0210	-3.218876
64	0xc04e0210	-3.218876
65	0xc04e0210	-3.218876
66	0xc04e0210	-3.218876
67	0xc04e0210	-3.218876
68	0xc04e0210	-3.218876
69	0xc04e0210	-3.218876
70	0xc04e0210	-3.218876
71	0xc04e0210	-3.218876
72	0xc04e0210	-3.218876
73	0xc04e0210	-3.218876
74	0xc04e0210	-3.218876
75	0xc04e0210	-3.218876
76	0xc04e0210	-3.218876
77	0xc04e0210	-3.218876
78	0xc04e0210	-3.218876
79	0xc04e0210	-3.218876
80	0xc04e0210	-3.218876
81	0xc04e0210	-3.218876
82	0xc04e0210	-3.218876
83	0xc04e0210	-3.218876
84	0xc04e0210	-3.218876
85	0xc04e0210	-3.218876
86	0xc04e0210	-3.218876
87	0xc04e0210	-3.218876
88	0xc04e0210	-3.218876
89	0xc04e0210	-3.218876
90	0xc04e0210	-3.218876
91	0xc04e0210	-3.218876
92	0xc04e0210	-3.218876
93	0xc04e0210	-3.218876
94	0xc04e0210	-3.218876
95	0xc04e0210	-3.218876
96	0xc04e0210	-3.218876
97	0xc04e0210	-3.218876
98	0xc04e0210	-3.218876
99	0xc04e0210	-3.218876
100	0xc04e0210	-3.218876
101	0xc04e0210	-3.218876
102	0xc04e0210	-3.218876
103	0xc04e0210	-3.218876
104	0xc04e0210	-3.218876
105	0xc04e0210	-3.218876
106	0xc04e0210	-3.218876
107	0xc04e0210	-3.218876
108	0xc04e0210	-3.218876
109	0xc04e0210	-3.218876
110	0xc04e0210	-3.218876
111	0xc04e0210	-3.218876
112	0xc04e0210	-3.218876
113	0xc04e0210	-3.218876
114	0xc04e0210	-3.218876
115	0xc04e0210	-3.218876
116	0xc04e0210	-3.218876
117	0xc04e0210	-3.218876
118	0xc04e0210	-3.218876
119	0xc04e0210	-3.218876
120	0xc04e0210	-3.218876
121	0xc04e0210	-3.218876
122	0xc04e0210	-3.218876
123	0xc04e0210	-3.218876
124	0xc04e0210	-3.218876
125	0xc04e0210	-3.218876
126	0xc04e0210	-3.218876
127	0xc04e0210	-3.218876
128	0xc04e0210	-3.218876
129	0xc04e0210	-3.218876
130	0xc04e0210	-3.218876
131	0xc04e0210	-3.218876
132	0xc04e0210	-3.218876
133	0xc04e0210	-3.218876
134	0xc04e0210	-3.218876
135	0xc04e0210	-3.218876
136	0xc04e0210	-3.218876
137	0xc04e0210	-3.218876
138	0xc04e0210	-3.218876
139	0xc04e0210	-3.218876
140	0xc04e0210	-3.218876
141	0xc04e0210	-3.218876
142	0xc04e0210	-3.218876
143	0xc04e0210	-3.218876
144	0xc04e0210	-3.218876
145	0xc04e0210	-3.218876
146	0xc04e0210	-3.218876
147	0xc04e0210	-3.218876
148	0xc04e0210	-3.218876
149	0xc04e0210	-3.218876
150	0xc04e0210	-3.218876
151	0xc04e0210	-3.218876
152	0xc04e0210	-3.218876
153	0xc04e0210	-3.218876
154	0xc04e0210	-3.218876
155	0xc04e0210	-3.218876
156	0xc04e0210	-3.218876
157	0xc04e0210	-3.218876
158	0xc04e0210	-3.218876
159	0xc04e0210	-3.218876
160	0xc04e0210	-3.218876
161	0xc04e0210	-3.218876
162	0xc04e0210	-3.218876
163	0xc04e0210	-3.218876
164	0xc04e0210	-3.218876
165	0xc04e0210	-3.218876
166	0xc04e0210	-3.218876
167	0xc04e0210	-3.218876
168	0xc04e0210	-3.218876
169	0xc04e0210	-3.218876
170	0xc04e0210	-3.218876
171	0xc04e0210	-3.218876
172	0xc04e0210	-3.218876
173	0xc04e0210	-3.218876
174	0xc04e0210	-3.218876
175	0xc04e0210	-3.218876
176	0xc04e0210	-3.218876
177	0xc04e0210	-3.218876
178	0xc04e0210	-3.218876
179	0xc04e0210	-3.218876
180	0xc04e0210	-3.218876
181	0xc04e0210	-3.218876
182	0xc04e0210	-3.218876
183	0xc04e0210	-3.218876
184	0xc04e0210	-3.218876
185	0xc04e0210	-3.218876
186	0xc04e0210	-3.218876
187	0xc04e0210	-3.218876
188	0xc04e0210	-3.218876
189	0xc04e0210	-3.218876
190	0xc04e0210	-3.218876
191	0xc04e0210	-3.218876
192	0xc04e0210	-3.218876
193	0xc04e0210	-3.218876
194	0xc04e0210	-3.218876
195	0xc04e0210	-3.218876
196	0xc04e0210	-3.218876
197	0xc04e0210	-3.218876
198	0xc04e0210	-3.218876
199	0xc04e0210	-3.218876
200	0xc04e0210	-3.218876
201	0xc04e0210	-3.218876
202	0xc04e0210	-3.218876
203	0xc04e0210	-3.218876
204	0xc04e0210	-3.218876
205	0xc04e0210	-3.218876
206	0xc04e0210	-3.218876
207	0xc04e0210	-3.218876
208	0xc04e0210	-3.218876
209	0xc04e0210	-3.218876
210	0xc04e0210	-3.218876
211	0xc04e0210	-3.218876
212	0xc04e0210	-3.218876
213	0xc04e0210	-3.218876
214	0xc04e0210	-3.218876
215	0xc04e0210	-3.218876
216	0xc04e0210	-3.218876
217	0xc04e0210	-3.218876
218	0xc04e0210	-3.218876
219	0xc04e0210	-3.218876
220	0xc04e0210	-3.218876
221	0xc04e0210	-3.218876
222	0xc04e0210	-3.218876
223	0xc04e0210	-3.218876
224	0xc04e0210	-3.218876
225	0xc04e0210	-3.218876
226	0xc04e0210	-3.218876
227	0xc04e0210	-3.218876
228	0xc04e0210	-3.218876
229	0xc04e0210	-3.218876
230	0xc04e0210	-3.218876
231	0xc04e0210	-3.218876
232	0xc04e0210	-3.218876
233	0xc04e0210	-3.218876
234	0xc04e0210	-3.218876
235	0xc04e0210	-3.218876
236	0xc04e0210	-3.218876
237	0xc04e0210	-3.218876
238	0xc04e0210	-3.218876
239	0xc04e0210	-3.218876
240	0xc04e0210	-3.218876
241	0xc04e0210	-3.218876
242	0xc04e0210	-3.218876
243	0xc04e0210	-3.218876
244	0xc04e0210	-3.218876
245	0xc04e0210	-3.218876
246	0xc04e0210	-3.218876
247	0xc04e0210	-3.218876
248	0xc04e0210	-3.218876
249	0xc04e0210	-3.218876
250	0xc04e0210	-3.218876
251	0xc04e0210	-3.218876
252	0xc04e0210	-3.218876
253	0xc04e0210	-3.218876
254	0xc04e0210	-3.218876
255	0xc04e0210	-3.218876

bias_mu f4 [128]
0	0x3a4ad54e	0.00077374734
1	0xbeab2000	-0.33422852
2	0xbb4cb6d1	-0.0031236897
3	0xbbe48f83	-0.0069751157
4	0xbe6c07bb	-0.23049824
5	0xbb7c993c	-0.0038543483
6	0x3ed87177	0.42274067
7	0xbc03ce43	-0.008044782
8	0xbe65e11a	-0.2244915
9	0xbee8ae20	-0.45445347
10	0xbf10ee5b	-0.566137
11	0xbb05d8b5	-0.0020423357
12	0xbf0d67fa	-0.5523678
13	0xbe36fa23	-0.17868857
14	0xbd5bb781	-0.0536418
15	0xbe55e7cf	-0.20889209
16	0x3ac73292	0.0015197566
17	0xbe8d0a87	-0.27547094
18	0xbf0757d6	-0.528684
19	0xbe3ae169	-0.1825005
20	0xbe7bc2be	-0.24586007
21	0xbc25eb72	-0.010126935
22	0xbe635b5e	-0.22202823
23	0xbe7dc4be	-0.24782082
24	0xbb92b964	-0.0044776667
25	0xbc0eff79	-0.008727902
26	0x3ec2517b	0.3795279
27	0xb8f21b09	-0.00011544495
28	0xbee6f357	-0.4510753
29	0xbe9ae232	-0.30250698
30	0xbef5beb6	-0.47997063
31	0xbe49f693	-0.19722967
32	0xbe637795	-0.22213586
33	0xbe6c116a	-0.23053518
34	0xbc2035fc	-0.009778496
35	0xbe60c12f	-0.21948694
36	0xbc68fd8f	-0.014220609
37	0xbe88a0e4	-0.2668525
38	0xbeb1f097	-0.34753868
39	0xbe73c2c2	-0.23804763
40	0xbf0b3e0a	-0.5439154
41	0xbc5fe334	-0.013665009
42	0x3bc5e8a4	0.006039696
43	0xbc58206f	-0.0131913265
44	0xbe6731c7	-0.22577582
45	0x3eab4873	0.33453712
46	0x3ebc6026	0.36792105
47	0xbc584ddc	-0.013202157
48	0x3ec06385	0.37575927
49	0xbe751abd	-0.23935981
50	0xbef09957	-0.4699199
51	0xbe31544d	-0.17317314
52	0xbe5ab6f6	-0.21358857
53	0xbe6d04bf	-0.23146342
54	0xbe4e37bf	-0.20138453
55	0xbe6b68b8	-0.22989166
56	0xbe6041e3	-0.21900134
57	0xbddc19a1	-0.10747076
58	0xbb3b02d0	-0.0028535612
59	0xbe6892bb	-0.22712223
60	0xbe68d16d	-0.2273614
61	0xbe5d4c69	-0.2161118
62	0xbe36a3d5	-0.17835934
63	0xbba4771a	-0.005019081
64	0x3df53143	0.119722866
65	0xbbb7bb16	-0.005607019
66	0x3e928887	0.28619787
67	0xbe83d283	-0.25746545
68	0xbe858816	-0.26080388
69	0xbe72f918	-0.23727834
70	0xbe6cdbc7	-0.23130713
71	0x3d333bc5	0.043758173
72	0xbe5b4c35	-0.2141579
73	0x3e97420c	0.29542577
74	0xbc0f9667	-0.008763886
75	0xbd16e4d6	-0.03683933
76	0xbe5c6c8b	-0.21525781
77	0xbe680eab	-0.22661845
78	0xbe72bd42	-0.23705009
79	0xbbe1f004	-0.006895067
80	0xbe28f0f7	-0.16498171
81	0xbe57882b	-0.21048038
82	0xbe4f95cf	-0.20271991
83	0xbe52dc42	-0.20591834
84	0xbeeda692	-0.46416146
85	0xbedbb4a1	-0.42911246
86	0xbbe02503	-0.0068403496
87	0xbe6c56cc	-0.23079985
88	0xbe2ffc08	-0.17185986
89	0xbe6315cb	-0.22176282
90	0xbe4fd494	-0.20295936
91	0x3eda0b5d	0.42586794
92	0xbe6a97e7	-0.22909509
93	0xbe713774	-0.2355631
94	0x3ecfab2a	0.40560275
95	0xbf0981de	-0.53713787
96	0xbbe33472	-0.006933742
97	0x3ef5bfad	0.479978
98	0xbc29c068	-0.010360815
99	0xbe3008a0	-0.1719079
100	0xbe3026a2	-0.17202237
101	0xbbaec0f5	-0.005333061
102	0xbc45e967	-0.012079573
103	0x3ed194f3	0.40933952
104	0xbe654c1f	-0.22392319
105	0xbbbee20f	-0.005825288
106	0xbdebb9ac	-0.115100235
107	0xb89b72da	-7.412369e-05
108	0x3da6e05b	0.08148261
109	0x3ebeafa9	0.37243393
110	0x3ed476f4	0.41497004
111	0xbe78a687	-0.24282275
112	0x3ece900c	0.40344274
113	0x3eeec200	0.46632385
114	0xbbb1f757	-0.0054310965
115	0xbeb4720f	-0.3524327
116	0xbe772700	-0.24135971
117	0x3ec076b6	0.3759057
118	0xbee7ddd1	-0.4528642
119	0xbe3ee6d5	-0.18642743
120	0xbe16bf05	-0.14721306
121	0x3e9c4321	0.30519965
122	0xbe57e96b	-0.21085136
123	0xbbcb2520	-0.006199494
124	0x3ed35f0b	0.4128345
125	0x3e847fb9	0.25878695
126	0xbdc433df	-0.09580206
127	0xbe59d4ef	-0.21272634

bias_logvar f4 [128]
0	0xc04e0210	-3.218876
1	0xc04e0210	-3.218876
2	0xc04e0210	-3.218876
3	0xc04e0210	-3.218876
4	0xc04e0210	-3.218876
5	0xc04e0210	-3.218876
6	0xc07413e0	-3.813713
7	0xc04e0210	-3.218876
8	0xc04e0210	-3.218876
9	0xc04e0953	-3.219319
10	0xc060986d	-3.5093033
11	0xc04e0210	-3.218876
12	0xc06dd99a	-3.7164063
13	0xc06934d2	-3.643849
14	0xc09a4a77	-4.82159
15	0xc04e0210	-3.218876
16	0xc04e0210	-3.218876
17	0xc04e0210	-3.218876
18	0xc092d56f	-4.588554
19	0xc04e0210	-3.218876
20	0xc04e0210	-3.218876
21	0xc04e0210	-3.218876
22	0xc04e0210	-3.218876
23	0xc04e0210	-3.218876
24	0xc04e0210	-3.218876
25	0xc04e0210	-3.218876
26	0xc050a6db	-3.260184
27	0xc04e0210	-3.218876
28	0xc068dd30	-3.6385002
29	0xc0897878	-4.2959557
30	0xc070f6b7	-3.7650583
31	0xc04e0210	-3.218876
32	0xc04e0210	-3.218876
33	0xc04e0210	-3.218876
34	0xc04e0210	-3.218876
35	0xc04e0210	-3.218876
36	0xc04e0210	-3.218876
37	0xc04e0210	-3.218876
38	0xc08e7edb	-4.4529853
39	0xc04e0210	-3.218876
40	0xc04f437e	-3.2384944
41	0xc04e0210	-3.218876
42	0xc04e0210	-3.218876
43	0xc04e0210	-3.218876
44	0xc04e0210	-3.218876
45	0xc04e11f2	-3.2198453
46	0xc053ec24	-3.3112879
47	0xc04e0210	-3.218876
48	0xc05da524	-3.4632044
49	0xc04e0210	-3.218876
50	0xc08b3a95	-4.350901
51	0xc04e0210	-3.218876
52	0xc04e0210	-3.218876
53	0xc04e0210	-3.218876
54	0xc04e0210	-3.218876
55	0xc04e0210	-3.218876
56	0xc04e0210	-3.218876
57	0xc0734d28	-3.8015842
58	0xc04e0210	-3.218876
59	0xc04e05a5	-3.2190945
60	0xc04e0210	-3.218876
61	0xc04e0210	-3.218876
62	0xc04e0210	-3.218876
63	0xc04e0210	-3.218876
64	0xc04e0210	-3.218876
65	0xc04e0210	-3.218876
66	0xc04e0210	-3.218876
67	0xc04e0210	-3.218876
68	0xc04e0210	-3.218876
69	0xc04e0210	-3.218876
70	0xc04e0210	-3.218876
71	0xc04e0210	-3.218876
72	0xc08d826d	-4.422171
73	0xc04e0575	-3.219083
74	0xc04e0210	-3.218876
75	0xc04e0210	-3.218876
76	0xc04e1a74	-3.2203646
77	0xc04e0210	-3.218876
78	0xc04e0210	-3.218876
79	0xc04e0210	-3.218876
80	0xc04e0210	-3.218876
81	0xc04e0210	-3.218876
82	0xc04e0210	-3.218876
83	0xc04e0210	-3.218876
84	0xc04ebfac	-3.2304487
85	0xc072853b	-3.7893817
86	0xc04e0210	-3.218876
87	0xc04e0210	-3.218876
88	0xc04e0210	-3.218876
89	0xc04e0210	-3.218876
90	0xc04e0210	-3.218876
91	0xc074f87b	-3.827666
92	0xc04e0210	-3.218876
93	0xc0812d84	-4.036806
94	0xc083d561	-4.119797
95	0xc08bc001	-4.367188
96	0xc04e0210	-3.218876
97	0xc093297e	-4.598815
98	0xc04e0210	-3.218876
99	0xc04e0210	-3.218876
100	0xc04e0210	-3.218876
101	0xc04e0210	-3.218876
102	0xc04e0210	-3.218876
103	0xc04e4a34	-3.223279
104	0xc04e0210	-3.218876
105	0xc04e0210	-3.218876
106	0xc053fe44	-3.3123941
107	0xc04e0210	-3.218876
108	0xc04e0210	-3.218876
109	0xc06c1fda	-3.689444
110	0xc05351cf	-3.3018682
111	0xc04e0210	-3.218876
112	0xc0961e74	-4.6912174
113	0xc087173c	-4.221586
114	0xc04e0210	-3.218876
115	0xc04e0210	-3.218876
116	0xc04e0210	-3.218876
117	0xc04fc594	-3.2464342
118	0xc089c483	-4.3052382
119	0xc04e0210	-3.218876
120	0xc04e0210	-3.218876
121	0xc04e0384	-3.2189646
122	0xc04e0210	-3.218876
123	0xc04e0210	-3.218876
124	0xc0626512	-3.5374188
125	0xc04e3d80	-3.2225037
126	0xc08fe9b4	-4.497278
127	0xc04e0210	-3.218876

z_mu f4 [128]
0	0x39a8192a	0.00032062206
1	0x3e31c701	0.1736107
2	0x38fb84f1	0.00011993375
3	0xb9037212	-0.00012535628
4	0xbc76248a	-0.01502336
5	0x3922d4ea	0.0001552884
6	0x3f033cff	0.5126495
7	0x3923ebc0	0.00015632715
8	0x3b8b6bb4	0.0042547826
9	0x3e57be62	0.21068719
10	0x3f7c7a2c	0.9862392
11	0x38a7e7b7	8.006341e-05
12	0x3f7d482c	0.9893825
13	0x3ed6fd43	0.41990098
14	0x3f2aa43d	0.6665686
15	0xbc3440b1	-0.011001752
16	0xb9420cda	-0.0001850607
17	0xbbb706fb	-0.005585549
18	0x3fafd316	1.3736293
19	0x3b4abde7	0.0030935945
20	0xbc5c31bd	-0.013439593
21	0x3894b8dc	7.091623e-05
22	0x3c06f163	0.008236262
23	0x3bc84224	0.0061114
24	0x381a7301	3.6823567e-05
25	0xb9ab0359	-0.00032618156
26	0x3e9a0c0e	0.30087322
27	0xb95315b8	-0.00020130619
28	0x3f4a1eb8	0.78953123
29	0x3f833517	1.0250577
30	0x3f925971	1.1433545
31	0x3bf9ec85	0.0076270723
32	0xbc9a488b	-0.01883342
33	0xb8c8bd2a	-9.571978e-05
34	0x388f42f3	6.8312416e-05
35	0xbb21b771	-0.002467599
36	0x386e3498	5.6792604e-05
37	0xbc2e6c7d	-0.010645983
38	0x3f7d1af0	0.9886923
39	0xb90caf4a	-0.0001341674
40	0x3f4d06d7	0.8008856
41	0x397cc944	0.0002410757
42	0xba0fda55	-0.0005487551
43	0x38b724fe	8.73301e-05
44	0x3b862774	0.0040940586
45	0x3e7847da	0.24246159
46	0x3e9bba7e	0.3041572
47	0xb5b4e940	-1.347893e-06
48	0x3ebcbc5f	0.36862466
49	0xbb92e0ff	-0.004482388
50	0x3f9eed21	1.2416116
51	0xbd02e475	-0.031956155
52	0x3afd019c	0.0019302848
53	0xbc4965df	-0.012292354
54	0xbc73dbc5	-0.01488394
55	0xbabbc476	-0.0014325518
56	0x3c137361	0.008999676
57	0x3ec93b11	0.39302877
58	0x35db4a72	1.6338438e-06
59	0xbb2ddf7e	-0.0026530917
60	0x3b17bf00	0.0023154616
61	0xbc9166b3	-0.017749166
62	0xbc112abd	-0.008860287
63	0x381cefe2	3.7416707e-05
64	0x3b3c5b77	0.002874104
65	0xb896b0c8	-7.1854854e-05
66	0x3dff8d5d	0.12478135
67	0x3b4c2703	0.0031151182
68	0x3c0275c8	0.007962652
69	0xb8cea900	-9.854324e-05
70	0x3b564008	0.0032691974
71	0xbb9094de	-0.0044122776
72	0x3f48fb98	0.785089
73	0x3e1fdb8a	0.15611091
74	0x35f36662	1.8134708e-06
75	0xb9ddd930	-0.00042314222
76	0x3a98b05b	0.0011649238
77	0x3bb163fb	0.00541353
78	0xbb05e76b	-0.0020432125
79	0x397f4264	0.00024343428
80	0x3b9034e3	0.004400836
81	0x3a31bb93	0.0006779965
82	0xbb5f694a	-0.0034089857
83	0x3c3613f3	0.011113155
84	0x3f2d93d5	0.678037
85	0x3f582ae7	0.84440464
86	0xb94d0845	-0.00019553404
87	0xbaac6f39	-0.0013155706
88	0x3b1bfe5d	0.0023802735
89	0xbb9e0193	-0.004821965
90	0xbc01aa64	-0.007914159
91	0x3ed201ca	0.4101699
92	0x3b9aa257	0.0047190594
93	0x3f57cd85	0.8429797
94	0x3f030ed5	0.51194507
95	0x3f950c17	1.1644315
96	0xb9eea49f	-0.0004551755
97	0x3f23d81c	0.6400163
98	0x38da539c	0.000104106235
99	0xbc113794	-0.0088633485
100	0xb9e1669a	-0.00042991788
101	0x3957138f	0.00020511284
102	0xb9f50a54	-0.00046737737
103	0x3e9a4307	0.30129263
104	0x3a56d569	0.0008195253
105	0x387820e0	5.9158425e-05
106	0x3ea13d7c	0.3149222
107	0xb6f35831	-7.252231e-06
108	0x3bd721f8	0.0065653287
109	0x3ef0a7d6	0.4700305
110	0x3ea732b5	0.32655874
111	0xbb377c28	-0.0027997587
112	0x3f344d51	0.70430475
113	0x3effb159	0.49939993
114	0xb9b85683	-0.0003515967
115	0x3e5abfe9	0.2136227
116	0xb998d959	-0.00029153636
117	0x3e43bde2	0.19115403
118	0x3f95fd66	1.1717956
119	0xbb09c496	-0.0021021715
120	0x3e37e03f	0.17956637
121	0x3de9fa03	0.11424639
122	0x3be8052c	0.0070806947
123	0xb8b62ea4	-8.687124e-05
124	0x3ea716ed	0.32634678
125	0x3e0475b8	0.12935531
126	0x3f0ebb19	0.5575424
127	0xbc59495b	-0.013262118

z_logvar f4 [128]
0	0xc12cb44f	-10.794021
1	0xc047892f	-3.117748
2	0xc1305daa	-11.022867
3	0xc131b17c	-11.105831
4	0xc07c927a	-3.9464402
5	0xc13362d6	-11.21163
6	0xc096f808	-4.7177773
7	0xc130d04e	-11.050856
8	0xc091be68	-4.554493
9	0xc042eddc	-3.0457678
10	0xc09df37d	-4.9359727
11	0xc131a720	-11.103302
12	0xc0ac3ee8	-5.382679
13	0xc09359ee	-4.6047277
14	0xc0bc871b	-5.8914924
15	0xc091b397	-4.5531726
16	0xc130cf4c	-11.05061
17	0xc044fcd5	-3.0779316
18	0xc0aec7e5	-5.461901
19	0xc0bce398	-5.9027824
20	0xc083617e	-4.105651
21	0xc12e975b	-10.911952
22	0xc099003f	-4.78128
23	0xc08150e6	-4.0411253
24	0xc13327af	-11.197188
25	0xc133095b	-11.189784
26	0xc09b1fda	-4.847638
27	0xc1344d19	-11.268823
28	0xc096127d	-4.689757
29	0xc0992bc7	-4.786594
30	0xc086846b	-4.2036643
31	0xc09781de	-4.734603
32	0xc08c469a	-4.3836184
33	0xc0951bf5	-4.6596627
34	0xc12fd563	-10.989596
35	0xc08e32b8	-4.4436913
36	0xc12f34d0	-10.950394
37	0xc0685d3b	-3.6306903
38	0xc0a5ac32	-5.17727
39	0xc095eb1b	-4.6849494
40	0xc0589359	-3.3839934
41	0xc1347ea1	-11.280915
42	0xc130f446	-11.059637
43	0xc1285f4b	-10.523265
44	0xc08e39f2	-4.4445734
45	0xc08bce06	-4.3688993
46	0xc0886978	-4.2628746
47	0xc131c688	-11.11097
48	0xc0972861	-4.723679
49	0xc08ba1e0	-4.36351
50	0xc09ebe6b	-4.9607444
51	0xc09ba44f	-4.863807
52	0xc09ee111	-4.964974
53	0xc079e3c8	-3.9045277
54	0xc094e948	-4.6534767
55	0xc0859227	-4.174091
56	0xc078d76d	-3.8881485
57	0xc0956aab	-4.669271
58	0xc134d0f1	-11.301011
59	0xc08677d9	-4.20213
60	0xc096bcc0	-4.710541
61	0xc0a1a9a2	-5.051957
62	0xc0a52330	-5.1605453
63	0xc133a84e	-11.22859
64	0xc08c0437	-4.3755145
65	0xc1324990	-11.14296
66	0xc086f395	-4.217234
67	0xc0508226	-3.2579436
68	0xc0804a10	-4.009041
69	0xc09d37d0	-4.913063
70	0xc08b98ca	-4.362401
71	0xc0820b4a	-4.063878
72	0xc0ae0547	-5.438144
73	0xc07e598c	-3.9742155
74	0xc1309450	-11.036209
75	0xc0826338	-4.0746117
76	0xc091647e	-4.543517
77	0xc089bced	-4.304312
78	0xc092f667	-4.5925784
79	0xc12f8127	-10.969031
80	0xc0973c9d	-4.726149
81	0xc0a26466	-5.0747557
82	0xc09a9b30	-4.831444
83	0xc064ef3d	-3.577102
84	0xc03aca65	-2.9186032
85	0xc0881b6d	-4.253348
86	0xc12b4928	-10.70536
87	0xc08f7678	-4.4832115
88	0xc0ae6fe0	-5.4511566
89	0xc091aae4	-4.5521107
90	0xc09a47a3	-4.8212447
91	0xc09ce8f5	-4.903437
92	0xc082efdf	-4.091781
93	0xc0913fb4	-4.5390263
94	0xc0a5246f	-5.1606975
95	0xc09ec4c7	-4.9615207
96	0xc135d102	-11.363527
97	0xc0a5e4fd	-5.1842027
98	0xc1333000	-11.199219
99	0xc091b3de	-4.5532064
100	0xc0b0c801	-5.5244145
101	0xc13427b0	-11.259689
102	0xc12b79ac	-10.717205
103	0xc08f8ee3	-4.486192
104	0xc09a85d4	-4.8288364
105	0xc12efd96	-10.936911
106	0xc094f466	-4.654834
107	0xc134aefe	-11.292723
108	0xc080371d	-4.0067277
109	0xc09e0875	-4.9385324
110	0xc09cc3d1	-4.8989034
111	0xc0885e53	-4.261514
112	0xc0b67800	-5.7021484
113	0xc0a1ee2a	-5.0603228
114	0xc12fe889	-10.994271
115	0xc05ba317	-3.4318292
116	0xc0802fdf	-4.0058436
117	0xc0970428	-4.7192574
118	0xc08f0554	-4.4694004
119	0xc095f648	-4.6863136
120	0xc08dcc9a	-4.431226
121	0xc0883890	-4.2569046
122	0xc09e609b	-4.9492927
123	0xc132a759	-11.165856
124	0xc09cb860	-4.8975067
125	0xc08b5535	-4.3541512
126	0xc0aec83a	-5.4619417
127	0xc0912c41	-4.536652

weight_mu f4 [2, 128]
0	0x3b8d2be4	0.0043082107
1	0xbeff1029	-0.49817017
2	0x3cd5fa72	0.026120398
3	0x3b24ce02	0.0025147204
4	0xbb59ba60	-0.003322266
5	0xbc89e6ba	-0.016833652
6	0x3f0670d8	0.52515936
7	0xbc36f18d	-0.011165989
8	0xbb44391d	-0.0029941269
9	0xbf05fad5	-0.52335864
10	0xbf0b199d	-0.5433596
11	0x3c52a4d5	0.012856682
12	0xbf009f16	-0.50242746
13	0xbee1f4e2	-0.44132143
14	0xbeb5b59a	-0.35490113
15	0xbd94c146	-0.072634265
16	0xbd2eeabd	-0.042704333
17	0x3d4b8d7b	0.049695473
18	0xbf4e0a52	-0.804845
19	0x3d848c54	0.06472078
20	0xbc977609	-0.0184889
21	0xbc0f192a	-0.008734027
22	0xbcb3f5b5	-0.021967748
23	0x3c2182cb	0.009857844
24	0xbb6e5232	-0.003636491
25	0x3c41fc04	0.01183987
26	0x3f01f694	0.50766873
27	0x3cb3084b	0.02185454
28	0xbed7d962	-0.42158037
29	0xbf157492	-0.58381
30	0xbf23c963	-0.63979167
31	0xbbd47c85	-0.0064845704
32	0xbdc8f466	-0.0981224
33	0x3cb7d287	0.022439254
34	0xbb6bceac	-0.003598134
35	0xbcba9afb	-0.022778979
36	0xbc3331a7	-0.010937131
37	0xbc403a93	-0.011732715
38	0xbf3c5299	-0.73563534
39	0xbd3c1d0f	-0.04592615
40	0xbf373f0d	-0.7158058
41	0xbc6497cb	-0.013952206
42	0x3d02b3eb	0.031909864
43	0xbb705359	-0.0036670773
44	0x3bc471c5	0.0059950077
45	0x3ef28ca7	0.47372934
46	0x3f0ec936	0.55775774
47	0x3acdb9cd	0.0015695632
48	0x3ee08bdc	0.43856704
49	0xbd3813a3	-0.044940602
50	0xbf39b25d	-0.72537786
51	0xbd85ca08	-0.06532675
52	0xbd06e62a	-0.032934345
53	0xbd288071	-0.041138116
54	0x3d3f0d69	0.04664365
55	0x3cc3b174	0.023888327
56	0x3d92bcfd	0.07164953
57	0xbec5100b	-0.38488802
58	0x3ba750d9	0.0051060733
59	0xbc331134	-0.0109293945
60	0xbd303774	-0.043021634
61	0x3ccc8d61	0.024969758
62	0x3cc85401	0.024454119
63	0xbc632e23	-0.01386598
64	0x3e6b4cd2	0.22978523
65	0xbc1373f7	-0.008999816
66	0x3ed424af	0.41434237
67	0x3bb0cde4	0.005395638
68	0xbd3ee6e2	-0.046606906
69	0x3d087bc3	0.033321153
70	0xbd8a5f0f	-0.06756412
71	0x3e2f2a40	0.17105961
72	0xbecfabf6	-0.40560883
73	0x3f0b1dfd	0.54342633
74	0xbc727fa8	-0.014800943
75	0x3e21ae65	0.15789182
76	0x3d292e11	0.041303698
77	0xbca4c0e0	-0.020111501
78	0xbc4e8912	-0.012605922
79	0xbb94cc23	-0.0045409366
80	0x3c951006	0.018196117
81	0xbc0bb213	-0.008526343
82	0xbcb3789d	-0.021908099
83	0xbe941c51	-0.28927854
84	0xbf4b0df6	-0.7931818
85	0xbf1cd80d	-0.6126717
86	0x3cbefa97	0.02331285
87	0xbb2fe837	-0.0026841292
88	0x3c0f5c27	0.008749998
89	0x3bce785b	0.0063009686
90	0x3c20e7b2	0.0098208655
91	0x3ee00fe3	0.4376212
92	0xbcd216cd	-0.025645638
93	0xbf429b6b	-0.760184
94	0x3ed467c6	0.41485423
95	0xbf390d11	-0.7228556
96	0x3cf5c5ff	0.030001638
97	0x3edd8ad5	0.43269983
98	0x3b40e0c4	0.0029430846
99	0xbc3a3153	-0.011364299
100	0xbd898e07	-0.06716543
101	0xbb7d115e	-0.0038615088
102	0x3cb00712	0.021487746
103	0x3efa2d1d	0.48862544
104	0xbc0a4294	-0.008438725
105	0xbb7c72f6	-0.003852067
106	0xbec45ce4	-0.3835212
107	0xbbff3262	-0.0077879885
108	0x3e4a3a04	0.19748694
109	0x3ef840f6	0.4848706
110	0x3ed4df29	0.41576508
111	0xbc89be0e	-0.016814258
112	0x3ec9e091	0.39429143
113	0x3ed1b924	0.40961564
114	0x3d002ce1	0.0312928
115	0xbeded2ca	-0.43520194
116	0xbb7aa02e	-0.0038242447
117	0x3eeb22ea	0.45925075
118	0xbf3a82ab	-0.72855633
119	0x3a889c7b	0.0010422611
120	0xbeb30673	-0.34965858
121	0x3ec7e4af	0.3904166
122	0x3d63a220	0.055574536
123	0x3c03ccc7	0.008044428
124	0x3edf9196	0.4366576
125	0x3ecc2a0c	0.3987583
126	0xbeb91887	-0.36151525
127	0x3d37644a	0.044773377
128	0xbb7c8e37	-0.0038536915
129	0x3eff444f	0.49856803
130	0xbcf3253d	-0.029680843
131	0xbb919296	-0.0044425232
132	0x3baaa49c	0.0052076112
133	0x3c91e08f	0.017807273
134	0xbf0730db	-0.5280892
135	0x3c669f8c	0.014076125
136	0x3c5dbc5b	0.013533677
137	0x3f03cdb1	0.51485735
138	0x3f0b5f54	0.54442334
139	0xbc450af2	-0.012026535
140	0x3f00ed56	0.50362146
141	0x3ee5a7f2	0.44854695
142	0x3eb69ef9	0.35668162
143	0x3da73514	0.08164421
144	0x3d2cafa6	0.0421597
145	0xbd59ee90	-0.053206027
146	0x3f4dcffc	0.80395484
147	0xbd75e584	-0.060033336
148	0x3ce24452	0.027620468
149	0x3c465184	0.012104396
150	0x3cd75a49	0.026288169
151	0xbc1109ec	-0.008852463
152	0x3baee3e6	0.005337226
153	0xbc1d630f	-0.009606137
154	0xbf02cb1a	-0.5109116
155	0xbc83118d	-0.01599958
156	0x3ed6b5e2	0.4193564
157	0x3f1712e5	0.59013206
158	0x3f258bb5	0.646663
159	0xba08db74	-0.00052206893
160	0x3dbe4d3f	0.09292077
161	0xbcb47d9a	-0.022032548
162	0x3a67ad84	0.00088378065
163	0x3cd0641b	0.025438359
164	0x3c4b36e1	0.012403221
165	0x3c78688b	0.015161644
166	0x3f3bf01f	0.7341327
167	0x3d801107	0.06253248
168	0x3f3921e4	0.7231734
169	0x3c7774c7	0.0151035255
170	0xbd04c5dc	-0.032415256
171	0x3b1edc9d	0.0024240382
172	0xbc41f0df	-0.011837213
173	0xbeefe407	-0.4685366
174	0xbf0cf138	-0.5505557
175	0xbb1c53ea	-0.0023853728
176	0xbee09447	-0.43863127
177	0x3d42e3f9	0.047580693
178	0x3f39acbd	0.725292
179	0x3d7b9c5e	0.06142842
180	0x3d07cce8	0.0331544
181	0x3d4fdda7	0.050748494
182	0xbd5a2cbc	-0.05326532
183	0xbc99e060	-0.018783748
184	0xbd80dc4c	-0.06292018
185	0x3ec590e5	0.38587108
186	0xbbcd9ed1	-0.006275036
187	0x38ad3a88	8.260185e-05
188	0x3d2ff6eb	0.04296009
189	0xbcbcea77	-0.02306102
190	0xbce5e3bc	-0.028062694
191	0x3c2c8f90	0.010532275
192	0xbe7340d1	-0.23755194
193	0x3bf61687	0.0075100097
194	0xbed74553	-0.42045078
195	0xbbbb6e77	-0.0057199555
196	0x3d5b57eb	0.053550642
197	0xbd006501	-0.031346325
198	0x3d8d8ae3	0.06911256
199	0xbe3225fb	-0.17397301
200	0x3ece3842	0.40277296
201	0xbf0988a8	-0.53724146
202	0x3c8212f9	0.015878187
203	0xbe26bbc2	-0.16282561
204	0xbce3666e	-0.027758803
205	0x3c7ac265	0.015305136
206	0x3c9c61d1	0.019089611
207	0x3b92e864	0.0044832695
208	0xbcab8aea	-0.020940263
209	0x3c353c78	0.01106178
210	0x3cb0abc8	0.021566287
211	0x3e92fe1f	0.28709504
212	0x3f4d4db3	0.80196685
213	0x3f1c10d9	0.6096321
214	0xbca9edf1	-0.020743342
215	0x3bd985c5	0.006638261
216	0xba5aabec	-0.00083416584
217	0xbb8255aa	-0.003977497
218	0xbbf37513	-0.007429728
219	0xbee0e3fc	-0.43923938
220	0x3cf2ce2f	0.029639332
221	0x3f442a62	0.7662717
222	0xbed5e3f8	-0.4177549
223	0x3f396fc9	0.72436196
224	0xbce0b3ff	-0.027429579
225	0xbeddea95	-0.43343034
226	0xbb298920	-0.0025869086
227	0x3cb066be	0.021533366
228	0x3d9a6aea	0.075399235
229	0x3b80daf2	0.0039323503
230	0xbca701c4	-0.020386584
231	0xbef953ad	-0.48696652
232	0x3c1a38ac	0.009412926
233	0x399bdc22	0.00029727916
234	0x3ec607cf	0.38677832
235	0x3bac9e90	0.0052679256
236	0xbe525fcc	-0.20544356
237	0xbefa634c	-0.48903883
238	0xbed2f182	-0.4119988
239	0x3c774d5e	0.015094129
240	0xbecbb383	-0.39785394
241	0xbed36822	-0.41290385
242	0xbce3e52e	-0.027819242
243	0x3ee29722	0.4425593
244	0x3c0be14a	0.0085376
245	0xbeeb5169	-0.4596055
246	0x3f3a4fed	0.7277821
247	0xbb4874f5	-0.003058729
248	0x3eb0508e	0.34436458
249	0xbeca3ea9	-0.3950093
250	0xbd41bfb1	-0.04730195
251	0xbc173a53	-0.009230214
252	0xbedcb124	-0.43103898
253	0xbec4b040	-0.38415718
254	0x3eb8c327	0.3608639
255	0xbd476696	-0.048681818
