metric/probe_finetune_sample1.pth (torch, 539539 bytes, 12 tensors)

z_mu f4 [512]
00000000: b139 073a b12f b63a 6ebb 59ba 87e3 0dbc
00000010: fd97 fb3a bccc 9d3b 353f 863b 5775 7a3f
00000020: aca1 0c3a 76ba 003f 3e3c 55b9 64f0 0b3f
00000030: 17c8 863f 5016 4e3f 76e5 963f 0027 b43b
00000040: 7683 cabb 6771 423b acbb 003f e5d7 083b
00000050: a7a2 d7ba fe74 203c 4048 2e39 92b4 82bb
00000060: 1380 a839 dce3 feba c148 cab9 6089 4b3b
00000070: 05f2 7c3f 93dc 5c3b ebb2 64bb d298 a23e
00000080: 1192 1f3b 3bd2 aa3c b5b7 5d3f 71b9 10bb
00000090: eaa1 b1ba b893 113a 35e4 bfb9 5ed9 953f
000000a0: a6e9 4d3f e75b 4b3f b218 b0bb 8d8e e83b
000000b0: 5ed0 2539 7bdd e9bb bfc3 913f cda6 973b
000000c0: d41f 993d 16a1 f0bb 6eeb 4b3f 0374 3bba
000000d0: 4baa 7839 5fb6 99ba 4389 453f e3fd 1f3e
000000e0: cc54 773f 8902 4b3b bed9 053d e132 fa3d
000000f0: 73d7 92bb 6687 e5ba 5b9b 093c c262 a73b
00000100: 4d32 be3c efb7 103b 8f6f 743a bb96 68bb
00000110: bed9 42bb 12fd 783a ef31 3c3d b26c cfbb
00000120: 5fc2 d43b 7266 a33b ca7d 02bb cabb f5bb
00000130: d611 e43a 3a6b 203f 3757 0cbb 0f98 9f3f
00000140: b79f 473f 5d88 2ebb 18af 3eb9 fd09 a4bb
00000150: 77d3 0f3c e006 11bc dce8 b23a bc2a 833f
00000160: 1ce4 903a 8242 653f d2de 553f b572 f0bb
00000170: 6ea1 2dba 55d4 a13f 2a37 853b d621 c23a
00000180: 265b 323a dbb3 5d3f 497c f53a 1e48 e4ba
00000190: 5fbc 983a a666 7abb 6994 e439 ceb7 cbbb
000001a0: 35bb b8b9 6423 613f 8960 8c3f 2493 733b
000001b0: 07b3 7ab9 80c0 98bb 1b52 c9b8 a629 a7ba
000001c0: 330a 8e3a 53db 42bb 4c0c 8d3f c66a 683f
000001d0: ff89 b6ba da48 b73b 6b8b 71bc 784b 353b
000001e0: a2b4 5b3f e1de e9bb 0f5d 1e3b 4c19 6f3f
000001f0: d511 103f 73f6 553b ce7f 5bba f9bd 783b
00000200: 1aa0 4239 b632 39bb cda8 2b3b 9c6c da3a
00000210: c1cb cbba c216 2a3c 4cde 0c3f fd80 eb3a
00000220: c4fa db3f 3e31 1fbb bbe7 363d be65 903f
00000230: 2d8c 14ba 2e60 a13f 8131 893f d642 15ba
00000240: ef56 6bbc d19c cf3a 8430 013b adcc a6ba
00000250: 368b 05bc d243 4c3c d1ec 4b3b fe94 3fbb
00000260: 112e 9b3b 3636 fa39 3380 5a3a 0ca2 92ba
00000270: 792d a33f 93dd 963f 4b4e e9bb caa5 893b
00000280: 8e2a 083d a8d7 fbba 332d 913d 0ee1 4b3f
00000290: 45d4 e33b 4869 d7ba 4128 3a3b 1041 863f
000002a0: 1e9b b53f 761e 873b 940d 843f 24b1 7e3f
000002b0: 46b0 243f f277 f038 751a 1d3f 2368 d9b9
000002c0: 22b7 84bb 64c3 133f 15b0 343a 895d ef3b
000002d0: 293f 113f 4154 083c 4a4e e8bb 44de a13b
000002e0: 7682 b03e f5ca 6f3f c3e7 8abb 325a 893f
000002f0: 2348 c53f dc04 483c ba2a 2f3f 64fe 3cbb
00000300: baee b23b 2fee 43bb 2cb7 093b 680d 29bb
00000310: 712d 693b 058d 063f 37ce 413f d342 573f
00000320: e78a 573b eece 313f b490 863f 3085 383a
00000330: 60ee 673f a4f0 4fbb fc52 41b9 e2d1 3bbb
00000340: f767 8cbb 4153 ccbb 846c 2a3b e273 1c3f
00000350: a374 833f 4991 d33b b69b b63b 512f 563f
00000360: 6f96 7b3f 432e e93a 63b5 65bc b6ef 5a3b
00000370: 153e c73e 3c5f 2fbb aaf8 733f bfbf 6e3f
00000380: 4a6a 183c 17c6 373b 9d12 ba3a f536 91ba
00000390: ba52 b5ba ff58 543a ab1d b8ba 74e2 24bb
000003a0: c74d f93b f321 f7bb 9e9b 013a 33b9 a03f
000003b0: a798 473f a7e1 413b 68f5 b5bb eccf 5b3f
000003c0: 9faf bb3b 2e3a ce38 2b85 e23a 5130 21ba
000003d0: e608 7a3f 01dc 75ba f308 d53b 47dc 133b
000003e0: b189 673a ce49 853f 173a 0b3c 1869 533f
000003f0: f066 b33a df36 af3f 13a8 ca3a b8b5 adbb
0.0005158438 0.0013899711 -0.0008305822 -0.008660204 0.0019195076 0.004815666 0.0040968903 0.97835296
0.0005364667 0.50284517 -0.00020335705 0.5466368 1.0529813 0.80502796 1.1788776 0.005497813
-0.006180222 0.0029669644 0.50286365 0.0020880636 -0.0016451672 0.009793518 0.00016620848 -0.003988811
0.0003213888 -0.001944657 -0.00038582648 0.0031057224 0.9880679 0.0033700808 -0.0034896682 0.31757218
0.0024348537 0.020852199 0.8660844 -0.0022083188 -0.0013552282 0.0005553323 -0.00036600386 1.170696
0.80434644 0.79437107 -0.0053740377 0.0070970715 0.00015813249 -0.007136998 1.1387862 0.0046280385
0.07476774 -0.0073434217 0.7965611 -0.0007150771 0.00023714562 -0.0011727324 0.7716257 0.15624194
0.96613765 0.0030976853 0.03267836 0.12216736 -0.00448125 -0.0017511665 0.008398856 0.0051082084
0.023217345 0.002208229 0.0009324485 -0.0035490233 -0.0029731835 0.00094981596 0.045946058 -0.006330096
0.0064928974 0.0049865777 -0.0019911402 -0.007499193 0.0017400335 0.62663615 -0.0021414289 1.246828
0.7797808 -0.0026631572 -0.0001818504 -0.0050060735 0.0087784445 -0.008851737 0.001364972 1.0247416
0.001105431 0.8955461 0.8354312 -0.007337893 -0.0006623481 1.2642924 0.004065414 0.0014811109
0.00068037433 0.8660256 0.0018729056 -0.0017416512 0.0011652819 -0.0038208156 0.00043598123 -0.0062169796
-0.00035234695 0.87944627 1.096696 0.003716656 -0.00023908551 -0.0046616197 -9.59972e-05 -0.0012753501
0.001083678 -0.0029732778 1.1019378 0.90787923 -0.0013926624 0.0055934014 -0.0147427125 0.002766339
0.858225 -0.007137165 0.0024164354 0.93397975 0.5627721 0.0032648116 -0.00083732314 0.003795503
0.00018560924 -0.0028258986 0.0026193142 0.0016664448 -0.0015548394 0.010381402 0.550267 0.0017967519
1.7185903 -0.0024290825 0.04465459 1.1281049 -0.000566664 1.2607477 1.0718232 -0.0005693858
-0.014363988 0.0015839582 0.0019712755 -0.0012725793 -0.008150866 0.0124673415 0.0031116495 -0.0029233093
0.004735716 0.00047724106 0.0008335143 -0.001118721 1.2748252 1.1786369 -0.007119929 0.004200672
0.03324371 -0.0019214051 0.07088699 0.7964028 0.0069527947 -0.0016434574 0.002840534 1.0488605
1.4187963 0.0041235043 1.0316644 0.99489045 0.6433147 0.00011466433 0.61368495 -0.00041467053
-0.0040501514 0.5772002 0.00068926933 0.0073048514 0.56737 0.008320869 -0.007089411 0.004939826
0.34474534 0.9366906 -0.004239054 1.073065 1.5412639 0.01220819 0.6842457 -0.0028838152
0.0054605873 -0.0029896607 0.002101372 -0.0025795344 0.0035580064 0.5255893 0.75705284 0.8408634
0.0032889189 0.69456375 1.051291 0.00070388895 0.90598106 -0.0031729126 -0.00018436828 -0.0028659035
-0.0042848545 -0.0062355106 0.0026004622 0.61114323 1.026997 0.0064565283 0.0055727614 0.8366595
0.9827642 0.0017790276 -0.014020297 0.003340704 0.38914552 -0.0026759645 0.95301306 0.9326133
0.009302685 0.0028041655 0.0014196221 -0.0011079 -0.0013833859 0.00081004197 -0.0014046928 -0.002515939
0.0076081487 -0.007541889 0.0004944148 1.2556518 0.77967304 0.0029583962 -0.0055529363 0.8586414
0.005727723 9.833682e-05 0.0017282119 -0.00061488623 0.9766983 -0.00093787914 0.006501311 0.0022561715
0.00088324683 1.0413148 0.008497736 0.82582235 0.0013687294 1.368862 0.0015461467 -0.0053012036

z_logvar f4 [512]
00000000: db4e bec0 8f43 9fc0 978d 9bc0 3290 85c0
00000010: 7245 9ec0 be07 a9c0 ba04 9fc0 3eea 97c0
00000020: 36c3 a2c0 a816 91c0 2a1d a3c0 bb59 6cc0
00000030: 80c6 9cc0 9fce 90c0 63f0 b2c0 423c abc0
00000040: 7011 a9c0 1bff abc0 267d 8cc0 b959 a5c0
00000050: 1d4d 8ec0 2779 8ac0 cae7 acc0 1d07 9ac0
00000060: c50e a0c0 27aa a0c0 6388 a5c0 c640 9ac0
00000070: 117b 9ac0 103b 97c0 1291 88c0 8dee 39c0
00000080: 8bd1 a0c0 3e75 78c0 b59c 88c0 9f56 c6c0
00000090: e6f1 96c0 71a3 9bc0 02f0 b2c0 8ea5 54c0
000000a0: 706b 9ec0 a2fa 93c0 9f25 a9c0 4d6c 72c0
000000b0: 545e 93c0 614b 88c0 4aa0 a0c0 d653 84c0
000000c0: dbb7 70c0 1ef8 7bc0 7962 8ec0 2692 9bc0
000000d0: b665 95c0 eb00 a1c0 2ad3 96c0 a011 53c0
000000e0: 5dbe 97c0 8b15 98c0 3c42 68c0 ff2c 5ec0
000000f0: 5bb9 abc0 f4f9 99c0 b52e 8cc0 fb82 8ac0
00000100: 259a 5dc0 cf64 adc0 9131 a5c0 5652 8bc0
00000110: 1d81 abc0 0d47 a7c0 5fc0 51c0 c8e4 81c0
00000120: 90b5 9dc0 ad1d 91c0 cd58 a0c0 84f2 a3c0
00000130: e62d b6c0 8d41 98c0 416b a4c0 4081 acc0
00000140: 5bca 8dc0 2d1e c1c0 7f3a 98c0 d374 aec0
00000150: 2c7e 6fc0 7304 a3c0 0ffc aec0 aaaa a6c0
00000160: c39e adc0 6b51 83c0 9c5e 8bc0 1d52 9fc0
00000170: e3fa a5c0 844a bdc0 8555 92c0 1061 b0c0
00000180: b002 b5c0 0c2b b4c0 d986 99c0 5ffc 93c0
00000190: 8313 9ec0 5412 97c0 2bd2 b3c0 9cc3 98c0
000001a0: ee92 b0c0 c20e 9ec0 04e7 a6c0 00e4 82c0
000001b0: f470 a6c0 507c 91c0 69f5 bbc0 f542 9ec0
000001c0: 7548 abc0 3b2b acc0 fd14 a5c0 97b8 99c0
000001d0: 2e52 9fc0 d514 98c0 c0c5 88c0 a37e aec0
000001e0: 2d61 a6c0 3129 8bc0 597d 97c0 ab32 96c0
000001f0: 9110 87c0 df7a 93c0 6a7a b1c0 73e1 6ac0
00000200: 42db 9bc0 0270 9fc0 4bbc 92c0 08da a5c0
00000210: 80b5 82c0 1283 97c0 e80d 75c0 9554 abc0
00000220: 1412 bac0 f5d0 93c0 b00e 3bc0 49e5 98c0
00000230: 0b95 a6c0 7c4f a8c0 d9fa bcc0 1f99 9dc0
00000240: b8fd 75c0 061d 83c0 4921 9cc0 45b7 afc0
00000250: 8da4 9cc0 357e 78c0 5563 8fc0 7d2a 9ec0
00000260: c5d1 a6c0 6e2f b8c0 8aa4 b4c0 8095 a8c0
00000270: 1bf9 b0c0 cf69 a3c0 8c98 92c0 415b 90c0
00000280: 8a98 50c0 d631 a4c0 7818 4ec0 061a 9ec0
00000290: 6a04 a6c0 b995 87c0 082a b2c0 447d b8c0
000002a0: 51c3 b9c0 2d2b 87c0 32a3 7cc0 12b0 b7c0
000002b0: 3f80 92c0 a1e8 afc0 79bb 7bc0 8f4c 96c0
000002c0: 6ace 94c0 c1f1 8ac0 2b05 a8c0 31dd a3c0
000002d0: 9388 86c0 155b 9ac0 3dee 98c0 d60d a3c0
000002e0: 54ba 70c0 3dd7 86c0 5fef a0c0 1dce 95c0
000002f0: e5c6 b8c0 e63f 80c0 3db8 77c0 c7eb 84c0
00000300: ed4d 99c0 e153 a5c0 21f1 b8c0 a201 a0c0
00000310: 9f57 9cc0 c2da 6ac0 3e5c 96c0 18ff 84c0
00000320: e48a aec0 7632 64c0 52da a7c0 34c3 93c0
00000330: f6a6 8dc0 0c52 a5c0 33b0 81c0 32f0 b6c0
00000340: 92ea b0c0 8a80 90c0 af17 7fc0 d3a1 9dc0
00000350: b1a8 95c0 ecea 8dc0 2943 98c0 72e2 8ac0
00000360: 34c6 a8c0 3914 96c0 a482 84c0 0a8f 9cc0
00000370: 2b1b 32c0 60cb 8fc0 e61e 9cc0 7bc8 9cc0
00000380: bd11 89c0 f7e9 89c0 e1f1 90c0 5fb7 97c0
00000390: 0ca5 7fc0 e7c0 abc0 fa80 9cc0 7813 a0c0
000003a0: f156 97c0 db20 88c0 0e8b afc0 fc73 a8c0
000003b0: db0f 93c0 946b 7ec0 d37f b8c0 cba5 a3c0
000003c0: 4fec 96c0 a0f9 a2c0 2c3a a8c0 7fa5 afc0
000003d0: f593 90c0 b213 a7c0 bc7b 8cc0 b853 84c0
000003e0: e09a b2c0 6c82 98c0 14d6 8fc0 ca28 86c0
000003f0: 44a9 9bc0 72f6 a2c0 24e8 98c0 7c8f 9fc0
-5.947126 -4.976997 -4.861034 -4.173852 -4.945977 -5.282195 -4.969327 -4.747344
-5.0863295 -4.5340157 -5.09731 -3.6929767 -4.899231 -4.5252223 -5.591844 -5.3511057
-5.2833786 -5.374891 -4.390277 -5.1672025 -4.4469132 -4.327289 -5.4032946 -4.8133683
-5.001803 -5.0207705 -5.172899 -4.820407 -4.8275228 -4.72596 -4.267709 -2.905185
-5.025579 -3.882156 -4.2691293 -6.198074 -4.7170286 -4.8637013 -5.591798 -3.3226047
-4.950615 -4.624345 -5.2858424 -3.7878602 -4.6052647 -4.2592015 -5.0195665 -4.135234
-3.7612216 -3.9370189 -4.4495206 -4.8615904 -4.668666 -5.031362 -4.713277 -3.2979507
-4.7419877 -4.7526298 -3.6290426 -3.4714963 -5.3663764 -4.811762 -4.3807015 -4.328489
-3.4625332 -5.4185557 -5.1623006 -4.353801 -5.359511 -5.227423 -3.2773664 -4.0591774
-4.9284134 -4.5348725 -5.01084 -5.123354 -5.693103 -4.758002 -5.1380925 -5.3907776
-4.4309516 -6.0349336 -4.7571406 -5.451761 -3.742076 -5.094293 -5.468269 -5.208333
-5.42563 -4.1036887 -4.355299 -4.9787736 -5.186876 -5.915346 -4.5729394 -5.5118484
-5.656578 -5.6302547 -4.797711 -4.624557 -4.939882 -4.7209873 -5.6194053 -4.773878
-5.5179358 -4.9393015 -5.2157 -4.090332 -5.201288 -4.546425 -5.8737073 -4.9456735
-5.352595 -5.380277 -5.158812 -4.803783 -4.9787817 -4.752543 -4.2741394 -5.4529586
-5.1993623 -4.3487782 -4.734051 -4.693685 -4.2207723 -4.608749 -5.546193 -3.6700103
-4.870515 -4.982423 -4.585485 -5.182865 -4.084656 -4.73475 -3.8289738 -5.354075
-5.814707 -4.6192575 -2.9227715 -4.777989 -5.2056937 -5.2597027 -5.905621 -4.9249415
-3.8436108 -4.097293 -4.879063 -5.491122 -4.895087 -3.882703 -4.4808755 -4.9426866
-5.2131066 -5.7557898 -5.6450853 -5.2682495 -5.5304084 -5.106666 -4.5811214 -4.5111394
-3.2593102 -5.1310835 -3.2202435 -4.9406767 -5.188039 -4.2370267 -5.567631 -5.765291
-5.8050923 -4.2240205 -3.9474607 -5.740243 -4.578155 -5.497147 -3.9333174 -4.6968455
-4.650197 -4.342011 -5.250631 -5.120751 -4.2041717 -4.8236184 -4.779082 -5.095439
-3.7613726 -4.213774 -5.02922 -4.6814103 -5.774279 -4.0078 -3.87062 -4.1537814
-4.7907624 -5.166489 -5.7794347 -5.0001993 -4.885696 -3.669602 -4.69876 -4.1561394
-5.4544544 -3.56558 -5.2454004 -4.6175785 -4.426631 -5.1662655 -4.0527587 -5.7168207
-5.528634 -4.515691 -3.9858205 -4.926004 -4.676842 -4.434927 -4.7581983 -4.3401423
-5.2741947 -4.6899686 -4.1409473 -4.892461 -2.7829082 -4.493576 -4.878772 -4.8994727
-4.2834153 -4.30981 -4.529526 -4.741134 -3.9944487 -5.3672976 -4.890744 -5.0023766
-4.729363 -4.2540107 -5.4857244 -5.2641582 -4.5956855 -3.975316 -5.7656035 -5.1139884
-4.7163463 -5.092972 -5.257101 -5.488952 -4.518061 -5.221154 -4.3901043 -4.1352196
-5.5814056 -4.7659206 -4.4948826 -4.192479 -4.8644123 -5.0925837 -4.7783375 -4.986265

weight_mu f4 [128, 512]
00000000: 9a26 b639 ec3f a439 c824 6439 c0da 2cba
00000010: 41f7 49b8 9d46 a738 79b6 68b8 819c 52bb
00000020: 8fac 5eb7 5cb9 70ba 1096 6939 ebb9 40b9
00000030: 5746 5c3b 4383 89ba c0e8 c9ba a097 9ab8
00000040: 473e f139 5acd 81ba 09db d93a a67b 813a
00000050: 8dc0 3fba cd5e a9ba 6657 0aba d3b1 ddb9
00000060: 1da4 7438 8903 3dba c676 20ba 3da2 a7ba
00000070: 0962 69bb 6b5e 463a d577 463a cdb3 43b9
00000080: 08c2 4439 f00f 67ba dc85 97ba 9c0c 89b9
00000090: 1afd 13ba e33f 0238 dd7d 5b36 b875 a23a
000000a0: 92b9 5bbb 2dc5 16ba dfbe 3cba 6c72 f23a
000000b0: 4963 90b8 96d5 3c3a c371 9cba fa53 073b
000000c0: 41ef b8ba d24b 25b9 9e33 7b3a 232a 9cb8
000000d0: bc65 383a bca5 35ba 6a95 b9ba 3ac5 2739
000000e0: ba82 55bb 6f6c 2bb8 1d1c 7c3a b29f 8fb9
000000f0: 5a41 213a f04e 7fba e746 27b7 ddf0 ba39
00000100: 1799 a5ba 5e77 a5b9 6702 ecb9 bd2d 853a
00000110: 5c04 553a 46fd d3b9 8948 5b3a 6da9 16ba
00000120: 12e5 1638 1eec 93ba a175 d7b9 5e2f 5939
00000130: d019 7c3a b97b c6b9 9136 23ba 23df c4ba
00000140: c2fd 0bbb b636 9bb9 05e3 38b9 e623 46b8
00000150: 4025 d7b9 6b97 e138 c6a2 263a c47a 1fba
00000160: ea45 9839 dfe0 a73a 557e 8e39 d394 ecb9
00000170: 01fb 753a c613 54bb 6cd8 62b9 6a34 bfb9
00000180: 060d b6b9 12a8 d7ba aa6b 9a39 6ea4 aa39
00000190: a1d8 753a 7c52 943a 84ea 92ba c0e2 3e38
000001a0: 17ad 9839 f0a2 20bb 7bda 8abb f8b9 403a
000001b0: 546f 63b9 b6b2 6f3a 2e98 af39 09a2 1bb9
000001c0: f011 7f3a e608 9c3a 75ac b739 0ddb c238
000001d0: 6c19 bdb9 8ff3 af39 e5fc 0b3a a090 97ba
000001e0: e935 9cba e168 bcb9 64d1 e4b8 97a3 2bba
000001f0: 0299 2aba ec79 0eba a607 bab9 4cc3 57ba
00000200: a4ef 2fba 86a1 a1b9 7c77 68ba f060 fa39
00000210: 765c 6ab9 9e1c 073a 05ee 5bb8 ead9 a638
00000220: 24fe 6eba 1f6a 53b9 db70 82ba 0026 25b9
00000230: 1dcd b439 7057 38bb b359 29bb f52d 2aba
00000240: 6555 6aba 7007 c5ba 1477 aa3a 2568 853a
00000250: 958d 0839 fa42 6939 4490 a13a 84fc 3cba
00000260: e2e0 af3a 1459 fcb8 54cd 213a e227 c7b9
00000270: c72e 68bb 8cd7 c539 cadb 093a b2a9 e5b9
00000280: 681c 8aba 998f 03b6 dc51 2fba 93cb af3b
00000290: de93 75ba e671 9e39 1b0d 02b9 0286 7fbb
000002a0: 52c5 23bb c5a4 483a aaf9 3f39 6272 5aba
000002b0: f249 faba 71f1 593a 37df 343a 48c7 41ba
000002c0: d6ec 74ba 7c32 e93a 6898 f9b8 eefb 84ba
000002d0: 1813 88b8 233d 41ba c3fe 90b9 287e 213a
000002e0: ded8 0fba 9837 63ba 6ff2 8eb9 cbe6 f3b9
000002f0: 1503 f6ba 390e 51bb 9dc7 5a3a b7e0 20ba
00000300: 41c1 3eb9 5a7f 81ba 12af 87b9 fda5 1eba
00000310: ef01 5f3a c5e1 1ab9 ae06 73ba 4ffa d8ba
00000320: 3a50 ecb9 4ac3 2f3a 90c5 2fbb bf5b 533a
00000330: 8a1b cb3a b93d b739 d727 193a 44af 0eb8
00000340: 0c82 d939 eeea c338 3cd5 213a 4398 f8ba
00000350: 2806 90ba 8e23 92b9 fb5c e139 0550 f5ba
00000360: 1556 beba aecb a1b8 74e2 aeb9 30b1 ffb9
00000370: ccd6 12bb fa08 363a 671a 64b8 e728 803a
00000380: 8bc1 8fb9 acee 85ba 9dd0 feb8 2591 a5b9
00000390: f288 0f3a ecaf a8ba 0765 f139 dff9 0dba
000003a0: d493 e639 30f7 dd39 355a 043a ac23 7239
000003b0: 5db9 f9b9 713e c7ba a273 0239 d2a6 a1b8
000003c0: c7cc 94ba f62b 40ba 107b 2cba ce45 24b9
000003d0: 0827 26bb fa2d 4aba d21a 18ba 69dd bfb9
000003e0: 62a1 9639 f8b2 8538 c3c4 743a e7dd 28ba
000003f0: 3b79 3cba 0e0d b739 e923 cab8 3116 0f3a
0.00034742506 0.00031328143 0.00021757476 -0.00065938756 -4.8152408e-05 7.976333e-05 -5.548305e-05 -0.003213674
-1.3272408e-05 -0.0009182894 0.00022276514 -0.00018379807 0.0033611262 -0.001049139 -0.0015404448 -7.3715346e-05
0.00046013502 -0.0009903118 0.0016621064 0.0009878769 -0.0007314764 -0.001292193 -0.00052773056 -0.00042284894
5.8326976e-05 -0.00072103046 -0.0006121214 -0.001278944 -0.0035611412 0.000756717 0.0007570957 -0.0001866363
0.00018764299 -0.00088143256 -0.0011560279 -0.0002614007 -0.000564532 3.1053914e-05 3.2706805e-06 0.0012394702
-0.0033527357 -0.00057514274 -0.0007200073 0.0018497235 -6.8849484e-05 0.00072034576 -0.0011935759 0.002064942
-0.0014109389 -0.00015763871 0.00095825817 -7.446508e-05 0.00070342026 -0.00069292984 -0.0014158909 0.00015999834
-0.003257914 -4.0870564e-05 0.00096172263 -0.00027394068 0.0006151401 -0.00097392406 -9.970484e-06 0.00035656142
-0.0012634125 -0.00031560188 -0.00045015218 0.0010160726 0.0008125955 -0.0004043376 0.00083649956 -0.00057472923
3.5976125e-05 -0.0011285578 -0.00041095636 0.00020712378 0.00096168835 -0.00037857683 -0.00062260876 -0.0015020113
-0.0021360968 -0.00029604667 -0.00017632179 -4.724031e-05 -0.0004103575 0.0001075704 0.00063566526 -0.0006083662
0.0002904379 0.0012808106 0.00027178475 -0.0004512431 0.0009383411 -0.0032360419 -0.00021633663 -0.0003646941
-0.00034723448 -0.0016453287 0.00029453385 0.00032547436 0.00093782885 0.0011316086 -0.0011208807 4.5510707e-05
0.0002912066 -0.002451118 -0.0042374707 0.000735193 -0.0002168988 0.00091437565 0.00033491984 -0.00014842315
0.0009730151 0.0011904507 0.0003503297 9.291442e-05 -0.0003606783 0.00033560066 0.00053401134 -0.0011563487
-0.0011917922 -0.00035936295 -0.00010910889 -0.0006547509 -0.00065077853 -0.0005435038 -0.00035482383 -0.00082307006
-0.00067114295 -0.00030828657 -0.0008867902 0.0004775594 -0.00022350423 0.00051541056 -5.243534e-05 7.9560865e-05
-0.00091168494 -0.00020162061 -0.0009951846 -0.00015749782 0.00034485097 -0.0028128289 -0.0025840818 -0.00064918335
-0.00089391164 -0.0015032124 0.0013005459 0.0010178132 0.00013022714 0.00022245562 0.001232632 -0.00072092586
0.0013418461 -0.000120328885 0.0006172259 -0.00037985953 -0.0035428272 0.00037735363 0.00052588864 -0.00043804717
-0.001053703 -1.9604106e-06 -0.0006687918 0.005364844 -0.0009368042 0.0003022097 -0.00012402648 -0.0038989787
-0.0024989438 0.0007653947 0.00018308187 -0.00083330844 -0.0019095524 0.00083138706 0.00068997167 -0.0007392061
-0.00093431526 0.0017791535 -0.00011901633 -0.0010145882 -6.488542e-05 -0.0007371476 -0.00027655633 0.00061604613
-0.0005487333 -0.0008667647 -0.00027264978 -0.00046520526 -0.0018769229 -0.0031899347 0.0008345785 -0.0006137001
-0.00018191805 -0.0009879873 -0.00025879644 -0.0006051956 0.0008507063 -0.0001477069 -0.00092707097 -0.001655409
-0.000450732 0.00067048206 -0.0026820637 0.00080626825 0.0015495878 0.00034950467 0.00058424234 -3.4018667e-05
0.00041486358 9.342084e-05 0.0006173437 -0.0018966276 -0.0010988163 -0.0002787378 0.0004298462 -0.0018715864
-0.0014521504 -7.7150165e-05 -0.00033356587 -0.00048769405 -0.002240586 0.00069440866 -5.4384025e-05 0.0009777815
-0.00027419286 -0.0010218224 -0.00012150521 -0.00031579394 0.00054754235 -0.0012869812 0.00046042373 -0.0005415957
0.0004397916 0.00042336574 0.0005048842 0.00023092207 -0.00047631087 -0.0015201104 0.00012440843 -7.708151e-05
-0.0011352532 -0.00073307694 -0.0006579617 -0.00015666263 -0.0025352854 -0.00077125395 -0.00058023364 -0.00036595322
0.0002873047 6.37527e-05 0.0009337181 -0.00064417574 -0.00071896956 0.00034914206 -9.6387994e-05 0.0005458324

weight_logvar f4 [128, 512]
00000000: 1002 4ec0 1002 4ec0 1002 4ec0 1002 4ec0
00000010: 1002 4ec0 1002 4ec0 1002 4ec0 1002 4ec0
00000020: 1002 4ec0 1002 4ec0 1002 4ec0 1002 4ec0
00000030: 1002 4ec0 1002 4ec0 1002 4ec0 1002 4ec0
00000040: 1002 4ec0 1002 4ec0 1002 4ec0 1002 4ec0
00000050: 1002 4ec0 1002 4ec0 1002 4ec0 1002 4ec0
00000060: 1002 4ec0 1002 4ec0 1002 4ec0 1002 4ec0
00000070: 1002 4ec0 1002 4ec0 1002 4ec0 1002 4ec0
00000080: 1002 4ec0 1002 4ec0 1002 4ec0 1002 4ec0
00000090: 1002 4ec0 1002 4ec0 1002 4ec0 1002 4ec0
000000a0: 1002 4ec0 1002 4ec0 1002 4ec0 1002 4ec0
000000b0: 1002 4ec0 1002 4ec0 1002 4ec0 1002 4ec0
000000c0: 1002 4ec0 1002 4ec0 1002 4ec0 1002 4ec0
000000d0: 1002 4ec0 1002 4ec0 1002 4ec0 1002 4ec0
000000e0: 1002 4ec0 1002 4ec0 1002 4ec0 1002 4ec0
000000f0: 1002 4ec0 1002 4ec0 1002 4ec0 1002 4ec0
00000100: 1002 4ec0 1002 4ec0 1002 4ec0 1002 4ec0
00000110: 1002 4ec0 1002 4ec0 1002 4ec0 1002 4ec0
00000120: 1002 4ec0 1002 4ec0 1002 4ec0 1002 4ec0
00000130: 1002 4ec0 1002 4ec0 1002 4ec0 1002 4ec0
00000140: 1002 4ec0 1002 4ec0 1002 4ec0 1002 4ec0
00000150: 1002 4ec0 1002 4ec0 1002 4ec0 1002 4ec0
00000160: 1002 4ec0 1002 4ec0 1002 4ec0 1002 4ec0
00000170: 1002 4ec0 1002 4ec0 1002 4ec0 1002 4ec0
00000180: 1002 4ec0 1002 4ec0 1002 4ec0 1002 4ec0
00000190: 1002 4ec0 1002 4ec0 1002 4ec0 1002 4ec0
000001a0: 1002 4ec0 1002 4ec0 1002 4ec0 1002 4ec0
000001b0: 1002 4ec0 1002 4ec0 1002 4ec0 1002 4ec0
000001c0: 1002 4ec0 1002 4ec0 1002 4ec0 1002 4ec0
000001d0: 1002 4ec0 1002 4ec0 1002 4ec0 1002 4ec0
000001e0: 1002 4ec0 1002 4ec0 1002 4ec0 1002 4ec0
000001f0: 1002 4ec0 1002 4ec0 1002 4ec0 1002 4ec0
00000200: 1002 4ec0 1002 4ec0 1002 4ec0 1002 4ec0
00000210: 1002 4ec0 1002 4ec0 1002 4ec0 1002 4ec0
00000220: 1002 4ec0 1002 4ec0 1002 4ec0 1002 4ec0
00000230: 1002 4ec0 1002 4ec0 1002 4ec0 1002 4ec0
00000240: 1002 4ec0 1002 4ec0 1002 4ec0 1002 4ec0
00000250: 1002 4ec0 1002 4ec0 1002 4ec0 1002 4ec0
00000260: 1002 4ec0 1002 4ec0 1002 4ec0 1002 4ec0
00000270: 1002 4ec0 1002 4ec0 1002 4ec0 1002 4ec0
00000280: 1002 4ec0 1002 4ec0 1002 4ec0 1002 4ec0
00000290: 1002 4ec0 1002 4ec0 1002 4ec0 1002 4ec0
000002a0: 1002 4ec0 1002 4ec0 1002 4ec0 1002 4ec0
000002b0: 1002 4ec0 1002 4ec0 1002 4ec0 1002 4ec0
000002c0: 1002 4ec0 1002 4ec0 1002 4ec0 1002 4ec0
000002d0: 1002 4ec0 1002 4ec0 1002 4ec0 1002 4ec0
000002e0: 1002 4ec0 1002 4ec0 1002 4ec0 1002 4ec0
000002f0: 1002 4ec0 1002 4ec0 1002 4ec0 1002 4ec0
00000300: 1002 4ec0 1002 4ec0 1002 4ec0 1002 4ec0
00000310: 1002 4ec0 1002 4ec0 1002 4ec0 1002 4ec0
00000320: 1002 4ec0 1002 4ec0 1002 4ec0 1002 4ec0
00000330: 1002 4ec0 1002 4ec0 1002 4ec0 1002 4ec0
00000340: 1002 4ec0 1002 4ec0 1002 4ec0 1002 4ec0
00000350: 1002 4ec0 1002 4ec0 1002 4ec0 1002 4ec0
00000360: 1002 4ec0 1002 4ec0 1002 4ec0 1002 4ec0
00000370: 1002 4ec0 1002 4ec0 1002 4ec0 1002 4ec0
00000380: 1002 4ec0 1002 4ec0 1002 4ec0 1002 4ec0
00000390: 1002 4ec0 1002 4ec0 1002 4ec0 1002 4ec0
000003a0: 1002 4ec0 1002 4ec0 1002 4ec0 1002 4ec0
000003b0: 1002 4ec0 1002 4ec0 1002 4ec0 1002 4ec0
000003c0: 1002 4ec0 1002 4ec0 1002 4ec0 1002 4ec0
000003d0: 1002 4ec0 1002 4ec0 1002 4ec0 1002 4ec0
000003e0: 1002 4ec0 1002 4ec0 1002 4ec0 1002 4ec0
000003f0: 1002 4ec0 1002 4ec0 1002 4ec0 1002 4ec0
-3.218876 -3.218876 -3.218876 -3.218876 -3.218876 -3.218876 -3.218876 -3.218876
-3.218876 -3.218876 -3.218876 -3.218876 -3.218876 -3.218876 -3.218876 -3.218876
-3.218876 -3.218876 -3.218876 -3.218876 -3.218876 -3.218876 -3.218876 -3.218876
-3.218876 -3.218876 -3.218876 -3.218876 -3.218876 -3.218876 -3.218876 -3.218876
-3.218876 -3.218876 -3.218876 -3.218876 -3.218876 -3.218876 -3.218876 -3.218876
-3.218876 -3.218876 -3.218876 -3.218876 -3.218876 -3.218876 -3.218876 -3.218876
-3.218876 -3.218876 -3.218876 -3.218876 -3.218876 -3.218876 -3.218876 -3.218876
-3.218876 -3.218876 -3.218876 -3.218876 -3.218876 -3.218876 -3.218876 -3.218876
-3.218876 -3.218876 -3.218876 -3.218876 -3.218876 -3.218876 -3.218876 -3.218876
-3.218876 -3.218876 -3.218876 -3.218876 -3.218876 -3.218876 -3.218876 -3.218876
-3.218876 -3.218876 -3.218876 -3.218876 -3.218876 -3.218876 -3.218876 -3.218876
-3.218876 -3.218876 -3.218876 -3.218876 -3.218876 -3.218876 -3.218876 -3.218876
-3.218876 -3.218876 -3.218876 -3.218876 -3.218876 -3.218876 -3.218876 -3.218876
-3.218876 -3.218876 -3.218876 -3.218876 -3.218876 -3.218876 -3.218876 -3.218876
-3.218876 -3.218876 -3.218876 -3.218876 -3.218876 -3.218876 -3.218876 -3.218876
-3.218876 -3.218876 -3.218876 -3.218876 -3.218876 -3.218876 -3.218876 -3.218876
-3.218876 -3.218876 -3.218876 -3.218876 -3.218876 -3.218876 -3.218876 -3.218876
-3.218876 -3.218876 -3.218876 -3.218876 -3.218876 -3.218876 -3.218876 -3.218876
-3.218876 -3.218876 -3.218876 -3.218876 -3.218876 -3.218876 -3.218876 -3.218876
-3.218876 -3.218876 -3.218876 -3.218876 -3.218876 -3.218876 -3.218876 -3.218876
-3.218876 -3.218876 -3.218876 -3.218876 -3.218876 -3.218876 -3.218876 -3.218876
-3.218876 -3.218876 -3.218876 -3.218876 -3.218876 -3.218876 -3.218876 -3.218876
-3.218876 -3.218876 -3.218876 -3.218876 -3.218876 -3.218876 -3.218876 -3.218876
-3.218876 -3.218876 -3.218876 -3.218876 -3.218876 -3.218876 -3.218876 -3.218876
-3.218876 -3.218876 -3.218876 -3.218876 -3.218876 -3.218876 -3.218876 -3.218876
-3.218876 -3.218876 -3.218876 -3.218876 -3.218876 -3.218876 -3.218876 -3.218876
-3.218876 -3.218876 -3.218876 -3.218876 -3.218876 -3.218876 -3.218876 -3.218876
-3.218876 -3.218876 -3.218876 -3.218876 -3.218876 -3.218876 -3.218876 -3.218876
-3.218876 -3.218876 -3.218876 -3.218876 -3.218876 -3.218876 -3.218876 -3.218876
-3.218876 -3.218876 -3.218876 -3.218876 -3.218876 -3.218876 -3.218876 -3.218876
-3.218876 -3.218876 -3.218876 -3.218876 -3.218876 -3.218876 -3.218876 -3.218876
-3.218876 -3.218876 -3.218876 -3.218876 -3.218876 -3.218876 -3.218876 -3.218876

bias_mu f4 [128]
00000000: 63be d7ba 466b cbbb 2b3b 073d b59b b5bb
00000010: b735 7cbd 3ecb 39bc 7bd8 333f 402d eabd
00000020: 5905 28be d169 98be 0ad9 6fbf 5e72 4ebc
00000030: dc8e 82bb 81b2 1dbf 8e36 33bf a069 5fbf
00000040: b733 3ebb d749 21be 49a2 19bf 19e6 c5bb
00000050: 01b9 1cbe c5f1 16be 9d7e d8bb 56ac 2dbe
00000060: d8c6 64bb fbb8 21be 5297 f5bd 4973 843a
00000070: 27ca 27be b955 2ebf 7c24 2dbf fb76 d9bc
00000080: e372 47bf 7608 17be eae3 7a3e ef1e 19be
00000090: c714 7bbc fc3d 43bf 03e2 00bf 4007 3ebe
000000a0: a849 36bf 0493 88bc f1bf 753f 46a6 edbd
000000b0: 16cc 39bf aadf 1dbe 928c fd3e af36 f2be
000000c0: c9de 2d3b 54a9 1bbe c642 f4bb b7f5 43be
000000d0: b7ad 5cbf 1e01 aebb 69c2 3cbf 31f6 07bf
000000e0: 5ad1 2dbf 5d6d f4be f70f 0fbf bcea d2be
000000f0: 9f83 28be 65d4 743f bbe9 14be 20d4 66bf
00000100: b4d7 4c3f 6bc1 11be b97b a7bb 0a1b 1ebf
00000110: e1b8 42be 08b0 3fbf 89da ffbe dbe0 04be
00000120: fd96 1bbe f174 0abb dfae 9ebb 630b 5c3f
00000130: 54d1 9dbe d2b9 23bf a254 14be d3c6 6dbb
00000140: ec17 76be 6d98 69b9 93e8 8cbc 787b 37bf
00000150: 6c94 12be 40e4 41be d38b 403f f650 38be
00000160: 4001 0cbe 7b41 4abe 8ad2 6a3f 3352 04bd
00000170: 260e 593b 0b4a 37bf bd73 1a3f f509 27be
00000180: 531b 6a3f c368 f0be f3c6 7cbc cb66 d2bd
00000190: dccd 0dbc d7cd e4be b166 01bf 8bf4 013f
000001a0: e888 1abe da6f d3bb bef4 3cbf fb13 2f3a
000001b0: e2c7 b03b 0eb4 ed3b 545a 5b3f 079d 94be
000001c0: 6072 16be 927c 7cbc 57b3 293f a1ea 23bf
000001d0: b9af f0be c11a 8c3e 3182 1abf 972a a4ba
000001e0: 3853 5dbf 7290 213f b4d8 debb 721c 5c3b
000001f0: 9f5b 293f 7e89 25be 2e19 13be c564 343f
-0.0016459938 -0.0062078563 0.03301541 -0.0055422434 -0.061574664 -0.011339961 0.702522 -0.11434412
-0.1640829 -0.29768232 -0.9369055 -0.012600509 -0.0039843153 -0.616005 -0.7000512 -0.87270546
-0.0029022524 -0.15750824 -0.6001325 -0.0060393927 -0.15304948 -0.14740665 -0.0066068904 -0.16960272
-0.003490856 -0.1579322 -0.11991753 0.0010105158 -0.16385709 -0.6809955 -0.67633796 -0.026545992
-0.7790968 -0.14749321 0.24501005 -0.14953206 -0.015324778 -0.76266456 -0.50344867 -0.18557453
-0.7120614 -0.016671665 0.95996004 -0.1160398 -0.72577035 -0.15417352 0.4952131 -0.47307345
0.0026530495 -0.15201312 -0.007454249 -0.19136702 -0.8620257 -0.005310192 -0.73734146 -0.53110033
-0.6789757 -0.47739688 -0.55883735 -0.41194713 -0.1645646 0.9563659 -0.14542286 -0.9016743
0.80016637 -0.1423394 -0.0051111844 -0.6176001 -0.19015838 -0.7487798 -0.49971417 -0.129764
-0.15194316 -0.0021126831 -0.0048426236 0.85954875 -0.30823767 -0.63955414 -0.1448541 -0.0036281839
-0.24032563 -0.00022277395 -0.017200744 -0.71672773 -0.14314431 -0.18934727 0.75213355 -0.17999634
-0.13672352 -0.19751541 0.9172751 -0.032304954 0.0033120005 -0.71597356 0.6033285 -0.16312392
0.91447943 -0.46954927 -0.015428293 -0.102735125 -0.008655038 -0.44688293 -0.5054732 0.5076377
-0.15091288 -0.0064525427 -0.73810947 0.00066786975 0.0053949216 0.00725413 0.85684705 -0.29026052
-0.14692068 -0.015410559 0.66289276 -0.6402989 -0.47009066 0.27364162 -0.60354906 -0.00125249
-0.86455107 0.6311103 -0.0068007354 0.003358629 0.6615543 -0.1616573 -0.14365074 0.7046626

bias_logvar f4 [128]
00000000: 1002 4ec0 1002 4ec0 1002 4ec0 1002 4ec0
00000010: 1002 4ec0 1002 4ec0 1002 4ec0 1002 4ec0
00000020: 1002 4ec0 411b 4ec0 4879 5fc0 1002 4ec0
00000030: 1002 4ec0 1002 4ec0 1002 4ec0 6dfe 51c0
00000040: 1002 4ec0 1002 4ec0 1002 4ec0 1002 4ec0
00000050: 1002 4ec0 1002 4ec0 1002 4ec0 1002 4ec0
00000060: 1002 4ec0 1002 4ec0 1002 4ec0 1002 4ec0
00000070: 1002 4ec0 1002 4ec0 1002 4ec0 1002 4ec0
00000080: 0d03 4ec0 1002 4ec0 1002 4ec0 1002 4ec0
00000090: 1002 4ec0 1002 4ec0 7d17 4ec0 1002 4ec0
000000a0: 1002 4ec0 1002 4ec0 15b1 4fc0 1002 4ec0
000000b0: cf1c 4ec0 1002 4ec0 1002 4ec0 1002 4ec0
000000c0: 1002 4ec0 1002 4ec0 1002 4ec0 1002 4ec0
000000d0: 1002 4ec0 1002 4ec0 f041 4ec0 cf55 4ec0
000000e0: 2a3a 57c0 1002 4ec0 1002 4ec0 1002 4ec0
000000f0: 1002 4ec0 9a5c 4ec0 1002 4ec0 48d0 55c0
00000100: 50cf 51c0 1002 4ec0 1002 4ec0 b33b 4ec0
00000110: 1002 4ec0 cf1e 55c0 1002 4ec0 1002 4ec0
00000120: 1002 4ec0 1002 4ec0 1002 4ec0 0a99 4ec0
00000130: 1002 4ec0 1002 4ec0 1002 4ec0 1002 4ec0
00000140: 1002 4ec0 1002 4ec0 1002 4ec0 0a25 51c0
00000150: 1002 4ec0 1002 4ec0 3b47 4ec0 1002 4ec0
00000160: 1002 4ec0 1002 4ec0 bc05 4ec0 1002 4ec0
00000170: 1002 4ec0 6026 4ec0 ec07 4ec0 1002 4ec0
00000180: e712 4ec0 8c29 4ec0 1002 4ec0 1002 4ec0
00000190: 1002 4ec0 1002 4ec0 6b05 4ec0 1002 4ec0
000001a0: 1002 4ec0 1002 4ec0 9902 4ec0 1002 4ec0
000001b0: 1002 4ec0 1002 4ec0 d152 4ec0 4883 4ec0
000001c0: 1002 4ec0 1002 4ec0 1002 4ec0 1002 4ec0
000001d0: 1002 4ec0 1002 4ec0 7e3a 4fc0 1002 4ec0
000001e0: e65c 4ec0 d10d 4ec0 1002 4ec0 1002 4ec0
000001f0: 1002 4ec0 1002 4ec0 1002 4ec0 1002 4ec0
-3.218876 -3.218876 -3.218876 -3.218876 -3.218876 -3.218876 -3.218876 -3.218876
-3.218876 -3.2204134 -3.4917774 -3.218876 -3.218876 -3.218876 -3.218876 -3.281154
-3.218876 -3.218876 -3.218876 -3.218876 -3.218876 -3.218876 -3.218876 -3.218876
-3.218876 -3.218876 -3.218876 -3.218876 -3.218876 -3.218876 -3.218876 -3.218876
-3.2189362 -3.218876 -3.218876 -3.218876 -3.218876 -3.218876 -3.2201836 -3.218876
-3.218876 -3.218876 -3.2451832 -3.218876 -3.2205083 -3.218876 -3.218876 -3.218876
-3.218876 -3.218876 -3.218876 -3.218876 -3.218876 -3.218876 -3.2227745 -3.2239873
-3.362925 -3.218876 -3.218876 -3.218876 -3.218876 -3.224402 -3.218876 -3.3408375
-3.2782784 -3.218876 -3.218876 -3.2223938 -3.218876 -3.3300054 -3.218876 -3.218876
-3.218876 -3.218876 -3.218876 -3.2280908 -3.218876 -3.218876 -3.218876 -3.218876
-3.218876 -3.218876 -3.218876 -3.2678857 -3.218876 -3.218876 -3.2230976 -3.218876
-3.218876 -3.218876 -3.2191 -3.218876 -3.218876 -3.2210922 -3.2192335 -3.218876
-3.2199037 -3.2212858 -3.218876 -3.218876 -3.218876 -3.218876 -3.2190807 -3.218876
-3.218876 -3.218876 -3.2189085 -3.218876 -3.218876 -3.218876 -3.2238047 -3.2267628
-3.218876 -3.218876 -3.218876 -3.218876 -3.218876 -3.218876 -3.237945 -3.218876
-3.22442 -3.2195933 -3.218876 -3.218876 -3.218876 -3.218876 -3.218876 -3.218876

z_mu f4 [128]
00000000: b857 6239 85a5 ab39 019f febb 8f78 1a38
00000010: 8f7e 16bb ac5b 4a39 88aa a63e 5443 c9bc
00000020: 2076 3e3b d826 eb3e dc78 933f db3c 5fb9
00000030: 34f5 beb8 d0cc de3e d5d9 853e e0e7 153f
00000040: 2b20 91b9 8419 81bb 4a3e 763e ae65 e137
00000050: 1671 e13b 08bb fbba 14a0 75b9 62ae 1f3c
00000060: 5a56 8739 041c 09bc ac29 87bc cd41 fcb8
00000070: dce3 b6ba ab3e 6c3f db3d 6e3e c081 4d3c
00000080: 3dae 0f3f ee61 19ba 2fa1 d93a 0398 5f3c
00000090: feb3 2f3a 276d 043f 9147 323f f7b5 d5bb
000000a0: 57e5 2a3e d11b 8139 7475 263f 136e 07bc
000000b0: b064 8a3e f0d2 1abc 26e3 a63d d4d1 6a3e
000000c0: 4108 67b9 968c 553c 1895 09b9 5d95 3ebc
000000d0: 329f e33e 9040 053a 50b5 673f 90c0 523f
000000e0: ef2a f73e 5c00 b43b d051 263e 871d b33d
000000f0: 7bcd b63b 4ff9 1f3f 16bb c6bc ffe3 123f
00000100: 4fb3 e13e 1532 033b 4bea 8239 71f8 fb3e
00000110: f6c6 163c df75 113f b2d6 a53e 7c1d c2bb
00000120: a485 4a3c cc2f 1eba 1be1 5939 fc1f 053f
00000130: 335a 1f3c b7b2 9b3e 0370 263c 3694 aa39
00000140: 293b c9bb 1a7c 77b9 6d42 84b9 c53f e63e
00000150: c504 3bbc 697e 82bb 7e47 bc3e 0e7d 22bc
00000160: c5a5 00bb 7edd a8bb 58f8 173f a36b f2bb
00000170: f721 66ba 9a81 3c3f 3cf0 863e 121f 7abc
00000180: adb2 053f f77a 4e3f 1ccc 55b9 6756 65bb
00000190: bb54 40b9 53f3 723e 7506 313f 6eff c13d
000001a0: 1538 a33b 2870 083a cde1 633f ae55 6039
000001b0: 917a 9738 61a5 8d39 ed99 133f aafa 0f3f
000001c0: c9e3 5bbc 6f16 8739 f5d5 833e 1e24 933e
000001d0: c7d1 433f 4d05 cabb 62e4 e53e b973 fa37
000001e0: e784 ff3e 7ade 883e 7e03 a5b9 0967 8aba
000001f0: 9169 793e 67c5 9f3b 0594 413c 2ce5 8a3e
0.00021585717 0.00032738983 -0.0077704196 3.682874e-05 -0.0022963618 0.00019298372 0.3255198 -0.024568237
0.0029062107 0.45928073 1.1521258 -0.00021289608 -9.105579e-05 0.43515635 0.26142755 0.5855694
-0.00027680522 -0.0039398093 0.24047199 2.6869438e-05 0.006879936 -0.001920552 -0.00023424655 0.009746166
0.00025813543 -0.008368496 -0.016499363 -0.00012028553 -0.0013953405 0.92283124 0.23265783 0.012543142
0.5612524 -0.00058510795 0.0016603823 0.013647082 0.0006702541 0.51729053 0.6964045 -0.006521936
0.16689049 0.00024625522 0.6502297 -0.00826599 0.27029943 -0.0094497055 0.08148794 0.22931606
-0.00022032952 0.013034007 -0.0001312088 -0.011632291 0.44457394 0.0005083168 0.90511036 0.8232508
0.48274943 0.005493207 0.16242146 0.08745866 0.0055786944 0.6248979 -0.024259131 0.57379144
0.44082114 0.0020018865 0.00024970094 0.49212983 0.009202709 0.5682048 0.32390362 -0.005923925
0.012360964 -0.0006034344 0.00020778591 0.5200193 0.009726095 0.30409786 0.010158542 0.00032535353
-0.0061410856 -0.00023601987 -0.00025226493 0.44970527 -0.011414711 -0.0039823544 0.36773294 -0.009917511
-0.0019630056 -0.005153357 0.5936332 -0.007398085 -0.0008778865 0.73635256 0.2635516 -0.015266197
0.5222576 0.8065638 -0.000203893 -0.0034994127 -0.00018342111 0.23725633 0.6915048 0.094725475
0.0049810507 0.0005204701 0.8901642 0.00021394223 7.223071e-05 0.00027016833 0.5765675 0.5624186
-0.013421007 0.0002576592 0.25749174 0.28738493 0.7649197 -0.0061651827 0.44900805 2.985621e-05
0.49906084 0.26732236 -0.00031473854 -0.0010559271 0.24356677 0.004875827 0.011815076 0.2712797

z_logvar f4 [128]
00000000: 46d6 2cc1 d1be 2ec1 80df 87c0 3f94 32c1
00000010: 5f8b f6c0 db78 2dc1 86f1 9ec0 4224 92c0
00000020: 82b0 77c0 6eb7 96c0 6178 98c0 9998 2dc1
00000030: 280e 35c1 ddfe 94c0 78c3 9fc0 b015 9cc0
00000040: adb0 30c1 0bcc 86c0 5668 89c0 8a4d 39c1
00000050: e9a7 87c0 669d 8fc0 c841 30c1 3a55 84c0
00000060: ac4a 30c1 835a 94c0 4ea4 93c0 6147 30c1
00000070: 33ec 90c0 90e8 93c0 4e51 6bc0 a810 8dc0
00000080: 9465 95c0 cc14 9fc0 e11c 8cc0 64ae 78c0
00000090: 1f8c 2ac1 c984 89c0 e080 98c0 5717 77c0
000000a0: eef9 7dc0 2081 32c1 9b1d 96c0 c770 8cc0
000000b0: 13e7 8ac0 6be5 96c0 7d29 8ac0 3873 74c0
000000c0: 8348 32c1 00ea 79c0 bd2f 38c1 cf01 7dc0
000000d0: d9a4 8bc0 1fa4 34c1 5b0c 81c0 4407 88c0
000000e0: 9d45 a9c0 cb3f 72c0 00f7 4fc0 b5e0 8fc0
000000f0: 1b04 86c0 8dd2 a2c0 34b0 97c0 cf84 a2c0
00000100: bcfe 9cc0 2f46 97c0 346c 2fc1 4eab 84c0
00000110: 2ae4 7bc0 1471 a6c0 91c2 6dc0 7bec 95c0
00000120: 3bf1 78c0 4c27 34c1 7388 29c1 76dd 95c0
00000130: b7e9 7bc0 e483 8cc0 812c 91c0 a925 34c1
00000140: e610 85c0 a92b 2ec1 0a5b 27c1 464f a2c0
00000150: f829 81c0 2605 7dc0 b515 a2c0 5869 82c0
00000160: ba82 95c0 9f1c 81c0 18c6 9ec0 1311 07c1
00000170: be27 2ec1 6785 89c0 5a7f 95c0 3796 7dc0
00000180: 07e2 a0c0 ddd1 8cc0 df56 34c1 dd8c 94c0
00000190: 0f1e 29c1 b2da 4ac0 5220 8bc0 f6dd 92c0
000001a0: 947e 8cc0 7168 32c1 7f7d 8bc0 649f 32c1
000001b0: d8eb 35c1 aea9 30c1 80a0 9dc0 c4a9 9dc0
000001c0: 7ae7 97c0 96c5 2ec1 ca29 88c0 e7cd 99c0
000001d0: f562 8ec0 ef62 8dc0 5c59 a1c0 81e9 31c1
000001e0: 3c1b 93c0 1fc4 96c0 6511 30c1 1b0a 2ec1
000001f0: 1b65 a4c0 d6d7 95c0 f06c 84c0 e80d 92c0
-10.802313 -10.921586 -4.2460327 -11.161193 -7.704513 -10.842006 -4.966983 -4.566926
-3.8701482 -4.7098913 -4.7646947 -10.849755 -11.315956 -4.6561112 -4.992611 -4.8776474
-11.043134 -4.2124076 -4.2939863 -11.58143 -4.239247 -4.4879637 -11.01606 -4.1354036
-11.01823 -4.636049 -4.6138067 -11.0174265 -4.528833 -4.622139 -3.6768374 -4.408283
-4.6686497 -4.9712887 -4.3785253 -3.885644 -10.659209 -4.297459 -4.765732 -3.8607996
-3.9683795 -11.156525 -4.691114 -4.388767 -4.3407073 -4.715505 -4.3175645 -3.8195324
-11.142703 -3.9049072 -11.511655 -3.9532354 -4.363873 -11.290069 -4.032758 -4.250887
-5.2897477 -3.7851436 -3.2494507 -4.49618 -4.188001 -5.088202 -4.740259 -5.078712
-4.9060955 -4.7273173 -10.963917 -4.145911 -3.935801 -5.2013035 -3.7150004 -4.6851172
-3.8897235 -11.259594 -10.595813 -4.683284 -3.9361398 -4.3911 -4.5366826 -11.259194
-4.158313 -10.885659 -10.459726 -5.072177 -4.036373 -3.9534392 -5.06515 -4.0753593
-4.672208 -4.034744 -4.9616814 -8.4416685 -10.884703 -4.2975345 -4.671796 -3.9622934
-5.027591 -4.400618 -11.271209 -4.642195 -10.569839 -3.169598 -4.3476954 -4.589595
-4.3904514 -11.150498 -4.3590693 -11.163914 -11.370079 -11.041426 -4.9258423 -4.9269733
-4.7470064 -10.923239 -4.255101 -4.8063846 -4.4495797 -4.418327 -5.042158 -11.119508
-4.5970745 -4.7114406 -11.004247 -10.877467 -5.137342 -4.682597 -4.138298 -4.5641975

weight_mu f4 [2, 128]
00000000: dd4c e4bb dae1 9bbc 9042 043e 1d6c debb
00000010: bbfc dabb 014a 94bc 9c4a c63e 5225 28bd
00000020: 1b32 853c d4dd aabe ed42 11bf ab6c c93b
00000030: ef7f 48ba 1e73 08bf efc5 f3be dde5 bfbe
00000040: be2a 3dbc 1917 d13d 5706 b0be 8c35 1ebc
00000050: 0aa6 59bb b7f5 5fbc 3b97 d93b 4f13 63bd
00000060: 27f5 50bc a90f 26bd 6874 f53c 52ea 2c3d
00000070: 9413 a5bc ba17 20bf 7764 d9be 8916 de3c
00000080: c61b bbbe 4ea9 ee3c 9036 303e c622 a13c
00000090: 6b3c e6bc b5fb d9be 9d8c d6be bc2b 01bd
000000a0: 9eda c0be 3447 fabc 4ff2 ab3e f2dd 2a3d
000000b0: 4db9 e3be 9183 8f3d 2253 a73e 6ac2 ebbe
000000c0: 299f eb3c ed52 a1bd 3a2a 993b dfce d5bc
000000d0: 04ef debe e203 55bc 1965 15bf 4300 12bf
000000e0: 8cbd 9bbe 0956 a5be 8ff8 03bf 7484 bfbe
000000f0: 90f5 8cbd 6ca1 c03e 8f88 d73c 2d54 b3be
00000100: 8d89 953e 4854 87bc f83a acbc ad33 00bf
00000110: b2b0 48bd 9585 9fbe 3b74 e7be f30a 18bc
00000120: 3374 e3bb cba5 eb3c c7f1 813b ae92 c93e
00000130: 59a8 08be c327 d5be 2af7 0abd a57b d5bb
00000140: c8aa 8bbd 3650 d53c 6126 a0bc 98b5 96be
00000150: 5e8c c0bc 7309 73bc 8455 a73e a565 fc3b
00000160: e52b c5bb d393 b1bd b84e c73e c202 8d3c
00000170: 3191 6c3d 35f2 07bf fa27 c33e 2369 ce3c
00000180: 1dda b73e b1fd f3be 67c9 d3bc 28d8 683d
00000190: 8de3 cfbc 8173 0bbf 5914 f6be 4082 9b3e
000001a0: 760b f83c 9967 c4bc 44fb 11bf 3798 e7bb
000001b0: 56f1 33bc 4c32 33bd 7d40 df3e f279 c0be
000001c0: 7faa 01be 6bfa 94bc 3c01 d13e 95ba bebe
000001d0: f8b1 e7be 3f4f 833e b470 aabe 5f98 14b8
000001e0: c7b9 cfbe 5219 ac3e 7d47 553c d820 253d
000001f0: 02ee be3e 0938 b0bb 8449 d13b ac5f b03e
00000200: db7c 593b bcd7 953c 911c efbd 3129 713b
00000210: bc06 0f3b eb6d 883c 2499 c6be 8deb 303d
00000220: 9538 04bc b6e9 aa3e 4ec0 103f 45c5 b7bb
00000230: d13a d83a 01a6 0a3f 713a ee3e facd be3e
00000240: 8074 123c 2025 d0bd 5889 ae3e 8427 303c
00000250: 69f2 3d3c e5ee 173c 6a0f a9ba d510 4a3d
00000260: b4ce 903c fa30 3d3d f3bf a2bc f992 1dbd
00000270: 7278 1a3d ebae 203f 214c d53e 00af 24bd
00000280: b10d c03e 893e c6bc a389 36be f37d 2ebb
00000290: 91c6 e63c 0cf1 dd3e 93d3 d73e a2e3 4f3d
000002a0: 6629 bd3e e8a1 0d3d d2d0 acbe a341 80bd
000002b0: 2987 e63e d5a7 88bd 5a84 adbe 8d8a f23e
000002c0: 9fcc bbbc e677 993d 844c 9fbb 1484 cc3c
000002d0: 8f7a dc3e 2b15 263c 95ff 123f f5a8 103f
000002e0: 44a7 9c3e a0b7 a83e 679d fe3e 16f1 be3e
000002f0: bb4a 9b3d cd1a c1be 641c cbbc 6fbe b13e
00000300: 61f4 94be 4d7a 723c dfec 813c 2ed4 003f
00000310: 3df3 863d fcfb 9d3e 8e22 e73e 7af5 e53b
00000320: cf21 8c3c ca7f 01bd 4703 bdbb 803a cdbe
00000330: 69c0 0a3e 973f d43e 8622 0a3d 7bf4 1c3c
00000340: 7b84 723d 3648 00bd b8d8 9b3c 565a 963e
00000350: 301d ac3c 8b2d 4b3c a6f1 a7be f6c9 7cbb
00000360: 8371 ba3b df64 c53d 9de0 c5be fa6e b8bc
00000370: 425e 60bd ab49 093f 9902 c1be 4912 3dbc
00000380: 1ea6 babe caf6 f73e 3efd e63c 568b 41bd
00000390: 654f 013d d965 0b3f a564 f23e 48cc a0be
000003a0: aab4 f1bc 9695 a53c d289 133f 077f 663b
000003b0: f867 103c cf62 213d aa46 e0be 70b8 bd3e
000003c0: d289 ea3d 51e6 8b3c 5dbe d1be eca3 be3e
000003d0: 8bbb eb3e 1400 85be dde0 ab3e d499 acbb
000003e0: 96d6 d03e d299 a9be 0ac7 2abc ecad 22bd
000003f0: 2174 babe 6897 a13b f2bd 8abc d056 aebe
-0.0069671706 -0.019028593 0.12916017 -0.0067877905 -0.00668296 -0.018101694 0.38728797 -0.041051216
0.016259244 -0.33372366 -0.56742746 0.0061469874 -0.0007648458 -0.53300655 -0.4761195 -0.3748006
-0.011545835 0.10209484 -0.34379837 -0.009656321 -0.003321054 -0.013669423 0.0066403425 -0.055438336
-0.012753761 -0.04054228 0.029962733 0.042215653 -0.020150937 -0.62536204 -0.4245946 0.027110355
-0.36544627 0.029133465 0.17208314 0.019669902 -0.028104981 -0.4257485 -0.41904154 -0.03153585
-0.37666792 -0.03055153 0.33583304 0.04171557 -0.4447731 0.07007516 0.32680613 -0.46046764
0.028762417 -0.07877145 0.0046742233 -0.02609962 -0.4354173 -0.013001414 -0.5835739 -0.5703165
-0.3041805 -0.32292202 -0.51551145 -0.3740574 -0.06882775 0.37623155 0.026310233 -0.3502516
0.29206505 -0.01651968 -0.021024212 -0.5007885 -0.048996635 -0.31156603 -0.45205864 -0.009279954
-0.0069413423 0.02876558 0.0039655897 0.3936972 -0.1334547 -0.41631898 -0.03392712 -0.0065149837
-0.06819683 0.026039224 -0.01954955 -0.2943542 -0.023504432 -0.014833796 0.3268243 0.0077025467
-0.0060171955 -0.08670773 0.38927245 0.01721323 0.057755653 -0.53103954 0.38116437 0.025196617
0.35908595 -0.4765449 -0.025852872 0.056846768 -0.02537706 -0.5447312 -0.480624 0.3037281
0.030278903 -0.02397518 -0.57024026 -0.007067706 -0.010982832 -0.04374914 0.43603888 -0.37593037
-0.12662695 -0.018185815 0.40821254 -0.37251726 -0.45252967 0.25646397 -0.3328911 -3.5427856e-05
-0.40571424 0.33613068 0.013017532 0.040314525 0.3729096 -0.0053777737 0.0063869376 0.34447992
0.0033185992 0.018291347 -0.116753705 0.0036798234 0.0021824082 0.016653975 -0.38788712 0.04319339
-0.008070131 0.33381432 0.56543434 -0.005608233 0.0016497021 0.5415955 0.46528962 0.37266523
0.008938909 -0.10163331 0.3408916 0.010751609 0.01159344 0.0092732655 -0.001289827 0.04933246
0.017676689 0.046189286 -0.01986692 -0.038470242 0.03771252 0.62766904 0.41659644 -0.040205956
0.37510446 -0.024199741 -0.17825942 -0.0026625365 0.028170856 0.43347967 0.42153606 0.050754197
0.36945647 0.034578234 -0.33753067 -0.06262519 0.45024994 -0.066726364 -0.3389004 0.4737133
-0.02292472 0.07493572 -0.0048614163 0.024965324 0.43062255 0.010136883 0.5742124 0.5650781
0.30596364 0.32952595 0.49729463 0.3729331 0.07582613 -0.3771576 -0.024793811 0.34715602
-0.29092696 0.014799667 0.01586002 0.5032376 0.06589363 0.3085631 0.4514355 0.0070177885
0.017105965 -0.03161601 -0.005768213 -0.40083694 0.13549961 0.41454765 0.03372433 0.009579773
0.059208374 -0.031318866 0.019024238 0.29365796 0.021010011 0.012400995 -0.3280155 -0.0038572527
0.005689801 0.0963838 -0.3864793 -0.022513855 -0.05477739 0.53628033 -0.37697294 -0.011540004
-0.36454862 0.48430473 0.028196927 -0.04725202 0.031569857 0.5445228 0.4734241 -0.31405854
-0.029505093 0.02021293 0.5763217 0.003517093 0.008813851 0.03940087 -0.43803912 0.37054777
0.114520684 0.017077597 -0.40965548 0.37234437 0.4604152 -0.25976622 0.33569995 -0.005267361
0.40788716 -0.33125168 -0.010423431 -0.039716646 -0.36416724 0.004931379 -0.016936276 -0.34050608

weight_logvar f4 [2, 128]
00000000: 9d21 8e3b 2f72 e4bb 2bc7 1abe 3264 01bc
00000010: bee2 febb 3892 a53a cc65 8dc0 f925 adbd
00000020: 7cb5 3bbd 24e0 a7c0 6506 b5c0 e9fd 23bc
00000030: a31f 953b 8690 73c0 04c8 62c0 c208 adc0
00000040: 0af1 8aba c89c 98bd 8719 74c0 01fa f339
00000050: 5af9 d8bc 1de5 49bd 91cd 50bb 8371 9ebd
00000060: 48f3 2abb 3d03 a4bd 1c29 35bc ee09 913b
00000070: 5084 34bd 5f42 9ac0 4bb5 35c0 fd48 4dbe
00000080: d67a a6c0 5c9d afbd f7f2 9fbf 0006 9abd
00000090: bc9e 29bc 3fb9 93c0 0ce7 a5c0 a599 a7bd
000000a0: 57d4 36c0 cc0a 0ebc cba0 bdc0 7c28 5abd
000000b0: 0d7f 57c0 5455 a1bd c93f 1fc0 5d52 2bc0
000000c0: 22b3 06bb 7799 96bd 152c 8eba 7b4c b6bd
000000d0: 750b 8cc0 c82f 30bb 4b81 92c0 2844 92c0
000000e0: f550 c5c0 f384 79bf 15e1 eabf 2086 25c0
000000f0: 6fde dcbd deae b1c0 1976 86bd 2155 b9c0
00000100: 8346 b8c0 2f5e 64bd 38fe 32bc f7df 6fc0
00000110: 8e20 8cbd 1e39 d3c0 d4ba 4ec0 1302 98bc
00000120: 2eed e6bd 36f6 a7bb a5b5 0fbc 3430 a0c0
00000130: 14f5 94be 3033 77c0 e9ad babd 5171 18bb
00000140: 448e b8be 2df2 72bb e871 c8bb f291 c4c0
00000150: cb91 6cbd 3425 74bd 64f4 a1c0 4688 91bd
00000160: e342 18bd 7b94 bbbd 9085 aac0 922f a6bc
00000170: 44ae b7bc 3b0d 92c0 4ca2 74c0 2aa3 93bd
00000180: ac76 b0c0 1191 9cc0 2c17 05bc a993 aabd
00000190: 5f29 97ba 9dc7 e5bf 05f0 90c0 4003 2dc0
000001a0: a43f 96bd c6e5 15bc cd21 96c0 f810 a23a
000001b0: 8255 233c bcd3 1d3c 067b a3c0 f746 b3c0
000001c0: 1713 9bbd 23af a6bc 846d 5bc0 8d25 87c0
000001d0: 85d7 9fc0 06e6 88bf 1ea8 aec0 50bd 493c
000001e0: 8fbc 99c0 7a63 87c0 7b7a 473b f5b7 473b
000001f0: ba9b 83c0 161a 79bd 0c13 dfbc 4ab2 8fc0
00000200: ba2f 8a3b f61b 35bb dd41 2bbe 9e92 863a
00000210: fc1f c3bc a77e 6abc f2cd 8bc0 7a18 e8bc
00000220: 50dd 38bd cf3c a5c0 521f b6c0 9ed9 0abb
00000230: 6ff9 f9ba fa77 6fc0 0e6c 62c0 7817 b0c0
00000240: 2a77 8b3b 2e20 8cbc e042 72c0 ffbe b9bb
00000250: 602f 87bd 5c40 33bd c17d 86bb 8640 18bd
00000260: 04d4 b939 8dfb 6cbd 268b 22bd f1fa b3bb
00000270: d69b 92bd 1ae2 9bc0 e611 37c0 8473 dbbd
00000280: fe11 a9c0 cbf0 16bd b636 92bf dca4 2cbd
00000290: 8182 bcbb f878 96c0 beee a8c0 c66c 52bd
000002a0: 6b0b 41c0 04c9 ccbb 1e31 bdc0 cec6 44bd
000002b0: 0d33 5cc0 3f7c 85bd ac26 24c0 0b53 27c0
000002c0: fd89 853b 9fa0 a5bd bb3a 47bb 12a0 77bd
000002d0: 3439 8dc0 0ce8 d5ba 5629 91c0 b9c5 92c0
000002e0: 70b8 c6c0 e821 74bf 2149 ecbf e781 29c0
000002f0: 19e7 bcbc 914b b4c0 e46d 76bd f235 b9c0
00000300: c136 b8c0 0384 e0bc 42f3 953b 28e4 6cc0
00000310: 83aa 5dbd 1e03 d5c0 1e80 50c0 44cd 86bd
00000320: b255 82bb a464 83bb 11aa 9a3b d07d a4c0
00000330: d004 87be 0d6f 73c0 1d84 f6bc 2b87 45b8
00000340: d9d2 84be f486 67bb 71d5 72bc 24f1 c1c0
00000350: 4c83 f4bc d200 6fbd bc41 a0c0 dcad 67bd
00000360: 2270 22bc 9fb9 31be 1b4a aac0 ebfa c036
00000370: 7baf 8d3b 3cf1 93c0 0e01 78c0 55ad bfbc
00000380: b6f3 b1c0 38d4 99c0 8b08 8fbb ea71 90bd
00000390: 6f3c 47bb 19d0 e8bf 55fc 8fc0 07aa 29c0
000003a0: ee0c 1fbd 6c52 d139 19cb 96c0 d9e3 d338
000003b0: 9f81 083b 707f 033c 8edf a3c0 6122 b3c0
000003c0: a873 bdbd 2e54 a0bb b2ab 5cc0 f3d2 86c0
000003d0: aeb6 9cc0 f841 7dbf 2e1b afc0 7405 7a3b
000003e0: a146 9bc0 ed42 88c0 330b f9bb cc03 28bb
000003f0: 10b5 81c0 5a74 48bd 1a44 a9bd a5de 8cc0
0.004337503 -0.0069716196 -0.15115039 -0.007897424 -0.0077784946 0.0012632078 -4.4186764 -0.08454508
-0.045827374 -5.246111 -5.6570306 -0.010009267 0.0045508905 -3.805696 -3.543458 -5.407319
-0.00106004 -0.07451779 -3.814058 0.0004653484 -0.026486088 -0.049290765 -0.0031860808 -0.077364944
-0.0026084948 -0.0800843 -0.0110571645 0.0044262325 -0.044071496 -4.820602 -2.8391902 -0.20047374
-5.2024946 -0.08574936 -1.2496022 -0.07520676 -0.010352787 -4.616363 -5.184454 -0.08183602
-2.8567102 -0.008669566 -5.925878 -0.053261265 -3.3671296 -0.07877603 -2.4882681 -2.676902
-0.0020553549 -0.0735349 -0.0010846878 -0.08901306 -4.3763986 -0.0026883949 -4.578283 -4.57082
-6.1661325 -0.9746849 -1.834994 -2.5863113 -0.10784613 -5.552596 -0.06565494 -5.7916417
-5.7586074 -0.055753883 -0.010924868 -3.7480447 -0.06842147 -6.6007223 -3.230153 -0.018555677
-0.11275707 -0.005125786 -0.008771335 -5.005884 -0.2909323 -3.8624992 -0.09115202 -0.0023260901
-0.3604604 -0.0037070618 -0.0061170943 -6.1428156 -0.057756227 -0.059605792 -5.061083 -0.0710607
-0.037173163 -0.0915918 -5.328804 -0.020286355 -0.022421964 -4.564115 -3.8224058 -0.072088555
-5.5144863 -4.8927083 -0.0081232 -0.08328945 -0.0011532715 -1.7951542 -4.5292993 -2.7033234
-0.07336357 -0.009149021 -4.691626 0.0012364676 0.009969117 0.009633001 -5.1087675 -5.6024127
-0.075720005 -0.020347184 -3.4285593 -4.223334 -4.9950585 -1.0695198 -5.458022 0.012313202
-4.8042674 -4.230893 0.0030437994 0.0030474637 -4.1127596 -0.060815893 -0.027230762 -4.490514
0.004217115 -0.0027635074 -0.16724344 0.0010267084 -0.023818962 -0.014312423 -4.36889 -0.028331984
-0.045132935 -5.163673 -5.6913233 -0.002118684 -0.0019071529 -3.7416978 -3.5378451 -5.502865
0.004256149 -0.017105188 -3.7853317 -0.0056685205 -0.06600833 -0.04376255 -0.0041043465 -0.03717091
0.00035443914 -0.057857085 -0.039683484 -0.005492561 -0.071586296 -4.8713503 -2.8604674 -0.10715392
-5.2834463 -0.03685073 -1.1422946 -0.04214941 -0.005752862 -4.7022667 -5.2791433 -0.051373266
-3.016322 -0.006249549 -5.9122458 -0.048041157 -3.440616 -0.06517839 -2.5648603 -2.6144435
0.0040752874 -0.08087277 -0.0030399996 -0.06045539 -4.413233 -0.0016319766 -4.536296 -4.586636
-6.2100143 -0.95364237 -1.8459817 -2.6485536 -0.023059415 -5.6342244 -0.060163394 -5.787835
-5.756684 -0.027406698 0.0045761177 -3.7014256 -0.05411769 -6.6566305 -3.2578197 -0.0658212
-0.003977501 -0.0040098 0.0047199805 -5.140358 -0.2637086 -3.803653 -0.030092293 -4.7094345e-05
-0.25942114 -0.003532824 -0.014821396 -6.060686 -0.029847763 -0.05835039 -5.008024 -0.05656229
-0.00991443 -0.17355965 -5.321546 5.7512566e-06 0.0043238974 -4.6231976 -3.8750644 -0.02339808
-5.561 -4.8071556 -0.004365032 -0.070529774 -0.0030401011 -1.8188506 -4.4995522 -2.6510026
-0.03883069 0.00039924996 -4.712292 0.00010103704 0.0020829213 0.008025989 -5.1210394 -5.5979466
-0.09250575 -0.0048928475 -3.4479795 -4.2132506 -4.8973 -0.98928785 -5.472068 0.0038150223
-4.8523717 -4.2581697 -0.007600212 -0.0025637029 -4.0533524 -0.048939086 -0.082649425 -4.4021783

bias_mu f4 [2]
00000000: 0243 5b3f 4759 5bbf
0.8564912 -0.856831

bias_logvar f4 [2]
00000000: b57d dac0 eb3c d9c0
-6.827845 -6.7886863
