metric/probe_cifar10_adam_seed7.pth (torch, 539567 bytes, 12 tensors)

z_mu f4 [512]
0	0xbba69952	-0.005084195
1	0x3bbbf959	0.0057365117
2	0x3ea0219f	0.3127565
3	0x39ccf2ff	0.00039090958
4	0xbb83d9d4	-0.00402377
5	0x3a628b91	0.0008642013
6	0x3f0f2623	0.55917567
7	0xb9dedddb	-0.00042508435
8	0xbb4b366e	-0.0031007784
9	0xb8ecb3e8	-0.00011286867
10	0xbab70a40	-0.0013964847
11	0xbb12429e	-0.002231754
12	0x3f469689	0.7757345
13	0x3be0ec09	0.006864075
14	0xbb5346d0	-0.0032238252
15	0x3c0bea91	0.008539812
16	0x3acb0573	0.0015489295
17	0x3d9611ef	0.07327639
18	0x3ba5a6e7	0.0050552967
19	0x3ba12f03	0.0049189343
20	0x3c5e7944	0.013578717
21	0x3ba49df9	0.0050237146
22	0xba3c513f	-0.00071837375
23	0x3fb15d0b	1.385652
24	0xbb7d62ca	-0.003866362
25	0xba88f207	-0.0010448106
26	0xbbd35af5	-0.006450052
27	0xbbca167e	-0.006167232
28	0x3a75b51e	0.0009372997
29	0x3f9d8bc6	1.230828
30	0xbb294c34	-0.0025832774
31	0x3fd6678f	1.6750354
32	0x3c204c35	0.009783794
33	0xbace88a6	-0.0015757277
34	0x3e5cc7d3	0.21560602
35	0x3b2a33dc	0.0025970852
36	0x3ac9a348	0.0015383745
37	0x3bc0d1b8	0.0058843754
38	0x3f87fa69	1.0623294
39	0xbb8e06de	-0.0043343147
40	0x3bd07052	0.006361046
41	0xbb4e8369	-0.0031511432
42	0xbac6ee53	-0.0015177227
43	0x3e99f50f	0.30069777
44	0xbacdf268	-0.0015712501
45	0xbbac454c	-0.0052572843
46	0x3f17b1ef	0.5925588
47	0x3f4ed1ad	0.8078869
48	0x3fb6e8b3	1.4289764
49	0xbb513085	-0.003191979
50	0xbaffa576	-0.0019504267
51	0xbb5ff2c3	-0.0034171797
52	0xbbb30ede	-0.005464419
53	0x3f08d886	0.5345539
54	0x3f8e1e9d	1.1103092
55	0x3f0d832b	0.5527827
56	0xbc1a06b7	-0.009401015
57	0x3b88926b	0.004167845
58	0xba080955	-0.0005189379
59	0x3f976b14	1.1829553
60	0xba6df9e1	-0.00090780674
61	0x39b3acc7	0.0003427027
62	0x3c26810d	0.010162604
63	0x3f92ae94	1.1459527
64	0xba3de257	-0.0007243505
65	0xbbc434ed	-0.0059877546
66	0x3f6a5063	0.9152891
67	0x398c12e8	0.00026716967
68	0x3b305a8a	0.0026909434
69	0xba3b4953	-0.000714441
70	0xbba23f69	-0.0049514067
71	0x3afed89a	0.0019443214
72	0xbb4c3cd7	-0.0031164193
73	0x3fc3c609	1.529481
74	0x3c7b5460	0.015339941
75	0x3a9252f2	0.0011163636
76	0x3fc7e2a3	1.5616039
77	0x3963ed47	0.000217368
78	0xbba7e4b0	-0.005123697
79	0x3e03be85	0.12865646
80	0xbc03f026	-0.008052861
81	0x3fb54172	1.4160597
82	0xbaa6409d	-0.0012684051
83	0x3a41bf23	0.00073908473
84	0x38be77c3	9.0822134e-05
85	0x3f5aa5f9	0.85409504
86	0x3f3f331e	0.74687374
87	0x3b69cdbc	0.0035675606
88	0xbac3735e	-0.0014911701
89	0x3ebd10c4	0.36926854
90	0xbb4f263c	-0.0031608483
91	0x3f0f67d3	0.560178
92	0x3f4c6667	0.79843754
93	0xbb94b477	-0.0045381146
94	0x3b0d532d	0.002156447
95	0x3a2b4a95	0.0006534246
96	0x3f95aa84	1.1692662
97	0x3b9320f9	0.0044900146
98	0xbc2d4cf2	-0.010577427
99	0x3f72e6ba	0.9488331
100	0xbaa31dc3	-0.0012444783
101	0x3beaebaa	0.0071692066
102	0x3f8395fa	1.0280144
103	0x3b1de15c	0.0024090623
104	0xb9a25006	-0.0003095867
105	0xb96f3d51	-0.00022815658
106	0x3ed8d7f9	0.42352274
107	0x3ff5dbfb	1.9207758
108	0x3f7b3954	0.9813435
109	0x3d34fcaa	0.04418627
110	0x3b482e7d	0.0030545287
111	0x3b745b79	0.0037285967
112	0xbb3b339b	-0.0028564695
113	0xbb24db42	-0.0025155102
114	0x3a853578	0.001016303
115	0xba50bd60	-0.00079627894
116	0x3b758e8e	0.0037469002
117	0x3f2aa3e4	0.6665633
118	0x3f7e289d	0.9928072
119	0x3a3fb704	0.0007313343
120	0x3eac3faa	0.33642322
121	0x3afad84e	0.001913795
122	0x3aeef812	0.001823189
123	0x3ef954ab	0.4869741
124	0x3f88ed7e	1.0697477
125	0x3f7568f8	0.95863295
126	0x3d633e2a	0.055479206
127	0xbb040de9	-0.0020149893
128	0x39dccbd3	0.0004211353
129	0xbb0622e8	-0.0020467583
130	0xba96ae52	-0.0011496043
131	0xbbd985d0	-0.006638266
132	0xbaccb26a	-0.0015617136
133	0xbb8dfd55	-0.004333178
134	0xb9ec5814	-0.0004507905
135	0x3f7269c8	0.9469266
136	0xba1340de	-0.0005617271
137	0x3aff36c6	0.001947128
138	0x3fcc4194	1.5957513
139	0x3c183425	0.009289776
140	0xbc34ecfd	-0.0110428305
141	0xbb8deac0	-0.004330963
142	0xbba5445a	-0.0050435485
143	0x3f5170cc	0.8181274
144	0x3b6b4b31	0.0035902972
145	0x3f9ae1f3	1.2100204
146	0x3bd0074e	0.006348527
147	0xbb67d595	-0.0035375108
148	0xbb1c6bc8	-0.0023867954
149	0x3b8fcc16	0.0043883426
150	0xba6890be	-0.0008871666
151	0x3f52abda	0.82293475
152	0x3b45ef4f	0.0030202453
153	0xbaba67a5	-0.0014221562
154	0x3aa169f5	0.0012314903
155	0x3b648ff5	0.0034875844
156	0x3b94b8ea	0.004538645
157	0xbb1e3bce	-0.0024144533
158	0x3e8cd868	0.27508855
159	0x39567154	0.00020450848
160	0x3a90afee	0.0011038759
161	0x3f990e53	1.1957496
162	0x3b5d5906	0.0033774986
163	0x3fe26aec	1.768888
164	0x3b06b20a	0.0020552897
165	0x3a9631ad	0.0011458896
166	0x3b50f573	0.003188458
167	0x3f26d071	0.65161806
168	0x3d022f1f	0.03178322
169	0xbb4d5128	-0.003132889
170	0x3e81be83	0.2534066
171	0xb9b7f6a4	-0.00035088242
172	0xb9d7fd34	-0.00041196647
173	0x3fab2bf1	1.3372785
174	0x3f5586d2	0.83408844
175	0xbabe0421	-0.001449708
176	0x3b8571c0	0.004072398
177	0x3f75f298	0.96073294
178	0x3fa89905	1.3171698
179	0x3f34c511	0.706132
180	0x3f8478ab	1.0349325
181	0x3e841ec3	0.2580472
182	0xba2f70cd	-0.0006692529
183	0x3f9f81b9	1.2461463
184	0xbbb06073	-0.0053825914
185	0x3c66ec17	0.014094374
186	0x3b61bc0f	0.0034444367
187	0x3f365999	0.71230465
188	0x39ac346a	0.00032845448
189	0x3f8a386b	1.0798467
190	0x3b80f8ee	0.0039359247
191	0xbba9bcbd	-0.00517997
192	0x3f25c62c	0.6475551
193	0x3b09e5d9	0.002104154
194	0x3f7b4c63	0.9816343
195	0x3b05ea0d	0.0020433695
196	0x3fc5e394	1.5460076
197	0x3b5a47dc	0.0033306992
198	0x3f750063	0.95703715
199	0xbad04d18	-0.0015892116
200	0x3f5b6acc	0.85709834
201	0x3b854d26	0.0040680347
202	0x3a22faaa	0.00062171614
203	0x3bd34f84	0.006448688
204	0x3b66bb46	0.0035206839
205	0x3dcd677b	0.10029503
206	0x3ef6c467	0.48196718
207	0x3c15cfb5	0.0091437595
208	0x3adcb58c	0.0016838773
209	0xb8bfad0f	-9.1398244e-05
210	0xb7b8346a	-2.1958916e-05
211	0x39f27618	0.00046245824
212	0xbb26a568	-0.002542818
213	0x3a8878a3	0.0010411929
214	0x3a7b1878	0.0009578536
215	0x3b1645e6	0.0022929846
216	0x3fe213a8	1.7662249
217	0xbb926c77	-0.0044684964
218	0xba56299f	-0.0008169654
219	0x3b7e8ab2	0.0038839993
220	0x3f1534b2	0.5828353
221	0x371966c6	9.1434395e-06
222	0x3ada26b3	0.0016643613
223	0x3fa2be9f	1.2714423
224	0x3b34056f	0.002746906
225	0x3b634794	0.0034680115
226	0x3f3555b9	0.7083393
227	0xb9b6dd6b	-0.00034878714
228	0x3f686871	0.90784365
229	0x3b10a7f5	0.0022072766
230	0x3f9c2b38	1.2200689
231	0xbb235b83	-0.0024926371
232	0xbbb00bc5	-0.005372497
233	0xbbeb1e3e	-0.007175236
234	0xba3935e1	-0.00070652185
235	0x3c8ab428	0.016931608
236	0x3960054a	0.00021364275
237	0x3b84acef	0.0040489356
238	0xbaa4e61a	-0.0012580783
239	0x3edf770a	0.43645507
240	0x3a98a9e9	0.0011647317
241	0xb8a36ed0	-7.793086e-05
242	0x3fa28103	1.2695621
243	0xbacc4bad	-0.0015586518
244	0x3f3a6965	0.7281707
245	0x3e88b331	0.26699212
246	0x3b5d9144	0.003380851
247	0x3aa24c61	0.0012382382
248	0xbb9e030f	-0.004822142
249	0x3fc398b7	1.528098
250	0x3bc68965	0.006058859
251	0x3f84de00	1.0380249
252	0x3a04383a	0.0005043779
253	0x3db49f10	0.08819401
254	0x3faf4de9	1.3695651
255	0xbb4b8744	-0.0031055966

z_logvar f4 [512]
0	0xc0c8d1ad	-6.275595
1	0xc0b64693	-5.696115
2	0xc05d06bc	-3.453536
3	0xc0c805ba	-6.250699
4	0xc08b1efa	-4.3475313
5	0xc0c3fe28	-6.124775
6	0xc096b7af	-4.7099223
7	0xc081aaf5	-4.052119
8	0xc0b57cdd	-5.671492
9	0xc0b9e53c	-5.8092327
10	0xc0a1297b	-5.0363135
11	0xc098ba3b	-4.772733
12	0xc08f5385	-4.4789453
13	0xc0787ad0	-3.8824959
14	0xc0840dd0	-4.126686
15	0xc08669f0	-4.200432
16	0xc09adb23	-4.83925
17	0xc0690fda	-3.6415925
18	0xc0a451de	-5.1349936
19	0xc08aaef8	-4.3338585
20	0xc099902f	-4.7988505
21	0xc0c897e4	-6.2685413
22	0xc08f90ba	-4.486417
23	0xc0821ee8	-4.0662727
24	0xc0bd61d0	-5.91819
25	0xc0a737ad	-5.2255464
26	0xc0aea589	-5.457707
27	0xc074d998	-3.8257809
28	0xc0a51f73	-5.160089
29	0xc08cb9b4	-4.397669
30	0xc0ab47f3	-5.352533
31	0xc08ec03f	-4.4609675
32	0xc08acc7b	-4.337461
33	0xc0bf3d50	-5.9762344
34	0xc0958141	-4.672028
35	0xc06e6cde	-3.7253947
36	0xc0922066	-4.566455
37	0xc0a5e075	-5.1836495
38	0xc0cec085	-6.461001
39	0xc085c0c4	-4.179781
40	0xc0b3f9b8	-5.6242332
41	0xc061676f	-3.521938
42	0xc0a06312	-5.0120935
43	0xc04f5d94	-3.2400866
44	0xc0b47f0d	-5.640509
45	0xc0b915c5	-5.7839074
46	0xc01f0e6f	-2.485256
47	0xc07d0efb	-3.9540393
48	0xc07eb901	-3.9800417
49	0xc0b8372d	-5.7567353
50	0xc089c43b	-4.305204
51	0xc081d4f2	-4.0572443
52	0xc0909ebc	-4.5193768
53	0xc08a6d94	-4.325876
54	0xc06472b4	-3.569501
55	0xc08eb9a9	-4.4601636
56	0xc09ba100	-4.8634033
57	0xc0aa71f5	-5.326411
58	0xc0a1ba02	-5.053956
59	0xc08d5048	-4.41605
60	0xc0c47b54	-6.1400547
61	0xc07fb958	-3.9956875
62	0xc0894ad6	-4.2903852
63	0xc0a2e5f9	-5.090573
64	0xc0b80056	-5.750041
65	0xc0bda224	-5.9260426
66	0xc0b9b290	-5.803047
67	0xc0adf6fa	-5.4363985
68	0xc0b646b5	-5.696131
69	0xc0deb830	-6.959984
70	0xc04aee39	-3.17079
71	0xc0abe35a	-5.371503
72	0xc0c53913	-6.163217
73	0xc0c38637	-6.1101336
74	0xc06d2be1	-3.7058032
75	0xc0b5945b	-5.67436
76	0xc01b98f9	-2.4312117
77	0xc0969c4f	-4.7065806
78	0xc0b658c6	-5.6983366
79	0xc03fe981	-2.998627
80	0xc0a3c449	-5.1177106
81	0xc0a9425d	-5.289351
82	0xc0b8f5a8	-5.7799873
83	0xc0c79301	-6.236695
84	0xc09aacea	-4.8336077
85	0xc089636a	-4.2933855
86	0xc0acf4b0	-5.404869
87	0xc0cba533	-6.363916
88	0xc09cfb40	-4.90567
89	0xc0572939	-3.361891
90	0xc0a1ab36	-5.05215
91	0xc0990e17	-4.78297
92	0xc0646981	-3.5689394
93	0xc0a3c6dd	-5.1180253
94	0xc085d331	-4.18203
95	0xc067ca90	-3.6217384
96	0xc04b9fe8	-3.181635
97	0xc0b2d08c	-5.5879574
98	0xc0852723	-4.1610274
99	0xc081e026	-4.058612
100	0xc09f44c7	-4.9771457
101	0xc0bde718	-5.9344597
102	0xc08ec10f	-4.4610667
103	0xc0bb73fd	-5.8579087
104	0xc0b9f5d0	-5.8112564
105	0xc086e4e0	-4.215439
106	0xc0b28f65	-5.580004
107	0xc0819dfa	-4.0505342
108	0xc0a81438	-5.252468
109	0xc022d75e	-2.544395
110	0xc0bcc908	-5.89954
111	0xc08711a6	-4.2209044
112	0xc0c7d690	-6.2449417
113	0xc08d754f	-4.42057
114	0xc0a3ee82	-5.1228647
115	0xc0acc19d	-5.3986344
116	0xc092268a	-4.5672045
117	0xc0898f27	-4.2987247
118	0xc08ec094	-4.461008
119	0xc0a1ec12	-5.060067
120	0xc08f8976	-4.48553
121	0xc09c7346	-4.8890715
122	0xc0b77a42	-5.733674
123	0xc07b0b58	-3.9225674
124	0xc065583d	-3.5835106
125	0xc09e7c6e	-4.952689
126	0xc07582ea	-3.8361154
127	0xc0c11f1a	-6.0350466
128	0xc07cde68	-3.9510746
129	0xc0902a9d	-4.505202
130	0xc09c1e3f	-4.878692
131	0xc07c68f7	-3.9439065
132	0xc0a75bbe	-5.229949
133	0xc086ea3a	-4.216092
134	0xc0ca1bed	-6.315909
135	0xc0586ae0	-3.3815231
136	0xc0bc525d	-5.885054
137	0xc09ffaa0	-4.999344
138	0xc08a57fa	-4.3232393
139	0xc0695666	-3.6458983
140	0xc0a43b72	-5.1322565
141	0xc0a69085	-5.2051415
142	0xc0b4f9bb	-5.6554847
143	0xc0b3e80e	-5.622077
144	0xc0532ac7	-3.299486
145	0xc050e8a2	-3.2641988
146	0xc0a4c988	-5.149601
147	0xc0b18f67	-5.548755
148	0xc0cad764	-6.338793
149	0xc0a42d99	-5.130566
150	0xc0a461ec	-5.1369534
151	0xc07c7ae8	-3.9450016
152	0xc09cb868	-4.8975105
153	0xc0b6ab90	-5.7084427
154	0xc0a94a1d	-5.290297
155	0xc0c0fb67	-6.030689
156	0xc08eb63b	-4.459745
157	0xc0b4af27	-5.646381
158	0xc01b5209	-2.426882
159	0xc0cecc4f	-6.46244
160	0xc092dc82	-4.5894175
161	0xc0b88ad1	-5.7669454
162	0xc0abc1ab	-5.367391
163	0xc0829aa7	-4.0813785
164	0xc08ba4f6	-4.363887
165	0xc0af0ec1	-5.470551
166	0xc097bf2f	-4.742088
167	0xc02fb9af	-2.7457082
168	0xc056de01	-3.3573
169	0xc0546be5	-3.3190854
170	0xc03003c6	-2.7502303
171	0xc0b57765	-5.6708245
172	0xc07db247	-3.9640062
173	0xc0a691bb	-5.2052894
174	0xc09fbcb2	-4.991784
175	0xc0abe9cd	-5.37229
176	0xc0af1542	-5.471345
177	0xc07e95be	-3.9778895
178	0xc07d0cc2	-3.9539037
179	0xc08ff6c1	-4.4988713
180	0xc0d02b70	-6.5053024
181	0xc06635a9	-3.5970252
182	0xc09fdbf6	-4.9956007
183	0xc067b7ac	-3.6205854
184	0xc08117b8	-4.0341454
185	0xc090741a	-4.5141726
186	0xc094b04e	-4.6465216
187	0xc076bb57	-3.8551843
188	0xc0ae7d29	-5.4527783
189	0xc080840d	-4.0161195
190	0xc078e5ca	-3.8890252
191	0xc0c41e18	-6.1286736
192	0xc0aa1cb4	-5.316004
193	0xc0bd4e31	-5.915795
194	0xc091998a	-4.5499926
195	0xc0a112a3	-5.033525
196	0xc096af0e	-4.708869
197	0xc09d6a95	-4.9192605
198	0xc06709a1	-3.6099627
199	0xc0a79667	-5.2371097
200	0xc0bfe0a5	-5.9961724
201	0xc0907ad6	-4.5149946
202	0xc0a637a4	-5.194292
203	0xc0ae3f67	-5.4452395
204	0xc09db053	-4.927774
205	0xc0660202	-3.5938725
206	0xc08f7814	-4.483408
207	0xc0826c61	-4.07573
208	0xc0a7da8d	-5.2454286
209	0xc0c99c0f	-6.3003
210	0xc04f650a	-3.240542
211	0xc090eed9	-4.529156
212	0xc0a81ae8	-5.2532845
213	0xc09cef70	-4.904228
214	0xc0a0b872	-5.0225153
215	0xc0b2eb95	-5.5912576
216	0xc067ad51	-3.6199534
217	0xc0bf29d5	-5.9738564
218	0xc0b4b3d0	-5.64695
219	0xc0a81585	-5.252627
220	0xc0b941ed	-5.7892976
221	0xc08f5a65	-4.4797845
222	0xc0bef088	-5.9668617
223	0xc0a38cbe	-5.1109304
224	0xc0b5583b	-5.6670203
225	0xc0a703eb	-5.2192283
226	0xc08299f2	-4.081292
227	0xc0c34ba4	-6.1029835
228	0xc0881716	-4.252818
229	0xc0bf4257	-5.976848
230	0xc02ca434	-2.6975222
231	0xc0a6c531	-5.211571
232	0xc0c207b0	-6.0634384
233	0xc088e33d	-4.277739
234	0xc08c048d	-4.3755555
235	0xc063c437	-3.558851
236	0xc0adaea8	-5.4275703
237	0xc09edc91	-4.9644246
238	0xc0ba9871	-5.8311086
239	0xc03db43a	-2.9641252
240	0xc077ba73	-3.870755
241	0xc095f715	-4.6864114
242	0xc05579ff	-3.335571
243	0xc0b3f351	-5.6234517
244	0xc07b7329	-3.9289038
245	0xc09776a2	-4.7332315
246	0xc0b0dcf2	-5.526971
247	0xc0b4cb28	-5.6497993
248	0xc096272b	-4.6922812
249	0xc084d2f8	-4.150753
250	0xc0a94af5	-5.2904
251	0xc0c92792	-6.2860804
252	0xc0c2917f	-6.0802608
253	0xc048d77f	-3.1381528
254	0xc0908ee1	-4.5174413
255	0xc09bb73a	-4.8661165

weight_mu f4 [128, 512]
0	0xbae4d66a	-0.001745892
1	0x3ae49ab1	0.0017441121
2	0x3bb41219	0.0054953215
3	0xba73253e	-0.0009275264
4	0xba49fc1d	-0.00077051093
5	0xba579b8c	-0.00082247774
6	0x3c0b9be3	0.008521053
7	0xba121a77	-0.00055734016
8	0x3aedede3	0.0018152561
9	0xba596ef7	-0.0008294428
10	0xbb0fe61b	-0.0021957222
11	0xb9b7432a	-0.0003495452
12	0x3ba7f6e1	0.005125866
13	0xbaed6ff7	-0.0018115033
14	0xbb23d76b	-0.0025000225
15	0x3a631696	0.00086627284
16	0xbbd90132	-0.006622457
17	0x3b2f23d1	0.002672423
18	0x3b2460d2	0.0025082123
19	0xbae10008	-0.0017166147
20	0x3b027481	0.0019905868
21	0x3a4c1bba	0.0007786114
22	0xba27b869	-0.00063980237
23	0xbb658a8b	-0.0035025205
24	0x3a93452f	0.0011235828
25	0xb98bda5f	-0.00026674845
26	0xb92303ad	-0.0001554626
27	0x3a932feb	0.0011229491
28	0xb85e86cc	-5.3054464e-05
29	0x3c1ad8e2	0.009451123
30	0xbab6c75b	-0.0013944911
31	0x3b58b1ee	0.0033065039
32	0x3b092d52	0.0020931554
33	0xba52b62a	-0.0008038009
34	0x3b81fcfd	0.003966926
35	0x3ac7c153	0.001524011
36	0xbb500c14	-0.003174548
37	0xba00bcbc	-0.0004910936
38	0xbc8021c1	-0.015641095
39	0xb99d8dba	-0.00030050968
40	0xbb07a752	-0.0020699096
41	0x3a972024	0.0011529964
42	0xba9e15df	-0.0012060961
43	0xbb35fc6e	-0.0027768868
44	0x3a067d2b	0.0005130346
45	0xbab7519b	-0.0013986112
46	0x3c1b92cb	0.009495447
47	0xbc0f7595	-0.008756061
48	0x3aefcd77	0.0018295486
49	0x3a223054	0.0006187011
50	0x3a30e701	0.00067482895
51	0x3a8c7f22	0.0010719041
52	0x3a933bb1	0.0011232999
53	0x3bcdb528	0.006277699
54	0xbbd88846	-0.006608042
55	0x3bae16c1	0.005312771
56	0x3a22fa3e	0.00062170986
57	0x3b1a7c06	0.002357246
58	0xbac48eaa	-0.001499613
59	0xba2c8264	-0.0006580709
60	0x3a09960a	0.0005248493
61	0xbada02de	-0.0016632935
62	0xbba06bcd	-0.0048956634
63	0xbaf0d4d4	-0.0018373975
64	0xbb0fd784	-0.0021948526
65	0x391aa872	0.00014749335
66	0x3b1760b3	0.0023098409
67	0x3abad61e	0.0014254486
68	0x3a1dac89	0.00060147844
69	0xbaaec6e2	-0.0013334418
70	0x3954abc1	0.00020281879
71	0xb9733b69	-0.00023196418
72	0xbb4dd30c	-0.0031406311
73	0x390c25aa	0.00013365471
74	0x3b5450f6	0.003239689
75	0xba61d9b3	-0.00086155086
76	0xbb8fc19c	-0.0043870937
77	0xba9fcbe8	-0.0012191506
78	0x39f64675	0.0004697327
79	0xbbc0be44	-0.0058820564
80	0x3af75075	0.0018868583
81	0xba19bc23	-0.00058645214
82	0x3a13346f	0.0005615418
83	0x3a83a4ce	0.0010043622
84	0xb9d51de3	-0.00040648793
85	0xbc12208d	-0.0089188935
86	0x3a4b3651	0.0007751929
87	0x3af36d9f	0.0018572098
88	0xba8d6c2b	-0.0010789683
89	0x3c19d6a7	0.009389556
90	0xba09194f	-0.00052299065
91	0x3be7c676	0.007073219
92	0x3ba11791	0.0049161394
93	0xbb09f057	-0.0021047795
94	0x3a0837db	0.00051963114
95	0xbb3507e7	-0.0027623118
96	0xbb03350a	-0.0020020627
97	0x3a9b57a1	0.0011851677
98	0x390ce0cd	0.00013435185
99	0x3b27b682	0.002559096
100	0x3b3e0145	0.0028992456
101	0xb730bc7e	-1.0534304e-05
102	0x3aa29c0b	0.0012406124
103	0xba350f3a	-0.0006906871
104	0xb9e73fb7	-0.00044107225
105	0xb98517a6	-0.00025385356
106	0x3afa6012	0.0019102118
107	0x3bb4f4de	0.0055223545
108	0xbbbcab92	-0.0057577575
109	0xba41cadc	-0.0007392594
110	0x3b02fe56	0.0019988022
111	0x3af9b0d7	0.0019049895
112	0xbb4a7e51	-0.0030898044
113	0x3983781c	0.00025075756
114	0x3a334089	0.00068379246
115	0x3a3a3709	0.0007103538
116	0x3a32fa63	0.00068274717
117	0x3beb2a68	0.007176686
118	0xbc3a3a53	-0.011366445
119	0xbbbe5af2	-0.0058091814
120	0x3a55ce62	0.00081560586
121	0x3a1b09d9	0.0005914248
122	0xbb0590da	-0.0020380528
123	0xba6bad06	-0.0008990321
124	0x3bd93b8e	0.006629414
125	0x3b974b83	0.004617156
126	0xbb36ea88	-0.0027910788
127	0xba182b43	-0.00058047863
128	0xbaaaf968	-0.00130443
129	0x39dad2e6	0.00041737332
130	0xba73d8eb	-0.00093020377
131	0x3acc5763	0.0015590008
132	0x3985405c	0.00025415688
133	0xb9f50c6a	-0.0004673929
134	0x3ac5188a	0.001503722
135	0xbb200f34	-0.0024423124
136	0xb5a5f0a6	-1.2363496e-06
137	0xbb2feb8f	-0.0026843285
138	0xbb090620	-0.0020908192
139	0xbb2c2ae7	-0.002627069
140	0x39cf0354	0.00039484596
141	0x3a8a4d2d	0.0010551565
142	0x3b0dd62e	0.0021642554
143	0xbae81a1e	-0.0017707979
144	0x3ab3a658	0.001370619
145	0x3c2c2eb5	0.010509183
146	0x3a4667b3	0.0007568553
147	0xba2008ce	-0.00061048276
148	0x3b51fd0d	0.00320417
149	0x3a04c743	0.00050650927
150	0x3a76e1dd	0.00094178115
151	0x3c667710	0.014066473
152	0x3b1d71eb	0.00240242
153	0x3b0c7403	0.0021431453
154	0x3b03aabf	0.0020090786
155	0x3a59eef7	0.00083135016
156	0xbadb51e4	-0.0016732779
157	0x392587b1	0.00015786175
158	0xbb588596	-0.0033038608
159	0x3afc39f8	0.001924335
160	0xbb17f001	-0.0023183825
161	0xbad920e1	-0.0016565585
162	0xb9bc2f7a	-0.00035893527
163	0x3900b801	0.00012275578
164	0xbb1c46fe	-0.0023846026
165	0x398042ab	0.00024463734
166	0xba920a86	-0.0011142052
167	0x36a1531f	4.8078505e-06
168	0xbb77a312	-0.0037786406
169	0x3aadcd28	0.0013259994
170	0xbace0133	-0.001571691
171	0xb9d98af8	-0.00041493005
172	0x3b7b0a0c	0.003830555
173	0x3a8259a6	0.000994493
174	0xbb549055	-0.0032434661
175	0x3af95a84	0.0019024168
176	0xba032d20	-0.00050039776
177	0xbb13e5d2	-0.0022567404
178	0xbbc41af5	-0.005984659
179	0x3b7be37d	0.0038435154
180	0xbc510256	-0.012756905
181	0x3bbc27c3	0.0057420447
182	0x3a6a63da	0.00089412706
183	0x3a0b62c6	0.00053171476
184	0x382b3796	4.0821345e-05
185	0xbbbfbff6	-0.005851741
186	0xba53fbf8	-0.00080865575
187	0xbafe4b6b	-0.0019401138
188	0xbaae4952	-0.0013296998
189	0x3a6de112	0.00090743706
190	0x3b905334	0.00440445
191	0x3a212b15	0.00061480823
192	0x3a5f3bc7	0.00085156824
193	0x3b2b4a8d	0.0026136965
194	0xba37c3a9	-0.00070100516
195	0xbb2f512e	-0.0026751268
196	0x3b23e81b	0.0025010172
197	0x39c47579	0.00037471557
198	0xbc09745f	-0.008389561
199	0x3a065cb2	0.0005125507
200	0xbb0f7819	-0.0021891652
201	0xbb0277ff	-0.001990795
202	0x3b7935ba	0.0038026408
203	0xb88585ef	-6.366881e-05
204	0x3b97f66b	0.0046375296
205	0x3c485c96	0.012229105
206	0xbafda34f	-0.0019351038
207	0xba102ab2	-0.0005499526
208	0xbb093034	-0.0020933272
209	0x3a1f5f5f	0.000607958
210	0x3a80df43	0.0009832162
211	0xb7fab144	-2.9884868e-05
212	0x3b4fad66	0.0031689047
213	0x38df6d4e	0.00010653828
214	0x3a3e8f78	0.00072693033
215	0x3a9cc59e	0.001196075
216	0xbb61a23a	-0.003442897
217	0xba9f1338	-0.0012136465
218	0xb684414f	-3.9415095e-06
219	0x391d5d73	0.000150075
220	0xbbd22c76	-0.0064139916
221	0x39940a78	0.0002823656
222	0x3b02c307	0.001995267
223	0x3c3bc3ec	0.011460286
224	0xbad2bf24	-0.0016078693
225	0xbb8d6aa1	-0.0043156897
226	0x376b7b7b	1.4035842e-05
227	0x39efdf30	0.0004575192
228	0x398f882d	0.00027376544
229	0x3ac5307b	0.0015044356
230	0xbc13a7ad	-0.009012145
231	0xba813029	-0.0009856272
232	0x3a1404e4	0.0005646481
233	0xba4471ea	-0.0007493781
234	0xba10d7c7	-0.00055253174
235	0x3a814149	0.0009861375
236	0x3bf6ff7b	0.00753778
237	0x3b5e3dc7	0.0033911334
238	0x3a784691	0.00094709644
239	0xbb4717ac	-0.00303791
240	0x3b4f386c	0.0031619323
241	0xba2de1bd	-0.0006633064
242	0x3c05ed8f	0.008174314
243	0xb94c16c7	-0.00019463441
244	0xbade12db	-0.0016942875
245	0x3b21354c	0.0024598418
246	0x3a8767fa	0.001033067
247	0xba15b5a6	-0.00057109667
248	0x3a650bbb	0.0008737405
249	0xbbb7b04f	-0.0056057344
250	0x3a1f7bfc	0.0006083844
251	0xbb550540	-0.003250435
252	0x3b7d5103	0.0038653023
253	0xbbfeb5ab	-0.0077731214
254	0xbb3ab9fa	-0.0028492198
255	0xbaed44f1	-0.0018102211

weight_logvar f4 [128, 512]
0	0xc04e0210	-3.218876
1	0xc04e0210	-3.218876
2	0xc04e0210	-3.218876
3	0xc04e0210	-3.218876
4	0xc04e0210	-3.218876
5	0xc04e0210	-3.218876
6	0xc04e0210	-3.218876
7	0xc04e0210	-3.218876
8	0xc04e0210	-3.218876
9	0xc04e0210	-3.218876
10	0xc04e0210	-3.218876
11	0xc04e0210	-3.218876
12	0xc04e0210	-3.218876
13	0xc04e0210	-3.218876
14	0xc04e0210	-3.218876
15	0xc04e0210	-3.218876
16	0xc04e0210	-3.218876
17	0xc04e0210	-3.218876
18	0xc04e0210	-3.218876
19	0xc04e0210	-3.218876
20	0xc04e0210	-3.218876
21	0xc04e0210	-3.218876
22	0xc04e0210	-3.218876
23	0xc04e0210	-3.218876
24	0xc04e0210	-3.218876
25	0xc04e0210	-3.218876
26	0xc04e0210	-3.218876
27	0xc04e0210	-3.218876
28	0xc04e0210	-3.218876
29	0xc04e0210	-3.218876
30	0xc04e0210	-3.218876
31	0xc04e0210	-3.218876
32	0xc04e0210	-3.218876
33	0xc04e0210	-3.218876
34	0xc04e0210	-3.218876
35	0xc04e0210	-3.218876
36	0xc04e0210	-3.218876
37	0xc04e0210	-3.218876
38	0xc04e0210	-3.218876
39	0xc04e0210	-3.218876
40	0xc04e0210	-3.218876
41	0xc04e0210	-3.218876
42	0xc04e0210	-3.218876
43	0xc04e0210	-3.218876
44	0xc04e0210	-3.218876
45	0xc04e0210	-3.218876
46	0xc04e0210	-3.218876
47	0xc04e0210	-3.218876
48	0xc04e0210	-3.218876
49	0xc04e0210	-3.218876
50	0xc04e0210	-3.218876
51	0xc04e0210	-3.218876
52	0xc04e0210	-3.218876
53	0xc04e0210	-3.218876
54	0xc04e0210	-3.218876
55	0xc04e0210	-3.218876
56	0xc04e0210	-3.218876
57	0xc04e0210	-3.218876
58	0xc04e0210	-3.218876
59	0xc04e0210	-3.218876
60	0xc04e0210	-3.218876
61	0xc04e0210	-3.218876
62	0xc04e0210	-3.218876
63	0xc04e0210	-3.218876
64	0xc04e0210	-3.218876
65	0xc04e0210	-3.218876
66	0xc04e0210	-3.218876
67	0xc04e0210	-3.218876
68	0xc04e0210	-3.218876
69	0xc04e0210	-3.218876
70	0xc04e0210	-3.218876
71	0xc04e0210	-3.218876
72	0xc04e0210	-3.218876
73	0xc04e0210	-3.218876
74	0xc04e0210	-3.218876
75	0xc04e0210	-3.218876
76	0xc04e0210	-3.218876
77	0xc04e0210	-3.218876
78	0xc04e0210	-3.218876
79	0xc04e0210	-3.218876
80	0xc04e0210	-3.218876
81	0xc04e0210	-3.218876
82	0xc04e0210	-3.218876
83	0xc04e0210	-3.218876
84	0xc04e0210	-3.218876
85	0xc04e0210	-3.218876
86	0xc04e0210	-3.218876
87	0xc04e0210	-3.218876
88	0xc04e0210	-3.218876
89	0xc04e0210	-3.218876
90	0xc04e0210	-3.218876
91	0xc04e0210	-3.218876
92	0xc04e0210	-3.218876
93	0xc04e0210	-3.218876
94	0xc04e0210	-3.218876
95	0xc04e0210	-3.218876
96	0xc04e0210	-3.218876
97	0xc04e0210	-3.218876
98	0xc04e0210	-3.218876
99	0xc04e0210	-3.218876
100	0xc04e0210	-3.218876
101	0xc04e0210	-3.218876
102	0xc04e0210	-3.218876
103	0xc04e0210	-3.218876
104	0xc04e0210	-3.218876
105	0xc04e0210	-3.218876
106	0xc04e0210	-3.218876
107	0xc04e0210	-3.218876
108	0xc04e0210	-3.218876
109	0xc04e0210	-3.218876
110	0xc04e0210	-3.218876
111	0xc04e0210	-3.218876
112	0xc04e0210	-3.218876
113	0xc04e0210	-3.218876
114	0xc04e0210	-3.218876
115	0xc04e0210	-3.218876
116	0xc04e0210	-3.218876
117	0xc04e0210	-3.218876
118	0xc04e0210	-3.218876
119	0xc04e0210	-3.218876
120	0xc04e0210	-3.218876
121	0xc04e0210	-3.218876
122	0xc04e0210	-3.218876
123	0xc04e0210	-3.218876
124	0xc04e0210	-3.218876
125	0xc04e0210	-3.218876
126	0xc04e0210	-3.218876
127	0xc04e0210	-3.218876
128	0xc04e0210	-3.218876
129	0xc04e0210	-3.218876
130	0xc04e0210	-3.218876
131	0xc04e0210	-3.218876
132	0xc04e0210	-3.218876
133	0xc04e0210	-3.218876
134	0xc04e0210	-3.218876
135	0xc04e0210	-3.218876
136	0xc04e0210	-3.218876
137	0xc04e0210	-3.218876
138	0xc04e0210	-3.218876
139	0xc04e0210	-3.218876
140	0xc04e0210	-3.218876
141	0xc04e0210	-3.218876
142	0xc04e0210	-3.218876
143	0xc04e0210	-3.218876
144	0xc04e0210	-3.218876
145	0xc04e0210	-3.218876
146	0xc04e0210	-3.218876
147	0xc04e0210	-3.218876
148	0xc04e0210	-3.218876
149	0xc04e0210	-3.218876
150	0xc04e0210	-3.218876
151	0xc04e0210	-3.218876
152	0xc04e0210	-3.218876
153	0xc04e0210	-3.218876
154	0xc04e0210	-3.218876
155	0xc04e0210	-3.218876
156	0xc04e0210	-3.218876
157	0xc04e0210	-3.218876
158	0xc04e0210	-3.218876
159	0xc04e0210	-3.218876
160	0xc04e0210	-3.218876
161	0xc04e0210	-3.218876
162	0xc04e0210	-3.218876
163	0xc04e0210	-3.218876
164	0xc04e0210	-3.218876
165	0xc04e0210	-3.218876
166	0xc04e0210	-3.218876
167	0xc04e0210	-3.218876
168	0xc04e0210	-3.218876
169	0xc04e0210	-3.218876
170	0xc04e0210	-3.218876
171	0xc04e0210	-3.218876
172	0xc04e0210	-3.218876
173	0xc04e0210	-3.218876
174	0xc04e0210	-3.218876
175	0xc04e0210	-3.218876
176	0xc04e0210	-3.218876
177	0xc04e0210	-3.218876
178	0xc04e0210	-3.218876
179	0xc04e0210	-3.218876
180	0xc04e0210	-3.218876
181	0xc04e0210	-3.218876
182	0xc04e0210	-3.218876
183	0xc04e0210	-3.218876
184	0xc04e0210	-3.218876
185	0xc04e0210	-3.218876
186	0xc04e0210	-3.218876
187	0xc04e0210	-3.218876
188	0xc04e0210	-3.218876
189	0xc04e0210	-3.218876
190	0xc04e0210	-3.218876
191	0xc04e0210	-3.218876
192	0xc04e0210	-3.218876
193	0xc04e0210	-3.218876
194	0xc04e0210	-3.218876
195	0xc04e0210	-3.218876
196	0xc04e0210	-3.218876
197	0xc04e0210	-3.218876
198	0xc04e0210	-3.218876
199	0xc04e0210	-3.218876
200	0xc04e0210	-3.218876
201	0xc04e0210	-3.218876
202	0xc04e0210	-3.218876
203	0xc04e0210	-3.218876
204	0xc04e0210	-3.218876
205	0xc04e0210	-3.218876
206	0xc04e0210	-3.218876
207	0xc04e0210	-3.218876
208	0xc04e0210	-3.218876
209	0xc04e0210	-3.218876
210	0xc04e0210	-3.218876
211	0xc04e0210	-3.218876
212	0xc04e0210	-3.218876
213	0xc04e0210	-3.218876
214	0xc04e0210	-3.218876
215	0xc04e0210	-3.218876
216	0xc04e0210	-3.218876
217	0xc04e0210	-3.218876
218	0xc04e0210	-3.218876
219	0xc04e0210	-3.218876
220	0xc04e0210	-3.218876
221	0xc04e0210	-3.218876
222	0xc04e0210	-3.218876
223	0xc04e0210	-3.218876
224	0xc04e0210	-3.218876
225	0xc04e0210	-3.218876
226	0xc04e0210	-3.218876
227	0xc04e0210	-3.218876
228	0xc04e0210	-3.218876
229	0xc04e0210	-3.218876
230	0xc04e0210	-3.218876
231	0xc04e0210	-3.218876
232	0xc04e0210	-3.218876
233	0xc04e0210	-3.218876
234	0xc04e0210	-3.218876
235	0xc04e0210	-3.218876
236	0xc04e0210	-3.218876
237	0xc04e0210	-3.218876
238	0xc04e0210	-3.218876
239	0xc04e0210	-3.218876
240	0xc04e0210	-3.218876
241	0xc04e0210	-3.218876
242	0xc04e0210	-3.218876
243	0xc04e0210	-3.218876
244	0xc04e0210	-3.218876
245	0xc04e0210	-3.218876
246	0xc04e0210	-3.218876
247	0xc04e0210	-3.218876
248	0xc04e0210	-3.218876
249	0xc04e0210	-3.218876
250	0xc04e0210	-3.218876
251	0xc04e0210	-3.218876
252	0xc04e0210	-3.218876
253	0xc04e0210	-3.218876
254	0xc04e0210	-3.218876
255	0xc04e0210	-3.218876

bias_mu f4 [128]
0	0xbc0f739c	-0.008755591
1	0xbd112f51	-0.035445515
2	0xbbe8101c	-0.0070819985
3	0xbc821a59	-0.015881704
4	0xbed526c0	-0.41631126
5	0xbce7d384	-0.0282991
6	0xbcb4644b	-0.02202048
7	0x3e671284	0.22565657
8	0xbe058d5e	-0.13042209
9	0xbe08d8b8	-0.13363922
10	0xbca1e399	-0.019761847
11	0xbdd04a8a	-0.10170467
12	0xbe32fc27	-0.17479001
13	0xbdeaecd8	-0.114709556
14	0xbd403396	-0.046924196
15	0xbd810df0	-0.063014865
16	0x3ed5a388	0.41726327
17	0xbdeadec9	-0.11468274
18	0xbe09cac4	-0.13456255
19	0xbc8ea436	-0.017412286
20	0xbe058825	-0.13040216
21	0xbcd42975	-0.025898675
22	0xbcaeca3d	-0.02133667
23	0xbdf89af4	-0.1213893
24	0xbdcdf99f	-0.10057377
25	0xbd95b847	-0.07310539
26	0xbdc2c74c	-0.09510669
27	0x3774572a	1.4563828e-05
28	0xbc7c8429	-0.015412369
29	0xbde8180b	-0.11332711
30	0xbde6fb69	-0.112784214
31	0xbd221436	-0.039570056
32	0xbd1a971a	-0.037741758
33	0xbde059e0	-0.10954642
34	0xbc9ab646	-0.018885743
35	0xbde923b6	-0.113837644
36	0xbcb95379	-0.02262281
37	0xbdf90815	-0.12159745
38	0xbcc2e9ad	-0.023793066
39	0xbe00434a	-0.12525669
40	0xbde412d9	-0.111364074
41	0xbc81cfc5	-0.015846143
42	0xbba6677a	-0.0050782533
43	0xbd180a49	-0.037119184
44	0xbe04cb58	-0.12968194
45	0xbde73d6d	-0.11291013
46	0xbbd13057	-0.0063839364
47	0xbe02f92d	-0.12790366
48	0x3eb23ff1	0.34814408
49	0xbec48179	-0.3838003
50	0xbc6d3c27	-0.0144796735
51	0xbe6f31ac	-0.23358792
52	0xbe118f6a	-0.14214864
53	0xbeb0f1a5	-0.3455936
54	0xbe3ec239	-0.18628778
55	0xbec098a1	-0.37616447
56	0xbeaac093	-0.33350047
57	0xbead9784	-0.3390466
58	0xbc0b4b94	-0.008501906
59	0xbeaf1ce7	-0.34201738
60	0xbe499cf8	-0.19688785
61	0x3e9a98dc	0.30194747
62	0xbd4f4687	-0.05060437
63	0xbed91f21	-0.42406562
64	0xbcf33050	-0.029686123
65	0x3f0e3c79	0.55561024
66	0xbc87f372	-0.016595576
67	0xbecc1ef6	-0.3986737
68	0xbe9fe94a	-0.31232673
69	0xbdfee405	-0.12445835
70	0xbd9ffdc7	-0.07812076
71	0xbc96da3f	-0.018414615
72	0xbe4819a2	-0.19541028
73	0xbd85fd97	-0.06542509
74	0x3e6283d0	0.22120595
75	0xbde0a00a	-0.10968025
76	0xbde72e50	-0.1128813
77	0xbdf357eb	-0.118820034
78	0xbe29558f	-0.16536544
79	0x3e980189	0.2968867
80	0xbecf29b8	-0.40461516
81	0x3ed49535	0.41520086
82	0xbd32cb1c	-0.04365073
83	0xbe814e57	-0.2525508
84	0xbdcffd57	-0.101557426
85	0xbea14f0a	-0.31505615
86	0xbd346985	-0.044045944
87	0xbce433bb	-0.027856698
88	0xbdbec70e	-0.093153104
89	0xbde6e69d	-0.11274455
90	0xbbc736b6	-0.00607952
91	0xbdc5dcde	-0.09661268
92	0xbcb1e190	-0.021714002
93	0xbdebea7f	-0.11519336
94	0x3ec2833b	0.37990746
95	0xbdf4dc07	-0.119560294
96	0x3ebc9c28	0.36837888
97	0xbecf7ec4	-0.40526402
98	0xbc416217	-0.011803172
99	0xbc3f054a	-0.011658976
100	0xbdbedbf6	-0.09319298
101	0xbcc42690	-0.02394417
102	0xbe2ffe0d	-0.17186756
103	0x3f138d86	0.5763782
104	0xbd650190	-0.055909693
105	0xbca4fd2f	-0.020140259
106	0xbdb92157	-0.09039562
107	0xbb9fc4c3	-0.0048757507
108	0xbef62b7e	-0.48080057
109	0x3ef5381c	0.4789437
110	0x3e8e752f	0.2782378
111	0xbe43a880	-0.19107246
112	0xbccca41b	-0.024980595
113	0xbcd87ff7	-0.026428206
114	0xbdd78e4d	-0.105251886
115	0xbde38380	-0.11109066
116	0xbdd962e3	-0.10614564
117	0xbd988e7d	-0.074490525
118	0xbdcb8197	-0.09936827
119	0xbbbd565e	-0.005778118
120	0xbcc13ed1	-0.023589524
121	0xbcb876b8	-0.022517547
122	0x3f1bee71	0.6091071
123	0xbc07f2ff	-0.008297681
124	0xbcbe1fde	-0.023208555
125	0x3e898d1a	0.26865464
126	0xbe2c59d0	-0.16831136
127	0x3e7975ec	0.2436139

bias_logvar f4 [128]
0	0xc04e0210	-3.218876
1	0xc04e0210	-3.218876
2	0xc04e0210	-3.218876
3	0xc04e0210	-3.218876
4	0xc04e0210	-3.218876
5	0xc04e0210	-3.218876
6	0xc04e0210	-3.218876
7	0xc04e0210	-3.218876
8	0xc04e0210	-3.218876
9	0xc04e0210	-3.218876
10	0xc04e0210	-3.218876
11	0xc04e0210	-3.218876
12	0xc04e03f2	-3.2189908
13	0xc04e0210	-3.218876
14	0xc04e0210	-3.218876
15	0xc04e0210	-3.218876
16	0xc04e0210	-3.218876
17	0xc04e0210	-3.218876
18	0xc04e0210	-3.218876
19	0xc04e0210	-3.218876
20	0xc04e0210	-3.218876
21	0xc04e0210	-3.218876
22	0xc04e0210	-3.218876
23	0xc04e0210	-3.218876
24	0xc04e0210	-3.218876
25	0xc04e0210	-3.218876
26	0xc04e0210	-3.218876
27	0xc04e0210	-3.218876
28	0xc04e0210	-3.218876
29	0xc04e0210	-3.218876
30	0xc04e0210	-3.218876
31	0xc04e0210	-3.218876
32	0xc04e0210	-3.218876
33	0xc04e0210	-3.218876
34	0xc04e0210	-3.218876
35	0xc04e0210	-3.218876
36	0xc04e0210	-3.218876
37	0xc04e0210	-3.218876
38	0xc04e0210	-3.218876
39	0xc04e0210	-3.218876
40	0xc04e0210	-3.218876
41	0xc04e0210	-3.218876
42	0xc04e0210	-3.218876
43	0xc04e0210	-3.218876
44	0xc04e0210	-3.218876
45	0xc04e0210	-3.218876
46	0xc04e0210	-3.218876
47	0xc04e11bb	-3.2198322
48	0xc04e0210	-3.218876
49	0xc04e0210	-3.218876
50	0xc04e0210	-3.218876
51	0xc04e1306	-3.219911
52	0xc04e0210	-3.218876
53	0xc04e0210	-3.218876
54	0xc04e0210	-3.218876
55	0xc04e0210	-3.218876
56	0xc04e026f	-3.2188985
57	0xc04e0210	-3.218876
58	0xc04e0210	-3.218876
59	0xc04e0210	-3.218876
60	0xc04e0210	-3.218876
61	0xc04e0210	-3.218876
62	0xc04e0210	-3.218876
63	0xc04e0210	-3.218876
64	0xc04e0210	-3.218876
65	0xc04e086a	-3.2192636
66	0xc04e0210	-3.218876
67	0xc04e0210	-3.218876
68	0xc04e0210	-3.218876
69	0xc04e0210	-3.218876
70	0xc04e0210	-3.218876
71	0xc04e0210	-3.218876
72	0xc04e0210	-3.218876
73	0xc04e0210	-3.218876
74	0xc04e0210	-3.218876
75	0xc04e0210	-3.218876
76	0xc04e0210	-3.218876
77	0xc04e0210	-3.218876
78	0xc04e0210	-3.218876
79	0xc04e0360	-3.218956
80	0xc04e0210	-3.218876
81	0xc04e0210	-3.218876
82	0xc04e0210	-3.218876
83	0xc04e0210	-3.218876
84	0xc04e0210	-3.218876
85	0xc04e0210	-3.218876
86	0xc04e0210	-3.218876
87	0xc04e0210	-3.218876
88	0xc04e0210	-3.218876
89	0xc04e0210	-3.218876
90	0xc04e0210	-3.218876
91	0xc04e0210	-3.218876
92	0xc04e0210	-3.218876
93	0xc04e0210	-3.218876
94	0xc04e0262	-3.2188954
95	0xc04e0210	-3.218876
96	0xc04e08e8	-3.2192936
97	0xc04e0210	-3.218876
98	0xc04e0210	-3.218876
99	0xc04e0210	-3.218876
100	0xc04e0210	-3.218876
101	0xc04e0210	-3.218876
102	0xc04e0210	-3.218876
103	0xc04e0210	-3.218876
104	0xc04e0210	-3.218876
105	0xc04e0210	-3.218876
106	0xc04e0210	-3.218876
107	0xc04e0210	-3.218876
108	0xc05bf231	-3.4366572
109	0xc04e0210	-3.218876
110	0xc04e0210	-3.218876
111	0xc04e0210	-3.218876
112	0xc04e0210	-3.218876
113	0xc04e0210	-3.218876
114	0xc04e0210	-3.218876
115	0xc04e0210	-3.218876
116	0xc04e0210	-3.218876
117	0xc04e0210	-3.218876
118	0xc04e0210	-3.218876
119	0xc04e0210	-3.218876
120	0xc04e0210	-3.218876
121	0xc04e0210	-3.218876
122	0xc04e0210	-3.218876
123	0xc04e0210	-3.218876
124	0xc04e0210	-3.218876
125	0xc04e0210	-3.218876
126	0xc04e0210	-3.218876
127	0xc04e0210	-3.218876

z_mu f4 [128]
0	0x3a3c2b5d	0.00071780925
1	0xbb068a32	-0.0020529148
2	0xbaa34a96	-0.0012458141
3	0xb9649319	-0.00021798573
4	0x3ede51d8	0.43421817
5	0xba1522de	-0.00056890945
6	0x3a326d8b	0.00068064843
7	0x3e46b385	0.19404419
8	0x3bf9c393	0.007622191
9	0x3afa7862	0.0019109363
10	0xb9a6a32f	-0.0003178357
11	0xba43dd68	-0.0007471652
12	0x3f6e4868	0.93079233
13	0x3c3539ca	0.011061141
14	0x3ea1e155	0.31617227
15	0x3ea5273d	0.322565
16	0x3e92e263	0.28688344
17	0xbbeff788	-0.007323209
18	0xbbc1b003	-0.005910875
19	0x38c78e00	9.515509e-05
20	0xbb196742	-0.0023407494
21	0x3a04427e	0.00050453085
22	0x39a301b0	0.0003109104
23	0x3c077b2e	0.008269114
24	0xba7a4299	-0.0009546667
25	0xb9f8a74d	-0.00047426895
26	0xbc35a198	-0.01108589
27	0x39bdb3ee	0.00036182947
28	0xbaa6a5f3	-0.0012714252
29	0xba00d7f3	-0.00049149914
30	0xbc3dc554	-0.011582691
31	0x3a16990b	0.0005744851
32	0xbab665cb	-0.0013915835
33	0xbb766f62	-0.003760301
34	0xba6bdd0b	-0.00089974765
35	0x3e9fbabe	0.3119716
36	0x38366e2a	4.349478e-05
37	0xbc604692	-0.0136887
38	0x3b859c4e	0.004077471
39	0xbb55508b	-0.0032549228
40	0xbc179f0c	-0.009254228
41	0x3a2cdeff	0.00065945083
42	0x3a15fb70	0.0005721366
43	0xbb0bde4b	-0.0021342214
44	0x3c5312eb	0.012882928
45	0xba1804a3	-0.0005799031
46	0xb948bea2	-0.00019144503
47	0x3f2d6028	0.6772485
48	0x3e97ebd5	0.29672113
49	0x3ec7d602	0.39030463
50	0x391a9f95	0.00014746033
51	0x3ed32fd6	0.41247433
52	0xbbff68be	-0.0077944687
53	0x3f00d2c7	0.5032162
54	0x3ea34e17	0.31895515
55	0x3e99a392	0.30007607
56	0x3f1943f0	0.5986929
57	0x3f4fe1e3	0.8120405
58	0x3aecb410	0.0018059034
59	0x3f2c75ef	0.6736745
60	0x3e66ea6b	0.22550361
61	0x3e93fc10	0.28903246
62	0xbc22a096	-0.009925982
63	0x3f4a24e4	0.7896254
64	0xb9bdf0ad	-0.00036228207
65	0x3eea83fc	0.4580382
66	0xb9870836	-0.00025755324
67	0x3f7c778c	0.98619914
68	0x3d517462	0.051136382
69	0x3a6d172a	0.0009044284
70	0x3e61664d	0.22011681
71	0xba25f4e8	-0.00063307444
72	0x3eafe2a1	0.34352592
73	0xba71378f	-0.0009201699
74	0x3e1bb979	0.15207471
75	0xbb433cbc	-0.002979084
76	0x3c38620d	0.011253846
77	0xbb20dc04	-0.0024545202
78	0x3eaf9042	0.34289747
79	0x3e887171	0.2664905
80	0x3f21af72	0.63158333
81	0x3e6c9287	0.23102771
82	0x392d137d	0.00016505826
83	0x3f73e2f2	0.95268166
84	0xbc16ac68	-0.009196378
85	0x3e90ae89	0.2825816
86	0x390ca603	0.00013413285
87	0x3a0ef865	0.0005453884
88	0x3bd2744d	0.0064225555
89	0xbb9b49b2	-0.00473901
90	0xb9da8ace	-0.00041683618
91	0xbc1aa5b5	-0.009438922
92	0xb727ee4e	-1.000946e-05
93	0x3bbf4f90	0.005838342
94	0x3ead26d2	0.3381868
95	0x3bc2ce3f	0.0059449966
96	0x3ea725ec	0.3264612
97	0x3f32cc7d	0.69843274
98	0xb803471b	-3.1299056e-05
99	0xb99afa1f	-0.00029559524
100	0xba637abc	-0.00086776516
101	0x3abc4a09	0.0014365326
102	0x3e9586bf	0.29204366
103	0x3ee7ce6f	0.45274684
104	0x3ebc659c	0.36796272
105	0x39b5ffa5	0.0003471348
106	0x3a4aad75	0.00077315356
107	0x3a27ab37	0.00063960574
108	0x3f9516af	1.1647547
109	0x3ec695cd	0.38786164
110	0x3e21fbb1	0.15818669
111	0x3f72e617	0.9488234
112	0x3a4a1b13	0.0007709723
113	0xb895e9b2	-7.148403e-05
114	0xbb967e9d	-0.00459273
115	0x3c6cd36e	0.014454706
116	0xbbeb32eb	-0.0071777008
117	0xbab19af2	-0.0013550206
118	0x3b0ff4e6	0.002196604
119	0xba0d30b3	-0.000538598
120	0x39887ed4	0.00026034436
121	0xb91948f4	-0.00014618394
122	0x3edfb606	0.4369356
123	0x36cd18c5	6.1123596e-06
124	0xbab6f41d	-0.001395825
125	0x3e347ac7	0.17624961
126	0x3d2b3879	0.041801903
127	0x3dcb4b12	0.09926428

z_logvar f4 [128]
0	0xc1209373	-10.035998
1	0xc11709a9	-9.439858
2	0xc12499a5	-10.287511
3	0xc12cc594	-10.798237
4	0xc0890c98	-4.2827873
5	0xc11d20e8	-9.820534
6	0xc1268243	-10.406802
7	0xc0a68fa2	-5.2050333
8	0xc08c8a31	-4.391869
9	0xc096c68b	-4.711736
10	0xc12ef3c2	-10.934511
11	0xc0a75ae3	-5.2298446
12	0xc0a3d07e	-5.1192007
13	0xc09bb609	-4.865971
14	0xc0af2e61	-5.4744115
15	0xc0aec852	-5.461953
16	0xc0bd650e	-5.918586
17	0xc0903469	-4.5063977
18	0xc0859b59	-4.1752133
19	0xc13248d5	-11.142781
20	0xc08c703f	-4.388702
21	0xc11f81a9	-9.969155
22	0xc1212a85	-10.072881
23	0xc08b69e3	-4.3566756
24	0xc09d1886	-4.9092436
25	0xc0ee1bed	-7.440909
26	0xc0a468f8	-5.1378136
27	0xc12b6287	-10.711555
28	0xc11ceb06	-9.807379
29	0xc09ee3bd	-4.9653
30	0xc09a33af	-4.818809
31	0xc1189ea4	-9.538731
32	0xc104a331	-8.289842
33	0xc0a8eb1c	-5.2787
34	0xc11fffc2	-9.999941
35	0xc0ba46d5	-5.8211465
36	0xc11edf7f	-9.929564
37	0xc08629cc	-4.192602
38	0xc11018fc	-9.0061
39	0xc0926fb4	-4.5761356
40	0xc085514e	-4.166175
41	0xc1294cdf	-10.581267
42	0xc12769d1	-10.463334
43	0xc114e876	-9.306753
44	0xc07ad344	-3.9191446
45	0xc0a5dfe5	-5.183581
46	0xc12bd159	-10.73861
47	0xc09ce1a6	-4.902545
48	0xc0b0b52c	-5.5221157
49	0xc0a40a88	-5.1262856
50	0xc12f8fe4	-10.97263
51	0xc0979173	-4.736505
52	0xc0670f6e	-3.6103168
53	0xc0821961	-4.065598
54	0xc0b34586	-5.6022367
55	0xc0a5ca07	-5.1809115
56	0xc0917026	-4.54494
57	0xc0b7c2ab	-5.742513
58	0xc129dd39	-10.616509
59	0xc0932308	-4.5980263
60	0xc0926d02	-4.5758066
61	0xc0b0d60d	-5.5261292
62	0xc09ea195	-4.9572244
63	0xc0a8f805	-5.280276
64	0xc11e5bb0	-9.897385
65	0xc0c4d5db	-6.1511054
66	0xc12e1ffc	-10.882809
67	0xc0a21f76	-5.0663404
68	0xc05d8d00	-3.461731
69	0xc093ee5a	-4.6228456
70	0xc0a884bd	-5.2662034
71	0xc123bbcc	-10.233349
72	0xc0b17a21	-5.5461583
73	0xc0f22e88	-7.56818
74	0xc0ab6cfb	-5.3570533
75	0xc0a1a7bf	-5.051727
76	0xc08e2e4b	-4.443151
77	0xc097de8e	-4.7459173
78	0xc09c4c8f	-4.8843455
79	0xc0b19dc3	-5.550508
80	0xc09814ef	-4.7525554
81	0xc0b976f8	-5.7957726
82	0xc11715b5	-9.4428
83	0xc09bee6c	-4.872854
84	0xc09844d5	-4.7584023
85	0xc0720b24	-3.78193
86	0xc10b6460	-8.712006
87	0xc124e410	-10.305679
88	0xc0b151db	-5.541242
89	0xc099c269	-4.8049817
90	0xc12a1b91	-10.63173
91	0xc09a3116	-4.818492
92	0xc12a3d0b	-10.639903
93	0xc0987362	-4.764085
94	0xc0bb4ff7	-5.8535113
95	0xc09b2df1	-4.849358
96	0xc0b763e9	-5.730946
97	0xc0a98d0a	-5.2984667
98	0xc12ab891	-10.67006
99	0xc11fa256	-9.977133
100	0xc09ffa83	-4.99933
101	0xc1281fb6	-10.507742
102	0xc0aea50c	-5.4576473
103	0xc0c6d978	-6.2140465
104	0xc0b6935f	-5.7054896
105	0xc12703f9	-10.43847
106	0xc0928e64	-4.5798817
107	0xc12d06d7	-10.81417
108	0xc0bec3aa	-5.961385
109	0xc0c342d5	-6.101908
110	0xc0a50188	-5.156437
111	0xc0aa2e2c	-5.318136
112	0xc123277a	-10.197138
113	0xc129d5c8	-10.614693
114	0xc0a1ef35	-5.06045
115	0xc08b2a4d	-4.3489137
116	0xc0a479f7	-5.1398883
117	0xc0a8fb6a	-5.28069
118	0xc08e837f	-4.453552
119	0xc12feb36	-10.994925
120	0xc122c465	-10.172948
121	0xc12599c4	-10.35004
122	0xc0b9f3c7	-5.811008
123	0xc1279d18	-10.475853
124	0xc1288892	-10.533342
125	0xc0abc776	-5.3680983
126	0xc0974239	-4.726834
127	0xc09e7182	-4.951356

weight_mu f4 [2, 128]
0	0xbbf806d5	-0.007569174
1	0xbc757c09	-0.014983186
2	0x3d2f564f	0.04280692
3	0x3bbaf740	0.005705744
4	0xbefccaf0	-0.4937358
5	0xbc821184	-0.015877493
6	0x3d06c14c	0.032899186
7	0x3ec1a48d	0.37820855
8	0xbca71f78	-0.020400748
9	0xbe38d3a4	-0.18049484
10	0x3ba491f5	0.0050222822
11	0x3cf39086	0.029732
12	0xbef3d115	-0.47620454
13	0x3cb087d6	0.021549147
14	0xbe9de907	-0.30841848
15	0xbe93bca9	-0.28854874
16	0x3e73e026	0.23815975
17	0x3d6fc22d	0.05853479
18	0xbcfef735	-0.031123737
19	0x3a734bdb	0.00092810177
20	0x3d03271c	0.03201972
21	0x3c86c92a	0.016453344
22	0xbc835fa3	-0.016036814
23	0x3bf8cbae	0.00759264
24	0xbb9d617b	-0.0048028803
25	0xbd17bdd7	-0.03704628
26	0x3c4cfa7e	0.012510894
27	0x3d5712e7	0.05250826
28	0xbd43cc28	-0.04780212
29	0x3d0ec3c9	0.034854684
30	0x3bbc8ab7	0.005753841
31	0xbb870fc3	-0.004121752
32	0xbbe3653e	-0.0069395592
33	0x3c8944ad	0.01675638
34	0x3c89c6b9	0.016818391
35	0xbe79493f	-0.24344347
36	0xbd4fb8a9	-0.050713215
37	0x3c52bcdb	0.012862409
38	0x3d59df23	0.053191315
39	0xbd0b6478	-0.03403136
40	0xbd1400ec	-0.03613369
41	0xbd3b2f0d	-0.045699168
42	0x3d290f19	0.041274164
43	0xbb2bc7dd	-0.0026211657
44	0x3c7f0421	0.015564949
45	0x3cfc5a96	0.030804913
46	0x3d4a7ab7	0.049433436
47	0xbeefa82c	-0.46807992
48	0x3e8322be	0.25612444
49	0xbeb2c4e7	-0.3491585
50	0x3bee5806	0.007273677
51	0xbeb49410	-0.35269213
52	0xbc8ce341	-0.017198207
53	0xbedbfa32	-0.4296432
54	0xbe84d159	-0.2594097
55	0xbebaf431	-0.36514428
56	0xbec63d79	-0.38718775
57	0xbeaaf7fa	-0.33392316
58	0x3cd73fc7	0.026275529
59	0xbf08d427	-0.5344872
60	0xbeb68519	-0.3564842
61	0x3e947b07	0.29000112
62	0x3ddb5269	0.10709078
63	0xbeb9334c	-0.3617195
64	0x3ba33af4	0.004981393
65	0x3e6c5b49	0.23081698
66	0xbceac832	-0.028659914
67	0xbed8a422	-0.42312723
68	0xbec21d11	-0.379128
69	0x3cf17237	0.029473407
70	0xbea18f3e	-0.31554598
71	0xba81503b	-0.000986583
72	0xbe86f153	-0.2635599
73	0x3d176dd1	0.036969963
74	0x3e8e42ef	0.2778544
75	0x3cf0c0d4	0.029388823
76	0x3bd7324d	0.0065672756
77	0xbc9e1f81	-0.019302132
78	0xbeb9487f	-0.36188123
79	0x3e957fef	0.29199168
80	0xbec916f8	-0.39275336
81	0x3e8932f0	0.26796675
82	0xbbbb1a9f	-0.0057099606
83	0xbf008627	-0.502047
84	0x3c727588	0.014798529
85	0xbef8bf09	-0.48583248
86	0xba556e5b	-0.00081417494
87	0xbd38b7bc	-0.045097098
88	0xbd5368b2	-0.051613517
89	0x3bf829bd	0.007573335
90	0x3cb09146	0.021553647
91	0x3d6334d7	0.055470314
92	0x3d27ce3a	0.040968157
93	0xbc895184	-0.016762502
94	0x3e7547ad	0.23953123
95	0x3d3bc5d7	0.04584297
96	0x3e8efb70	0.27926207
97	0xbe9186e2	-0.2842322
98	0x3d179651	0.037008587
99	0xbb2faae2	-0.0026804735
100	0xbab2b3d9	-0.0013633921
101	0xbd58a50c	-0.052891776
102	0xbe868b7f	-0.26278302
103	0x3e79aa70	0.24381423
104	0xbe925fd6	-0.28588742
105	0xbd2815a0	-0.04103625
106	0xbcc055c1	-0.02347839
107	0xbcbaaf9e	-0.022788819
108	0xbed54b67	-0.4165909
109	0x3e659479	0.22419919
110	0x3e9f0fae	0.3106665
111	0xbeea9f4f	-0.45824668
112	0xbd7b8ad5	-0.061411697
113	0xbb4d1b64	-0.0031296844
114	0x3ce02414	0.027360953
115	0xbbd38c13	-0.006455907
116	0xbcd25a52	-0.025677834
117	0x3d2ae94d	0.0417264
118	0xbc7f7ed4	-0.015594203
119	0x3cbbbe47	0.02291788
120	0x3c47ac69	0.012187102
121	0x3c6735a3	0.014111909
122	0x3e489a45	0.19590099
123	0x3c961279	0.018319355
124	0xbd20c863	-0.039253604
125	0x3e98ef07	0.29869863
126	0xbea106ea	-0.31450588
127	0x3ea05ca9	0.31320694
128	0x3c4f58a7	0.012655414
129	0x3c530072	0.012878524
130	0xbd4571d9	-0.048204277
131	0xbc0aff95	-0.008483787
132	0x3f002e20	0.5007038
133	0x3c8a00a1	0.016846003
134	0xbd19f898	-0.037590593
135	0xbec28832	-0.37994534
136	0x3cc5aff4	0.024131753
137	0x3e3b969b	0.1831917
138	0xbc0ee7a1	-0.008722217
139	0xbcd8d7d3	-0.0264701
140	0x3ef3f8a7	0.47650644
141	0xbcbffd46	-0.0234362
142	0x3e9c4a1b	0.30525288
143	0x3e94d05f	0.29065225
144	0xbe716e3b	-0.23577206
145	0xbd5c2165	-0.053742785
146	0x3ca6a562	0.020342533
147	0x3b5a4630	0.0033305995
148	0xbcc273f1	-0.023736926
149	0xbc3699a5	-0.01114503
150	0x3c9cc06f	0.019134728
151	0x3b8868ee	0.004162899
152	0x3bf6cefc	0.0075319987
153	0x3d0ccfef	0.03437799
154	0xbc7455f9	-0.014913076
155	0xbd418730	-0.047248065
156	0x3d548ad1	0.0518902
157	0xbd032fec	-0.032028124
158	0xbb804f60	-0.0039157122
159	0x3b1a6b3f	0.0023562459
160	0x3b76b22b	0.0037642817
161	0xbc179486	-0.009251719
162	0xbc9476fe	-0.018123146
163	0x3e7dddb9	0.24791612
164	0x3d58cec2	0.052931555
165	0xbbed8232	-0.0072481865
166	0xbd4d8160	-0.05017221
167	0x3d3baa7b	0.04581688
168	0x3d10b401	0.035327915
169	0x3d4cfd56	0.050046287
170	0xbd247ff7	-0.0401611
171	0xbba43b5d	-0.0050119595
172	0xbc4c696f	-0.012476309
173	0xbcf0aeff	-0.02938032
174	0xbd658fa0	-0.056045175
175	0x3ef1ed7e	0.47251505
176	0xbe82a506	-0.25516528
177	0x3eb39fa8	0.35082746
178	0xbc55d181	-0.013050438
179	0x3eb5adcd	0.35484162
180	0x3cd78683	0.026309257
181	0x3ede7a13	0.4345251
182	0x3e83ffe2	0.2578116
183	0x3eb9e4ce	0.36307377
184	0x3ec7305f	0.38904092
185	0x3eab1a18	0.33418345
186	0xbcc8b69a	-0.024501134
187	0x3f090b68	0.5353303
188	0x3eb656a9	0.3561299
189	0xbe93fed8	-0.28905368
190	0xbdd5e078	-0.10443205
191	0x3eb8d6e5	0.36101452
192	0xbc0e16af	-0.0086724
193	0xbe6d5e1d	-0.23180433
194	0x3cd9dac8	0.02659358
195	0x3ed73a4f	0.42036673
196	0x3ebb6633	0.3660141
197	0xbd036abc	-0.03208421
198	0x3ea2ffee	0.31835884
199	0xbb012d25	-0.0019710746
200	0x3e8612b2	0.26186138
201	0xbcfb37a5	-0.030666182
202	0xbe8e15f9	-0.2775114
203	0xbcf048af	-0.029331533
204	0xbbae9202	-0.005327464
205	0x3c8ae117	0.016953034
206	0x3eb86ce6	0.36020583
207	0xbe925c36	-0.28585976
208	0x3ecb1673	0.39665565
209	0xbe87fd5a	-0.2656048
210	0x3b81f0e8	0.003965486
211	0x3f00f06f	0.5036687
212	0xbc2b891b	-0.0104697
213	0x3ef5f6a9	0.4803975
214	0x3b79d017	0.0038118416
215	0x3d4040f1	0.046936933
216	0x3d788c41	0.06068063
217	0xbba2c071	-0.0049667885
218	0xbc8a6422	-0.01689345
219	0xbd6c73bf	-0.05772757
220	0xbd0778d8	-0.03307423
221	0x3c67bede	0.014144627
222	0xbe760b07	-0.24027644
223	0xbcef5b78	-0.02921842
224	0xbe904edc	-0.28185165
225	0x3e920cb7	0.28525326
226	0xbd0c7392	-0.034289904
227	0x3ba25e5e	0.004955097
228	0x3c382f46	0.01124174
229	0x3d68fb9b	0.056880575
230	0x3e86cd05	0.26328292
231	0xbe7a1ebe	-0.2442579
232	0x3e91baec	0.28462923
233	0x3d203d5c	0.039121017
234	0x3d068827	0.03284469
235	0x3c8bb0e8	0.017052129
236	0x3ed42ab5	0.41438833
237	0xbe674e01	-0.2258835
238	0xbea01fb4	-0.31274188
239	0x3eea1e10	0.4572606
240	0x3d798fe9	0.06092826
241	0x38a5e6ca	7.910801e-05
242	0xbd24b5b3	-0.040212344
243	0x3c062ad1	0.008188919
244	0x3d237113	0.039902758
245	0xbd3cd1c9	-0.046098504
246	0x3c88986d	0.016674245
247	0xbcbfa765	-0.02339525
248	0xbc45b52a	-0.012067119
249	0xbc3e55c8	-0.0116171315
250	0xbe46ca32	-0.19413069
251	0xbca7bd01	-0.020475866
252	0x3d245918	0.04012403
253	0xbe96deeb	-0.29466948
254	0x3ea3c50a	0.31986266
255	0xbe9fe8f1	-0.31232408
