metric/probe_finetune_50000.pth (torch, 539447 bytes, 12 tensors)

z_mu f4 [512]
000000 2c 9f f5 3e 99 71 38 3f 83 ab a4 3a 56 e4 a3 ba
       0.47973 0.72048336 0.0012563322 -0.0012503962
000010 d7 e8 28 b9 26 a1 2e bb c0 51 32 3c 14 77 9f 3a
       -0.00016108468 -0.0026646345 0.0108837485 0.0012166225
000020 99 c8 cf 3a ce c0 e4 bb b2 47 1b 3a fc a2 e9 3a
       0.001585263 -0.006980992 0.0005923464 0.0017825062
000030 ef 85 53 3f 97 9a 14 3d 9a 89 86 3a 86 38 4e 3b
       0.8262624 0.03628024 0.0010264397 0.0031466796
000040 8b 99 1d bc 61 ff 84 3b 90 b2 93 3c bc 06 cd b7
       -0.009619127 0.004058764 0.018029481 -2.444104e-05
000050 a1 02 1b 3b 06 2a 50 3b 28 22 12 bb 87 30 0b 37
       0.002365269 0.003176333 -0.002229819 8.296344e-06
000060 7c 8b 08 ba 1f 80 12 3f 63 ac 1b 3b f6 77 72 3f
       -0.0005208773 0.5722675 0.0023753874 0.94714296
000070 b6 ac d5 bb 4e b8 58 b9 14 64 b9 bb b1 eb 7a ba
       -0.006520833 -0.00020668024 -0.005657682 -0.0009571864
000080 77 88 2e 3b d1 5a 98 ba d2 e0 50 3f 24 0e a2 b9
       0.0026631632 -0.0011623745 0.8159305 -0.00030909583
000090 57 8e 1e 3c 17 a8 36 ba 53 68 6e 3f 38 2d 9f 3f
       0.009677491 -0.00069677964 0.93127936 1.2435675
0000a0 37 5f cd bb 67 da 66 3b 6b 07 a2 ba 1b 1c 39 3f
       -0.006267454 0.0035225393 -0.001236183 0.7230851
0000b0 40 d9 ab 3a 36 bb 64 3f 54 3e ac 3b d0 04 37 3f
       0.001311101 0.8934816 0.0052564535 0.7149172
0000c0 5c 6e ac ba 61 39 8b ba c6 20 f1 b9 80 1b 91 b9
       -0.0013155448 -0.0010621959 -0.0004599152 -0.00027677044
0000d0 1d 7c 4d 3f 16 fc b6 3f e2 70 8c 3f 2f 32 7c b9
       0.80267507 1.429568 1.0971949 -0.00024051288
0000e0 38 b9 08 3f bc a0 68 3b f6 38 89 3a 13 d6 4d 3b
       0.5340762 0.0035496196 0.0010469246 0.0031408116
0000f0 a9 4a 29 3f 80 64 7b 3a 3f 3c ed bb a9 71 80 3b
       0.6612955 0.0009589866 -0.007239848 0.0039197993
000100 62 be 5b 3f 26 60 f9 ba 14 45 34 3f e2 5b d6 b9
       0.85837376 -0.0019025847 0.70417905 -0.0004088572
000110 77 ab 7d 38 30 74 29 3f e3 08 6e bb 1f 2d 6c 3f
       6.047959e-05 0.66192913 -0.0036321215 0.9225635
000120 be e5 4f 3b 54 cf fe b9 18 89 95 3d 72 72 bb 3a
       0.003172263 -0.00048601127 0.07301539 0.0014301075
000130 bc 1e 2a 3f f1 d9 6b 3b 6b e0 c0 b9 30 57 61 ba
       0.66453147 0.0035988057 -0.00036788298 -0.0008596061
000140 db 6e da 3b 82 c1 15 3b 7b 1e 99 ba 60 e9 56 ba
       0.006666047 0.0022850935 -0.0011682058 -0.0008198228
000150 41 bf 43 3f ce d7 51 3b 68 ca 2d ba 74 d6 84 3f
       0.76463705 0.0032019499 -0.0006629587 1.0377946
000160 0e 46 0c bc e7 53 a3 3f 7b 50 14 3f 94 59 73 ba
       -0.008561624 1.275998 0.57935303 -0.00092830625
000170 ef ee 5e 3b 52 56 84 3f be 7e 15 ba 09 b1 bf 3b
       0.0034016927 1.0338843 -0.0005702785 0.0058499617
000180 fd 7f 4f 3c da 25 5e 3f 85 99 1a bb c6 66 f9 3b
       0.012664792 0.86776507 -0.002359004 0.0076111285
000190 e1 e8 92 3b 23 bb a7 bb 8d 77 a6 3c 5c 5a 4f ba
       0.0044833277 -0.005118744 0.020320678 -0.0007909888
0001a0 18 1a 92 39 ce 3f ec 3e ce 08 96 3f 1d 6d b4 ba
       0.0002786673 0.4614243 1.1721437 -0.0013765428
0001b0 e8 c1 b9 3b 66 9d 7c 3f a8 6b 4d bb e0 63 8d ba
       0.0056688674 0.9867767 -0.0031344686 -0.0010787211
0001c0 a3 f7 0d bb 09 2a 9f 3e d1 da b6 3f 32 0f e6 3e
       -0.0021662496 0.31086758 1.4285527 0.44933468
0001d0 c5 40 7b 3c c4 0d 84 3b f9 f3 64 3b 02 c8 c4 b9
       0.0153352665 0.0040299613 0.0034935458 -0.0003753305
0001e0 32 80 a0 3f aa 8b a0 ba 11 80 a3 36 5c 63 8f 3f
       1.2539122 -0.0012248654 4.8726874e-06 1.1202197
0001f0 c2 21 2a 3b 22 be 8c 3f 2e 1d 07 3b 5b 21 59 39
       0.0025960063 1.0995524 0.0020616758 0.00020707159
000200 10 8b 3c 3f 37 c2 65 ba 2a a3 6b 3b 27 5a 8d 3f
       0.7364969 -0.0008764597 0.0035955408 1.1043137
000210 95 1a ee 3a 83 5c f3 3a 3c e9 d5 bb 5f 44 2c 3b
       0.0018165881 0.0018566999 -0.006528048 0.002628587
000220 87 eb 74 b8 3f c5 45 39 9c 78 90 3e 91 0a 23 3b
       -5.8393485e-05 0.00018860864 0.28217018 0.0024878124
000230 0e 22 e2 ba 96 51 6d ba 05 59 ad 3f aa 72 fc b9
       -0.0017252581 -0.000905299 1.3542792 -0.00048150617
000240 23 b9 30 3f 09 9f 05 bb 0c ef 4c b9 93 f8 06 3b
       0.69032496 -0.0020388982 -0.00019544008 0.002059494
000250 00 a3 2f 3f 92 ee 91 3a 0d f2 f4 ba d1 42 a7 39
       0.68608093 0.0011133722 -0.0018687859 0.00031902504
000260 47 54 45 3f 34 29 00 3c 9b d3 03 bb 18 88 ed ba
       0.7708172 0.007822324 -0.002011514 -0.0018122224
000270 2f 64 7f 3f 7e 92 e9 3f c4 4f 44 bb 15 d4 db bb
       0.99762243 1.8247831 -0.002995477 -0.0067086318
000280 6e 02 ab 3a da f3 27 3a 8f 4a 07 3f 4d 2b 93 3b
       0.0013046989 0.0006406881 0.5284814 0.004491246
000290 68 aa f9 b8 bb d8 7a bb da c3 a8 b9 2e da 69 3f
       -0.00011904986 -0.0038276154 -0.00032189378 0.9134854
0002a0 f7 06 10 3f ca 07 4c 3f c3 42 2f 3d 97 bc b6 ba
       0.5626063 0.79699385 0.04278828 -0.0013941702
0002b0 fa fd 9e ba 6f 1a a5 3b 33 27 a1 3f 3b 37 6b 3f
       -0.0012130134 0.0050385515 1.2590088 0.9188115
0002c0 f7 81 43 bb 51 49 97 3f 04 7a 82 3f 1b 41 e1 3e
       -0.0029832104 1.1819249 1.0193486 0.43994984
0002d0 ea a4 3f 3b 37 81 bb 39 e5 3d 87 3f d6 c6 f5 3a
       0.0029242584 0.00035763692 1.0565764 0.0018751274
0002e0 69 f3 a0 ba b8 90 9e 3b d1 7f df ba 9a 2d 70 3b
       -0.0012279573 0.004839029 -0.0017051642 0.0036648274
0002f0 7b 26 62 39 5f 54 c3 3d 04 a8 57 3b 83 71 4b bb
       0.00021567375 0.09537577 0.0032906542 -0.0031043
000300 df 6d 09 3b 9b 35 47 bb 89 1c 58 3c ca e9 16 3f
       0.002097003 -0.0030396942 0.013190397 0.58950484
000310 59 a4 ab bb 02 88 0e ba c7 a2 4c bb af 43 8b b9
       -0.0052380976 -0.0005437137 -0.0031224953 -0.00026562574
000320 13 2b e3 39 a4 b6 ad 39 ea 10 e2 3d 65 bc ac ba
       0.00043328907 0.0003313321 0.11038382 -0.0013178705
000330 e8 1a 7a 3f 93 b3 7f ba a0 e8 66 3b df 2b 5b bb
       0.97697306 -0.00097542367 0.003523387 -0.0033442897
000340 d3 21 bb 3b e9 91 df 3a 90 75 d4 bb 51 7f 1d ba
       0.0057108193 0.0017057034 -0.006483741 -0.00060080463
000350 2e dd dc 3d 49 ea 02 3c e3 61 86 ba 8c 47 88 3e
       0.10784374 0.007990428 -0.0010252561 0.26617086
000360 8f 43 86 3f ae 61 69 3a 4a 3c 9e 3f 61 24 97 3f
       1.0489367 0.00089028 1.2362149 1.1807977
000370 00 25 f9 39 f1 98 c3 bb 62 af 8e 3f 86 c6 00 3f
       0.00047520548 -0.00596916 1.1147273 0.5030292
000380 02 f3 d5 3b 55 9e 12 3c 01 2f 36 3a 90 57 d1 b9
       0.006529213 0.008948882 0.0006949753 -0.00039928826
000390 d2 53 0b 3a 78 d3 d0 ba 86 d0 33 3b 81 cc 9a ba
       0.00053149194 -0.0015932163 0.0027437522 -0.0011810214
0003a0 a4 29 3c bb f7 90 37 bc 8b 65 ed b9 c0 99 5a 3f
       -0.0028711343 -0.011203996 -0.00045279818 0.85390854
0003b0 bd 72 8a 3f 80 1e 93 3e cd 55 58 3b b6 bf 2e 3b
       1.0816265 0.28734207 0.0033010126 0.0026664562
0003c0 5d 48 8c 3b 44 ee 9f 3a 2b fc 86 b9 7b 96 58 bb
       0.0042810873 0.0012201746 -0.00025746351 -0.0033048678
0003d0 8b 47 5e 3f b1 6c 14 3d 4d c8 a2 3f ac 3d 8e 3b
       0.86827916 0.03623647 1.2717377 0.004340848
0003e0 f4 a9 04 39 d1 41 9e 3f 22 93 65 bb d5 b7 19 bb
       0.00012651813 1.2363836 -0.0035030325 -0.002345552
0003f0 b4 39 25 3f af 21 90 3f 8f d1 1c bb c8 5f 0b 3b
       0.64541173 1.126028 -0.0023928618 0.0021266807

z_logvar f4 [512]
000000 74 7e 8b c0 51 98 9f c0 8c 90 99 c0 41 d3 a2 c0
       -4.359186 -4.9873433 -4.798895 -5.088288
000010 1c 57 97 c0 25 38 a0 c0 79 b4 8a c0 0e 33 c6 c0
       -4.7293835 -5.0068536 -4.3345304 -6.1937323
000020 80 78 b9 c0 83 ef 9b c0 17 99 ab c0 6b 1a 9f c0
       -5.7959595 -4.8729873 -5.3624377 -4.971975
000030 fe 7e 9f c0 eb e2 72 c0 f5 d8 a8 c0 d6 25 b1 c0
       -4.984252 -3.7951 -5.276484 -5.5358686
000040 a3 65 98 c0 04 6c 8e c0 83 61 82 c0 e5 1a c7 c0
       -4.762407 -4.4506855 -4.0744033 -6.222033
000050 4a dd a2 c0 56 10 aa c0 df 37 b1 c0 0a 1c 7c c0
       -5.089513 -5.314494 -5.53807 -3.9392114
000060 a1 08 9e c0 2f 8c 77 c0 0a e5 9c c0 28 c8 86 c0
       -4.9385533 -3.8679311 -4.902959 -4.211933
000070 2c 4c 8b c0 ac ac a7 c0 c4 8b 9c c0 69 c9 90 c0
       -4.3530483 -5.239828 -4.892061 -4.524586
000080 56 bc a4 c0 4f 74 ac c0 13 c4 7d c0 a9 cf b5 c0
       -5.14799 -5.389198 -3.9650924 -5.681599
000090 32 0e 80 c0 eb e2 bb c0 99 2f 5e c0 36 81 a8 c0
       -4.001733 -5.87145 -3.4716551 -5.265773
0000a0 85 43 97 c0 9c 70 a7 c0 16 9b 9d c0 d1 16 98 c0
       -4.726992 -5.2324963 -4.9251814 -4.752785
0000b0 2a aa a4 c0 40 bb c0 c0 46 11 a2 c0 b3 7a 99 c0
       -5.145772 -6.0228577 -5.0646086 -4.796228
0000c0 a5 a4 ac c0 75 ce a7 c0 70 96 95 c0 f1 1d b4 c0
       -5.395098 -5.2439523 -4.674614 -5.628655
0000d0 4e be 83 c0 b4 13 be c0 9e 34 af c0 03 c5 93 c0
       -4.1169806 -5.939905 -5.475173 -4.6177993
0000e0 db 05 94 c0 63 64 98 c0 0e ec 9f c0 af 6b a6 c0
       -4.625715 -4.762254 -4.9975653 -5.200645
0000f0 a6 14 88 c0 65 96 a8 c0 0e 92 7d c0 0d e7 9c c0
       -4.2525206 -5.2683587 -3.9620395 -4.9032044
000100 f1 0f 9c c0 9b 55 ac c0 8b 69 82 c0 6b 0a ae c0
       -4.876946 -5.38545 -4.0753837 -5.4387717
000110 2c f7 9d c0 f3 13 96 c0 f7 5a a5 c0 1d c0 8f c0
       -4.9364223 -4.689935 -5.167354 -4.4922013
000120 26 ed 98 c0 d6 25 a9 c0 a0 dd 41 c0 64 fa 9d c0
       -4.778949 -5.2858686 -3.029152 -4.9368153
000130 5e ff 9f c0 ff 42 b5 c0 58 cf 95 c0 50 93 a6 c0
       -4.9999228 -5.664428 -4.6815605 -5.2054825
000140 1f 58 6c c0 cd 79 7b c0 8a a0 a7 c0 7a ae 83 c0
       -3.6928785 -3.9293091 -5.238347 -4.1150484
000150 5a 2a 77 c0 aa de a0 c0 25 30 9b c0 c7 e3 a1 c0
       -3.86196 -5.0271807 -4.849627 -5.059055
000160 6e 80 89 c0 6e a7 91 c0 bb ba 8a c0 00 6f ab c0
       -4.2969275 -4.551688 -4.3352942 -5.3573
000170 fa 94 a8 c0 71 96 b2 c0 15 1f a9 c0 47 60 a8 c0
       -5.2681856 -5.5808644 -5.285044 -5.2617526
000180 87 8b 60 c0 47 c1 b5 c0 20 9c a3 c0 db f9 91 c0
       -3.508516 -5.6798434 -5.112808 -4.56175
000190 02 ed 98 c0 b3 5d 80 c0 90 3e 81 c0 a9 67 9f c0
       -4.7789316 -4.011438 -4.038887 -4.981404
0001a0 61 86 98 c0 e7 3a 65 c0 23 48 b5 c0 0f 2f b6 c0
       -4.7664037 -3.58172 -5.6650558 -5.6932445
0001b0 4b c7 ab c0 62 bf 99 c0 b2 1d 98 c0 a5 05 a1 c0
       -5.3680778 -4.804612 -4.753625 -5.031939
0001c0 06 df aa c0 93 39 6e c0 27 6b c0 c0 25 ab 8a c0
       -5.3397245 -3.722264 -6.01308 -4.3333917
0001d0 55 c1 67 c0 73 d9 9c c0 19 d1 a0 c0 85 7a 93 c0
       -3.621175 -4.901544 -5.0255246 -4.608706
0001e0 02 e8 c5 c0 37 59 b4 c0 05 ee a6 c0 84 bb a6 c0
       -6.1845713 -5.6358905 -5.216555 -5.21039
0001f0 d5 00 9a c0 c5 52 bc c0 18 f1 ac c0 8e 28 80 c0
       -4.8126016 -5.8851037 -5.4044304 -4.0049505
000200 e6 39 9e c0 07 ce 91 c0 1f 47 a9 c0 82 2b be c0
       -4.9445677 -4.5564 -5.289932 -5.942811
000210 bb a3 96 c0 bd 06 aa c0 b8 85 a0 c0 31 7d 83 c0
       -4.7074866 -5.3133225 -5.016323 -4.109032
000220 93 a9 94 c0 41 94 ad c0 ed de 59 c0 dc d4 a9 c0
       -4.6457 -5.4243474 -3.4042313 -5.307234
000230 38 89 91 c0 72 86 a1 c0 52 c7 d5 c0 b2 5b 96 c0
       -4.5480003 -5.047662 -6.680581 -4.6986933
000240 83 38 82 c0 42 02 a9 c0 3f 99 c5 c0 ff 98 b2 c0
       -4.0693984 -5.2815256 -6.174957 -5.5811763
000250 e7 9e 66 c0 aa 6b 96 c0 82 1d a9 c0 ec 4e 9e c0
       -3.6034486 -4.7006426 -5.284852 -4.947134
000260 e6 04 82 c0 5c ea a6 c0 58 79 af c0 45 f0 b9 c0
       -4.063098 -5.2161083 -5.4835625 -5.81058
000270 cc f5 be c0 ce 35 c6 c0 4e ac ae c0 49 e2 8e c0
       -5.9675045 -6.194068 -5.4585333 -4.4651227
000280 99 01 8a c0 3a f5 a5 c0 12 81 66 c0 c7 79 a4 c0
       -4.312695 -5.186185 -3.6016278 -5.1398654
000290 ec 70 95 c0 f8 1d a5 c0 2a 1b ba c0 54 df a0 c0
       -4.6700344 -5.1599083 -5.815816 -5.0272617
0002a0 c8 6f 7c c0 dc de 80 c0 12 fa 5b c0 84 3a c3 c0
       -3.9443226 -4.0272045 -3.437138 -6.100893
0002b0 d5 a0 a2 c0 7c 1c ac c0 a6 57 be c0 c3 ae ad c0
       -5.082133 -5.378477 -5.9481993 -5.427583
0002c0 8f 28 a0 c0 6e f4 b5 c0 9b 8d 9a c0 6c a4 8c c0
       -5.004951 -5.6860876 -4.829786 -4.395071
0002d0 cd 0a 9e c0 78 65 a2 c0 c8 2e a7 c0 bd 90 96 c0
       -4.9388185 -5.0748863 -5.2244606 -4.7051682
0002e0 5f ea a1 c0 6c e3 a9 c0 dd 4e 9e c0 3d 20 97 c0
       -5.0598598 -5.3090115 -4.947127 -4.7226853
0002f0 4b b4 a2 c0 3c 7a 4e c0 05 bf a8 c0 ae 0f 9e c0
       -5.0845084 -3.2262106 -5.273318 -4.939414
000300 33 28 a8 c0 52 e5 a7 c0 80 41 86 c0 1d d1 72 c0
       -5.254907 -5.246743 -4.1954956 -3.7940133
000310 69 e0 8f c0 a8 d7 b1 c0 b6 96 a3 c0 61 d1 6a c0
       -4.496144 -5.557575 -5.1121473 -3.6690295
000320 fc c2 b9 c0 40 b5 ae c0 23 25 5b c0 54 4b aa c0
       -5.805052 -5.4596252 -3.4241416 -5.3216953
000330 e6 9d 90 c0 b0 c9 b2 c0 5a 85 91 c0 67 bc a3 c0
       -4.5192747 -5.58712 -4.5475283 -5.1167483
000340 bc d2 95 c0 b2 cf ad c0 5d 15 95 c0 1f c0 9f c0
       -4.6819744 -5.4316034 -4.658858 -4.9922023
000350 fc 33 36 c0 01 2a 9f c0 68 62 b1 c0 89 01 3e c0
       -2.8469229 -4.9738774 -5.5432625 -2.9688437
000360 f6 e8 b6 c0 90 c4 a8 c0 a8 32 ba c0 5d ac a9 c0
       -5.7159376 -5.2739944 -5.8186836 -5.3022904
000370 b1 16 b4 c0 9d 48 a5 c0 c2 64 af c0 fe e6 7c c0
       -5.62777 -5.165114 -5.4810495 -3.9515986
000380 67 28 b1 c0 2e e7 84 c0 10 85 af c0 24 ec 9d c0
       -5.536182 -4.15322 -5.484993 -4.9350758
000390 07 eb 9d c0 4b 53 ad c0 55 15 ae c0 33 b6 9b c0
       -4.93494 -5.4164176 -5.440104 -4.865991
0003a0 49 f4 a7 c0 27 9e 88 c0 69 1f 9e c0 68 59 9f c0
       -5.24857 -4.2693057 -4.9413342 -4.979664
0003b0 7e 80 ae c0 16 b2 29 c0 bd 4b ac c0 08 6d 95 c0
       -5.453185 -2.6514945 -5.3842454 -4.6695595
0003c0 63 ad 99 c0 26 c0 b7 c0 1f c1 9d c0 be 3f ab c0
       -4.8024154 -5.7422056 -4.9298244 -5.351531
0003d0 39 e4 85 c0 48 fd 63 c0 7c 1c b0 c0 65 1a 9b c0
       -4.184109 -3.562334 -5.503477 -4.846972
0003e0 53 9a a1 c0 23 28 b6 c0 68 52 9e c0 82 78 a7 c0
       -5.0500884 -5.6923995 -4.9475594 -5.2334604
0003f0 7b e1 82 c0 f1 b3 af c0 fd 28 a0 c0 96 c4 90 c0
       -4.0900245 -5.4907155 -5.0050035 -4.5239973

weight_mu f4 [128, 512]
000000 4d 47 0a b9 f1 71 eb 3a bc 98 7f ba d9 09 24 bb
       -0.00013187267 0.0017963034 -0.0009750237 -0.0025030284
000010 09 e1 69 b8 35 80 35 3a 5d d4 c8 39 18 92 81 3a
       -5.576111e-05 0.00069237064 0.00038305196 0.0009885458
000020 12 d4 29 3a a5 a3 00 3b 89 ea b6 3a fa 24 26 bb
       0.00064784393 0.001962879 0.0013955395 -0.002535163
000030 fd 22 88 3b bc 38 4d bb 6f 5e 02 3a e6 b8 94 3a
       0.0041545616 -0.0031314334 0.0004973178 0.0011346608
000040 fa de 27 ba 68 48 36 bb 9b 29 91 3a 9c 47 02 3b
       -0.00064037705 -0.0027814154 0.0011075021 0.0019879108
000050 8f 6c 90 b9 53 3c 2c ba 14 f1 6e b8 14 db 67 36
       -0.00027546703 -0.00065702683 -5.6968143e-05 3.4549203e-06
000060 0d 6a 85 b9 df 0f f4 b9 e1 f0 ab b8 7a 5f 01 3b
       -0.0002544675 -0.00046551132 -8.1987826e-05 0.0019740746
000070 df cc 0e 3a a6 fa 08 3b 76 a3 26 ba 88 75 43 3a
       0.0005447398 0.0020901351 -0.0006356755 0.0007456173
000080 36 55 b0 3a f0 6a ee ba c1 e2 ac bb 81 eb a1 38
       0.0013453129 -0.0018189829 -0.0052760546 7.720944e-05
000090 b1 eb 1f bb b2 59 cd 39 c4 3f 9f 3b 17 0d 0a b9
       -0.0024401958 0.00039167475 0.0048598964 -0.00013165582
0000a0 e6 37 19 39 f4 89 fb ba 8d 6d 31 39 cf 42 e4 3b
       0.00014612041 -0.0019190894 0.00016920846 0.006965972
0000b0 08 5e 43 ba 48 84 d1 3a 1d 2f 47 ba 73 2f 8f 3b
       -0.00074526714 0.0015984857 -0.0007598268 0.00436967
0000c0 cd bc 37 ba 55 90 cc b9 f5 8c 1a 39 99 2d a3 ba
       -0.00070090295 -0.00039017448 0.00014739095 -0.0012449502
0000d0 b8 83 c1 3b 2f 66 1d 3c 1f 41 b9 3a 5d ed d2 39
       0.0059055947 0.009606882 0.0014133787 0.0004023117
0000e0 ea 19 2d bb 21 66 8d 3a 3b 6f 02 bb 85 ae 87 b9
       -0.002641315 0.0010787883 -0.0019902724 -0.00025879234
0000f0 39 ae 9a 3b e0 bb 92 b9 05 7e 16 bb 02 9d 97 3a
       0.004720476 -0.00027987268 -0.0022963297 0.0011567178
000100 33 50 f8 3b 8b 51 33 37 74 1f 19 3b fd f3 a8 3a
       0.00757792 1.0688217e-05 0.0023364695 0.0012890097
000110 1f b7 a8 b8 8a 95 5f 3b e7 66 8d 39 97 d0 fb 3a
       -8.044973e-05 0.0034116232 0.00026970284 0.0019211945
000120 7a f4 d4 b8 44 af 90 ba 29 10 12 bb 60 60 25 39
       -0.00010154485 -0.0011038561 -0.0022287464 0.00015771529
000130 93 bc 3b 3b bc 96 74 ba 7e b9 e1 b9 48 c5 bd b9
       0.0028646335 -0.00093303225 -0.00043053547 -0.00036195875
000140 86 8a df b8 40 7b 8d bb 8f d6 4a ba 09 e6 a3 ba
       -0.000106592706 -0.004317671 -0.000773766 -0.0012504469
000150 28 22 d2 3a eb 82 3a bb a2 a3 e0 ba f8 ae 34 3b
       0.0016031908 -0.002845938 -0.001713861 0.002757011
000160 2e 5c b0 3a 08 d4 aa 3b f1 f1 a7 ba 81 05 1e ba
       0.0013455206 0.0052132644 -0.0012813193 -0.0006028042
000170 74 63 14 bb da ff a5 bb 30 26 02 ba c2 5e b5 b8
       -0.0022642286 -0.0050659003 -0.0004964797 -8.6484026e-05
000180 e3 3d a5 3b 3e d4 30 bb 50 d1 85 3a 00 e2 04 3a
       0.005042778 -0.0026981975 0.0010209475 0.0005069077
000190 88 93 20 3b dc 36 53 ba 7a 6a b8 3a b5 b6 92 3a
       0.0024501998 -0.0008057186 0.0014069818 0.0011193367
0001a0 5c 9d 2a b8 b5 86 64 3a b0 ee ab 3b 14 07 2a ba
       -4.067771e-05 0.00087175827 0.0052469596 -0.000648604
0001b0 26 d6 f4 3a a7 5b e7 3a da 09 19 39 50 db d9 39
       0.0018679544 0.0017651216 0.00014594887 0.00041552866
0001c0 a2 5c 02 3a e5 06 83 3a 8e 0b 47 3a 95 1a 2c 3b
       0.000497291 0.0009996562 0.00075929693 0.0026260961
0001d0 ea d3 3d ba 3a 62 35 3a 48 72 60 ba 42 59 6c bb
       -0.00072413555 0.0006919239 -0.0008561951 -0.0036063944
0001e0 ad e9 0c 3c d5 8f a9 ba 7a 5c 83 b9 5f 13 6f bb
       0.0086006345 -0.0012936542 -0.00025055167 -0.0036480052
0001f0 dd f2 2c bb 14 1c 00 3b 24 51 1c 3a e1 7e c7 ba
       -0.0026389875 0.0019547986 0.00059630186 -0.0015220308
000200 a1 59 95 bb 20 be 13 bb fc 15 ea ba 31 cb 2d 3a
       -0.0045578037 -0.0022543743 -0.0017859335 0.0006629704
000210 2c 02 80 37 2f de ec 3a d9 2b 8e ba 23 10 bc b8
       1.52598e-05 0.0018071587 -0.0010846808 -8.967544e-05
000220 65 7d 91 b9 bb 99 cd ba 95 f4 d8 3a c0 14 cc b9
       -0.0002774998 -0.0015686074 0.0016552383 -0.00038925372
000230 e6 7b a8 b9 46 57 97 b9 cb a6 87 3b e8 be 3c bb
       -0.0003213577 -0.00028865988 0.0041397563 -0.0028800312
000240 df 3d ff ba bf 7a cd ba e3 ff 5f 3a cc 5f c9 39
       -0.0019473395 -0.001567684 0.0008544905 0.00038409082
000250 28 dc 81 3a 1e 10 2d 3a b1 2e 01 b8 e6 49 28 b9
       0.0009907531 0.0006601828 -3.079948e-05 -0.00016049258
000260 00 83 9f 3b 5d be 98 38 6b 76 50 3a b4 6b 17 3b
       0.0048679113 7.283383e-05 0.0007952216 0.0023104968
000270 0c 43 3f bb ca cb b8 3b 5a fe b7 3a 29 3e 18 3b
       -0.002918425 0.005639528 0.0014037595 0.002323041
000280 98 15 29 ba 05 05 d0 ba af c8 25 bb df dd d0 39
       -0.0006450056 -0.0015870637 -0.0025296619 0.00039838158
000290 c2 58 22 b9 a9 8c 61 3a 92 b4 5c ba d1 1d 3d 3b
       -0.00015482589 0.0008604029 -0.0008419241 0.0028856883
0002a0 45 3c 8d bb 12 fe ea 3a f5 cd 6d ba 77 00 91 ba
       -0.004310163 0.0017928502 -0.00090715225 -0.0011062761
0002b0 de 86 d1 ba cb 45 77 3a 15 2e 9c 3b 14 f8 dd bb
       -0.0015985628 0.0009432702 0.0047662356 -0.006773958
0002c0 d3 42 8d 3a a4 c1 97 bb ee d8 2e 3c 73 41 e6 3a
       0.0010777361 -0.004631238 0.010671837 0.0017567113
0002d0 8c a5 ca 3a 3a 73 af ba 8c 88 3b bb 01 c9 62 3b
       0.0015460714 -0.0013385781 -0.0028615324 0.003460467
0002e0 5a ea ae ba 72 95 7d 38 a9 82 2e bb bd c1 a5 3a
       -0.0013344989 6.0459082e-05 -0.0026628172 0.001264624
0002f0 35 41 5b ba 30 5e ad bb 30 09 8d 3a 99 2e 8f 38
       -0.00083639036 -0.005290769 0.0010760184 6.827451e-05
000300 6f 6c 73 39 16 4d 2e bb 56 13 65 b9 87 e7 ba ba
       0.0002321468 -0.002659624 -0.00021846345 -0.0014259674
000310 48 39 b8 3a 9e df 07 bb 12 e4 a9 b9 ea 21 29 bb
       0.0014055157 -0.0020732651 -0.00032404118 -0.0025807568
000320 71 17 03 39 41 20 ac b9 fb e9 2f 3b 39 6e 86 b9
       0.00012501866 -0.00032830428 0.0026842344 -0.00025640594
000330 5c 32 d3 b9 7c fa 43 3a 33 14 20 3b f3 0f 92 ba
       -0.00040282577 0.0007475985 0.0024426102 -0.0011143669
000340 34 a6 21 3a b6 10 db 3a 54 16 bd ba 48 10 06 39
       0.0006166429 0.0016713354 -0.001442621 0.00012785301
000350 b3 63 46 bb db 52 0d bb fc 63 1e 3b 90 ea 38 ba
       -0.0030271828 -0.0021564278 0.0024168482 -0.00070539955
000360 5e 46 e9 3b 0e 91 56 3a 25 1f 5c bb 35 63 1f 3c
       0.007118984 0.0008185067 -0.00335879 0.009728243
000370 63 79 15 3b 9e 2f 15 ba 9a 3b 42 3b 2d fb 81 3a
       0.0022807948 -0.00056909944 0.0029637576 0.0009916775
000380 b1 f2 35 ba 96 57 12 bb 8d d2 29 ba 74 d6 10 3b
       -0.0006940766 -0.0022330037 -0.0006478213 0.002210048
000390 8a 67 c5 ba 67 cb c1 ba 43 d7 13 3a 69 29 da 39
       -0.0015060764 -0.001478535 0.00056396815 0.00041611053
0003a0 68 89 81 3a 44 d9 05 3b aa dc b5 ba de 25 45 3b
       0.0009882869 0.002042369 -0.0013874967 0.0030082385
0003b0 15 bb d5 3b 79 33 72 3b 7e 1d 82 3a aa 06 35 3a
       0.006522546 0.003695695 0.0009927002 0.0006905595
0003c0 d4 35 5f 3a 85 18 5d ba 83 54 0d b9 f2 16 14 39
       0.0008514796 -0.00084341347 -0.00013478291 0.00014122928
0003d0 07 56 cb bb 76 70 07 ba 7e 12 bf b9 9e 2e 47 ba
       -0.0062053236 -0.00051665993 -0.00036444137 -0.0007598194
0003e0 20 02 1e ba 51 0b 83 3b d6 fd 89 ba 2a fc 1d 3a
       -0.00060275383 0.0039991518 -0.001052792 0.000602665
0003f0 4c 53 85 3b ad 94 2f 3b c6 28 b1 ba 4a 06 e7 ba
       0.0040687677 0.0026791499 -0.001351618 -0.0017625776

weight_logvar f4 [128, 512]
000000 10 02 4e c0 10 02 4e c0 10 02 4e c0 10 02 4e c0
       -3.218876 -3.218876 -3.218876 -3.218876
000010 10 02 4e c0 10 02 4e c0 10 02 4e c0 10 02 4e c0
       -3.218876 -3.218876 -3.218876 -3.218876
000020 10 02 4e c0 10 02 4e c0 10 02 4e c0 10 02 4e c0
       -3.218876 -3.218876 -3.218876 -3.218876
000030 10 02 4e c0 10 02 4e c0 10 02 4e c0 10 02 4e c0
       -3.218876 -3.218876 -3.218876 -3.218876
000040 10 02 4e c0 10 02 4e c0 10 02 4e c0 10 02 4e c0
       -3.218876 -3.218876 -3.218876 -3.218876
000050 10 02 4e c0 10 02 4e c0 10 02 4e c0 10 02 4e c0
       -3.218876 -3.218876 -3.218876 -3.218876
000060 10 02 4e c0 10 02 4e c0 10 02 4e c0 10 02 4e c0
       -3.218876 -3.218876 -3.218876 -3.218876
000070 10 02 4e c0 10 02 4e c0 10 02 4e c0 10 02 4e c0
       -3.218876 -3.218876 -3.218876 -3.218876
000080 10 02 4e c0 10 02 4e c0 10 02 4e c0 10 02 4e c0
       -3.218876 -3.218876 -3.218876 -3.218876
000090 10 02 4e c0 10 02 4e c0 10 02 4e c0 10 02 4e c0
       -3.218876 -3.218876 -3.218876 -3.218876
0000a0 10 02 4e c0 10 02 4e c0 10 02 4e c0 10 02 4e c0
       -3.218876 -3.218876 -3.218876 -3.218876
0000b0 10 02 4e c0 10 02 4e c0 10 02 4e c0 10 02 4e c0
       -3.218876 -3.218876 -3.218876 -3.218876
0000c0 10 02 4e c0 10 02 4e c0 10 02 4e c0 10 02 4e c0
       -3.218876 -3.218876 -3.218876 -3.218876
0000d0 10 02 4e c0 10 02 4e c0 10 02 4e c0 10 02 4e c0
       -3.218876 -3.218876 -3.218876 -3.218876
0000e0 10 02 4e c0 10 02 4e c0 10 02 4e c0 10 02 4e c0
       -3.218876 -3.218876 -3.218876 -3.218876
0000f0 10 02 4e c0 10 02 4e c0 10 02 4e c0 10 02 4e c0
       -3.218876 -3.218876 -3.218876 -3.218876
000100 10 02 4e c0 10 02 4e c0 10 02 4e c0 10 02 4e c0
       -3.218876 -3.218876 -3.218876 -3.218876
000110 10 02 4e c0 10 02 4e c0 10 02 4e c0 10 02 4e c0
       -3.218876 -3.218876 -3.218876 -3.218876
000120 10 02 4e c0 10 02 4e c0 10 02 4e c0 10 02 4e c0
       -3.218876 -3.218876 -3.218876 -3.218876
000130 10 02 4e c0 10 02 4e c0 10 02 4e c0 10 02 4e c0
       -3.218876 -3.218876 -3.218876 -3.218876
000140 10 02 4e c0 10 02 4e c0 10 02 4e c0 10 02 4e c0
       -3.218876 -3.218876 -3.218876 -3.218876
000150 10 02 4e c0 10 02 4e c0 10 02 4e c0 10 02 4e c0
       -3.218876 -3.218876 -3.218876 -3.218876
000160 10 02 4e c0 10 02 4e c0 10 02 4e c0 10 02 4e c0
       -3.218876 -3.218876 -3.218876 -3.218876
000170 10 02 4e c0 10 02 4e c0 10 02 4e c0 10 02 4e c0
       -3.218876 -3.218876 -3.218876 -3.218876
000180 10 02 4e c0 10 02 4e c0 10 02 4e c0 10 02 4e c0
       -3.218876 -3.218876 -3.218876 -3.218876
000190 10 02 4e c0 10 02 4e c0 10 02 4e c0 10 02 4e c0
       -3.218876 -3.218876 -3.218876 -3.218876
0001a0 10 02 4e c0 10 02 4e c0 10 02 4e c0 10 02 4e c0
       -3.218876 -3.218876 -3.218876 -3.218876
0001b0 10 02 4e c0 10 02 4e c0 10 02 4e c0 10 02 4e c0
       -3.218876 -3.218876 -3.218876 -3.218876
0001c0 10 02 4e c0 10 02 4e c0 10 02 4e c0 10 02 4e c0
       -3.218876 -3.218876 -3.218876 -3.218876
0001d0 10 02 4e c0 10 02 4e c0 10 02 4e c0 10 02 4e c0
       -3.218876 -3.218876 -3.218876 -3.218876
0001e0 10 02 4e c0 10 02 4e c0 10 02 4e c0 10 02 4e c0
       -3.218876 -3.218876 -3.218876 -3.218876
0001f0 10 02 4e c0 10 02 4e c0 10 02 4e c0 10 02 4e c0
       -3.218876 -3.218876 -3.218876 -3.218876
000200 10 02 4e c0 10 02 4e c0 10 02 4e c0 10 02 4e c0
       -3.218876 -3.218876 -3.218876 -3.218876
000210 10 02 4e c0 10 02 4e c0 10 02 4e c0 10 02 4e c0
       -3.218876 -3.218876 -3.218876 -3.218876
000220 10 02 4e c0 10 02 4e c0 10 02 4e c0 10 02 4e c0
       -3.218876 -3.218876 -3.218876 -3.218876
000230 10 02 4e c0 10 02 4e c0 10 02 4e c0 10 02 4e c0
       -3.218876 -3.218876 -3.218876 -3.218876
000240 10 02 4e c0 10 02 4e c0 10 02 4e c0 10 02 4e c0
       -3.218876 -3.218876 -3.218876 -3.218876
000250 10 02 4e c0 10 02 4e c0 10 02 4e c0 10 02 4e c0
       -3.218876 -3.218876 -3.218876 -3.218876
000260 10 02 4e c0 10 02 4e c0 10 02 4e c0 10 02 4e c0
       -3.218876 -3.218876 -3.218876 -3.218876
000270 10 02 4e c0 10 02 4e c0 10 02 4e c0 10 02 4e c0
       -3.218876 -3.218876 -3.218876 -3.218876
000280 10 02 4e c0 10 02 4e c0 10 02 4e c0 10 02 4e c0
       -3.218876 -3.218876 -3.218876 -3.218876
000290 10 02 4e c0 10 02 4e c0 10 02 4e c0 10 02 4e c0
       -3.218876 -3.218876 -3.218876 -3.218876
0002a0 10 02 4e c0 10 02 4e c0 10 02 4e c0 10 02 4e c0
       -3.218876 -3.218876 -3.218876 -3.218876
0002b0 10 02 4e c0 10 02 4e c0 10 02 4e c0 10 02 4e c0
       -3.218876 -3.218876 -3.218876 -3.218876
0002c0 10 02 4e c0 10 02 4e c0 10 02 4e c0 10 02 4e c0
       -3.218876 -3.218876 -3.218876 -3.218876
0002d0 10 02 4e c0 10 02 4e c0 10 02 4e c0 10 02 4e c0
       -3.218876 -3.218876 -3.218876 -3.218876
0002e0 10 02 4e c0 10 02 4e c0 10 02 4e c0 10 02 4e c0
       -3.218876 -3.218876 -3.218876 -3.218876
0002f0 10 02 4e c0 10 02 4e c0 10 02 4e c0 10 02 4e c0
       -3.218876 -3.218876 -3.218876 -3.218876
000300 10 02 4e c0 10 02 4e c0 10 02 4e c0 10 02 4e c0
       -3.218876 -3.218876 -3.218876 -3.218876
000310 10 02 4e c0 10 02 4e c0 10 02 4e c0 10 02 4e c0
       -3.218876 -3.218876 -3.218876 -3.218876
000320 10 02 4e c0 10 02 4e c0 10 02 4e c0 10 02 4e c0
       -3.218876 -3.218876 -3.218876 -3.218876
000330 10 02 4e c0 10 02 4e c0 10 02 4e c0 10 02 4e c0
       -3.218876 -3.218876 -3.218876 -3.218876
000340 10 02 4e c0 10 02 4e c0 10 02 4e c0 10 02 4e c0
       -3.218876 -3.218876 -3.218876 -3.218876
000350 10 02 4e c0 10 02 4e c0 10 02 4e c0 10 02 4e c0
       -3.218876 -3.218876 -3.218876 -3.218876
000360 10 02 4e c0 10 02 4e c0 10 02 4e c0 10 02 4e c0
       -3.218876 -3.218876 -3.218876 -3.218876
000370 10 02 4e c0 10 02 4e c0 10 02 4e c0 10 02 4e c0
       -3.218876 -3.218876 -3.218876 -3.218876
000380 10 02 4e c0 10 02 4e c0 10 02 4e c0 10 02 4e c0
       -3.218876 -3.218876 -3.218876 -3.218876
000390 10 02 4e c0 10 02 4e c0 10 02 4e c0 10 02 4e c0
       -3.218876 -3.218876 -3.218876 -3.218876
0003a0 10 02 4e c0 10 02 4e c0 10 02 4e c0 10 02 4e c0
       -3.218876 -3.218876 -3.218876 -3.218876
0003b0 10 02 4e c0 10 02 4e c0 10 02 4e c0 10 02 4e c0
       -3.218876 -3.218876 -3.218876 -3.218876
0003c0 10 02 4e c0 10 02 4e c0 10 02 4e c0 10 02 4e c0
       -3.218876 -3.218876 -3.218876 -3.218876
0003d0 10 02 4e c0 10 02 4e c0 10 02 4e c0 10 02 4e c0
       -3.218876 -3.218876 -3.218876 -3.218876
0003e0 10 02 4e c0 10 02 4e c0 10 02 4e c0 10 02 4e c0
       -3.218876 -3.218876 -3.218876 -3.218876
0003f0 10 02 4e c0 10 02 4e c0 10 02 4e c0 10 02 4e c0
       -3.218876 -3.218876 -3.218876 -3.218876

bias_mu f4 [128]
000000 5e f1 54 3b 8e e6 b1 bc 49 51 3e 3f a0 c4 e6 bb
       0.00324925 -0.021716382 0.7434278 -0.0070424825
000010 fb 58 19 bf 4a c1 19 3f 55 39 0e 3f c0 1e e9 bd
       -0.599014 0.6006056 0.5555623 -0.11382818
000020 d9 41 20 be 9e 18 3b bc 23 2e 45 bf e3 ca 66 3e
       -0.15650119 -0.011419443 -0.77023524 0.22538333
000030 73 95 9c bb 44 35 5c bf 06 f7 cf be 5a f1 0b be
       -0.004778558 -0.86018777 -0.4061815 -0.13666287
000040 cc dc ff b9 eb 1d 13 bf bc ac f4 be 5f 6a 5f bc
       -0.00048801897 -0.57467526 -0.47788036 -0.013636201
000050 22 14 db be 75 f2 3a 3f e7 f9 09 be 20 32 1e bf
       -0.42788798 0.7302621 -0.13474236 -0.61795235
000060 fa ff 2b bb cb 11 0f 3f 1f 20 47 bd 83 de f3 bb
       -0.0026245103 0.55886525 -0.048614617 -0.007442297
000070 7f 84 47 bf 78 30 1f bc f6 56 03 bf 63 66 ee bd
       -0.7793655 -0.009716146 -0.51304567 -0.116406225
000080 df 41 0d bc e8 89 1e be c4 46 09 bc 04 a2 b5 be
       -0.008621662 -0.15482295 -0.008378688 -0.3547517
000090 ad 3d fb 3e 4f 22 7b be 15 90 27 bc 0f 71 0b bf
       0.49070492 -0.24524806 -0.010227223 -0.5446939
0000a0 1b d2 35 bf 9b 85 33 bc b1 fc 43 3f 52 4a 94 3e
       -0.7102372 -0.010957147 0.7655745 0.28962952
0000b0 6d b4 46 be 11 71 1b be 8d 99 1d 3f 30 ad df be
       -0.19404764 -0.1517985 0.61562425 -0.4368682
0000c0 1e 68 52 bb b1 a4 cc be b3 3a 2e bf 03 9c e7 bd
       -0.0032105516 -0.399694 -0.6805832 -0.11309054
0000d0 21 23 4d bf b5 bd d2 be 18 67 6c be f0 cd 65 be
       -0.8013173 -0.4116036 -0.23086202 -0.2244184
0000e0 a4 82 fa bd 4b 08 20 be c8 6d 83 bb c7 b6 10 be
       -0.12231949 -0.15628164 -0.0040108897 -0.14132224
0000f0 bd 1e 32 be 80 aa 38 3f 71 e1 d2 bc c3 61 87 be
       -0.17394538 0.7213516 -0.025742264 -0.26441774
000100 48 bf 16 3f a2 41 d0 bc 38 b8 d9 bb 30 76 7d be
       0.5888562 -0.025421921 -0.006644275 -0.24752116
000110 f8 8e 99 be 75 14 f2 be 0a 73 c3 be 85 f4 8c 3c
       -0.2999189 -0.47281232 -0.38173705 0.01720644
000120 e5 97 18 be 4f e6 d0 bd 7e 4b 17 bc f9 64 a7 bc
       -0.14901693 -0.10200178 -0.009234307 -0.02043389
000130 a0 b7 de be 75 0f c1 be fe 11 15 be d7 10 b0 bb
       -0.4349947 -0.37707105 -0.14557645 -0.005373101
000140 32 be e2 bd ec 39 93 bb 46 2e 0a be 3d 60 b7 be
       -0.11071433 -0.004492989 -0.13494214 -0.3581561
000150 ad e1 13 be 4f ad cf be 4c 87 14 3f d8 59 1c bf
       -0.14441557 -0.4056191 0.58018947 -0.6107459
000160 10 4d a1 3e 21 74 49 be 0d f5 05 bc a5 53 87 bd
       0.31504107 -0.19673206 -0.0081761 -0.06607751
000170 a4 35 5d bc 6e ef 79 be cc 45 0c 3f ae 07 04 be
       -0.013501558 -0.24407741 0.54794 -0.12893555
000180 24 b8 20 3f 2d 91 e2 bb 31 30 35 bc 3e 18 04 be
       0.62780976 -0.006914279 -0.011058853 -0.12899873
000190 ef cd 87 bc 51 0a cc bb 34 3e d4 be 2d c6 3d bc
       -0.016577689 -0.0062268157 -0.41453707 -0.011582893
0001a0 5f d3 28 be 41 17 10 bc ab 60 71 be 9e 10 32 3b
       -0.16486882 -0.008794607 -0.23572032 0.002717055
0001b0 8e 5a 23 3f 4f c9 b3 3c 74 69 c9 bc 37 21 1a be
       0.6381005 0.021946577 -0.024586417 -0.15051733
0001c0 0d 02 28 be 32 af 37 bc e3 05 00 be 67 39 1b bc
       -0.16407032 -0.011211203 -0.12502246 -0.009474135
0001d0 ad da 4d bc 14 b7 19 3f ad 11 8f be 4a cc 50 bb
       -0.012564343 0.6004498 -0.27943173 -0.0031860047
0001e0 f7 76 84 bc bf c1 fa bd 0d af 82 bb 9e a2 ae 39
       -0.016170008 -0.122439854 -0.003988153 0.00033309025
0001f0 f0 c6 00 3f ce 2a 25 3f dc 12 70 be 73 53 39 3f
       0.50303555 0.6451844 -0.23444694 0.7239296

bias_logvar f4 [128]
000000 10 02 4e c0 10 02 4e c0 10 02 4e c0 10 02 4e c0
       -3.218876 -3.218876 -3.218876 -3.218876
000010 d4 3e 4f c0 43 02 4e c0 10 02 4e c0 10 02 4e c0
       -3.2382097 -3.218888 -3.218876 -3.218876
000020 10 02 4e c0 10 02 4e c0 10 02 4e c0 10 02 4e c0
       -3.218876 -3.218876 -3.218876 -3.218876
000030 10 02 4e c0 90 f8 50 c0 10 02 4e c0 10 02 4e c0
       -3.218876 -3.265171 -3.218876 -3.218876
000040 10 02 4e c0 10 02 4e c0 d4 3d 4e c0 10 02 4e c0
       -3.218876 -3.218876 -3.2225237 -3.218876
000050 46 87 4e c0 e3 02 4e c0 10 02 4e c0 10 02 4e c0
       -3.2270064 -3.2189262 -3.218876 -3.218876
000060 10 02 4e c0 20 03 4e c0 10 02 4e c0 10 02 4e c0
       -3.218876 -3.2189407 -3.218876 -3.218876
000070 10 02 4e c0 10 02 4e c0 10 02 4e c0 10 02 4e c0
       -3.218876 -3.218876 -3.218876 -3.218876
000080 10 02 4e c0 10 02 4e c0 10 02 4e c0 10 02 4e c0
       -3.218876 -3.218876 -3.218876 -3.218876
000090 10 02 4e c0 10 02 4e c0 10 02 4e c0 80 5a 4e c0
       -3.218876 -3.218876 -3.218876 -3.2242737
0000a0 7a d6 4f c0 10 02 4e c0 37 35 4f c0 10 02 4e c0
       -3.2474656 -3.218876 -3.237623 -3.218876
0000b0 10 02 4e c0 10 02 4e c0 10 02 4e c0 77 b1 63 c0
       -3.218876 -3.218876 -3.218876 -3.5577066
0000c0 10 02 4e c0 10 02 4e c0 10 02 4e c0 10 02 4e c0
       -3.218876 -3.218876 -3.218876 -3.218876
0000d0 4a 03 4e c0 01 10 4e c0 10 02 4e c0 9b 42 4e c0
       -3.2189507 -3.2197268 -3.218876 -3.2228153
0000e0 10 02 4e c0 10 02 4e c0 10 02 4e c0 10 02 4e c0
       -3.218876 -3.218876 -3.218876 -3.218876
0000f0 10 02 4e c0 7b 1c 4e c0 10 02 4e c0 10 02 4e c0
       -3.218876 -3.2204883 -3.218876 -3.218876
000100 38 0d 4e c0 10 02 4e c0 10 02 4e c0 10 02 4e c0
       -3.2195568 -3.218876 -3.218876 -3.218876
000110 10 02 4e c0 4c 47 4e c0 b3 02 4e c0 10 02 4e c0
       -3.218876 -3.2231016 -3.2189147 -3.218876
000120 10 02 4e c0 10 02 4e c0 10 02 4e c0 10 02 4e c0
       -3.218876 -3.218876 -3.218876 -3.218876
000130 10 02 4e c0 10 02 4e c0 10 02 4e c0 10 02 4e c0
       -3.218876 -3.218876 -3.218876 -3.218876
000140 10 02 4e c0 10 02 4e c0 10 02 4e c0 10 02 4e c0
       -3.218876 -3.218876 -3.218876 -3.218876
000150 10 02 4e c0 10 02 4e c0 10 02 4e c0 ec d7 4e c0
       -3.218876 -3.218876 -3.218876 -3.2319288
000160 10 02 4e c0 10 02 4e c0 10 02 4e c0 10 02 4e c0
       -3.218876 -3.218876 -3.218876 -3.218876
000170 10 02 4e c0 10 02 4e c0 48 0b 4e c0 10 02 4e c0
       -3.218876 -3.218876 -3.2194386 -3.218876
000180 e4 0e 4e c0 10 02 4e c0 10 02 4e c0 10 02 4e c0
       -3.2196589 -3.218876 -3.218876 -3.218876
000190 10 02 4e c0 10 02 4e c0 c3 13 4e c0 10 02 4e c0
       -3.218876 -3.218876 -3.2199562 -3.218876
0001a0 10 02 4e c0 10 02 4e c0 10 02 4e c0 10 02 4e c0
       -3.218876 -3.218876 -3.218876 -3.218876
0001b0 60 40 4e c0 10 02 4e c0 10 02 4e c0 10 02 4e c0
       -3.2226791 -3.218876 -3.218876 -3.218876
0001c0 10 02 4e c0 10 02 4e c0 10 02 4e c0 10 02 4e c0
       -3.218876 -3.218876 -3.218876 -3.218876
0001d0 10 02 4e c0 10 02 4e c0 10 02 4e c0 10 02 4e c0
       -3.218876 -3.218876 -3.218876 -3.218876
0001e0 10 02 4e c0 10 02 4e c0 10 02 4e c0 10 02 4e c0
       -3.218876 -3.218876 -3.218876 -3.218876
0001f0 10 02 4e c0 87 18 4e c0 10 02 4e c0 93 0b 4e c0
       -3.218876 -3.220247 -3.218876 -3.2194564

z_mu f4 [128]
000000 1f 2c 09 3a 34 28 85 ba d8 a9 f8 3e 2e dc b3 38
       0.000523271 -0.0010159076 0.4856708 8.576397e-05
000010 0c 02 8b 3f 70 02 89 3e 04 16 55 3e 5f 18 83 bc
       1.086 0.26759672 0.2080918 -0.016002832
000020 dd db dd 3b ed a6 e2 b9 fa dc 58 3f 71 c2 d2 3c
       0.0067705945 -0.00043230449 0.84712183 0.025727483
000030 72 b3 fc b8 a3 83 83 3f 9d 2f 2b 3e 7a 12 f3 bb
       -0.00012049721 1.0274547 0.16717382 -0.007417974
000040 c8 25 98 b9 36 67 82 3e 4d 77 9a 3e 32 0d f7 b7
       -0.00029019848 0.2546937 0.30169144 -2.9450839e-05
000050 cf da a2 3e 1c d0 db 3e 6a c2 c8 3b 35 ba 65 3f
       0.31807563 0.42932212 0.0061266916 0.89737254
000060 55 59 05 3a eb f1 53 3e 69 2e 44 bd 4c a6 6f ba
       0.0005086859 0.20697753 -0.047895823 -0.00091419066
000070 c2 8a 31 3f 52 da 2e 3a 21 cb 0e 3f b9 23 55 3c
       0.6935235 0.00066701055 0.557787 0.013009005
000080 9f 71 eb 39 a8 cc 36 bb c9 9b 95 b9 fd 9f a0 3e
       0.00044907347 -0.002789298 -0.00028535564 0.3137206
000090 5c 42 89 3e 23 5f 03 3e 5c 29 f6 b9 79 e3 d2 3e
       0.2680844 0.1282926 -0.00046951592 0.41189173
0000a0 36 4d 17 3f 51 ae 35 3a 1f ee 0d 3f 94 be 12 3d
       0.5910219 0.0006930577 0.5544147 0.03582628
0000b0 71 db 36 3c da d0 8e 3a 94 e3 c0 3e d5 c7 98 3f
       0.011160717 0.0010895983 0.37673628 1.1935984
0000c0 ec cf 86 39 61 c3 81 3e 52 92 8a 3f f7 b7 06 bd
       0.00025713386 0.25344375 1.0825903 -0.032890286
0000d0 52 1c 66 3f 64 89 55 3f 7d 09 1f bd 7e b7 09 3f
       0.89886963 0.83412766 -0.038827408 0.5379561
0000e0 34 61 af 3a 56 85 10 3c ca 08 ce b6 5b 65 1f 3a
       0.0013380409 0.008820852 -6.1403016e-06 0.0006080472
0000f0 63 8e d4 3e 61 f8 fd 3e bd 52 89 b6 03 ba 71 3f
       0.41514882 0.4960356 -4.09255e-06 0.94424456
000100 46 17 a9 3e 3e 71 2a b9 c2 a1 3a 39 eb ed c0 3e
       0.3302557 -0.0001625465 0.00017798602 0.37681517
000110 8e 98 7d 3d 41 9e c3 3e dc 2d 63 3f 63 af 2b bc
       0.061913066 0.38206676 0.8874185 -0.010478827
000120 31 7e 4a 3c 4d d3 a9 ba 48 7b c0 39 c1 ee 89 b9
       0.012359188 -0.0012956649 0.00036712945 -0.00026308562
000130 ce 5f bb 3e db 9b 2a 3d 07 9b 87 bb 4a ce 2a 3a
       0.3659653 0.04165254 -0.0041383537 0.0006515725
000140 16 8c 19 bc 8a 47 0a ba f9 ab 8a bb 89 e5 12 3e
       -0.009371778 -0.00052749424 -0.0042319265 0.14345373
000150 bf b8 eb b8 b2 86 ad 3e ff c5 8d 3e fd 39 70 3f
       -0.00011240085 0.33891827 0.27690122 0.93838483
000160 87 0a 3d 3d 78 d9 1d 3c 5a d7 0f 38 50 1b 53 bb
       0.046152618 0.009634368 3.429442e-05 -0.0032212324
000170 29 78 fe 36 3f a8 49 3e ef e2 85 3e f1 94 e0 bc
       7.5837784e-06 0.19693087 0.261497 -0.02741477
000180 c5 bb ad 3e 9f 27 b5 b8 57 2c ab b7 19 02 8f 3a
       0.3393232 -8.6381326e-05 -2.0405436e-05 0.0010910659
000190 4d 78 eb b9 3c f4 80 3a 61 12 fd 3e e5 36 9e 39
       -0.00044912324 0.0009838413 0.49428084 0.00030177008
0001a0 96 34 2f bc 97 06 dc 39 4a bb 3a 3d 95 7e 40 39
       -0.01069369 0.0004196658 0.04558877 0.00018357702
0001b0 fd 23 bf 3e fb 4f 3c 3a c3 ee 69 3a 37 b1 34 3c
       0.37332144 0.0007183549 0.0008923823 0.011028579
0001c0 29 a1 3b bc 00 4f 99 39 71 57 cf 3b 3e 26 e5 b9
       -0.011451998 0.00029241294 0.0063275625 -0.00043706776
0001d0 03 f5 70 b9 22 33 61 3e 9f ad 93 3d 3a 2e b3 b8
       -0.00022979458 0.21992162 0.0721085 -8.5439955e-05
0001e0 bc 82 de 39 55 6b 8f bb 9b 07 2d ba e4 c0 bc 37
       0.00042440544 -0.0043768086 -0.00066005596 2.2501168e-05
0001f0 15 48 5b 3e 9b 67 b9 3e 3a 6d 68 3e e8 14 e8 3e
       0.21414216 0.36211857 0.22697917 0.4532845

z_logvar f4 [128]
000000 8c 26 29 c1 43 d3 1a c1 2e 68 a6 c0 66 c0 35 c1
       -10.571911 -9.676578 -5.2002172 -11.359472
000010 40 8f a8 c0 1f b2 a0 c0 c7 70 a5 c0 a8 d5 9e c0
       -5.2674866 -5.0217433 -5.170017 -4.963581
000020 a6 56 87 c0 24 38 30 c1 c0 f9 9b c0 22 6d 92 c0
       -4.229327 -11.013706 -4.874237 -4.575822
000030 32 1f 37 c1 fd 6e aa c0 06 88 66 c0 24 38 8c c0
       -11.445116 -5.3260484 -3.6020522 -4.381853
000040 32 98 32 c1 3d ee 91 c0 ac 04 a3 c0 f0 62 30 c1
       -11.162157 -4.560332 -5.0943203 -11.024155
000050 9b 02 b2 c0 c5 13 ac c0 ab 01 9d c0 e5 93 83 c0
       -5.562818 -5.3774133 -4.9064536 -4.1118035
000060 7b c4 30 c1 aa f3 a5 c0 2a 4b 9e c0 db c1 25 c1
       -11.047969 -5.185994 -4.9466753 -10.359828
000070 97 45 95 c0 68 65 2c c1 bc 00 6d c0 6c ab a0 c0
       -4.664745 -10.774757 -3.7031698 -5.0209255
000080 24 b8 27 c1 e8 94 94 c0 0d 0d 33 c1 6d 6b a4 c0
       -10.482456 -4.643177 -11.190686 -5.1381135
000090 e1 a0 9e c0 fc 71 93 c0 ca b5 2f c1 03 b0 a5 c0
       -4.9571385 -4.607664 -10.981882 -5.177736
0000a0 04 d4 a9 c0 fa a5 2e c1 40 17 a7 c0 65 c6 95 c0
       -5.307131 -10.915522 -5.221588 -4.680468
0000b0 05 f6 65 c0 06 27 a0 c0 b3 86 a5 c0 c9 e8 b7 c0
       -3.5931408 -5.0047636 -5.172693 -5.747166
0000c0 6f 36 36 c1 0a 8a 9e c0 59 f3 99 c0 f2 08 9a c0
       -11.388289 -4.9543505 -4.8109555 -4.813592
0000d0 0e 89 90 c0 2a ba 95 c0 1e 80 6f c0 54 8d 8c c0
       -4.5167303 -4.678975 -3.7421947 -4.392252
0000e0 56 d3 96 c0 95 f9 7b c0 68 14 34 c1 3a 95 99 c0
       -4.713298 -3.9371083 -11.254982 -4.799466
0000f0 b6 96 9f c0 cd 3a af c0 15 9e 1a c1 e5 71 b5 c0
       -4.9871473 -5.475928 -9.663594 -5.670153
000100 a7 e7 a1 c0 95 ea 21 c1 91 cd 32 c1 d8 3a 8a c0
       -5.059528 -10.119771 -11.175187 -4.319683
000110 4a ad 7c c0 4f 92 a9 c0 da aa b2 c0 df 41 95 c0
       -3.9480767 -5.29911 -5.583356 -4.664291
000120 3b f2 72 c0 76 3b d4 c0 52 1f 29 c1 8f 0a 23 c1
       -3.7960346 -6.6322584 -10.570147 -10.190078
000130 18 91 83 c0 e2 ec 79 c0 80 e3 9b c0 b8 15 30 c1
       -4.1114616 -3.9050832 -4.871521 -11.005302
000140 07 89 8f c0 d3 7a 2a c1 63 9a 9a c0 17 57 97 c0
       -4.485477 -10.654986 -4.831346 -4.729381
000150 af 68 85 c0 7b 60 aa c0 88 52 9d c0 72 61 9d c0
       -4.1690288 -5.3242774 -4.9163246 -4.918145
000160 5e 6b 9c c0 fc 4d 78 c0 c4 f7 2f c1 7b 11 f1 c0
       -4.8881063 -3.8797598 -10.99799 -7.533384
000170 07 4c 2f c1 e3 0a 9b c0 8a 9a a4 c0 0c 65 8b c0
       -10.956061 -4.845079 -5.1438646 -4.356085
000180 88 7c a5 c0 34 5e 35 c1 cb b1 36 c1 68 32 a1 c0
       -5.1714516 -11.335499 -11.4184065 -5.037403
000190 b1 11 28 c1 d0 a8 32 c1 0d 98 83 c0 cb 69 26 c1
       -10.504319 -11.166214 -4.112311 -10.400828
0001a0 23 e8 7e c0 bb 71 32 c1 1b 94 8d c0 32 a5 37 c1
       -3.9829185 -11.152766 -4.4243293 -11.477831
0001b0 e1 0e a8 c0 cc 01 29 c1 54 48 1a c1 ca e9 94 c0
       -5.2518163 -10.562939 -9.642658 -4.6535387
0001c0 3a 8f 8b c0 d4 f2 32 c1 9a be bb c0 3f 82 25 c1
       -4.3612337 -11.184284 -5.867017 -10.344298
0001d0 11 0d 38 c1 a2 7d a3 c0 24 b9 93 c0 20 c7 31 c1
       -11.50319 -5.109086 -4.61635 -11.1111145
0001e0 b0 a7 25 c1 6d f7 aa c0 ac 15 33 c1 28 48 2f c1
       -10.353439 -5.3427033 -11.192791 -10.955116
0001f0 2c e9 a1 c0 4c 3e a5 c0 60 bd 8b c0 cb 66 a1 c0
       -5.0597134 -5.1638546 -4.366867 -5.043798

weight_mu f4 [2, 128]
000000 6d 60 aa 3c 4d 7f 80 bc b0 8c 96 3e 8f 07 36 bb
       0.020797933 -0.015685702 0.2940421 -0.0027775501
000010 08 8d 01 bf b6 3b af 3e 49 25 b1 3e ef cd 5d bc
       -0.5060582 0.34225243 0.3459876 -0.013537868
000020 bc 3a 80 bb f2 b7 02 3c 5b 42 d0 be f1 5f 6e 3e
       -0.0039132517 0.007978426 -0.40675625 0.23278786
000030 02 00 ce ba 73 eb d6 be 73 7f da be f0 42 ce bc
       -0.0015716555 -0.41976508 -0.4267536 -0.025178403
000040 0e 5b 17 bd 1f 77 bc be 23 a1 93 be e0 bc ec 3b
       -0.03695207 -0.36809632 -0.28833875 0.007224664
000050 c2 3c 9a be 06 59 91 3e 6c ee 73 3b 3f 35 05 bf
       -0.3012448 0.28388232 0.0037220968 -0.5203437
000060 73 73 4d bc e9 ae b8 3e 69 3a fc 3c 9b 3a 70 3d
       -0.012539732 0.36070946 0.03078957 0.05864964
000070 bd b3 fc be aa f7 80 bd ea 49 21 bf 26 44 1a bd
       -0.4935588 -0.06297238 -0.6300341 -0.037662648
000080 8f 0e 2e bd a9 26 c9 3c ec 77 e7 bb a2 13 97 be
       -0.042494353 0.024554567 -0.0070638563 -0.29507166
000090 31 c4 b2 3e a0 20 95 be 96 7e cd 3c 1f 68 9c be
       0.34915307 -0.29126453 0.025084775 -0.30548188
0000a0 82 81 9b be 8b dc 12 bd 75 54 91 3e 3b 73 81 3e
       -0.30372244 -0.035854857 0.28384748 0.25283226
0000b0 13 41 08 bd 8f 47 69 3d 25 a1 8e 3e 1c 20 10 bf
       -0.033265185 0.05695301 0.2785732 -0.56298995
0000c0 73 b7 44 3b 44 e9 93 be 6d a8 01 bf d3 95 7b bd
       0.003001657 -0.28888905 -0.5064762 -0.06142218
0000d0 79 3e f2 be fa ce 20 bf 9a 9e 65 3c 99 f9 d0 be
       -0.47313288 -0.6281582 0.014014864 -0.40815428
0000e0 33 03 cc 3a 74 0d 05 bd 59 2e b3 bc d9 f1 30 bd
       0.0015564918 -0.032483533 -0.021872686 -0.043199394
0000f0 b9 57 a3 be 0a 87 95 3e 51 53 bd 3b 6c 71 ba be
       -0.31902865 0.2920459 0.0057777544 -0.3641466
000100 9f 9f 8b 3e ea 2d 08 3c 5e 01 87 bc b5 2e 9a be
       0.2727022 0.008311728 -0.016480144 -0.3011376
000110 4c 3a 97 be c6 8e 88 be 79 cd b2 be 26 d2 af 3d
       -0.29536664 -0.26671427 -0.34922388 0.085850045
000120 8a 10 c8 bb 2b 0e 31 3d 45 b3 b8 bc 08 a6 32 bc
       -0.0061054872 0.043226402 -0.02254642 -0.010903843
000130 0b 01 df be 09 28 93 be 14 a9 17 bd 75 55 f4 bb
       -0.43555483 -0.28741482 -0.03702648 -0.0074564763
000140 7c a7 85 3d dc cd b0 3c 17 0b 46 3d 79 28 9c be
       0.06526086 0.021582536 0.04835042 -0.30499628
000150 11 c3 d8 bc 02 fd a2 be 78 ea 9d 3e 2c 8a f1 be
       -0.026460202 -0.31833655 0.30842948 -0.4717573
000160 15 5f a1 3e 38 a5 29 be 78 c7 34 bc 9a e1 4b 3d
       0.31517854 -0.16566932 -0.011033885 0.049775697
000170 00 13 81 3c 74 20 ae be fd 39 b7 3e 60 42 12 3d
       0.01575613 -0.34009135 0.3578643 0.03570783
000180 b6 fa 92 3e a1 c7 9d 3b 2b 2e 05 bb 72 3e 1c 3c
       0.28706902 0.0048150574 -0.0020321708 0.0095363725
000190 41 56 27 bc 70 b0 f0 bc ec cb d5 be ab 7b eb bc
       -0.010213436 -0.029381007 -0.41757143 -0.028745493
0001a0 2a c8 2b bb 91 fc e2 bc 99 8a 95 be 3d f4 45 bc
       -0.0026211836 -0.027708324 -0.29207304 -0.012082157
0001b0 15 db a0 3e ec 9b e6 bd 6a 10 ff bc 3d 82 9b 3b
       0.31417146 -0.112602085 -0.031135757 0.00474575
0001c0 f9 39 c6 bd 41 56 82 bc 39 62 c3 3c 70 5d bd 3c
       -0.09679026 -0.01591027 0.023850547 0.023115844
0001d0 72 cb a3 bb 93 c1 a3 3e d2 ac 83 be 34 17 02 3c
       -0.004998618 0.31983623 -0.2571779 0.007940102
0001e0 50 a9 8d 3c 0a 70 25 bb 91 61 f3 3c b9 32 b8 3c
       0.017292649 -0.0025243782 0.02970961 0.022485124
0001f0 0f 9b 91 3e 29 df 9b 3e 0b 82 bf be 86 fd a6 3e
       0.28438613 0.30443695 -0.37403902 0.32615298
000200 e4 bb 98 bc 08 64 97 3c db b0 96 be 35 43 29 39
       -0.01864428 0.018480316 -0.29431805 0.00016142133
000210 58 f7 02 3f a6 14 b0 be 08 45 b0 be d3 0d 90 3c
       0.51158667 -0.34390754 -0.34427667 0.017584717
000220 3a b7 89 3c 11 c9 75 bb 25 53 d0 3e eb 2b 69 be
       0.016811002 -0.0037503878 0.40688434 -0.2277066
000230 93 75 f7 39 4d 51 d7 3e 60 5f dd 3e b0 cc 0a 3d
       0.0004719911 0.42054215 0.43236828 0.03388661
000240 a6 78 15 3d 25 40 ba 3e 77 a1 91 3e 72 26 dc b9
       0.036492012 0.36377063 0.284435 -0.00041990314
000250 3e ae 99 3e be d2 90 be 38 1b 14 bb c6 47 06 3f
       0.3001575 -0.28285784 -0.0022599231 0.5245327
000260 ce b0 7f 3c 08 a6 b3 be 2a c5 db bc a7 7d 57 bd
       0.015606118 -0.3508761 -0.026827414 -0.052610066
000270 0b 26 ff 3e 0d 1c 7c 3d 0a 36 21 3f 40 23 1f 3d
       0.49833712 0.06155019 0.6297308 0.038851976
000280 b1 5c 14 3d d8 57 a1 bc 1d 98 8d 3b 80 a7 97 3e
       0.03622121 -0.019695207 0.004321112 0.2961998
000290 a4 37 b6 be 9a e9 95 3e f0 d0 cf bc 2c 96 9c 3e
       -0.35589325 0.29279786 -0.025368184 0.30583322
0002a0 b5 f4 9b 3e 64 08 22 3d c0 08 91 be 47 63 88 be
       0.30460134 0.039558783 -0.28326988 -0.26638243
0002b0 2f fe 04 3d 27 60 4a bd 46 e2 8c be bb 3e 10 3f
       0.03246897 -0.049408104 -0.27516383 0.5634572
0002c0 0e 0e 9a ba bd 4f 95 3e ff 63 02 3f 99 77 7b 3d
       -0.0011753456 0.29162398 0.5093383 0.061393354
0002d0 86 df f1 3e 0c 77 20 3f a0 36 7c bc a3 7a d0 3e
       0.47240847 0.6268165 -0.015393883 0.40718564
0002e0 e0 0b be bb e9 3a 2b 3d c6 fe b3 3c ec ed 11 3d
       -0.0057997555 0.041804228 0.021972071 0.03562729
0002f0 f0 35 a2 3e 44 f2 95 be a6 e3 3c bc ed 15 bb 3e
       0.31681776 -0.29286397 -0.011528885 0.36540166
000300 a5 34 8b be 65 7e 0e bc ec 8b 26 3c 12 6e 97 3e
       -0.27188602 -0.008697127 0.010165196 0.29576164
000310 c6 2d 9e 3e bc 4a 87 3e ee dd b2 3e 37 ad b3 bd
       0.30894297 0.26424205 0.34934944 -0.087732725
000320 35 18 eb 3b 5c 5d 05 bd 97 55 d2 3c 5f 05 33 3c
       0.0071745166 -0.032559738 0.025675578 0.010926574
000330 89 31 db 3e 3d 3b 8c 3e 86 20 19 3d 2e 42 f3 3b
       0.4281123 0.27388945 0.037384532 0.0074236607
000340 49 da 89 bd fa 6f b8 bc ad e0 52 bd 8c 3e 9a 3e
       -0.06731088 -0.022514332 -0.0514838 0.30125844
000350 fe df dc 3c 11 9e a2 3e a1 d2 9e be 23 eb f4 3e
       0.026962277 0.3176122 -0.31020072 0.47835645
000360 24 d0 a0 be fd e7 22 3e 77 db 7b 3c 62 2b 4a bd
       -0.314088 0.15908809 0.015372149 -0.04935778
000370 e4 4b 5e bc 98 56 ad 3e 8a 5b b6 be 73 e8 b6 bc
       -0.013567898 0.33855128 -0.35616714 -0.022327637
000380 2e 3c 94 be 86 da 21 bb ba 9d 21 b9 64 f2 df ba
       -0.28952163 -0.00246969 -0.00015412914 -0.0017085788
000390 5b a1 a4 3c f4 39 ee 3c 86 ab d5 3e f6 fd f7 3c
       0.020096472 0.029080369 0.41732424 0.030272465
0003a0 0c f6 0b 3a 7c 10 d8 3c 54 70 95 3e fc 59 13 3c
       0.0005339093 0.026375048 0.29187262 0.008993622
0003b0 fd 3f a1 be d5 28 dc 3d 7e ff d9 3c 22 69 95 bb
       -0.31494132 0.107499756 0.026611086 -0.004559652
0003c0 bc 6d c4 3d d1 dd 92 3c 50 52 b7 bc 7e 41 b3 bc
       0.09591243 0.017928036 -0.022378117 -0.021881815
0003d0 b9 3a e7 3b 3d d7 a6 be f0 d2 83 3e e6 dc 3b bc
       0.007056561 -0.3258609 0.2574687 -0.0114662405
0003e0 0b ff 8a bc 09 ea 49 3c e9 f6 ec bc b2 51 cc bc
       -0.016967317 0.012323865 -0.02892633 -0.0249413
0003f0 6f a3 8f be ab e8 96 be 5f b3 bb 3e 9b 01 a7 be
       -0.28054377 -0.29474387 0.36660287 -0.32618412
