metric/probe_teacher_sample1.pth (torch, 539461 bytes, 12 tensors)

z_mu f4 [512]
-0.0021604754 1.1276126 -0.0013768243 0.0017586879 0.0023317407 -0.0026922761 0.00443762 0.0025291694
-0.0004553797 -0.00022191906 -0.004704269 -5.195554e-06 0.006900626 -0.0026538437 0.31822637 0.005583846
-0.0031622783 0.5844027 0.8905479 -0.0014826274 -0.001665037 0.0008122759 -0.00050354365 -0.0052275234
-0.0025854642 -0.0025775908 -0.00034236713 -0.004264559 -0.002806231 0.002230731 -0.00043944508 0.00077489606
-0.0014286229 0.0010908758 -0.04119962 0.42854267 -0.0021534387 0.0010595958 -0.00010582375 0.81542885
0.95566565 0.0045773243 -0.00049868197 0.0028358675 -0.0003126865 -0.0018523686 -0.010732149 0.0025761148
-0.0004871851 0.0036211396 0.00046109493 -0.0021697425 0.0036354298 0.0019150794 1.09467 0.032795142
-0.0060634976 0.001703802 -0.00020245436 0.00053864636 -0.0025518928 0.0035259093 0.00023279277 1.9032605e-05
0.0044331388 0.2551927 0.0003228545 0.001253785 -0.00184059 -0.0034403522 0.000564669 0.00013242904
0.00039572612 -0.00033852688 0.0018268966 -0.0012227318 0.00013920576 0.0012409434 0.00096695987 7.732167e-05
0.00468607 0.0023094993 -0.0012805486 0.0028771954 -0.0018631899 1.039817 0.0012587698 0.00023461852
0.021334948 3.814902e-05 -0.0006946606 0.0026481396 -0.0068104235 -0.001590153 1.3347344 1.6095432
-7.186926e-05 0.00720589 0.0025263838 0.003283921 -0.005548703 0.00012900916 1.0562745 -0.0011467674
-0.0010201384 0.007841879 1.5728663 0.0043816967 0.00284638 -0.00036251202 0.00075495616 -0.0059077265
0.0016099195 -0.0024871945 0.00033896058 -0.0024910779 0.002543985 0.002952604 0.0011189979 -0.00056549406
-0.005968861 -2.8206374e-05 -0.007890506 1.5112551 0.2171572 -0.0014122871 0.0006354437 0.0015276335
0.0005806488 -0.0047073998 0.0026290219 0.0010337667 0.0014854235 1.6842246 1.2849139 0.5889952
-0.0004364378 1.7820367 0.013242865 -0.0023643035 -0.0030108916 0.0014181108 0.00015530043 1.5674373
0.0013318766 0.004473027 -0.00035004914 0.0022239494 0.0016803324 -0.00346607 0.002309194 0.0020050607
0.0024302613 0.0017429645 -0.00090519595 0.0011226198 0.002566593 0.9047287 -0.0006724609 -0.009341114
-1.6562914e-05 0.0009997899 -0.0016264216 0.000104931896 0.0064428262 -0.023744756 0.0035883577 1.2680596
2.1106315 0.000110105284 0.00019335224 -0.0014176816 0.0015853485 0.007041906 0.00057086465 0.00076340715
-0.00012445093 0.5970868 0.006560639 0.002323439 0.29274353 0.0064492202 -0.008173743 0.002890733
0.00044003176 2.6768105 0.004477502 1.4421552 0.0015880186 0.5649431 1.6889817 -0.001668567
0.62509114 -0.0026790532 -0.0013354673 -0.001938402 0.6679539 0.6702948 -0.0045975754 1.3549885
0.0034092832 -0.0013941218 0.4677521 -0.0028222825 0.0026892312 -0.007409279 -0.0024309938 -0.006476642
-0.0004023605 -0.00033846503 1.1317394 0.009227464 -0.000114094575 -0.00021651274 -0.0011579936 1.5668939
0.0024529162 0.877162 -0.024056146 0.000439768 1.134069 0.0025780967 0.002490359 -0.0020847393
0.33364627 0.025331259 -0.0005987034 -0.0021794362 -0.0010439417 0.017769782 0.21585086 0.0014205797
-0.0014088344 0.0025739544 -0.0019342778 -0.003160718 1.8328633 0.49831137 -0.00070443325 1.1472049
-0.005693544 -0.003445865 0.004307378 -0.0035729522 1.5837588 1.1819067 -0.0023170495 0.00041916172
-0.0002496731 -0.00048894575 0.03361924 0.00845227 1.2596014 1.5517598 0.00037181133 -0.0040393006
00000000: c396 0dbb 9c55 903f 8f76 b4ba c683 e63a
00000010: 1ed0 183b e670 30bb 7469 913b 6cc0 253b
00000020: 07c0 eeb9 f2b2 68b9 4526 9abb 7855 aeb6
00000030: a51e e23b 1cec 2dbb 91ee a23e b2f8 b63b
00000040: 3a3e 4fbb 6a9b 153f f2fa 633f b854 c2ba
00000050: 5f3d daba eaee 543a 3e00 04ba a54b abbb
00000060: e470 29bb ccec 28bb bd7f b3b9 b7bd 8bbb
00000070: bee8 37bb 7531 123b 5265 e6b9 6522 4b3a
00000080: a140 bbba b8fb 8e3a efc0 28bd f269 db3e
00000090: b520 0dbb 23e2 8a3a b1ed ddb8 f2bf 503f
000000a0: 81a6 743f 61fd 953b fbb9 02ba f6d9 393b
000000b0: 12f0 a3b9 2dcb f2ba e5d5 2fbc 09d4 283b
000000c0: e16c ffb9 a450 6d3b 1dbf f139 3d32 0ebb
000000d0: 6440 6e3b 6703 fb3a 261e 8c3f 3354 063d
000000e0: 4eb0 c6bb 1c52 df3a ee49 54b9 f233 0d3a
000000f0: a83d 27bb f112 673b d519 7439 35a8 9f37
00000100: dd43 913b 9ea8 823e cc44 a939 0b56 a43a
00000110: f43f f1ba 8877 61bb 4c06 143a a6dc 0a39
00000120: 7679 cf39 4f7c b1b9 7a74 ef3a 1244 a0ba
00000130: c3f7 1139 27a7 a23a 947b 7d3a c127 a238
00000140: 9b8d 993b f85a 173b 15d8 a7ba 548f 3c3b
00000150: 4736 f4ba b918 853f 4efd a43a ee03 7639
00000160: a1c6 ae3c 3302 2038 e219 36ba 698c 2d3b
00000170: f929 dfbb ae6c d0ba 94d8 aa3f 8305 ce3f
00000180: 84b8 96b8 631f ec3b b091 253b 0d37 573b
00000190: e5d1 b5bb a246 0739 0134 873f 214f 96ba
000001a0: 2ab6 85ba 397b 003c af53 c93f 5694 8f3b
000001b0: 558a 3a3b 8a0f beb9 40e8 453a 9a95 c1bb
000001c0: ef03 d33a 3300 23bb 85b6 b139 5a41 23bb
000001d0: fcb8 263b 7a80 413b 57ab 923a aa3d 14ba
000001e0: 6f96 c3bb ba9c ecb7 2e47 01bc cf70 c13f
000001f0: 755e 5e3e 7e1c b9ba e893 263a e03a c83a
00000200: ae36 183a 8840 9abb ab4b 2c3b 747f 873a
00000210: 8bb2 c23a ac94 d73f 0f78 a43f 64c8 163f
00000220: b1d1 e4b9 c719 e43f 9af8 583c 6ef2 1abb
00000230: 6152 45bb e7df b93a 24d8 2239 c9a1 c83f
00000240: 5d92 ae3a 7892 923b cd86 b7b9 aebf 113b
00000250: 993e dc3a 0127 63bb d955 173b 5667 033b
00000260: 0545 1f3b 2f74 e43a ac4a 6dba df24 933a
00000270: 4934 283b 4d9c 673f 1648 30ba 790b 19bc
00000280: 96f0 8ab7 620b 833a a72d d5ba e20e dc38
00000290: 581e d33b 5d84 c2bc a72a 6b3b c74f a23f
000002a0: 9614 0740 53e8 e638 99be 4a39 80d1 b9ba
000002b0: 78cb cf3a cabf e63b 14a6 153a 631f 483a
000002c0: 0b7f 02b9 aeda 183f a1fa d63b d744 183b
000002d0: 7be2 953e fb53 d33b 2aeb 05bc 7472 3d3b
000002e0: 10b4 e639 dd50 2b40 02b8 923b 8b98 b83f
000002f0: 1025 d03a 1ca0 103f 8d30 d83f d1b3 daba
00000300: f905 203f 0e93 2fbb d90a afba fa11 feba
00000310: 07ff 2a3f 7198 2b3f 42a7 96bb 4370 ad3f
00000320: 486e 5f3b f7ba b6ba 347d ef3e 0bf6 38bb
00000330: d03d 303b 89c9 f2bb 4f51 1fbb 033a d4bb
00000340: eaf3 d2b9 0274 b1b9 d6dc 903f ca2e 173c
00000350: 0f46 efb8 b207 63b9 d1c7 97ba fb8f c83f
00000360: 1bc1 203b b08d 603f 6511 c5bc a990 e639
00000370: 2c29 913f 49f5 283b 4a35 233b 1fa0 08bb
00000380: afd3 aa3e 8083 cf3c 4ef2 1cba dfd4 0ebb
00000390: dfd4 88ba ef91 913c 0208 5d3e bf32 ba3a
000003a0: a3a8 b8ba caaf 283b 9887 fdba 0c24 4fbb
000003b0: 449b ea3f ab22 ff3e b7a9 38ba 9cd7 923f
000003c0: e990 babb 05d4 61bb e824 8d3b 3128 6abb
000003d0: 9cb8 ca3f b848 973f a4d9 17bb efc2 db39
000003e0: 8ee6 82b9 982c 00ba 54b4 093d 647b 0a3c
000003f0: 9e3a a13f 11a0 c63f acef c239 1c5c 84bb

z_logvar f4 [512]
-5.422913 -3.3822963 -5.4082227 -5.512607 -4.8399014 -6.403773 -3.2827296 -5.911056
-5.6257515 -6.039626 -5.524815 -6.8359575 -5.011764 -5.8085117 -3.2889514 -5.0885463
-5.381795 -5.2617126 -4.201339 -7.2331405 -5.4877253 -5.0226636 -5.990068 -3.8864686
-4.1554117 -5.4501877 -5.634602 -6.107303 -3.0526373 -4.523944 -6.2165623 -5.6945424
-4.5792103 -5.366669 -2.9151936 -3.6922154 -5.756107 -7.0033426 -5.65545 -3.99281
-5.156561 -6.2967615 -5.8242574 -5.7664366 -6.5386806 -6.2245994 -4.3845644 -6.8252864
-4.7723665 -5.131656 -5.279876 -5.5617523 -4.2442327 -4.947808 -3.0912273 -2.6644316
-3.4384372 -6.5210958 -5.8252473 -6.212275 -6.2021093 -5.826796 -3.0119226 -7.507012
-4.9795785 -3.1241877 -5.405429 -6.470304 -4.0065303 -6.083713 -7.1728253 -7.693811
-6.8202815 -5.567379 -5.8028517 -4.5470324 -6.8074055 -6.187039 -6.066116 -6.2571955
-5.4206247 -5.3305564 -3.0091622 -6.113874 -6.0535555 -4.1398005 -5.9532 -5.951793
-1.9689908 -7.044484 -4.282596 -4.7706366 -4.56031 -3.4202702 -2.5030944 -1.6230947
-6.1773443 -5.031325 -4.3946614 -2.9695783 -3.8957498 -5.9415884 -3.3215692 -4.0132527
-5.961825 -5.619663 -5.186542 -3.0461934 -5.9520946 -7.14515 -6.092424 -5.4505653
-5.1616755 -4.8923697 -3.8109453 -4.0791807 -4.6180096 -6.866582 -6.2206354 -6.252127
-4.0713725 -6.6125083 -5.2452846 -4.8198066 -3.1320672 -5.6825323 -5.912689 -5.7103343
-3.8334603 -5.621111 -5.422295 -6.450628 -4.1308985 -0.6801393 -5.225866 -0.5075853
-3.8761551 -3.2993243 -4.638706 -6.3261714 -5.072396 -4.5477 -6.401274 -2.7910416
-6.535827 -5.2103 -4.1008363 -5.6934967 -5.3302474 -6.8861694 -5.655372 -6.2646766
-5.252266 -3.1594875 -6.5513773 -6.680614 -3.7796862 -4.9848366 -6.7954946 -3.9338214
-6.998498 -5.316171 -3.9773512 -4.7453513 -3.1074383 -2.4617229 -4.9355516 -4.893645
-0.46983385 -7.68016 -5.747346 -5.4679103 -3.8204849 -3.0411808 -6.4796968 -6.575384
-7.4612565 -2.1830385 -6.027066 -6.4216366 -2.4759026 -5.059227 -3.205137 -6.268124
-5.7416177 -1.3301628 -5.6725163 -4.3506207 -4.7601256 -3.9448264 -2.9685342 -4.08394
-1.3292335 -5.631313 -5.332458 -5.252809 -3.088519 -3.0884326 -5.2077355 -2.850572
-5.1054163 -4.5119557 -5.9259477 -5.9828486 -4.8486366 -5.2522397 -5.4133387 -4.4521294
-5.314742 -4.7962537 -4.7756352 -5.3424273 -7.0979333 -4.8033814 -5.96617 -1.0570366
-6.3032136 -5.4123607 -3.2949877 -6.94181 -3.0267491 -6.3912725 -4.740983 -3.5861666
-4.848316 -3.525699 -5.4347434 -6.922605 -6.456391 -4.5526557 -5.5654335 -6.4624763
-5.358639 -4.1918864 -4.7738085 -6.4351497 -2.0164025 -2.4068096 -6.337069 -4.412677
-5.0852942 -6.832383 -4.618557 -5.615224 -2.691221 -2.9431548 -5.9513264 -5.52924
-6.531217 -5.413633 -2.4835382 -4.301342 -3.2850406 -2.1457264 -4.855338 -4.4186883
00000000: 8188 adc0 8b77 58c0 2910 adc0 4767 b0c0
00000010: 79e0 9ac0 b5eb ccc0 3e18 52c0 5f27 bdc0
00000020: 2806 b4c0 9e44 c1c0 49cb b0c0 2ac0 dac0
00000030: 5f60 a0c0 54df b9c0 2e7e 52c0 5fd5 a2c0
00000040: aa37 acc0 f35f a8c0 5e71 86c0 e375 e7c0
00000050: 729b afc0 a9b9 a0c0 a3ae bfc0 e7bb 78c0
00000060: 22f9 84c0 f067 aec0 a94e b4c0 076f c3c0
00000070: 695e 43c0 26c4 90c0 14ee c6c0 b139 b6c0
00000080: e488 92c0 c1bb abc0 8892 3ac0 424d 6cc0
00000090: 0732 b8c0 621b e0c0 72f9 b4c0 338a 7fc0
000000a0: 8c02 a5c0 127f c9c0 5160 bac0 a686 b8c0
000000b0: df3c d1c0 eb2f c7c0 5a4e 8cc0 bf68 dac0
000000c0: 3ab7 98c0 8736 a4c0 bff4 a8c0 e0f9 b1c0
000000d0: c1d0 87c0 7154 9ec0 abd6 45c0 0c86 2ac0
000000e0: 5b0f 5cc0 d1ac d0c0 6d68 bac0 f5ca c6c0
000000f0: ae77 c6c0 1d75 bac0 57c3 40c0 7139 f0c0
00000100: b558 9fc0 b1f2 47c0 46f9 acc0 bb0c cfc0
00000110: 7f35 80c0 c7ad c2c0 c987 e5c0 b333 f6c0
00000120: bf3f dac0 f827 b2c0 f6b0 b9c0 4a81 91c0
00000130: 44d6 d9c0 39fc c5c0 9f1d c2c0 f23a c8c0
00000140: c275 adc0 eb93 aac0 1d96 40c0 dba4 c3c0
00000150: bab6 c1c0 3f79 84c0 9d80 bec0 1775 bec0
00000160: e407 fcbf 6a6c e1c0 070b 89c0 0ea9 98c0
00000170: 0fee 91c0 b5e5 5ac0 b332 20c0 91c1 cfbf
00000180: ceac c5c0 9d00 a1c0 11a1 8cc0 920d 3ec0
00000190: f753 79c0 7e21 bec0 9794 54c0 916c 80c0
000001a0: 45c7 bec0 47d4 b3c0 27f8 a5c0 d5f4 42c0
000001b0: 8f77 bec0 12a5 e4c0 23f5 c2c0 086b aec0
000001c0: 722c a5c0 4b8e 9cc0 87e6 73c0 a688 82c0
000001d0: bcc6 93c0 0abb dbc0 720f c7c0 6d11 c8c0
000001e0: af48 82c0 ab99 d3c0 5fd9 a7c0 db3b 9ac0
000001f0: ca73 48c0 4ed7 b5c0 c034 bdc0 0fbb b6c0
00000200: 6a57 75c0 24e0 b3c0 7183 adc0 8b6b cec0
00000210: 5230 84c0 9c1d 2ebf 4b3a a7c0 1cf1 01bf
00000220: ed12 78c0 2128 53c0 4870 94c0 ff6f cac0
00000230: 1151 a2c0 c286 91c0 3dd7 ccc0 6da0 32c0
00000240: 7f25 d1c0 c7ba a6c0 0d3a 83c0 2031 b6c0
00000250: 6391 aac0 805b dcc0 cff8 b4c0 3b78 c8c0
00000260: 9012 a8c0 0b35 4ac0 e2a4 d1c0 97c7 d5c0
00000270: 61e6 71c0 c883 9fc0 b174 d9c0 bbc3 7bc0
00000280: b2f3 dfc0 131e aac0 ec8c 7ec0 ebd9 97c0
00000290: 45e0 46c0 de8c 1dc0 0af0 9dc0 bd98 9cc0
000002a0: 108e f0be dfc3 f5c0 42ea b7c0 1ff9 aec0
000002b0: d382 74c0 b5a2 42c0 ad59 cfc0 8c69 d2c0
000002c0: 9dc2 eec0 e7b6 0bc0 badd c0c0 0c7e cdc0
000002d0: 3075 1ec0 30e5 a1c0 f720 4dc0 7994 c8c0
000002e0: 55bb b7c0 c642 aabf 4185 b5c0 4938 8bc0
000002f0: f352 98c0 0978 7cc0 77fc 3dc0 a3af 82c0
00000300: 5324 aabf b733 b4c0 7fa3 aac0 0317 a8c0
00000310: 4caa 45c0 e1a8 45c0 c5a5 a6c0 c66f 36c0
00000320: 925f a3c0 f161 90c0 5da1 bdc0 7f73 bfc0
00000330: 0828 9bc0 5912 a8c0 123a adc0 d877 8ec0
00000340: 5e12 aac0 e97a 99c0 01d2 98c0 2af5 aac0
00000350: 4522 e3c0 4db5 99c0 ddea bec0 fa4c 87bf
00000360: edb3 c9c0 0f32 adc0 14e1 52c0 4f23 dec0
00000370: 42b6 41c0 4e85 ccc0 22b6 97c0 c183 65c0
00000380: 6825 9bc0 0da5 61c0 6be9 adc0 fb85 ddc0
00000390: c19a cec0 5baf 91c0 0818 b2c0 9bcc cec0
000003a0: f879 abc0 ef23 86c0 0ac3 98c0 bfec cdc0
000003b0: bd0c 01c0 2b09 1ac0 45c9 cac0 a634 8dc0
000003c0: bbba a2c0 e2a2 dac0 38cb 93c0 eaaf b3c0
000003d0: f73c 2cc0 a65c 3cc0 4471 bec0 89ef b0c0
000003e0: bbff d0c0 7b3c adc0 4af2 1ec0 98a4 89c0
000003f0: 1b3e 52c0 9553 09c0 ee5e 9bc0 e565 8dc0

weight_mu f4 [128, 512]
-0.0038037838 0.014220249 0.006098224 -0.0054986514 -0.0008787237 0.005412248 -0.012653307 0.006606588
0.0044081872 0.0005739264 0.003936915 -0.00015875847 0.0017220493 -0.0031476868 0.02398274 -0.026245104
-0.0016643876 -0.003258229 -0.011775587 0.005443864 -0.00012090391 -0.0054073134 -0.00057214854 -0.005509824
0.01678387 0.0057771094 0.0010115581 0.007961054 0.01149514 -0.008510163 -5.42106e-05 0.008676177
0.017550766 0.0050297054 -0.004902769 0.000525056 0.010183714 0.0024347412 -0.00024277419 -0.03303629
-0.028380863 -0.0083172545 -0.0017264524 -0.005156249 0.0013927217 0.0047388133 0.0020909384 -0.004760841
0.005518942 0.004911486 0.0036403404 0.0063439365 -0.004892527 0.0046442375 -0.0026618806 0.009680453
0.003084152 0.0025516269 0.0008605501 0.0011690944 -0.0013145957 0.002995568 0.00630279 0.0003901895
-0.0001567045 -0.006798864 -0.010699717 -0.013857712 0.006913729 -0.00425746 -0.0015645659 -2.6062697e-05
0.0016491049 -0.005364933 0.00077131466 0.00628317 -0.005612526 -0.0054751146 0.001677754 -0.0047340374
-0.0067456802 -0.0011401466 -0.0015643183 0.010686978 -0.0011656255 -0.010964742 0.00815066 0.009836446
-0.0020156112 0.00011693904 0.00061316113 -0.0024337028 0.011970776 0.000300659 -0.008262376 0.010627937
0.01964537 0.0043639257 0.0042887726 0.005073274 0.0041511897 -0.011504688 0.0036588444 -0.0073678684
0.009955345 0.00022249519 -0.04748967 0.004152688 0.00010869092 -0.0002312087 -0.00022228582 -0.0004703718
0.0063386615 0.00014852032 0.00739663 -0.0022577294 -0.007904681 -0.0023619814 0.006273399 -0.014692609
0.0010213988 -0.0022133966 -0.00068689685 -0.03178586 -0.0029610894 0.0028821195 -0.0028413446 0.012471532
-0.00028265984 -0.019963615 0.005834146 0.002700957 -0.0032481155 0.011881017 -0.039802264 -0.0025759966
0.011351584 -0.01864037 0.004228092 0.007495068 -0.000376368 -0.0006186225 -0.0021042852 -0.00020017472
-0.0023355721 -0.0051959176 -0.0072916476 -0.004620703 -0.021729618 0.0025670524 0.00662791 0.008667803
0.0071286005 0.004967485 0.0010979028 -0.0045726085 -0.0017871486 0.0031303768 -0.00037268692 0.0015276985
0.00011494812 -0.0061745225 0.0032349646 0.00614325 0.004349835 -0.00029054235 -0.0019142019 -0.029552069
0.008035536 0.00014532206 -0.00114823 0.005197704 0.0057326257 -0.0015379231 -0.0063813175 0.0045853537
-4.050413e-05 0.0030265609 -0.008937761 -0.000539109 0.019615812 0.013435978 -0.004094961 0.0028753288
-0.0018589539 0.0100521045 0.0047367713 -0.0057826596 -0.0020203707 -0.02368939 -0.024850007 0.003961874
0.007662529 -0.010342914 0.0014019161 -0.0007310559 0.004644457 -0.005908439 -0.0053011538 0.024796437
-0.0127592115 0.0019581285 -0.030966759 0.003863171 -0.0023289733 -0.00010384195 0.0014902161 -0.0051735584
-0.0004717446 0.0020321435 -0.023938758 0.006526907 -0.00018367491 -0.0013950551 -0.005099906 0.001231685
0.0016058285 -0.04129901 0.0017696263 -0.00087856245 0.0006622922 0.01623144 0.007603184 0.0036851405
-0.021570157 0.0019364773 0.0010642331 0.005294094 0.00031610476 -0.005723492 -0.0005927608 -0.0043938854
0.013761418 0.0023510815 -0.00846591 -0.0069336426 -0.0054186536 0.0021897464 6.599425e-05 -0.03552273
-0.01066765 -0.00372357 0.00042305727 0.003824647 -0.00221757 -0.020671135 0.0041845115 -0.0019190517
-0.0042348886 0.001946713 0.003581731 0.0018258067 -0.006332701 -0.007504669 -0.0022218002 0.0021406517
00000000: e748 79bb 0cfc 683c 9cd3 c73b 082e b4bb
00000010: 265a 66ba 3a59 b13b d14f 4fbc 147c d83b
00000020: 8e72 903b 8c73 163a 3d01 813b 6778 26b9
00000030: 63b6 e13a 6c49 4ebb 7377 c43c f9ff d6bc
00000040: 9527 daba 0388 55bb 64ee 40bc 7162 b23b
00000050: cb8d fdb8 d52f b1bb 3dfc 15ba c18b b4bb
00000060: 547e 893c e84d bd3b 4296 843a 156f 023c
00000070: 1d56 3c3c 366e 0bbc 3060 63b8 8626 0e3c
00000080: a0c6 8f3c 3ad0 a43b 68a7 a0bb e9a3 093a
00000090: 98d9 263c 2e90 1f3b 3391 7eb9 1051 07bd
000000a0: fc7e e8bc 1845 08bc 214a e2ba c0f5 a8bb
000000b0: fc8b b63a 0c48 9b3b 2008 093b d400 9cbb
000000c0: 3ed8 b43b 88f0 a03b c792 6e3b cce0 cf3b
000000d0: 7e51 a0bb b02e 983b f272 2ebb c39a 1e3c
000000e0: 7c1f 4a3b 3239 273b 8a96 613a 4c3c 993a
000000f0: 834e acba 4b51 443b a287 ce3b 5992 cc39
00000100: 0b51 24b9 01c9 debb de4d 2fbc 750b 63bc
00000110: 908c e23b 2a82 8bbb 1f12 cdba 37a1 dab7
00000120: c726 d83a 52cc afbb 0d32 4a3a 0de3 cd3b
00000130: 48e9 b7bb 9768 b3bb 15e8 db3a fc1f 9bbb
00000140: de0a ddbb f970 95ba d009 cdba 6f18 2f3c
00000150: e7c7 98ba 76a5 33bc 598a 053c 0b29 213c
00000160: 5818 04bb 2b3d f538 8cbc 203a c27e 1fbb
00000170: 1321 443c c5a1 9d39 eb5e 07bc cc20 2e3c
00000180: 54ef a03c 43ff 8e3b d588 8c3b b53d a63b
00000190: b406 883b 297e 3cbc 39c9 6f3b 296e f1bb
000001a0: be1b 233c 994d 6939 8784 42bd 4613 883b
000001b0: fef0 e338 9d70 72b9 6515 69b9 3c9c f6b9
000001c0: 8cb4 cf3b 1fbc 1b39 6e5f f23b 6af6 13bb
000001d0: a382 01bc 79cb 1abb 1691 cd3b 45b9 70bc
000001e0: 75e0 853a a20e 11bb de10 34ba e431 02bd
000001f0: d60e 42bb f1e1 3c3b da35 3abb 6655 4c3c
00000200: f631 94b9 bc8a a3bc 5d2c bf3b 8a02 313b
00000210: 56de 54bb 99a8 423c b307 23bd 0dd2 28bb
00000220: fffb 393c b0b3 98bc ce8b 8a3b 3099 f53b
00000230: 4253 c5b9 0e2b 22ba 0ce8 09bb fee5 51b9
00000240: 6610 19bb 8442 aabb c6ee eebb 4469 97bb
00000250: 5002 b2bc fe3b 283b f02e d93b 6703 0e3c
00000260: 0997 e93b 49c6 a23b 81e7 8f3a d2d5 95bb
00000270: c23e eaba 0227 4d3b 3165 c3b9 0e3d c83a
00000280: 4d10 f138 a653 cabb b301 543b 514d c93b
00000290: 1089 8e3b ef53 98b9 f5e5 faba 2e17 f2bc
000002a0: 7ba7 033c 9861 1839 3580 96ba 8051 aa3b
000002b0: c0d8 bb3b 2394 c9ba 5f1a d1bb bc40 963b
000002c0: fae2 29b8 4459 463b b06f 12bc fe52 0dba
000002d0: 57b1 a03c 9422 5c3c 062f 86bb 0370 3c3b
000002e0: 24a8 f3ba 95b1 243c eb36 9b3b 777c bdbb
000002f0: 3268 04bb 4010 c2bc 3e92 cbbc 9cd2 813b
00000300: f415 fb3b 5375 29bc 80c0 b73a 55a4 3fba
00000310: 8730 983b 949b c1bb 4db5 adbb e621 cb3c
00000320: 030c 51bc f253 003b 00ae fdbc 412d 7d3b
00000330: b0a1 18bb b9c5 d9b8 5b53 c33a f486 a9bb
00000340: 7d54 f7b9 b62d 053b 371b c4bc aadf d53b
00000350: dc98 40b9 48da b6ba 1d1d a7bb 7e70 a13a
00000360: aa7a d23a 2729 29bd cef2 e73a 544f 66ba
00000370: ad9d 2d3a ccf7 843c 2124 f93b 6682 713b
00000380: e6b3 b0bc 65d1 fd3a bd7d 8b3a 147a ad3b
00000390: ddba a539 218c bbbb 8163 1bba 95fa 8fbb
000003a0: 9277 613c 9a14 1a3b 9ab4 0abc 9c33 e3bb
000003b0: f68e b1bb d981 0f3b 6566 8a38 4880 11bd
000003c0: 5ec7 2ebc 2307 74bb c9cd dd39 eea6 7a3b
000003d0: a754 11bb 8356 a9bc 3a1e 893b b188 fbba
000003e0: d2c4 8abb d928 ff3a 7abb 6a3b e84f ef3a
000003f0: 8c82 cfbb bae9 f5bb 9f9b 11bb 2d4a 0c3b

weight_logvar f4 [128, 512]
-3.218876 -3.218876 -3.218876 -3.218876 -3.218876 -3.218876 -3.218876 -3.218876
-3.218876 -3.218876 -3.218876 -3.218876 -3.218876 -3.218876 -3.218876 -3.218876
-3.218876 -3.218876 -3.218876 -3.218876 -3.218876 -3.218876 -3.218876 -3.218876
-3.218876 -3.218876 -3.218876 -3.218876 -3.218876 -3.218876 -3.218876 -3.218876
-3.218876 -3.218876 -3.218876 -3.218876 -3.218876 -3.218876 -3.218876 -3.218876
-3.218876 -3.218876 -3.218876 -3.218876 -3.218876 -3.218876 -3.218876 -3.218876
-3.218876 -3.218876 -3.218876 -3.218876 -3.218876 -3.218876 -3.218876 -3.218876
-3.218876 -3.218876 -3.218876 -3.218876 -3.218876 -3.218876 -3.218876 -3.218876
-3.218876 -3.218876 -3.218876 -3.218876 -3.218876 -3.218876 -3.218876 -3.218876
-3.218876 -3.218876 -3.218876 -3.218876 -3.218876 -3.218876 -3.218876 -3.218876
-3.218876 -3.218876 -3.218876 -3.218876 -3.218876 -3.218876 -3.218876 -3.218876
-3.218876 -3.218876 -3.218876 -3.218876 -3.218876 -3.218876 -3.218876 -3.218876
-3.218876 -3.218876 -3.218876 -3.218876 -3.218876 -3.218876 -3.218876 -3.218876
-3.218876 -3.218876 -3.218876 -3.218876 -3.218876 -3.218876 -3.218876 -3.218876
-3.218876 -3.218876 -3.218876 -3.218876 -3.218876 -3.218876 -3.218876 -3.218876
-3.218876 -3.218876 -3.218876 -3.218876 -3.218876 -3.218876 -3.218876 -3.218876
-3.218876 -3.218876 -3.218876 -3.218876 -3.218876 -3.218876 -3.218876 -3.218876
-3.218876 -3.218876 -3.218876 -3.218876 -3.218876 -3.218876 -3.218876 -3.218876
-3.218876 -3.218876 -3.218876 -3.218876 -3.218876 -3.218876 -3.218876 -3.218876
-3.218876 -3.218876 -3.218876 -3.218876 -3.218876 -3.218876 -3.218876 -3.218876
-3.218876 -3.218876 -3.218876 -3.218876 -3.218876 -3.218876 -3.218876 -3.218876
-3.218876 -3.218876 -3.218876 -3.218876 -3.218876 -3.218876 -3.218876 -3.218876
-3.218876 -3.218876 -3.218876 -3.218876 -3.218876 -3.218876 -3.218876 -3.218876
-3.218876 -3.218876 -3.218876 -3.218876 -3.218876 -3.218876 -3.218876 -3.218876
-3.218876 -3.218876 -3.218876 -3.218876 -3.218876 -3.218876 -3.218876 -3.218876
-3.218876 -3.218876 -3.218876 -3.218876 -3.218876 -3.218876 -3.218876 -3.218876
-3.218876 -3.218876 -3.218876 -3.218876 -3.218876 -3.218876 -3.218876 -3.218876
-3.218876 -3.218876 -3.218876 -3.218876 -3.218876 -3.218876 -3.218876 -3.218876
-3.218876 -3.218876 -3.218876 -3.218876 -3.218876 -3.218876 -3.218876 -3.218876
-3.218876 -3.218876 -3.218876 -3.218876 -3.218876 -3.218876 -3.218876 -3.218876
-3.218876 -3.218876 -3.218876 -3.218876 -3.218876 -3.218876 -3.218876 -3.218876
-3.218876 -3.218876 -3.218876 -3.218876 -3.218876 -3.218876 -3.218876 -3.218876
00000000: 1002 4ec0 1002 4ec0 1002 4ec0 1002 4ec0
00000010: 1002 4ec0 1002 4ec0 1002 4ec0 1002 4ec0
00000020: 1002 4ec0 1002 4ec0 1002 4ec0 1002 4ec0
00000030: 1002 4ec0 1002 4ec0 1002 4ec0 1002 4ec0
00000040: 1002 4ec0 1002 4ec0 1002 4ec0 1002 4ec0
00000050: 1002 4ec0 1002 4ec0 1002 4ec0 1002 4ec0
00000060: 1002 4ec0 1002 4ec0 1002 4ec0 1002 4ec0
00000070: 1002 4ec0 1002 4ec0 1002 4ec0 1002 4ec0
00000080: 1002 4ec0 1002 4ec0 1002 4ec0 1002 4ec0
00000090: 1002 4ec0 1002 4ec0 1002 4ec0 1002 4ec0
000000a0: 1002 4ec0 1002 4ec0 1002 4ec0 1002 4ec0
000000b0: 1002 4ec0 1002 4ec0 1002 4ec0 1002 4ec0
000000c0: 1002 4ec0 1002 4ec0 1002 4ec0 1002 4ec0
000000d0: 1002 4ec0 1002 4ec0 1002 4ec0 1002 4ec0
000000e0: 1002 4ec0 1002 4ec0 1002 4ec0 1002 4ec0
000000f0: 1002 4ec0 1002 4ec0 1002 4ec0 1002 4ec0
00000100: 1002 4ec0 1002 4ec0 1002 4ec0 1002 4ec0
00000110: 1002 4ec0 1002 4ec0 1002 4ec0 1002 4ec0
00000120: 1002 4ec0 1002 4ec0 1002 4ec0 1002 4ec0
00000130: 1002 4ec0 1002 4ec0 1002 4ec0 1002 4ec0
00000140: 1002 4ec0 1002 4ec0 1002 4ec0 1002 4ec0
00000150: 1002 4ec0 1002 4ec0 1002 4ec0 1002 4ec0
00000160: 1002 4ec0 1002 4ec0 1002 4ec0 1002 4ec0
00000170: 1002 4ec0 1002 4ec0 1002 4ec0 1002 4ec0
00000180: 1002 4ec0 1002 4ec0 1002 4ec0 1002 4ec0
00000190: 1002 4ec0 1002 4ec0 1002 4ec0 1002 4ec0
000001a0: 1002 4ec0 1002 4ec0 1002 4ec0 1002 4ec0
000001b0: 1002 4ec0 1002 4ec0 1002 4ec0 1002 4ec0
000001c0: 1002 4ec0 1002 4ec0 1002 4ec0 1002 4ec0
000001d0: 1002 4ec0 1002 4ec0 1002 4ec0 1002 4ec0
000001e0: 1002 4ec0 1002 4ec0 1002 4ec0 1002 4ec0
000001f0: 1002 4ec0 1002 4ec0 1002 4ec0 1002 4ec0
00000200: 1002 4ec0 1002 4ec0 1002 4ec0 1002 4ec0
00000210: 1002 4ec0 1002 4ec0 1002 4ec0 1002 4ec0
00000220: 1002 4ec0 1002 4ec0 1002 4ec0 1002 4ec0
00000230: 1002 4ec0 1002 4ec0 1002 4ec0 1002 4ec0
00000240: 1002 4ec0 1002 4ec0 1002 4ec0 1002 4ec0
00000250: 1002 4ec0 1002 4ec0 1002 4ec0 1002 4ec0
00000260: 1002 4ec0 1002 4ec0 1002 4ec0 1002 4ec0
00000270: 1002 4ec0 1002 4ec0 1002 4ec0 1002 4ec0
00000280: 1002 4ec0 1002 4ec0 1002 4ec0 1002 4ec0
00000290: 1002 4ec0 1002 4ec0 1002 4ec0 1002 4ec0
000002a0: 1002 4ec0 1002 4ec0 1002 4ec0 1002 4ec0
000002b0: 1002 4ec0 1002 4ec0 1002 4ec0 1002 4ec0
000002c0: 1002 4ec0 1002 4ec0 1002 4ec0 1002 4ec0
000002d0: 1002 4ec0 1002 4ec0 1002 4ec0 1002 4ec0
000002e0: 1002 4ec0 1002 4ec0 1002 4ec0 1002 4ec0
000002f0: 1002 4ec0 1002 4ec0 1002 4ec0 1002 4ec0
00000300: 1002 4ec0 1002 4ec0 1002 4ec0 1002 4ec0
00000310: 1002 4ec0 1002 4ec0 1002 4ec0 1002 4ec0
00000320: 1002 4ec0 1002 4ec0 1002 4ec0 1002 4ec0
00000330: 1002 4ec0 1002 4ec0 1002 4ec0 1002 4ec0
00000340: 1002 4ec0 1002 4ec0 1002 4ec0 1002 4ec0
00000350: 1002 4ec0 1002 4ec0 1002 4ec0 1002 4ec0
00000360: 1002 4ec0 1002 4ec0 1002 4ec0 1002 4ec0
00000370: 1002 4ec0 1002 4ec0 1002 4ec0 1002 4ec0
00000380: 1002 4ec0 1002 4ec0 1002 4ec0 1002 4ec0
00000390: 1002 4ec0 1002 4ec0 1002 4ec0 1002 4ec0
000003a0: 1002 4ec0 1002 4ec0 1002 4ec0 1002 4ec0
000003b0: 1002 4ec0 1002 4ec0 1002 4ec0 1002 4ec0
000003c0: 1002 4ec0 1002 4ec0 1002 4ec0 1002 4ec0
000003d0: 1002 4ec0 1002 4ec0 1002 4ec0 1002 4ec0
000003e0: 1002 4ec0 1002 4ec0 1002 4ec0 1002 4ec0
000003f0: 1002 4ec0 1002 4ec0 1002 4ec0 1002 4ec0

bias_mu f4 [128]
-0.23487744 -0.0005731172 -0.226841 -0.3705973 -0.23861912 -0.32710686 -0.014547049 -0.29490307
-0.21767771 -0.2616546 -0.2540655 -0.22645344 -0.0033197529 -0.23441719 -0.29933587 -0.54761636
0.8453907 -0.2131949 -0.0019190653 -0.3242415 -0.27587485 -0.27351183 -0.27864859 -0.29776573
-0.3039335 -0.29723385 -0.18441072 -0.23469195 -0.36357307 -0.45308918 -0.162334 -0.022708962
-0.24975461 -0.37548122 -0.25870556 -0.24069215 -0.1790012 -0.60148257 -0.088847466 -0.26866087
-0.11744132 0.6067374 -0.25916496 0.7122178 -0.62983304 -0.22763973 -0.27747896 -0.03730423
-0.3055213 -0.29475018 -0.23392221 -0.23737347 -0.3332737 0.78402054 -0.31674498 -0.21768972
-0.1886444 -0.4877153 0.0015338664 -0.29292747 -0.2067431 -0.26917267 -0.24016838 -0.6697751
-0.2504691 0.54340875 -0.22976868 -0.00315068 -0.8735723 -0.18765165 -0.27625272 -0.22544855
-0.26974395 -0.25888252 0.63527966 -0.0029460338 -0.23940137 -0.2956452 -0.35737708 -0.20665598
-0.5126081 -0.21570776 -0.0045392704 -0.29605344 -0.23923765 -0.337936 0.4763906 -0.30332506
-0.18428461 -0.2511311 -0.22842325 -0.21958233 -0.33110127 -0.38860157 -0.0059110573 -0.18936993
0.614963 0.00050654396 0.8766293 -0.31462222 -0.25266397 -0.24225913 -0.4880438 -0.2401649
-0.27184522 0.5884381 -0.5870782 -0.28198016 -0.2802906 0.9227365 0.63331234 -0.2565006
0.0019520137 -0.006741868 -0.2786386 -0.24327749 -0.21648268 -0.22115074 -0.29564023 -0.49690825
-0.45731974 -0.19249502 -0.25497854 -0.23868525 -0.24000607 -0.27330902 -0.24992856 -0.0029525887
00000000: b683 70be 3f3d 16ba 0249 68be eebe bdbe
00000010: 9258 74be 8d7a a7be bf56 6ebc 89fd 96be
00000020: e8e6 5ebe 97f7 85be e014 82be 69e3 67be
00000030: 3690 59bb 0f0b 70be 8d42 99be 9630 0cbf
00000040: 866b 583f c44f 5abe 2589 fbba fb02 a6be
00000050: 783f 8dbe be09 8cbe 07ab 8ebe c074 98be
00000060: 2c9d 9bbe 092f 98be 2ad6 3cbe 1653 70be
00000070: 4026 babe 4efb e7be e23a 26be 2508 babc
00000080: acbf 7fbe 133f c0be 0e75 84be 0178 76be
00000090: 174c 37be c3fa 19bf a9f5 b5bd eb8d 89be
000000a0: 1385 f0bd 2453 1b3f 45b1 84be e853 363f
000000b0: bd3c 21bf 641a 69be b911 8ebe 52cc 18bd
000000c0: 4a6d 9cbe 7fe9 96be 4e89 6fbe 0812 73be
000000d0: daa2 aabe 92b5 483f 662c a2be 0eea 5ebe
000000e0: ff2b 41be d2b5 f9be 040c c93a 97fa 95be
000000f0: 77b4 53be 00d1 89be b3ee 75be 6276 2bbf
00000100: 7c3d 80be d61c 0b3f 7b48 6bbe a47b 4ebb
00000110: 6fa2 5fbf c127 40be ff70 8dbe fcdb 66be
00000120: e11b 8abe 408c 84be b0a1 223f 3f12 41bb
00000130: a225 75be cf5e 97be 21fa b6be a09d 53be
00000140: 493a 03bf 7fe2 5cbe 29be 94bb 5194 97be
00000150: b7fa 74be f305 adbe 78e9 f33e 6c4d 9bbe
00000160: 1bb5 3cbe 4194 80be c9e7 69be 31da 60be
00000170: 1b86 a9be c9f6 c6be 8bb1 c1bb 31ea 41be
00000180: 376e 1d3f 97c9 043a c76a 603f 2a16 a1be
00000190: 2c5d 81be c712 78be e1e0 f9be caed 75be
000001a0: 4c2f 8bbe e1a3 163f c24a 16bf b45f 90be
000001b0: 4082 8fbe 7638 6c3f c220 223f 0c54 83be
000001c0: b6da ff3a e3ea dcbb b8a9 8ebe bc1d 79be
000001d0: a3ad 5dbe 5775 62be 285e 97be c26a febe
000001e0: d025 eabe 6a1d 45be 8c8c 82be e869 74be
000001f0: 27c4 75be 29ef 8bbe 46ed 7fbe 3880 41bb

bias_logvar f4 [128]
-3.218876 -3.218876 -3.218876 -3.218876 -3.218876 -3.218876 -3.218876 -3.218876
-3.218876 -3.218876 -3.218876 -3.218876 -3.218876 -3.218876 -3.218876 -4.485028
-4.228922 -3.218876 -3.218876 -3.218876 -3.218876 -3.218876 -3.218876 -3.218876
-3.218876 -3.218876 -3.218876 -3.218876 -3.2190697 -4.390074 -3.218876 -3.218876
-3.218876 -4.0256724 -3.218876 -3.218876 -3.218876 -4.9132366 -3.218876 -3.218876
-3.218876 -4.2624187 -3.218876 -5.339936 -5.229672 -3.218876 -3.218876 -3.218876
-3.218876 -3.218876 -3.218876 -3.218876 -3.218876 -3.8646955 -3.218876 -3.218876
-3.218876 -4.634361 -3.218876 -3.218876 -3.218876 -3.218876 -3.218876 -5.443895
-3.218876 -3.543407 -3.218876 -3.218876 -3.615941 -3.218876 -3.218876 -3.218876
-3.218876 -3.218876 -4.2704096 -3.218876 -3.218876 -3.218876 -3.218876 -3.218876
-5.7586427 -3.218876 -3.218876 -3.218876 -3.218876 -3.218876 -3.4674084 -3.218876
-3.218876 -3.218876 -3.218876 -3.218876 -3.21987 -4.5466805 -3.218876 -3.218876
-4.2633896 -3.218876 -5.5498834 -3.218876 -3.218876 -3.218876 -4.226686 -3.218876
-3.218876 -4.275048 -4.398467 -3.218876 -3.218876 -4.5867257 -4.303954 -3.218876
-3.218876 -3.218876 -3.218876 -3.218876 -3.218876 -3.218876 -3.218876 -3.497624
-4.500722 -3.218876 -3.218876 -3.218876 -3.218876 -3.218876 -3.218876 -3.218876
00000000: 1002 4ec0 1002 4ec0 1002 4ec0 1002 4ec0
00000010: 1002 4ec0 1002 4ec0 1002 4ec0 1002 4ec0
00000020: 1002 4ec0 1002 4ec0 1002 4ec0 1002 4ec0
00000030: 1002 4ec0 1002 4ec0 1002 4ec0 5985 8fc0
00000040: 5453 87c0 1002 4ec0 1002 4ec0 1002 4ec0
00000050: 1002 4ec0 1002 4ec0 1002 4ec0 1002 4ec0
00000060: 1002 4ec0 1002 4ec0 1002 4ec0 1002 4ec0
00000070: 3d05 4ec0 7c7b 8cc0 1002 4ec0 1002 4ec0
00000080: 1002 4ec0 4fd2 80c0 1002 4ec0 1002 4ec0
00000090: 1002 4ec0 3c39 9dc0 1002 4ec0 1002 4ec0
000000a0: 1002 4ec0 bc65 88c0 1002 4ec0 c1e0 aac0
000000b0: 7959 a7c0 1002 4ec0 1002 4ec0 1002 4ec0
000000c0: 1002 4ec0 1002 4ec0 1002 4ec0 1002 4ec0
000000d0: 1002 4ec0 2c57 77c0 1002 4ec0 1002 4ec0
000000e0: 1002 4ec0 af4c 94c0 1002 4ec0 1002 4ec0
000000f0: 1002 4ec0 1002 4ec0 1002 4ec0 6334 aec0
00000100: 1002 4ec0 2ec7 62c0 1002 4ec0 1002 4ec0
00000110: 946b 67c0 1002 4ec0 1002 4ec0 1002 4ec0
00000120: 1002 4ec0 1002 4ec0 32a7 88c0 1002 4ec0
00000130: 1002 4ec0 1002 4ec0 1002 4ec0 1002 4ec0
00000140: cd46 b8c0 1002 4ec0 1002 4ec0 1002 4ec0
00000150: 1002 4ec0 1002 4ec0 05ea 5dc0 1002 4ec0
00000160: 1002 4ec0 1002 4ec0 1002 4ec0 1002 4ec0
00000170: 5a12 4ec0 687e 91c0 1002 4ec0 1002 4ec0
00000180: b06d 88c0 1002 4ec0 a598 b1c0 1002 4ec0
00000190: 1002 4ec0 1002 4ec0 0341 87c0 1002 4ec0
000001a0: 1002 4ec0 31cd 88c0 3ec0 8cc0 1002 4ec0
000001b0: 1002 4ec0 75c6 92c0 feb9 89c0 1002 4ec0
000001c0: 1002 4ec0 1002 4ec0 1002 4ec0 1002 4ec0
000001d0: 1002 4ec0 1002 4ec0 1002 4ec0 12d9 5fc0
000001e0: ea05 90c0 1002 4ec0 1002 4ec0 1002 4ec0
000001f0: 1002 4ec0 1002 4ec0 1002 4ec0 1002 4ec0

z_mu f4 [128]
0.005660847 0.0002490814 0.0057455953 -0.049150717 -0.0010088845 -0.0063667437 7.556851e-05 -0.011680872
-0.008230101 -0.0058986177 0.00016513464 -0.0018357199 1.384555e-05 0.0059739845 -0.007477336 0.5117884
0.62935454 -0.0018814822 -0.000140901 0.020529872 0.007324288 0.0013535315 0.0018675228 0.008993105
0.0070544966 -8.0428224e-05 -0.0019782363 -0.0016048033 0.0061199395 0.44338232 0.006323224 0.000237523
-0.018478451 0.4120573 -0.0026263732 -0.010150901 -0.0026173717 0.786825 0.003657675 0.009035204
0.0007764393 0.3953375 -0.0077911224 0.8707467 1.2602913 -0.00057665084 -0.031443667 -0.00025722475
-0.012763814 0.011589745 0.00062897644 -0.015999118 0.011419225 0.46453527 -0.050592314 -0.005448355
-0.0047587533 0.49203113 5.0120347e-05 -0.0041732593 0.0048838365 0.00042301643 -0.008567842 1.076218
0.005954704 0.47038302 0.0013049113 -0.00018600194 0.73319817 -0.0007722578 -0.0071644145 -0.0026457384
0.0042494275 -0.0014197543 0.422944 -4.6472807e-05 -0.0026377526 0.0046358346 -0.0001666823 -0.0050532776
0.8028311 -0.0037461722 0.00035952503 -0.0039097727 -0.004281837 -0.008712076 0.16847348 0.0012012544
-0.005805822 -0.0031175546 -0.0063843415 -0.0035152177 0.016594408 0.57880175 -0.00018940389 -0.0049163364
0.4806872 -0.00019556932 2.1025307 0.0061489334 0.0010909582 0.007699001 0.4431678 0.004369738
0.00067956187 0.54399556 0.6155187 0.0055963905 -0.012628163 0.8269699 0.5057578 0.003932709
0.00024582917 -0.00015742127 0.003220925 0.0031577824 -0.0063760187 -0.0032177602 0.0005500516 0.46530294
0.7167991 -0.006272039 0.008554216 0.00466448 -0.0004911028 0.0074489093 0.008716171 5.740973e-05
00000000: a07e b93b 2497 8239 8c45 bc3b 4352 49bd
00000010: 8c3c 84ba 1ea0 d0bb 897a 9e38 2161 3fbc
00000020: 8cd7 06bc 3149 c1bb fe27 2d39 8a9c f0ba
00000030: 2f4a 6837 6ac1 c33b 7104 f5bb 9104 033f
00000040: 611d 213f 119c f6ba d3be 13b9 432e a83c
00000050: 9500 f03b fb68 b13a abc7 f43a d157 133c
00000060: 6829 e73b 93ab a8b8 4ca5 01bb 4358 d2ba
00000070: c689 c83b 0203 e33e 0c33 cf3b 980f 7939
00000080: 1f60 97bc 2df9 d23e 3b1f 2cbb f74f 26bc
00000090: 3688 2bbb 5d6d 493f 9bb5 6f3b 6408 143c
000000a0: f689 4b3a ad69 ca3e ac4c ffbb 41e9 5e3f
000000b0: 3a51 a13f 622a 17ba 13cb 00bd 1fdc 86b9
000000c0: 511f 51bc eae2 3d3c e5e1 243a 9510 83bc
000000d0: b317 3b3c 91d7 ed3e e339 4fbd 1d88 b2bb
000000e0: 51ef 9bbb 81eb fb3e 5038 5238 d6bf 88bb
000000f0: 9708 a03b 4ec8 dd39 2260 0cbc 83c1 893f
00000100: ad1f c33b 0bd6 f03e 8f09 ab3a 8409 43b9
00000110: e0b2 3b3f 5871 4aba 77c3 eabb 2064 2dbb
00000120: c83e 8b3b 0d17 baba 1e8c d83e cceb 42b8
00000130: 25de 2cbb 33e8 973b 70c7 2eb9 f795 a5bb
00000140: 5786 4d3f 5782 75bb a27e bc39 8d1d 80bb
00000150: a74e 8cbb 18bd 0ebc 5084 2c3e 6973 9d3a
00000160: c43e bebb e34f 4cbb bd33 d1bb 915f 66bb
00000170: fff0 873c 5a2c 143f b89a 46b9 3819 a1bb
00000180: a21c f63e bd11 4db9 dd8f 0640 fe7c c93b
00000190: 7cfe 8e3a e747 fc3b e4e6 e23e 0530 8f3b
000001a0: a024 323a 4b43 0b3f a292 1d3f ed61 b73b
000001b0: 5be6 4ebc 4db4 533f 5879 013f f4dd 803b
000001c0: a2e2 8039 7311 25b9 2816 533b ccf2 4e3b
000001d0: eced d0bb 0fe1 52bb 5731 103a 303c ee3e
000001e0: 2580 373f ad85 cdbb fb26 0c3c 7fd8 983b
000001f0: 5abd 00ba fb15 f43b 45ce 0e3c 3acb 7038

z_logvar f4 [128]
-4.0929713 -10.590282 -3.7180638 -1.791465 -4.516131 -2.9719315 -10.413187 -3.3470452
-4.6747856 -4.2942476 -4.3357697 -4.833814 -10.76241 -4.2719297 -3.6133194 -4.204697
-3.1884115 -5.102296 -9.823911 -3.004329 -3.8734426 -4.1139073 -3.5150707 -3.9425015
-3.2023087 -4.0621223 -4.785789 -4.721125 -2.868174 -4.418565 -5.5788283 -9.510358
-3.9200408 -3.7496555 -4.3103766 -4.2121882 -5.2227697 -4.028575 -7.2079487 -4.443228
-6.1985598 -3.5427766 -4.181597 -4.3756022 -3.73464 -4.6008434 -3.0467727 -8.716495
-3.3321972 -3.533803 -4.7842607 -4.270559 -3.4812515 -3.0650854 -3.0140395 -4.884623
-5.2068257 -4.5004125 -10.63487 -3.6710372 -4.8743787 -4.096808 -4.501722 -4.3617663
-4.601422 -2.024062 -4.164364 -10.591239 -2.8639884 -5.8283434 -4.0664515 -4.5591283
-3.9788454 -4.4247246 -3.6135623 -10.398006 -4.587952 -3.8225915 -3.6696105 -4.5848
-5.474534 -4.984025 -10.310769 -3.992515 -4.4195185 -3.158564 -3.5175078 -3.7271879
-5.1569605 -4.3297925 -4.5665903 -4.4486103 -3.2027292 -3.860598 -10.946233 -5.3703437
-3.8492925 -10.769609 -3.1953814 -3.382953 -4.259532 -4.3439527 -4.1210856 -4.23179
-4.410857 -3.67687 -3.5218947 -3.8736212 -4.1303077 -3.3684852 -3.3898797 -4.6466413
-10.6058235 -10.697764 -3.922805 -4.3621035 -4.733659 -4.908513 -4.3900294 -2.5042007
-3.6319025 -5.435261 -4.577826 -4.493988 -3.8424623 -4.2883587 -4.522834 -10.506954
00000000: 9ff9 82c0 cc71 29c1 c2f4 6dc0 ba4e e5bf
00000010: 2584 90c0 2034 3ec0 6a9c 26c1 fd35 56c0
00000020: d897 95c0 7a6a 89c0 a0be 8ac0 9bae 9ac0
00000030: d532 2cc1 a6b3 88c0 a040 67c0 e18c 86c0
00000040: ef0e 4cc0 0246 a3c0 bd2e 1dc1 ed46 40c0
00000050: 7ce6 77c0 21a5 83c0 ebf6 60c0 f251 7cc0
00000060: a0f2 4cc0 e8fc 81c0 2f25 99c0 7513 97c0
00000070: 2a90 37c0 e264 8dc0 c385 b2c0 6d2a 18c1
00000080: f3e1 7ac0 5bfa 6fc0 9bee 89c0 3fca 86c0
00000090: ee20 a7c0 16ea 80c0 84a7 e6c0 ec2e 8ec0
000000a0: 9a5a c6c0 dabc 62c0 a5cf 85c0 ef04 8cc0
000000b0: 5704 6fc0 1c3a 93c0 53fe 42c0 c376 0bc1
000000c0: b842 55c0 d429 62c0 aa18 99c0 6ba8 88c0
000000d0: d3cc 5ec0 5c2a 44c0 06e6 40c0 d54e 9cc0
000000e0: 519e a6c0 6103 90c0 6d28 2ac1 46f2 6ac0
000000f0: e9fa 9bc0 0d19 83c0 1b0e 90c0 9793 8bc0
00000100: d93e 93c0 3b8a 01c0 7842 85c0 b775 29c1
00000110: 964b 37c0 ca81 bac0 5f20 82c0 61e4 91c0
00000120: 67a5 7ec0 5897 8dc0 9b44 67c0 3c5e 26c1
00000130: 81d0 92c0 57a5 74c0 e6da 6ac0 aeb6 92c0
00000140: 622f afc0 227d 9fc0 e9f8 24c1 5e85 7fc0
00000150: b26c 8dc0 ea25 4ac0 d91e 61c0 3f8a 6ec0
00000160: d205 a5c0 a98d 8ac0 8221 92c0 045b 8ec0
00000170: 84f9 4cc0 0a14 77c0 c523 2fc1 dbd9 abc0
00000180: cf5a 76c0 5250 2cc1 2181 4cc0 4d82 58c0
00000190: 164e 88c0 a901 8bc0 efdf 83c0 d36a 87c0
000001a0: be25 8dc0 d751 6bc0 b966 61c0 69e9 77c0
000001b0: 7b2b 84c0 4395 57c0 caf3 58c0 49b1 94c0
000001c0: 74b1 29c1 0b2a 2bc1 3d0f 7bc0 5a96 8bc0
000001d0: 227a 97c0 8a12 9dc0 1f7b 8cc0 d344 20c0
000001e0: 1771 68c0 a8ed adc0 8d7d 92c0 c0ce 8fc0
000001f0: e7ea 75c0 3c3a 89c0 0ebb 90c0 7c1c 28c1

weight_mu f4 [2, 128]
0.024261277 -0.005271718 -0.000942965 0.032073524 -0.015955342 0.053043492 0.01617784 0.0070660305
-0.03100036 -0.015735954 0.017781189 -0.034582153 -0.0024361813 -0.013051462 0.045070294 -0.58943594
0.63339114 0.017652128 0.023363877 0.022234699 0.0034828708 -0.039908167 -0.034992274 -0.014308599
-0.022117853 -0.029953228 -0.03126323 0.027967049 -0.25884283 -0.554744 -0.048817012 0.0028633857
-0.032078158 -0.682723 0.02055715 0.001377728 -0.09086781 -0.75131255 0.03154924 -0.05760855
0.060418848 0.69304705 0.001736402 0.78135467 -0.90442765 0.048739202 0.035637897 0.001084792
0.060369033 -0.02657784 -0.0065979064 -0.030921537 -0.03328698 0.56464016 0.0896273 0.035256665
0.08913971 -0.53379494 -0.00025726613 -0.033122092 -0.071707204 -0.018726634 0.010364476 -0.6843215
0.052860264 0.612783 -0.0251811 0.009636673 -0.7905632 0.019325301 -0.06555115 -0.036850266
0.009946099 0.07206126 0.6513348 0.0019134845 0.03409001 0.00901871 -0.08064876 0.012286344
-0.57959443 0.008204261 -0.029822873 0.0030901493 -0.056503315 0.00023992297 0.52763695 -0.009420305
-0.011165352 -0.016856376 0.0048072394 0.08085734 -0.019187475 -0.7039277 -0.001141636 0.030218612
0.66889614 -0.006659765 1.2722019 -0.028452044 -0.059344105 -0.07198989 -0.5688123 -0.037548427
-0.024401201 0.7117445 -0.626395 0.009044803 -0.056648705 0.76445913 0.66395044 -0.052235592
-0.021658568 -0.02075384 0.05423696 0.032389466 -0.059163444 -0.0060229306 -0.016425109 -0.6488027
-0.8823531 0.016170943 -0.009180763 -0.01947434 -0.031368468 -0.042008165 0.046365533 0.020787517
-0.019019293 0.007085878 -0.004477697 -0.038954515 0.020819847 -0.05553417 -0.017424554 -0.005026794
0.035332352 0.018476833 -0.017019993 0.03860223 0.0034769778 0.01153176 -0.05040825 0.5870682
-0.63546556 -0.019012285 -0.022494903 -0.0114187645 0.00060777646 0.039800506 0.03770164 0.01575155
0.02491101 0.026777472 0.03814767 -0.026510725 0.2679741 0.558818 0.04772449 -0.00511178
0.02696952 0.6861398 -0.024426445 0.0016857454 0.08941548 0.75617886 -0.027122999 0.06438378
-0.058407366 -0.698652 0.0011134526 -0.78218216 0.9067699 -0.04286094 -0.036664106 -0.0010021327
-0.06410241 0.028815243 0.008391684 0.031769786 0.03191048 -0.56769 -0.09711561 -0.03561138
-0.088691875 0.535949 0.0016346729 0.03055189 0.073145404 0.025876416 -0.013713067 0.6855915
-0.05608376 -0.61655176 0.017547127 -0.011006222 0.800738 -0.019488312 0.06898336 0.04114613
-0.0046954784 -0.06863184 -0.6529036 -0.0014541256 -0.033066295 -0.016861442 0.08349077 -0.004894346
0.5795018 -0.00897408 0.0300814 -0.00015433175 0.056003522 -0.0060693715 -0.53284025 0.013520947
0.009764973 0.017657848 -0.00026780184 -0.07740272 0.019736253 0.7016677 0.0035993564 -0.024640197
-0.67457664 0.007845993 -1.2658628 0.034207635 0.06887062 0.07718181 0.56395185 0.034935933
0.02434249 -0.71108204 0.6247375 -0.012477456 0.056986175 -0.7689869 -0.66635513 0.054341312
0.021521797 0.021127854 -0.051183227 -0.028492594 0.06410541 0.0035971447 0.014191887 0.64963394
0.87716573 -0.018469132 0.011939775 0.016428864 0.033502147 0.04006507 -0.04807413 -0.023059031
00000000: 96bf c63c 60be acbb 4f31 77ba 875f 033d
00000010: c7b4 82bc 2244 593d 6487 843c 298a e73b
00000020: 78f4 fdbc b0e8 80bc dba9 913c 04a6 0dbd
00000030: 57a8 1fbb cdd5 55bc a19b 383d 46e5 16bf
00000040: ec25 223f 329b 903c 9a65 bf3c 8b25 b63c
00000050: e040 643b bf76 23bd 0f54 0fbd 9d6e 6abc
00000060: 8030 b5bc 7960 f5bc df0d 00bd 271b e53c
00000070: 0c87 84be b403 0ebf 59f4 47bd a4a7 3b3b
00000080: 6364 03bd efc6 2ebf 7867 a83c e194 b43a
00000090: e718 babd 0556 40bf c739 013d f1f6 6bbd
000000a0: c179 773d 886b 313f fc97 e33a dc06 483f
000000b0: 9288 67bf c2a2 473d 0bf9 113d 942f 8e3a
000000c0: 8545 773d c5b9 d9bc 4033 d8bb 2a4f fdbc
000000d0: ee57 08bd 428c 103f 858e b73d 4b69 103d
000000e0: e18e b63d c9a6 08bf ade1 86b9 08ab 07bd
000000f0: 3adb 92bd 9968 99bc c3cf 293c b22f 2fbf
00000100: 0184 583d 59df 1c3f 9848 cebc 23e3 1d3c
00000110: 5a62 4abf 1850 9e3c ae3f 86bd 4ef0 16bd
00000120: f6f4 223c db94 933d e1bd 263f e3cd fa3a
00000130: f7a1 0b3d 36c3 133c 2d2b a5bd a94c 493c
00000140: 4d60 14bf 2a6b 063c 194f f4bc 1a84 4a3b
00000150: 0570 67bd d593 7b39 3713 073f 9f57 1abc
00000160: e1ee 36bc 6216 8abc 0c86 9d3b 8898 a53d
00000170: 0d2f 9dbc 9b34 34bf f3a2 95ba 068d f73c
00000180: c73c 2b3f 283a dabb 83d7 a23f 4314 e9bc
00000190: ce12 73bd 6f6f 93bd af9d 11bf 61cc 19bd
000001a0: 07e5 c7bc e334 363f 6c5b 20bf a730 143c
000001b0: 7908 68bd 98b3 433f a8f8 293f fdf4 55bd
000001c0: 4f6d b1bc f503 aabc 9327 5e3d d1aa 043d
000001d0: 5e55 72bd 015c c5bb f38d 86bc ef17 26bf
000001e0: e5e1 61bf ed78 843c e96a 16bc a788 9fbc
000001f0: 397c 00bd c110 2cbd c9e9 3d3d 954a aa3c
00000200: 59ce 9bbc a730 e83b a5b9 92bb c58e 1fbd
00000210: 628e aa3c cc77 63bd f0bd 8ebc ceb7 a4bb
00000220: a8b8 103d ba5c 973c 836d 8bbc 5f1d 1e3d
00000230: 02de 633b b5ef 3c3c e278 4ebd 1a4a 163f
00000240: dfad 22bf a7bf 9bbc 3b47 b8bc c515 3bbc
00000250: 3053 1f3a db05 233d 096d 1a3d 6509 813c
00000260: 2d12 cc3c 6e5c db3c bb40 1c3d 052d d9bc
00000270: e733 893e b20e 0f3f c17a 433d b880 a7bb
00000280: 2fef dc3c dca6 2f3f f819 c8bc 3bf4 dc3a
00000290: 771f b73d f094 413f 0d31 debc a5db 833d
000002a0: 903c 6fbd dcda 32bf 45f1 913a 173d 48bf
000002b0: 1222 683f f48e 2fbd 1a2d 16bd fe59 83ba
000002c0: 2048 83bd f20d ec3c 467d 093c 0921 023d
000002d0: 90b4 023d 2254 11bf 8de4 c6bd 3ddd 11bd
000002e0: 16a4 b5bd f433 093f 8542 d63a f547 fa3c
000002f0: 42cd 953d c7fa d33c c6ac 60bc ed82 2f3f
00000300: 16b8 65bd 56d6 1dbf febe 8f3c 7153 34bc
00000310: 2afd 4c3f f4a5 9fbc 2647 8d3d d888 283d
00000320: 87dc 99bb da8e 8cbd b124 27bf 5c98 beba
00000330: 8670 07bd 0221 8abc 35fd aa3d c060 a0bb
00000340: 3b5a 143f 0508 13bc 456d f63c 1dd4 21b9
00000350: f363 653d 94e1 c6bb 3868 08bf f686 5d3c
00000360: 44fd 1f3c 31a7 903c c167 8cb9 5185 9ebd
00000370: ecad a13c 7fa0 333f 2ee3 6b3b 3dda c9bc
00000380: 0eb1 2cbf 7b8c 003c cb07 a2bf 4e1d 0c3d
00000390: 0a0c 8d3d 7f11 9e3d 265f 103f fb18 0f3d
000003a0: e769 c73c 7909 36bf ccee 1f3f 3e6e 4cbc
000003b0: 566a 693d 53dc 44bf 4096 2abf ff94 5e3d
000003c0: 7b4e b03c 5214 ad3c 81a5 51bd 4d69 e9bc
000003d0: b249 833d 13be 6b3b 1785 683c 694e 263f
000003e0: ef8d 603f 944c 97bc 0c9f 433c d395 863c
000003f0: 8c39 093d 451b 243d 61e9 44bd 4be6 bcbc

weight_logvar f4 [2, 128]
-0.037792895 0.0010128072 0.007859426 -0.02438189 -0.0032314898 -0.048449762 -0.0047075157 -0.041185904
-0.05616754 -0.019459516 -0.03655617 -0.03483722 0.00020824332 -0.00929481 -0.057038672 -3.5983078
-2.7156925 -0.036900163 0.00048693604 -0.079349644 -0.029760288 -0.04957452 -0.022852724 -0.058181647
-0.032839127 -0.048945323 0.0043206965 -0.040950097 -0.26417023 -3.5159862 -0.009131568 -0.009097073
0.028814252 -2.3829322 -0.043978244 -0.047965027 -0.031114683 -3.6117146 -0.008590958 -0.03460369
-0.011694369 -2.482793 -0.050108608 -4.3370996 -3.8447824 -0.048102517 -0.04430345 -0.0012464003
-0.04572586 -0.038384866 -0.03495271 -0.035907127 -0.028870404 -2.3417 -0.004105533 -0.05323241
-0.019940002 -3.996956 -0.0025510578 -0.032796327 -0.05153573 -0.06751345 -0.046873674 -4.7225614
-0.039563254 -1.5553011 -0.02601457 -0.0007225 -2.400203 -0.050010078 -0.022404142 -0.0126381805
-0.006928346 -0.047589976 -2.7142985 -0.0016301608 -0.028523175 -0.033418506 -0.069639504 -0.024875708
-5.8413625 -0.017795524 -0.0013643184 -0.04100466 -0.030841732 -0.022155248 -1.7773085 -0.049396932
-0.009057723 -0.037790157 -0.027951237 -0.04622062 -0.046357773 -3.1436803 -0.0021490115 -0.03511329
-2.9008832 -0.00047611503 -3.3221736 -0.041199546 -0.025102297 -0.041398216 -3.3469334 -0.03495142
-0.04810982 -2.7833514 -3.172312 -0.036484018 -0.04017731 -3.029306 -2.6509254 -0.0637793
0.006233586 -0.007799554 -0.055626743 -0.0577287 -0.02999115 -0.035697706 -0.054289833 -1.7892966
-2.7704525 -0.016109709 -0.024076011 -0.05062446 -0.03656479 -0.025658596 -0.020342162 0.00701103
0.007370485 0.0016249344 -0.02182433 -0.046183504 -0.038748402 -0.049826853 0.003165841 -0.054396782
-0.013120489 -0.04085508 -0.02380292 -0.03155332 -0.000101102116 -0.06486665 -0.016071998 -3.6756878
-2.671752 -0.012079051 -0.0020140738 -0.017863665 -0.048626173 -0.032370165 -0.074065186 -0.039435696
-0.046045907 -0.05147201 -0.016813114 -0.031810608 -0.3575879 -3.5727284 -0.025052732 -0.0034798298
-0.049534004 -2.3490725 -0.041352063 -0.021087779 -0.017731205 -3.6780841 -0.01340329 -0.061489675
-0.024891777 -2.4151726 -0.016882356 -4.2179027 -3.997098 -0.039381567 -0.017077342 -0.0062831133
-0.010562437 -0.055601593 -0.02980996 -0.024110654 -0.05481343 -2.258309 -0.06786136 -0.018200317
-0.057924327 -3.925179 -0.0009774555 -0.036824085 -0.036168803 -0.011311563 -0.024380768 -4.8575315
-0.0320085 -1.663122 -0.013286155 -0.0019485159 -2.4187822 -0.04868301 -0.072144195 -0.047836058
-0.03171622 -0.036159623 -2.6412973 0.0021622588 -0.036561195 -0.028447408 -0.048075438 0.00812848
-5.8308225 -0.060432147 -0.0028128815 -0.05001282 -0.027786538 -0.056938995 -1.6770732 -0.055229656
-0.0100339595 -0.025702232 -0.026032122 -0.032869555 -0.059469618 -3.1591394 -0.0024901205 -0.022054996
-2.8217654 0.00299542 -3.4543939 -0.0501981 -0.024717199 -0.025957463 -3.3830357 -0.014895079
-0.013332897 -2.7206233 -3.2767293 -0.02239192 -0.027122993 -2.9621282 -2.5440993 -0.04566589
-0.00038735764 6.4333406e-05 -0.028369593 -0.008972455 -0.03583023 -0.036284734 -0.03560701 -1.7460724
-2.6814883 -0.046287823 -0.04362071 -0.014783831 -0.033571046 -0.05242292 -0.039978452 0.00021850887
00000000: b9cc 1abd 2cc0 843a d2c4 003c 88bc c7bc
00000010: 67c7 53bb 4273 46bd 8141 9abb 8db2 28bd
00000020: ef0f 66bd 9069 9fbc ecbb 15bd 79b1 0ebd
00000030: e45b 5a39 4249 18bc 62a1 69bd ad4a 66c0
00000040: e8cd 2dc0 a024 17bd 734b ff39 1182 a2bd
00000050: d9cb f3bc a70e 4bbd a335 bbbc e14f 6ebd
00000060: 5282 06bd e47a 48bd a194 8d3b 4abb 27bd
00000070: 5241 87be eb05 61c0 929c 15bc e40b 15bc
00000080: de0b ec3c f681 18c0 8822 34bd fa76 44bd
00000090: 38e4 febc 5526 67c0 17c1 0cbc 99bc 0dbd
000000a0: bd99 3fbc 15e6 1ec0 af3e 4dbd 85c9 8ac0
000000b0: ea10 76c0 2507 45bd 8977 35bd 415e a3ba
000000c0: 0a4b 3bbd 7339 1dbd 932a 0fbd 5a13 13bd
000000d0: a081 ecbc 6ade 15c0 b587 86bb 3a0a 5abd
000000e0: 3759 a3bc 21ce 7fc0 a62f 27bb 7155 06bd
000000f0: 2117 53bd 7e44 8abd 9cfe 3fbd 391f 97c0
00000100: 140d 22bd 1b14 c7bf 821c d5bc 2766 3dba
00000110: ed9c 19c0 5ed7 4cbd e488 b7bc 5f10 4fbc
00000120: 2e07 e3bb b5ed 42bd 11b7 2dc0 1fab d5ba
00000130: 6fa9 e9bc d8e1 08bd 289f 8ebd 24c8 cbbc
00000140: 71ec bac0 ebc7 91bc eed2 b2ba 81f4 27bd
00000150: cda7 fcbc ec7e b5bc d87e e3bf 7054 4abd
00000160: d866 14bc dac9 1abd fef9 e4bc d551 3dbd
00000170: a6e1 3dbd 0f32 49c0 6ed6 0cbb f4d2 0fbd
00000180: 12a8 39c0 149f f9b9 7e9e 54c0 dbc0 28bd
00000190: 55a3 cdbc 2d91 29bd 2834 56c0 3829 0fbd
000001a0: cd0e 45bd 6e22 32c0 2907 4bc0 4470 15bd
000001b0: f790 24bd 26e0 41c0 c3a8 29c0 b99e 82bd
000001c0: 1c43 cc3b 6793 ffbb ded8 63bd ee74 6cbd
000001d0: 00b0 f5bc c237 12bd 045f 5ebd ac07 e5bf
000001e0: 184f 31c0 82f8 83bc 0e3b c5bc 985b 4fbd
000001f0: f6c4 15bd fa31 d2bc 9ba4 a6bc c8bc e53b
00000200: 1c84 f13b c0fb d43a f0c8 b2bc ea2a 3dbd
00000210: a5b6 1ebd 3e17 4cbd 007a 4f3b 29cf 5ebd
00000220: 52f7 56bc a857 27bd 57fe c2bc 0e3e 01bd
00000230: c906 d4b8 ced8 84bd 6ca9 83bc 783e 6bc0
00000240: fcfd 2ac0 36e7 45bc 8dfe 03bb d256 92bc
00000250: 3d2c 47bd 9496 04bd 7daf 97bd 5387 21bd
00000260: a29a 3cbd 50d4 52bd a8bb 89bc d74b 02bd
00000270: c315 b7be 95a7 64c0 633b cdbc db0d 64bb
00000280: 2be4 4abd 3457 16c0 c860 29bd 47c0 acbc
00000290: 0841 91bc bb65 6bc0 7999 5bbc 99dc 7bbd
000002a0: d7e9 cbbc 3092 1ac0 de4c 8abc 0ff9 86c0
000002b0: 74d0 7fc0 914e 21bd c8e5 8bbc 93e2 cdbb
000002c0: 120e 2dbc 7fbe 63bd 0434 f4bc b583 c5bc
000002d0: 0c84 60bd 2288 10c0 e6fa 8abd d518 95bc
000002e0: 0f42 6dbd 2236 7bc0 f71d 80ba dad4 16bd
000002f0: bd25 14bd 2254 39bc 2dba c7bc e670 9bc0
00000300: 581b 03bd 2fe1 d4bf 2cae 59bc 5865 ffba
00000310: 54cd 1ac0 d667 47bd 56c0 93bd beef 43bd
00000320: dee8 01bd 1d1c 14bd 040b 29c0 afb4 0d3b
00000330: 31c1 15bd 8a0a e9bc c0ea 44bd 512d 053c
00000340: 1996 bac0 b387 77bd 5258 38bb 3eda 4cbd
00000350: 98a0 e3bc dd38 69bd 56aa d6bf 7e38 62bd
00000360: 7a65 24bc 7d8d d2bc 5141 d5bc 3aa2 06bd
00000370: 6a96 73bd 572f 4ac0 4a31 23bb aeac b4bc
00000380: ce97 34c0 cf4e 443b ca14 5dc0 869c 4dbd
00000390: b97b cabc bfa4 d4bc a883 58c0 7d0a 74bc
000003a0: 3972 5abc b11e 2ec0 efb5 51c0 436f b7bc
000003b0: 0a31 debc 8293 3dc0 86d2 22c0 280c 3bbd
000003c0: 4316 cbb9 bcea 8638 5967 e8bc 3401 13bc
000003d0: b8c2 12bd 4d9f 14bd a8d8 11bd 4d7f dfbf
000003e0: 819d 2bc0 4d98 3dbd a1ab 32bd e237 72bc
000003f0: cb81 09bd 6ab9 56bd 72c0 23bd 871f 6539

bias_mu f4 [2]
0.6006181 -0.5990614
00000000: 1cc2 193f 175c 19bf

bias_logvar f4 [2]
-6.7713346 -6.710555
00000000: c6ae d8c0 debc d6c0
