metric/probe_cifar10_diistill_iter1500.pth (torch, 539665 bytes, 12 tensors)

z_mu f4 [512]
0	0x3f67654a	0.9038893
1	0x3f1d1b2c	0.61369586
2	0x3f6d8d75	0.9279397
3	0x3f93498a	1.1506817
4	0x3bcb7494	0.0062089656
5	0x3cb4a3e1	0.0220508
6	0x3976ddf0	0.00023543066
7	0xbb43c87b	-0.0029874134
8	0x3f20f2c9	0.6287046
9	0xbba56d1e	-0.005048408
10	0xb93cb09c	-0.00017994869
11	0x3b7fd1d7	0.0039034986
12	0xbbdef131	-0.0068036546
13	0xbaf791ce	-0.0018888058
14	0x3bae4570	0.005318336
15	0x3b825bb8	0.003978219
16	0xbb942f30	-0.0045222268
17	0x3abcdc4b	0.0014408914
18	0x3ebb9d17	0.36643288
19	0xb92f886c	-0.00016740122
20	0xbad3928e	-0.0016141699
21	0xbb901f00	-0.0043982267
22	0xba8f5fc3	-0.0010938573
23	0x3b628c6f	0.0034568568
24	0x3fa674f1	1.3004438
25	0x3f3a1786	0.72692144
26	0xbac88c0d	-0.0015300527
27	0x3b91a8e9	0.0044451845
28	0xba327d75	-0.00068088557
29	0x3b8e8f84	0.0043506045
30	0x3f388100	0.7207184
31	0x3bd5574f	0.006510652
32	0xbb7febdf	-0.0039050502
33	0x3c16c71d	0.009202746
34	0xb9c85261	-0.0003820835
35	0xbb92021b	-0.0044558174
36	0xbba6079a	-0.005066824
37	0xb9befe68	-0.0003642917
38	0x3c929ebd	0.017897958
39	0x3b4a47e1	0.0030865597
40	0x3b57945e	0.003289483
41	0xbbd47a82	-0.0064843306
42	0x3b4fe50c	0.0031722216
43	0xba8f5509	-0.0010935377
44	0x3a8077ba	0.0009801306
45	0x3b0fdc24	0.0021951282
46	0x36884a3b	4.0617574e-06
47	0x3b8fe745	0.004391583
48	0x3b3dcd94	0.0028961645
49	0x3bde05a2	0.006775574
50	0x3f9a6daf	1.2064723
51	0xbada42c1	-0.0016651974
52	0x3f80b374	1.0054765
53	0xbb523cef	-0.0032079776
54	0x3b30f692	0.0027002436
55	0xba34caa5	-0.00068966515
56	0xba6d4780	-0.0009051487
57	0x3aaa26c0	0.0012981519
58	0xba8f517d	-0.001093432
59	0xbb606d7d	-0.0034244948
60	0x3f9fea4c	1.2493377
61	0x3aeca097	0.0018053231
62	0x3b3dfc1d	0.0028989383
63	0x4010f7a3	2.2651145
64	0x3f324371	0.6963416
65	0xbb1dce15	-0.0024079133
66	0x3a3d1fb2	0.0007214501
67	0xba8ebb8a	-0.0010889631
68	0xbba4fb19	-0.005034816
69	0x3b42521b	0.002965099
70	0x3b053049	0.002032297
71	0x3b603ca8	0.0034215841
72	0x3a8aac48	0.0010579908
73	0x3f2b8775	0.67003566
74	0x3beb9ff1	0.0071906974
75	0xbae22937	-0.0017254715
76	0x3c144a50	0.009050921
77	0xbb7654a7	-0.0037587078
78	0xb941de8e	-0.00018488822
79	0x3a85f81a	0.0010221035
80	0xbb22de79	-0.0024851842
81	0xba13dd0f	-0.0005640545
82	0x3f00c639	0.50302464
83	0xb9e1bf62	-0.00043057936
84	0x37db5563	2.6146596e-05
85	0xbbc7bafb	-0.006095288
86	0xbb90b395	-0.004415939
87	0xb9bcea50	-0.0003603273
88	0x3e279032	0.163636
89	0x3af625a7	0.0018779532
90	0x3f8116ab	1.0085043
91	0x3a919b87	0.0011108973
92	0x3f8bce9a	1.0922425
93	0x3f32041c	0.6953752
94	0x3a0244aa	0.0004969338
95	0x3b9ff318	0.004881274
96	0x3fbcb920	1.4743996
97	0xbaaa23f7	-0.0012980689
98	0xba1c54bb	-0.00059635536
99	0x39a8da1e	0.00032205967
100	0xbb2463dc	-0.0025083935
101	0x3afcd57d	0.0019289699
102	0xb9a36874	-0.00031167606
103	0x3f47e553	0.78084296
104	0x3a9d32f7	0.0011993338
105	0x3b2ea1a2	0.0026646634
106	0x3eda8a65	0.42683712
107	0xbb5a7ae3	-0.0033337406
108	0x3ba16e43	0.0049264743
109	0x3a93bc2d	0.0011271291
110	0x3bc15ab5	0.0059007057
111	0xbc5bab0f	-0.013407483
112	0x3f667669	0.9002443
113	0x3a025ae3	0.00049726496
114	0x3aa6b473	0.0012718573
115	0xba7d5a5a	-0.00096646475
116	0xb9642438	-0.00021757267
117	0xbad5019e	-0.0016251092
118	0xba45557a	-0.00075276906
119	0x3a3c3c30	0.00071805995
120	0x3a3ddd32	0.00072427385
121	0xbad02951	-0.0015881454
122	0xb900b402	-0.0001227409
123	0x3f3442f9	0.7041469
124	0xbc20702a	-0.009792367
125	0x3af80e85	0.0018925226
126	0x3f6b9eb8	0.9203906
127	0x3f7fdc05	0.999451
128	0x3f849e39	1.0360786
129	0xbb33cfdf	-0.0027437133
130	0xb90909da	-0.00013069008
131	0x3f4163ff	0.75543207
132	0x3a47f9c7	0.0007628467
133	0x3fd8e102	1.6943667
134	0x3f881ce7	1.063382
135	0x3f05947a	0.5217968
136	0x4021ea6b	2.5299327
137	0xbabbcbcf	-0.0014327707
138	0x3fe0a0db	1.7549089
139	0x3fd15750	1.6354771
140	0x3f1ed061	0.6203671
141	0xbab90ae8	-0.001411763
142	0x3f8fe112	1.1240561
143	0x3b7d7d94	0.0038679587
144	0xbb58e69e	-0.0033096443
145	0x3bec0e35	0.007203842
146	0x3a645f8b	0.0008711747
147	0x3b28edb6	0.0025776452
148	0x3f70e1e8	0.94094706
149	0x3967940b	0.00022085027
150	0x3de0fc45	0.109856166
151	0x3a0fb114	0.0005481404
152	0x3fc0ee29	1.5072681
153	0x3c12b3c5	0.008953993
154	0xbbb57a12	-0.0055382336
155	0xbb3015d1	-0.0026868472
156	0xbb5f69c2	-0.0034090136
157	0x3f69eba2	0.9137517
158	0x3ac352f5	0.0014902042
159	0xbb434b7f	-0.0029799638
160	0x3fae01de	1.359432
161	0xbb2463cb	-0.0025083895
162	0x3e1b3bc3	0.15159516
163	0xbb3555c7	-0.0027669535
164	0x3ebb9133	0.36634216
165	0x39b630da	0.00034750142
166	0x3916219d	0.00014317637
167	0x3b8e9fb9	0.0043525365
168	0x3f96d2c7	1.1783074
169	0x3efaaa17	0.48957893
170	0x3fc44ad2	1.5335333
171	0x39d5b668	0.0004076243
172	0x3f2bb841	0.67078024
173	0x3ee42277	0.44557545
174	0x3f0b70e2	0.5446912
175	0x3fc15b81	1.510605
176	0xbad07f75	-0.0015907126
177	0x3a6b4dc3	0.0008976126
178	0x3f62a310	0.88530064
179	0xbad66110	-0.0016355831
180	0x3a2d219e	0.00066044356
181	0x3f523f8d	0.8212822
182	0xbb91502d	-0.0044346065
183	0xbb522064	-0.0032062763
184	0xbb67d03c	-0.003537192
185	0xba7e7bd1	-0.0009707781
186	0x3a247d76	0.00062747987
187	0x3fb27ede	1.3944967
188	0x3f60a591	0.87752634
189	0xbb433744	-0.002978758
190	0x3f66117c	0.8987043
191	0xb9c91bf0	-0.00038358523
192	0x3fa1e486	1.2647865
193	0xbb58c76d	-0.0033077851
194	0xb8de1cca	-0.00010591147
195	0xbbcfa9ec	-0.006337395
196	0x3a6c73a2	0.0009019916
197	0xbb5084b2	-0.0031817374
198	0x3b529a50	0.0032135434
199	0x3f00270f	0.500596
200	0xbaa74cb8	-0.0012763953
201	0x3fe61009	1.7973644
202	0x3f5f7ecc	0.8730285
203	0x3b8b968e	0.004259891
204	0x3a494260	0.0007677432
205	0xbbcd8c64	-0.0062728394
206	0x3ee90706	0.4551317
207	0x3f81e02f	1.014654
208	0x3bc46a97	0.005994152
209	0x3f91403e	1.134773
210	0x3bd0ee4b	0.006376063
211	0x3996ee15	0.00028787614
212	0xbb0cd934	-0.0021491768
213	0xbb3bdd7c	-0.002866595
214	0xba32b46f	-0.0006817048
215	0x3b544ab0	0.003239315
216	0x3a611d79	0.00085874606
217	0x3edf31e9	0.43592766
218	0x3faa7632	1.331732
219	0x3aca615c	0.0015440392
220	0x3fe4cf5a	1.7875779
221	0x3f0126ac	0.50449634
222	0x3b19ed05	0.0023487222
223	0xb91416d2	-0.00014122881
224	0x39000a88	0.00012210954
225	0x3bad5cff	0.005290627
226	0xba1f49c8	-0.0006076363
227	0x3dc214ad	0.094766
228	0x3b144d22	0.0022628983
229	0x39c365c9	0.00037269134
230	0x3ac6c03e	0.0015163494
231	0xbadf3fe8	-0.0017032595
232	0x3adf1e78	0.001702263
233	0xbafd2163	-0.0019312318
234	0xba8d8435	-0.0010796847
235	0x3b032423	0.0020010553
236	0x3f881e85	1.0634314
237	0x3f9cc1c0	1.2246628
238	0xbc254dff	-0.0100893965
239	0x3adff636	0.0017086926
240	0x3b2815d4	0.0025647776
241	0x3a359839	0.0006927285
242	0xba5feb4f	-0.00085418386
243	0x39992d64	0.00029216253
244	0x3ead16eb	0.33806548
245	0x3fd3d5b3	1.6549591
246	0x3b24b444	0.002513186
247	0x3a956d03	0.0011400286
248	0x3f97c0d7	1.1855725
249	0x3faf0939	1.367469
250	0xbb035d59	-0.0020044653
251	0x3a4ba515	0.00077684346
252	0xbba97912	-0.0051719034
253	0xbb1067f3	-0.0022034615
254	0xb985989e	-0.00025481445
255	0xba39f345	-0.000709344

z_logvar f4 [512]
0	0xc0916da9	-4.5446362
1	0xc09e86f2	-4.953973
2	0xc093d312	-4.6195154
3	0xc0d35b46	-6.604892
4	0xc089b214	-4.302988
5	0xc05f41ed	-3.4883988
6	0xc094c598	-4.6491203
7	0xc0a2660e	-5.074958
8	0xc0a7354b	-5.2252555
9	0xc0741024	-3.8134851
10	0xc09ad5d9	-4.8386045
11	0xc0966774	-4.7001286
12	0xc087d882	-4.245179
13	0xc0bcf720	-5.9051666
14	0xc0b6ad1f	-5.708633
15	0xc0b09e9b	-5.519361
16	0xc0ab30b4	-5.349695
17	0xc0b926d3	-5.7859893
18	0xc097881a	-4.735364
19	0xc0bc3abd	-5.88217
20	0xc061e863	-3.5298088
21	0xc0b5b26a	-5.678029
22	0xc0b422ba	-5.629239
23	0xc07d2eda	-3.9559846
24	0xc0c341b9	-6.101773
25	0xc0b51849	-5.6592145
26	0xc08a1312	-4.314828
27	0xc0a8b107	-5.27161
28	0xc08a5b74	-4.3236637
29	0xc0aec6b7	-5.461757
30	0xc0b0d65b	-5.5261664
31	0xc0813583	-4.037782
32	0xc081e372	-4.0590143
33	0xc08ca74b	-4.3954215
34	0xc0addb8a	-5.433049
35	0xc0a6985f	-5.2061
36	0xc04a57b3	-3.1616027
37	0xc0ae805b	-5.4531684
38	0xbff00791	-1.8752309
39	0xc07b9a56	-3.931295
40	0xc09c6367	-4.887134
41	0xc06e6039	-3.724623
42	0xc0be0505	-5.9381127
43	0xc0c21514	-6.065073
44	0xc0a58fd1	-5.1738057
45	0xc0a65097	-5.1973376
46	0xc0b9950a	-5.7994432
47	0xc063e7c3	-3.5610206
48	0xc0ab88d7	-5.360454
49	0xc082e270	-4.0901413
50	0xc0c3ea4c	-6.1223507
51	0xc0825683	-4.0730605
52	0xc0863373	-4.1937804
53	0xc0b000f8	-5.5001183
54	0xc09c0780	-4.8759155
55	0xc089561f	-4.291763
56	0xc0ac9453	-5.393106
57	0xc0b4a7f1	-5.6455007
58	0xc0bc6fb3	-5.888635
59	0xc0b6d46d	-5.713431
60	0xc05bac7d	-3.4324028
61	0xc0be82e7	-5.9534793
62	0xc082a67b	-4.0828223
63	0xc0a24d25	-5.071917
64	0xc0ad668e	-5.418769
65	0xc0a3705b	-5.1074653
66	0xc08e576c	-4.4481716
67	0xc0c375d0	-6.1081314
68	0xc06349de	-3.5513835
69	0xc0ba13c3	-5.8149123
70	0xc047a842	-3.1196446
71	0xc0884d9d	-4.2594743
72	0xc088facf	-4.2806163
73	0xbfdd34f4	-1.7281785
74	0xc04c1826	-3.188974
75	0xc0a8a960	-5.2706757
76	0xc0a7b114	-5.240366
77	0xc0adbb9f	-5.429153
78	0xc0ab4774	-5.3524723
79	0xc0a4e1c2	-5.1525583
80	0xc05739e4	-3.3629084
81	0xc0a0f6c1	-5.0301213
82	0xc00a83b8	-2.1642895
83	0xc0ba4b9b	-5.821729
84	0xc0b25f17	-5.5741076
85	0xc086e7ce	-4.2157965
86	0xc0a343d1	-5.1020284
87	0xc0a8b7e0	-5.2724457
88	0xc04f0eeb	-3.2352855
89	0xc0953e71	-4.6638722
90	0xc0b00575	-5.500666
91	0xc0b1c94e	-5.5558233
92	0xc0d9a006	-6.800784
93	0xc097b3f1	-4.7407155
94	0xc0c0633c	-6.0121136
95	0xc0ad7673	-5.420709
96	0xc0a0c84a	-5.0244493
97	0xc0b49f5f	-5.6444545
98	0xc0ac92c0	-5.392914
99	0xc0ae1237	-5.4397235
100	0xc0af5e16	-5.480235
101	0xc09a4685	-4.8211083
102	0xc0ba5609	-5.8230023
103	0xc0c19a16	-6.0500593
104	0xc0aee027	-5.4648623
105	0xc0c1b9cc	-6.0539303
106	0xc0a198f7	-5.0499225
107	0xc0418ca0	-3.024208
108	0xc09c2158	-4.8790703
109	0xc0b9369d	-5.7879167
110	0xc0b864f5	-5.762324
111	0xc0994b70	-4.7904587
112	0xc0bbb381	-5.865662
113	0xc0b60283	-5.6878066
114	0xc0aee60a	-5.465581
115	0xc0aa2bca	-5.3178453
116	0xc0aacce4	-5.337511
117	0xc0bac5e4	-5.8366566
118	0xc0aefa41	-5.4680486
119	0xc0ac5f74	-5.386652
120	0xc0a7473d	-5.227446
121	0xc0aa80d1	-5.3282247
122	0xc0c82e57	-6.2556567
123	0xc0a90cb4	-5.2828007
124	0xc0a8516c	-5.259939
125	0xc037f9f0	-2.87463
126	0xc0c5c461	-6.180222
127	0xc0c57915	-6.1710305
128	0xc0be20ca	-5.9415026
129	0xc0a53def	-5.1638103
130	0xc0a7767e	-5.2332144
131	0xc05a7fc6	-3.4140487
132	0xc08dd981	-4.432801
133	0xc0b9514c	-5.791174
134	0xc0b9ac87	-5.8023105
135	0xc098ac6b	-4.771047
136	0xc090d121	-4.5255284
137	0xc0b9cc86	-5.8062162
138	0xc02da8bb	-2.7134235
139	0xc08785a6	-4.2350645
140	0xc0a55d7e	-5.1676626
141	0xc0939b8a	-4.6127367
142	0xc0dac880	-6.836975
143	0xc0ad21b3	-5.4103637
144	0xc0bb5724	-5.8543873
145	0xc06348d4	-3.55132
146	0xc090cfeb	-4.5253806
147	0xc094ae8a	-4.646306
148	0xc09bb6fe	-4.866088
149	0xc05ac560	-3.4182968
150	0xc0270310	-2.609562
151	0xc091e431	-4.5591054
152	0xc0555bd4	-3.3337297
153	0xc0ac14ce	-5.3775396
154	0xc0ab65fc	-5.3561993
155	0xc0ab2631	-5.348412
156	0xc0befb18	-5.968151
157	0xc04d8b42	-3.2116246
158	0xc0b23f83	-5.570253
159	0xc07fbc14	-3.9958544
160	0xc09b6011	-4.855477
161	0xc0a8d311	-5.275765
162	0xbff36a67	-1.9016846
163	0xc0b07463	-5.5142074
164	0xc07f3a75	-3.987943
165	0xc0833042	-4.099641
166	0xc0ac6c5a	-5.3882265
167	0xc0b71aa7	-5.7220035
168	0xc0c856c8	-6.2605934
169	0xc081cc9b	-4.0562263
170	0xc0c3a5c7	-6.1139865
171	0xc0bc9205	-5.8928246
172	0xc090af18	-4.5213737
173	0xc09a41fe	-4.8205557
174	0xc077cc5c	-3.871848
175	0xc0a6d493	-5.213449
176	0xc0bf39fa	-5.975827
177	0xc0b01465	-5.5024896
178	0xc0a676f7	-5.202022
179	0xc081eaf9	-4.059933
180	0xc0bfad29	-5.9898877
181	0xc09ff58d	-4.9987245
182	0xc0c24c03	-6.071779
183	0xc0b09e28	-5.519306
184	0xc0a8243c	-5.254423
185	0xc0b9fbef	-5.8120036
186	0xc09998d9	-4.799908
187	0xc024dddf	-2.576042
188	0xbfdc966e	-1.7233407
189	0xc068f39a	-3.6398683
190	0xc0779ca2	-3.868935
191	0xc0b35511	-5.604134
192	0xc0c6e932	-6.215966
193	0xc0ae5b80	-5.4486694
194	0xc0dec10a	-6.9610643
195	0xc095103d	-4.658232
196	0xc0aa5b2a	-5.3236284
197	0xc080e412	-4.0278406
198	0xc0b61d9d	-5.691115
199	0xc055459e	-3.332374
200	0xc0aa3e2a	-5.3200884
201	0xc0cecd54	-6.4625645
202	0xc0865ca5	-4.198809
203	0xc0a021ee	-5.004142
204	0xc0ab57ec	-5.3544827
205	0xc0b43d89	-5.6325116
206	0xc0a8d454	-5.275919
207	0xc085d41e	-4.182143
208	0xc08d9c07	-4.4252963
209	0xc0c32c8f	-6.0991893
210	0xc0a0c80f	-5.024421
211	0xc0c27942	-6.077302
212	0xc060317b	-3.50302
213	0xc010e59c	-2.2640142
214	0xc0a8c7f2	-5.2744074
215	0xc0738333	-3.8048828
216	0xc0bc3312	-5.881234
217	0xc08e1988	-4.4406166
218	0xc0d40c04	-6.6264668
219	0xc09939f1	-4.788323
220	0xc06b2dd9	-3.6746733
221	0xbfa6b04d	-1.3022553
222	0xc0a17690	-5.045723
223	0xc0c8f192	-6.2794886
224	0xc084e73a	-4.153226
225	0xc07c944a	-3.9465508
226	0xc0b4f5b7	-5.6549945
227	0xc0856df7	-4.1696734
228	0xc0c41fec	-6.1288967
229	0xc0a7544e	-5.229041
230	0xc0a1381f	-5.0381007
231	0xc0b44885	-5.6338525
232	0xc094b357	-4.646892
233	0xc0ce2d9e	-6.4430685
234	0xc07fef9d	-3.9989998
235	0xc05a9c91	-3.415806
236	0xc0b6b5ea	-5.7097063
237	0xc09a96ad	-4.830893
238	0xc09fd7bd	-4.9950852
239	0xc09e99e0	-4.9562836
240	0xc0cac3a9	-6.3363843
241	0xc0aaf1a8	-5.341999
242	0xc0cb4d51	-6.353188
243	0xc0cb35fa	-6.350339
244	0xc08f2e03	-4.4743667
245	0xc03cd201	-2.9503176
246	0xc0a47356	-5.139079
247	0xc0ba642b	-5.8247275
248	0xc0d9cd27	-6.806293
249	0xc04e84d6	-3.2268577
250	0xc0b32527	-5.598285
251	0xc0b4c70f	-5.649299
252	0xc09c76c0	-4.889496
253	0xc0b53a09	-5.6633344
254	0xc0b040a5	-5.507891
255	0xc0acf391	-5.404732

weight_mu f4 [128, 512]
0	0xbb54a19f	-0.0032444966
1	0xbc635236	-0.013874581
2	0xbc96eab7	-0.018422468
3	0xbd28860e	-0.04114347
4	0xba124afa	-0.00055806304
5	0x3c8f67f9	0.017505633
6	0xbb9b8c19	-0.0047469256
7	0x3b8f09e9	0.004365195
8	0xbc902132	-0.017593954
9	0x3b956026	0.004558581
10	0x3bdf455c	0.006813688
11	0x3c7e994f	0.015539481
12	0xbc851570	-0.016245574
13	0xbb5e42c2	-0.0033914302
14	0xba0af19a	-0.00053002837
15	0xbc100abf	-0.008791625
16	0xbb831639	-0.004000452
17	0x3b0dcfc4	0.002163873
18	0xbca2326f	-0.01979944
19	0xbb6848c4	-0.0035443762
20	0x3b962162	0.0045816163
21	0xbc053958	-0.008131348
22	0xbb57be0f	-0.003291968
23	0xbb5546e3	-0.0032543472
24	0xbd9ef0a8	-0.07760745
25	0xbd08fd64	-0.033444777
26	0xbb0f4179	-0.0021859093
27	0xbbd38b22	-0.006455795
28	0x3b36d21b	0.0027896229
29	0xba891099	-0.0010457217
30	0xbce377a3	-0.027767008
31	0x3c2b7c7d	0.010466692
32	0x3cc8b148	0.024498597
33	0x3870b1b3	5.7385954e-05
34	0xbc1daaed	-0.009623271
35	0xbb4a4624	-0.003086456
36	0x3c2f314e	0.0106929075
37	0xbbae8bb8	-0.0053267144
38	0x3cbbcaf4	0.022923924
39	0xb92884fa	-0.00016071266
40	0xbaf5ea99	-0.0018761932
41	0xbab309f3	-0.0013659581
42	0x3b41b959	0.0029559939
43	0xbbbdef83	-0.0057963743
44	0xba7c2773	-0.00096189155
45	0x3bc4f7e8	0.006010998
46	0x3c02004d	0.007934642
47	0x3c281578	0.010259025
48	0xbae157f8	-0.0017192354
49	0x3b3d8937	0.0028920898
50	0xbd94db5f	-0.07268404
51	0x3b4158bf	0.002950236
52	0xbcc059a8	-0.023480251
53	0x3b124c16	0.0022323183
54	0xbc085c3f	-0.008322774
55	0x3be770cc	0.007063007
56	0x38f887cf	0.00011850858
57	0x3bd36a3d	0.0064518736
58	0x3abfa792	0.0014622083
59	0x3c4d0e37	0.012515596
60	0xbb8ab625	-0.004233139
61	0x3c142b2a	0.009043494
62	0xb98b75bd	-0.00026599868
63	0xbc8c28e9	-0.017109351
64	0xbd1d5bd0	-0.038417637
65	0x3aa79106	0.0012784309
66	0xbcaf9279	-0.021432148
67	0xbc101c79	-0.008795851
68	0x3ae9e7e3	0.0017845597
69	0x3a2ddcf6	0.0006632352
70	0xbbab1922	-0.005221502
71	0xbb2d03a2	-0.002639987
72	0x3b1924bf	0.002336785
73	0xbc9e054f	-0.01928964
74	0x3cb18a8d	0.021672511
75	0x3b1c3fbc	0.00238417
76	0x3755312d	1.2707239e-05
77	0xba9e1bf2	-0.0012062772
78	0xbbcd7fc3	-0.006271334
79	0xbb99c639	-0.0046928194
80	0xbbc837bb	-0.006110159
81	0x3b221b3e	0.0024735476
82	0xbc3d8678	-0.011567704
83	0x3c5f56cc	0.013631534
84	0xb9d493c5	-0.00040545888
85	0xb9913327	-0.00027694667
86	0x3b8bbc3e	0.0042643836
87	0x3bac1fe2	0.005252824
88	0x3c26e7ca	0.010187099
89	0x3bdd49f0	0.006753199
90	0xbd5abc9f	-0.05340254
91	0x3c262a21	0.01014188
92	0xbd27722d	-0.04088037
93	0xbc5fbb0a	-0.013655433
94	0xbbd298b2	-0.006426894
95	0xbca049e9	-0.019566493
96	0xbcd35713	-0.025798356
97	0x3c1fcccd	0.009753418
98	0x3bbff4f6	0.005858059
99	0xb9f161c3	-0.0004603994
100	0xbbd166a3	-0.006390409
101	0xbb16eb73	-0.0023028522
102	0xbb1fd6b6	-0.0024389452
103	0xbcf39f1e	-0.029738959
104	0x3b8ab5b1	0.004233085
105	0x3ae659d1	0.0017574375
106	0xbcbc6a22	-0.022999827
107	0x3a83ce0c	0.0010055914
108	0x3be51758	0.006991308
109	0x3c119e32	0.008887814
110	0xbb9d5334	-0.0048011784
111	0xbbc2dacc	-0.005946493
112	0xbcdf0229	-0.02722271
113	0x3bcd6960	0.006268665
114	0x3bb65753	0.005564609
115	0x3bbf1f3c	0.005832581
116	0xbc123d0f	-0.00892569
117	0xbbb3ff9e	-0.0054931184
118	0x3c4bc9a0	0.012438208
119	0xbc639f43	-0.013892951
120	0x3c1e8b5a	0.009676779
121	0x3be44968	0.0069667585
122	0xba2a7ad2	-0.0006503287
123	0xbcc8758d	-0.024470115
124	0xbb780664	-0.0037845606
125	0xba9647b0	-0.0011465456
126	0xbd39ec9e	-0.04539167
127	0xbd3ddf7c	-0.04635571
128	0xbd528665	-0.0513977
129	0xbca1b0c9	-0.019737618
130	0x3c2abaa2	0.010420473
131	0xb9dd7f78	-0.00042247376
132	0x3c0c660e	0.008569254
133	0xbd815161	-0.0631435
134	0xbd59b7b0	-0.053153694
135	0xbb892769	-0.0041856063
136	0xbd016306	-0.031588577
137	0x398f5b40	0.00027343072
138	0xbcb86bfc	-0.022512428
139	0xbcaac339	-0.020845043
140	0xbccf3f42	-0.025298718
141	0xbc019801	-0.007909776
142	0xbd8a66a9	-0.06757862
143	0x3b62e1c8	0.003461944
144	0xbc01eff1	-0.007930742
145	0xbc4ba89c	-0.012430336
146	0xbb804480	-0.003914416
147	0x39d0f34b	0.0003985412
148	0xbd487e15	-0.048948366
149	0x3b85cc27	0.0040831747
150	0x3cf8477c	0.030307524
151	0x3b9c8ec5	0.0047777616
152	0xbc9e7374	-0.019342162
153	0xb9fa4045	-0.000477316
154	0xbb55b39b	-0.0032608274
155	0xbc8de613	-0.017321622
156	0xbbab4b36	-0.0052274717
157	0xbc97466e	-0.0184662
158	0xbbbdd963	-0.005793737
159	0x3c5ca9bf	0.013468205
160	0xbcf8304b	-0.030296465
161	0xbc5b3ea1	-0.013381631
162	0xbaf882d1	-0.0018959885
163	0xbad74456	-0.0016423564
164	0xbaa6c6c1	-0.0012724028
165	0xba424f32	-0.0007412314
166	0xbba05060	-0.004892394
167	0x3ba59190	0.005052753
168	0xbd6bec46	-0.057598375
169	0xbcb1d4f8	-0.021707997
170	0xbd9582ac	-0.07300314
171	0x3bf84f75	0.0075778314
172	0xbb39f334	-0.002837372
173	0xbc693268	-0.014233209
174	0xbcda204f	-0.026626734
175	0xbcdc92a1	-0.026925387
176	0x39d20cb3	0.00040063783
177	0xbc68bd41	-0.014205278
178	0xbd2124a0	-0.03934157
179	0xbbcf00f1	-0.006317251
180	0xbb6a4af9	-0.0035750254
181	0xbcd0255b	-0.025408437
182	0x3aadfc22	0.0013273994
183	0xbae7155c	-0.0017630267
184	0x38d11bdb	9.971085e-05
185	0x3adecdd8	0.0016998602
186	0x38f5f63b	0.000117283744
187	0xbccc1f5d	-0.024917299
188	0x3aadefbf	0.0013270302
189	0x3b9615e1	0.004580245
190	0xbcff80e5	-0.031189391
191	0x3bbaed28	0.0057045408
192	0xbd84540e	-0.06461345
193	0xbc2ab0ea	-0.010418156
194	0x3bacb87e	0.0052710166
195	0x3c4197cd	0.011815977
196	0x3c533046	0.012889927
197	0x3b26dbe4	0.0025460655
198	0xbc0bf911	-0.008543269
199	0xbbafa77e	-0.005360543
200	0xbcd50c6d	-0.026006902
201	0xbdb818cd	-0.089891054
202	0xbc22444f	-0.009903981
203	0x3cb8cdd0	0.022559077
204	0xb9c1d423	-0.00036969883
205	0xbc0e6b98	-0.008692645
206	0xbc6935c8	-0.014234014
207	0xbcea5ebc	-0.028609626
208	0x3c8ec75c	0.017429046
209	0xbd65416b	-0.05597059
210	0xbc40698c	-0.011743914
211	0x3be44989	0.006966774
212	0x39c57543	0.00037662135
213	0x3b0bd0dc	0.0021334207
214	0xbc964645	-0.018344054
215	0xba6221b5	-0.00086262386
216	0xba505a13	-0.00079479924
217	0xbcf9e1ac	-0.030503117
218	0xbd9498ef	-0.07255732
219	0xbc0f2648	-0.008737154
220	0xbd0e7eca	-0.034788884
221	0xbb5dd3ec	-0.003384824
222	0x3c17063c	0.009217795
223	0x3c018d7a	0.007907266
224	0x3c0123ca	0.007882068
225	0x3a8a79ea	0.0010564898
226	0x3b926d7c	0.004468618
227	0x3b5b4267	0.0033456327
228	0xbc817deb	-0.015807113
229	0xbcab8c5b	-0.02094095
230	0x3b6decc4	0.0036304453
231	0xbc2ca42d	-0.010537189
232	0xbbb49450	-0.0055108443
233	0x3bd2629d	0.006420447
234	0xbb1084c5	-0.0022051793
235	0xbbb12105	-0.0054055476
236	0xbd68a544	-0.056798235
237	0xbc80e1e6	-0.015732717
238	0x3be9a467	0.007130194
239	0x3c5bc53b	0.013413723
240	0xbc991468	-0.018686488
241	0x3982caee	0.00024946727
242	0xbbd14bf0	-0.0063872263
243	0x3b4183fa	0.0029528127
244	0xbc9d7d23	-0.019224709
245	0xbcfa0279	-0.030518757
246	0x3c444290	0.01197876
247	0xbb22f945	-0.0024867814
248	0xbd89bce3	-0.067254804
249	0xbc905114	-0.017616786
250	0x3a97c9bf	0.0011580511
251	0xbb0ebca5	-0.0021779921
252	0xbbc54ede	-0.0060213646
253	0xbc508a2c	-0.012728255
254	0xbc0a4d8b	-0.008441339
255	0x3c5789ab	0.013155381

weight_logvar f4 [128, 512]
0	0xc04e0210	-3.218876
1	0xc04e0210	-3.218876
2	0xc04e0210	-3.218876
3	0xc04e0210	-3.218876
4	0xc04e0210	-3.218876
5	0xc04e0210	-3.218876
6	0xc04e0210	-3.218876
7	0xc04e0210	-3.218876
8	0xc04e0210	-3.218876
9	0xc04e0210	-3.218876
10	0xc04e0210	-3.218876
11	0xc04e0210	-3.218876
12	0xc04e0210	-3.218876
13	0xc04e0210	-3.218876
14	0xc04e0210	-3.218876
15	0xc04e0210	-3.218876
16	0xc04e0210	-3.218876
17	0xc04e0210	-3.218876
18	0xc04e0210	-3.218876
19	0xc04e0210	-3.218876
20	0xc04e0210	-3.218876
21	0xc04e0210	-3.218876
22	0xc04e0210	-3.218876
23	0xc04e0210	-3.218876
24	0xc04e0210	-3.218876
25	0xc04e0210	-3.218876
26	0xc04e0210	-3.218876
27	0xc04e0210	-3.218876
28	0xc04e0210	-3.218876
29	0xc04e0210	-3.218876
30	0xc04e0210	-3.218876
31	0xc04e0210	-3.218876
32	0xc04e0210	-3.218876
33	0xc04e0210	-3.218876
34	0xc04e0210	-3.218876
35	0xc04e0210	-3.218876
36	0xc04e0210	-3.218876
37	0xc04e0210	-3.218876
38	0xc04e0210	-3.218876
39	0xc04e0210	-3.218876
40	0xc04e0210	-3.218876
41	0xc04e0210	-3.218876
42	0xc04e0210	-3.218876
43	0xc04e0210	-3.218876
44	0xc04e0210	-3.218876
45	0xc04e0210	-3.218876
46	0xc04e0210	-3.218876
47	0xc04e0210	-3.218876
48	0xc04e0210	-3.218876
49	0xc04e0210	-3.218876
50	0xc04e0210	-3.218876
51	0xc04e0210	-3.218876
52	0xc04e0210	-3.218876
53	0xc04e0210	-3.218876
54	0xc04e0210	-3.218876
55	0xc04e0210	-3.218876
56	0xc04e0210	-3.218876
57	0xc04e0210	-3.218876
58	0xc04e0210	-3.218876
59	0xc04e0210	-3.218876
60	0xc04e0210	-3.218876
61	0xc04e0210	-3.218876
62	0xc04e0210	-3.218876
63	0xc04e0210	-3.218876
64	0xc04e0210	-3.218876
65	0xc04e0210	-3.218876
66	0xc04e0210	-3.218876
67	0xc04e0210	-3.218876
68	0xc04e0210	-3.218876
69	0xc04e0210	-3.218876
70	0xc04e0210	-3.218876
71	0xc04e0210	-3.218876
72	0xc04e0210	-3.218876
73	0xc04e0210	-3.218876
74	0xc04e0210	-3.218876
75	0xc04e0210	-3.218876
76	0xc04e0210	-3.218876
77	0xc04e0210	-3.218876
78	0xc04e0210	-3.218876
79	0xc04e0210	-3.218876
80	0xc04e0210	-3.218876
81	0xc04e0210	-3.218876
82	0xc04e0210	-3.218876
83	0xc04e0210	-3.218876
84	0xc04e0210	-3.218876
85	0xc04e0210	-3.218876
86	0xc04e0210	-3.218876
87	0xc04e0210	-3.218876
88	0xc04e0210	-3.218876
89	0xc04e0210	-3.218876
90	0xc04e0210	-3.218876
91	0xc04e0210	-3.218876
92	0xc04e0210	-3.218876
93	0xc04e0210	-3.218876
94	0xc04e0210	-3.218876
95	0xc04e0210	-3.218876
96	0xc04e0210	-3.218876
97	0xc04e0210	-3.218876
98	0xc04e0210	-3.218876
99	0xc04e0210	-3.218876
100	0xc04e0210	-3.218876
101	0xc04e0210	-3.218876
102	0xc04e0210	-3.218876
103	0xc04e0210	-3.218876
104	0xc04e0210	-3.218876
105	0xc04e0210	-3.218876
106	0xc04e0210	-3.218876
107	0xc04e0210	-3.218876
108	0xc04e0210	-3.218876
109	0xc04e0210	-3.218876
110	0xc04e0210	-3.218876
111	0xc04e0210	-3.218876
112	0xc04e0210	-3.218876
113	0xc04e0210	-3.218876
114	0xc04e0210	-3.218876
115	0xc04e0210	-3.218876
116	0xc04e0210	-3.218876
117	0xc04e0210	-3.218876
118	0xc04e0210	-3.218876
119	0xc04e0210	-3.218876
120	0xc04e0210	-3.218876
121	0xc04e0210	-3.218876
122	0xc04e0210	-3.218876
123	0xc04e0210	-3.218876
124	0xc04e0210	-3.218876
125	0xc04e0210	-3.218876
126	0xc04e0210	-3.218876
127	0xc04e0210	-3.218876
128	0xc04e0210	-3.218876
129	0xc04e0210	-3.218876
130	0xc04e0210	-3.218876
131	0xc04e0210	-3.218876
132	0xc04e0210	-3.218876
133	0xc04e0210	-3.218876
134	0xc04e0210	-3.218876
135	0xc04e0210	-3.218876
136	0xc04e0210	-3.218876
137	0xc04e0210	-3.218876
138	0xc04e0210	-3.218876
139	0xc04e0210	-3.218876
140	0xc04e0210	-3.218876
141	0xc04e0210	-3.218876
142	0xc04e0210	-3.218876
143	0xc04e0210	-3.218876
144	0xc04e0210	-3.218876
145	0xc04e0210	-3.218876
146	0xc04e0210	-3.218876
147	0xc04e0210	-3.218876
148	0xc04e0210	-3.218876
149	0xc04e0210	-3.218876
150	0xc04e0210	-3.218876
151	0xc04e0210	-3.218876
152	0xc04e0210	-3.218876
153	0xc04e0210	-3.218876
154	0xc04e0210	-3.218876
155	0xc04e0210	-3.218876
156	0xc04e0210	-3.218876
157	0xc04e0210	-3.218876
158	0xc04e0210	-3.218876
159	0xc04e0210	-3.218876
160	0xc04e0210	-3.218876
161	0xc04e0210	-3.218876
162	0xc04e0210	-3.218876
163	0xc04e0210	-3.218876
164	0xc04e0210	-3.218876
165	0xc04e0210	-3.218876
166	0xc04e0210	-3.218876
167	0xc04e0210	-3.218876
168	0xc04e0210	-3.218876
169	0xc04e0210	-3.218876
170	0xc04e0210	-3.218876
171	0xc04e0210	-3.218876
172	0xc04e0210	-3.218876
173	0xc04e0210	-3.218876
174	0xc04e0210	-3.218876
175	0xc04e0210	-3.218876
176	0xc04e0210	-3.218876
177	0xc04e0210	-3.218876
178	0xc04e0210	-3.218876
179	0xc04e0210	-3.218876
180	0xc04e0210	-3.218876
181	0xc04e0210	-3.218876
182	0xc04e0210	-3.218876
183	0xc04e0210	-3.218876
184	0xc04e0210	-3.218876
185	0xc04e0210	-3.218876
186	0xc04e0210	-3.218876
187	0xc04e0210	-3.218876
188	0xc04e0210	-3.218876
189	0xc04e0210	-3.218876
190	0xc04e0210	-3.218876
191	0xc04e0210	-3.218876
192	0xc04e0210	-3.218876
193	0xc04e0210	-3.218876
194	0xc04e0210	-3.218876
195	0xc04e0210	-3.218876
196	0xc04e0210	-3.218876
197	0xc04e0210	-3.218876
198	0xc04e0210	-3.218876
199	0xc04e0210	-3.218876
200	0xc04e0210	-3.218876
201	0xc04e0210	-3.218876
202	0xc04e0210	-3.218876
203	0xc04e0210	-3.218876
204	0xc04e0210	-3.218876
205	0xc04e0210	-3.218876
206	0xc04e0210	-3.218876
207	0xc04e0210	-3.218876
208	0xc04e0210	-3.218876
209	0xc04e0210	-3.218876
210	0xc04e0210	-3.218876
211	0xc04e0210	-3.218876
212	0xc04e0210	-3.218876
213	0xc04e0210	-3.218876
214	0xc04e0210	-3.218876
215	0xc04e0210	-3.218876
216	0xc04e0210	-3.218876
217	0xc04e0210	-3.218876
218	0xc04e0210	-3.218876
219	0xc04e0210	-3.218876
220	0xc04e0210	-3.218876
221	0xc04e0210	-3.218876
222	0xc04e0210	-3.218876
223	0xc04e0210	-3.218876
224	0xc04e0210	-3.218876
225	0xc04e0210	-3.218876
226	0xc04e0210	-3.218876
227	0xc04e0210	-3.218876
228	0xc04e0210	-3.218876
229	0xc04e0210	-3.218876
230	0xc04e0210	-3.218876
231	0xc04e0210	-3.218876
232	0xc04e0210	-3.218876
233	0xc04e0210	-3.218876
234	0xc04e0210	-3.218876
235	0xc04e0210	-3.218876
236	0xc04e0210	-3.218876
237	0xc04e0210	-3.218876
238	0xc04e0210	-3.218876
239	0xc04e0210	-3.218876
240	0xc04e0210	-3.218876
241	0xc04e0210	-3.218876
242	0xc04e0210	-3.218876
243	0xc04e0210	-3.218876
244	0xc04e0210	-3.218876
245	0xc04e0210	-3.218876
246	0xc04e0210	-3.218876
247	0xc04e0210	-3.218876
248	0xc04e0210	-3.218876
249	0xc04e0210	-3.218876
250	0xc04e0210	-3.218876
251	0xc04e0210	-3.218876
252	0xc04e0210	-3.218876
253	0xc04e0210	-3.218876
254	0xc04e0210	-3.218876
255	0xc04e0210	-3.218876

bias_mu f4 [128]
0	0xbdd70139	-0.1049828
1	0x3d046679	0.032324288
2	0xbdf09302	-0.117467895
3	0xbbaac5d8	-0.005211573
4	0xbc032883	-0.008005264
5	0xbcaf9f45	-0.02143825
6	0xbdad1185	-0.08450607
7	0xbdffb657	-0.124859504
8	0xbe743a51	-0.23850371
9	0xbe18fa56	-0.14939246
10	0xbe8d0549	-0.27543095
11	0xbe143957	-0.14474998
12	0xbbce54c4	-0.006296726
13	0xbe3293d5	-0.17439206
14	0xbe890e25	-0.26768604
15	0x3d89846f	0.06714713
16	0xbb9f75d2	-0.00486634
17	0xbe15183f	-0.1456003
18	0x3d20c2bc	0.039248213
19	0xbc71292d	-0.01471929
20	0xbe0759c6	-0.1321784
21	0xbba817b1	-0.0051297774
22	0xbe1e9c35	-0.15489276
23	0xbed71d8b	-0.42014727
24	0xbe04c7cc	-0.12966841
25	0xbb8ad5e1	-0.004236922
26	0xbb635afb	-0.003469168
27	0xbe587ddc	-0.21141762
28	0xbe0e870c	-0.13918704
29	0xbdfae98a	-0.12251575
30	0x3ba7dca2	0.005122737
31	0xbe064a0d	-0.13114186
32	0xbdcf76dd	-0.10130093
33	0xbe0f0ef8	-0.13970554
34	0xbb982fea	-0.0046443837
35	0xbe159757	-0.14608513
36	0xbc8573f6	-0.016290646
37	0xbdf636ae	-0.12022148
38	0xbe0357b9	-0.12826432
39	0xbe03e97e	-0.12882039
40	0xbe1718bc	-0.14755529
41	0xbc73544f	-0.014851644
42	0x3bfbaa1e	0.0076801917
43	0xbe2d41ab	-0.16919582
44	0xbe7f4564	-0.24928814
45	0xbe277be4	-0.16355854
46	0xbc2d92a9	-0.010594049
47	0xbcbc447d	-0.022981877
48	0x3a5d361a	0.0008438543
49	0xbe87f4af	-0.26553866
50	0xbbf1ff5b	-0.007385177
51	0xbe0ea460	-0.13929892
52	0xbe100a10	-0.14066339
53	0xbc3baaeb	-0.011454324
54	0xbe06a1ee	-0.13147709
55	0xbd3a2cea	-0.04545299
56	0x3cf260db	0.0295872
57	0xbdf037be	-0.11729382
58	0xba659f12	-0.000875936
59	0xbcfc50d0	-0.030800253
60	0xbe1bc372	-0.15211275
61	0xbca32176	-0.019913416
62	0xbe2306c4	-0.1592055
63	0xbe7c7405	-0.24653633
64	0xbc15a975	-0.00913464
65	0xbe02c02c	-0.1276862
66	0xbbaa2d84	-0.005193414
67	0xbdeead65	-0.11654166
68	0xbe1f8252	-0.15577057
69	0xbe1c6b62	-0.15275338
70	0xbe620317	-0.22071491
71	0xbe045d6c	-0.12926263
72	0xbe08b8bf	-0.13351725
73	0xbbd4f956	-0.0064994497
74	0xbca35a8f	-0.019940643
75	0xbc52e335	-0.012871553
76	0xbdfc99b7	-0.12334006
77	0xbe67f2cd	-0.22651215
78	0xbdfdfc7c	-0.12401673
79	0xbbfd0504	-0.007721545
80	0xbdb8fe6f	-0.09032904
81	0xbd59208c	-0.053009555
82	0xbe126fe5	-0.14300497
83	0xbe15b4ff	-0.14619826
84	0xbe012693	-0.12612371
85	0x3d02f2d4	0.03196986
86	0xbb940453	-0.004517117
87	0xbc9c456e	-0.019076075
88	0xbd3cba38	-0.04607603
89	0xbe0cd60e	-0.1375353
90	0xbae41d1e	-0.0017403697
91	0xbe180022	-0.148438
92	0xbd8f59f3	-0.06999578
93	0xbd3e760a	-0.04649929
94	0xbe0e88e3	-0.13919406
95	0xbe209f2b	-0.15685718
96	0xbc96088b	-0.01831462
97	0xbef0b74f	-0.47014853
98	0xbc86bc2b	-0.016447147
99	0x3b59c761	0.0033230411
100	0xbc43c5f1	-0.011949048
101	0x3c3def39	0.01159268
102	0xbe638912	-0.22220257
103	0x3d01ff12	0.031737395
104	0xbe171755	-0.14754994
105	0xbc0cc398	-0.008591555
106	0xbe86a24f	-0.26295707
107	0xba8fd84f	-0.0010974499
108	0xbdaed404	-0.085365325
109	0x3c2d3a6e	0.010573013
110	0xbc80df89	-0.01573159
111	0xbe227772	-0.15865877
112	0xbe27a87f	-0.1637287
113	0xbe1654c7	-0.14680777
114	0xbc543a6e	-0.012953384
115	0xbe3f570e	-0.18685552
116	0xbe47bdb8	-0.19505966
117	0xbe0db4b8	-0.1383847
118	0xbe070508	-0.13185513
119	0xbdd6e4b3	-0.1049284
120	0xbdca4bbe	-0.09877728
121	0xbdecca7c	-0.11562058
122	0xbe20d759	-0.15707149
123	0xbb9a63f1	-0.004711621
124	0xbc01ae47	-0.007915086
125	0xbbefb09b	-0.007314754
126	0xbe113920	-0.14181948
127	0xbbf522f0	-0.0074809715

bias_logvar f4 [128]
0	0xc04e0210	-3.218876
1	0xc073a6b1	-3.807049
2	0xc04e0210	-3.218876
3	0xc04e0210	-3.218876
4	0xc04e0210	-3.218876
5	0xc05f5273	-3.4894073
6	0xc04e0210	-3.218876
7	0xc04e0210	-3.218876
8	0xc04e0b51	-3.2194407
9	0xc04e0210	-3.218876
10	0xc04e0950	-3.2193184
11	0xc04e0210	-3.218876
12	0xc04e0210	-3.218876
13	0xc04e0210	-3.218876
14	0xc04e0210	-3.218876
15	0xc04e0210	-3.218876
16	0xc04e0210	-3.218876
17	0xc04e0210	-3.218876
18	0xc04e0210	-3.218876
19	0xc04e0210	-3.218876
20	0xc04e0210	-3.218876
21	0xc051e258	-3.27944
22	0xc04e0210	-3.218876
23	0xc04e0210	-3.218876
24	0xc04e0210	-3.218876
25	0xc04e0210	-3.218876
26	0xc04e0210	-3.218876
27	0xc04e314b	-3.2217586
28	0xc04e0210	-3.218876
29	0xc04e0210	-3.218876
30	0xc04e0210	-3.218876
31	0xc04e0210	-3.218876
32	0xc04e0210	-3.218876
33	0xc04e0210	-3.218876
34	0xc04e0210	-3.218876
35	0xc04e0210	-3.218876
36	0xc04e0210	-3.218876
37	0xc04e0210	-3.218876
38	0xc04e0210	-3.218876
39	0xc04e0210	-3.218876
40	0xc04e0210	-3.218876
41	0xc04e0210	-3.218876
42	0xc04e0210	-3.218876
43	0xc04e0b94	-3.2194567
44	0xc04e0bfc	-3.2194815
45	0xc04e0210	-3.218876
46	0xc04e0210	-3.218876
47	0xc04e0210	-3.218876
48	0xc04e0210	-3.218876
49	0xc050ccea	-3.262507
50	0xc04e0210	-3.218876
51	0xc04e0210	-3.218876
52	0xc04e0210	-3.218876
53	0xc04e0210	-3.218876
54	0xc04e0210	-3.218876
55	0xc04e0210	-3.218876
56	0xc04e0210	-3.218876
57	0xc04e0210	-3.218876
58	0xc04e0210	-3.218876
59	0xc04e0210	-3.218876
60	0xc04e0210	-3.218876
61	0xc04e585d	-3.2241433
62	0xc04e0210	-3.218876
63	0xc04e02d4	-3.2189226
64	0xc04e0210	-3.218876
65	0xc04e0210	-3.218876
66	0xc04e0210	-3.218876
67	0xc04e0210	-3.218876
68	0xc04e0210	-3.218876
69	0xc04e0210	-3.218876
70	0xc04e0b73	-3.2194488
71	0xc04e0210	-3.218876
72	0xc04e0210	-3.218876
73	0xc04e0210	-3.218876
74	0xc04e0210	-3.218876
75	0xc04e0210	-3.218876
76	0xc04e0210	-3.218876
77	0xc04e0210	-3.218876
78	0xc04e0210	-3.218876
79	0xc04e0210	-3.218876
80	0xc04e0210	-3.218876
81	0xc04e0210	-3.218876
82	0xc04e0210	-3.218876
83	0xc04e0210	-3.218876
84	0xc04e0210	-3.218876
85	0xc04e0210	-3.218876
86	0xc04e0210	-3.218876
87	0xc04e0210	-3.218876
88	0xc04e0210	-3.218876
89	0xc04e0210	-3.218876
90	0xc04e0210	-3.218876
91	0xc04e0210	-3.218876
92	0xc04e0210	-3.218876
93	0xc04e0210	-3.218876
94	0xc04ffd39	-3.2498305
95	0xc04e0210	-3.218876
96	0xc04e0210	-3.218876
97	0xc04e0210	-3.218876
98	0xc04e0210	-3.218876
99	0xc04e0210	-3.218876
100	0xc05a35b6	-3.4095283
101	0xc04e0210	-3.218876
102	0xc0529797	-3.2905023
103	0xc05bbfac	-3.4335737
104	0xc04e0210	-3.218876
105	0xc04e0210	-3.218876
106	0xc05676e5	-3.3510067
107	0xc04e0210	-3.218876
108	0xc04e13f2	-3.2199674
109	0xc04e0210	-3.218876
110	0xc04e0210	-3.218876
111	0xc04e0210	-3.218876
112	0xc04e0210	-3.218876
113	0xc04e0210	-3.218876
114	0xc05697b6	-3.3530097
115	0xc04e0210	-3.218876
116	0xc04e181c	-3.2202215
117	0xc04e0210	-3.218876
118	0xc04e0210	-3.218876
119	0xc04e0210	-3.218876
120	0xc04f29c4	-3.2369242
121	0xc04e0210	-3.218876
122	0xc04e0822	-3.2192464
123	0xc04e0210	-3.218876
124	0xc04e0210	-3.218876
125	0xc04e0210	-3.218876
126	0xc04e0210	-3.218876
127	0xc04e0210	-3.218876

z_mu f4 [128]
0	0x3c00ae60	0.007854074
1	0x3f5d6c35	0.86493236
2	0xbb9e4927	-0.004830498
3	0xb95fdf6a	-0.00021350165
4	0x37eda16e	2.8327773e-05
5	0x3f31e727	0.69493335
6	0x3ec2c599	0.3804138
7	0x3da9b97b	0.08287331
8	0x3eafac02	0.3431092
9	0xbc2e335c	-0.010632362
10	0x3f32edab	0.698939
11	0x3e89f13a	0.26941854
12	0xb975d617	-0.00023444775
13	0x3b8d92e5	0.0043204897
14	0x3f0b9637	0.54526085
15	0x3ea1938c	0.31557882
16	0xb99c3b73	-0.00029798932
17	0xbaef8887	-0.0018274941
18	0x3e8a5018	0.27014232
19	0x3a00d14b	0.00049139996
20	0x3c35c92d	0.011095327
21	0x3f1832c3	0.59452456
22	0x3bcbd137	0.0062200087
23	0x3efce333	0.4939209
24	0x3c18d2c0	0.00932759
25	0x39320f68	0.00016981142
26	0xba2aac71	-0.0006510681
27	0x3f2a2ae5	0.664717
28	0xbbd875a8	-0.0066058226
29	0x3badf4ed	0.0053087384
30	0x3a0d19c2	0.00053825614
31	0x3ecc373d	0.39885893
32	0xbd7957ac	-0.060874626
33	0x38a35e07	7.78996e-05
34	0xb9a359d8	-0.00031156722
35	0x3b980476	0.0046392037
36	0x39bf4d7a	0.00036488083
37	0xbc433dcd	-0.01191659
38	0xbb8dcd03	-0.004327418
39	0xbbcc353e	-0.006231933
40	0xbbb6e7b8	-0.0055818222
41	0x395d926c	0.00021130749
42	0x3915baa6	0.0001427928
43	0x3e91dc0e	0.284882
44	0x3ecfc7f7	0.4058225
45	0x3dbcea0f	0.09224331
46	0x382745d1	3.9880924e-05
47	0xb8ac5013	-8.216514e-05
48	0x38d86f32	0.00010320394
49	0x3efead8f	0.4974179
50	0x39a1bf64	0.0003085091
51	0xbce85469	-0.028360562
52	0x3edd3200	0.4320221
53	0x3a64a621	0.0008722265
54	0xbd0fbdb6	-0.03509303
55	0x392ac771	0.00016286761
56	0x3e6ad468	0.22932589
57	0x3b93f7dc	0.004515631
58	0x368fd025	4.2859633e-06
59	0x3e768481	0.24073984
60	0x3b5d07f7	0.0033726671
61	0x3f14fb03	0.58195513
62	0x3e4f3e9b	0.20238726
63	0x3f338363	0.70122355
64	0xb9896b5f	-0.00026210674
65	0xbb41417a	-0.002948849
66	0x39712afd	0.00022999565
67	0xbab6af26	-0.0013937696
68	0x3cefca97	0.029271407
69	0x39eec4d6	0.00045541552
70	0x3f5085ba	0.8145405
71	0xbbe86cfe	-0.007093071
72	0x3c0f6ed8	0.008754455
73	0xb9c6a0a5	-0.00037885192
74	0x397131d0	0.00023002108
75	0x393dbbd4	0.00018094416
76	0x3c968f8c	0.018378995
77	0x3efe01d1	0.4961076
78	0x3ac5ed57	0.001510064
79	0xb9b53af0	-0.00034566922
80	0x3e9aa0ff	0.30200955
81	0x3ec4c5ee	0.38432258
82	0x3c711dfb	0.014716621
83	0x3b00789a	0.0019603134
84	0xbc70f2e0	-0.014706343
85	0x3e643743	0.22286706
86	0xb718ff76	-9.119385e-06
87	0x3777a5eb	1.4760978e-05
88	0x3e6b296e	0.22965023
89	0xbbaa3530	-0.0051943287
90	0xba19c3b5	-0.00058656494
91	0x3e8523f7	0.26004001
92	0x3e6f077c	0.23342699
93	0x3cb6770b	0.022273561
94	0x3ec7c3d6	0.39016598
95	0xbc1e1291	-0.009647981
96	0xb9c1d44e	-0.00036970008
97	0x3f69e732	0.913684
98	0x392da837	0.0001656123
99	0x39a9043e	0.00032237353
100	0x3f1c5c3e	0.6107825
101	0x3ea0342d	0.31289807
102	0x3f0cdbc2	0.55022824
103	0x3f307535	0.68928844
104	0x3c5a9908	0.01334215
105	0x39eae286	0.0004480073
106	0x3f252ec0	0.6452446
107	0x39ba3664	0.0003551721
108	0x3e7391e0	0.23786116
109	0x3a3c2dfe	0.0007178484
110	0x388fc916	6.8562265e-05
111	0x3c14a584	0.009072665
112	0xbbcd32af	-0.0062621455
113	0x3c0aaace	0.008463575
114	0x3f28f7b5	0.6600297
115	0x3f1b4e0f	0.6066598
116	0x3ed52b1e	0.41634458
117	0xba90ddfe	-0.0011052487
118	0x3a16348c	0.0005729876
119	0xbc641f45	-0.013923471
120	0x3ed6e595	0.41972032
121	0xbbd9d2ba	-0.006647435
122	0x3ecb4653	0.3970209
123	0xb90a09f3	-0.00013164412
124	0xb985a749	-0.00025492374
125	0x3a06913d	0.00051333365
126	0x3c232588	0.009957679
127	0x3940d356	0.00018389276

z_logvar f4 [128]
0	0xc0934213	-4.6018157
1	0xc0979135	-4.7364755
2	0xc07f5434	-3.9895144
3	0xc12f7e4d	-10.968335
4	0xc12fbeb2	-10.984056
5	0xc08ec716	-4.4618025
6	0xc0993ba2	-4.7885294
7	0xc0912fdf	-4.5370936
8	0xc08bd618	-4.3698845
9	0xc0855da9	-4.167683
10	0xc082bc51	-4.085488
11	0xc09843f1	-4.7582936
12	0xc12ee7f7	-10.931632
13	0xc053428f	-3.3009374
14	0xc09ebe5f	-4.9607387
15	0xc0968512	-4.703744
16	0xc12a8f1a	-10.659937
17	0xc0826567	-4.074878
18	0xc09772fe	-4.732787
19	0xc12d7ada	-10.842493
20	0xc0911ac0	-4.5345154
21	0xc092e0e6	-4.5899534
22	0xc08dfac3	-4.4368606
23	0xc05ce88a	-3.451693
24	0xc0851c0a	-4.1596727
25	0xc13166d8	-11.087608
26	0xc12be89a	-10.7442875
27	0xc07a29a1	-3.9087908
28	0xc09c46fe	-4.883666
29	0xc09c5e21	-4.8864903
30	0xc12bb83f	-10.732482
31	0xc08fc249	-4.4924664
32	0xc085e297	-4.18391
33	0xc0a2be82	-5.0857553
34	0xc1305364	-11.020359
35	0xc0808dd2	-4.017312
36	0xc1289b45	-10.537908
37	0xc08d6988	-4.419132
38	0xc08a8320	-4.3285065
39	0xc081c989	-4.0558515
40	0xc0910bcf	-4.5326915
41	0xc12f6e9d	-10.964505
42	0xc12860cc	-10.523632
43	0xc09c74eb	-4.889272
44	0xc0927b8b	-4.577581
45	0xc08dfb10	-4.4368973
46	0xc13523c3	-11.321231
47	0xc11d7304	-9.84058
48	0xc12bd4a6	-10.739416
49	0xc099e84f	-4.809608
50	0xc133bbda	-11.233362
51	0xc0775dca	-3.8650994
52	0xc08da80c	-4.4267635
53	0xc12bd531	-10.739549
54	0xc0804d19	-4.0094113
55	0xc10ecd5e	-8.925138
56	0xc08cff8a	-4.4061937
57	0xc090f77a	-4.5302095
58	0xc130722d	-11.027875
59	0xc090d6d9	-4.5262265
60	0xc06c7664	-3.694726
61	0xc08f59f1	-4.479729
62	0xc099d98f	-4.8078074
63	0xc087b1e2	-4.240464
64	0xc12ea624	-10.915562
65	0xc0879d80	-4.237976
66	0xc1312790	-11.072159
67	0xc08033aa	-4.0063066
68	0xc078e5a9	-3.8890173
69	0xc084cda6	-4.1501036
70	0xc082eb97	-4.0912585
71	0xc0857ccd	-4.1714845
72	0xc082d748	-4.0887794
73	0xc12ea725	-10.915807
74	0xc11d5f86	-9.835821
75	0xc12809c6	-10.502386
76	0xc0851f6d	-4.160086
77	0xc0912b19	-4.536511
78	0xc0979012	-4.7363367
79	0xc12bf4b1	-10.747239
80	0xc094d393	-4.650827
81	0xc08a2a85	-4.3176904
82	0xc08b4a55	-4.3528237
83	0xc0883fa5	-4.257769
84	0xc082b937	-4.085109
85	0xc08ece2f	-4.462669
86	0xc131a5aa	-11.102945
87	0xc1288192	-10.531633
88	0xc0822704	-4.0672626
89	0xc0879e6a	-4.2380877
90	0xc12cb07b	-10.793086
91	0xc0a09b50	-5.018959
92	0xc0837881	-4.10846
93	0xc08daeae	-4.427573
94	0xc0a5cf93	-5.1815886
95	0xc08466ff	-4.137573
96	0xc126d5ac	-10.427166
97	0xc0974892	-4.7276087
98	0xc12ff5c1	-10.9974985
99	0xc12eab75	-10.91686
100	0xc0975089	-4.728581
101	0xc09700cf	-4.7188487
102	0xc09c0651	-4.875771
103	0xc094d2cb	-4.6507316
104	0xc0801136	-4.002101
105	0xc1309e2a	-11.038614
106	0xc092d00b	-4.587896
107	0xc12e76db	-10.904017
108	0xc08bf2a6	-4.37337
109	0xc12a0dce	-10.62837
110	0xc1238c9b	-10.2218275
111	0xc0829baa	-4.081502
112	0xc08a68b4	-4.325281
113	0xc08db08b	-4.4278007
114	0xc0940061	-4.6250463
115	0xc0786eed	-3.8817704
116	0xc0994fe6	-4.791003
117	0xc09f4345	-4.9769616
118	0xc0886a54	-4.2629795
119	0xc097e047	-4.7461276
120	0xc09d15f3	-4.9089293
121	0xc0945b90	-4.636177
122	0xc0a34e8e	-5.103339
123	0xc129ed00	-10.620361
124	0xc12fda0c	-10.990734
125	0xc13063fb	-11.024409
126	0xc076252e	-3.8460193
127	0xc12b64ba	-10.712091

weight_mu f4 [2, 128]
0	0x3cc4231e	0.023942526
1	0x3eb7a600	0.35868835
2	0x3dd419b1	0.10356463
3	0xbc81c08e	-0.015838888
4	0xbb570366	-0.0032808422
5	0x3ecb11d9	0.39662054
6	0x3ebc5842	0.36786085
7	0x3ea05bb6	0.3131997
8	0xbedc8e37	-0.4307725
9	0xbdd4681b	-0.10371419
10	0xbf0648be	-0.52454746
11	0x3eb72d8b	0.35776934
12	0xbc134bc9	-0.008990237
13	0x3a8d5e55	0.001078556
14	0xbea7294d	-0.32648697
15	0xbec36288	-0.3816111
16	0xbd1ef4fa	-0.038807847
17	0x3dee2f6f	0.11630141
18	0xbebeea87	-0.37288305
19	0xbc98db68	-0.018659309
20	0x3c9f7a38	0.019467458
21	0x3eaeb5a4	0.34122956
22	0x3aac1c90	0.0013131071
23	0xbf0c7d89	-0.5487905
24	0x3d5c8ed8	0.053847164
25	0x3bce0eab	0.0062883697
26	0x39993dda	0.00029228517
27	0xbf1f3dcc	-0.6220367
28	0xbd23910a	-0.039933242
29	0x3c0d82f4	0.008637179
30	0xbd259e55	-0.0404342
31	0x3f07916e	0.52956283
32	0xbdc1fabd	-0.09471653
33	0x3d11a9f5	0.035562474
34	0x3bc4da0c	0.0060074385
35	0xbc9a0d21	-0.018805088
36	0xbd053bde	-0.032527797
37	0x3ce7b7e9	0.028285937
38	0x3beb8e86	0.007188621
39	0xbe54a24b	-0.20765035
40	0x3cfeeee6	0.031119775
41	0xbc592075	-0.013252367
42	0x3d2f178c	0.042747065
43	0x3eafbca6	0.34323615
44	0xbed84dd2	-0.42246872
45	0x3ea68328	0.3252194
46	0x3ce4257a	0.027849901
47	0xbb882d14	-0.0041557644
48	0x3ccae402	0.024766926
49	0xbec19e27	-0.37815973
50	0xbbab411b	-0.005226267
51	0xbd470ed8	-0.04859814
52	0xbece2f34	-0.40270388
53	0xbcabc100	-0.020966053
54	0x3d6fce61	0.058546428
55	0x3af432ac	0.0018630824
56	0xbebf8e09	-0.37413052
57	0x3c95a6f8	0.018268093
58	0x3b458c7e	0.0030143554
59	0xbee16cc0	-0.44028282
60	0x3c9d464c	0.01919856
61	0x3ec17fd9	0.37792853
62	0x3e96baa2	0.29439265
63	0xbf0ee9a1	-0.5582524
64	0x3b38f2b7	0.0028220841
65	0x3d837aa7	0.064198785
66	0xbcb5bf41	-0.022185924
67	0x3d13a26f	0.03604358
68	0xbcb1c27b	-0.02169918
69	0x3c8a70cb	0.016899487
70	0xbf18aa30	-0.59634686
71	0xbce18c5a	-0.027532745
72	0x3c6e0041	0.014526428
73	0x3c92992f	0.01789531
74	0xbd0756d7	-0.0330418
75	0xbacec0bb	-0.0015773991
76	0x3ce96411	0.028490098
77	0xbec72cdc	-0.38901412
78	0xbcaba153	-0.020950949
79	0x3c89c2b5	0.016816476
80	0xbeb4c858	-0.353091
81	0x3eca1e56	0.3947627
82	0x3e773dcd	0.24144669
83	0xbd70884a	-0.058723725
84	0xbd87837b	-0.06616875
85	0xbed78cbe	-0.42099565
86	0x3b30a09c	0.00269512
87	0xbc3d2325	-0.011544024
88	0x3eeb26b6	0.45927972
89	0xbceedb62	-0.029157344
90	0x3c2f32c8	0.01069326
91	0x3ea7b145	0.32752433
92	0x3ec2a20d	0.3801426
93	0xbe718e9d	-0.23589559
94	0x3ea53a4c	0.3227104
95	0x3d0ffc79	0.035152886
96	0xbc0cb13c	-0.008587178
97	0xbf02d9bf	-0.51113504
98	0xbbf1e869	-0.007382442
99	0x3d1d8d56	0.038464867
100	0x3eb74429	0.3579419
101	0xbec8dc96	-0.39230794
102	0xbeb069ee	-0.34455818
103	0x3ec4b9f4	0.3842312
104	0xbc835c43	-0.016035205
105	0xbcbc6144	-0.022995599
106	0xbecbf3c5	-0.3983442
107	0x3c5dd480	0.0135394335
108	0x3ea9aed6	0.33141202
109	0xbd671244	-0.056413904
110	0xbc239df7	-0.009986392
111	0xbc8e94ae	-0.01740488
112	0xbd3d8408	-0.046268493
113	0x3d005cc1	0.031338457
114	0x3ebcdfb9	0.36889437
115	0xbf1e0238	-0.61722136
116	0xbeb6634d	-0.35622635
117	0xbcb1e3a8	-0.021715
118	0xbd68d36e	-0.05684226
119	0x3cbfe400	0.023424149
120	0xbeba4a00	-0.36384583
121	0x3d18721a	0.03721819
122	0x3e93a2a4	0.28835022
123	0x3ce3f279	0.02782558
124	0xbc893afe	-0.016751762
125	0xbd07c6e3	-0.033148658
126	0x3c3bcdae	0.011462612
127	0x3c81aacd	0.015828514
128	0xbcd2cb4d	-0.025731707
129	0xbeb79c75	-0.35861555
130	0xbddf6fe7	-0.109100156
131	0x3c77cd92	0.015124695
132	0x3b81073c	0.00393763
133	0xbece0e95	-0.402455
134	0xbebbed12	-0.36704308
135	0xbea1d23a	-0.31605703
136	0x3edabf55	0.427241
137	0x3ddd3d05	0.10802654
138	0x3f06ba47	0.52627987
139	0xbeb7db6d	-0.35909596
140	0x3c313cd7	0.010817728
141	0x3b4d6e9a	0.0031346441
142	0x3ea4fb84	0.3222314
143	0x3ec2eac0	0.38069725
144	0x3d19583c	0.037437662
145	0xbddeca13	-0.10878386
146	0x3ec07d26	0.3759548
147	0x3cc58a07	0.024113668
148	0xbc7f3693	-0.015576976
149	0xbeb134a6	-0.3461048
150	0x3bf0827d	0.007339774
151	0x3f0d16f8	0.5511317
152	0xbd659a50	-0.056055367
153	0xbb9f0d87	-0.0048539075
154	0x3bcdd58a	0.0062815594
155	0x3f1bed76	0.6090921
156	0x3d59dc3d	0.05318855
157	0xbbcd54c3	-0.006266208
158	0x3d16f479	0.03685424
159	0xbf066fa4	-0.525141
160	0x3da4a053	0.08038392
161	0xbcd98ba5	-0.026555846
162	0xbc1e435a	-0.009659613
163	0x3cc0c293	0.02353028
164	0x3cff9e60	0.031203449
165	0xbca321d2	-0.019913588
166	0xbbc0c5db	-0.005882961
167	0x3e5c7533	0.21529083
168	0xbd0541ce	-0.03253346
169	0x3c7d3a88	0.0154558495
170	0xbd296d4e	-0.041364007
171	0xbeb06434	-0.3445145
172	0x3ed83412	0.42227226
173	0xbea20d15	-0.31650606
174	0xbcf7dcd6	-0.03025667
175	0x3bc06e70	0.00587254
176	0xbcb23bfe	-0.021757122
177	0x3ec0b1e3	0.37635717
178	0x3b297875	0.0025859152
179	0x3d0e237a	0.0347018
180	0x3eccef1a	0.4002617
181	0x3cacd393	0.02109698
182	0xbd9a3524	-0.07529667
183	0x3b637f36	0.0034713275
184	0x3ec1135f	0.3771009
185	0xbc3cd3e3	-0.011525127
186	0xba73bfc7	-0.00092982914
187	0x3ee0f07d	0.43933478
188	0xbca3775f	-0.019954382
189	0xbec12555	-0.37723795
190	0xbe97fdc5	-0.29685798
191	0x3f0db019	0.5534683
192	0xbb3077c0	-0.0026926845
193	0xbd8ae88e	-0.067826375
194	0x3c8d6cba	0.017263759
195	0xbd0f7052	-0.035019226
196	0x3d02ccd6	0.031933628
197	0xbc8b9a94	-0.017041482
198	0x3f18634d	0.5952652
199	0x3cc5457e	0.024080988
200	0xbbf5331f	-0.0074829007
201	0xbca0a2a5	-0.019608805
202	0x3d1289e9	0.035776053
203	0x3ac6ad9d	0.0015157942
204	0xbc8e48a9	-0.017368631
205	0x3ec5e6e8	0.3865273
206	0x3ca2ccd0	0.019873053
207	0xbca3c842	-0.019992951
208	0x3eb56f0e	0.3543629
209	0xbecb2d37	-0.39682934
210	0xbe74eddb	-0.2391886
211	0x3d75cda2	0.06001056
212	0x3da55c2c	0.08074221
213	0x3ed30706	0.41216296
214	0xb914256f	-0.00014128325
215	0x3c2cc7bc	0.010545667
216	0xbee76965	-0.45197597
217	0x3cf8c8f6	0.030369263
218	0xbc0ae615	-0.008477707
219	0xbea76896	-0.3269698
220	0xbec37ecf	-0.38182685
221	0x3e7db700	0.2477684
222	0xbea410d9	-0.32044104
223	0xbcbb0b60	-0.022832572
224	0x3c081bd8	0.00830742
225	0x3f03807e	0.5136794
226	0x3c1eecff	0.009700059
227	0xbd1a9210	-0.037736952
228	0xbeb9b52c	-0.36271036
229	0x3ec9bc93	0.39401683
230	0x3eb0c0f4	0.34522212
231	0xbec37cc9	-0.3818114
232	0x3bfe6345	0.0077632987
233	0x3ca4f48b	0.020136138
234	0x3ecac20a	0.39601165
235	0xbc8137ce	-0.01577368
236	0xbeaa4eec	-0.33263338
237	0x3d5021a9	0.05081335
238	0x3be7b6ca	0.0070713507
239	0x3c8bdb9c	0.017072491
240	0x3d43554f	0.04768878
241	0xbd298f62	-0.041396506
242	0xbebce654	-0.36894476
243	0x3f1fc1b2	0.6240493
244	0x3eb96ed9	0.36217383
245	0x3cc4d5bb	0.024027696
246	0x3d52515d	0.051347125
247	0xbcf97aa0	-0.03045398
248	0x3eb780b4	0.3584038
249	0xbd161132	-0.036637492
250	0xbe932252	-0.28737122
251	0xbceb279a	-0.028705407
252	0x3c983da2	0.018584076
253	0x3d056583	0.032567512
254	0xbc733b41	-0.01484567
255	0xbc9696ba	-0.018382419
