metric/probe_finetune_sample2.pth (torch, 539539 bytes, 12 tensors)

z_mu f4 [512]
0.0038333973 -1.0759238e-05 -0.00050463894 -0.0015190195 -0.003708038 0.0025617052 -0.00146829 1.0012566
0.0064555765 0.3296124 0.006113979 0.39861462 1.0332421 0.014829402 1.2321192 0.0022776278
-0.0038435345 0.0032538597 0.48478946 0.0027215327 0.0041242405 0.022657033 0.0010915442 0.0035516336
-0.00031157437 0.0014973592 -0.0034723585 0.0021502639 0.87606394 -0.007599555 -7.795364e-06 0.6729902
-0.002652338 -0.0023157108 1.0246644 0.0029906698 -0.0008265459 -0.004993672 0.0006426858 1.233032
0.8267127 0.77756834 0.003054838 -0.007748933 -0.0020201223 0.0028842425 1.298048 -0.0009476898
0.0066113053 0.0117382435 0.8104965 0.0010413235 0.00048079237 -0.0040078736 0.86932606 0.0057171355
0.65809095 0.00029529838 0.66379845 0.2821489 -0.0012873394 -0.0015387087 0.0031607074 0.0020358332
0.016940348 -0.00064225274 -0.0007506835 0.012473805 -0.0068561477 0.0011896802 0.833799 0.00039436953
0.0033435735 0.003573657 0.0064425906 0.004421386 -0.0059794174 0.16208981 0.0017071184 1.5060668
0.80600756 -0.0014659881 0.0038096474 0.0058732764 0.66846734 -0.0036696205 -0.0065060714 1.0005349
-0.0039099497 0.74495804 0.7997828 0.0056956033 -0.006771068 1.1793511 -0.0040989043 0.002814269
0.0060642315 0.8134805 -0.0020118204 0.0069866194 0.0078308545 -6.874975e-05 -6.300162e-05 -0.0026542125
0.0007082723 0.85248893 1.1286354 0.15502031 0.0010131322 -0.0008512625 -0.0027350732 -0.0030814803
0.0028761216 -0.0008003771 1.0227296 0.95723516 -6.482353e-05 -0.0054113627 0.25725025 -0.0036575461
0.94590545 -0.00745661 0.00046411328 0.82096696 0.002942767 -0.0005165889 -0.00095450244 0.011009036
0.0012784039 -0.0066257278 0.003819565 0.0010073376 0.019927382 0.0077232565 0.6996158 0.0023916834
1.6459616 0.0016111026 0.019584708 1.1568407 -2.86589e-05 1.1419375 1.021353 0.0023817
0.012568157 0.0012901817 -0.0039773635 0.00092263037 -0.0055906414 0.0036890695 -0.0025327413 -0.011540548
-0.0012189823 -0.0011000995 0.0022896247 -0.003065859 1.3359749 1.233625 -0.009565168 -0.0056571863
-0.0027850757 0.006232079 0.68579984 0.99152637 0.007835156 0.0027365838 -0.010073741 0.94309586
1.4392401 0.008645524 0.9586395 0.99020493 0.011053207 -0.004517175 0.63009435 -0.00027481257
0.011114192 0.5090654 -0.0018190027 -0.001522765 0.3258523 0.00026571454 -0.007407651 -0.0041962992
0.52560675 0.7676431 -0.0004792894 1.0373411 1.5618813 0.01782225 0.405258 0.00086613186
0.0034965777 -0.0041468395 0.0027720146 0.0005492807 0.0035181525 0.73172796 0.8997475 0.36014432
0.0032804557 0.7127645 0.81721914 -0.0045503946 0.65801996 -0.00072086137 0.005350113 0.00064939435
-0.012925599 0.0040872167 -0.0020031391 0.68624824 1.2135059 -0.007266706 0.004724661 0.66847897
0.75701326 0.007596689 -0.0039982754 -0.005630007 0.79263645 0.0016082559 1.0833844 0.92218274
0.00592158 0.54584074 -0.0042280806 6.0923598e-05 0.00498798 -0.009269012 -0.014492599 -0.008348206
0.00055803556 -0.0011709257 -0.0013400133 1.0644342 0.6848175 0.0028899645 0.0014131083 0.95550644
-0.00023098894 0.0028573791 -0.0018112247 -0.001575879 1.015079 0.0035659627 0.008122887 0.0022191533
-0.012343371 1.1969728 0.005238932 1.0559325 0.004776771 1.3644189 0.0008049499 0.0011830223
00000000: bc39 7b3b 9382 34b7 bf49 04ba d619 c7ba
00000010: 8e02 73bb 48e2 273b a373 c0ba 2d29 803f
00000020: 4d89 d33b f5c2 a83e c657 c83b 3717 cc3e
00000030: 4741 843f 05f7 723c 15b6 9d3f 4144 153b
00000040: cfe3 7bbb b53e 553b 5336 f83e be5b 323b
00000050: a324 873b 3e9b b93c 2512 8f3a 86c2 683b
00000060: ce5a a3b9 0a43 c43a 8290 63bb 71eb 0c3b
00000070: ba45 603f b005 f9bb d5c8 02b7 1649 2c3f
00000080: d9d2 2dbb 2ec3 17bb 3428 833f 1dff 433b
00000090: 8eac 58ba f5a1 a3bb ea79 283a fed3 9d3f
000000a0: 72a3 533f b80e 473f ad33 483b c3ea fdbb
000000b0: 0764 04bb 8f05 3d3b 7026 a63f 636e 78ba
000000c0: a6a3 d83b c351 403c b37c 4f3f 057d 883a
000000d0: dc12 fc39 7b54 83bb 278c 5e3f cf56 bb3b
000000e0: a678 283f 47d2 9a39 b2ee 293f d275 903e
000000f0: f1bb a8ba 7fae c9ba df23 4f3b 9d6b 053b
00000100: 7cc6 8a3c da5c 28ba 84c9 44ba ee5e 4c3c
00000110: 89a9 e0bb 0bef 9b3a da73 553f 62c3 ce39
00000120: db1f 5b3b 0434 6a3b 5e1c d33b 46e1 903b
00000130: fdee c3bb dffa 253e 63c1 df3a ccc6 c03f
00000140: 8356 4e3f 6626 c0ba 47ab 793b 9d74 c03b
00000150: ad20 2b3f 047e 70bb e230 d5bb 8711 803f
00000160: 091f 80bb 92b5 3e3f 91be 4c3f 2fa2 ba3b
00000170: d6df ddbb faf4 963f 1a50 86bb 996f 383b
00000180: 76b6 c63b 4240 503f bfd8 03bb 03f0 e43b
00000190: fc4c 003c be2d 90b8 bd1f 84b8 4cf2 2dbb
000001a0: 59ab 393a b73c 5a3f 2077 903f a5bd 1e3e
000001b0: 13cb 843a 4227 5fba ea3e 33bb a9f2 49bb
000001c0: 507d 3c3b 66d0 51ba cee8 823f 5d0d 753f
000001d0: def1 87b8 cd51 b1bb 4eb6 833e 71b3 6fbb
000001e0: dc26 723f 9456 f4bb 3b54 f339 e42a 523f
000001f0: 70db 403b b26b 07ba 9337 7aba 3e5f 343c
00000200: 1e90 a73a a21c d9bb ab51 7a3b a408 843a
00000210: c03e a33c 5f13 fd3b 051a 333f cabd 1c3b
00000220: dfae d23f a22b d33a 1c70 a03c 5b13 943f
00000230: 8568 f0b7 022b 923f b2bb 823f 4c16 1c3b
00000240: acea 4d3c 501b a93a 8b54 82bb addc 713a
00000250: b331 b7bb 51c4 713b 59fc 25bb 9114 3dbc
00000260: 42c6 9fba 3731 90ba 870d 163b 94ec 48bb
00000270: 3a01 ab3f 6de7 9d3f 39b7 1cbc eb5f b9bb
00000280: d185 36bb 7836 cc3b 9490 2f3f acd4 7d3f
00000290: 075f 003c 4258 333b 550c 25bc bb6e 713f
000002a0: 0539 b83f f5a5 0d3c 6669 753f 127e 7d3f
000002b0: 8318 353c cf04 94bb dd4d 213f b814 90b9
000002c0: 4d18 363c 1c52 023f 9a6b eeba 8497 c7ba
000002d0: 1dd6 a63e 9a4f 8b39 e1bb f2bb 1c81 89bb
000002e0: 2a8e 063f 4284 443f 2249 fbb9 98c7 843f
000002f0: baeb c73f f8ff 913c fa7d cf3e 200d 633a
00000300: d726 653b 36e2 87bb b0aa 353b 9bfd 0f3a
00000310: ce90 663b 8652 3b3f da55 663f d664 b83e
00000320: eafc 563b bc77 363f 4635 513f 7a1b 95bb
00000330: ff73 283f 30f8 3cba 0050 af3b 1e3c 2a3a
00000340: e4c5 53bc 0fee 853b 1947 03bb f7ad 2f3f
00000350: 2954 9b3f 8c1d eebb 54d1 9a3b 7021 2b3f
00000360: 9fcb 413f a5ed f83b f703 83bb ec7b b8bb
00000370: 39ea 4a3f 1dcc d23a 57ac 8a3f 2b14 6c3f
00000380: d009 c23b 38bc 0b3f b68b 8abb 3788 7f38
00000390: 3572 a33b 0edd 17bc 5e72 6dbc eac6 08bc
000003a0: 2249 123a bf79 99ba 63a3 afba 613f 883f
000003b0: 3350 2f3f 8f65 3d3b 0c38 b93a 129c 743f
000003c0: 9f35 72b9 de42 3b3b 9e66 edba ba8d ceba
000003d0: 1cee 813f edb2 693b dc15 053c 376f 113b
000003e0: da3b 4abc 6836 993f 59ab ab3b cc28 873f
000003f0: 7686 9c3b 47a5 ae3f 4603 533a a40f 9b3a

z_logvar f4 [512]
-5.476444 -5.4494157 -4.7551513 -5.0456367 -5.5061493 -5.780823 -5.491082 -4.8815126
-4.480027 -4.052527 -4.772755 -3.4367151 -5.040867 -3.6495903 -5.6944065 -5.353997
-6.1304727 -5.292377 -4.250885 -5.234395 -4.9653697 -3.4364243 -5.3951373 -4.7953854
-5.0734344 -5.099805 -4.4988275 -5.0891395 -4.961191 -5.1193113 -5.11218 -3.7600925
-4.954078 -5.0566425 -4.8295336 -5.391861 -4.705786 -4.8908687 -4.773649 -3.2119021
-4.978473 -4.7983937 -4.8775992 -4.3603888 -4.774131 -4.9551663 -5.146157 -5.0194564
-3.9058306 -3.9669726 -4.1968336 -4.7325144 -4.2546225 -5.0531864 -5.025081 -3.65611
-3.9788904 -4.8299994 -4.465736 -3.8133378 -4.6613975 -5.344149 -4.8446617 -4.802334
-3.451825 -5.016564 -5.273738 -3.8827784 -5.887398 -5.2163053 -4.279819 -3.8379488
-4.659237 -5.085716 -4.4205794 -5.1846523 -5.5819955 -3.9381511 -6.1042733 -6.0175724
-4.445631 -5.5463066 -5.019321 -5.2594476 -4.4962444 -5.108138 -5.1290154 -5.071257
-4.7271323 -3.6875045 -4.3970523 -4.5590973 -4.8518577 -5.874301 -4.3759975 -5.630724
-5.5503907 -5.4168024 -4.7760477 -4.884798 -5.353444 -4.712423 -5.1723504 -5.4672194
-5.3517017 -4.8997736 -5.1988044 -2.9340165 -5.44965 -4.0818334 -5.816855 -4.449805
-5.0799303 -5.1070952 -5.164417 -5.063676 -4.9988384 -4.450835 -3.6705382 -5.6387763
-5.2941823 -4.2821627 -5.0312643 -4.452699 -4.135629 -4.542306 -5.670534 -3.8806114
-4.9478946 -4.9891367 -5.1266847 -5.4607205 -3.6229308 -5.0992656 -4.4677334 -6.1817837
-5.9763083 -5.039382 -3.078888 -4.814322 -5.1429863 -5.1315556 -5.9595346 -4.8534145
-3.5080554 -4.0065246 -5.182027 -5.328731 -4.4943724 -4.6609006 -4.7736835 -5.557891
-5.3262973 -5.8324585 -5.025425 -5.2000847 -5.4330344 -5.5657816 -4.5891085 -5.364238
-3.895604 -4.678118 -3.8621905 -5.3400817 -4.7632794 -4.755083 -5.575825 -5.4046283
-5.8744025 -3.9802547 -3.684497 -5.7237134 -4.072212 -4.8641257 -3.7120986 -4.3017883
-4.684622 -4.1492286 -5.856269 -5.5264363 -3.822886 -5.137613 -4.1253853 -5.159616
-3.9956524 -3.818682 -4.765837 -4.7711515 -5.994467 -3.5882835 -3.2895317 -4.7823553
-5.648371 -4.70051 -5.189732 -5.5912795 -4.36203 -4.161228 -5.072595 -3.3095229
-5.503752 -3.3197625 -4.92605 -4.7893305 -3.8798585 -5.204489 -4.397393 -6.640686
-5.087007 -4.990177 -4.500608 -5.192424 -4.9674373 -4.0075545 -4.810321 -3.6633785
-4.6930456 -4.2755527 -4.4197526 -4.4108715 -3.4231505 -4.6166844 -5.267865 -4.711974
-4.3017206 -4.090585 -4.8061914 -3.8172772 -4.2093496 -5.5149255 -5.161897 -4.9467807
-5.376891 -4.114034 -5.3301563 -5.0033855 -4.4032655 -4.2853 -4.86055 -5.3235197
-5.568556 -4.589037 -5.185075 -5.8092113 -4.566815 -4.9014487 -4.298253 -4.465998
-5.316403 -5.1637907 -4.7602816 -4.835892 -4.5055323 -5.3819046 -4.495497 -5.211855
00000000: 073f afc0 9d61 aec0 332a 98c0 db75 a1c0
00000010: 6032 b0c0 81fc b8c0 f2b6 afc0 5a35 9cc0
00000020: 625c 8fc0 4dae 81c0 69ba 98c0 24f3 5bc0
00000030: c84e a1c0 e392 69c0 9438 b6c0 f253 abc0
00000040: d52c c4c0 275b a9c0 4007 88c0 2a80 a7c0
00000050: 4fe4 9ec0 60ee 5bc0 f7a4 acc0 cc73 99c0
00000060: 9359 a2c0 9a31 a3c0 65f6 8fc0 3bda a2c0
00000070: 14c2 9ec0 66d1 a3c0 fb96 a3c0 5ba5 70c0
00000080: cf87 9ec0 04d0 a1c0 8a8b 9ac0 208a acc0
00000090: cd95 96c0 ff81 9cc0 bcc1 98c0 ce8f 4dc0
000000a0: a74f 9fc0 718c 99c0 4b15 9cc0 4e88 8bc0
000000b0: aec5 98c0 b990 9ec0 51ad a4c0 639f a0c0
000000c0: 21f9 79c0 e1e2 7dc0 764c 86c0 c270 97c0
000000d0: de25 88c0 b4b3 a1c0 77cd a0c0 b5fd 69c0
000000e0: 24a6 7ec0 5b8f 9ac0 4fe7 8ec0 ba0d 74c0
000000f0: 2b2a 95c0 4503 abc0 7807 9bc0 b8ac 99c0
00000100: b3ea 5cc0 b187 a0c0 76c2 a8c0 717f 78c0
00000110: 9065 bcc0 f9eb a6c0 47f4 88c0 f4a0 75c0
00000120: 7818 95c0 2fbe a2c0 6375 8dc0 ace8 a5c0
00000130: b59f b2c0 ab0a 7cc0 3556 c3c0 f48f c0c0
00000140: 9c42 8ec0 587b b1c0 479e a0c0 654d a8c0
00000150: 3ce1 8fc0 de75 a3c0 e520 a4c0 bd47 a2c0
00000160: ab44 97c0 1300 6cc0 a7b4 8cc0 20e4 91c0
00000170: 6b42 9bc0 46fa bbc0 2c08 8cc0 e42e b4c0
00000180: cd9c b1c0 7256 adc0 62d5 98c0 4450 9cc0
00000190: 6a4f abc0 2bcc 96c0 e583 a5c0 76f3 aec0
000001a0: 2441 abc0 f2ca 9cc0 9b5c a6c0 edc6 3bc0
000001b0: 8863 aec0 619e 82c0 ad23 bac0 cd64 8ec0
000001c0: ca8e a2c0 536d a3c0 e742 a5c0 a209 a2c0
000001d0: 7cf6 9fc0 3e6d 8ec0 19ea 6ac0 db70 b4c0
000001e0: f169 a9c0 7a07 89c0 1e00 a1c0 837c 8ec0
000001f0: 1357 84c0 925a 91c0 0475 b5c0 f05b 78c0
00000200: 2755 9ec0 02a7 9fc0 cd0d a4c0 39be aec0
00000210: 19de 67c0 2f2d a3c0 acf7 8ec0 2cd1 c5c0
00000220: eb3d bfc0 9e42 a1c0 800c 45c0 ed0e 9ac0
00000230: 5893 a4c0 b435 a4c0 82b4 bec0 2c4f 9bc0
00000240: fb83 60c0 7335 80c0 2ad3 a5c0 f784 aac0
00000250: e6d1 8fc0 1926 95c0 04c2 98c0 3eda b1c0
00000260: 0771 aac0 80a3 bac0 48d0 a0c0 1867 a6c0
00000270: 6bdb adc0 e21a b2c0 fad9 92c0 d6a7 abc0
00000280: 9351 79c0 25b3 95c0 212e 77c0 f3e1 aac0
00000290: c96c 98c0 a429 98c0 296d b2c0 b7f2 acc0
000002a0: 1bfb bbc0 7ebc 7ec0 cdce 6bc0 a928 b7c0
000002b0: 904f 82c0 eba6 9bc0 0693 6dc0 40a8 89c0
000002c0: 6ce8 95c0 7bc6 84c0 8e66 bbc0 91d8 b0c0
000002d0: 2aaa 74c0 5367 a4c0 2803 84c0 931b a5c0
000002e0: c5b8 7fc0 4965 74c0 bd81 98c0 46ad 98c0
000002f0: acd2 bfc0 70a6 65c0 b087 52c0 0e09 99c0
00000300: 75bf b4c0 946a 96c0 4912 a6c0 c3eb b2c0
00000310: c095 8bc0 c828 85c0 b352 a2c0 39cf 53c0
00000320: bd1e b0c0 fd76 54c0 34a2 9dc0 3242 99c0
00000330: 9a4f 78c0 2d8b a6c0 72b7 8cc0 8080 d4c0
00000340: c3c8 a2c0 88af 9fc0 fb04 90c0 5628 a6c0
00000350: 3ff5 9ec0 e33d 80c0 26ee 99c0 cb74 6ac0
00000360: 6e2d 96c0 54d1 88c0 9d6e 8dc0 dc25 8dc0
00000370: e614 5bc0 e1bb 93c0 5a92 a8c0 7ec8 96c0
00000380: b2a7 89c0 13e6 82c0 52cc 99c0 454e 74c0
00000390: feb2 86c0 457a b0c0 432e a5c0 074c 9ec0
000003a0: 7e0f acc0 2ba6 83c0 a490 aac0 bc1b a0c0
000003b0: 8de7 8cc0 2d21 89c0 a089 9bc0 465a aac0
000003c0: 9c31 b2c0 64d9 92c0 22ec a5c0 0fe5 b9c0
000003d0: 5923 92c0 abd8 9cc0 4a8b 89c0 75e9 8ec0
000003e0: f91f aac0 c63d a5c0 3a54 98c0 a1bf 9ac0
000003f0: 522d 90c0 9038 acc0 1ddb 8fc0 84c7 a6c0

weight_mu f4 [128, 512]
-0.045513462 0.022477211 -0.018451536 0.009467246 0.034706082 0.015535714 0.005913998 0.31924158
0.029219674 0.107777275 0.010323316 0.18711948 0.2957946 -0.0027015177 -0.4050154 -0.00832514
0.018162027 0.0062591024 -0.061360747 -0.026993603 -0.000639992 -0.061488222 -0.007109066 0.00035968662
-0.014616572 0.031795427 -0.0094795935 0.020873008 0.30156922 0.020146182 -0.0063036624 0.19381325
-0.024543712 0.06935607 -0.35934278 -0.022138437 -0.021411724 -0.024798894 0.012358637 -0.13095397
-0.18909255 0.21276546 -0.02356769 0.055115722 0.011433199 0.037133828 0.4842338 0.015107321
0.0077381935 -0.008183456 -0.15199669 -0.0071199243 0.019189393 0.004463401 -0.20950119 0.02436052
0.19744699 -0.029723411 -0.12629987 -0.032759804 0.013403302 0.011971051 -0.030734183 -0.00015676585
0.04769212 -0.016936408 0.012816877 -0.019896468 0.01877725 -0.018741468 0.18300726 -0.005145301
-0.003141105 -0.0062819086 -0.026334954 0.03745361 0.015473054 0.0040480373 -0.006917679 -0.47258848
0.22719581 -0.0059909155 0.0073892716 -0.02748596 -0.060529675 -0.0067407633 0.011130712 0.31383774
0.006948512 0.26830572 -0.20573498 -0.0771671 0.0019298401 -0.2760658 -0.009373724 7.979745e-05
-0.03199457 -0.17776015 0.0111291325 -0.019140694 -0.019733194 0.008442378 -0.040295728 -0.019424444
0.014152744 -0.14860944 -0.40851754 0.02013237 -0.019869132 -0.026671907 0.03136331 -0.018442808
-0.02085605 0.039412964 -0.21331908 -0.381719 -0.020129202 0.03543137 -0.042230267 0.021348393
-0.35280704 0.023313772 -0.010891773 -0.19503933 0.07015445 -0.022363534 -0.014276417 0.033194784
0.011521486 0.010675611 -0.04617945 0.026073873 -0.049528737 -0.005954858 -0.26511434 -0.04692832
0.4573428 -0.018130628 0.004679195 0.44149488 0.010241359 0.31807187 -0.23254976 -0.00089912827
0.0071511287 0.028266655 0.0060547143 0.0032274702 0.06889144 -0.0018846882 0.032868635 0.059677534
0.0062332605 -0.029660124 0.015723072 0.06256504 -0.3597395 0.25441805 0.02499467 0.033452056
-0.0057292487 -0.016823985 0.15363559 -0.25639525 0.025949087 -0.016090734 0.044764128 -0.20798706
-0.5568512 0.06465876 -0.014218165 -0.44268847 0.023303676 -0.025577556 0.0410255 -0.0037378331
-0.05409693 -0.1654449 0.029135741 -0.029375838 -0.10559632 -0.013381613 0.026076015 0.05604509
-0.1055999 -0.20481622 -0.0046238177 0.4907807 0.37358755 -0.07142067 0.19769874 -0.016743647
-0.010913416 0.03970212 0.0048260866 0.025779089 -0.023821937 0.20709056 -0.17891991 0.1451407
-0.02271065 -0.053282183 0.3216115 -0.018776292 -0.10331647 0.021422537 -0.0002654353 -0.019405393
0.041447405 0.019654635 -0.037485402 -0.31058982 0.27779382 0.030182308 -0.021654423 0.29228827
-0.353762 -0.018933978 -0.0029753658 -0.0015600508 0.2287526 -0.0238147 -0.20339632 -0.2868337
0.036297064 -0.13567044 0.101360396 0.053190313 -0.020099925 0.019189034 0.05216334 0.0047447085
0.00068467483 0.039830994 0.036485665 0.28149527 -0.19265315 0.035120547 0.03513513 -0.24774209
-0.026071856 -0.0068339035 -0.0055326107 0.017697047 -0.2247734 0.029378057 -0.039962284 -0.013823515
0.019911299 0.273912 0.05135231 -0.33562267 0.031493 -0.24503794 0.012925889 -0.005885416
00000000: 536c 3abd 2122 b83c ad27 97bc 821c 1b3c
00000010: f727 0e3d 8289 7e3c 36ca c13b a273 a33e
00000020: 195e ef3c 55ba dc3d 2023 293c 409c 3f3e
00000030: 6472 973e f20b 31bb 2e5e cfbe 2b66 08bc
00000040: 88c8 943c 2819 cd3b 6855 7bbd b021 ddbc
00000050: 23c5 27ba 13db 7bbd 2bf3 e8bb 5294 bc39
00000060: 597a 6fbc ec3b 023d 4c50 1bbc dffd aa3c
00000070: 4867 9a3e 9b09 a53c f48e cebb fb76 463e
00000080: e50f c9bc 8e0a 8e3d c7fb b7be ab5b b5bc
00000090: a467 afbc 0d27 cbbc e17b 4a3c cc18 06be
000000a0: 7aa1 41be 30df 593e 0711 c1bc 06c1 613d
000000b0: 5052 3b3c a419 183d 7eed f73e b284 773c
000000c0: ac90 fd3b e713 06bc 05a5 1bbe 414e e9bb
000000d0: 1333 9d3c b941 923b 7b87 56be b78f c73c
000000e0: 8b2f 4a3e 837e f3bc c154 01be 252f 06bd
000000f0: 8699 5b3c 3a22 443c 41c6 fbbc 8361 24b9
00000100: d058 433d 39be 8abc e1fd 513c ebfd a2bc
00000110: bfd2 993c b587 99bc 4166 3b3e ea99 a8bb
00000120: ffda 4dbb 78d8 cdbb 67bc d7bc f568 193d
00000130: b182 7d3c 66a5 843b b3ad e2bb 1ef7 f1be
00000140: 05a6 683e 714f c4bb b421 f23b 3c2a e1bc
00000150: f7ed 77bd 9fe1 dcbb 975d 363c 57af a03e
00000160: 58b0 e33b 5e5f 893e 31ac 52be c909 9ebd
00000170: b0f2 fc3a 7f58 8dbe 4094 19bc ee58 a738
00000180: bd0c 03bd c206 36be f756 363c f2cc 9cbc
00000190: 82a7 a1bc e651 0a3c 220d 25bd 0320 9fbc
000001a0: e9e0 673c 132d 18be 3629 d1be a4ec a43c
000001b0: 97c4 a2bc 0b7f dabc d076 003d 5f15 97bc
000001c0: 4fda aabc 7d6f 213d 5170 5abe ac70 c3be
000001d0: ffe5 a4bc 7c20 113d a5f9 2cbd d3e2 ae3c
000001e0: 20a3 b4be 86fc be3c 6873 32bc 64b8 47be
000001f0: 23ad 8f3d bb33 b7bc a2e7 69bc 41f7 073d
00000200: 9dc4 3c3c c2e8 2e3c aa26 3dbd e098 d53c
00000210: a5de 4abd f820 c3bb 11bd 87be e937 40bd
00000220: d628 ea3e af86 94bc ef53 993b 9e0b e23e
00000230: 5fcb 273c 51da a23e 8621 6ebe 7ab3 6bba
00000240: 0454 ea3b 798f e73c a066 c63b f783 533b
00000250: f516 8d3d a407 f7ba 43a1 063d 6e70 743d
00000260: 6140 cc3b caf9 f2bc accd 803c 1a22 803d
00000270: c72f b8be 1543 823e 9fc1 cc3c 0605 093d
00000280: 6cbc bbbb 74d2 89bc a652 1d3e 3d46 83be
00000290: 2e93 d43c b7d0 83bc 975a 373d 8ffa 54be
000002a0: cd8d 0ebf d06b 843d 4ef3 68bc 10a8 e2be
000002b0: 5ae7 be3c 0688 d1bc 5b0a 283d 6ff6 74bb
000002c0: be94 5dbd 636a 29be 14ae ee3c 99a5 f0bc
000002d0: e242 d8bd 8e3e 5bbc 5e9d d53c 898f 653d
000002e0: c344 d8bd 58bb 51be 6583 97bb 9c47 fb3e
000002f0: de46 bf3e 0045 92bd 8a71 4a3e f929 89bc
00000300: 2fce 32bc b19e 223d 2624 9e3b ab2e d33c
00000310: 3926 c3bc 8c0f 543e c836 37be c39f 143e
00000320: af0b babc 6b3e 5abd 43aa a43e bdd0 99bc
00000330: 9697 d3bd 517e af3c 1f2a 8bb9 0ff8 9ebc
00000340: c1c4 293d c202 a13c 4b8a 19bd a105 9fbe
00000350: fe3a 8e3e e340 f73c 9e64 b1bc cfa6 953e
00000360: 4b20 b5be 6e1b 9bbc 5bfe 42bb 9e7a ccba
00000370: 1f3e 6a3e 0c17 c3bc 2047 50be dedb 92be
00000380: 3bac 143d 31ed 0abe 0a96 cf3d 16de 593d
00000390: 99a8 a4bc 5232 9d3c 3aa9 553d 8079 9b3b
000003a0: c07b 333a d325 233d fe71 153d 2620 903e
000003b0: de46 45be 90da 0f3d dbe9 0f3d 1ab0 7dbe
000003c0: a594 d5bc f0ee dfbb e74a b5bb 66f9 903c
000003d0: 002b 66be 40aa f03c 7eaf 23bd 067c 62bc
000003e0: 051d a33c 323e 8c3e cd56 523d bcd6 abbe
000003f0: cefe 003d 3aeb 7abe 1cc7 533c 73da c0bb

weight_logvar f4 [128, 512]
-3.218876 -3.218876 -3.218876 -3.218876 -3.218876 -3.218876 -3.218876 -3.218876
-3.218876 -3.218876 -3.218876 -3.218876 -3.218876 -3.218876 -3.218876 -3.218876
-3.218876 -3.218876 -3.218876 -3.218876 -3.218876 -3.218876 -3.218876 -3.218876
-3.218876 -3.218876 -3.218876 -3.218876 -3.218876 -3.218876 -3.218876 -3.218876
-3.218876 -3.218876 -3.218876 -3.218876 -3.218876 -3.218876 -3.218876 -3.218876
-3.218876 -3.218876 -3.218876 -3.218876 -3.218876 -3.218876 -3.2190418 -3.218876
-3.218876 -3.218876 -3.218876 -3.218876 -3.218876 -3.218876 -3.218876 -3.218876
-3.218876 -3.218876 -3.218876 -3.218876 -3.218876 -3.218876 -3.218876 -3.218876
-3.218876 -3.218876 -3.218876 -3.218876 -3.218876 -3.218876 -3.218876 -3.218876
-3.218876 -3.218876 -3.218876 -3.218876 -3.218876 -3.218876 -3.218876 -3.2190363
-3.218876 -3.218876 -3.218876 -3.218876 -3.218876 -3.218876 -3.218876 -3.218876
-3.218876 -3.218876 -3.218876 -3.218876 -3.218876 -3.218876 -3.218876 -3.218876
-3.218876 -3.218876 -3.218876 -3.218876 -3.218876 -3.218876 -3.218876 -3.218876
-3.218876 -3.218876 -3.218876 -3.218876 -3.218876 -3.218876 -3.218876 -3.218876
-3.218876 -3.218876 -3.218876 -3.218876 -3.218876 -3.218876 -3.218876 -3.218876
-3.218876 -3.218876 -3.218876 -3.218876 -3.218876 -3.218876 -3.218876 -3.218876
-3.218876 -3.218876 -3.218876 -3.218876 -3.218876 -3.218876 -3.218876 -3.218876
-3.2188866 -3.218876 -3.218876 -3.218876 -3.218876 -3.218876 -3.218876 -3.218876
-3.218876 -3.218876 -3.218876 -3.218876 -3.218876 -3.218876 -3.218876 -3.218876
-3.218876 -3.218876 -3.218876 -3.218876 -3.218876 -3.218876 -3.218876 -3.218876
-3.218876 -3.218876 -3.218876 -3.218876 -3.218876 -3.218876 -3.218876 -3.218876
-3.2188983 -3.218876 -3.218876 -3.218876 -3.218876 -3.218876 -3.218876 -3.218876
-3.218876 -3.218876 -3.218876 -3.218876 -3.218876 -3.218876 -3.218876 -3.218876
-3.218876 -3.218876 -3.218876 -3.218876 -3.218876 -3.218876 -3.218876 -3.218876
-3.218876 -3.218876 -3.218876 -3.218876 -3.218876 -3.218876 -3.218876 -3.218876
-3.218876 -3.218876 -3.218876 -3.218876 -3.218876 -3.218876 -3.218876 -3.218876
-3.218876 -3.218876 -3.218876 -3.218876 -3.218876 -3.218876 -3.218876 -3.218876
-3.218876 -3.218876 -3.218876 -3.218876 -3.218876 -3.218876 -3.218876 -3.218876
-3.218876 -3.218876 -3.218876 -3.218876 -3.218876 -3.218876 -3.218876 -3.218876
-3.218876 -3.218876 -3.218876 -3.218876 -3.218876 -3.218876 -3.218876 -3.218876
-3.218876 -3.218876 -3.218876 -3.218876 -3.218876 -3.218876 -3.218876 -3.218876
-3.218876 -3.218876 -3.218876 -3.218876 -3.218876 -3.218876 -3.218876 -3.218876
00000000: 1002 4ec0 1002 4ec0 1002 4ec0 1002 4ec0
00000010: 1002 4ec0 1002 4ec0 1002 4ec0 1002 4ec0
00000020: 1002 4ec0 1002 4ec0 1002 4ec0 1002 4ec0
00000030: 1002 4ec0 1002 4ec0 1002 4ec0 1002 4ec0
00000040: 1002 4ec0 1002 4ec0 1002 4ec0 1002 4ec0
00000050: 1002 4ec0 1002 4ec0 1002 4ec0 1002 4ec0
00000060: 1002 4ec0 1002 4ec0 1002 4ec0 1002 4ec0
00000070: 1002 4ec0 1002 4ec0 1002 4ec0 1002 4ec0
00000080: 1002 4ec0 1002 4ec0 1002 4ec0 1002 4ec0
00000090: 1002 4ec0 1002 4ec0 1002 4ec0 1002 4ec0
000000a0: 1002 4ec0 1002 4ec0 1002 4ec0 1002 4ec0
000000b0: 1002 4ec0 1002 4ec0 c804 4ec0 1002 4ec0
000000c0: 1002 4ec0 1002 4ec0 1002 4ec0 1002 4ec0
000000d0: 1002 4ec0 1002 4ec0 1002 4ec0 1002 4ec0
000000e0: 1002 4ec0 1002 4ec0 1002 4ec0 1002 4ec0
000000f0: 1002 4ec0 1002 4ec0 1002 4ec0 1002 4ec0
00000100: 1002 4ec0 1002 4ec0 1002 4ec0 1002 4ec0
00000110: 1002 4ec0 1002 4ec0 1002 4ec0 1002 4ec0
00000120: 1002 4ec0 1002 4ec0 1002 4ec0 1002 4ec0
00000130: 1002 4ec0 1002 4ec0 1002 4ec0 b104 4ec0
00000140: 1002 4ec0 1002 4ec0 1002 4ec0 1002 4ec0
00000150: 1002 4ec0 1002 4ec0 1002 4ec0 1002 4ec0
00000160: 1002 4ec0 1002 4ec0 1002 4ec0 1002 4ec0
00000170: 1002 4ec0 1002 4ec0 1002 4ec0 1002 4ec0
00000180: 1002 4ec0 1002 4ec0 1002 4ec0 1002 4ec0
00000190: 1002 4ec0 1002 4ec0 1002 4ec0 1002 4ec0
000001a0: 1002 4ec0 1002 4ec0 1002 4ec0 1002 4ec0
000001b0: 1002 4ec0 1002 4ec0 1002 4ec0 1002 4ec0
000001c0: 1002 4ec0 1002 4ec0 1002 4ec0 1002 4ec0
000001d0: 1002 4ec0 1002 4ec0 1002 4ec0 1002 4ec0
000001e0: 1002 4ec0 1002 4ec0 1002 4ec0 1002 4ec0
000001f0: 1002 4ec0 1002 4ec0 1002 4ec0 1002 4ec0
00000200: 1002 4ec0 1002 4ec0 1002 4ec0 1002 4ec0
00000210: 1002 4ec0 1002 4ec0 1002 4ec0 1002 4ec0
00000220: 3d02 4ec0 1002 4ec0 1002 4ec0 1002 4ec0
00000230: 1002 4ec0 1002 4ec0 1002 4ec0 1002 4ec0
00000240: 1002 4ec0 1002 4ec0 1002 4ec0 1002 4ec0
00000250: 1002 4ec0 1002 4ec0 1002 4ec0 1002 4ec0
00000260: 1002 4ec0 1002 4ec0 1002 4ec0 1002 4ec0
00000270: 1002 4ec0 1002 4ec0 1002 4ec0 1002 4ec0
00000280: 1002 4ec0 1002 4ec0 1002 4ec0 1002 4ec0
00000290: 1002 4ec0 1002 4ec0 1002 4ec0 1002 4ec0
000002a0: 6e02 4ec0 1002 4ec0 1002 4ec0 1002 4ec0
000002b0: 1002 4ec0 1002 4ec0 1002 4ec0 1002 4ec0
000002c0: 1002 4ec0 1002 4ec0 1002 4ec0 1002 4ec0
000002d0: 1002 4ec0 1002 4ec0 1002 4ec0 1002 4ec0
000002e0: 1002 4ec0 1002 4ec0 1002 4ec0 1002 4ec0
000002f0: 1002 4ec0 1002 4ec0 1002 4ec0 1002 4ec0
00000300: 1002 4ec0 1002 4ec0 1002 4ec0 1002 4ec0
00000310: 1002 4ec0 1002 4ec0 1002 4ec0 1002 4ec0
00000320: 1002 4ec0 1002 4ec0 1002 4ec0 1002 4ec0
00000330: 1002 4ec0 1002 4ec0 1002 4ec0 1002 4ec0
00000340: 1002 4ec0 1002 4ec0 1002 4ec0 1002 4ec0
00000350: 1002 4ec0 1002 4ec0 1002 4ec0 1002 4ec0
00000360: 1002 4ec0 1002 4ec0 1002 4ec0 1002 4ec0
00000370: 1002 4ec0 1002 4ec0 1002 4ec0 1002 4ec0
00000380: 1002 4ec0 1002 4ec0 1002 4ec0 1002 4ec0
00000390: 1002 4ec0 1002 4ec0 1002 4ec0 1002 4ec0
000003a0: 1002 4ec0 1002 4ec0 1002 4ec0 1002 4ec0
000003b0: 1002 4ec0 1002 4ec0 1002 4ec0 1002 4ec0
000003c0: 1002 4ec0 1002 4ec0 1002 4ec0 1002 4ec0
000003d0: 1002 4ec0 1002 4ec0 1002 4ec0 1002 4ec0
000003e0: 1002 4ec0 1002 4ec0 1002 4ec0 1002 4ec0
000003f0: 1002 4ec0 1002 4ec0 1002 4ec0 1002 4ec0

bias_mu f4 [128]
0.74079955 -0.727912 0.015015256 -0.53327173 -0.011816094 -0.14721084 -0.0106907 -0.3359942
-0.14427336 -0.073233165 -0.179048 -0.5846526 -0.47777012 -0.70677346 0.8060482 -0.71240157
-0.012303284 0.7763987 -0.1329556 -0.3846955 -0.6970382 0.7291504 -0.85048854 -0.16391332
-0.0030124064 -0.6438622 -0.3969714 -0.016729211 0.3326882 -0.14656055 0.7448025 -0.029593239
-0.14568466 -0.15192361 -0.6292228 -0.73248583 -0.16600291 -0.16985352 0.9318308 -0.021369027
-0.9846315 -0.0984737 -0.009451805 0.92817914 0.17067513 0.69206554 -0.004995723 -0.65616107
-0.0048709675 -0.6136485 -0.21245432 -1.0103222 -0.6241845 -0.5514538 -0.0094184615 -0.0077891876
-0.01265958 -0.17664818 0.8373911 -0.011467407 -0.6547109 -0.16502103 -0.7613668 -0.15289818
0.7582476 -0.1430618 -0.13188478 -0.15890351 -0.22518325 -0.51701266 -0.15664445 -0.20770028
-0.46724463 -0.52641565 -0.12936729 0.75640506 -0.14371821 -0.008383445 -0.18717176 -0.15618388
0.92246675 -0.14321291 0.6266575 -0.47168267 -0.17141117 -0.16032404 -0.010065679 -0.16264436
-0.009019892 -0.016151864 -0.68501985 -0.13211505 -0.15746951 -0.0038064732 -0.9721483 -0.5989141
-0.01034653 -0.015252974 -0.011436758 -0.1269146 0.38950202 -0.022873636 -0.005713788 0.5972198
-0.18093188 -0.5186113 -0.18271177 -0.011541378 -0.16747643 -0.75730807 -0.79368603 0.7815148
-0.011956136 -0.8147155 -0.012504077 0.9815498 -0.0090205185 -0.13865314 -0.49029666 -0.1540634
-0.008733231 -0.6230762 -0.018998407 -0.14272895 -0.16384208 -0.16588886 -0.009268049 -0.50413436
00000000: 0aa5 3d3f 7158 3abf 8c02 763c 7f84 08bf
00000010: 4a98 41bc 70be 16be 0c28 2fbc 6f07 acbe
00000020: 65bc 13be 45fb 95bd 5c58 37be cbab 15bf
00000030: 499e f4be 1bef 34bf 2d59 4e3f f35f 36bf
00000040: b793 49bc 11c2 463f 8325 08be cff6 c4be
00000050: 1871 32bf 9aa9 3a3f 9eb9 59bf e5d8 27be
00000060: cb6b 45bb 27d4 24bf d63f cbbe b30b 89bc
00000070: 1c56 aa3e f813 16be 60ab 3e3f 856d f2bc
00000080: 5c2e 15be dd91 1bbe bf14 21bf 3184 3bbf
00000090: abfc 29be 15ee 2dbe 778c 6e3f 190e afbc
000000a0: cf10 7cbf 94ac c9bd bedb 1abc 269d 6d3f
000000b0: 76c5 2e3e 352b 313f 29b3 a3bb 2cfa 27bf
000000c0: a39c 9fbb 1118 1dbf a08d 59be 3d52 81bf
000000d0: 8eca 1fbf 142c 0dbf e44f 1abc 713c ffbb
000000e0: 216a 4fbc 43e3 34be 435f 563f cbe1 3bbc
000000f0: 229b 27bf 46fb 28be efe8 42bf 5791 1cbe
00000100: 841c 423f cb7e 12be ce0c 07be 9ab7 22be
00000110: 7096 66be f15a 04bf 6767 20be 62af 54be
00000120: b03a efbe 2dc3 06bf dc78 04be c3a3 413f
00000130: de2a 13be b85a 09bc f4a9 3fbe abee 1fbe
00000140: c826 6c3f 68a6 12be a06c 203f 6480 f1be
00000150: 6986 2fbe fc2b 24be 85ea 24bc 3e8c 26be
00000160: 2bc8 13bc ea50 84bc 765d 2fbf 2b49 07be
00000170: b03f 21be 0676 79bb b6de 78bf 6f52 19bf
00000180: 7e84 29bc 9ce7 79bc 3d61 3bbc e7f5 01be
00000190: cf6c c73e 7e61 bbbc ba3a bbbb 66e3 183f
000001a0: 3546 39be b6c3 04bf cb18 3bbe 0c18 3dbc
000001b0: f17e 2bbe f1de 41bf 022f 4bbf 5b11 483f
000001c0: abe3 43bc 3291 50bf e6dd 4cbc d946 7b3f
000001d0: ccca 13bc 17fb 0dbe 2a08 fbbe ccc2 1dbe
000001e0: d315 0fbc ec81 1fbf 8ca2 9bbc 8a27 12be
000001f0: 38c6 27be c5de 29be 04d9 17bc f30e 01bf

bias_logvar f4 [128]
-3.224945 -3.218876 -3.218876 -3.218876 -3.218876 -3.218876 -3.218876 -3.218876
-3.218876 -3.218876 -3.218876 -3.286878 -3.218876 -3.220755 -3.2222638 -3.219004
-3.218876 -3.2255309 -3.218876 -3.218876 -3.218876 -3.218876 -3.218876 -3.218876
-3.218876 -3.218876 -3.218876 -3.218876 -3.218876 -3.218876 -3.218876 -3.218876
-3.218876 -3.218876 -3.218876 -3.218876 -3.218876 -3.218876 -3.2355313 -3.218876
-3.2302325 -3.218876 -3.218876 -3.2572646 -3.218876 -3.218876 -3.218876 -3.219024
-3.218876 -3.3919954 -3.218876 -3.4001331 -3.218876 -3.218876 -3.218876 -3.218876
-3.218876 -3.218876 -3.2189014 -3.218876 -3.2782574 -3.218876 -3.2443728 -3.218876
-3.218876 -3.218876 -3.218876 -3.218876 -3.218876 -3.218876 -3.218876 -3.218876
-3.218876 -3.218876 -3.218876 -3.218876 -3.218876 -3.218876 -3.218876 -3.218876
-3.2243562 -3.218876 -3.218876 -3.374506 -3.218876 -3.218876 -3.218876 -3.218876
-3.218876 -3.218876 -3.218876 -3.218876 -3.218876 -3.218876 -3.6185558 -3.218876
-3.218876 -3.218876 -3.218876 -3.218876 -3.218876 -3.218876 -3.218876 -3.218876
-3.218876 -3.3017502 -3.218876 -3.218876 -3.218876 -3.218876 -3.218876 -3.224694
-3.218876 -3.2998815 -3.218876 -3.2853303 -3.218876 -3.218876 -3.218876 -3.218876
-3.218876 -3.218876 -3.218876 -3.218876 -3.218876 -3.218876 -3.218876 -3.218876
00000000: 8065 4ec0 1002 4ec0 1002 4ec0 1002 4ec0
00000010: 1002 4ec0 1002 4ec0 1002 4ec0 1002 4ec0
00000020: 1002 4ec0 1002 4ec0 1002 4ec0 365c 52c0
00000030: 1002 4ec0 da20 4ec0 9239 4ec0 2904 4ec0
00000040: 1002 4ec0 196f 4ec0 1002 4ec0 1002 4ec0
00000050: 1002 4ec0 1002 4ec0 1002 4ec0 1002 4ec0
00000060: 1002 4ec0 1002 4ec0 1002 4ec0 1002 4ec0
00000070: 1002 4ec0 1002 4ec0 1002 4ec0 1002 4ec0
00000080: 1002 4ec0 1002 4ec0 1002 4ec0 1002 4ec0
00000090: 1002 4ec0 1002 4ec0 f212 4fc0 1002 4ec0
000000a0: 21bc 4ec0 1002 4ec0 1002 4ec0 0677 50c0
000000b0: 1002 4ec0 1002 4ec0 1002 4ec0 7d04 4ec0
000000c0: 1002 4ec0 7416 59c0 1002 4ec0 c89b 59c0
000000d0: 1002 4ec0 1002 4ec0 1002 4ec0 1002 4ec0
000000e0: 1002 4ec0 1002 4ec0 7b02 4ec0 1002 4ec0
000000f0: f8ce 51c0 1002 4ec0 cea3 4fc0 1002 4ec0
00000100: 1002 4ec0 1002 4ec0 1002 4ec0 1002 4ec0
00000110: 1002 4ec0 1002 4ec0 1002 4ec0 1002 4ec0
00000120: 1002 4ec0 1002 4ec0 1002 4ec0 1002 4ec0
00000130: 1002 4ec0 1002 4ec0 1002 4ec0 1002 4ec0
00000140: da5b 4ec0 1002 4ec0 1002 4ec0 e8f7 57c0
00000150: 1002 4ec0 1002 4ec0 1002 4ec0 1002 4ec0
00000160: 1002 4ec0 1002 4ec0 1002 4ec0 1002 4ec0
00000170: 1002 4ec0 1002 4ec0 6b96 67c0 1002 4ec0
00000180: 1002 4ec0 1002 4ec0 1002 4ec0 1002 4ec0
00000190: 1002 4ec0 1002 4ec0 1002 4ec0 1002 4ec0
000001a0: 1002 4ec0 e04f 53c0 1002 4ec0 1002 4ec0
000001b0: 1002 4ec0 1002 4ec0 1002 4ec0 6361 4ec0
000001c0: 1002 4ec0 4231 53c0 1002 4ec0 da42 52c0
000001d0: 1002 4ec0 1002 4ec0 1002 4ec0 1002 4ec0
000001e0: 1002 4ec0 1002 4ec0 1002 4ec0 1002 4ec0
000001f0: 1002 4ec0 1002 4ec0 1002 4ec0 1002 4ec0

z_mu f4 [128]
0.32226762 0.4222599 0.0023738346 0.15243772 6.5114895e-05 0.0038685808 -0.00021393376 0.008151244
-0.0055157747 0.007070406 0.003788427 1.0630968 0.66918486 0.68908954 0.381393 1.0276252
-0.000114067174 0.32129207 0.008738848 0.2720443 0.3603046 0.28489816 0.45530316 0.004278078
6.366537e-05 0.34119868 0.016505577 -0.00032169218 0.011374074 -0.015516494 0.292542 -0.00018362809
-0.0056349933 0.0031744435 0.40582865 0.71682733 -0.017849214 -0.003934219 0.5515672 0.00030271077
0.53261995 0.004239052 0.00015797479 0.6295199 0.004384711 0.2749918 7.630128e-05 0.6422039
-0.00053882366 0.51155615 -0.0012762054 1.1015913 0.3216539 0.06757957 -0.00011652924 0.00029815175
-0.00031313492 0.0059162118 0.4342232 0.00047553692 0.49491942 0.008749601 0.49632525 0.011061747
0.33393267 -0.0035874646 -0.002330773 0.00052381435 0.0009722494 0.55885726 -0.004483677 0.0011079689
0.31777427 0.35773128 -0.0015011753 0.30572218 0.005287227 0.00023331374 -0.0024222045 -0.0142751075
0.5842672 -0.0054896707 0.20496729 0.7024868 0.0008512647 0.0012092857 3.085472e-05 0.0019654483
-2.049748e-05 -0.00018243391 0.7533654 -0.008524346 -0.0061242175 -0.00013104717 0.6842714 0.14014506
-0.00031936786 2.513268e-05 -0.00032430654 0.014141301 0.024513774 -0.0001761427 -7.382724e-05 0.17886092
-1.3819238e-05 1.0822061 -0.010485396 0.00048402866 0.013651951 0.45093513 0.3184421 0.36378866
-0.00016622653 0.5270482 -4.0590276e-05 0.67139953 -0.00020864162 0.0064860284 0.97843874 0.00740969
0.00013813748 0.38201398 -0.00019367931 -0.011369088 -0.0059049837 -0.0047039813 9.4171686e-05 0.14707983
00000000: 4300 a53e 7332 d83e 5692 1b3b a218 1c3e
00000010: 4b8e 8838 0488 7d3b 6853 60b9 cc8c 053c
00000020: acbd b4bb ddae e73b 4247 783b 8e13 883f
00000030: b34f 2b3f 2c68 303f f145 c33e 3989 833f
00000040: 5937 efb8 6580 a43e 632d 0f3c 6449 8b3e
00000050: d879 b83e 2cde 913e 7f1d e93e 1f2f 8c3b
00000060: 1684 8538 98b1 ae3e b436 873c cba8 a8b9
00000070: 535a 3a3c e538 7ebc 11c8 953e 4a8c 40b9
00000080: c0a5 b8bb 530a 503b c6c8 cf3e ff81 373f
00000090: 8438 92bc 9fea 80bb 8233 0d3f 27b5 9e39
000000a0: c859 083f bfe7 8a3b 09a6 2539 3728 213f
000000b0: 9fad 8f3b bacb 8c3e f003 a038 7a67 243f
000000c0: d83f 0dba 58f5 023f 5946 a7ba f200 8d3f
000000d0: d2af a43e 2867 8a3d 2961 f4b8 4051 9c39
000000e0: 422c a4b9 c8dc c13b 8152 de3e 7c51 f939
000000f0: 1466 fd3e 7d5a 0f3c 581e fe3e 543c 353c
00000100: 39f9 aa3e ab1b 6bbb e2bf 18bb 9650 093a
00000110: 8ede 7e3a 4511 0f3f cfeb 92bb 4439 913a
00000120: 4fb3 a23e 8e28 b73e 16c3 c4ba 9e87 9c3e
00000130: 7a40 ad3b aea5 7439 d9bd 1ebb 24e2 69bc
00000140: 8992 153f b2e2 b3bb f2e2 513e 2dd6 333f
00000150: 6827 5f3a e580 9e3a 016a 0138 c0ce 003b
00000160: 01f2 abb7 bb4b 3fb9 8edc 403f b3a9 0bbc
00000170: a9ad c8bb b569 09b9 692c 2f3f 3082 0f3e
00000180: d470 a7b9 05d4 d237 b007 aab9 eab0 673c
00000190: 1cd1 c83c f2b2 38b9 b3d3 9ab8 5127 373e
000001a0: 2dd9 67b7 bb85 8a3f f0ca 2bbc 3ac5 fd39
000001b0: 6fac 5f3c f8e0 e63e d80a a33e 8242 ba3e
000001c0: 184d 2eb9 a1ec 063f 7a3f 2ab8 d7e0 2b3f
000001d0: cfc6 5ab9 c088 d43b f67a 7a3f fccc f23b
000001e0: ffd8 1039 5697 c33e 6516 4bb9 6945 3abc
000001f0: 987e c1bb db23 9abb 0a7e c538 189c 163e

z_logvar f4 [128]
-5.0808144 -4.1082864 -10.591945 -4.071384 -11.307039 -4.667177 -11.36398 -3.5319092
-4.6374807 -4.209176 -4.15694 -4.53899 -4.3754454 -4.020079 -4.818383 -4.6584716
-10.519735 -4.7309847 -4.824139 -4.3283043 -3.8450384 -4.6163507 -4.2951913 -4.51313
-11.217292 -4.771797 -3.957993 -10.550583 -4.348283 -4.74089 -5.0038166 -9.785529
-4.454286 -4.7991657 -4.444543 -4.3552303 -4.0473795 -4.3334913 -4.817612 -10.515632
-4.9765396 -6.0075336 -10.839931 -4.754156 -4.5069194 -4.6632843 -10.934792 -3.9185207
-10.583632 -5.721625 -3.743862 -4.7534127 -4.0840406 -4.342328 -10.965346 -11.1292095
-11.269601 -3.9914963 -4.9807525 -10.944517 -4.8628116 -4.51851 -5.2881236 -4.8821573
-4.9970174 -4.6507115 -4.7522078 -4.7050247 -3.76559 -3.3312466 -4.209498 -4.312376
-4.452884 -4.7426896 -4.658678 -4.515439 -4.115224 -11.196685 -3.948577 -4.121777
-4.9406943 -4.125459 -4.3017645 -5.0338807 -3.7385516 -4.637009 -11.15175 -4.118379
-11.156474 -11.130317 -4.450891 -4.495856 -4.3113465 -10.915004 -4.9460583 -3.7086208
-10.814815 -11.307917 -11.306521 -4.7504244 -4.530801 -10.857066 -11.218346 -4.4037514
-4.2497067 -5.362808 -4.6230707 -10.651795 -4.216819 -4.908234 -4.091846 -5.140835
-10.7360735 -4.837992 -10.658013 -5.073303 -11.159071 -5.0188856 -3.6599793 -4.442528
-11.161765 -5.0538607 -10.945339 -4.766974 -4.209105 -4.0918436 -11.225209 -4.2452407
00000000: 0896 a2c0 1577 83c0 9b78 29c1 c748 82c0
00000010: a2e9 34c1 8459 95c0 ddd2 35c1 cd0a 62c0
00000020: 3e66 94c0 92b1 86c0 a705 85c0 683f 91c0
00000030: a603 8cc0 7da4 80c0 3230 9ac0 3312 95c0
00000040: d650 28c1 3a64 97c0 595f 9ac0 7881 8ac0
00000050: 1c15 76c0 25b9 93c0 3572 89c0 906b 90c0
00000060: 077a 33c1 90b2 98c0 c24f 7dc0 30cf 28c1
00000070: 2225 8bc0 5fb5 97c0 441f a0c0 8791 1cc1
00000080: 8389 8ec0 c492 99c0 b239 8ec0 0c5e 8bc0
00000090: 2284 81c0 f6ab 8ac0 e129 9ac0 0740 28c1
000000a0: d03f 9fc0 b73d c0c0 5b70 2dc1 0c22 98c0
000000b0: af38 90c0 a039 95c0 e8f4 2ec1 0bc9 7ac0
000000c0: 8f56 29c1 8d17 b7c0 6f9b 6fc0 f51b 98c0
000000d0: 76b0 82c0 5af4 8ac0 0f72 2fc1 3e11 32c1
000000e0: 4950 34c1 ad74 7fc0 5362 9fc0 be1c 2fc1
000000f0: 279c 9bc0 a297 90c0 4f38 a9c0 a23a 9cc0
00000100: 91e7 9fc0 a1d2 94c0 1612 98c0 908f 96c0
00000110: 6dff 70c0 2533 55c0 35b4 86c0 fcfe 89c0
00000120: 077e 8ec0 1dc4 97c0 e413 95c0 7a7e 90c0
00000130: eaaf 83c0 9f25 33c1 7cb5 7cc0 99e5 83c0
00000140: 2b1a 9ec0 c303 84c0 0ea8 89c0 8d15 a1c0
00000150: 6e44 6fc0 6162 94c0 916d 32c1 c3c9 83c0
00000160: eb80 32c1 c715 32c1 b36d 8ec0 0dde 8fc0
00000170: 8df6 89c0 dba3 2ec1 1c46 9ec0 0b5a 6dc0
00000180: 7b09 2dc1 3aed 34c1 83e7 34c1 7a03 98c0
00000190: 52fc 90c0 8bb6 2dc1 587e 33c1 88eb 8cc0
000001a0: 99fd 87c0 209c abc0 32f0 93c0 c16d 2ac1
000001b0: 2ef0 86c0 4110 9dc0 67f0 82c0 b881 a4c0
000001c0: f5c6 2bc1 d5d0 9ac0 3987 2ac1 8058 a2c0
000001d0: 8e8b 32c1 b69a a0c0 1a3d 6ac0 3029 8ec0
000001e0: 9796 32c1 3ab9 a1c0 1c20 2fc1 0d8b 98c0
000001f0: fdb0 86c0 62f0 82c0 759a 33c1 03d9 87c0

weight_mu f4 [2, 128]
0.3823713 -0.44413117 0.077983126 -0.5768676 0.01734929 0.02621119 0.0025159898 -0.18441015
0.042781275 0.082004935 -0.072626255 -0.5601475 -0.38000536 -0.6683496 0.43984097 -0.52631843
0.00814726 0.36293545 0.005198917 -0.3941877 -0.42625272 0.37360027 -0.4898651 -0.021555314
0.027633255 -0.4005662 -0.2632093 0.0017587967 0.23209636 -0.012103358 0.3747771 0.012798376
-0.020216359 -0.008002991 -0.38190156 -0.423437 -0.047622185 -0.0067368182 0.3832116 -0.0118085295
-0.3888462 -0.029626649 0.006235677 0.40706 0.16127223 0.340592 -0.026539385 -0.5369612
-0.015957538 -0.3119206 -0.04364294 -0.5759212 -0.3900554 -0.34586766 0.009265754 -0.038084965
0.0073111397 -0.04915525 0.32933304 -0.027237473 -0.35253015 -0.08748687 -0.3027051 -0.00028275608
0.3734427 0.014479371 -0.010339909 0.013032806 -0.051243708 -0.6389585 0.032276828 -0.056830447
-0.34153762 -0.370311 -0.06557479 0.36153522 -0.047274157 -0.015111182 0.017082272 -0.056114618
0.41225788 0.029720299 0.42248785 -0.37237713 -0.03953857 -0.0143324835 0.033911876 -0.0338627
0.0035835132 0.029667327 -0.5603334 0.01586553 -0.015823493 0.038701337 -0.41062778 -0.39737716
0.039581977 -0.0008739871 0.023669355 -0.05509448 0.26171628 -0.011896595 -0.0008844272 0.31035626
0.049073886 -0.50059575 -0.023507357 0.0061931997 -0.003209099 -0.34401363 -0.43361515 0.3353905
0.020760553 -0.33309066 0.006451239 0.38978013 -0.02049305 -0.06071475 -0.69796044 -0.0024370633
0.015704986 -0.3294465 0.0015779318 -0.047486622 0.006288023 -0.035862833 -0.022239247 -0.42981133
-0.38252807 0.43867433 -0.069095224 0.571574 -0.016370999 -0.027750647 -0.0029068736 0.17315231
-0.04099321 -0.076531835 0.078293696 0.5658956 0.38781062 0.65730816 -0.4410577 0.52311367
-0.007523351 -0.3662077 -0.009251861 0.39365166 0.42152274 -0.3800929 0.48749036 0.029497124
-0.027513498 0.4002231 0.26477543 -0.0011449319 -0.23740411 0.0052835667 -0.38262835 -0.010700497
0.030410547 0.008074531 0.38681534 0.42425027 0.037777595 -0.01021736 -0.3913444 0.011972039
0.38154858 0.01699068 -0.0076316483 -0.4061242 -0.16875753 -0.34753594 0.023374237 0.5345488
0.013062282 0.31470653 0.024976205 0.5751646 0.3875574 0.3431055 -0.007664244 0.042258207
-0.009186412 0.05479489 -0.3229482 0.028294176 0.3497922 0.093543716 0.30341405 -0.0024849703
-0.3747469 -0.0050671156 0.009078028 -0.021032572 0.04871621 0.6249627 -0.022641165 0.050568394
0.34141693 0.37671942 0.066925235 -0.3608195 0.0479359 0.016965287 -0.019153364 0.05733475
-0.413184 -0.023304367 -0.4153902 0.37284845 0.034055505 0.015447389 -0.03562592 0.0317096
0.0019152856 -0.029020537 0.5602692 -0.017533481 0.026152058 -0.040007096 0.4135152 0.4148003
-0.04040155 -0.0029879338 -0.021768993 0.039252035 -0.26283333 0.009357479 -0.0032623252 -0.31646648
-0.04178662 0.49932176 0.026832232 -0.010019542 -0.007938548 0.34536567 0.4279567 -0.33737513
-0.021509567 0.3353369 -0.0017282211 -0.39386478 0.016538901 0.06882405 0.68590015 -0.006151969
-0.017188927 0.33490887 -0.0008206014 0.048794743 -0.018853752 0.038498387 0.023872204 0.42338723
00000000: 2cc6 c33e 2965 e3be 9eb5 9f3d 98ad 13bf
00000010: 1920 8e3c d9b8 d63c 4ee3 243b 04d6 3cbe
00000020: 6b3b 2f3d 34f2 a73d 13bd 94bd d465 0fbf
00000030: 1090 c2be f618 2bbf d632 e13e cebc 06bf
00000040: 167c 053c add2 b93e ad5b aa3b f8d2 c9be
00000050: cc3d dabe 8948 bf3e 99cf fabe c594 b0bc
00000060: 235f e23c 0317 cdbe 5fc3 86be 6d87 e63a
00000070: abaa 6d3e 2a4d 46bc c9e2 bf3e 48b0 513c
00000080: c79c a5bc fa1e 03bc 9a88 c3be bccc d8be
00000090: 7b0f 43bd 87c0 dcbb 5034 c43e 9078 41bc
000000a0: d916 c7be 96b3 f2bc a654 cc3b 2b6a d03e
000000b0: 8c24 253e 1362 ae3e 2069 d9bc 4a76 09bf
000000c0: 62b9 82bc 0fb4 9fbe f1c2 32bd 926f 13bf
000000d0: 57b5 c7be 9115 b1be 64cf 173c fbfe 1bbd
000000e0: 4992 ef3b 0457 49bd 579e a83e 1f21 dfbc
000000f0: d57e b4be 512c b3bd 2afc 9abe e13e 94b9
00000100: e233 bf3e e23a 6d3c b968 29bc 8d87 553c
00000110: ece4 51bd c992 23bf b534 043d 0bc7 68bd
00000120: 05de aebe 6799 bdbe 134c 86bd 251b b93e
00000130: 8ca2 41bd e494 77bc 1ff0 8b3c 71d8 65bd
00000140: 7713 d33e fc77 f33c 5450 d83e 37a8 bebe
00000150: 32f3 21bd cbd2 6abc 2ee7 0a3d 9db3 0abd
00000160: 60d9 6a3b e508 f33c 0272 0fbf 6ef8 813c
00000170: 45a0 81bc 4b85 1e3d ce3d d2be 0575 cbbe
00000180: b620 223d 481c 65ba 3ce6 c13c c0aa 61bd
00000190: adff 853e f0e9 42bc e8d8 67ba 04e7 9e3e
000001a0: b301 493d 0b27 00bf 8092 c0bc 53f0 ca3b
000001b0: bf4f 52bb 8e22 b0be ce02 debe 4eb8 ab3e
000001c0: 0912 aa3c dc8a aabe ea64 d33b 4391 c73e
000001d0: 0ae1 a7bc 08b0 78bd 89ad 32bf 23b7 1fbb
000001e0: bea7 803c 36ad a8be 9bd2 ce3a 5581 42bd
000001f0: c30b ce3b e8e4 12bd 152f b6bc 3b10 dcbe
00000200: b8da c3be ec99 e03e cc81 8dbd ac52 123f
00000210: 791c 86bc 5355 e3bc 3f81 3ebb d74e 313e
00000220: 7fe8 27bd b9bc 9cbd 7258 a03d 89de 103f
00000230: 1d8f c63e 5945 283f 51d2 e1be c7ea 053f
00000240: 7186 f6bb 937f bbbe 1e95 17bc b68c c93e
00000250: d4d1 d73e 899b c2be 5698 f93e f4a3 f13c
00000260: fd63 e1bc 0bea cc3e a590 873e 8a11 96ba
00000270: 101a 73be c521 ad3b dde7 c3be 2351 2fbc
00000280: 8a1f f93c 0a4b 043c a90c c63e 5537 d93e
00000290: aebc 1a3d b766 27bc 4b5e c8be 5f26 443c
000002a0: 565a c33e 0a30 8b3c e812 fabb 83ef cfbe
000002b0: c6ce 2cbe 3bf0 b1be 547b bf3c 31d8 083f
000002c0: 2f03 563c 3721 a13e e69a cc3c fd3d 133f
000002d0: ec6d c63e 86ab af3e 5724 fbbb f116 2d3d
000002e0: 9b82 16bc 9b70 603d 7759 a5be 30c9 e73c
000002f0: f717 b33e d993 bf3d 1659 9b3e e2da 22bb
00000300: d3de bfbe 0c0a a6bb 02bc 143c 804c acbc
00000310: a68a 473d 8efd 1f3f f779 b9bc ce20 4f3d
00000320: 33ce ae3e 5ee1 c03e 1910 893d 55bd b8be
00000330: 6f58 443d c9fa 8a3c 84e7 9cbc d8d7 6a3d
00000340: da8c d3be cde8 bebc 06ae d4be fee5 be3e
00000350: c97d 0b3d 0c17 7d3c 7cec 11bd ede1 013d
00000360: 520a fb3a 7abc edbc cd6d 0f3f 60a2 8fbc
00000370: d73c d63c 7bde 23bd 44b8 d33e b460 d43e
00000380: 187c 25bd 36d1 43bb e354 b2bc bec6 203d
00000390: 1792 86be 1d50 193c bccc 55bb e507 a2be
000003a0: 7228 2bbd 1aa7 ff3e 45cf db3c 0129 24bc
000003b0: af10 02bc c5d3 b03e 241d db3e 6fbc acbe
000003c0: d534 b0bc 47b1 ab3e 7a85 e2ba a5a8 c9be
000003d0: 977c 873c a0f3 8c3d 2797 2f3f 7596 c9bb
000003e0: cbcf 8cbc 2d79 ab3e a11d 57ba ffdc 473d
000003f0: 2f73 9abc 7cb0 1d3d a48f c33c 36c6 d83e

weight_logvar f4 [2, 128]
-4.7675123 -3.707486 0.006096854 -1.9253173 -0.0045967023 -0.045504507 -0.003458287 -0.4128969
-0.07572209 -0.12232659 -0.064762644 -5.2250257 -5.222107 -3.8186631 -4.2636876 -5.4081254
-0.014910665 -4.498889 -0.07486585 -3.5427315 -3.167857 -4.201217 -4.0903444 -0.056971733
-0.0056406977 -4.4584737 -1.2482998 -0.010016552 -1.4638242 -0.05205462 -4.525302 -0.011517112
-0.07119572 -0.07088871 -4.4489875 -5.1975784 -0.049890414 -0.04186743 -5.150695 -0.025266645
-5.466165 -0.049928933 -0.0048592347 -5.46249 -0.7339397 -4.010413 -0.0075849337 -3.6328943
0.003893728 -6.464827 -0.10842187 -5.528234 -3.5751328 -2.1814854 -0.00274104 -0.0024413317
-0.0058581145 -0.008411637 -5.335819 -0.008134568 -5.383652 -0.05073354 -6.195308 -0.027083922
-4.5067577 -0.02315769 -0.06274829 -0.052701354 -0.18323916 -3.18234 -0.05529918 -0.12346083
-4.611274 -4.756974 -0.02201215 -4.6310697 -0.014600493 -0.006515744 -0.10815426 -0.03302456
-5.4473367 -0.05646199 -3.2320561 -6.2428646 -0.080940515 -0.0627772 -0.005509159 -0.04337774
-0.008635089 -0.0038390718 -4.7749777 -0.061615016 -0.04968725 -0.015712723 -5.670869 -2.5338924
-0.008088772 -0.008492785 -0.010314675 -0.044165026 -1.6491995 -0.015984057 0.00309328 -3.5306091
-0.048511177 -6.4474225 -0.0708159 -0.011866287 -0.06892468 -5.384997 -3.1655085 -5.09406
-0.0041708387 -5.7687044 -0.007558604 -5.7772756 -0.008601604 -0.047620703 -3.8587172 -0.033504836
-0.0058963536 -5.183741 -0.006881446 -0.08282585 -0.044736117 -0.03222841 0.00039660448 -2.1510043
-4.6932464 -3.6931167 0.0011575668 -1.8779927 -0.006268927 -0.045381997 -0.011749129 -0.56772614
-0.021036053 -0.08298778 -0.08113607 -4.970443 -5.0056267 -3.787534 -4.2241426 -5.323664
0.0023572543 -4.4849286 -0.023894014 -3.5227475 -3.1391668 -4.145029 -4.150549 -0.06759207
-0.004657032 -4.346417 -1.2396971 -0.00839749 -1.339806 -0.08604621 -4.4684916 -0.023408588
-0.04852215 -0.04919054 -4.408843 -5.1787157 -0.06817701 -0.04857916 -5.0952253 -0.001466567
-5.3543854 -0.024681369 0.00040220862 -5.4956455 -0.7141368 -3.9920356 -0.00052165467 -3.4391825
-0.00899829 -6.420892 -0.06962242 -5.552463 -3.5175261 -2.0347397 -0.0074892817 -0.0032484257
-0.006752578 -0.096202664 -5.2979007 -0.010846601 -5.377075 -0.11787315 -6.2055826 -0.079188235
-4.5156713 -0.081553325 -0.050348524 -0.048319377 -0.19428131 -3.1238315 -0.071233414 -0.16228162
-4.4633164 -4.674122 -0.11634207 -4.5259914 -0.1287776 -0.0033471028 -0.047657408 -0.055271905
-5.453574 -0.041416973 -3.2458606 -6.013865 -0.063111454 -0.04524859 -0.006792993 -0.08035302
-0.0050394083 -0.0078181345 -4.666835 -0.07079581 -0.040815923 0.00960776 -5.7105503 -2.491493
-0.011888793 -0.0042265668 -0.005001365 -0.045539428 -1.5873852 -0.015322828 -0.008537898 -3.5593991
-0.100721896 -6.412316 -0.050352294 -0.0022588233 -0.02310762 -5.35742 -3.3251078 -4.9980497
-0.009636988 -5.8029923 -0.0045012305 -5.714188 -0.005037805 -0.090078354 -3.8867397 -0.054781336
-0.008993302 -5.1540303 -0.014501922 -0.04065803 -0.051870886 -0.09787498 -0.005553419 -2.095446
00000000: 768f 98c0 7347 6dc0 1ec8 c73b cc70 f6bf
00000010: ef9f 96bb ef62 3abd 6ea4 62bb 3967 d3be
00000020: 2f14 9bbd 5d86 fabd 47a2 84bd 6933 a7c0
00000030: 801b a7c0 fa64 74c0 2170 88c0 5d0f adc0
00000040: dd4b 74bc e6f6 8fc0 4453 99bd 1dbc 62c0
00000050: 2bbe 4ac0 5f70 86c0 1ae4 82c0 315b 69bd
00000060: 9ad5 b8bb d1ab 8ec0 4ac8 9fbf 771c 24bc
00000070: 975e bbbf 3a37 55bd 46cf 90c0 45b2 3cbc
00000080: 10cf 91bd 1a2e 91bd 1b5e 8ec0 9052 a6c0
00000090: e459 4cbd 2f7d 2bbd 7ed2 a4c0 fffb cebc
000000a0: d3ea aec0 4882 4cbd 373a 9fbb b8cc aec0
000000b0: 79e3 3bbf 4e55 80c0 098b f8bb 5781 68c0
000000c0: ea2d 7f3b dddf cec0 490c debd 4be7 b0c0
000000d0: face 64c0 759d 0bc0 05a3 33bb c0fe 1fbb
000000e0: 6df5 bfbb f6d0 09bc 07bf aac0 da46 05bc
000000f0: e146 acc0 f9cd 4fbd f73f c6c0 1adf ddbc
00000100: 5c37 90c0 32b5 bdbc 2d82 80bd 60dd 57bd
00000110: 0ca3 3bbe 75ab 4bc0 6581 62bd 08d9 fcbd
00000120: 8e8f 93c0 2239 98c0 d352 b4bc b931 94c0
00000130: e836 6fbc 0682 d5bb fb7f ddbd c344 07bd
00000140: 9550 aec0 b044 67bd 02da 4ec0 8cc5 c7c0
00000150: 24c4 a5bd 5591 80bd 2d86 b4bb dbac 31bd
00000160: 307a 0dbc f098 7bbb 9ecc 98c0 0760 7cbd
00000170: dc84 4bbd f8b7 80bc c277 b5c0 4b2b 22c0
00000180: c586 04bc 5225 0bbc e2fe 28bc 63e6 34bd
00000190: f818 d3bf fff0 82bc a0b8 4a3b 80f5 61c0
000001a0: a8b3 46bd 4951 cec0 ed07 91bd d16a 42bc
000001b0: 6228 8dbd e551 acc0 b197 4ac0 8a02 a3c0
000001c0: 88ab 88bb 3a99 b8c0 2aae f7bb 71df b8c0
000001d0: beed 0cbc ed0d 43bd 39f5 76c0 5e3c 09bd
000001e0: 3336 c1bb 35e1 a5c0 c17d e1bb 99a0 a9bd
000001f0: 383d 37bd f001 04bd 5aef cf39 0eaa 09c0
00000200: 132f 96c0 065c 6cc0 7fb9 973a 1162 f0bf
00000210: 926b cdbb 79e2 39bd 6b7f 40bc 8056 11bf
00000220: cd53 acbc 7ff5 a9bd ab2a a6bd de0d 9fc0
00000230: 182e a0c0 f566 72c0 2d2c 87c0 755b aac0
00000240: 2a7c 1a3b 8984 8fc0 61bd c3bc b274 61c0
00000250: 1ce8 48c0 14a4 84c0 4cd1 84c0 b66d 8abd
00000260: 049a 98bb d915 8bc0 65ae 9ebf a095 09bc
00000270: c37e abbf ff38 b0bd e2fd 8ec0 5ec3 bfbc
00000280: 29bf 46bd 057c 49bd 3e15 8dc0 0ab8 a5c0
00000290: 63a0 8bbd f1fa 46bd 160c a3c0 d339 c0ba
000002a0: 2057 abc0 9530 cabc 87df d239 54dc afc0
000002b0: abd1 36bf 837d 7fc0 a7bf 08ba 911b 5cc0
000002c0: 906d 13bc f277 cdc0 3396 8ebd c7ad b1c0
000002d0: 261f 61c0 2d39 02c0 a668 f5bb 8ae3 54bb
000002e0: bb44 ddbb e705 c5bd 6788 a9c0 f1b5 31bc
000002f0: 0011 acc0 7a67 f1bd 2294 c6c0 712d a2bd
00000300: 6180 90c0 6e05 a7bd 413a 4ebd 8aea 45bd
00000310: aef1 46be dbec 47c0 d3e2 91bd 272d 26be
00000320: 7dd3 8ec0 6892 95c0 c044 eebd ecd4 90c0
00000330: 46de 03be 115b 5bbb 6a34 43bd cb64 62bd
00000340: ae83 aec0 d8a4 29bd 2ebc 4fc0 9571 c0c0
00000350: 9440 81bd 9656 39bd c197 debb 2090 a4bd
00000360: 9f21 a5bb a217 00bc b656 95c0 65fd 90bd
00000370: 992e 27bd de69 1d3c d4bc b6c0 9f74 1fc0
00000380: 36c9 42bc 037f 8abb 7ee2 a3bb 8d87 3abd
00000390: 702f cbbf 990c 7bbc 8ae2 0bbc 32cd 63c0
000003a0: 4847 cebd b131 cdc0 353e 4ebd c408 14bb
000003b0: 314c bdbc fc6f abc0 91ce 54c0 06f0 9fc0
000003c0: 75e4 1dbc 1db2 b9c0 0f7f 93bb a1da b6c0
000003d0: 2c14 a5bb 007b b8bd 58c0 78c0 6562 60bd
000003e0: a458 13bc d1ed a4c0 7899 6dbc 0989 26bd
000003f0: 9176 54bd ad72 c8bd 74f9 b5bb ca1b 06c0

bias_mu f4 [2]
0.8528776 -0.8508303
00000000: 3056 5a3f 04d0 59bf

bias_logvar f4 [2]
-6.7609177 -6.692866
00000000: 7059 d8c0 f52b d6c0
