metric/probe_cifar100_distill_trial2_seed0.pth (torch, 539721 bytes, 12 tensors)

z_mu f4 [512]
-0.00069851143 -0.0003590863 -2.9092591e-05 -2.4437322e-06 -6.34206e-05 -0.0002967617 -0.0007379405 -0.00053768774
-0.000293336 0.0001022428 0.6829334 -0.00012007513 0.00011437362 0.0003280564 0.5619587 1.5717841
-0.0011723525 -2.3169248e-05 0.9482784 -0.0004192844 -0.00010380699 -6.2325635e-05 0.00016640275 -0.0031686411
-0.00042854127 1.9220784e-05 0.18964037 0.6466954 0.00033482048 -0.00077916426 -5.5124012e-05 -3.445793e-05
-0.00045103725 0.00043865165 0.59033203 0.00010679977 -0.00022529389 -0.00086941203 -0.0001425169 0.0031291095
-0.00049623125 1.0200788e-05 0.0019922499 -6.3069536e-05 -6.3418315e-06 4.679178e-05 -6.163466e-05 0.00043912526
0.00056416815 -0.0018830249 -0.00023043754 -0.0009227148 0.00042923706 -0.00042889317 -0.0026560922 -0.00013100468
0.0008149202 3.2593107e-05 0.27995464 0.00044916966 -0.00026903927 0.0006658882 0.00016560989 -0.0006463021
-0.00022973474 0.0002246033 0.0005070458 0.00022886496 -0.00017057004 -0.00029381152 1.0384202 -4.5690285e-05
-2.8125958e-05 0.54313844 -0.00020442526 -0.0009859845 0.00057044206 0.00023080206 -5.6808454e-05 0.00022178543
0.5176088 -0.0006160276 0.00010660594 -6.0108483e-05 0.00020793203 0.00042144008 0.01610218 -7.96361e-05
0.00014562755 0.0056295716 -0.00011594731 -5.2417807e-05 0.00024802386 0.00024173435 0.00014715243 0.00011631045
0.38108844 0.000109937755 0.0018739763 0.048469435 5.8251273e-05 0.00023009614 0.0009710789 0.0002446324
0.00024399502 -6.635548e-05 -4.0997224e-06 -0.00010807899 -4.468384e-05 0.0003351217 0.00026558244 -9.642818e-05
0.000107927466 -0.00024995778 0.00056227273 -0.00024042054 0.00016939483 2.7534248e-05 -0.00038068244 0.000798778
-0.012852236 -0.00016187421 0.00012277829 0.00013204505 0.0030961486 0.00032266203 -0.00035254657 -0.00038095168
-3.0882875e-05 5.4383767e-05 0.4389099 -0.00029474654 -0.0004274977 -0.00011484242 0.01942585 0.00031037064
0.000556731 -0.00017346446 0.00011061176 -3.1597592e-05 0.00020823911 0.5649668 0.4346671 0.00011723899
0.00018969252 -0.00015885374 -0.0001532417 -0.0006914556 0.00031423505 -6.2151965e-05 0.000980177 -0.00032809953
0.8241884 0.00033654104 -1.1097978e-05 0.02211609 0.00013123923 0.00016109193 0.00020446704 0.541452
0.0001587907 0.00013022471 -0.00021833958 0.0010994441 0.0929228 -3.6449186e-05 0.00011725288 -2.9571993e-05
0.0004492497 -0.00022183069 -0.00046724052 -0.000824206 0.00014693319 -0.00012904716 -0.0010845801 0.0002778631
-0.000533417 1.594729e-05 -0.001343747 5.9681664e-05 1.5451398e-05 -7.277216e-05 0.0002026274 0.007109752
0.00038217872 0.00095395854 0.0007156742 2.7227243e-05 -0.00025741875 -9.124629e-06 9.526333e-05 5.073126e-05
6.117956e-05 -0.004966674 0.00017914998 -0.00014761109 0.0004937185 0.0003457517 0.0005386256 0.58987147
4.661853e-05 -0.00013555931 0.00012413913 -0.00012360206 -0.000373507 0.00024476062 0.00024134656 -0.00031314837
0.8025555 5.6323635e-05 9.555367e-05 -0.00039397384 0.00070290733 -4.1071457e-05 -0.00013123832 0.0001483555
0.000855695 4.092718e-06 -0.0004507276 -0.000109282984 0.00012319494 0.0005775502 9.048626e-06 -4.2572356e-05
0.00012275756 0.00017832137 0.0035360113 -0.0010050307 4.6891433e-05 0.0007340684 0.9164522 -0.0012066573
-0.0002034627 0.05086549 0.082935534 -0.00044021543 -0.0005082535 -0.00034402744 -0.000607655 -0.00023708874
-0.00026202408 -0.00020944347 -0.00027882273 -0.00044500545 -0.0011745415 -3.920724e-05 9.049841e-05 3.3141834e-05
-0.0003340821 0.9295109 -0.00055511517 -0.00015357212 2.9644682 0.0002186415 -0.0006907614 0.0038838878
00000000: 4f1c 37ba bf43 bcb9 dd0b f4b7 00ff 23b6
00000010: ad00 85b8 ae96 9bb9 5972 41ba 9df3 0cba
00000020: e4ca 99b9 2f6b d638 b9d4 2e3f d8d0 fbb8
00000030: dfdb ef38 fcfe ab39 86dc 0f3f 3930 c93f
00000040: 9fa9 99ba 955b c2b7 60c2 723f 66d3 dbb9
00000050: f4b2 d9b8 d2b4 82b8 667c 2e39 faa8 4fbb
00000060: d6ad e0b9 523c a137 1631 423e d48d 253f
00000070: d88a af39 d440 4cba f534 67b8 ec86 10b8
00000080: 3279 ecb9 d4fa e539 0020 173f b1f9 df38
00000090: de3c 6cb9 41e9 63ba 9770 15b9 bf11 4d3b
000000a0: 8415 02ba 0d24 2b37 6890 023b 3344 84b8
000000b0: ebcb d4b6 4b42 4438 db41 81b8 653a e639
000000c0: afe4 133a d5cf f6ba 9ba1 71b9 58e2 71ba
000000d0: 390b e139 11dd e0b9 d511 2ebb 4d5e 09b9
000000e0: 5ea0 553a 95b4 0838 3756 8f3e 887e eb39
000000f0: d70d 8db9 008f 2e3a 91a7 2d39 9a6c 29ba
00000100: f3e4 70b9 7d83 6b39 45eb 043a 78fb 6f39
00000110: 0cdb 32b9 b70a 9ab9 f4ea 843f 92a3 3fb8
00000120: 09f0 ebb7 1f0b 0b3f fd5a 56b9 263c 81ba
00000130: b889 153a 7503 7239 9d45 6eb8 138f 6839
00000140: 0382 043f ea7c 21ba a191 df38 fe1c 7cb8
00000150: 5408 5a39 bbf4 dc39 b8e8 833c 4e02 a7b8
00000160: 99b3 1839 4578 b83b bd28 f3b8 31db 5bb8
00000170: 3309 8239 127a 7d39 ee4c 1a39 b3eb f338
00000180: 061e c33e 628e e638 36a0 f53a e387 463d
00000190: d452 7438 f645 7139 0090 7e3a 0142 8039
000001a0: ead8 7f39 5428 8bb8 5990 89b6 77a8 e2b8
000001b0: e86a 3bb8 46b3 af39 df3d 8b39 7c39 cab8
000001c0: 1e57 e238 c40c 83b9 7c65 133a 6619 7cb9
000001d0: 949f 3139 59f9 e637 5596 c7b9 1665 513a
000001e0: 2f92 52bc c7bc 29b9 0cbe 0039 9375 0a39
000001f0: c1e8 4a3b f72a a939 00d6 b8b9 78ba c7b9
00000200: 3c88 01b8 201a 6438 ccb8 e03e 3688 9ab9
00000210: c521 e0b9 8ed7 f0b8 f622 9f3c 3eb9 a239
00000220: 96f1 113a 03e4 35b9 3df8 e738 a887 04b8
00000230: c35a 5a39 aaa1 103f b08c de3e 34de f538
00000240: 33e8 4639 fa91 26b9 81af 20b9 cd42 35ba
00000250: eabf a439 9557 82b8 4879 803a c604 acb9
00000260: 03fe 523f c671 b039 7431 3ab7 cd2c b53c
00000270: 439d 0939 c9ea 2839 3466 5639 999c 0a3f
00000280: 0e81 2639 ee8c 0839 16f2 64b9 391b 903a
00000290: 4f4e be3d 04e1 18b8 a9e5 f538 5f11 f8b7
000002a0: 4689 eb39 399b 68b9 f6f7 f4b9 870f 58ba
000002b0: 1412 1a39 d550 07b9 7828 8eba 27ae 9139
000002c0: 02d5 0bba 8bc6 8537 ab20 b0ba b352 7a38
000002d0: a09d 8137 429d 98b8 6178 5439 ecf8 e83b
000002e0: 295f c839 1313 7a3a 159c 3b3a 0f66 e437
000002f0: 29f6 86b9 fc15 19b7 1cc8 c738 47c8 5438
00000300: 874d 8038 7bbf a2bb 35da 3b39 0dc8 1ab9
00000310: e36c 013a 0246 b539 8d32 0d3a d101 173f
00000320: 4488 4338 ed24 0eb9 582b 0239 2d9b 01b9
00000330: 43d3 c3b9 3753 8039 f911 7d39 102e a4b9
00000340: 4774 4d3f 0b3d 6c38 fc63 c838 468e ceb9
00000350: 5043 383a 2444 2cb8 059d 09b9 e08f 1b39
00000360: b850 603a 2e54 8936 a24f ecb9 db2e e5b8
00000370: e42d 0139 bd66 173a 8ecf 1737 b88f 32b8
00000380: 7bb8 0039 c7fb 3a39 6dbc 673b 3cbb 83ba
00000390: 4bad 4438 7f6e 403a 9d9c 6a3f b328 9eba
000003a0: 9a58 55b9 5558 503d 1bda a93d b7cc e6b9
000003b0: 513c 05ba 955e b4b9 094b 1fba 069b 78b9
000003c0: 4760 89b9 0e9e 5bb9 f42e 92b9 9f4f e9b9
000003d0: 13f3 99ba 7472 24b8 f7c9 bd38 c601 0b38
000003e0: be27 afb9 6df4 6d3f 2685 11ba 3408 21b9
000003f0: d9b9 3d40 2143 6539 3614 35ba d388 7e3b

z_logvar f4 [512]
-7.7721887 -7.825678 -8.803827 -8.51946 -7.8718777 -8.337148 -4.5107145 -6.084084
-5.6711383 -8.030009 -2.87707 -5.241381 -8.470296 -8.134592 -2.9726255 -2.674215
-6.7869654 -7.7964416 -3.594867 -8.170321 -8.690793 -7.3152714 -6.6685977 -4.6603928
-6.968657 -8.394249 -3.334305 -3.2988803 -8.258561 -6.809256 -8.19664 -8.42282
-8.251356 -7.703371 -3.9556048 -8.701503 -8.327884 -6.5444393 -8.459937 -5.7441382
-8.871875 -8.194339 -5.9209323 -8.516175 -7.6284637 -7.588922 -8.271293 -6.1662555
-5.1849256 -5.642426 -7.7418113 -7.947703 -7.6796412 -8.630136 -3.9916239 -8.25096
-7.7512636 -7.8010826 -3.2404113 -8.040065 -5.664635 -7.590494 -8.336706 -7.6520414
-8.197396 -8.342288 -8.46226 -8.108669 -7.963473 -7.0494184 -2.2250679 -7.5787864
-8.200699 -4.489779 -6.753024 -5.8400497 -7.902519 -7.571165 -8.280487 -6.7057033
-2.367007 -8.030083 -8.869934 -8.376773 -9.003743 -8.390204 -3.6354563 -8.798005
-8.76679 -4.4444265 -8.027766 -8.136449 -8.647317 -8.227517 -7.8851557 -8.240811
-3.8062646 -8.338871 -6.9314604 -2.7746446 -7.7510095 -6.424666 -6.6015606 -6.565709
-8.181168 -8.525588 -8.434621 -7.9269223 -8.412361 -7.408517 -8.282216 -8.393471
-8.2810755 -8.3657465 -7.2072926 -7.570491 -8.494246 -8.751547 -7.8491607 -5.8101883
-5.3280687 -8.071508 -8.551476 -8.248043 -5.581906 -7.2409544 -8.462596 -8.470267
-8.591234 -8.667488 -2.4613063 -7.69034 -8.598483 -8.800036 -4.4444194 -7.684061
-6.044245 -7.636123 -6.6851897 -8.199144 -7.1011868 -2.4125233 -2.7917035 -7.1469135
-7.952859 -8.165792 -7.655954 -5.808866 -8.256762 -8.457042 -6.7214746 -8.50397
-2.5108893 -7.734478 -8.224894 -3.7678008 -8.8720255 -5.8882303 -8.641406 -3.3850195
-8.736853 -8.460628 -8.028231 -7.9277797 -3.2456675 -7.3137054 -8.199934 -8.590763
-8.105707 -7.8981857 -7.983511 -8.230432 -8.6665745 -8.318972 -6.1855226 -8.699051
-8.390517 -8.266331 -7.185057 -8.334622 -8.472812 -7.6205306 -8.220039 -3.7058437
-8.007355 -7.9394946 -7.5907874 -8.718336 -8.200986 -7.7236543 -7.5840507 -8.598074
-7.9886436 -5.152641 -8.396625 -8.406478 -8.513884 -7.77727 -8.522414 -3.1346633
-8.567752 -7.913046 -8.214644 -8.1451645 -7.540949 -8.33922 -8.247893 -7.6376905
-2.984343 -6.9264736 -8.613853 -8.709983 -8.0997715 -8.186102 -8.239958 -8.448218
-8.033429 -8.537866 -7.1801896 -8.231974 -8.739366 -6.061677 -8.83194 -8.5956955
-8.369428 -8.569461 -4.6306634 -6.2771053 -8.58228 -8.517807 -2.983507 -6.567797
-8.599664 -3.4833963 -2.6518385 -6.7477245 -8.102009 -7.859642 -8.266061 -6.927275
-8.043659 -7.750371 -7.968678 -7.8891582 -6.9483824 -8.435491 -8.626284 -8.237987
-7.3946404 -3.2163272 -7.4949327 -8.210911 -1.7207818 -8.652231 -6.00487 -5.1334033
00000000: c5b5 f8c0 f46b fac0 7adc 0cc1 b54f 08c1
00000010: 6ce6 fbc0 f564 05c1 c657 90c0 d1b0 c2c0
00000020: f779 b5c0 eb7a 00c1 ea21 38c0 65b9 a7c0
00000030: 5586 07c1 4a27 02c1 7f3f 3ec0 5726 2bc0
00000040: d22e d9c0 737c f9c0 4d12 66c0 a3b9 02c1
00000050: 7d0d 0bc1 b416 eac0 2765 d5c0 f021 95c0
00000060: 3dff dec0 d84e 06c1 4165 55c0 db20 53c0
00000070: 1123 04c1 6de5 d9c0 7025 03c1 dfc3 06c1
00000080: 8e05 04c1 0482 f6c0 a128 7dc0 5b39 0bc1
00000090: 033f 05c1 0c6c d1c0 e75b 07c1 fbcf b7c0
000000a0: 33f3 0dc1 031c 03c1 4778 bdc0 4142 08c1
000000b0: 601c f4c0 73d8 f2c0 3757 04c1 f751 c5c0
000000c0: e9ea a5c0 c18e b4c0 ebbc f7c0 9553 fec0
000000d0: 9fbf f5c0 0915 0ac1 c476 7fc0 ef03 04c1
000000e0: 5a0a f8c0 78a2 f9c0 e662 4fc0 1ba4 00c1
000000f0: b144 b5c0 54e5 f2c0 2663 05c1 86dd f4c0
00000100: 8928 03c1 037a 05c1 6b65 07c1 1cbd 01c1
00000110: c5d4 fec0 d694 e1c0 8367 0ec0 6b85 f2c0
00000120: 1036 03c1 45ac 8fc0 c618 d8c0 b0e1 bac0
00000130: 70e1 fcc0 fc46 f2c0 e07c 04c1 1f95 d6c0
00000140: 0b7d 17c0 387b 00c1 40eb 0dc1 4307 06c1
00000150: 550f 10c1 473e 06c1 51ab 68c0 a1c4 0cc1
00000160: c644 0cc1 be38 8ec0 bb71 00c1 e52e 02c1
00000170: 695b 0ac1 e9a3 03c1 3253 fcc0 5dda 03c1
00000180: d799 73c0 046c 05c1 86ce ddc0 c793 31c0
00000190: 4508 f8c0 dd96 cdc0 fc3f d3c0 4a1a d2c0
000001a0: 10e6 02c1 cf68 08c1 35f4 06c1 59a9 fdc0
000001b0: 0899 06c1 9212 edc0 f583 04c1 a84b 06c1
000001c0: 497f 04c1 19da 05c1 24a2 e6c0 7641 f2c0
000001d0: 6ee8 07c1 5606 0cc1 532c fbc0 10ed b9c0
000001e0: 8a7f aac0 e624 01c1 d8d2 08c1 fcf7 03c1
000001f0: f99e b2c0 e6b5 e7c0 cb66 07c1 3786 07c1
00000200: b275 09c1 08ae 0ac1 0b86 1dc0 4417 f6c0
00000210: 6393 09c1 f3cc 0cc1 af38 8ec0 d4e3 f5c0
00000220: 746a c1c0 1f5b f4c0 13ed d5c0 b22f 03c1
00000230: ec3c e3c0 c866 1ac0 45ab 32c0 84b3 e4c0
00000240: d27d fec0 16a7 02c1 93fd f4c0 3be2 b9c0
00000250: b21b 04c1 0b50 07c1 5216 d7c0 4310 08c1
00000260: 69b2 20c0 d880 f7c0 2a99 03c1 a623 71c0
00000270: d1f3 0dc1 626c bcc0 3343 0ac1 29a4 58c0
00000280: 26ca 0bc1 bb5e 07c1 a273 00c1 5fb0 fdc0
00000290: 04b9 4fc0 e009 eac0 ee32 03c1 c473 09c1
000002a0: fab0 01c1 f0bd fcc0 ec78 ffc0 d9af 03c1
000002b0: 4aaa 0ac1 821a 05c1 cdef c5c0 502f 0bc1
000002c0: 8f3f 06c1 e442 04c1 fdeb e5c0 9d5a 05c1
000002d0: a390 07c1 63db f3c0 4885 03c1 8b2c 6dc0
000002e0: 201e 00c1 5710 fec0 bbe7 f2c0 4e7e 0bc1
000002f0: 3d37 03c1 2d28 f7c0 8bb0 f2c0 b691 09c1
00000300: f8a2 ffc0 6fe2 a4c0 9358 06c1 ef80 06c1
00000310: de38 08c1 65df f8c0 cf5b 08c1 539e 48c0
00000320: 8315 09c1 ac37 fdc0 2f6f 03c1 9852 02c1
00000330: 744f f1c0 726d 05c1 5ff7 03c1 f667 f4c0
00000340: 7aff 3ec0 aca5 ddc0 58d2 09c1 175c 0bc1
00000350: aa98 01c1 46fa 02c1 ded6 03c1 e72b 07c1
00000360: ed88 00c1 199b 08c1 1dc4 e5c0 2ab6 03c1
00000370: 71d4 0bc1 42f9 c1c0 a04f 0dc1 f887 09c1
00000380: 2de9 05c1 831c 09c1 652e 94c0 0cde c8c0
00000390: 0551 09c1 f048 08c1 c7f1 3ec0 652b d2c0
000003a0: 3998 09c1 f7ef 5ec0 b9b7 29c0 5ced d7c0
000003b0: d4a1 01c1 3082 fbc0 c941 04c1 3dac ddc0
000003c0: d4b2 00c1 0a03 f8c0 69ff fec0 fc73 fcc0
000003d0: 2659 dec0 c5f7 06c1 4205 0ac1 cbce 03c1
000003e0: e5a0 ecc0 4ed8 4dc0 7dd6 efc0 e45f 03c1
000003f0: 9442 dcbf 8a6f 0ac1 e527 c0c0 d744 a4c0

weight_mu f4 [128, 512]
-0.00054681156 -0.00036436765 -0.00082188525 0.000624415 -0.00030928277 0.00023928536 -0.00046065767 0.0005586167
6.0134927e-05 -0.00044770798 -0.0054597543 0.00028137385 -0.00015766745 0.000954638 -0.0039932597 -0.004619783
-0.00096931966 0.0005103773 -0.0035113103 -0.00046898448 -0.00036879475 0.00032947547 -0.00024359356 0.00034179777
0.00069834234 8.987393e-05 -0.0001137712 -0.008299194 -0.00015325076 0.0006595058 0.0006086985 -0.00021285641
-0.00015984311 -9.2089314e-05 -0.001819048 4.900943e-05 0.00011055977 -0.00041446733 0.0005273941 -0.0001930549
-0.00012227039 -0.00048075995 -0.0006393803 0.0002978573 4.7112713e-05 -0.00088916515 -0.0002005867 0.00033586755
-0.00059876736 0.0008023276 8.2039565e-05 0.0001609003 -8.6587046e-05 0.000117997595 0.0007591329 0.00035707987
0.00013915235 5.336953e-05 -0.00090292905 0.00011329447 -0.00022675817 -0.00014479081 -9.290191e-05 -7.060005e-05
-0.00024174928 -0.00035117622 0.00057130476 -0.00077179476 0.00019881722 -0.00074231665 -0.0018033086 8.029357e-05
-6.697185e-05 -0.003022953 -0.00031833875 -0.0002276019 -0.00021503343 0.000109457535 0.00038195637 -0.0009912739
0.0012640859 -0.00045757473 -0.00063704205 0.00039669665 -0.00015836731 0.00017217039 -0.0031940513 -0.00016283648
0.00077157683 -0.0011232718 -0.00013277131 0.0004806701 0.00017302383 -0.000153604 -0.0015601747 -0.00041102341
0.000610467 -8.9500696e-05 -0.001573486 -0.0016121205 -0.00011161471 0.0010348188 0.00044051374 0.0001375863
0.00025588516 -9.6022006e-05 0.00018873485 -0.0001466727 0.00022114531 0.00028297774 -0.0017155804 -0.00014290723
0.00013051623 0.00010218018 0.00028430912 -0.0002817288 -0.00087482773 -0.00018269764 -0.00042875903 0.0011588094
-3.0870982e-05 6.430605e-05 0.0015464014 5.384434e-05 0.0010938062 0.0009574316 0.00011986178 0.0009042593
-0.001738493 -0.00016747897 -0.0015733534 -0.00011889464 -0.00024279524 0.0010560121 -0.0014499407 0.0010217279
-0.00046635838 -4.445367e-05 2.8820365e-05 0.00045106973 -0.0003081132 0.00084278843 -0.0005616498 -0.00049378496
-0.00036388106 1.14383e-05 -0.0019832524 -9.300755e-05 0.00020340536 -0.00021349326 0.00033878567 -0.000423672
-0.0019018425 -0.00012994275 -0.00040697344 -0.0019740507 0.00021458836 -0.0001611722 -0.00014654941 -0.0073248064
6.298747e-06 -8.6141175e-05 -0.00038177165 -1.2934022e-05 -0.0012800912 -0.00035453972 -0.00017134228 -0.0001397004
0.0007291569 -0.00076942606 -3.1587453e-05 -0.00083964004 -0.00046478678 0.0005561508 -0.00021193043 -0.00061687065
-0.00032426583 -3.5961057e-05 -0.00020671816 0.0002380495 -0.00091662054 0.0007952518 -0.00052578276 -0.00019440305
-0.0011261065 -0.0005271615 0.00019223227 0.00012544269 -8.1451624e-05 0.00015332844 0.00013576083 -4.1829666e-05
0.00045371594 0.0018401252 -0.0001148837 0.00062758767 -0.0001044462 -0.00040704827 -0.00053886155 -0.0008792743
0.00016704554 0.00031715166 -0.0007620656 -0.00055965036 -0.00033111745 -0.0008537547 0.00038659567 2.7715365e-05
-0.00012066114 -0.0011172412 0.00021416198 0.00035783424 -0.0003109274 0.0004653576 -1.5017468e-05 -0.0004256725
-2.0410478e-05 -0.0004519018 -0.0009079696 -8.233215e-05 0.00026013658 4.2001626e-05 0.0005732485 0.00077064923
-0.0003326341 -9.3538954e-05 -0.0014373979 -0.0009746975 -0.00095198816 -0.00028400053 -0.0059242076 -0.0013463518
-0.00037790768 -0.0005808601 -0.0017328989 0.00015340367 2.366727e-05 -0.00044743568 0.0011187961 0.0002891307
-0.00020901804 0.00014071372 0.00037444575 -0.0006514512 -0.0018390871 -0.0002783879 0.00036896626 -0.00033934967
-0.00044509268 -0.005518154 -0.0007936843 -0.0006454788 -0.0051173614 -0.0004440007 -0.00012841118 0.00036774998
00000000: e757 0fba 9908 bfb9 c973 57ba c8af 233a
00000010: 3b27 a2b9 ade8 7a39 6d84 f1b9 2270 123a
00000020: 6339 7c38 59ba eab9 bde7 b2bb 5c85 9339
00000030: 8953 25b9 ac40 7a3a e4d9 82bb 8c61 97bb
00000040: f119 7eba d7ca 053a 031e 66bb 08e2 f5b9
00000050: cb5a c1b9 73bd ac39 266d 7fb9 5233 b339
00000060: f610 373a b37a bc38 7398 eeb8 58f9 07bc
00000070: f0b1 20b9 afe2 2c3a 1191 1f3a 3532 5fb9
00000080: 8f9b 27b9 1320 c1b8 1f6d eeba 7a8f 4d38
00000090: 53dc e738 dd4c d9b9 d240 0a3a c86e 4ab9
000000a0: b535 00b9 820e fcb9 169c 27ba bb29 9c39
000000b0: e49a 4538 dd16 69ba 9554 52b9 6117 b039
000000c0: 99f6 1cba 4b53 523a a80c ac38 58b7 2839
000000d0: 1196 b5b8 7a75 f738 8c00 473a 7336 bb39
000000e0: 6de9 1139 19d9 5f38 8bb2 6cba 8198 ed38
000000f0: efc5 6db9 fdd2 17b9 55d4 c2b8 1d0f 94b8
00000100: 147e 7db9 131e b8b9 9dc3 153a 4552 4aba
00000110: 9779 5039 0798 42ba ff5c ecba 4863 a838
00000120: 3d73 8cb8 bc1c 46bb b4e6 a6b9 6ba8 6eb9
00000130: 997a 61b9 918c e538 5141 c839 a2ed 81ba
00000140: afaf a53a a4e6 efb9 2bff 26ba b9fb cf39
00000150: 670f 26b9 a388 3439 4a53 51bb 16bf 2ab9
00000160: a543 4a3a bf3a 93ba 8738 0bb9 7302 fc39
00000170: bb6d 3539 c310 21b9 c77e ccba a17e d7b9
00000180: bf07 203a 52b2 bbb8 6e3d ceba ca4d d3ba
00000190: b112 eab8 c2a2 873a c1f4 e639 0b45 1039
000001a0: 5328 8639 6c5f c9b8 20e7 4539 27cc 19b9
000001b0: 3ee3 6739 a15c 9439 53dd e0ba 5ed9 15b9
000001c0: 2fdb 0839 9149 d638 530f 9539 00b5 93b9
000001d0: b254 65ba 8692 3fb9 10cb e0b9 31e3 973a
000001e0: 777b 01b8 0cdc 8638 9fb0 ca3a ebd6 6138
000001f0: 0c5e 8f3a 26fc 7a3a 4e5e fb38 d00b 6d3a
00000200: 25de e3ba 4b9d 2fb9 fb38 ceba 1357 f9b8
00000210: da96 7eb9 e369 8a3a f00b beba 80eb 853a
00000220: 9081 f4b9 c473 3ab8 43c3 f137 8e7d ec39
00000230: 418a a1b9 93ee 5c3a ae3b 13ba 5971 01ba
00000240: 4ac7 beb9 20e7 3f37 74f9 01bb 0c0d c3b8
00000250: 3649 5539 29dd 5fb9 0b9f b139 4b20 deb9
00000260: 3f47 f9ba 3e41 08b9 0d5f d5b9 135f 01bb
00000270: 2003 6139 5500 29b9 0fab 19b9 ee04 f0bb
00000280: d359 d336 b1a6 b4b8 8628 c8b9 34ff 58b7
00000290: bcc8 a7ba 84e1 b9b9 58aa 33b9 8a7c 12b9
000002a0: e424 3f3a 4fb3 49ba c57c 04b8 4a1b 5cba
000002b0: a0ae f3b9 a6ca 113a a439 5eb9 7db5 21ba
000002c0: 3902 aab9 e4d4 16b8 7cc2 58b9 ed9c 7939
000002d0: 5d49 70ba 7278 503a afd4 09ba acd8 4bb9
000002e0: dd99 93ba 3631 0aba f591 4939 4489 0339
000002f0: 02d1 aab8 cac6 2039 055b 0e39 4372 2fb8
00000300: b9e0 ed39 5b30 f13a b7ed f0b8 b284 243a
00000310: 200a dbb8 1869 d5b9 6342 0dba 197f 66ba
00000320: f228 2f39 6047 a639 5bc5 47ba 80b5 12ba
00000330: d599 adb9 82ce 5fba feaf ca39 4b7e e837
00000340: 750b fdb8 6570 92ba ab90 6039 b39b bb39
00000350: f803 a3b9 3dfb f339 89f3 7bb7 cc2c dfb9
00000360: 2b37 abb7 3ced ecb9 cf04 6eba bda9 acb8
00000370: f162 8839 e72a 3038 0e46 163a 6505 4a3a
00000380: 6565 aeb9 582a c4b8 1267 bcba d882 7fba
00000390: d88e 79ba e8e5 94b9 db1f c2bb 1278 b0ba
000003a0: e921 c6b9 dd44 18ba 7022 e3ba fcda 2039
000003b0: 1389 c637 cd95 eab9 91a4 923a 7796 9739
000003c0: da2b 5bb9 8d8c 1339 4251 c439 26c6 2aba
000003d0: 860d f1ba 97f4 91b9 d071 c139 beea b1b9
000003e0: 545b e9b9 a1d1 b4bb 400f 50ba 5935 29ba
000003f0: 8aaf a7bb c4c8 e8b9 1da6 06b9 91ce c039

weight_logvar f4 [128, 512]
-3.218876 -3.218876 -3.218876 -3.218876 -3.218876 -3.218876 -3.218876 -3.218876
-3.218876 -3.218876 -3.218876 -3.218876 -3.218876 -3.218876 -3.218876 -3.218876
-3.218876 -3.218876 -3.218876 -3.218876 -3.218876 -3.218876 -3.218876 -3.218876
-3.218876 -3.218876 -3.218876 -3.218876 -3.218876 -3.218876 -3.218876 -3.218876
-3.218876 -3.218876 -3.218876 -3.218876 -3.218876 -3.218876 -3.218876 -3.218876
-3.218876 -3.218876 -3.218876 -3.218876 -3.218876 -3.218876 -3.218876 -3.218876
-3.218876 -3.218876 -3.218876 -3.218876 -3.218876 -3.218876 -3.218876 -3.218876
-3.218876 -3.218876 -3.218876 -3.218876 -3.218876 -3.218876 -3.218876 -3.218876
-3.218876 -3.218876 -3.218876 -3.218876 -3.218876 -3.218876 -3.218876 -3.218876
-3.218876 -3.218876 -3.218876 -3.218876 -3.218876 -3.218876 -3.218876 -3.218876
-3.218876 -3.218876 -3.218876 -3.218876 -3.218876 -3.218876 -3.218876 -3.218876
-3.218876 -3.218876 -3.218876 -3.218876 -3.218876 -3.218876 -3.218876 -3.218876
-3.218876 -3.218876 -3.218876 -3.218876 -3.218876 -3.218876 -3.218876 -3.218876
-3.218876 -3.218876 -3.218876 -3.218876 -3.218876 -3.218876 -3.218876 -3.218876
-3.218876 -3.218876 -3.218876 -3.218876 -3.218876 -3.218876 -3.218876 -3.218876
-3.218876 -3.218876 -3.218876 -3.218876 -3.218876 -3.218876 -3.218876 -3.218876
-3.218876 -3.218876 -3.218876 -3.218876 -3.218876 -3.218876 -3.218876 -3.218876
-3.218876 -3.218876 -3.218876 -3.218876 -3.218876 -3.218876 -3.218876 -3.218876
-3.218876 -3.218876 -3.218876 -3.218876 -3.218876 -3.218876 -3.218876 -3.218876
-3.218876 -3.218876 -3.218876 -3.218876 -3.218876 -3.218876 -3.218876 -3.218876
-3.218876 -3.218876 -3.218876 -3.218876 -3.218876 -3.218876 -3.218876 -3.218876
-3.218876 -3.218876 -3.218876 -3.218876 -3.218876 -3.218876 -3.218876 -3.218876
-3.218876 -3.218876 -3.218876 -3.218876 -3.218876 -3.218876 -3.218876 -3.218876
-3.218876 -3.218876 -3.218876 -3.218876 -3.218876 -3.218876 -3.218876 -3.218876
-3.218876 -3.218876 -3.218876 -3.218876 -3.218876 -3.218876 -3.218876 -3.218876
-3.218876 -3.218876 -3.218876 -3.218876 -3.218876 -3.218876 -3.218876 -3.218876
-3.218876 -3.218876 -3.218876 -3.218876 -3.218876 -3.218876 -3.218876 -3.218876
-3.218876 -3.218876 -3.218876 -3.218876 -3.218876 -3.218876 -3.218876 -3.218876
-3.218876 -3.218876 -3.218876 -3.218876 -3.218876 -3.218876 -3.218876 -3.218876
-3.218876 -3.218876 -3.218876 -3.218876 -3.218876 -3.218876 -3.218876 -3.218876
-3.218876 -3.218876 -3.218876 -3.218876 -3.218876 -3.218876 -3.218876 -3.218876
-3.218876 -3.218876 -3.218876 -3.218876 -3.218876 -3.218876 -3.218876 -3.218876
00000000: 1002 4ec0 1002 4ec0 1002 4ec0 1002 4ec0
00000010: 1002 4ec0 1002 4ec0 1002 4ec0 1002 4ec0
00000020: 1002 4ec0 1002 4ec0 1002 4ec0 1002 4ec0
00000030: 1002 4ec0 1002 4ec0 1002 4ec0 1002 4ec0
00000040: 1002 4ec0 1002 4ec0 1002 4ec0 1002 4ec0
00000050: 1002 4ec0 1002 4ec0 1002 4ec0 1002 4ec0
00000060: 1002 4ec0 1002 4ec0 1002 4ec0 1002 4ec0
00000070: 1002 4ec0 1002 4ec0 1002 4ec0 1002 4ec0
00000080: 1002 4ec0 1002 4ec0 1002 4ec0 1002 4ec0
00000090: 1002 4ec0 1002 4ec0 1002 4ec0 1002 4ec0
000000a0: 1002 4ec0 1002 4ec0 1002 4ec0 1002 4ec0
000000b0: 1002 4ec0 1002 4ec0 1002 4ec0 1002 4ec0
000000c0: 1002 4ec0 1002 4ec0 1002 4ec0 1002 4ec0
000000d0: 1002 4ec0 1002 4ec0 1002 4ec0 1002 4ec0
000000e0: 1002 4ec0 1002 4ec0 1002 4ec0 1002 4ec0
000000f0: 1002 4ec0 1002 4ec0 1002 4ec0 1002 4ec0
00000100: 1002 4ec0 1002 4ec0 1002 4ec0 1002 4ec0
00000110: 1002 4ec0 1002 4ec0 1002 4ec0 1002 4ec0
00000120: 1002 4ec0 1002 4ec0 1002 4ec0 1002 4ec0
00000130: 1002 4ec0 1002 4ec0 1002 4ec0 1002 4ec0
00000140: 1002 4ec0 1002 4ec0 1002 4ec0 1002 4ec0
00000150: 1002 4ec0 1002 4ec0 1002 4ec0 1002 4ec0
00000160: 1002 4ec0 1002 4ec0 1002 4ec0 1002 4ec0
00000170: 1002 4ec0 1002 4ec0 1002 4ec0 1002 4ec0
00000180: 1002 4ec0 1002 4ec0 1002 4ec0 1002 4ec0
00000190: 1002 4ec0 1002 4ec0 1002 4ec0 1002 4ec0
000001a0: 1002 4ec0 1002 4ec0 1002 4ec0 1002 4ec0
000001b0: 1002 4ec0 1002 4ec0 1002 4ec0 1002 4ec0
000001c0: 1002 4ec0 1002 4ec0 1002 4ec0 1002 4ec0
000001d0: 1002 4ec0 1002 4ec0 1002 4ec0 1002 4ec0
000001e0: 1002 4ec0 1002 4ec0 1002 4ec0 1002 4ec0
000001f0: 1002 4ec0 1002 4ec0 1002 4ec0 1002 4ec0
00000200: 1002 4ec0 1002 4ec0 1002 4ec0 1002 4ec0
00000210: 1002 4ec0 1002 4ec0 1002 4ec0 1002 4ec0
00000220: 1002 4ec0 1002 4ec0 1002 4ec0 1002 4ec0
00000230: 1002 4ec0 1002 4ec0 1002 4ec0 1002 4ec0
00000240: 1002 4ec0 1002 4ec0 1002 4ec0 1002 4ec0
00000250: 1002 4ec0 1002 4ec0 1002 4ec0 1002 4ec0
00000260: 1002 4ec0 1002 4ec0 1002 4ec0 1002 4ec0
00000270: 1002 4ec0 1002 4ec0 1002 4ec0 1002 4ec0
00000280: 1002 4ec0 1002 4ec0 1002 4ec0 1002 4ec0
00000290: 1002 4ec0 1002 4ec0 1002 4ec0 1002 4ec0
000002a0: 1002 4ec0 1002 4ec0 1002 4ec0 1002 4ec0
000002b0: 1002 4ec0 1002 4ec0 1002 4ec0 1002 4ec0
000002c0: 1002 4ec0 1002 4ec0 1002 4ec0 1002 4ec0
000002d0: 1002 4ec0 1002 4ec0 1002 4ec0 1002 4ec0
000002e0: 1002 4ec0 1002 4ec0 1002 4ec0 1002 4ec0
000002f0: 1002 4ec0 1002 4ec0 1002 4ec0 1002 4ec0
00000300: 1002 4ec0 1002 4ec0 1002 4ec0 1002 4ec0
00000310: 1002 4ec0 1002 4ec0 1002 4ec0 1002 4ec0
00000320: 1002 4ec0 1002 4ec0 1002 4ec0 1002 4ec0
00000330: 1002 4ec0 1002 4ec0 1002 4ec0 1002 4ec0
00000340: 1002 4ec0 1002 4ec0 1002 4ec0 1002 4ec0
00000350: 1002 4ec0 1002 4ec0 1002 4ec0 1002 4ec0
00000360: 1002 4ec0 1002 4ec0 1002 4ec0 1002 4ec0
00000370: 1002 4ec0 1002 4ec0 1002 4ec0 1002 4ec0
00000380: 1002 4ec0 1002 4ec0 1002 4ec0 1002 4ec0
00000390: 1002 4ec0 1002 4ec0 1002 4ec0 1002 4ec0
000003a0: 1002 4ec0 1002 4ec0 1002 4ec0 1002 4ec0
000003b0: 1002 4ec0 1002 4ec0 1002 4ec0 1002 4ec0
000003c0: 1002 4ec0 1002 4ec0 1002 4ec0 1002 4ec0
000003d0: 1002 4ec0 1002 4ec0 1002 4ec0 1002 4ec0
000003e0: 1002 4ec0 1002 4ec0 1002 4ec0 1002 4ec0
000003f0: 1002 4ec0 1002 4ec0 1002 4ec0 1002 4ec0

bias_mu f4 [128]
-0.016943233 -0.0020803644 -0.014199315 -0.027955625 -0.053049367 -0.0011070829 -0.003446882 0.2717854
-0.02255058 -0.2386842 -0.113379225 -0.18520302 -0.11692768 -0.14418912 -0.24339503 -0.003712528
0.0005976165 -0.0067891334 -0.0017804743 -0.009038209 0.00066155946 -0.19984646 0.002657745 -0.001956469
-0.010153027 -0.13326922 -0.0014662184 -0.20185608 0.00036942473 -0.058490846 -0.0010260715 -0.0046172743
-0.0025127693 -0.0022702657 -0.019774681 -0.00087451946 -0.16339123 -0.007830533 -0.033737715 -0.1798811
-0.001373476 -0.0022731374 -0.036478963 -0.0005782338 -0.0057893973 -0.0403381 -0.0030622315 -0.0008003458
-0.011931837 -0.100063495 -0.00049272226 -0.0019936461 0.0011459416 -0.5145099 -0.0103587 -0.01189488
0.4822283 -0.010203757 0.4486352 -0.011540857 -0.003262431 -0.00062260113 0.0013377997 -0.15499981
0.0007431267 -0.062441316 -0.0021659152 -0.20467795 -0.0026915735 -0.0012730875 -0.001682342 -0.000981155
-0.00077857997 -0.0029975923 -0.0016187966 0.16090448 -0.008234785 -0.0038025256 -0.0015762607 0.00030089237
-0.0022704022 -0.009988709 -0.002178355 -0.004537661 -0.07527797 0.00017552335 -0.1875606 -0.0038378795
-0.09198556 -0.03365356 -0.001184208 -0.001053288 -0.0033304626 -0.18090509 -0.3067203 -0.0012012591
-0.014298237 -0.07111844 -0.0044339667 0.5838745 -0.0056226007 -0.031667616 -0.00087306567 -0.111304045
0.0007455387 -0.07381399 -0.0011221396 -0.010655748 -0.108547695 -0.09302363 -0.0006777888 -0.005757932
-0.18498017 -0.025812034 -0.043206498 -0.00094978063 -0.062947236 -0.017629854 -0.0015188801 -0.0020386982
-0.007722889 -0.0031268685 -0.010662259 0.0008157722 0.18107946 -0.00029119325 0.00555528 0.00017748127
00000000: 89cc 8abc b956 08bb 3ea4 68bc 3203 e5bc
00000010: 4b4a 59bd 8a1b 91ba 15e5 61bb 7527 8b3e
00000020: febb b8bc a269 74be 5e33 e8bd dca5 3dbe
00000030: c877 efbd 50a6 13be 8c3c 79be e24d 73bb
00000040: 5da9 1c3a 6177 debb ce5e e9ba ff14 14bc
00000050: 816c 2d3a 8da4 4cbe 902d 2e3b 1a38 00bb
00000060: e258 26bc ba77 08be 202e c0ba 5cb3 4ebe
00000070: 59af c139 1994 6fbd 3f7d 86ba 814c 97bb
00000080: 46ad 24bb bdc8 14bb 83fe a1bc 0240 65ba
00000090: 0850 27be a34b 00bc 8f30 0abd c032 38be
000000a0: 3506 b4ba ebf8 14bb f76a 15bd 9d94 17ba
000000b0: fcb4 bdbb 9039 25bd b8af 48bb 4cce 51ba
000000c0: c07d 43bc 17ee ccbd 082a 01ba d5a7 02bb
000000d0: 6b33 963a ecb6 03bf 89b7 29bc bee2 42bc
000000e0: a1e6 f63e a92d 27bc 83b3 e53e dd15 3dbc
000000f0: 82ce 55bb 0e36 23ba 1c59 af3a 45b8 1ebe
00000100: 63ce 423a 77c2 7fbd 07f2 0dbb 1997 51be
00000110: 1c65 30bb badd a6ba 0882 dcba 199a 80ba
00000120: 9e19 4cba 4173 44bb cd2d d4ba 25c4 243e
00000130: 31eb 06bc cb33 79bb 889a ceba 17c1 9d39
00000140: 07cb 14bb afa7 23bc bbc2 0ebb a9b0 94bb
00000150: 562b 9abd b10c 3839 e30f 40be ef84 7bbb
00000160: ed62 bcbd 51d8 09bd 6d37 9bba 7b0e 8aba
00000170: e443 5abb 2f3f 39be 710a 9dbe 9173 9dba
00000180: 2743 6abc 8ba6 91bd cf4a 91bb cd78 153f
00000190: cb3d b8bb e7b5 01bd 72de 64ba 60f3 e3bd
000001a0: 4170 433a ca2b 97bd c214 93ba 7295 2ebc
000001b0: 414e debd 2c83 bebd a3ad 31ba 09ad bcbb
000001c0: 716b 3dbe c273 d3bc 4cf9 30bd b3fa 78ba
000001d0: 7bea 80bd 7c6c 90bc 2915 c7ba ae9b 05bb
000001e0: 4a10 fdbb 26ec 4cbb c1b0 2ebc 8cd9 553a
000001f0: e56c 393e 4cab 98b9 1109 b63b 441a 3a39

bias_logvar f4 [128]
-3.218876 -3.218876 -3.218876 -3.218876 -3.218876 -3.218876 -3.218876 -3.732688
-3.218876 -3.218876 -3.218876 -3.218876 -3.218876 -3.218876 -3.218876 -3.218876
-3.218876 -3.218876 -3.218876 -3.218876 -3.218876 -3.218876 -3.218876 -3.218876
-3.218876 -3.218876 -3.218876 -3.218876 -3.218876 -3.218876 -3.218876 -3.218876
-3.218876 -3.218876 -3.218876 -3.218876 -3.218876 -3.218876 -3.218876 -3.218876
-3.218876 -3.218876 -3.218876 -3.218876 -3.218876 -3.218876 -3.218876 -3.218876
-3.218876 -3.218876 -3.218876 -3.218876 -3.218876 -3.7165666 -3.218876 -3.218876
-4.0113363 -3.218876 -3.9237065 -3.218876 -3.218876 -3.218876 -3.218876 -3.218876
-3.218876 -3.218876 -3.218876 -3.218876 -3.218876 -3.218876 -3.218876 -3.218876
-3.218876 -3.218876 -3.218876 -3.218876 -3.218876 -3.218876 -3.218876 -3.218876
-3.218876 -3.218876 -3.218876 -3.218876 -3.8823614 -3.218876 -3.218876 -3.218876
-3.218876 -3.218876 -3.218876 -3.218876 -3.218876 -3.218876 -4.2872233 -3.218876
-3.218876 -3.218876 -3.218876 -4.4256206 -3.218876 -3.218876 -3.218876 -3.218876
-3.218876 -3.218876 -3.218876 -3.218876 -3.218876 -3.218876 -3.218876 -3.218876
-3.218876 -3.218876 -3.218876 -3.218876 -3.218876 -3.218876 -3.218876 -3.218876
-3.218876 -3.218876 -3.218876 -3.218876 -3.6864977 -3.218876 -3.218876 -3.218876
00000000: 1002 4ec0 1002 4ec0 1002 4ec0 1002 4ec0
00000010: 1002 4ec0 1002 4ec0 1002 4ec0 5ce4 6ec0
00000020: 1002 4ec0 1002 4ec0 1002 4ec0 1002 4ec0
00000030: 1002 4ec0 1002 4ec0 1002 4ec0 1002 4ec0
00000040: 1002 4ec0 1002 4ec0 1002 4ec0 1002 4ec0
00000050: 1002 4ec0 1002 4ec0 1002 4ec0 1002 4ec0
00000060: 1002 4ec0 1002 4ec0 1002 4ec0 1002 4ec0
00000070: 1002 4ec0 1002 4ec0 1002 4ec0 1002 4ec0
00000080: 1002 4ec0 1002 4ec0 1002 4ec0 1002 4ec0
00000090: 1002 4ec0 1002 4ec0 1002 4ec0 1002 4ec0
000000a0: 1002 4ec0 1002 4ec0 1002 4ec0 1002 4ec0
000000b0: 1002 4ec0 1002 4ec0 1002 4ec0 1002 4ec0
000000c0: 1002 4ec0 1002 4ec0 1002 4ec0 1002 4ec0
000000d0: 1002 4ec0 3adc 6dc0 1002 4ec0 1002 4ec0
000000e0: de5c 80c0 1002 4ec0 021e 7bc0 1002 4ec0
000000f0: 1002 4ec0 1002 4ec0 1002 4ec0 1002 4ec0
00000100: 1002 4ec0 1002 4ec0 1002 4ec0 1002 4ec0
00000110: 1002 4ec0 1002 4ec0 1002 4ec0 1002 4ec0
00000120: 1002 4ec0 1002 4ec0 1002 4ec0 1002 4ec0
00000130: 1002 4ec0 1002 4ec0 1002 4ec0 1002 4ec0
00000140: 1002 4ec0 1002 4ec0 1002 4ec0 1002 4ec0
00000150: 9c78 78c0 1002 4ec0 1002 4ec0 1002 4ec0
00000160: 1002 4ec0 1002 4ec0 1002 4ec0 1002 4ec0
00000170: 1002 4ec0 1002 4ec0 ef30 89c0 1002 4ec0
00000180: 1002 4ec0 1002 4ec0 1002 4ec0 af9e 8dc0
00000190: 1002 4ec0 1002 4ec0 1002 4ec0 1002 4ec0
000001a0: 1002 4ec0 1002 4ec0 1002 4ec0 1002 4ec0
000001b0: 1002 4ec0 1002 4ec0 1002 4ec0 1002 4ec0
000001c0: 1002 4ec0 1002 4ec0 1002 4ec0 1002 4ec0
000001d0: 1002 4ec0 1002 4ec0 1002 4ec0 1002 4ec0
000001e0: 1002 4ec0 1002 4ec0 1002 4ec0 1002 4ec0
000001f0: 94ef 6bc0 1002 4ec0 1002 4ec0 1002 4ec0

z_mu f4 [128]
-0.000119902026 1.6792808e-05 0.00028597677 0.0004937769 0.0008995644 7.821862e-05 -2.4648249e-05 1.1189944
0.0011109153 0.00452756 0.0007134155 0.002283134 0.0012226946 -2.7410852e-05 0.00037975668 1.5604228e-05
-3.2896965e-05 -0.00016596018 6.50979e-05 -0.00014422547 0.000112721515 -0.0055689155 -1.3934942e-06 -0.00012176904
-0.00018949946 -0.0029791994 0.00015679316 -0.009880337 2.0295258e-05 0.00085430645 7.1762486e-05 -0.0005722278
9.2088514e-05 4.3607248e-05 0.0011217493 3.2709784e-05 0.0032792003 -0.00012406425 0.0014294351 -0.0034116195
-2.0701926e-05 -6.3680214e-05 0.44974643 1.9586143e-06 0.00025124787 -0.00026020675 0.00024202956 2.2553446e-05
0.00079675997 -0.0010191369 -4.011479e-05 -5.0681258e-05 2.1769305e-05 1.4303652 -0.00020345823 -0.00054075755
1.1967258 0.00044949286 0.8713896 1.3061373e-05 -0.000113803566 -3.6646754e-05 -2.7472006e-05 0.005598355
3.7984519e-06 -0.00013103188 6.1740146e-05 -0.0056581483 6.087214e-06 3.868139e-05 -1.5509444e-05 3.2966822e-05
-2.2285198e-05 2.3922741e-05 -4.5829993e-06 0.46733373 3.7398462e-05 -6.845656e-05 -0.00014338829 -2.9849875e-06
4.8187107e-05 -0.00036635186 -0.00013658441 -1.13421975e-05 1.3310747 -3.1073614e-05 -0.008620298 3.020511e-05
0.0019164237 -0.00043792647 -2.8300741e-05 3.0204455e-06 0.0001589172 0.004145362 1.113943 2.1951382e-06
0.0003245413 -0.0023692832 -0.0001600475 1.2203703 8.867604e-05 0.0022646221 5.5194498e-05 -0.005502896
-3.566898e-06 0.00061674695 4.9456063e-05 0.00052303966 -0.0002050157 -0.0019562452 -3.9527953e-05 2.8780452e-05
-0.005543343 0.00034070745 -0.0008391626 2.3746717e-05 -0.0007963981 0.00074973586 2.0199906e-05 3.156779e-05
0.00013344387 -6.8804206e-05 0.00035945966 -2.1312794e-06 0.91744494 -8.505885e-06 2.2039105e-05 7.2002085e-06
00000000: e973 fbb8 48de 8c37 27ef 9539 cf70 013a
00000010: bfd0 6b3a 4d09 a438 b6c3 ceb7 353b 8f3f
00000020: 229c 913a ed5b 943b 8104 3b3a a2a0 153b
00000030: d342 a03a 5bf0 e5b7 141a c739 d3e5 8237
00000040: d9fa 09b8 9905 2eb9 2b85 8838 3b3b 17b9
00000050: e764 ec38 737b b6bb 1908 bbb5 415e ffb8
00000060: 60b4 46b9 ac3e 43bb d868 2439 23e1 21bc
00000070: bc3f aa37 89f3 5f3a 317f 9638 8f01 16ba
00000080: a51f c138 ede6 3638 a907 933a dd31 0938
00000090: dae7 563b 3e17 02b9 e25b bb3a 7a95 5fbb
000000a0: 0ca9 adb7 0e8c 85b8 2a45 e63e bd70 0336
000000b0: ebb9 8339 5c6c 88b9 51c9 7d39 2831 bd37
000000c0: a8dd 503a 8f94 85ba ee40 28b8 9692 54b8
000000d0: 3a9d b637 3516 b73f 6757 55b9 a0c1 0dba
000000e0: 502e 993f e9a9 eb39 6413 5f3f 2b22 5b37
000000f0: d3a9 eeb8 27b5 19b8 af73 e6b7 6872 b73b
00000100: e8e8 7e36 9a65 09b9 7d7a 8138 fd67 b9bb
00000110: c540 cc36 d43d 2238 471a 82b7 db45 0a38
00000120: 19f1 bab7 b2ad c837 aac7 99b6 5e46 ef3e
00000130: 4bdc 1c38 5690 8fb8 805a 16b9 b251 48b6
00000140: 831c 4a38 ea12 c0b9 1938 0fb9 5e4a 3eb7
00000150: a860 aa3f 0a55 02b8 263c 0dbc fb60 fd37
00000160: 8230 fb3a 7f99 e5b9 6167 edb7 dcb2 4a36
00000170: 03a3 2639 d1d5 873b af95 8e3f 3050 1336
00000180: 3227 aa39 fa45 1bbb 6cd2 27b9 1835 9c3f
00000190: 96f7 b938 0e6a 143b a480 6738 a351 b4bb
000001a0: d75e 6fb6 30ad 213a 0b6f 4f38 991c 093a
000001b0: 7cf9 56b9 5934 00bb d1ca 25b8 8d6d f137
000001c0: eea4 b5bb fba0 b239 40fb 5bba b033 c737
000001d0: 5fc5 50ba ec89 443a f872 a937 a867 0438
000001e0: 11ed 0b39 fa4a 90b8 dc75 bc39 1a07 0fb6
000001f0: acdd 6a3f 7fb4 0eb7 9ee0 b837 5299 f136

z_logvar f4 [128]
-8.004324 -9.773377 -7.7106934 -7.8886843 -6.5200152 -9.658056 -10.595534 -2.3323581
-7.5593486 -2.3867989 -4.977255 -3.4712722 -4.9697433 -4.483301 -2.4569924 -9.749444
-9.93235 -9.572129 -10.526176 -8.156952 -8.874399 -3.3048677 -10.028982 -9.68348
-8.338985 -4.455851 -9.964942 -3.6130435 -10.637234 -6.118009 -10.656619 -8.047845
-10.193607 -10.370461 -7.384672 -10.58952 -4.4322934 -9.2192 -6.682553 -3.6987684
-10.051715 -9.599641 -1.6476486 -10.633111 -8.330278 -6.837099 -8.80159 -10.078947
-8.094044 -5.2736955 -10.651814 -10.327642 -10.516802 -2.586192 -7.778875 -8.659773
-2.4107506 -7.898808 -3.11358 -8.299702 -10.436396 -9.917578 -10.158741 -4.135269
-10.51141 -5.590354 -10.617587 -2.1974761 -10.622128 -10.623079 -10.455235 -10.462866
-10.568134 -10.558134 -10.520536 -1.5119873 -8.984805 -10.570966 -9.841265 -10.602006
-10.581328 -8.224245 -10.540514 -10.632646 -2.2594638 -10.450674 -3.369874 -10.564389
-5.3450065 -6.634162 -10.321319 -9.283233 -9.616788 -3.687908 -3.9704263 -10.144079
-8.278992 -5.938702 -9.40674 -3.3256934 -9.784162 -6.9892836 -10.669548 -4.671595
-10.572726 -5.639988 -10.568775 -8.501035 -5.1720896 -4.972934 -9.377723 -9.089269
-3.770052 -7.2807655 -6.366671 -10.54504 -6.4540496 -7.881552 -10.466129 -10.401095
-9.65818 -10.095784 -9.325531 -10.088859 -2.5667408 -10.572107 -10.564708 -10.494787
00000000: b611 00c1 c15f 1cc1 00be f6c0 1a70 fcc0
00000010: f7a3 d0c0 6687 1ac1 4f87 29c1 5b45 15c0
00000020: 2fe6 f1c0 50c1 18c0 ac45 9fc0 5329 5ec0
00000030: 2308 9fc0 3477 8fc0 5d3f 1dc0 b9fd 1bc1
00000040: e8ea 1ec1 7127 19c1 386b 28c1 e082 02c1
00000050: 8afd 0dc1 f482 53c0 b676 20c1 89ef 1ac1
00000060: 7c6c 05c1 5596 8ec0 6770 1fc1 1b3c 67c0
00000070: 1c32 2ac1 bbc6 c3c0 8381 2ac1 f9c3 00c1
00000080: 0419 23c1 69ed 25c1 3c4f ecc0 ad6e 29c1
00000090: 59d5 8dc0 d881 13c1 79d7 d5c0 9fb8 6cc0
000000a0: d3d3 20c1 2198 19c1 26e6 d2bf 3921 2ac1
000000b0: d248 05c1 84c9 dac0 50d3 0cc1 5e43 21c1
000000c0: 3481 01c1 1dc2 a8c0 d56d 2ac1 063e 25c1
000000d0: d244 28c1 2b84 25c0 8bec f8c0 6e8e 0ac1
000000e0: bd49 1ac0 09c3 fcc0 e544 47c0 94cb 04c1
000000f0: 7afb 26c1 66ae 1ec1 348a 22c1 2054 84c0
00000100: bc2e 28c1 2ee4 b2c0 a3e1 29c1 73a3 0cc0
00000110: 3cf4 29c1 22f8 29c1 a448 27c1 e667 27c1
00000120: 1417 29c1 1eee 28c1 1e54 28c1 cd88 c1bf
00000130: c3c1 0fc1 ad22 29c1 d275 1dc1 d1a1 29c1
00000140: 1f4d 29c1 8296 03c1 f2a5 28c1 511f 2ac1
00000150: 0e9b 10c0 f635 27c1 04ac 57c0 bd07 29c1
00000160: 4b0a abc0 0e4b d4c0 1f24 25c1 1f88 14c1
00000170: 5dde 19c1 af06 6cc0 771b 7ec0 264e 22c1
00000180: c076 04c1 d909 bec0 0282 16c1 29d8 54c0
00000190: ed8b 1cc1 36a8 dfc0 78b6 2ac1 b57d 95c0
000001a0: e329 29c1 c87a b4c0 b419 29c1 3d04 08c1
000001b0: c281 a5c0 4622 9fc0 270b 16c1 a56d 11c1
000001c0: 8848 71c0 08fc e8c0 c5bb cbc0 7cb8 28c1
000001d0: 9387 cec0 ad35 fcc0 4475 27c1 e36a 26c1
000001e0: e887 1ac1 5588 21c1 6035 15c1 f76b 21c1
000001f0: 7b45 24c0 5a27 29c1 0b09 29c1 a6ea 27c1

weight_mu f4 [2, 128]
0.0023043444 0.00036083238 -0.0013464028 0.0006858739 -0.014828904 0.010832289 0.007340275 -0.9535454
-0.005422635 -0.016974928 0.008555895 0.024099024 0.006283738 -0.012909453 -0.0124805365 -0.0027632376
0.010356235 0.00041698985 0.0036719313 -0.012586592 0.016338412 -0.006595897 0.010501203 -0.00079383294
0.017215526 0.002029701 0.00014265983 0.0037655404 -0.0016159351 -0.013338181 -0.004260768 -0.028235763
-0.0068409294 0.010332047 0.0030745275 0.00548545 0.008455916 -2.1336236e-05 -0.023155302 -0.0043118126
0.002388435 0.00948719 -0.58659846 0.0039723236 -0.027610395 0.0076649464 0.010944946 0.0029017888
0.016564155 0.025177663 -0.008516483 -0.013366993 -0.0013279727 0.9533557 0.0068023335 -0.005036435
-0.9068385 -0.031351786 -0.92226976 0.014565565 -0.0050962446 1.9779667e-05 0.0030289039 1.2381461e-05
0.00021071568 0.0332762 0.003327371 0.01629523 0.00018011103 0.00017605562 0.007975859 0.013578217
0.0009593723 -0.0034476724 0.008169957 -0.59945107 -0.0048986278 -0.0052370974 -0.025312928 -0.0014780727
-0.0031120945 0.007215729 -0.0061255395 0.008419327 -1.0360234 0.0059206667 -0.011287347 -0.0011636023
-0.012055451 0.0048350077 0.0062533193 -0.00092948985 0.0020289638 -0.020748265 0.6934349 -0.0010829979
0.0025293045 -0.027566193 -0.002788757 -0.9574535 0.004826521 -0.005775183 -0.00200224 -0.0059424825
-0.00087131554 -0.008482266 -0.0008290265 0.0010299998 -0.012796063 -0.019918256 0.0010460626 0.0009643893
0.107269846 0.0031653096 0.023406858 0.0014446628 -0.019205097 0.012051444 -0.0026560565 0.0010428391
0.0025910253 0.005759895 -0.0051321313 0.0062233293 -0.8877844 -0.005661007 0.017540598 -0.007975901
-0.0023418774 0.0017284076 0.0026109524 0.0013448021 0.014648353 -0.009215748 -0.008445431 0.9628111
0.0055046775 0.008920359 -0.0048469603 -0.02116813 -0.011164254 0.010399221 0.0034704981 0.0020632087
-0.008723368 -0.00031297418 -0.0035379452 0.014779854 -0.015913168 0.008208316 -0.008761853 0.0017139951
-0.017683221 -0.0041799503 -0.0002852947 -0.014579031 0.0011296209 0.015024684 0.0052978243 0.026522793
0.009151083 -0.011595691 0.001160053 -0.005926039 -0.0047988426 0.0017939627 0.027697328 0.008310093
-0.0018351175 -0.009902035 0.5926496 -0.0045149806 0.026250726 -0.005806053 -0.008668971 -0.0031374102
-0.01916068 -0.022840157 0.006826695 0.0122654 0.0009794123 -0.9548852 -0.0037889017 0.0044426876
0.91140914 0.032414436 0.9236583 -0.013464357 0.0064917547 0.0004188875 -0.0039309342 0.0027712246
0.0014121268 -0.029805038 -0.004098931 -0.018971663 -0.0017100889 0.0005766953 -0.007531 -0.014229167
-0.0018406576 0.0037050028 -0.008432684 0.5998552 0.0020371138 0.0062285736 0.023006273 0.0019400156
0.0014384473 -0.004352645 0.007956191 -0.009211493 1.0416428 -0.005723605 0.014661985 0.0011095933
0.011954421 -0.002569971 -0.006185006 0.0016970744 -0.003513627 0.023653727 -0.69420856 0.00036991976
-0.0061148535 0.027057184 0.0037295222 0.96029365 -0.007608101 0.0050417916 0.0029260137 0.0063801124
-0.00086903526 0.005428514 -0.0014115721 -3.6536334e-05 0.011083752 0.017905867 -0.0017678622 0.0011972284
-0.10223473 -0.0050000865 -0.0284576 -0.0021985716 0.014110857 -0.00963689 0.002636207 -0.0014932165
-0.0031813749 -0.00409162 0.0029618545 -0.006807649 0.878845 0.005430055 -0.017838275 0.0073772767
00000000: 7c04 173b 1a2e bd39 c879 b0ba 38cc 333a
00000010: eef4 72bc ea79 313c b186 f03b 8d1b 74bf
00000020: 5cb0 b1bb 010f 8bbc 062e 0c3c 516b c53c
00000030: d1e7 cd3b 2c82 53bc 2a7b 4cbc 6f17 35bb
00000040: 33ad 293c 6e9f da39 c9a4 703b fe37 4ebc
00000050: 22d8 853c 6522 d8bb 3d0d 2c3c 3a19 50ba
00000060: 9307 8d3c bb04 053b f596 1539 49c7 763b
00000070: c9cd d3ba 6388 5abc ea9d 8bbb b04e e7bc
00000080: e029 e0bb bf47 293c 037e 493b 4abf b33b
00000090: af8a 0a3c 38fb b2b7 30b0 bdbc 1b4a 8dbb
000000a0: 4a87 1c3b 2970 1b3c 512b 16bf 442a 823b
000000b0: 322f e2bc 3b2a fb3b 6e52 333c f02b 3e3b
000000c0: 8db1 873c 6341 ce3c b888 0bbc 3b01 5bbc
000000d0: 5f0f aeba 1f0f 743f 1ce6 de3b ae08 a5bb
000000e0: 9126 68bf bb6a 00bd df19 6cbf 68a4 6e3c
000000f0: 66fe a6bb 83ec a537 9380 463b f8b9 4f37
00000100: 8ff3 5c39 a04c 083d 0610 5a3b 937d 853c
00000110: 30dc 3c39 929b 3839 2dad 023c 2b77 5e3c
00000120: 637e 7b3a 58f2 61bb 49db 053c a075 19bf
00000130: ab84 a0bb f59b abbb 0f5d cfbc e4bb c1ba
00000140: 48f4 4bbb ec71 ec3b c0b8 c8bb 38f1 093c
00000150: 6a9c 84bf 2702 c23b 91ee 38bc 0484 98ba
00000160: 3a84 45bc fc6e 9e3b a5e8 cc3b 02a9 73ba
00000170: 5df8 043b 44f8 a9bc f384 313f 61f3 8dba
00000180: b0c2 253b 7fd2 e1bc 94c3 36bb ac1b 75bf
00000190: cb27 9e3b bf3d bdbb 0338 03bb 28b9 c2bb
000001a0: ff68 64ba 34f9 0abc 0753 59ba 0f01 873a
000001b0: 94a6 51bc 9c2b a3bc 091c 893a 12cf 7c3a
000001c0: 4bb0 db3d 1571 4f3b bdbf bf3c d75a bd3a
000001d0: 0254 9dbc 6b73 453c 3c11 2ebb e0af 883a
000001e0: 31ce 293b 80bd bc3b 702b a8bb 12ed cb3b
000001f0: d745 63bf f87f b9bb 4db1 8f3c 5aad 02bc
00000200: 2f7a 19bb bc8b e23a 831c 2b3b 1244 b03a
00000210: a5ff 6f3c a6fd 16bc b45e 0abc ca7a 763f
00000220: 9560 b43b b326 123c 40d3 9ebb c968 adbc
00000230: 46ea 36bc 7f61 2a3c 4c71 633b e636 073b
00000240: 75ec 0ebc af16 a4b9 dfdc 67bb 3327 723c
00000250: 555c 82bc 2c7c 063c e08d 0fbc 22a8 e03a
00000260: 67dc 90bc f7f7 88bb 9b93 95b9 e3dc 6ebc
00000270: ca0f 943a 182a 763c 5f99 ad3b 5446 d93c
00000280: 6dee 153c dafb 3dbc eb0c 983a 382f c2bb
00000290: 9c3f 9dbb 6623 eb3a 82e5 e23c 0e27 083c
000002a0: 5388 f0ba 253c 22bc e2b7 173f 67f2 93bb
000002b0: c30b d73c b440 bebb 4d08 0ebc 029d 4dbb
000002c0: dcf6 9cbc 481b bbbc 78b2 df3b d1f4 483c
000002d0: a05f 803a 5b73 74bf 394f 78bb f793 913b
000002e0: 1c52 693f 00c5 043d df74 6c3f 9b99 5cbc
000002f0: c9b8 d43b 219e db39 11cf 80bb 6f9d 353b
00000300: 1d17 b93a b229 f4bc 5350 86bb 766a 9bbc
00000310: 1025 e0ba 5e2d 173a 9bc6 f6bb 7421 69bc
00000320: 3842 f1ba a2cf 723b 3d29 0abc 1c90 193f
00000330: 1981 053b 1019 cc3b a777 bc3c 1f48 fe3a
00000340: 488a bc3a a2a0 8ebb af5a 023c cdeb 16bc
00000350: 8d54 853f 148d bbbb d338 703c c66f 913a
00000360: 7adc 433c f56c 28bb 97ab cabb 5e70 de3a
00000370: e144 66bb 76c5 c13c a7b7 31bf caf1 c139
00000380: 1c5f c8bb 07a7 dd3c 006b 743b ced5 753f
00000390: 604d f9bb 9d35 a53b 5dc2 3f3b 4310 d13b
000003a0: f8cf 63ba ade1 b13b 8004 b9ba 973e 19b8
000003b0: a098 353c 53af 923c 9db7 e7ba 52ec 9c3a
000003c0: 7160 d1bd c4d7 a3bb ea1f e9bc e915 10bb
000003d0: 3931 673c 0ce4 1dbc 37c4 2c3b 08b8 c3ba
000003e0: 9d7e 50bb ff12 86bb ac1b 423b b312 dfbb
000003f0: fcfb 603f 9aee b13b 9321 92bc 15bd f13b
