metric/probe_cifar10_diistill_iter500.pth (torch, 539651 bytes, 12 tensors)

z_mu f4 [512]
000000 80 90 b5 3f 11 68 4c 3f 97 24 b3 3f 7f 80 76 3f
       1.4184723 0.7984629 1.3995541 0.9628982
000010 c2 95 75 3b 89 67 31 3f 22 5e 41 3a 2f 21 22 bb
       0.0037473296 0.6929861 0.00073763926 -0.0024739017
000020 04 5a 57 3f 82 e4 71 bb 42 bd 2b ba 5d 84 99 3a
       0.8412173 -0.0036909883 -0.0006551334 0.0011712421
000030 b2 4e 8a ba 0a bd ad ba d3 6f ae 3b cb 8a ce 3b
       -0.0010552017 -0.001325519 0.005323389 0.0063031665
000040 8b ee 98 bb bd 8f aa 3a 29 5e c3 3a 3d 80 6c b8
       -0.0046671084 0.0013012808 0.0014905381 -5.6386216e-05
000050 09 b9 7c 3f b6 39 49 3f 39 ae 1f 3b cb a4 8d bb
       0.9871984 0.78603685 0.002436532 -0.0043226234
000060 35 d3 a9 3f e1 c7 b1 3e 8d ad 9b 3f 55 f2 78 3b
       1.326758 0.34722808 1.2162338 0.0037986238
000070 3a b4 14 bb 53 89 9a b9 b7 9e 9c 3a b8 c8 6c 3f
       -0.0022690431 -0.00029475483 0.0011949156 0.9249377
000080 bc 20 ef 37 ec a9 71 3b b0 e8 dc bb 5f 27 bd bb
       2.8506263e-05 0.0036874963 -0.0067416057 -0.0057725157
000090 0c 6b 57 3f 15 7d 02 3b c9 ae ea bb 09 85 89 3b
       0.84147716 0.001991098 -0.0071619493 0.004196767
0000a0 c0 88 25 39 32 9f 13 ba 0a af 11 3a ae 0e 36 b9
       0.0001578657 -0.0005631327 0.0005557394 -0.00017362341
0000b0 53 fb 72 3a 37 33 e3 3a b8 e2 8f bb ea 47 0b bb
       0.00092690176 0.0017333989 -0.0043910407 -0.002125258
0000c0 51 fc 97 bb 27 47 34 bc 7d 8f 91 3f 3f 05 0b bb
       -0.0046382328 -0.011003292 1.1371914 -0.0021212844
0000d0 06 d2 8d 3a 29 ef 15 3f f3 33 89 39 a1 8e 45 3b
       0.0010820038 0.58568054 0.0002616938 0.0030144828
0000e0 36 4a 12 bb f8 51 60 3b 70 69 89 ba a2 37 06 bb
       -0.0022322065 0.0034228545 -0.0010483693 -0.0020479937
0000f0 c4 9b a0 3f df 3f 69 3a 64 d1 22 3c d3 a6 bc 3f
       1.2547536 0.0008897762 0.009937618 1.4738411
000100 ee 34 09 3f a7 8b 6c 3a 31 38 fe 3a ab 9c e4 b9
       0.5359639 0.00090234954 0.0019395408 -0.00043604276
000110 a6 a8 31 3b e9 58 0e 3b eb 53 47 b9 5f 7f 2e 3f
       0.002710858 0.0021720475 -0.00019009381 0.681631
000120 7c 5e 0d 3f d2 1f 1b ba 6a c3 e5 3b 91 b2 3c 3a
       0.55222297 -0.00059175224 0.0070118206 0.00071982393
000130 e5 e2 d6 39 cf eb 1f bb 0a 25 5f bb 66 b5 f8 b9
       0.0004098631 -0.0024402027 -0.0034049177 -0.00047437398
000140 7d 31 b9 3b 13 26 43 bb 7e d7 9f 3b 72 36 e8 39
       0.0056516514 -0.0029777333 0.0048779836 0.00044291053
000150 58 8e f7 ba 01 d0 15 3f 70 a4 98 bb 78 8b 95 3f
       -0.0018887026 0.58520514 -0.0046582744 1.1683187
000160 9c 12 cb 3a 40 96 7c 3b 41 b7 80 3e 35 a1 b7 ba
       0.0015493217 0.0038541704 0.25139812 -0.0014009835
000170 02 50 44 3f 2b 8a 93 3d 77 b2 c4 3a 67 4d 41 3b
       0.7668458 0.07204088 0.00150068 0.0029495598
000180 20 b9 74 bb f8 ca c4 ba e5 19 f5 b7 86 92 b7 bb
       -0.0037341788 -0.0015014103 -2.9218334e-05 -0.0056021838
000190 f2 4c 5f bb 57 90 52 3f b1 7b 90 39 7f 56 2c 3f
       -0.0034072963 0.82251495 0.00027557978 0.6731948
0001a0 63 d1 ef 3a 6a c2 0a 3b 82 70 9e 3f b8 59 9b 3f
       0.0018296655 0.0021173009 1.2378085 1.2136755
0001b0 67 91 08 3b 5e 2e 1f 3b a1 97 ee 3b 4e 2c 22 3f
       0.002083862 0.0024289112 0.007281259 0.63348854
0001c0 2d bd e1 3a 3a 1b 40 bb 12 50 bd 38 c3 39 89 bb
       0.0017222516 -0.0029313103 9.0271365e-05 -0.004187794
0001d0 d9 b5 1f 3b d5 72 dd b8 fe 90 1f bb ae 3e a4 3a
       0.0024369864 -0.0001055949 -0.0024347897 0.0012530887
0001e0 e5 d3 98 3f 14 8d 19 bc 4b 36 55 3b 42 4f 21 ba
       1.1939665 -0.009372015 0.0032533582 -0.0006153473
0001f0 3a 73 bb bb 55 37 94 39 ca 8b f8 3e ff d4 0f 3f
       -0.005720523 0.00028269985 0.4854415 0.5618438
000200 bf 07 71 3f 2f 38 a6 ba 33 ab fd ba 87 30 9d 3f
       0.94152445 -0.0012681539 -0.001935339 1.2280434
000210 9d d8 4f 39 7f 97 d0 3f c7 90 83 3f e1 72 03 3b
       0.00019821753 1.6296233 1.0278558 0.0020057487
000220 50 e5 87 3f 85 94 1e 3a 9a 87 e3 3b 40 1e a5 3f
       1.0616856 0.0006049353 0.006943655 1.2899857
000230 99 b0 4d 3f 01 f0 02 3a ed 62 6d 3f 30 70 74 bb
       0.8034759 0.000499487 0.92729074 -0.0037298314
000240 51 2a 9a bb a7 5c fd b9 db 15 24 bb e7 9e be bb
       -0.0047047515 -0.00048324952 -0.002503744 -0.0058172825
000250 ba 01 75 3f ba 2d 93 ba c8 16 b2 3f ae 70 cc ba
       0.9570576 -0.0011228838 1.3913202 -0.0015597546
000260 95 48 5c ba 89 c1 ff 3b e6 9c 81 3a 15 e4 94 3e
       -0.00084031495 0.0078050536 0.0009888678 0.29080263
000270 e2 8c 9c ba 2a e3 66 3e f2 e3 6e 3a f3 9e 8f 3c
       -0.0011943842 0.22547594 0.0009112946 0.017531848
000280 40 eb ac 39 99 45 d3 3e 75 eb a3 3f 50 84 97 3b
       0.0003298167 0.41264036 1.2806231 0.004623927
000290 8e 77 84 3c ea 7b ed ba f3 6a 83 bb 67 36 11 3a
       0.01617029 -0.0018118594 -0.004010552 0.00055394176
0002a0 13 7c a1 3f 32 0c d6 b9 95 fa dd 3f 7c aa c1 3a
       1.261599 -0.00040826347 1.7342097 0.001477554
0002b0 7f 69 5b 3c 78 6c 86 3b 07 62 8c 3b 1b 21 ae 3f
       0.013391851 0.004102286 0.0042841467 1.3603853
0002c0 03 7c ad ba 1d 12 1f 3b 47 fe 4e 3f 06 39 7b 3f
       -0.0013235811 0.002427227 0.80856746 0.98133886
0002d0 df 0e 4f b8 f6 d0 a4 3f f4 a0 47 bb c5 56 58 ba
       -4.9366496e-05 1.287627 -0.0030460926 -0.0008252676
0002e0 65 08 de 3e d4 97 0c 3a 6e e1 99 ba 44 f4 a5 3f
       0.4336578 0.00053632003 -0.0011740157 1.2965169
0002f0 5d 01 ee 3e 36 38 16 3b ab 04 60 3f 95 45 4b bb
       0.46485415 0.0022921688 0.8750712 -0.0031016816
000300 53 57 b1 3f 41 9b 49 bb 1c b7 52 38 e1 9d e5 ba
       1.3854774 -0.0030762705 5.0238436e-05 -0.0017518365
000310 1a 20 06 bb 4a dc 64 bb 50 03 16 ba ae 5b 73 3b
       -0.0020465911 -0.0034921342 -0.00057225395 0.0037133503
000320 fb 85 74 3a 33 bb c3 3f d2 81 6e 39 53 98 6c 3b
       0.0009327826 1.5291504 0.0002274581 0.0036101534
000330 75 39 2e 3f d3 04 20 ba af bb f9 b9 6b d0 12 ba
       0.6805642 -0.00061042345 -0.00047632816 -0.00056005147
000340 b2 e5 ae ba b8 41 6d 3d 11 b1 03 3f 65 d9 35 3b
       -0.0013343601 0.057924002 0.51442057 0.0027747985
000350 d3 f3 d0 ba ba 5f fe 3b 5b df 10 bb 77 46 41 ba
       -0.0015941806 0.0077628763 -0.0022105786 -0.0007372866
000360 b8 4d 18 ba 3a 05 7d 3a 6a cc 5e 3f e8 90 3b 3b
       -0.0005809921 0.0009651963 0.8703066 0.0028620306
000370 be df b9 3f 19 70 5c 3f 54 2a 2f 3b 70 70 a2 3a
       1.4521406 0.8610855 0.002672811 0.0012393128
000380 eb d4 fe bb 65 2a e7 3d 81 16 20 3b 4e c2 4e 3f
       -0.0077768466 0.11287383 0.0024427476 0.80765235
000390 bf fc 4c 3b f2 fd 8f bb 71 11 2d 3f 48 d3 7a bb
       0.0031278578 -0.0043942863 0.6760474 -0.0038272906
0003a0 4e 53 e6 3c 5d 21 e1 bb ce fc da bb 15 b0 e9 ba
       0.028115895 -0.0068704323 -0.0066829687 -0.0017828966
0003b0 70 d9 85 3f c6 93 79 3f af c4 23 bc 7d 85 9e ba
       1.0456982 0.9749111 -0.0099956235 -0.0012094226
0003c0 bc 56 1c 38 ca 44 4c 3f 37 0c d7 ba 58 aa d5 3a
       3.7274076e-05 0.79792464 -0.0016406839 0.0016301377
0003d0 0b bf ad 3e bb 61 c9 ba ee 2e b5 3b cd aa ff 3a
       0.33934817 -0.0015364209 0.005529276 0.0019505859
0003e0 3e fa 7b 3f 90 3f 85 bb 35 e4 16 3f dd a4 8a 3b
       0.98428714 -0.004066415 0.58941966 0.004231079
0003f0 0d c4 4d bb c5 37 8e bb 8a 7d fd 3a 18 47 c9 39
       -0.0031397373 -0.0043401443 0.0019339782 0.00038390676

z_logvar f4 [512]
000000 1e a2 bb c0 1b e1 9f c0 a0 67 a3 c0 71 b0 b8 c0
       -5.8635397 -4.9962287 -5.1063995 -5.7715383
000010 88 18 98 c0 08 68 9a c0 41 ae a4 c0 58 6b a4 c0
       -4.7529945 -4.825199 -5.146271 -5.1381035
000020 bd 27 b3 c0 45 42 ca c0 c1 9c b8 c0 22 a3 9f c0
       -5.598601 -6.3205895 -5.769135 -4.9886637
000030 c2 9e 8b c0 2c 35 c4 c0 fc 88 b9 c0 f3 e2 85 c0
       -4.3631296 -6.1314907 -5.7979717 -4.183954
000040 58 52 a4 c0 92 f2 bb c0 e1 c5 9e c0 66 e1 b9 c0
       -5.1350517 -5.8733606 -4.961655 -5.8087645
000050 d4 e3 82 c0 00 93 ad c0 38 c7 a5 c0 95 91 94 c0
       -4.090311 -5.4241943 -5.1805687 -4.6427712
000060 0d 8b bf c0 5a e4 7c c0 0d 04 c1 c0 28 25 ab c0
       -5.985724 -3.9514375 -6.0317445 -5.3482857
000070 41 28 9c c0 96 cb bb c0 48 ab 92 c0 d8 36 ab c0
       -4.879914 -5.868602 -4.5834084 -5.350445
000080 77 c2 85 c0 92 43 91 c0 7c dd 8d c0 b0 3d a2 c0
       -4.1799884 -4.5394983 -4.4332867 -5.07003
000090 93 7f 44 c0 8b 50 9c c0 18 9b 4e c0 ae 2c 89 c0
       -3.0702865 -4.884832 -3.2282162 -4.286704
0000a0 f7 d7 79 c0 63 cc ac c0 4b f6 ab c0 79 6d ab c0
       -3.9038064 -5.3999496 -5.373815 -5.3571134
0000b0 2f ba b8 c0 4b 2c af c0 5d 9b c4 c0 9c 35 99 c0
       -5.7727275 -5.474157 -6.1439652 -4.787794
0000c0 fb 13 8f c0 c5 eb 9b c0 a9 2e ac c0 19 9d 96 c0
       -4.471189 -4.8725305 -5.380696 -4.706677
0000d0 5d 93 a1 c0 94 34 92 c0 f2 f2 a3 c0 9a 53 97 c0
       -5.0492387 -4.568918 -5.1234064 -4.7289553
0000e0 5f 95 a5 c0 4c fc 9c c0 49 9d b4 c0 98 70 c7 c0
       -5.174484 -4.905798 -5.6442 -6.2324944
0000f0 1e ec 88 c0 4a 46 bc c0 b2 f9 77 c0 2f e9 99 c0
       -4.278823 -5.88358 -3.8746152 -4.809715
000100 0c 66 96 c0 7c a8 9e c0 1b 02 97 c0 c3 df b9 c0
       -4.699957 -4.958067 -4.719007 -5.8085647
000110 fa 3d b2 c0 17 55 bb c0 c4 39 8e c0 42 b6 56 c0
       -5.5700655 -5.854137 -4.4445515 -3.3548741
000120 62 41 75 c0 b3 d6 94 c0 8d ee 57 c0 20 be bd c0
       -3.8321157 -4.6512084 -3.373935 -5.9294586
000130 71 e7 d9 c0 d5 2c b0 c0 ea 90 a1 c0 51 45 b3 c0
       -6.809502 -5.5054727 -5.0489397 -5.6022115
000140 24 1e 6a c0 39 ec 9a c0 b0 1f 74 c0 97 1f a4 c0
       -3.6580896 -4.841336 -3.814434 -5.128856
000150 8d b0 9e c0 f2 65 86 c0 78 98 ad c0 70 12 50 c0
       -4.9590516 -4.1999445 -5.424862 -3.2511253
000160 a4 87 8e c0 fe 3d 64 c0 6b 12 7c c0 e7 92 a4 c0
       -4.4540577 -3.5662837 -3.9386241 -5.1429324
000170 a5 e4 b9 c0 96 a4 65 c0 d4 fe a8 c0 46 20 a4 c0
       -5.8091607 -3.5881705 -5.281107 -5.1289396
000180 05 fe 5e c0 b0 58 a1 c0 26 bc ae c0 93 4d a5 c0
       -3.4842541 -5.042076 -5.4604673 -5.1657195
000190 0c 38 8c c0 62 ee a3 c0 65 d4 96 c0 74 51 ac c0
       -4.3818417 -5.1228495 -4.713427 -5.384943
0001a0 2b bc ad c0 e7 90 b8 c0 c4 91 c7 c0 8b 73 77 c0
       -5.4292197 -5.7676883 -6.2365437 -3.8664272
0001b0 4c 34 b8 c0 59 81 ab c0 e6 a8 b9 c0 03 2a a4 c0
       -5.756384 -5.3595395 -5.8018675 -5.1301284
0001c0 7d 5b b0 c0 f9 80 a5 c0 22 d6 b1 c0 7c 8e b5 c0
       -5.511168 -5.1719937 -5.5573893 -5.673643
0001d0 b9 3a ac c0 ef 12 b9 c0 1c 51 b0 c0 aa 38 b9 c0
       -5.3821683 -5.783561 -5.509901 -5.788167
0001e0 84 08 ce c0 8e 5b 9e c0 fe cd a9 c0 81 f2 af c0
       -6.4385395 -4.948676 -5.3063955 -5.4983525
0001f0 8a 25 9b c0 97 ec 7f c0 b7 cd 9e c0 51 69 9f c0
       -4.8483324 -3.9988153 -4.9626117 -4.981606
000200 9b f5 ae c0 45 c6 c0 c0 f3 45 b3 c0 04 70 96 c0
       -5.467481 -6.024203 -5.6022887 -4.701174
000210 b2 8b a1 c0 c1 ab ad c0 9f c2 b0 c0 31 2f a3 c0
       -5.0483027 -5.427216 -5.5237575 -5.0995107
000220 c9 e1 7d c0 e0 ad a1 c0 8d ca 4d c0 5d e4 83 c0
       -3.9669058 -5.052475 -3.2154877 -4.1216264
000230 ea 59 9b c0 13 aa b0 c0 35 d4 d0 c0 c6 f0 84 c0
       -4.854726 -5.520761 -6.525904 -4.1543913
000240 40 fc b4 c0 51 80 a3 c0 e7 b2 55 c0 a3 be 9e c0
       -5.655792 -5.1094136 -3.3390443 -4.960771
000250 02 f6 8b c0 97 86 87 c0 1a 2c a9 c0 e9 13 9b c0
       -4.3737803 -4.2351794 -5.2866335 -4.8461804
000260 d3 7c 88 c0 dd 7c a0 c0 c1 66 b2 c0 01 05 8b c0
       -4.2652373 -5.015242 -5.575043 -4.344361
000270 79 51 9a c0 d4 df 48 c0 e0 6d a7 c0 f9 b7 64 c0
       -4.8224454 -3.1386614 -5.2321625 -3.5737288
000280 44 87 ac c0 3e aa 94 c0 bf 95 8f c0 be 77 b2 c0
       -5.391512 -4.6457815 -4.4870296 -5.577117
000290 1a 9b 87 c0 00 20 85 c0 fb 1c a0 c0 a3 7d b6 c0
       -4.2376833 -4.1601562 -5.0035377 -5.7028365
0002a0 41 52 c3 c0 29 5d aa c0 b1 61 b9 c0 1c 17 bf c0
       -6.1037908 -5.323872 -5.793175 -5.971571
0002b0 d3 d0 74 c0 38 a3 b9 c0 c2 46 9a c0 2c 88 a5 c0
       -3.8252456 -5.801174 -4.8211374 -5.1728725
0002c0 5c c9 bc c0 e7 d0 aa c0 c5 59 96 c0 df b5 8a c0
       -5.89958 -5.338001 -4.698458 -4.334701
0002d0 78 d6 ab c0 92 e9 b9 c0 5e 33 b4 c0 41 cc af c0
       -5.3699303 -5.809762 -5.6312704 -5.4936833
0002e0 db c7 82 c0 24 4f a3 c0 54 ef 6d c0 c7 85 60 c0
       -4.0868964 -5.1034107 -3.7177324 -3.5081651
0002f0 54 5f 1f c0 bf 31 85 c0 1d 77 7c c0 56 e6 af c0
       -2.4901934 -4.1623225 -3.94477 -5.496867
000300 df 7a c6 c0 fc e8 b1 c0 eb 0c dd c0 22 63 a9 c0
       -6.202499 -5.5596905 -6.907827 -5.293351
000310 e4 0d a2 c0 5d ed 8b c0 a6 f6 cb c0 5a 31 93 c0
       -5.0641956 -4.372725 -6.3738585 -4.5997744
000320 72 96 b9 c0 29 55 b2 c0 ba 52 86 c0 52 3d ac c0
       -5.799615 -5.5728955 -4.1975985 -5.3824854
000330 6d 49 9f c0 c2 00 9e c0 22 97 a5 c0 19 e2 86 c0
       -4.977713 -4.9375925 -5.174699 -4.2151
000340 da 02 96 c0 33 25 82 c0 1b 01 a2 c0 7e c6 b6 c0
       -4.687848 -4.067041 -5.062635 -5.71173
000350 bd 38 98 c0 7e ef 92 c0 e0 c0 a3 c0 99 52 79 c0
       -4.756926 -4.591735 -5.1172943 -3.8956664
000360 ee a1 cc c0 d3 12 b0 c0 c2 4f a7 c0 95 b0 91 c0
       -6.394767 -5.502298 -5.228486 -4.5528054
000370 61 16 87 c0 5e 42 4f c0 7b 2e 93 c0 aa 62 c2 c0
       -4.221482 -3.2384257 -4.599424 -6.074544
000380 a0 2e 93 c0 3f 8d 33 c0 e6 98 95 c0 24 95 b1 c0
       -4.5994415 -2.805496 -4.6749144 -5.5494556
000390 c4 f8 c3 c0 66 7b 97 c0 70 f0 9f c0 b3 d0 a1 c0
       -6.124117 -4.7338133 -4.9981003 -5.056726
0003a0 05 cc 7d c0 70 b5 a9 c0 c0 04 96 c0 00 ff 5d c0
       -3.9655774 -5.303398 -4.68808 -3.468689
0003b0 65 23 b0 c0 bd ba 96 c0 c8 95 9c c0 20 3a a8 c0
       -5.5043206 -4.710295 -4.893284 -5.2570953
0003c0 57 ee bb c0 63 2a be c0 1a 95 ca c0 07 f8 b4 c0
       -5.872844 -5.942674 -6.330701 -5.655277
0003d0 84 3c 78 c0 9e ae 86 c0 a8 82 ab c0 ee 3d b5 c0
       -3.8786936 -4.2088156 -5.3596992 -5.66381
0003e0 50 e4 bd c0 d2 d5 b7 c0 91 db 8e c0 e1 17 92 c0
       -5.93412 -5.744851 -4.4643025 -4.565415
0003f0 32 9a a7 c0 0c ea 9e c0 e0 d3 9c c0 82 96 a9 c0
       -5.2375727 -4.96607 -4.9008636 -5.2996225

weight_mu f4 [128, 512]
000000 54 25 ab bc 32 c9 d9 bc a6 77 27 bd 84 a9 1b bd
       -0.020891823 -0.026585195 -0.04088559 -0.03800346
000010 3b 63 bc ba 4b 83 b7 bc c8 1d 6d bb 69 b6 bb 3b
       -0.0014372835 -0.022401473 -0.003618108 0.005728532
000020 b0 f3 06 bd 75 2b 51 39 26 69 68 3c 4c 25 c3 3b
       -0.032947242 0.00019947982 0.014185226 0.005955374
000030 bd 64 8b bc cd ab 3c bb dd 2a 42 3b 0d 6b c8 bb
       -0.01701581 -0.0028788925 0.00296276 -0.006116277
000040 d4 d4 c7 bb b1 21 9d bb 88 be 79 bc 28 c5 06 bc
       -0.006098369 -0.004795276 -0.01524318 -0.008225717
000050 d0 64 c7 bc 7e c9 47 bd 48 ed 3c 3b ec d6 86 bb
       -0.024340063 -0.048776142 0.0028827954 -0.004114976
000060 0d a9 ae bd 70 f9 5e bc b6 04 85 bd 85 15 fb bb
       -0.08528338 -0.013609275 -0.06495039 -0.0076624774
000070 3f 42 d5 3b 4f f7 b5 3a 14 a5 8d bb 17 f8 df bc
       0.0065081413 0.0013882908 -0.0043226574 -0.027339978
000080 e2 85 bf 3c 79 1c 8a 3b 86 3a 42 bc 06 b0 e8 3b
       0.02337927 0.00421482 -0.011854773 0.0071010618
000090 b2 1a bc bc 88 6a 08 bb d7 c2 a4 3c 01 8a 0c bb
       -0.022961948 -0.002081545 0.020112438 -0.0021444561
0000a0 60 b3 1a bc 8e a9 21 3a e7 fd 25 3b 3c 21 0f bc
       -0.00944218 0.0006166928 0.002532834 -0.008735951
0000b0 f6 15 cd ba 58 f8 8e 3b 27 05 9e 3b 62 c9 69 3c
       -0.0015646804 0.004363101 0.0048223916 0.014269205
0000c0 18 64 b5 bb 74 a5 e0 3b 44 9a 68 bd a1 ff 83 3a
       -0.0055356137 0.006855661 -0.056787744 0.001007069
0000d0 4b 2a 0a bc 95 bb 94 bc 76 5d 56 bc 0a b9 07 3b
       -0.008432935 -0.018155852 -0.013083806 0.0020709657
0000e0 fa 76 ca 3b 30 69 11 3c 96 6b 21 bb c3 a2 03 3c
       0.006178734 0.008875176 -0.0024630777 0.008034411
0000f0 00 15 09 bc 13 9c c5 3b 41 e1 c6 bb 8a 37 e7 bc
       -0.008366823 0.0060305684 -0.006069333 -0.028224725
000100 62 87 0b bd 90 70 aa 3b c4 9e 56 bc 7d f6 ec bb
       -0.034064658 0.005201407 -0.013099376 -0.007231532
000110 8e 4a f8 3a 48 ba b0 b8 ee 33 ec 3a 50 02 9a bc
       0.0018943117 -8.4270316e-05 0.0018020847 -0.01879993
000120 0b 53 09 bc 13 6c 12 bc d3 fc 87 3c 9f b6 24 3b
       -0.008381615 -0.0089369 0.016600048 0.0025133265
000130 d9 74 b8 bb da fd eb bb 27 e4 0f bc 01 49 ee ba
       -0.0056291637 -0.0072018923 -0.008782423 -0.0018179716
000140 77 13 56 ba dd 89 cf 3b 0c 3c 9d bb d3 74 50 3c
       -0.00081663526 0.0063335733 -0.004798418 0.012723166
000150 85 22 85 3a 23 2c 95 bc 94 a5 05 3c 75 89 0a bd
       0.0010157382 -0.018209523 0.008157153 -0.033822495
000160 5d f5 8c 3b f4 12 30 3c 7c 13 87 bc 14 e9 46 3c
       0.0043017105 0.010746706 -0.016488783 0.012140531
000170 55 9d e3 bc c3 bf 1e 3c 88 97 bb b9 4e 34 83 bc
       -0.027784983 0.009689274 -0.0003578032 -0.016016152
000180 e3 bb e3 39 04 d5 02 3c 5c 53 97 ba 40 b0 bd ba
       0.000434368 0.007985357 -0.0011545229 -0.0014472082
000190 ce 07 6c 39 49 ab d2 bc db fd 89 3a 49 d7 03 bd
       0.00022509621 -0.02571644 0.0010527925 -0.032187734
0001a0 93 d0 23 3a 92 b6 c8 3a 46 15 70 bd 73 96 27 bd
       0.00062490365 0.0015313199 -0.058614038 -0.040914964
0001b0 d9 bf ba b9 0a 06 42 3b 22 c6 8c 3b 5c 21 ed bc
       -0.00035619622 0.002960565 0.00429608 -0.028946571
0001c0 74 b3 d8 3b 60 cb cc 3b cc b7 ea 3b cd 6e 12 3c
       0.0066131894 0.00624983 0.0071630236 0.00893755
0001d0 aa bc 49 bc 3f 11 5d bc c5 65 41 3c 01 6d 3a bc
       -0.012313047 -0.013492881 0.011804049 -0.011378528
0001e0 c3 d7 58 bd 8e 25 90 3b 42 26 a5 3b f2 97 ba 3a
       -0.05294014 0.004399008 0.005039961 0.0014235957
0001f0 a1 51 5d bb b7 67 0b ba 08 44 bc bc 17 49 97 bc
       -0.0033770578 -0.0005317884 -0.022981659 -0.01846747
000200 c7 c1 44 bd cc 62 83 bc 75 e5 09 3c 29 6c bc bc
       -0.048036363 -0.016038321 0.008416523 -0.023000794
000210 13 72 96 38 e1 87 47 bd 6d 9d 4b bd 35 af 27 3b
       7.173805e-05 -0.04871357 -0.04971068 0.002558661
000220 81 63 bd bc 22 a4 c6 3a e3 40 62 3b 97 fc c7 bc
       -0.023118736 0.0015155117 0.0034523539 -0.024412436
000230 0c 50 08 bd 1b 4b 07 ba a0 84 19 bd e2 7b 19 3c
       -0.033279464 -0.0005161033 -0.037479997 0.009367915
000240 6d bb d3 bb bd 40 e1 bb 1c 34 80 bb 2f 9b e0 bb
       -0.006461552 -0.0068741725 -0.003912462 -0.006854437
000250 5a 43 28 bd d4 0a b4 3b 12 61 17 bd 3a 9c ca bb
       -0.041079856 0.005494455 -0.036957808 -0.0061831744
000260 bc 76 0c 3c 76 2b bf 3a 57 76 9a bb 3e 7d c9 bc
       0.00857323 0.0014585096 -0.0047138142 -0.024595853
000270 52 43 f0 ba f1 6b 90 bc da fa d7 bb 0c 47 66 3c
       -0.001833061 -0.017629595 -0.006591183 0.014055025
000280 c9 f7 0a 3c 02 c9 db bc 5e 23 10 bd 1e 37 06 3c
       0.008481928 -0.026829246 -0.03518998 0.008191852
000290 2c 4e 3c 3a 63 3c 05 3b c0 db 84 bb 70 02 06 b9
       0.00071832794 0.0020330183 -0.0040545166 -0.00012780144
0002a0 50 a7 76 bd 5c d6 07 3c e9 4b 89 bd 95 17 8c 3b
       -0.060218155 0.008290853 -0.06703932 0.004275272
0002b0 65 ce 1d 3c 57 b3 15 bc 3b 73 06 b8 fd 10 29 bd
       0.009631728 -0.009136996 -3.2055406e-05 -0.041275967
0002c0 1d 48 ca ba 74 95 53 bc 07 f9 d2 bc 1b ba 09 bd
       -0.0015432868 -0.01291405 -0.025753511 -0.03362475
0002d0 83 45 1d bc 5e 6b 60 bd b6 77 1e 3b 3c eb 27 3b
       -0.009599092 -0.054789893 0.002418024 0.0025622388
0002e0 05 80 bd bc d6 a4 c6 3b 3a 4f 6a bb de a0 16 bd
       -0.023132334 0.0060621304 -0.003575279 -0.03677451
0002f0 8c 68 16 bc 21 8c db 3b ca 86 1d bd 56 42 75 3c
       -0.009180199 0.0067000543 -0.038458623 0.014969429
000300 00 ba a7 bd c7 2a 21 bc 10 08 eb 3b 56 09 53 3c
       -0.081897736 -0.009836859 0.007172592 0.012880644
000310 f1 49 08 3c d3 6c 85 3b ae b8 52 bb f0 ad 96 3a
       0.00831841 0.0040718107 -0.0032153535 0.0011495929
000320 23 33 9b bc 9a 64 8f bd 09 4a 8a 3b fa 79 aa 3c
       -0.018945282 -0.0700161 0.0042202515 0.020810116
000330 9e 0d de bc 99 fe 03 bc fb a8 0f bc 8c f4 44 bb
       -0.027106103 -0.008056306 -0.008768315 -0.0030052988
000340 f3 50 43 3c d9 9c 49 3b 2f 97 12 bd 72 10 00 3c
       0.011921155 0.0030763655 -0.03578871 0.007816421
000350 67 3f 9b 3b 98 f0 fc 3a f2 08 9a bc af d6 f1 3b
       0.0047377828 0.0019297777 -0.018803094 0.0073803286
000360 4a 40 b6 bb bd c0 8a 3b 76 0c 2a bd d7 26 37 bc
       -0.005561863 0.004234402 -0.04151579 -0.011178694
000370 52 31 46 bd c0 13 fc bc 01 c0 2d 3c be a4 0b 3b
       -0.04838688 -0.030771136 0.010604859 0.002130791
000380 62 84 00 3c 1f 2c dd ba 45 9a 04 ba 10 d2 08 bd
       0.0078440625 -0.0016874111 -0.00050583883 -0.033403456
000390 af ca 91 bc 9d 9e 98 bc 93 d5 ab bc 11 5c 4a bc
       -0.017796842 -0.01863032 -0.020975864 -0.012351052
0003a0 da 4a 80 bc 3f 1f 35 3c 0b 22 a3 bb e9 5f d3 bb
       -0.015660692 0.011054813 -0.0049784235 -0.0064506424
0003b0 46 5f 66 bd f4 ab 94 bc d1 96 c0 3b b6 0f 25 3b
       -0.056243204 -0.0181484 0.0058773537 0.0025186366
0003c0 9d 3b 90 bc 9d 20 0a bd ac 2b 6e bb 48 91 c4 3b
       -0.01760655 -0.03372251 -0.0036341948 0.005998764
0003d0 65 21 97 bc 9e 70 88 bb fa 5b 08 3c 8a fe 16 b9
       -0.018448541 -0.0041638156 0.00832271 -0.00014399938
0003e0 d0 1f 4f bd 79 6b 43 3c 15 8d 09 bd 92 75 b8 3b
       -0.05056745 0.011927479 -0.033581812 0.00562925
0003f0 ca 60 a7 bb f8 ac 13 bc 5a fe eb bb e4 8a 00 3c
       -0.0051079737 -0.009013407 -0.007201952 0.007845614

weight_logvar f4 [128, 512]
000000 10 02 4e c0 10 02 4e c0 10 02 4e c0 10 02 4e c0
       -3.218876 -3.218876 -3.218876 -3.218876
000010 10 02 4e c0 10 02 4e c0 10 02 4e c0 10 02 4e c0
       -3.218876 -3.218876 -3.218876 -3.218876
000020 10 02 4e c0 10 02 4e c0 10 02 4e c0 10 02 4e c0
       -3.218876 -3.218876 -3.218876 -3.218876
000030 10 02 4e c0 10 02 4e c0 10 02 4e c0 10 02 4e c0
       -3.218876 -3.218876 -3.218876 -3.218876
000040 10 02 4e c0 10 02 4e c0 10 02 4e c0 10 02 4e c0
       -3.218876 -3.218876 -3.218876 -3.218876
000050 10 02 4e c0 10 02 4e c0 10 02 4e c0 10 02 4e c0
       -3.218876 -3.218876 -3.218876 -3.218876
000060 10 02 4e c0 10 02 4e c0 10 02 4e c0 10 02 4e c0
       -3.218876 -3.218876 -3.218876 -3.218876
000070 10 02 4e c0 10 02 4e c0 10 02 4e c0 10 02 4e c0
       -3.218876 -3.218876 -3.218876 -3.218876
000080 10 02 4e c0 10 02 4e c0 10 02 4e c0 10 02 4e c0
       -3.218876 -3.218876 -3.218876 -3.218876
000090 10 02 4e c0 10 02 4e c0 10 02 4e c0 10 02 4e c0
       -3.218876 -3.218876 -3.218876 -3.218876
0000a0 10 02 4e c0 10 02 4e c0 10 02 4e c0 10 02 4e c0
       -3.218876 -3.218876 -3.218876 -3.218876
0000b0 10 02 4e c0 10 02 4e c0 10 02 4e c0 10 02 4e c0
       -3.218876 -3.218876 -3.218876 -3.218876
0000c0 10 02 4e c0 10 02 4e c0 10 02 4e c0 10 02 4e c0
       -3.218876 -3.218876 -3.218876 -3.218876
0000d0 10 02 4e c0 10 02 4e c0 10 02 4e c0 10 02 4e c0
       -3.218876 -3.218876 -3.218876 -3.218876
0000e0 10 02 4e c0 10 02 4e c0 10 02 4e c0 10 02 4e c0
       -3.218876 -3.218876 -3.218876 -3.218876
0000f0 10 02 4e c0 10 02 4e c0 10 02 4e c0 10 02 4e c0
       -3.218876 -3.218876 -3.218876 -3.218876
000100 10 02 4e c0 10 02 4e c0 10 02 4e c0 10 02 4e c0
       -3.218876 -3.218876 -3.218876 -3.218876
000110 10 02 4e c0 10 02 4e c0 10 02 4e c0 10 02 4e c0
       -3.218876 -3.218876 -3.218876 -3.218876
000120 10 02 4e c0 10 02 4e c0 10 02 4e c0 10 02 4e c0
       -3.218876 -3.218876 -3.218876 -3.218876
000130 10 02 4e c0 10 02 4e c0 10 02 4e c0 10 02 4e c0
       -3.218876 -3.218876 -3.218876 -3.218876
000140 10 02 4e c0 10 02 4e c0 10 02 4e c0 10 02 4e c0
       -3.218876 -3.218876 -3.218876 -3.218876
000150 10 02 4e c0 10 02 4e c0 10 02 4e c0 10 02 4e c0
       -3.218876 -3.218876 -3.218876 -3.218876
000160 10 02 4e c0 10 02 4e c0 10 02 4e c0 10 02 4e c0
       -3.218876 -3.218876 -3.218876 -3.218876
000170 10 02 4e c0 10 02 4e c0 10 02 4e c0 10 02 4e c0
       -3.218876 -3.218876 -3.218876 -3.218876
000180 10 02 4e c0 10 02 4e c0 10 02 4e c0 10 02 4e c0
       -3.218876 -3.218876 -3.218876 -3.218876
000190 10 02 4e c0 10 02 4e c0 10 02 4e c0 10 02 4e c0
       -3.218876 -3.218876 -3.218876 -3.218876
0001a0 10 02 4e c0 10 02 4e c0 10 02 4e c0 10 02 4e c0
       -3.218876 -3.218876 -3.218876 -3.218876
0001b0 10 02 4e c0 10 02 4e c0 10 02 4e c0 10 02 4e c0
       -3.218876 -3.218876 -3.218876 -3.218876
0001c0 10 02 4e c0 10 02 4e c0 10 02 4e c0 10 02 4e c0
       -3.218876 -3.218876 -3.218876 -3.218876
0001d0 10 02 4e c0 10 02 4e c0 10 02 4e c0 10 02 4e c0
       -3.218876 -3.218876 -3.218876 -3.218876
0001e0 10 02 4e c0 10 02 4e c0 10 02 4e c0 10 02 4e c0
       -3.218876 -3.218876 -3.218876 -3.218876
0001f0 10 02 4e c0 10 02 4e c0 10 02 4e c0 10 02 4e c0
       -3.218876 -3.218876 -3.218876 -3.218876
000200 10 02 4e c0 10 02 4e c0 10 02 4e c0 10 02 4e c0
       -3.218876 -3.218876 -3.218876 -3.218876
000210 10 02 4e c0 10 02 4e c0 10 02 4e c0 10 02 4e c0
       -3.218876 -3.218876 -3.218876 -3.218876
000220 10 02 4e c0 10 02 4e c0 10 02 4e c0 10 02 4e c0
       -3.218876 -3.218876 -3.218876 -3.218876
000230 10 02 4e c0 10 02 4e c0 10 02 4e c0 10 02 4e c0
       -3.218876 -3.218876 -3.218876 -3.218876
000240 10 02 4e c0 10 02 4e c0 10 02 4e c0 10 02 4e c0
       -3.218876 -3.218876 -3.218876 -3.218876
000250 10 02 4e c0 10 02 4e c0 10 02 4e c0 10 02 4e c0
       -3.218876 -3.218876 -3.218876 -3.218876
000260 10 02 4e c0 10 02 4e c0 10 02 4e c0 10 02 4e c0
       -3.218876 -3.218876 -3.218876 -3.218876
000270 10 02 4e c0 10 02 4e c0 10 02 4e c0 10 02 4e c0
       -3.218876 -3.218876 -3.218876 -3.218876
000280 10 02 4e c0 10 02 4e c0 10 02 4e c0 10 02 4e c0
       -3.218876 -3.218876 -3.218876 -3.218876
000290 10 02 4e c0 10 02 4e c0 10 02 4e c0 10 02 4e c0
       -3.218876 -3.218876 -3.218876 -3.218876
0002a0 10 02 4e c0 10 02 4e c0 10 02 4e c0 10 02 4e c0
       -3.218876 -3.218876 -3.218876 -3.218876
0002b0 10 02 4e c0 10 02 4e c0 10 02 4e c0 10 02 4e c0
       -3.218876 -3.218876 -3.218876 -3.218876
0002c0 10 02 4e c0 10 02 4e c0 10 02 4e c0 10 02 4e c0
       -3.218876 -3.218876 -3.218876 -3.218876
0002d0 10 02 4e c0 10 02 4e c0 10 02 4e c0 10 02 4e c0
       -3.218876 -3.218876 -3.218876 -3.218876
0002e0 10 02 4e c0 10 02 4e c0 10 02 4e c0 10 02 4e c0
       -3.218876 -3.218876 -3.218876 -3.218876
0002f0 10 02 4e c0 10 02 4e c0 10 02 4e c0 10 02 4e c0
       -3.218876 -3.218876 -3.218876 -3.218876
000300 10 02 4e c0 10 02 4e c0 10 02 4e c0 10 02 4e c0
       -3.218876 -3.218876 -3.218876 -3.218876
000310 10 02 4e c0 10 02 4e c0 10 02 4e c0 10 02 4e c0
       -3.218876 -3.218876 -3.218876 -3.218876
000320 10 02 4e c0 10 02 4e c0 10 02 4e c0 10 02 4e c0
       -3.218876 -3.218876 -3.218876 -3.218876
000330 10 02 4e c0 10 02 4e c0 10 02 4e c0 10 02 4e c0
       -3.218876 -3.218876 -3.218876 -3.218876
000340 10 02 4e c0 10 02 4e c0 10 02 4e c0 10 02 4e c0
       -3.218876 -3.218876 -3.218876 -3.218876
000350 10 02 4e c0 10 02 4e c0 10 02 4e c0 10 02 4e c0
       -3.218876 -3.218876 -3.218876 -3.218876
000360 10 02 4e c0 10 02 4e c0 10 02 4e c0 10 02 4e c0
       -3.218876 -3.218876 -3.218876 -3.218876
000370 10 02 4e c0 10 02 4e c0 10 02 4e c0 10 02 4e c0
       -3.218876 -3.218876 -3.218876 -3.218876
000380 10 02 4e c0 10 02 4e c0 10 02 4e c0 10 02 4e c0
       -3.218876 -3.218876 -3.218876 -3.218876
000390 10 02 4e c0 10 02 4e c0 10 02 4e c0 10 02 4e c0
       -3.218876 -3.218876 -3.218876 -3.218876
0003a0 10 02 4e c0 10 02 4e c0 10 02 4e c0 10 02 4e c0
       -3.218876 -3.218876 -3.218876 -3.218876
0003b0 10 02 4e c0 10 02 4e c0 10 02 4e c0 10 02 4e c0
       -3.218876 -3.218876 -3.218876 -3.218876
0003c0 10 02 4e c0 10 02 4e c0 10 02 4e c0 10 02 4e c0
       -3.218876 -3.218876 -3.218876 -3.218876
0003d0 10 02 4e c0 10 02 4e c0 10 02 4e c0 10 02 4e c0
       -3.218876 -3.218876 -3.218876 -3.218876
0003e0 10 02 4e c0 10 02 4e c0 10 02 4e c0 10 02 4e c0
       -3.218876 -3.218876 -3.218876 -3.218876
0003f0 10 02 4e c0 10 02 4e c0 10 02 4e c0 10 02 4e c0
       -3.218876 -3.218876 -3.218876 -3.218876

bias_mu f4 [128]
000000 40 eb f4 bd 1b 30 18 bc 4a 0c 41 3a 3c 7d a7 bb
       -0.11958933 -0.009288813 0.0007364197 -0.0051113646
000010 f8 a8 1c 3e 3a ef 35 3f 40 f1 fb 3e ff e8 24 3e
       0.15298831 0.71068156 0.49207497 0.16104506
000020 87 46 2c be 48 ee 1a be 06 7b 36 bf 8b 88 5f 3e
       -0.16823779 -0.1512996 -0.7128147 0.21829431
000030 d4 f4 d2 bb 91 4b 48 be a5 e2 3d bf 24 28 ca bd
       -0.006437877 -0.19560076 -0.7417396 -0.098709375
000040 8a 6a b4 bb 20 41 fd be 3b 44 b7 be ae d5 19 bc
       -0.0055058645 -0.4946375 -0.35794243 -0.009389324
000050 8e ee 04 be cf c8 1a 3f 88 ca 1f be fb 1a 3f bf
       -0.12981626 0.6046266 -0.15604603 -0.74650544
000060 3f b5 8b 3e 42 ba a4 bb d8 06 5e bb d4 f1 6c bb
       0.27286717 -0.0050270865 -0.003387859 -0.0036154883
000070 1c 98 00 bf 10 80 17 be e3 91 8a 3b fb 8a a4 bd
       -0.502321 -0.14794946 0.004228817 -0.08034321
000080 72 90 f3 bd 25 b7 20 be f0 d4 a0 bb ee 39 1d be
       -0.11892785 -0.15694864 -0.0049081966 -0.1535413
000090 1e f3 9c bc 39 5a 44 be 69 66 01 be 12 d8 01 bf
       -0.019158896 -0.19175042 -0.12636723 -0.5072032
0000a0 c9 94 1f be 50 fe 87 bc d5 a9 7e 3b e2 6c 04 be
       -0.15584101 -0.016600758 0.0038858552 -0.1293216
0000b0 31 89 0d bf a2 07 e3 bd 30 b6 03 bc 5d 56 e4 bd
       -0.5528746 -0.1108544 -0.008039042 -0.11149285
0000c0 77 f5 1d 3b 82 7e 89 be a9 03 ba bb 56 dc e1 be
       0.0024102607 -0.2685433 -0.005676706 -0.44113415
0000d0 4e 2c 03 bf 32 50 7b bc 16 07 09 be 91 fc 1d bf
       -0.5123948 -0.015338944 -0.1338161 -0.6171351
0000e0 6c 3d 1f be 97 5b 05 be c8 ac ce 3a 96 53 f7 be
       -0.15550774 -0.1302322 0.0015768046 -0.48305959
0000f0 70 41 c4 3a b7 85 f8 3e e3 d7 f8 3d 22 e6 34 bf
       0.0014973115 0.48539516 0.12150552 -0.70663655
000100 fb e4 5f bc 6d 79 66 bc 8c 3d da bd 3e b8 28 bf
       -0.013665433 -0.014067036 -0.106562704 -0.6590613
000110 f2 7d 22 be 3a 44 e9 be b2 b8 e7 be 75 00 87 3e
       -0.15868357 -0.45559865 -0.452581 0.26367536
000120 2e d3 08 be 1f 11 90 bb 05 60 8b bc ad de 58 bc
       -0.13361809 -0.0043965722 -0.01701356 -0.013236684
000130 d1 70 b1 be 37 d2 63 be c4 fd 07 be 10 09 18 bc
       -0.34656385 -0.2224816 -0.13280398 -0.009279504
000140 6d 3d e0 bd 62 67 89 bb 57 d5 9a bc 63 39 b8 bd
       -0.10949216 -0.0041932324 -0.018900556 -0.08995321
000150 a7 58 a8 be f4 7c 66 be 6a 2c 82 3e 3e 6a e7 bc
       -0.32880136 -0.22508603 0.2542451 -0.028248902
000160 de 6a 07 be 36 af 0d be 60 64 ae bb b0 41 16 bd
       -0.1322436 -0.13836369 -0.005322024 -0.03668374
000170 e9 0b f7 3e 3e be 14 be af 7e 89 3e 4c 48 48 be
       0.48251274 -0.14525697 0.26854464 -0.19558829
000180 c7 fd a8 bc 89 ff 29 bf a2 a3 91 bc 7e e9 9d 3a
       -0.020628823 -0.6640554 -0.017778222 0.0012047736
000190 e5 a2 32 3f a3 24 be be 5c 9b 25 bf 8d 40 31 3f
       0.6977981 -0.37137327 -0.64690185 0.6923912
0001a0 e1 32 1e bf 44 8d 2a bc d2 5e 2e bf c1 aa 0d ba
       -0.61796385 -0.010409657 -0.68113434 -0.00054041675
0001b0 17 33 be 3e d7 83 be 3c bd de 9e bc 46 5c 26 be
       0.37148353 0.023256226 -0.01939332 -0.16246137
0001c0 4b 4a 30 be e4 b8 6e bc 1d 2a 9f 3e 31 ad 1f be
       -0.1721584 -0.014570449 0.31086817 -0.15593411
0001d0 8b 52 46 be ee fa 0a be ed bd 45 be 0e 9d e5 bd
       -0.19367425 -0.13572285 -0.19310732 -0.112115964
0001e0 4d fb 33 be 03 9e 6c bd 5a ec 48 bc f4 f6 4a bb
       -0.17576332 -0.05776788 -0.012263382 -0.003096995
0001f0 23 47 85 3e a9 d4 17 be 2a b7 15 be ae 14 ce bb
       0.26030836 -0.14827217 -0.14620653 -0.0062890863

bias_logvar f4 [128]
000000 10 02 4e c0 10 02 4e c0 10 02 4e c0 10 02 4e c0
       -3.218876 -3.218876 -3.218876 -3.218876
000010 21 33 4e c0 25 8b 7a c0 29 2d 4f c0 10 02 4e c0
       -3.2218707 -3.9147427 -3.2371314 -3.218876
000020 10 02 4e c0 10 02 4e c0 bf 10 4e c0 10 02 4e c0
       -3.218876 -3.218876 -3.219772 -3.218876
000030 10 02 4e c0 10 02 4e c0 88 b1 50 c0 10 02 4e c0
       -3.218876 -3.218876 -3.2608356 -3.218876
000040 10 02 4e c0 10 02 4e c0 10 02 4e c0 10 02 4e c0
       -3.218876 -3.218876 -3.218876 -3.218876
000050 10 02 4e c0 d5 5c 63 c0 10 02 4e c0 bb 18 4e c0
       -3.218876 -3.552541 -3.218876 -3.2202594
000060 10 02 4e c0 10 02 4e c0 10 02 4e c0 10 02 4e c0
       -3.218876 -3.218876 -3.218876 -3.218876
000070 10 02 4e c0 10 02 4e c0 10 02 4e c0 10 02 4e c0
       -3.218876 -3.218876 -3.218876 -3.218876
000080 10 02 4e c0 10 02 4e c0 10 02 4e c0 10 02 4e c0
       -3.218876 -3.218876 -3.218876 -3.218876
000090 10 02 4e c0 10 02 4e c0 10 02 4e c0 10 02 4e c0
       -3.218876 -3.218876 -3.218876 -3.218876
0000a0 10 02 4e c0 10 02 4e c0 10 02 4e c0 10 02 4e c0
       -3.218876 -3.218876 -3.218876 -3.218876
0000b0 9f 19 4e c0 10 02 4e c0 10 02 4e c0 10 02 4e c0
       -3.2203138 -3.218876 -3.218876 -3.218876
0000c0 10 02 4e c0 10 02 4e c0 10 02 4e c0 c7 14 4e c0
       -3.218876 -3.218876 -3.218876 -3.2200181
0000d0 67 8c 50 c0 10 02 4e c0 10 02 4e c0 96 35 4e c0
       -3.2585695 -3.218876 -3.218876 -3.2220206
0000e0 3b 81 52 c0 10 02 4e c0 10 02 4e c0 10 02 4e c0
       -3.2891376 -3.218876 -3.218876 -3.218876
0000f0 10 02 4e c0 14 30 4e c0 10 02 4e c0 10 02 4e c0
       -3.218876 -3.2216845 -3.218876 -3.218876
000100 10 02 4e c0 10 02 4e c0 10 02 4e c0 11 aa 4e c0
       -3.218876 -3.218876 -3.218876 -3.22913
000110 10 02 4e c0 d0 6e 4e c0 10 02 4e c0 10 02 4e c0
       -3.218876 -3.2255135 -3.218876 -3.218876
000120 10 02 4e c0 10 02 4e c0 10 02 4e c0 10 02 4e c0
       -3.218876 -3.218876 -3.218876 -3.218876
000130 10 02 4e c0 10 02 4e c0 10 02 4e c0 10 02 4e c0
       -3.218876 -3.218876 -3.218876 -3.218876
000140 10 02 4e c0 10 02 4e c0 10 02 4e c0 10 02 4e c0
       -3.218876 -3.218876 -3.218876 -3.218876
000150 d0 08 4e c0 10 02 4e c0 39 1f 4e c0 10 02 4e c0
       -3.2192879 -3.218876 -3.2206557 -3.218876
000160 10 02 4e c0 10 02 4e c0 10 02 4e c0 10 02 4e c0
       -3.218876 -3.218876 -3.218876 -3.218876
000170 27 74 4e c0 10 02 4e c0 d1 0d 50 c0 10 02 4e c0
       -3.2258394 -3.218876 -3.2508433 -3.218876
000180 10 02 4e c0 c9 1e 4e c0 10 02 4e c0 10 02 4e c0
       -3.218876 -3.220629 -3.218876 -3.218876
000190 c0 9a 73 c0 10 02 4e c0 9e 32 4e c0 f8 3a 64 c0
       -3.8063202 -3.218876 -3.2218394 -3.5660992
0001a0 ff 07 4e c0 10 02 4e c0 6d 6f 51 c0 10 02 4e c0
       -3.219238 -3.218876 -3.272426 -3.218876
0001b0 6a fd 4e c0 10 02 4e c0 10 02 4e c0 10 02 4e c0
       -3.2342172 -3.218876 -3.218876 -3.218876
0001c0 10 02 4e c0 10 02 4e c0 10 02 4e c0 10 02 4e c0
       -3.218876 -3.218876 -3.218876 -3.218876
0001d0 10 02 4e c0 10 02 4e c0 10 02 4e c0 10 02 4e c0
       -3.218876 -3.218876 -3.218876 -3.218876
0001e0 10 02 4e c0 10 02 4e c0 10 02 4e c0 10 02 4e c0
       -3.218876 -3.218876 -3.218876 -3.218876
0001f0 ff a9 4e c0 10 02 4e c0 10 02 4e c0 10 02 4e c0
       -3.2291257 -3.218876 -3.218876 -3.218876

z_mu f4 [128]
000000 2c 7c 3c 3b 44 08 1d 39 73 64 13 3a bf 06 9a b8
       0.0028760536 0.00014975766 0.0005622573 -7.344549e-05
000010 76 75 c7 3e 37 33 60 3f 50 50 08 3f 5e 45 13 3e
       0.38956803 0.8757815 0.5324755 0.1438193
000020 48 db ef 3a ca 6c 0d bc 81 05 58 3f 6f 32 90 3e
       0.0018299604 -0.008631894 0.843834 0.28163478
000030 14 df 85 b8 af da cd 3b a5 6c 23 3f 00 ab 56 3e
       -6.383486e-05 0.0062821726 0.63837653 0.20963669
000040 dc d0 cf b9 85 4e 89 3e 16 e5 78 3e 52 70 2d 39
       -0.0003963773 0.26817718 0.2430614 0.00016540408
000050 8a 52 4e 3e 4c 06 3f 3f b3 b4 37 3b 88 46 4a 3f
       0.20148674 0.74618983 0.002803129 0.7901387
000060 12 b5 2e 3e 41 45 91 b9 b7 21 45 ba f1 61 75 b8
       0.1706126 -0.00027708153 -0.00075199775 -5.8503767e-05
000070 f1 0d 94 3e ea b9 00 3c ec d6 08 3a fe 56 05 3c
       0.28916886 0.007856825 0.0005220014 0.008138416
000080 bb 81 50 bd c0 91 29 3a c0 10 82 b9 a2 48 34 3b
       -0.05090497 0.0006468557 -0.00024808012 0.0027509113
000090 25 8b 9f b8 20 4d 8c bc 04 8d 32 bb 2b 52 a8 3e
       -7.6076285e-05 -0.01712662 -0.0027244696 0.3287519
0000a0 56 94 2f 3a 82 78 86 39 38 7b 3b 38 78 8b e9 bb
       0.0006697824 0.00025648257 4.469903e-05 -0.0071272217
0000b0 94 6f d2 3e e2 c6 37 3b a8 17 4e 39 70 2f b5 bb
       0.41100752 0.0028042127 0.00019654504 -0.0055293366
0000c0 8c e9 a1 39 7a 05 0c 3d bf df 18 39 d7 5a 1f 3f
       0.0003088232 0.03418491 0.00014579202 0.62247986
0000d0 0d ce 1e 3f ce 84 14 38 6d 03 db bc 9f 2a 5c 3f
       0.6203316 3.5409634e-05 -0.026735032 0.86002535
0000e0 d5 a7 02 3f e7 70 7a 3b 84 46 69 b8 4f b3 05 3f
       0.5103734 0.0038214268 -5.56172e-05 0.5222673
0000f0 39 62 be 3a af b8 fa 3e 13 26 80 3c d9 50 2b 3f
       0.0014525122 0.48969027 0.015643155 0.6692024
000100 90 e1 2f b9 1e d6 46 3a e7 c3 77 3b e7 00 ea 3e
       -0.00016773329 0.00075850065 0.0037805976 0.45703813
000110 2b 22 9d 3c 07 5e c3 3e 85 63 79 3f 1d 5f 04 3e
       0.019181332 0.38157675 0.9741748 0.12926908
000120 bc 21 d0 3b 98 1f c4 b9 37 08 d4 39 1b 3e 8d b8
       0.0063516777 -0.00037407572 0.00040441912 -6.734972e-05
000130 27 88 9b 3e 4a e4 16 3c 25 86 3e bb d8 f7 be 38
       0.30377313 0.009209702 -0.0029071656 9.1060705e-05
000140 e0 ea d5 bb 3c 93 d6 b7 39 88 c7 b9 1c 71 ab 3e
       -0.0065282434 -2.557935e-05 -0.00038057732 0.33484733
000150 83 55 0b 3f 8b b2 eb 3b 16 00 a1 3e cd b2 a5 39
       0.54427356 0.007192915 0.31445378 0.0003160447
000160 a6 4c ff ba 9e 79 83 bb 83 21 02 b9 fd 8f 83 bb
       -0.0019477799 -0.0040123006 -0.0001241025 -0.0040149675
000170 26 11 fb 3e ba ba 54 3a 4a 3f c9 3e d4 ae 66 bc
       0.4903652 0.00081149826 0.39306098 -0.014079768
000180 6d 64 67 ba 01 c5 87 3f 20 ca ea b8 ed ea 27 39
       -0.00088269153 1.0606996 -0.00011195638 0.00016013878
000190 73 e1 57 3f 15 5a 91 3e 51 38 12 3f 42 84 42 3f
       0.84328383 0.2838904 0.5711718 0.7598306
0001a0 cc 2f d1 3e bd 38 03 3a f0 bb 18 3f 75 4e c5 39
       0.4085678 0.0005005708 0.5966177 0.00037633223
0001b0 6d 8d de 3e 01 b0 9e 3a 8a 95 eb 38 88 af 46 3c
       0.43467274 0.0012106897 0.00011233527 0.012126811
0001c0 12 3d 4a bc 36 87 59 38 eb e2 ae 3e 90 57 dd 3b
       -0.012343662 5.1862757e-05 0.341575 0.006754823
0001d0 8f 82 4b 3b 5a 51 9b 3a 85 9f 82 bb 51 28 9c bc
       0.003105316 0.0011849806 -0.0039863014 -0.019062193
0001e0 af 60 66 3b c7 11 9b bc 4f 8d 82 b8 16 dd c3 b8
       0.0035152843 -0.018929375 -6.225204e-05 -9.339505e-05
0001f0 98 87 d3 3e 88 c4 37 3c 58 8c 61 3c a2 68 d3 39
       0.41314387 0.01121629 0.013766371 0.00040323014

z_logvar f4 [128]
000000 8c 73 8e c0 b4 9d 2a c1 b0 d9 7f c0 86 22 2f c1
       -4.451605 -10.663502 -3.9976616 -10.945929
000010 d1 11 9b c0 91 87 9c c0 02 3f 98 c0 a6 b4 90 c0
       -4.845925 -4.8915486 -4.7576914 -4.522052
000020 26 f4 6f c0 1c b5 86 c0 8a b7 8b c0 21 89 97 c0
       -3.7492766 -4.209608 -4.3661547 -4.7354894
000030 ba 2b 31 c1 d2 19 51 c0 ef 75 9f c0 46 0a 8f c0
       -11.073175 -3.267201 -4.983146 -4.470004
000040 e8 8c 2a c1 e6 d0 81 c0 a7 5e 93 c0 0b e0 32 c1
       -10.659401 -4.0567503 -4.6053042 -11.179698
000050 34 6e 8f c0 32 08 98 c0 14 f3 8c c0 17 8f 8c c0
       -4.4822025 -4.7510004 -4.4046726 -4.392467
000060 4a e3 83 c0 8e f5 2f c1 a6 e6 2c c1 eb 14 2e c1
       -4.1214952 -10.99745 -10.806311 -10.880107
000070 37 09 90 c0 a0 ae 88 c0 49 e4 2c c1 1a fc 82 c0
       -4.501125 -4.2713165 -10.805734 -4.093274
000080 91 4d 87 c0 8b 7d 88 c0 65 50 2e c1 2b f7 84 c0
       -4.2282186 -4.265325 -10.894628 -4.155172
000090 6a cb 27 c1 b3 4f 7f c0 5c f6 a4 c0 1c f5 8c c0
       -10.487162 -3.9892395 -5.155073 -4.4049206
0000a0 84 ad 87 c0 db 2b 2f c1 1d b2 2e c1 8f 56 8b c0
       -4.239931 -10.948207 -10.918485 -4.354316
0000b0 51 9b 95 c0 a3 24 82 c0 b3 81 36 c1 62 00 b0 c0
       -4.6752095 -4.0669723 -11.406665 -5.5000467
0000c0 11 e4 2d c1 35 0d 70 c0 57 d0 35 c1 f6 61 68 c0
       -10.86818 -3.750806 -11.363364 -3.630979
0000d0 05 c7 8d c0 2f 44 26 c1 17 26 81 c0 73 8e 90 c0
       -4.4305444 -10.391646 -4.0358996 -4.517389
0000e0 a4 3d aa c0 35 ee 8c c0 60 3c 33 c1 59 fc 81 c0
       -5.3200245 -4.404078 -11.20224 -4.062054
0000f0 6c 38 30 c1 2e 2c 8b c0 38 16 89 c0 10 8e 80 c0
       -11.013775 -4.349143 -4.2839622 -4.0173416
000100 4b e6 2b c1 8d 3e 2a c1 b5 86 b2 c0 40 ef 95 c0
       -10.743724 -10.640271 -5.5789437 -4.6854553
000110 fd 4f 8b c0 82 41 95 c0 1b ac 89 c0 63 14 84 c0
       -4.353514 -4.6642466 -4.302259 -4.1274886
000120 fb ab 7e c0 c7 f3 30 c1 07 3c 1f c1 62 e6 25 c1
       -3.9792469 -11.059516 -9.952155 -10.368746
000130 c5 12 6a c0 5c 20 81 c0 85 bb 92 c0 ba ce 2d c1
       -3.6573956 -4.0352 -4.5853906 -10.86297
000140 c5 d6 86 c0 6a f2 2c c1 1b 0d 23 c1 40 cf 83 c0
       -4.213717 -10.809183 -10.1907 -4.119049
000150 8d fe 5f c0 c3 9f 84 c0 85 e1 9e c0 2e f9 20 c1
       -3.4999115 -4.144502 -4.9650292 -10.060835
000160 7f 9f 8b c0 ad 90 8a c0 6d 81 2d c1 e5 f7 04 c1
       -4.3632197 -4.3301606 -10.844098 -8.310521
000170 63 de 95 c0 43 e6 95 c0 47 2d a3 c0 84 1e 55 c0
       -4.683397 -4.684358 -5.099277 -3.3299875
000180 08 e1 27 c1 33 74 a6 c0 6c 35 32 c1 16 3e 31 c1
       -10.492439 -5.2016845 -11.138042 -11.077658
000190 f0 4f 9b c0 6f c5 8d c0 f4 2c 8b c0 a7 8e 9a c0
       -4.853508 -4.430351 -4.3492374 -4.8299136
0001a0 fa 23 8e c0 51 bf 2d c1 51 2f 94 c0 48 b1 2e c1
       -4.4418917 -10.859208 -4.630776 -10.918282
0001b0 97 72 92 c0 62 8e 29 c1 4b ff 21 c1 24 38 80 c0
       -4.576488 -10.597261 -10.124827 -4.006853
0001c0 48 a0 89 c0 83 7d 29 c1 5a 23 97 c0 b7 2c 77 c0
       -4.3008156 -10.5931425 -4.7230654 -3.8621042
0001d0 e0 86 64 c0 94 08 a1 c0 59 7e 85 c0 08 ec 93 c0
       -3.570732 -5.032297 -4.1716733 -4.6225624
0001e0 26 98 82 c0 d8 d9 86 c0 96 ba 2d c1 95 8d 2a c1
       -4.081073 -4.2140923 -10.858053 -10.659566
0001f0 85 98 a2 c0 ee 5e 94 c0 1b 92 5f c0 9d 1d 2f c1
       -5.081118 -4.636588 -3.4932926 -10.94473

weight_mu f4 [2, 128]
000000 a9 91 15 3d 02 ab ea bc d7 25 17 3e 8c c8 cc bc
       0.036515865 -0.028645996 0.14760529 -0.024997972
000010 81 1c 03 bf 3a fe d0 3e ca 0b be 3e 85 48 af 3e
       -0.5121537 0.4081896 0.3711837 0.34235016
000020 a2 bb f5 bc 9e e9 1c bd 9c ff eb be db 52 ad 3e
       -0.029996697 -0.038308732 -0.46093452 0.33852276
000030 97 bd 36 bb f2 f4 30 bd 2e bb a8 be 06 a1 c3 be
       -0.0027884 -0.043202348 -0.32955307 -0.3820879
000040 b3 83 25 bd 41 ba d6 be 82 fc ac be cf 3d 0b bc
       -0.0404088 -0.41938975 -0.33786398 -0.008498623
000050 7b e9 bf be fa 70 bb 3e 00 98 b7 bc 38 9e f7 be
       -0.3748282 0.36609632 -0.022411346 -0.483629
000060 96 8c b6 3e 76 97 6e 3c 1a 09 78 3b 9e 12 e5 3c
       0.35654134 0.014562478 0.0037847222 0.027962979
000070 3f 52 f1 be 83 93 f3 37 cf 16 d2 bc 90 ed 0b bc
       -0.4713306 2.9036548e-05 -0.025645642 -0.008540526
000080 8d e4 d0 bd b3 b6 0c 3c 8d 3c 4c 3a 83 41 65 3a
       -0.101998426 0.008588481 0.0007791005 0.0008745419
000090 db 1b 11 bd b3 02 4e bd fd a8 8b 3c ea 64 ca be
       -0.035426956 -0.050295543 0.017048353 -0.39530116
0000a0 f5 bf 0b 3d 4d bd a0 bc 34 b6 08 3d 7c 18 1a 3d
       0.03411861 -0.019621516 0.033376887 0.037621006
0000b0 b5 77 d0 be 7b 8c d8 3d 32 16 62 3c f9 30 f6 3c
       -0.4071633 0.105736695 0.013799237 0.030052649
0000c0 6b b2 c6 3b 15 c5 9a be 7b 44 b3 bb ba 28 35 bf
       0.0060637495 -0.30228487 -0.00547081 -0.7076527
0000d0 c3 66 f8 be a8 5a fa bc d2 88 cc 3c 94 4d 18 bf
       -0.485159 -0.030560806 0.024967585 -0.59493375
0000e0 b3 9b 9a be e6 9c e1 bb b9 86 88 3c 82 b9 12 bf
       -0.30196914 -0.006885159 0.016665803 -0.5731431
0000f0 89 2d 46 bd ee 60 c7 3e ac 0c 7f 3e ae cd 02 bf
       -0.04838327 0.3894114 0.24907178 -0.5109509
000100 b2 6e 79 3c 2c e0 f0 bc 1a 4a 6e bd 23 ef c6 be
       0.015224146 -0.029403768 -0.058176138 -0.38854322
000110 67 c9 ca bc 5c 16 c7 be 45 71 15 bf 28 d1 a2 3e
       -0.02475424 -0.38884246 -0.5837596 0.318002
000120 6b 53 3c 3c b9 76 c8 3c 23 34 1f bd 2c 30 09 3c
       0.011494498 0.024470674 -0.03886808 0.0083733015
000130 9b 5a 19 bf 6b 5d 1a be 6c c6 03 bb 8d 14 03 3c
       -0.5990388 -0.15074699 -0.0020107282 0.008000505
000140 74 7d 65 3d 86 f2 c8 3c 61 02 17 bd 53 2b de be
       0.056027845 0.024529707 -0.036867503 -0.4339243
000150 10 fb 36 bf 05 89 6b be 83 92 a4 3e 47 75 01 bd
       -0.7147684 -0.23001488 0.3214303 -0.031605985
000160 d5 30 99 bc 81 97 e6 bc 54 95 ab bb 02 d9 3b 3c
       -0.018700043 -0.028148415 -0.005236307 0.011465313
000170 2b 7f a7 3e e5 b0 1c ba 23 0d a7 3e 7d 3c 46 bd
       0.3271421 -0.0005977287 0.3262721 -0.04839753
000180 0f 6e 0d ba 94 28 fe be 77 d3 de bc b7 20 d7 3c
       -0.0005395123 -0.49640334 -0.027200444 0.026260717
000190 28 dc cf 3e c5 e1 cd be 26 c0 d2 be 59 81 ce 3e
       0.40597653 -0.4021131 -0.41162223 0.4033306
0001a0 d0 40 e0 be fb f0 ff bc de 06 c3 be 34 c9 8b 3a
       -0.43799448 -0.031242838 -0.38091177 0.0010664822
0001b0 2e 91 ac 3e a6 f1 9c bd 58 b1 9b bc f4 cb 2b bd
       0.33704513 -0.07663278 -0.019005463 -0.04194255
0001c0 59 2e 83 bd 0e 62 88 bc b3 1f a4 3e 62 84 99 3d
       -0.064053245 -0.016648319 0.32055435 0.07495953
0001d0 77 f5 4d bd cf ae 82 bd 85 7c 36 be ce 60 91 3c
       -0.05028292 -0.06380998 -0.17820938 0.017746355
0001e0 17 e7 e4 bd d4 ae b3 3d 36 08 28 3c 63 11 a4 3c
       -0.111768894 0.0877358 0.010255864 0.020027822
0001f0 7c a0 9f 3e cf ee 8f bd 80 cb 35 bc da 2d c6 39
       0.31177127 -0.07027971 -0.011095881 0.00037799665
000200 27 18 27 bd 1f 3a e5 3c 18 70 0f be 68 30 c6 3c
       -0.040794518 0.027981816 -0.14007604 0.024193004
000210 23 13 03 3f fb 9d d1 be 6d c1 bc be dd 39 b4 be
       0.51201075 -0.40940842 -0.36866322 -0.35200396
000220 08 9f 37 3d 9b bd 3b 3d fe 84 ea 3e 4f 41 ad be
       0.0448294 0.04583512 0.4580459 -0.3383889
000230 89 25 74 3b 0a 03 53 3d 02 bb a6 3e 64 eb c1 3e
       0.0037253818 0.05151657 0.3256455 0.378749
000240 9d fc 27 3d 3a 0a d7 3e 37 e7 ae 3e 77 04 68 3c
       0.041012395 0.4199999 0.34160778 0.014161221
000250 c9 b2 bf 3e c5 c5 bd be a8 29 ec 3c f0 03 f5 3e
       0.3744109 -0.3706495 0.028828457 0.47854567
000260 e2 66 b8 be 4d 56 77 bc 1a cc 6b 3b a8 d9 ca bc
       -0.36015993 -0.015096259 0.0035979808 -0.02476199
000270 05 9b f4 3e 4c ab cc 3b 66 cc c8 3c 48 db 99 3a
       0.4777452 0.006246006 0.024511527 0.0011738325
000280 11 d0 c5 3d 3a b4 20 3b c7 a7 86 bb 67 28 b0 3b
       0.09658826 0.0024521486 -0.004109356 0.00537591
000290 98 bd 0c 3d 90 2c 6e 3d 0e 26 69 bc 98 06 ca 3e
       0.0343605 0.058147967 -0.014230264 0.39458156
0002a0 86 c1 26 bd 3a ba b8 3c fa 15 fb bc ad 16 4b bd
       -0.040711902 0.022549737 -0.030650128 -0.049582172
0002b0 8a a5 d0 3e d3 e4 be bd 04 9f 7b bc 81 04 b0 bc
       0.40751296 -0.093209885 -0.0153577365 -0.021486523
0002c0 87 e8 97 bb 87 cd a2 3e 3e 8d 70 3b ef 03 33 3f
       -0.0046358737 0.3179743 0.003670528 0.6992788
0002d0 55 b0 f7 3e a4 8c fb 3c 55 fa 2b bd ea bb 16 3f
       0.48376718 0.030706711 -0.041986782 0.58880484
0002e0 77 02 9b 3e 95 ab 60 3c de f0 49 bc 83 b9 15 3f
       0.30275318 0.013712783 -0.012325494 0.58486193
0002f0 c4 77 42 3d 32 43 c6 be 5e 8e 84 be 9f 69 01 3f
       0.0474775 -0.3872314 -0.25889868 0.5055179
000300 99 d5 8f bc 52 0a ee 3c fd 31 33 3d b9 ab c4 3e
       -0.017557906 0.029057655 0.043748844 0.38412264
000310 57 ab fb 3c c4 55 c4 3e ac e5 15 3f 74 d7 a2 be
       0.03072135 0.38346684 0.58553576 -0.31805003
000320 48 a0 d1 ba 18 70 d3 bc 63 8e 26 3d 71 21 17 bc
       -0.0015993202 -0.025810286 0.040663134 -0.009224282
000330 c9 e8 17 3f e5 c4 17 3e 61 6f a2 bb 19 f0 3c bc
       0.59339577 0.14821203 -0.004957125 -0.011531853
000340 cf a3 89 bd 93 43 e2 bc 3d 42 24 3d d6 bb d9 3e
       -0.06720697 -0.027620113 0.040102232 0.4252612
000350 1a 7b 36 3f cd 60 65 3e 49 4c a2 be 17 10 f7 3c
       0.7128159 0.22400208 -0.31698826 0.03015904
000360 4d ab 9d 3c 24 cd 08 3d 59 73 d0 3b 5b f8 2d bc
       0.019246722 0.033398762 0.0063614068 -0.010618295
000370 b3 60 a6 be e8 15 77 bb 2c 18 a7 be 29 99 7b 3d
       -0.3249565 -0.0037702266 -0.3263563 0.06142536
000380 dc 5c 0d bb d2 72 00 3f e9 ab f3 3c ff 3a c6 bc
       -0.002157024 0.501752 0.02974506 -0.024198053
000390 79 9f d0 be 28 5d cf 3e 3a c9 d2 3e 12 94 cc be
       -0.40746668 0.4050076 0.4116915 -0.3995672
0003a0 41 4e e2 3e 84 13 e0 3c c2 36 c4 3e 34 29 8c bb
       0.44200328 0.027353056 0.38323027 -0.0042773727
0003b0 f7 17 ad be 5d 6d 94 3d 80 6c 8a 3c ed b5 21 3d
       -0.33807346 0.07247422 0.01689744 0.03948014
0003c0 bd 73 93 3d 0b f9 45 3c cb d4 a3 be b1 3c 9b bd
       0.0719981 0.012083302 -0.31998286 -0.07579935
0003d0 37 c3 72 3d 6d db 77 3d 36 9a 31 3e 22 48 ad bc
       0.059268203 0.060511995 0.17343983 -0.02115256
0003e0 77 ea eb 3d 8d 84 cf bd f5 66 2a bc e1 30 b8 bc
       0.1151933 -0.10132704 -0.010400523 -0.022484245
0003f0 76 89 9e be e1 c7 87 3d d5 5b 9d 3b 7f 47 81 b8
       -0.3096425 0.06629921 0.004802207 -6.1645165e-05
