metric/probe_retrainb_sample1_50000.pth (torch, 539623 bytes, 12 tensors)

z_mu f4 [512]
00000000: 33db 33b9 0d62 e83d d6b0 c83e ce47 97ba
00000010: cb7f a43f f35e d0bb 017e b43f 9053 693a
00000020: 4d57 8c3b 9544 bcba 6d27 9c3a 9127 bd3f
00000030: 71e6 88bb 377f 903b 39e7 5a3f adbb 6e3f
00000040: 66d0 9eb9 0df0 2b3b d7b1 983f 16fa 883b
00000050: 6db4 033b 545b 5cb9 7338 2abb 5dd0 d5b8
00000060: b25d 443a 5acd 15ba 17f3 d43a 30ca 773f
00000070: 635a c93f a5b3 17bb a44f 8b3e a104 8a3f
00000080: 1c3a 273a 1e39 35bb cc7c a23a 00d1 023c
00000090: 478e 7bbb bba5 893f d1ba fc3a fc66 e33e
000000a0: adcb 423f 014e 67ba 1b0a 9b3e cb4c 013f
000000b0: 4d8a e538 d4dc 7bba 40cd 22bc 99eb 923f
000000c0: f0f9 4f3b b40c a23a dabd 0abb 8169 b53f
000000d0: 0f03 663f f6ee 3a3f c521 c83e af5e 1fba
000000e0: 33fb 9a39 1008 113f 555e c73a 5b36 5b39
000000f0: 2450 38bb 8e40 b03c be60 89bb 6a5c 3d3c
00000100: b98e 2d3b 65a0 fd3f 02d7 e43a be8b cdbb
00000110: 0155 4c3f 7bc9 7d3f 1965 453a db48 9bba
00000120: 446b 953a 23f5 3f3f af27 633b f754 f23a
00000130: ae70 3d3f 30ce 7a3b d052 6b3a dc01 24bb
00000140: bd61 d93f 2ca8 bf3b 2f2c 923a 92d1 ea3a
00000150: 1012 be3a 5ec1 80ba 1136 a13e 108a 873f
00000160: 3131 7a3b e593 df3d f0bb 923f 3138 4a3f
00000170: 1e51 023b b737 953a 071c 59ba 3fd2 8b3f
00000180: d6c0 2d3c 3995 3c3b 0c41 e238 08ac daba
00000190: 1182 43ba 1f50 4a3c ed15 6b3f 6056 8b3b
000001a0: 883b 8d3b 124e 843f 4025 92ba f75f ea39
000001b0: 9365 953a fc71 7c3f 8907 4a3d cb3a c43a
000001c0: 3d94 57ba a643 393a 70ee a13b d2d9 e23f
000001d0: 65ba 2abb c774 4a3d 21c0 e7ba f306 a9bb
000001e0: bf96 1f3f 683f 54b9 127d 323b ba1c bcba
000001f0: ed35 11ba 92a1 d93b e8c6 193c 8293 9e3b
00000200: d65c de3d fbf0 623a 9848 483a efb2 e43f
00000210: 6ebd 2940 9af9 aaba 84b8 393c 98c2 573f
00000220: 7c97 b7bb 6b80 a73b 8602 d93a c444 5b3b
00000230: 7a64 4bbb 74f6 c0bb 69ae 0e3c 0d00 083b
00000240: d1bf 3fbc 4bf7 30b9 eb22 003c c838 1c3b
00000250: a82f 083f e8d6 893b 6bcd 76bb 230a c6ba
00000260: c772 e33b 10ca 5abb eb36 daba 2f75 9a3b
00000270: 888e 1ebb b3a6 343f 2238 b63b 7f8c 2eba
00000280: 78e6 503d db37 443b d52b 38ba d5f7 9cb9
00000290: fbd4 27bb a594 463c 6457 803f 292b 463f
000002a0: aa4d f0ba 984b 813f 5439 203f 2c00 153b
000002b0: e33d afba 9285 66bb cfcf c63a afb0 e4ba
000002c0: ba12 6e3f ee61 b33a dc7a 873f 3775 f03b
000002d0: c148 f8ba 4442 d33c 0a7f 3fbc 8b22 cebb
000002e0: e8a9 d33b 693f 9cbb 6c4f d83b b6cd a23b
000002f0: 484e a0b9 322e 263f 8513 4f3b 0510 843a
00000300: ac91 ba3b c586 c53b ce00 623b f368 58ba
00000310: 5883 833f eda1 b6bc ed3c 8c3b 7dd2 a3ba
00000320: 9979 0bbb f523 543f 393a 5db8 e049 e13b
00000330: b1b9 603b 21a2 103f 55a8 b13f 3055 643f
00000340: 3729 0a3b 3451 1f3f baf9 c8b9 f484 3fbb
00000350: d2b6 0e3c fdf4 fdb9 7892 c9ba 74f0 cb3a
00000360: 6ff4 693f 4cc7 993f eb8b 83bb e7a5 79bb
00000370: 8425 043b a2db 263a c864 543f 7385 9d39
00000380: fbd9 ad3b 7162 b13f 6fdc a53f 515c 903f
00000390: cc4b 84bb 776d 0a3d a494 0639 3f4a 5c3c
000003a0: 9c55 c73f 0ce1 00bb b673 343f 6c9e cb3e
000003b0: 4fdc 143f e9bd b73a af51 4e3c 09dc 403a
000003c0: 3f09 9abc e468 cbbb a990 1a3f 73fe 073a
000003d0: 74bb e5b9 ab04 06ba 00f2 cf3e 9d3f 183f
000003e0: 1804 583b ad67 9c39 c2cd 91bb 2900 22bb
000003f0: 0356 df3e 577e bf3e c87f 25bc b90f 193f
-0.00017152428 0.11346827 0.39197415 -0.0011541785 1.2851499 -0.006358975 1.4100953 0.00089006964
0.004282868 -0.0014363701 0.0011913605 1.47777 -0.0041778614 0.0044096964 0.8550907 0.9325512
-0.00030291377 0.002623561 1.1929272 0.004180203 0.0020096556 -0.00021014857 -0.0025973588 -0.00010195442
0.00074907683 -0.00057144987 0.0016246763 0.9679289 1.5730709 -0.0023147848 0.27209198 1.0782663
0.00063792034 -0.0027652453 0.0012396812 0.0079844 -0.0038384364 1.0753702 0.001928175 0.44414508
0.76092035 -0.0008823574 0.30281147 0.505078 0.000109453315 -0.0009607796 -0.009936631 1.1478149
0.0031734668 0.0012363405 -0.002117029 1.4172822 0.8984842 0.73020875 0.39088264 -0.00060794776
0.00029560327 0.5665293 0.0015210608 0.00020905717 -0.002812394 0.021515157 -0.004192441 0.011557678
0.0026482774 1.9814574 0.0017459097 -0.006272762 0.79817206 0.9913556 0.00075300183 -0.0011847274
0.0011399765 0.74983424 0.0034661104 0.0018488456 0.7400006 0.003826987 0.00089768786 -0.0025025522
1.6982952 0.005848905 0.0011152084 0.001791524 0.0014501233 -0.0009823253 0.31486562 1.0589008
0.0038176293 0.109168805 1.1463604 0.7899199 0.0019884775 0.0011384402 -0.00082820695 1.0923537
0.010605058 0.0028775467 0.00010788636 -0.0016683349 -0.0007458041 0.012348204 0.9183033 0.00425224
0.004310075 1.0336325 -0.0011150017 0.00044703457 0.0011398069 0.98611426 0.049323592 0.0014971135
-0.00082236883 0.00070672703 0.004941754 1.7722723 -0.0026051041 0.049427774 -0.001768116 -0.005158299
0.62339395 -0.00020241516 0.0027235192 -0.0014351823 -0.00055393466 0.006641575 0.009385802 0.0048393616
0.10857551 0.00086571247 0.0007640212 1.7867106 2.6521869 -0.0013044358 0.011335496 0.842813
-0.005602775 0.005111744 0.0016556538 0.0033457736 -0.003103523 -0.0058887545 0.008708575 0.0020751983
-0.011703447 -0.00016876792 0.007820825 0.0023837555 0.5319772 0.004206527 -0.003765906 -0.0015109222
0.0069411728 -0.0033384599 -0.0016648447 0.0047136764 -0.0024193842 0.7056686 0.005560891 -0.0006658509
0.051001042 0.002994052 -0.00070255745 -0.00029939288 -0.0025609124 0.012120401 1.002667 0.7740961
-0.0018333693 1.0101194 0.62587476 0.0022735698 -0.0013369884 -0.003517483 0.0015168133 -0.0017447675
0.92997324 0.0013685802 1.0584369 0.007338192 -0.0018942581 0.025788434 -0.011688003 -0.006290739
0.0064594634 -0.0047683013 0.0066012647 0.0049683703 -0.00030575902 0.6491424 0.0031597328 0.0010075575
0.005693635 0.0060280287 0.0034485343 -0.0008255385 1.0274458 -0.02229401 0.004279724 -0.0012498643
-0.0021282195 0.82867366 -5.274473e-05 0.0068752617 0.0034290368 0.5649739 1.3879496 0.89192486
0.0021081695 0.6223328 -0.00038333033 -0.0029223533 0.00871058 -0.0004843845 -0.0015378734 0.0015559332
0.913886 1.2013946 -0.0040144823 -0.003809327 0.0020163963 0.00063651253 0.8296628 0.000300448
0.0053055263 1.3858167 1.2957896 1.1278173 -0.004037356 0.0337958 0.00012834609 0.013445436
1.5573001 -0.0019665388 0.7048906 0.39769304 0.58148664 0.001401839 0.012592717 0.00073570065
-0.018803237 -0.0062075723 0.60376984 0.0005187757 -0.00043817947 -0.000511239 0.4061432 0.59472066
0.0032961424 0.00029831883 -0.004449577 -0.0024719334 0.4362031 0.37401077 -0.010101266 0.59789616

z_logvar f4 [512]
00000000: 5cc1 6dc0 b0f6 40c0 45a0 52c0 968c c7c0
00000010: f59e 8ec0 e52d 9fc0 6dbe 6dc0 8409 cec0
00000020: 4f96 b4c0 4b27 adc0 40b6 bcc0 3326 7cc0
00000030: 8903 a5c0 5172 ccc0 57b9 2dc0 4eae 97c0
00000040: 6e4e 76c0 95c7 97c0 f822 bdc0 6b8f a2c0
00000050: 333c b0c0 d706 c1c0 d1b0 bec0 4d98 acc0
00000060: cb31 e2c0 a310 9ac0 f2a4 b1c0 5874 b3c0
00000070: a7e3 25c0 6d3e b0c0 b9d9 b9c0 6362 a2c0
00000080: 0dbe b1c0 600c 93c0 c94b 87c0 6df2 96c0
00000090: 0b8d 84c0 ee5f aec0 a041 b0c0 c309 83c0
000000a0: 2d78 8dc0 3a4b a5c0 4289 94c0 4a98 97c0
000000b0: 8341 afc0 8093 c4c0 121e 8cc0 ab41 98c0
000000c0: ba95 70c0 814c aac0 e671 9ac0 ad2f 1cc0
000000d0: 5efb 72c0 0d55 b3c0 e89e bec0 ff00 b5c0
000000e0: 4bd7 cbc0 e638 73c0 0465 98c0 b3e7 a2c0
000000f0: ea09 c0c0 7fef 87c0 db5f b8c0 f06e 93c0
00000100: 0af4 9dc0 7042 5fc0 f767 95c0 bb39 97c0
00000110: 04f0 84c0 7260 9dc0 d4f3 9ac0 4f1f a0c0
00000120: 4a1b 99c0 3e2d 74c0 1054 93c0 a39a c0c0
00000130: a509 bbc0 30fe 95c0 f1cb 9dc0 4e9f 83c0
00000140: edf5 90c0 133f b1c0 56c1 a0c0 8e6d 9bc0
00000150: a48c aec0 5cde a8c0 f6df 39c0 2235 b4c0
00000160: 9fad 8fc0 f934 57c0 feb0 9ec0 d2fa a0c0
00000170: e712 a7c0 4b6c acc0 6f94 aec0 d223 c4c0
00000180: 62ba 5dc0 9da6 a6c0 562e 75c0 a4b2 bcc0
00000190: 8859 95c0 1be0 7ec0 efb3 5ec0 576b adc0
000001a0: 34ff a8c0 9e4d 95c0 2c6c bbc0 ae1e c3c0
000001b0: e2c7 80c0 09c9 54c0 f99e 4fc0 1ec0 97c0
000001c0: 4b7c 93c0 0fc3 cec0 ac9c 95c0 1b78 8fc0
000001d0: de09 b6c0 f46a 85c0 fbd8 acc0 8bfb 77c0
000001e0: 5dd2 b8c0 ade8 a6c0 d0f3 8fc0 2e0e b0c0
000001f0: 9fbb c1c0 726e 56c0 bccc 90c0 242c 8bc0
00000200: aa8b 5cc0 ffd1 aec0 6ea6 85c0 f6a7 55c0
00000210: 1e89 4fc0 f3e0 a3c0 5b7b 57c0 638d 9cc0
00000220: 1658 a7c0 73fd 6cc0 158c 8fc0 376e d6c0
00000230: fc39 68c0 9b68 92c0 4be2 7ec0 c92b cec0
00000240: 0bb9 94c0 4934 8cc0 8711 bac0 5f4d ccc0
00000250: 3ff9 a1c0 182a a1c0 e159 73c0 7f9e a1c0
00000260: bbfb a9c0 7f93 96c0 5d08 c3c0 75b6 88c0
00000270: f584 d1c0 75ab 84c0 71fc 98c0 35fd 9cc0
00000280: d6b0 49c0 d4d4 8ac0 e4f9 b8c0 e970 8ac0
00000290: e5a9 b1c0 5822 a2c0 28ae 82c0 2a10 9fc0
000002a0: f8e7 afc0 4ef5 abc0 3d85 98c0 9686 99c0
000002b0: dc61 8ec0 c507 97c0 2040 bec0 19bc 9cc0
000002c0: 3d65 9bc0 2e1e b2c0 bd22 bbc0 034b 82c0
000002d0: 7582 d0c0 f836 a8c0 57d2 8cc0 3f24 bec0
000002e0: 61c7 7bc0 82d5 a4c0 bd31 9cc0 8b14 97c0
000002f0: acf7 95c0 623f 90c0 4f6e afc0 fc95 d0c0
00000300: 3cd2 b1c0 bd80 96c0 7bca cdc0 37b0 b2c0
00000310: d7cc 7fc0 accf 82c0 4e63 77c0 13f8 ccc0
00000320: 38a5 a5c0 73a5 80c0 09bf 90c0 d737 8bc0
00000330: 2d35 adc0 f9a3 8cc0 2755 cbc0 8806 37c0
00000340: 59a9 abc0 a570 abc0 65e5 b3c0 0948 51c0
00000350: 6c38 bac0 dbda c9c0 dd6a c4c0 e159 82c0
00000360: 3682 aec0 aab6 a4c0 15ce 85c0 d35e a8c0
00000370: 03ee a0c0 9e14 99c0 828a 71c0 e5fa 71c0
00000380: 3e7a 8ec0 41ec a9c0 bc47 8ec0 752f 8dc0
00000390: a132 b5c0 9e1c 3ac0 d6b1 a4c0 0ab7 5bc0
000003a0: c7ff 98c0 ac99 adc0 374e 76c0 8191 99c0
000003b0: 2cee 75c0 4644 b9c0 77bb 8fc0 f6e9 b5c0
000003c0: 29ec 12c0 5d68 92c0 699c b8c0 c7aa d0c0
000003d0: 49ce b4c0 3125 85c0 11ff 82c0 2cdc acc0
000003e0: b51c a1c0 5b2a bfc0 c2a6 87c0 b309 9fc0
000003f0: cd96 d5bf 251f 1dc0 a048 8ec0 3c75 abc0
-3.7149267 -3.0150566 -3.291032 -6.2359114 -4.456904 -4.9743524 -3.7147477 -6.4386616
-5.643348 -5.4110465 -5.8972473 -3.9398315 -5.1566815 -6.3889546 -2.7144372 -4.7400274
-3.848537 -4.743113 -5.9105186 -5.080007 -5.5073485 -6.032085 -5.959084 -5.3935914
-7.0685782 -4.814531 -5.551385 -5.607952 -2.5920198 -5.5076203 -5.8078275 -5.07451
-5.5544496 -4.5952606 -4.228001 -4.717093 -4.142217 -5.44921 -5.508011 -4.0949416
-4.42092 -5.165433 -4.641755 -4.73734 -5.476747 -6.1430054 -4.3786707 -4.758016
-3.7591386 -5.321839 -4.8264036 -2.44041 -3.7965922 -5.604132 -5.9568977 -5.6563716
-6.370031 -3.8003478 -4.762331 -5.0907836 -6.00121 -4.2479854 -5.761701 -4.607292
-4.93604 -3.48843 -4.668941 -4.725797 -4.154299 -4.918023 -4.842264 -5.003822
-4.784581 -3.8152614 -4.6040115 -6.0188766 -5.8449273 -4.6872787 -4.931145 -4.1131964
-4.53002 -5.5389495 -5.0236006 -4.8571234 -5.454668 -5.2771435 -2.9042945 -5.631486
-4.489944 -3.3626082 -4.9591055 -5.0306177 -5.2210574 -5.3882194 -5.4556193 -6.1293726
-3.464501 -5.2078385 -3.8309531 -5.8968067 -4.667179 -3.9824283 -3.4797323 -5.419353
-5.2811527 -4.6657248 -5.8569546 -6.097495 -4.0243998 -3.3247702 -3.244078 -4.742202
-4.6089225 -6.461311 -4.675375 -4.4834113 -5.6887045 -4.169306 -5.401487 -3.874728
-5.775679 -5.215903 -4.4985123 -5.501731 -6.054153 -3.350491 -4.524992 -4.3491383
-3.4460244 -5.4631343 -4.176566 -3.3383765 -3.242744 -5.1212096 -3.366904 -4.892259
-5.2295027 -3.7029693 -4.48585 -6.700954 -3.628539 -4.575269 -3.9825618 -6.442845
-4.6475883 -4.3813825 -5.8146396 -6.3844447 -5.0616755 -5.0363884 -3.8023608 -5.0505977
-5.311979 -4.705505 -6.094771 -4.2722726 -6.54748 -4.14593 -4.7808156 -4.905909
-3.1514182 -4.33848 -5.780504 -4.326283 -5.551989 -5.0666924 -4.0837593 -4.970723
-5.4970665 -5.3736944 -4.7662644 -4.797679 -4.4494457 -4.7196984 -5.9453278 -4.897961
-4.856108 -5.566184 -5.8479905 -4.0716567 -6.515925 -5.25671 -4.4006763 -5.9419246
-3.9340441 -5.151063 -4.8810716 -4.7212577 -4.6864834 -4.507737 -5.4822154 -6.5183086
-5.5569134 -4.703215 -6.430967 -5.5840106 -3.9968774 -4.0878506 -3.865436 -6.4052825
-5.1764183 -4.0201964 -4.5233197 -4.3505664 -5.412741 -4.395016 -6.3541446 -2.8597736
-5.3644223 -5.3575006 -5.6217523 -3.2700217 -5.8193874 -6.3079658 -6.138045 -4.0734715
-5.453395 -5.147298 -4.1814065 -5.261575 -5.029054 -4.7837667 -3.7740788 -3.7809384
-4.452422 -5.3100896 -4.4462566 -4.412043 -5.6624303 -2.9079967 -5.1467085 -3.4330468
-4.781223 -5.425009 -3.8485239 -4.7990117 -3.8426619 -5.789584 -4.491634 -5.6848097
-2.295664 -4.5752397 -5.769093 -6.520847 -5.6501813 -4.16079 -4.093636 -5.4018764
-5.0347543 -5.9739203 -4.239106 -4.969934 -1.6686646 -2.455026 -4.4463654 -5.358061

weight_mu f4 [128, 512]
00000000: 0aa3 95bc 9313 463e 8a2e 3b3e 5e29 5f3b
00000010: 407a 083f e20d 103d 5b2c 073f f701 6c3d
00000020: c2e8 713d 6054 e8bc 889f f2bc e76d 433f
00000030: 664d 22bd ead2 f5bb 4103 45be 9772 00bd
00000040: 3ba6 d2bc b4d9 fdbc c649 3abe a88f 833c
00000050: e97e c1bc d381 2c3d e71d 95bd e071 e23a
00000060: 9695 8bbc eae5 843c 99c8 1a3c 860c e1be
00000070: 9321 093f 268a 683d 2948 f6be 0bf8 0dbf
00000080: bb32 823c c048 f73b 3c1d ab3c fc70 68bc
00000090: 70a5 893d 61c2 4abe f267 893c ad7e 653d
000000a0: 8f5f b03d 7412 fcba 83f0 babe c8e5 51be
000000b0: 133c 73bc 2e4e a03c 783b 77bb 0c74 44be
000000c0: aa17 87bd 602e cb3c ddcb 4c3c 9a33 e7be
000000d0: 46a6 1ebe 73b6 d7be af17 0d3e 6456 8a3c
000000e0: d728 203d 1342 3fbf d55d 823c b118 a3bc
000000f0: 8bb8 5c3d 220f 39bd 18b0 b0bc 4b79 57bb
00000100: 7774 40bd be8f 0b3e a9e1 9d3c 1516 e7bc
00000110: b65b ddbe e40c 32bf 931d 2e3c d6de 263c
00000120: adcb 59bb 4d73 25bf 6891 e63c 1c6a 1dbb
00000130: 8f5e 3d3e 79d4 0f3d 2a5f cfbc 8e98 193d
00000140: 79f0 113e ce47 d8bd ada6 debd 4042 5cbd
00000150: 3577 18bc 48ee cc3c 8244 0dbe 700c b2be
00000160: f1c9 3c3d 3157 983d ae63 e03e 8cdc acbe
00000170: e274 ab3c 518b 24bd 8d98 94bc b2c0 773e
00000180: c663 0fbd 1409 f7bc 35af c53c 38d4 68bc
00000190: a4ae a33d 5861 283d 9183 9e3e 0346 c43c
000001a0: e71b aebc 2313 31be fbf6 953c d9d2 48bb
000001b0: 388a d63c 8941 ac3c 20f0 00bd 11ff 6ebd
000001c0: fd47 093d a98a 193d 2094 8a3b 4a12 f5bd
000001d0: 258b d53c 1438 81be a5b7 d53c e1d0 43bd
000001e0: 30e7 0c3f 5237 e5bc 8867 493d 7b9c 8d3c
000001f0: a3de 0d3c 64eb 50bd 9142 5d3d 711a 1c3d
00000200: fdc0 bfbd 2003 823b 6954 8c3c b27b 8bbe
00000210: 106e 85bd 34fe 28bd 741d 113d 5fca c4be
00000220: b5f9 c13d 78fe 843c 7d72 78bc 13d4 2cbc
00000230: f796 b0bc 4bed d1bb 4045 8b3d 2980 8138
00000240: 04f3 b4bc 2730 aebb 0aee a83c 4ced 8a3b
00000250: 87de 143f 6b46 76bd efaf 183c 2e31 dc3c
00000260: e3e7 c33c cd5a 993b 0cb3 1d3c 906d b03d
00000270: 6066 5cbd 4e90 8fbe 3e40 26bd dfa6 073d
00000280: d3c3 1abd 0872 28bd 2c6e f2bc b1a2 55bc
00000290: 7e90 81bd 1518 f43c 6eda bbbe 3dc1 e3be
000002a0: 9106 7d3c daf0 8cbe 30f4 40be 73f3 7dbd
000002b0: fd94 923c 24e7 50bd 0a3b 4dbd fb01 7d3c
000002c0: d120 8b3e d4f4 453d cbc1 6bbe be99 4bbc
000002d0: 8ac3 003d 3dcc 0bbe 34ed 1b3d e387 7bbc
000002e0: 48d6 db37 8360 e43c b4aa cebb b217 df3b
000002f0: 8838 a8bc 5a54 fd3e fd01 103d 7f78 77bc
00000300: 47cc 133d da67 4cbd c62c 2a3d 767e 82bd
00000310: baf9 a13e 0a45 623d 6327 2f3c a125 243d
00000320: d46f a2bc 8bb5 3b3e 6f35 c8bb 8008 e9bc
00000330: 520a b7bc eece 593e a0ba 0ebf 8bd5 dc3e
00000340: 9a2a 6fbb dc18 94be 49f5 2dbd 6872 023d
00000350: 3940 293d 2c61 163d 4c40 4cbd fcda b43a
00000360: 8caf 023f 5f59 493f 37ad 843d 5113 a03c
00000370: c659 eabc 1b61 be3c 2a35 c2be c983 b5bb
00000380: 8764 023d 9d4e cd3e ed0c 583f 3915 0e3f
00000390: e5c2 88bd d896 6f3e 35ca fa3c b632 1d3d
000003a0: c4ca 543d 3175 163d c247 44be 30fa e5bc
000003b0: d93f c9bd 9aec 2cbd 5b90 7e3d 6743 e93b
000003c0: 50d9 793d 1b42 52bd 584f d9bd 46c9 d03b
000003d0: ba70 e53c 3047 d1bc ee61 03bf 0420 5fbf
000003e0: ed55 c8bd 0e3b b73c 74b8 52bd 7fdb f63a
000003f0: 5fb2 823e f3ae d03e ed2e 08bd ce14 07bf
-0.01826622 0.19343404 0.18279472 0.0034051756 0.5331154 0.03516949 0.52802056 0.05761906
0.059059866 -0.028360546 -0.029617086 0.7633957 -0.039624594 -0.0075019496 -0.19239523 -0.03135928
-0.02571403 -0.030987598 -0.18192205 0.016059712 -0.023620086 0.042115998 -0.07281094 0.0017276369
-0.017039102 0.016222913 0.00944724 -0.43954867 0.53566855 0.056772374 -0.4810193 -0.5545661
0.01589333 0.0075465143 0.020887963 -0.014187094 0.06721008 -0.19800712 0.016773198 0.05602901
0.08611976 -0.0019231574 -0.3651162 -0.20497811 -0.014845866 0.019568529 -0.0037724655 -0.19184893
-0.065963104 0.024802387 0.012499777 -0.45156556 -0.15493116 -0.42131385 0.13778566 0.016886897
0.039101448 -0.74710196 0.015913883 -0.019909235 0.05388693 -0.045180447 -0.021568343 -0.0032878693
-0.04698607 0.13629052 0.019272642 -0.028208772 -0.43234032 -0.6955092 0.010627168 0.010184964
-0.0033232972 -0.6462906 0.028145507 -0.0024019545 0.18493102 0.03511474 -0.025313932 0.037499003
0.1425189 -0.10560571 -0.10871635 -0.05377412 -0.009305765 0.025015965 -0.13795665 -0.34775114
0.046091024 0.074385054 0.4382605 -0.33762014 0.020929758 -0.040171925 -0.018139148 0.24194601
-0.03500726 -0.030155696 0.024131397 -0.014210753 0.079922944 0.04110846 0.30959752 0.023959165
-0.02125354 -0.17292456 0.018306246 -0.0030643253 0.026188955 0.021027343 -0.031479 -0.05834872
0.03351592 0.037485752 0.0042290837 -0.11966379 0.026067326 -0.25238097 0.026088545 -0.047806624
0.55040264 -0.02798048 0.049171 0.01728653 0.008659038 -0.051005736 0.05401856 0.038111154
-0.093629815 0.0039676577 0.017130094 -0.2724281 -0.065151334 -0.041258052 0.03542848 -0.38435647
0.09471456 0.016234621 -0.015164015 -0.010548609 -0.02155636 -0.0064064614 0.06800318 6.175071e-05
-0.022088535 -0.005315799 0.020621318 0.004239714 0.5815205 -0.06012575 0.00931929 0.02687892
0.023914283 0.0046800137 0.009625208 0.086146474 -0.05380857 -0.28039783 -0.04058861 0.033118125
-0.03778441 -0.041124374 -0.02959355 -0.013039277 -0.06326388 0.02979664 -0.36690086 -0.44483367
0.01544346 -0.27527505 -0.1884315 -0.06199975 0.017893309 -0.051001683 -0.050105132 0.015442367
0.27173474 0.04832919 -0.23023145 -0.012426792 0.03143648 -0.1365213 0.03806801 -0.015352222
2.6206617e-05 0.027878052 -0.0063069705 0.0068082446 -0.020534769 0.49478418 0.035158146 -0.015104412
0.036083486 -0.049903728 0.041546606 -0.06371777 0.3163584 0.055241622 0.010690543 0.04007495
-0.019828714 0.18330972 -0.0061098854 -0.028446436 -0.022343788 0.21270344 -0.5575352 0.4313167
-0.0036493898 -0.28925216 -0.04247025 0.031847388 0.041321013 0.036713764 -0.049866006 0.0013798173
0.51049113 0.78651994 0.064783506 0.01954046 -0.02860726 0.023239663 -0.37931186 -0.0055393917
0.03183415 0.4009904 0.84394723 0.55501133 -0.06677798 0.23397386 0.030613998 0.03837844
0.051951185 0.036732856 -0.19167998 -0.0280734 -0.09826631 -0.04221783 0.062149387 0.0071186307
0.06099826 -0.051332574 -0.10610837 0.00637165 0.028007854 -0.02554664 -0.51321304 -0.87158227
-0.09782014 0.022367027 -0.05144544 0.0018833725 0.2552671 0.40758476 -0.033247877 -0.5276612

weight_logvar f4 [128, 512]
00000000: 1002 4ec0 1002 4ec0 1002 4ec0 1002 4ec0
00000010: 1002 4ec0 1002 4ec0 1002 4ec0 1002 4ec0
00000020: 1002 4ec0 1002 4ec0 1002 4ec0 1002 4ec0
00000030: 1002 4ec0 1002 4ec0 1002 4ec0 1002 4ec0
00000040: 1002 4ec0 1002 4ec0 c740 4ec0 1002 4ec0
00000050: 1002 4ec0 1002 4ec0 1002 4ec0 1002 4ec0
00000060: 1002 4ec0 1002 4ec0 1002 4ec0 1002 4ec0
00000070: 1851 4ec0 1002 4ec0 1002 4ec0 1002 4ec0
00000080: 1002 4ec0 1002 4ec0 1002 4ec0 1002 4ec0
00000090: 1002 4ec0 1002 4ec0 1002 4ec0 1002 4ec0
000000a0: 1002 4ec0 1002 4ec0 1002 4ec0 1002 4ec0
000000b0: 1002 4ec0 1002 4ec0 1002 4ec0 1002 4ec0
000000c0: 1002 4ec0 1002 4ec0 1002 4ec0 1002 4ec0
000000d0: 1002 4ec0 1002 4ec0 1002 4ec0 1002 4ec0
000000e0: 1002 4ec0 1002 4ec0 1002 4ec0 1002 4ec0
000000f0: 1002 4ec0 1002 4ec0 1002 4ec0 1002 4ec0
00000100: 1002 4ec0 1002 4ec0 1002 4ec0 1002 4ec0
00000110: 1002 4ec0 1002 4ec0 1002 4ec0 1002 4ec0
00000120: 1002 4ec0 1002 4ec0 1002 4ec0 1002 4ec0
00000130: 1002 4ec0 1002 4ec0 1002 4ec0 1002 4ec0
00000140: 1002 4ec0 1002 4ec0 1002 4ec0 1002 4ec0
00000150: 1002 4ec0 1002 4ec0 1002 4ec0 1002 4ec0
00000160: 1002 4ec0 1002 4ec0 1002 4ec0 1002 4ec0
00000170: 1002 4ec0 1002 4ec0 1002 4ec0 e0db 4ec0
00000180: 1002 4ec0 1002 4ec0 1002 4ec0 1002 4ec0
00000190: 1002 4ec0 1002 4ec0 1002 4ec0 1002 4ec0
000001a0: 1002 4ec0 1002 4ec0 1002 4ec0 1002 4ec0
000001b0: 1002 4ec0 1002 4ec0 1002 4ec0 1002 4ec0
000001c0: 1002 4ec0 1002 4ec0 1002 4ec0 1002 4ec0
000001d0: 1002 4ec0 1002 4ec0 1002 4ec0 1002 4ec0
000001e0: 1002 4ec0 1002 4ec0 1002 4ec0 1002 4ec0
000001f0: 1002 4ec0 1002 4ec0 1002 4ec0 1002 4ec0
00000200: 1002 4ec0 1002 4ec0 1002 4ec0 1002 4ec0
00000210: 1002 4ec0 1002 4ec0 1002 4ec0 1002 4ec0
00000220: 1002 4ec0 1002 4ec0 1002 4ec0 1002 4ec0
00000230: 1002 4ec0 1002 4ec0 1002 4ec0 1002 4ec0
00000240: 1002 4ec0 1002 4ec0 1002 4ec0 1002 4ec0
00000250: 1002 4ec0 1002 4ec0 1002 4ec0 1002 4ec0
00000260: 1002 4ec0 1002 4ec0 1002 4ec0 1002 4ec0
00000270: 1002 4ec0 1002 4ec0 1002 4ec0 1002 4ec0
00000280: 1002 4ec0 1002 4ec0 1002 4ec0 1002 4ec0
00000290: 1002 4ec0 1002 4ec0 1002 4ec0 1002 4ec0
000002a0: 1002 4ec0 1002 4ec0 1002 4ec0 1002 4ec0
000002b0: 1002 4ec0 1002 4ec0 1002 4ec0 1002 4ec0
000002c0: 1002 4ec0 1002 4ec0 1002 4ec0 1002 4ec0
000002d0: 1002 4ec0 1002 4ec0 1002 4ec0 1002 4ec0
000002e0: 1002 4ec0 1002 4ec0 1002 4ec0 1002 4ec0
000002f0: 1002 4ec0 1002 4ec0 1002 4ec0 1002 4ec0
00000300: 1002 4ec0 1002 4ec0 1002 4ec0 1002 4ec0
00000310: 1002 4ec0 1002 4ec0 1002 4ec0 1002 4ec0
00000320: 1002 4ec0 1002 4ec0 1002 4ec0 1002 4ec0
00000330: 1002 4ec0 1002 4ec0 bc76 4ec0 1002 4ec0
00000340: 1002 4ec0 1002 4ec0 1002 4ec0 1002 4ec0
00000350: 1002 4ec0 1002 4ec0 1002 4ec0 1002 4ec0
00000360: 1002 4ec0 1002 4ec0 1002 4ec0 1002 4ec0
00000370: 1002 4ec0 1002 4ec0 1002 4ec0 1002 4ec0
00000380: 1002 4ec0 919a 4ec0 9c06 4ec0 1002 4ec0
00000390: 1002 4ec0 1002 4ec0 1002 4ec0 1002 4ec0
000003a0: 1002 4ec0 1002 4ec0 1002 4ec0 1002 4ec0
000003b0: 1002 4ec0 1002 4ec0 1002 4ec0 1002 4ec0
000003c0: 1002 4ec0 1002 4ec0 1002 4ec0 1002 4ec0
000003d0: 1002 4ec0 1002 4ec0 1002 4ec0 1002 4ec0
000003e0: 1002 4ec0 1002 4ec0 1002 4ec0 1002 4ec0
000003f0: 1002 4ec0 1002 4ec0 1002 4ec0 1002 4ec0
-3.218876 -3.218876 -3.218876 -3.218876 -3.218876 -3.218876 -3.218876 -3.218876
-3.218876 -3.218876 -3.218876 -3.218876 -3.218876 -3.218876 -3.218876 -3.218876
-3.218876 -3.218876 -3.2227037 -3.218876 -3.218876 -3.218876 -3.218876 -3.218876
-3.218876 -3.218876 -3.218876 -3.218876 -3.2236996 -3.218876 -3.218876 -3.218876
-3.218876 -3.218876 -3.218876 -3.218876 -3.218876 -3.218876 -3.218876 -3.218876
-3.218876 -3.218876 -3.218876 -3.218876 -3.218876 -3.218876 -3.218876 -3.218876
-3.218876 -3.218876 -3.218876 -3.218876 -3.218876 -3.218876 -3.218876 -3.218876
-3.218876 -3.218876 -3.218876 -3.218876 -3.218876 -3.218876 -3.218876 -3.218876
-3.218876 -3.218876 -3.218876 -3.218876 -3.218876 -3.218876 -3.218876 -3.218876
-3.218876 -3.218876 -3.218876 -3.218876 -3.218876 -3.218876 -3.218876 -3.218876
-3.218876 -3.218876 -3.218876 -3.218876 -3.218876 -3.218876 -3.218876 -3.218876
-3.218876 -3.218876 -3.218876 -3.218876 -3.218876 -3.218876 -3.218876 -3.23217
-3.218876 -3.218876 -3.218876 -3.218876 -3.218876 -3.218876 -3.218876 -3.218876
-3.218876 -3.218876 -3.218876 -3.218876 -3.218876 -3.218876 -3.218876 -3.218876
-3.218876 -3.218876 -3.218876 -3.218876 -3.218876 -3.218876 -3.218876 -3.218876
-3.218876 -3.218876 -3.218876 -3.218876 -3.218876 -3.218876 -3.218876 -3.218876
-3.218876 -3.218876 -3.218876 -3.218876 -3.218876 -3.218876 -3.218876 -3.218876
-3.218876 -3.218876 -3.218876 -3.218876 -3.218876 -3.218876 -3.218876 -3.218876
-3.218876 -3.218876 -3.218876 -3.218876 -3.218876 -3.218876 -3.218876 -3.218876
-3.218876 -3.218876 -3.218876 -3.218876 -3.218876 -3.218876 -3.218876 -3.218876
-3.218876 -3.218876 -3.218876 -3.218876 -3.218876 -3.218876 -3.218876 -3.218876
-3.218876 -3.218876 -3.218876 -3.218876 -3.218876 -3.218876 -3.218876 -3.218876
-3.218876 -3.218876 -3.218876 -3.218876 -3.218876 -3.218876 -3.218876 -3.218876
-3.218876 -3.218876 -3.218876 -3.218876 -3.218876 -3.218876 -3.218876 -3.218876
-3.218876 -3.218876 -3.218876 -3.218876 -3.218876 -3.218876 -3.218876 -3.218876
-3.218876 -3.218876 -3.218876 -3.218876 -3.218876 -3.218876 -3.225997 -3.218876
-3.218876 -3.218876 -3.218876 -3.218876 -3.218876 -3.218876 -3.218876 -3.218876
-3.218876 -3.218876 -3.218876 -3.218876 -3.218876 -3.218876 -3.218876 -3.218876
-3.218876 -3.228184 -3.2191534 -3.218876 -3.218876 -3.218876 -3.218876 -3.218876
-3.218876 -3.218876 -3.218876 -3.218876 -3.218876 -3.218876 -3.218876 -3.218876
-3.218876 -3.218876 -3.218876 -3.218876 -3.218876 -3.218876 -3.218876 -3.218876
-3.218876 -3.218876 -3.218876 -3.218876 -3.218876 -3.218876 -3.218876 -3.218876

bias_mu f4 [128]
00000000: 6d4f 393f 6c85 35bc 0175 d33e 2354 7dbc
00000010: 45da 1abe 40d8 98bc 333e 3bbc b726 81bc
00000020: 0755 1bbe 2237 4ebf 04a7 c3bc bf77 aa3e
00000030: b52c 51be b900 80be a503 4cbe 6ab2 37bf
00000040: 15f9 9bbb 0de2 3dbe 9507 23be d416 c53e
00000050: 825d dfbe f3b4 de3e ab1e b53e c721 c7be
00000060: fcc1 f3bd 631f 193f bdd7 85bb 6bfd da38
00000070: 6d33 4dbc 1b90 09be 785e 15be 6b5d dd3e
00000080: 88f9 efbe 2b65 0cbe d877 0dbc be5a e2be
00000090: 5154 03be 7682 febb 0224 43bc d49f d3be
000000a0: 1cc7 1ebe 627a 41bc 51c1 93bb 68e7 14be
000000b0: 7216 07bf 8097 53bd 2dcd 2ebc 6ffd d7bc
000000c0: a13f 413a 1912 27be cc5a 05bc 19d6 2bbf
000000d0: 5210 35be f3d9 07be 3676 f3be 26aa 97be
000000e0: b925 0dbe ae4f 05bf c043 d1bb 7366 b9be
000000f0: 515b 9cbe ea03 0fbc dcd8 16be d0ea a6be
00000100: 8a37 80bc 8a93 ffbc 2143 21bc d305 14bc
00000110: 340b cdbe 97fc 15be f753 3dbb 3627 0e3f
00000120: 0bf5 14be 4fd4 0abe c1dc d23e 5d86 febb
00000130: 1f55 18be 0a7d 1fbe 068f fdbe c515 df3e
00000140: 0154 03be 36fe 4fbd 1ad2 0fbe d5d6 0bbf
00000150: 53df 23be fd96 21be 9536 ff3e 177a e9bc
00000160: d9cc 00be 4129 1dbe fa6c bdbb da14 19be
00000170: 0ddb adbb de15 29be 21a8 67bc a8c2 69be
00000180: f713 21be a61e c6bb e700 ccbb fe24 c3bd
00000190: eab1 d83e a7e2 17bf f54a 8dbe a4e1 f6bd
000001a0: d0cd 37be 4b1a 8fbc 61e6 44be 4aaa 06ba
000001b0: 0555 083f 27ce b1bd 876d a03e e7fa 38be
000001c0: 2e94 22be a31f b8bc 5c18 373f dd35 35bc
000001d0: 33be 54be d389 b4bd b5cc 3cbe bd02 08be
000001e0: 6ce8 9fbc 8535 fbbd 7089 313d c6ff f5bb
000001f0: 49e5 1abe 15ce 83bc 2b73 0bbf e5a3 07be
0.7238682 -0.011079174 0.41300204 -0.015461954 -0.15122326 -0.018657804 -0.011428404 -0.015765531
-0.15169154 -0.80552876 -0.02388335 0.33294484 -0.2042721 -0.2500055 -0.19923265 -0.71756613
-0.0047599175 -0.18543263 -0.15920861 0.3849398 -0.43626028 0.43497428 0.3537496 -0.38892958
-0.11902234 0.5981352 -0.004084556 0.00010442253 -0.012524468 -0.13433878 -0.14586818 0.43235335
-0.46870065 -0.13710468 -0.00863453 -0.44209856 -0.12825133 -0.007767017 -0.01191044 -0.41332877
-0.15505642 -0.0118089635 -0.004509129 -0.145414 -0.52768624 -0.051658154 -0.010669035 -0.026365964
0.0007371847 -0.16315497 -0.008139323 -0.6712356 -0.17682007 -0.13266735 -0.47551125 -0.29622
-0.13783921 -0.52074707 -0.0063862503 -0.36210975 -0.3053842 -0.0087289605 -0.14731163 -0.32601023
-0.015651483 -0.031198282 -0.009842665 -0.009034592 -0.4004761 -0.14647137 -0.0028889158 0.5552858
-0.14546601 -0.13557552 0.41184047 -0.007767482 -0.14876221 -0.15575042 -0.4952318 0.43571296
-0.12825014 -0.050779544 -0.14044991 -0.5462468 -0.1600316 -0.15780254 0.4984633 -0.0285006
-0.12578143 -0.15347768 -0.0057808133 -0.1494936 -0.005305654 -0.16512248 -0.014139206 -0.22828162
-0.15730272 -0.006046134 -0.0062256935 -0.0952854 0.42323238 -0.5933022 -0.2759625 -0.12054756
-0.17949605 -0.017468592 -0.19228508 -0.00051370694 0.5325473 -0.086818986 0.31333563 -0.18064462
-0.15876839 -0.022476023 0.71521544 -0.011060205 -0.2077568 -0.088153504 -0.18437465 -0.13282295
-0.019520007 -0.122660674 0.04334396 -0.007507297 -0.15126528 -0.016089479 -0.5447261 -0.13246115

bias_logvar f4 [128]
00000000: a484 64c0 1002 4ec0 1002 4ec0 1002 4ec0
00000010: 1002 4ec0 1002 4ec0 1002 4ec0 1002 4ec0
00000020: 1002 4ec0 1002 4ec0 bb94 6fc0 1002 4ec0
00000030: 1002 4ec0 1002 4ec0 f66a 50c0 b704 4ec0
00000040: 1002 4ec0 1002 4ec0 1002 4ec0 b002 4ec0
00000050: 8398 4fc0 1002 4ec0 1002 4ec0 cf27 4ec0
00000060: 1002 4ec0 d12e 50c0 1002 4ec0 1002 4ec0
00000070: 1002 4ec0 1002 4ec0 1002 4ec0 1002 4ec0
00000080: 3705 4ec0 1002 4ec0 1002 4ec0 f92e 4ec0
00000090: 1002 4ec0 1002 4ec0 1002 4ec0 f908 62c0
000000a0: 1002 4ec0 1002 4ec0 1002 4ec0 1002 4ec0
000000b0: 52c0 4ec0 1002 4ec0 1002 4ec0 1002 4ec0
000000c0: 1002 4ec0 1002 4ec0 1002 4ec0 352b 4ec0
000000d0: 1002 4ec0 204d 4ec0 1313 4ec0 1002 4ec0
000000e0: 1002 4ec0 cf1a 4ec0 1002 4ec0 5ada 52c0
000000f0: c141 60c0 1002 4ec0 1002 4ec0 4108 4ec0
00000100: 1002 4ec0 1002 4ec0 1002 4ec0 1002 4ec0
00000110: 1002 4ec0 1002 4ec0 1002 4ec0 1002 4ec0
00000120: 1002 4ec0 1002 4ec0 1002 4ec0 1002 4ec0
00000130: 1002 4ec0 1002 4ec0 1002 4ec0 6805 4ec0
00000140: 1002 4ec0 1002 4ec0 1002 4ec0 f856 50c0
00000150: 1002 4ec0 b308 4ec0 8690 50c0 1002 4ec0
00000160: 1002 4ec0 1002 4ec0 1002 4ec0 1002 4ec0
00000170: 1002 4ec0 1002 4ec0 1002 4ec0 1002 4ec0
00000180: 1002 4ec0 1002 4ec0 1002 4ec0 1002 4ec0
00000190: 1002 4ec0 0763 4ec0 344c 4ec0 1002 4ec0
000001a0: 1002 4ec0 1002 4ec0 1002 4ec0 1002 4ec0
000001b0: 5cac 56c0 1002 4ec0 1002 4ec0 1002 4ec0
000001c0: 1002 4ec0 1002 4ec0 2b80 54c0 1002 4ec0
000001d0: daf8 6bc0 1002 4ec0 1002 4ec0 1002 4ec0
000001e0: 1002 4ec0 1002 4ec0 1002 4ec0 1002 4ec0
000001f0: 1002 4ec0 1002 4ec0 1002 4ec0 1002 4ec0
-3.5705957 -3.218876 -3.218876 -3.218876 -3.218876 -3.218876 -3.218876 -3.218876
-3.218876 -3.218876 -3.7434528 -3.218876 -3.218876 -3.218876 -3.2565284 -3.2190378
-3.218876 -3.218876 -3.218876 -3.218914 -3.2436836 -3.218876 -3.218876 -3.2211797
-3.218876 -3.2528574 -3.218876 -3.218876 -3.218876 -3.218876 -3.218876 -3.218876
-3.2190683 -3.218876 -3.218876 -3.221617 -3.218876 -3.218876 -3.218876 -3.5317976
-3.218876 -3.218876 -3.218876 -3.218876 -3.2304883 -3.218876 -3.218876 -3.218876
-3.218876 -3.218876 -3.218876 -3.2213871 -3.218876 -3.2234573 -3.2199142 -3.218876
-3.218876 -3.2203863 -3.218876 -3.2945771 -3.5040133 -3.218876 -3.218876 -3.2192538
-3.218876 -3.218876 -3.218876 -3.218876 -3.218876 -3.218876 -3.218876 -3.218876
-3.218876 -3.218876 -3.218876 -3.218876 -3.218876 -3.218876 -3.218876 -3.21908
-3.218876 -3.218876 -3.218876 -3.2553082 -3.218876 -3.219281 -3.258821 -3.218876
-3.218876 -3.218876 -3.218876 -3.218876 -3.218876 -3.218876 -3.218876 -3.218876
-3.218876 -3.218876 -3.218876 -3.218876 -3.218876 -3.2247941 -3.223401 -3.218876
-3.218876 -3.218876 -3.218876 -3.218876 -3.35427 -3.218876 -3.218876 -3.218876
-3.218876 -3.218876 -3.3203228 -3.218876 -3.6870637 -3.218876 -3.218876 -3.218876
-3.218876 -3.218876 -3.218876 -3.218876 -3.218876 -3.218876 -3.218876 -3.218876

z_mu f4 [128]
00000000: 8f83 2c3f 5f19 90b9 f2de 6c3e 3ad7 0439
00000010: 6685 98bb 5086 253a 7bb3 d639 6af0 3938
00000020: 8cb4 453b 59da 483f 50cf 923f f933 3f3e
00000030: d447 933d e2ff 8f3c b1a7 f43e fe0b 213f
00000040: 5f69 feb9 90cb b2bc 44a9 ddbb 844b 903e
00000050: fbbb 6d3f 1cb2 903e 61a2 693e 4885 203f
00000060: 96a8 2bbb 8587 e73e cb34 1cba a213 04ba
00000070: 9df5 a336 b7fa b83b ffd7 0cbc 31b5 a63e
00000080: 4519 233f dcc7 c3ba 534d 3d39 394e 2d3f
00000090: b205 04bc 7faa 0539 595b b5b9 eeed 963f
000000a0: c4f6 35bc 9107 ff39 b287 0939 3e3c 12bc
000000b0: fdc3 263f 3be3 aaba 821f 59b9 39b0 4838
000000c0: 8cb9 6238 27b5 023b d1f8 cdb9 c1f6 6b3f
000000d0: 9fd6 40bc 57e3 993e ff6c e53e 4be0 4a3e
000000e0: ea55 743b 4e44 4a3f d31d b1b9 3809 523f
000000f0: c6fb 153f 97c9 1539 8f27 8bbc 3332 e43e
00000100: f0ad 6939 eae2 553a 2df2 3839 1320 3db9
00000110: 1d44 043f b184 dcb9 19d1 0cb9 7e50 c03e
00000120: ccfb e13b 1323 dbbb a845 a63e 00d6 bdb8
00000130: 536c f53b 5e49 70b9 0490 833e d208 9b3e
00000140: f1d9 4cbc c497 1f3c 6623 25bb 8c00 5e3f
00000150: 6824 c33b 2b4d 0b3f a11c d03e 25b1 a139
00000160: 1ea8 803a 6221 e7ba 213e 86b9 48c6 30bc
00000170: a5fc 53b9 2eed 703b e3fd 3eb9 c5b4 eb3e
00000180: 36ea 56ba 4793 2f37 f879 d2b6 2ff7 41bc
00000190: a38f 9e3e fa49 403f 9bd8 a63e 6fc7 4cbc
000001a0: 78da 1f3d ce87 9139 36e9 513e 968a 2639
000001b0: c9cd dc3e 5c8c 723b a6de f03d ef5c b33e
000001c0: 15aa de3a 2f48 e537 a40b 1c3f 335e a3ba
000001d0: 4fa9 123f 1fc7 9bbb 0145 bbbb 33c2 8ebb
000001e0: a50c 7c39 de3e 71bb 15f9 743b 5f11 5ab9
000001f0: ed82 603c 780c 6839 f45b 213f d290 1abc
0.6738824 -0.00027484723 0.23131922 0.00012668679 -0.004654574 0.00063142646 0.00040950984 4.433134e-05
0.0030167429 0.7845817 1.1469517 0.1867217 0.071914345 0.01757807 0.47784188 0.62908924
-0.00048525163 -0.021825582 -0.006764563 0.28182614 0.9286496 0.28260887 0.22815849 0.6270337
-0.0026193014 0.4522058 -0.00059587945 -0.0005038326 4.8863717e-06 0.005645122 -0.008596419 0.32560113
0.63710433 -0.0014936882 0.0001805325 0.67697483 -0.0080579985 0.00012747383 -0.0003459107 1.179136
-0.011106197 0.00048643028 0.00013115889 -0.008925496 0.65142804 -0.0013037691 -0.0002070647 4.7847836e-05
5.4055403e-05 0.00199444 -0.0003928603 0.9217339 -0.01176992 0.3005626 0.4480972 0.19812123
0.0037282654 0.79010475 -0.00033782292 0.82045317 0.585873 0.00014284845 -0.016986636 0.4456955
0.00022285408 0.0008159118 0.00017637825 -0.00018036393 0.5166643 -0.00042060533 -0.00013429335 0.3756141
0.0068964716 -0.006687531 0.32475019 -9.052083e-05 0.00748972 -0.00022915515 0.25695813 0.30280167
-0.012503133 0.009740774 -0.00251981 0.86719584 0.0059552677 0.54414624 0.40646842 0.00030840296
0.0009815728 -0.001763385 -0.0002560476 -0.010789461 -0.00020216645 0.0036762464 -0.00018214392 0.46036354
-0.00081983523 1.04651035e-05 -6.2726867e-06 -0.011838718 0.3096896 0.7511288 0.32587132 -0.012498721
0.039026707 0.00027757738 0.20499119 0.00015882621 0.43125752 0.003700993 0.11761217 0.3503184
0.0016987944 2.733254e-05 0.6095526 -0.0012463987 0.57289594 -0.0047539617 -0.005715013 -0.0043566464
0.00024037303 -0.0036811153 0.003737991 -0.00020796571 0.01370309 0.00022129889 0.63030934 -0.009433942

z_logvar f4 [128]
00000000: bab4 a9c0 5c8a 26c1 4be6 a3c0 d732 31c1
00000010: 1fd5 84c0 cd72 20c1 b830 31c1 5902 26c1
00000020: be56 97c0 8c08 a2c0 d7b6 afc0 fd94 a0c0
00000030: cc69 9ac0 6873 60c0 22ff b1c0 0a92 8ac0
00000040: 8aa7 31c1 ec7b 68c0 b65b 8ec0 8280 a4c0
00000050: 43b7 9fc0 3369 a6c0 36df a5c0 1ff7 97c0
00000060: 9b60 9bc0 75f6 b7c0 0be8 2ec1 c91e 34c1
00000070: 7435 27c1 426d aac0 96da 8dc0 46be abc0
00000080: 5926 a2c0 d0ed b4c0 71c7 2cc1 faa1 9bc0
00000090: 0760 a5c0 810c 35c1 7edd 2bc1 f680 a8c0
000000a0: 54e3 97c0 e0c2 30c1 781c 2dc1 e83a 99c0
000000b0: beb2 90c0 7b63 07c1 68fc 33c1 dcd5 1fc1
000000c0: 0caf 32c1 24b6 8dc0 5f32 37c1 5a04 95c0
000000d0: 390f 81c0 ade9 97c0 8a21 8ac0 b56b 92c0
000000e0: cc87 90c0 864b 92c0 82cf 2fc1 980d 9ec0
000000f0: 8539 b5c0 e9a7 27c1 9d92 9ac0 7cc5 a5c0
00000100: 62d7 2dc1 3f66 15c1 2a13 31c1 390f 2ac1
00000110: 906b 64c0 3ccb a5c0 28a9 30c1 e7f4 a3c0
00000120: 9351 88c0 a5dc a2c0 4e05 a9c0 9ad4 2fc1
00000130: ca0a 8fc0 b378 8ec0 cbaf 92c0 9d9e a9c0
00000140: d495 93c0 4e3e 9cc0 e53a a2c0 1cd1 a5c0
00000150: 9c66 91c0 070b a0c0 b775 abc0 035e 23c1
00000160: a9fc aec0 1d70 9ac0 05bd 30c1 947e 87c0
00000170: db08 32c1 19b3 8cc0 2d5e 2ec1 9538 98c0
00000180: f0fe a1c0 1eb1 31c1 415b 34c1 e3cd acc0
00000190: 6435 a7c0 ff3c 93c0 57ca 9dc0 db12 9ec0
000001a0: 46eb 97c0 ea18 2ec1 2be7 92c0 a674 35c1
000001b0: c7d6 adc0 6102 a2c0 4190 9cc0 3ef5 93c0
000001c0: ff32 a0c0 708b 2ac1 5711 bcc0 0753 25c1
000001d0: e816 b9c0 e8ff 9ac0 2e67 77c0 630c 8dc0
000001e0: bda3 29c1 4417 c2c0 ecc9 95c0 d705 2ac1
000001f0: bb97 89c0 ef6c 23c1 c8af 97c0 0fd6 a6c0
-5.3033113 -10.408779 -5.121862 -11.074912 -4.1510158 -10.028028 -11.074394 -10.375573
-4.7293386 -5.0635433 -5.4910693 -5.018187 -4.8254147 -3.5070438 -5.562394 -4.330327
-11.103403 -3.6325636 -4.448695 -5.140687 -4.991121 -5.2003417 -5.1834974 -4.748916
-4.8555427 -5.748835 -10.931651 -11.257516 -10.45055 -5.325837 -4.432933 -5.3669767
-5.067181 -5.65403 -10.798692 -4.8635225 -5.167972 -11.315553 -10.741575 -5.2657423
-4.7465 -11.047577 -10.81945 -4.7884407 -4.521819 -8.461787 -11.249123 -9.989712
-11.167736 -4.428484 -11.449798 -4.656781 -4.033108 -4.747275 -4.316594 -4.575648
-4.516577 -4.571719 -10.988161 -4.9391594 -5.6632714 -10.478494 -4.830397 -5.180357
-10.865084 -9.337462 -11.067179 -10.628716 -3.569065 -5.181059 -11.041298 -5.1236453
-4.259958 -5.089434 -5.2818975 -10.989405 -4.470067 -4.452234 -4.583959 -5.300612
-4.6120396 -4.8826056 -5.0696893 -5.181776 -4.5437756 -5.001346 -5.3581195 -10.210452
-5.4683423 -4.8261857 -11.046147 -4.2342014 -11.127162 -4.3968625 -10.897992 -4.756907
-5.0623703 -11.1057415 -11.272279 -5.4001327 -5.2252674 -4.601196 -4.9309497 -4.9398017
-4.74747 -10.881083 -4.5907187 -11.340979 -5.432468 -5.0627904 -4.892609 -4.623687
-5.006225 -10.659042 -5.8771167 -10.33277 -5.784046 -4.8437386 -3.8656726 -4.407762
-10.602475 -6.06534 -4.6808987 -10.626426 -4.299772 -10.214095 -4.7402077 -5.21363

weight_mu f4 [2, 128]
00000000: 449f d63e 3ada 38bc 5e53 b33e 5f11 863a
00000010: ede5 c9bc 5740 5fbc 9fba 333d 28c7 d9bc
00000020: 2a22 b0bc c588 ecbe f8d0 f7be 8657 b33e
00000030: d42a 96be 9991 25be 6c45 8abe d440 d6be
00000040: 397b 20bd 3ac5 a0bd d401 963b 1d71 d63e
00000050: d0eb 06bf 5640 a93e acdb b33e 7de1 bfbe
00000060: a7eb 5c3c 8084 923e 885d 68bb b75d 273d
00000070: 3042 7bbb 4486 10bc 5f66 21bc 0155 b43e
00000080: b4e9 c0be 7c10 fe3c db32 76bc e364 bdbe
00000090: 10a4 41bd 3afd 233c 8046 003d 3246 15bf
000000a0: d734 d8bb ae1d d0bc ca30 b83c 6813 24bc
000000b0: bd95 cdbe 0926 313d c00f 133d 3f73 e8bb
000000c0: 40a9 b43c 4ad3 55bd 44bd 2e3c 9ead 05bf
000000d0: d4f8 c6bd 7e06 bfbe d2ca c8be 803c cabe
000000e0: e9f9 433d 5ba6 e9be cf98 fbba 66ec 12bf
000000f0: 0d42 8ebe 4740 09bc 7de5 0e3d 99da aebe
00000100: 5cee 623c 9668 a8bc ee6e d3bb 77ac 873c
00000110: 3c0c f3be 55b5 433c 2cca 4fbc 9bf5 a63e
00000120: 2a11 9d3c 653b 853d 1efa b43e 382a 143c
00000130: e654 57bb 05e8 71bc e741 e1be 8fe0 a13e
00000140: e4ad 6c3c e245 d43d 87ed 3c3d f597 fdbe
00000150: a601 643b b378 cabe 9750 a63e b8f9 94bc
00000160: bda6 dfbc 3458 30bd 51ef e5bb 1de8 863d
00000170: e2f5 0c3d 2233 d03c cabd ac3c 6abf a8be
00000180: 4a89 fc3c 3dee c6bb cdda ef3c 0f9c d2bc
00000190: 992c aa3e de3f e4be 5608 b2be 529c 503d
000001a0: 7852 8bbe 9abb b4bc 9419 a8be 598e 3bbc
000001b0: 2fb9 a13e 2f0e cd3b 0ee2 b03e fa56 d1be
000001c0: 1b68 0ebe b776 0db9 7dbb 9b3e 6109 d43b
000001d0: de2b 93be 163f 6d3d 3605 1fbd 24d9 04bd
000001e0: 726e a73c 14af 65bd e9a9 4e3e a2e8 a93c
000001f0: 5603 2bbd d658 49bd efbf cdbe 7ef7 923d
00000200: 6f34 d6be 4cf9 2f3c 1028 b6be 5142 72bb
00000210: 7d55 0e3d 2845 7e3c b116 47bd 38c4 013d
00000220: 13ff e33c 322e ec3e ffb4 f73e eccd b4be
00000230: 33c4 933e 006a 4a3e f14d 8a3e 785d d83e
00000240: d9ac 203d 06c9 9d3d 9887 e7bb ba43 d4be
00000250: 76d4 063f 3d8c a8be 8592 afbe 5267 bf3e
00000260: c769 65bc e07a 92be 78d3 063c d025 03bd
00000270: e22c c03b 750b 313c 7f2c 873c 1c08 b5be
00000280: 8956 c13e 315e edbc 1ac4 473c 8037 bb3e
00000290: 51d5 363d d830 4bbc 2cf8 06bd 060c 153f
000002a0: b62c a0bb f222 e93c f7ad 8ebc bead 5c3b
000002b0: b9b2 cd3e 295d 33bd 421e 24bd e636 dc3b
000002c0: 137e 99bc 45b0 413d eeea 30bc ba12 053f
000002d0: 4657 da3d 782b bf3e c2d9 c53e 208a c83e
000002e0: 8ff5 3fbd 77a2 e73e bfd3 773b b57e 133f
000002f0: bcd8 8e3e fbf1 423c 3c9d fdbc 7c95 af3e
00000300: af6e 70bc 0053 813c 9518 2d3b a878 a7bc
00000310: a56c f33e c83c c6bb 0899 533c 9659 a7be
00000320: 556a 4cbc b516 64bd 986d b4be 1d4e 3ebc
00000330: fb6d da3a a7aa ddba 18f5 db3e 0449 a1be
00000340: 84d5 81bc 8338 c0bd 6c94 30bd 69d1 fb3e
00000350: 3526 c9bb 90fd cb3e aab3 a5be 6804 a53c
00000360: 6fae 023d 8260 4d3d 231b 0a3c 34fb 7dbd
00000370: c03f febc 64a1 56bc 430a 7bbc 8989 a93e
00000380: 3687 22bd cd1f 0e3c b9f6 eebc 5189 e73c
00000390: c848 a9be e993 e43e 015e b23e 2377 4cbd
000003a0: 277c 8c3e 6140 8a3c 38a0 aa3e 984f f93b
000003b0: 2d7d a2be 14a6 62bb 6118 b4be 1d4c cf3e
000003c0: 00a6 0d3e ab5d 09bb cf77 9cbe bf4a 4dbb
000003d0: 7132 933e c6dd 67bd df04 3c3d 6969 2e3d
000003e0: b02c 9dbc 4bde 573d 049e 4bbe 4bfb a9bc
000003f0: 1c4f 493d 4f1e 513d 13d8 cd3e 9586 96bd
0.41918385 -0.011282498 0.35024542 0.0010228566 -0.02464577 -0.01362618 0.043879148 -0.026584223
-0.021500666 -0.46198097 -0.48401618 0.35027713 -0.2932955 -0.16168822 -0.2700609 -0.41846335
-0.039180014 -0.07850118 0.0045778546 0.41883174 -0.5270357 0.33056897 0.35128534 -0.3747672
0.013483918 0.28616714 -0.003545614 0.040860858 -0.0038339011 -0.008821074 -0.009851067 0.35221103
-0.376783 0.03101372 -0.015026773 -0.36991033 -0.047275603 0.010009104 0.031317234 -0.58310235
-0.006598096 -0.025404777 0.022484202 -0.010014392 -0.40153304 0.043249164 0.035903692 -0.0070938165
0.022053361 -0.052203454 0.010665242 -0.52218044 -0.09715429 -0.3730964 -0.3921724 -0.39499283
0.047845755 -0.45634732 -0.0019195321 -0.57391965 -0.27784768 -0.008377141 0.034886826 -0.34151152
0.013850775 -0.020557683 -0.006452433 0.01656173 -0.47470272 0.011945088 -0.012682479 0.32609257
0.019173224 0.06505469 0.35347074 0.009043269 -0.0032857 -0.01476479 -0.43995592 0.31616637
0.014445756 0.103648916 0.04612496 -0.49529997 0.0034791022 -0.3954521 0.3248336 -0.018185481
-0.027301187 -0.043052867 -0.007017054 0.06587241 0.03441418 0.025415007 0.021086592 -0.32958537
0.030827183 -0.0060708807 0.029279137 -0.02570918 0.3323715 -0.44579977 -0.34771985 0.05093033
-0.27211356 -0.022062112 -0.32832015 -0.011447513 0.31586596 0.0062577943 0.34547466 -0.4088667
-0.139069 -0.00013491033 0.3041648 0.0064708446 -0.28744406 0.05792149 -0.03882333 -0.032433644
0.020438407 -0.05607517 0.20182003 0.02074081 -0.04175123 -0.049156986 -0.40185496 0.07176112
-0.4183688 0.010740589 -0.3557744 -0.0036965797 0.034749497 0.015519418 -0.048605625 0.03168127
0.02783159 0.46128994 0.48380277 -0.35313356 0.28860626 0.19766998 0.2701259 0.4225881
0.03922734 0.07704358 -0.0070657246 -0.4145792 0.5266794 -0.32919493 -0.34291473 0.37383515
-0.01400227 -0.2860937 0.008229129 -0.032018483 0.0058647254 0.010805954 0.01650071 -0.3535775
0.37761334 -0.028975578 0.01219275 0.3656578 0.044637028 -0.012401782 -0.03295152 0.5822147
-0.0048881425 0.028459046 -0.017416937 0.0033672894 0.40175417 -0.043790016 -0.04006792 0.0067204116
-0.018736875 0.047287244 -0.010798199 0.519817 0.10661177 0.37337852 0.386427 0.3916788
-0.046865042 0.45241138 0.003781542 0.57615215 0.2789973 0.011898513 -0.030958764 0.34293735
-0.0146748265 0.015786648 0.0026412357 -0.020443276 0.47543827 -0.006049726 0.012914903 -0.32685536
-0.012476523 -0.055685718 -0.35239863 -0.011615303 0.0016664857 -0.001691182 0.4296043 -0.3150102
-0.015848882 -0.09385779 -0.043110296 0.49183205 -0.006138588 0.3984189 -0.32363635 0.020143703
0.031904634 0.050140865 0.008429321 -0.062007144 -0.031036258 -0.013100002 -0.015322271 0.33112743
-0.03967973 0.008674574 -0.02917038 0.02826372 -0.3306334 0.44644096 0.34837344 -0.049918305
0.2743847 0.016876401 0.33325362 0.0076083653 -0.31736127 -0.0034583854 -0.3517485 0.40487757
0.13832855 -0.0020960371 -0.30560157 -0.003132507 0.2874942 -0.056607984 0.045903083 0.042580996
-0.019186348 0.05270223 -0.19884497 -0.020749709 0.04914771 0.051054295 0.40203914 -0.07349888

weight_logvar f4 [2, 128]
00000000: 8724 c4c0 eae2 cabc 9e80 91c0 950b 82bc
00000010: 73a2 adbc 4c20 473b 97f0 c3bb d32a 9bbb
00000020: 0c82 82bc 8648 b7c0 d7b4 cdc0 c501 7bc0
00000030: b373 4ac0 3b88 01bf 9664 c7c0 bf19 92c0
00000040: 8307 47bc b433 a0be 981a d4bd 8a3f 86c0
00000050: 0024 b1c0 dc78 90c0 8dd8 8cc0 2cbc aec0
00000060: 3801 76bd 1cb1 c9c0 b4fb f6ba b0e4 ed3b
00000070: 3fa5 debb 3000 6dbd f30d 60bd 31d4 9dc0
00000080: 5d3c bbc0 ebc7 9abd 1e93 10bc 59df b6c0
00000090: 2b52 10bd 4f34 3cbc dc75 b43a fb7e bfc0
000000a0: dd36 48bd 0ff3 b4bb 6135 1cbc c936 28bd
000000b0: 22c7 a1c0 d448 bfbc 16bf f8bb 5569 cfbb
000000c0: bc58 153b 779d 7abd 4df9 7dbb 28d4 a1c0
000000d0: e4b8 26bd 8ea1 8bc0 57f9 8cc0 cf46 61c0
000000e0: ba17 1ebd 1a1c a2c0 109a 61bc 8e28 a0c0
000000f0: 9e4a e0c0 3ac6 48bc 0c6e 37bd 3b9f acc0
00000100: e899 adbb 0ae0 4bbc e559 37bc 584d 103b
00000110: 4e13 56c0 655e 27bd 6209 dabb 8df7 a8c0
00000120: 02e7 4bbd 6b34 71bd ec73 a3c0 5c50 5bba
00000130: 8c3f 8cbd 48ed 90bd da45 6fc0 22b7 9fc0
00000140: 3002 febd 8671 4fbe f9fc 4ebd 9f33 bbc0
00000150: cfc7 82bd a646 b5c0 94e0 bcc0 9468 a3bc
00000160: c40c 22bd 3eed 63bd 3be6 c5ba b27d 21bd
00000170: e020 92bc 7a2f 87bd 4166 ffbb 1ac8 a2c0
00000180: af71 29bd 2fef beba ba81 25bc cf8a 13bd
00000190: 551f 9bc0 30bf a3c0 0a79 95c0 8cac 89bd
000001a0: 8109 2ac0 774e 72bc 54e5 7bc0 0e9b 02bb
000001b0: 4979 c0c0 5f02 87bd dea4 3fc0 7aba 8bc0
000001c0: ffd4 5dbd e9a3 9bbc d62e dfc0 b707 35bc
000001d0: 829e e7c0 ad33 d5bd b18c 0ebe 41cc 5ebd
000001e0: 7f8f 22ba 0d9e 9dbb 52ef 1abf fa5d 9b3b
000001f0: af98 d2bc 7d4f 87bc 97ff a3c0 5000 6bbd
00000200: 4e10 c5c0 37d0 213c 436f 8fc0 b163 0b3a
00000210: 4eca 7ebd 0993 bfbc 44e8 23bb 18aa 64bc
00000220: e7ad a1bd 8e56 b5c0 75b0 d2c0 ec43 79c0
00000230: 1780 40c0 7515 30bf efbc c3c0 5d1a 97c0
00000240: 1146 57bb b94c 94be 61ed a7bd 3be5 80c0
00000250: 31d7 afc0 b2d6 8ec0 3544 8ac0 9457 b3c0
00000260: 460b 42bd a873 cbc0 c29f 43b7 73fd 1fbc
00000270: a77a 58bc 7f79 4cbd c796 d6bd da98 9bc0
00000280: f42a c0c0 34f8 32bd 4b38 c1ba f407 bac0
00000290: b85b 94bd 0433 a4b9 3f2b 05bc 8118 bec0
000002a0: 12cf f6bc 9420 55bb fe6e 7a3a 7e3a 2fbd
000002b0: 763d a0c0 ab82 66bd a288 53ba 1e4e 93bc
000002c0: 3367 343b 07fd bcbd 757b 85bb 11ef a2c0
000002d0: 9deb f6bd b09a 8ac0 02b5 8ec0 0977 66c0
000002e0: 08bb 94bd 05a2 a2c0 2a77 013c 0456 a5c0
000002f0: 25d3 e1c0 09c2 8d3b 5232 28bd 51de adc0
00000300: 9ba4 83bb 99ed 98bc 2f43 133c d51d 03bc
00000310: aad7 50c0 417a 9dbd e752 a63a 5c64 a8c0
00000320: 2d65 6dbd 0175 f4bc 873d a3c0 4b9d 3bbc
00000330: 88a2 7abd 2d72 33bd 5881 65c0 d33c a0c0
00000340: 094a 46bd e2d3 4ebe 63be 89bc 5a97 b8c0
00000350: 5d3b 11bd 03a8 b4c0 d3ae b8c0 9f77 a4bb
00000360: 54aa 05bd af1b 32bd 7b0b 5d3a 2b10 1ebd
00000370: bf8d 12ba f316 54bd 6786 44bc 7314 a6c0
00000380: c333 8abd e854 3fbb fd0c 98bb 6364 1c3c
00000390: cc24 98c0 ece0 a1c0 6711 9ac0 5ffd 28bd
000003a0: 857d 2ac0 5ba4 75bb ea36 7ec0 f10e 693a
000003b0: 046e bfc0 cefc 8dbd 9911 3fc0 9e01 8cc0
000003c0: cc6d e3bd e7de 38bb c1e4 dfc0 03ff bb3b
000003d0: da6c e8c0 090a ccbd 28cb e3bd c81c b1bd
000003e0: bec0 9fbc 4cbd 97bd e9b5 08bf b27f 7ebc
000003f0: 4886 f4bc 3f36 9ebc c1bf a5c0 54f2 43bd
-6.129459 -0.024766404 -4.5469503 -0.015874663 -0.021195626 0.003038424 -0.0059796083 -0.0047353297
-0.015931152 -5.727603 -6.428325 -3.921983 -3.1633117 -0.50598496 -6.2310286 -4.565643
-0.012147787 -0.31289446 -0.10356635 -4.195256 -5.5356445 -4.5147533 -4.4014344 -5.46047
-0.060059756 -6.30287 -0.0018843324 0.0072599277 -0.006794601 -0.057861507 -0.054700803 -4.9321523
-5.8511186 -0.075576626 -0.008824138 -5.714764 -0.03523461 -0.011487081 0.0013768035 -5.9842505
-0.048880447 -0.005522139 -0.009534211 -0.041067872 -5.055558 -0.023350157 -0.0075911386 -0.006329695
0.0022788486 -0.061185326 -0.0038753331 -5.057148 -0.04070367 -4.363471 -4.405437 -3.5199468
-0.038596846 -5.0659304 -0.0137696415 -5.0049505 -7.0091085 -0.012254292 -0.044782683 -5.3944373
-0.005297888 -0.012443552 -0.011190866 0.0022018757 -3.3449283 -0.040861506 -0.0066539505 -5.2802186
-0.049780853 -0.05888788 -5.1079006 -0.00083661615 -0.06848058 -0.07076508 -3.7386384 -4.991105
-0.12402761 -0.2025815 -0.050534222 -5.8500514 -0.06385767 -5.664874 -5.9024143 -0.019947328
-0.039562955 -0.055646174 -0.0015098521 -0.039426513 -0.017837942 -0.06600852 -0.007794172 -5.0869265
-0.041368183 -0.0014567132 -0.01010173 -0.03602105 -4.8475747 -5.1170883 -4.6710253 -0.06722364
-2.65683 -0.014789215 -3.935872 -0.0019928846 -6.0148053 -0.06592249 -2.9944377 -4.3665133
-0.054158207 -0.018999057 -6.9744673 -0.011049203 -7.238099 -0.10410247 -0.13920857 -0.05439401
-0.0006201192 -0.004810101 -0.60521424 0.0047414275 -0.02570757 -0.016517395 -5.12495 -0.057373345
-6.1582403 0.009876302 -4.4823318 0.00053172844 -0.06220465 -0.023385542 -0.0025010267 -0.013956569
-0.07894497 -5.6668158 -6.58404 -3.8947706 -3.007818 -0.6878274 -6.116813 -4.721968
-0.003284816 -0.28964785 -0.08199573 -4.027982 -5.4950185 -4.463708 -4.320826 -5.6044407
-0.047374032 -6.357868 -1.1660102e-05 -0.009765017 -0.013212836 -0.049920555 -0.10477977 -4.8624086
-6.0052433 -0.043693736 -0.0014741508 -5.813471 -0.072440565 -0.00031318527 -0.008127986 -5.940491
-0.030128036 -0.0032520639 0.0009553282 -0.042780392 -5.0075026 -0.05627696 -0.0008069371 -0.017981585
0.0027527332 -0.09227949 -0.004073555 -5.091683 -0.120566584 -4.3313828 -4.4595957 -3.6010153
-0.07262236 -5.082278 0.007901946 -5.16675 -7.0570245 0.0043261093 -0.041063614 -5.433388
-0.0040174252 -0.018667983 0.008988186 -0.008002718 -3.263163 -0.07689334 0.0012689502 -5.262251
-0.057957817 -0.029840948 -5.1012607 -0.011451076 -0.061190158 -0.04381006 -3.5860195 -5.007425
-0.04841045 -0.20198014 -0.016814416 -5.7684755 -0.035457004 -5.6455092 -5.771341 -0.0050191428
-0.03263314 -0.043483432 0.00084321917 -0.038589638 -0.000559058 -0.0517797 -0.011994935 -5.1899962
-0.06748154 -0.0029194895 -0.00464022 0.009545418 -4.754492 -5.0587063 -4.8146243 -0.04125726
-2.663911 -0.0037481997 -3.9721017 0.0008890471 -5.9821796 -0.06932984 -2.985449 -4.3751974
-0.111049265 -0.0028209032 -6.996674 0.005737187 -7.2632875 -0.099628516 -0.11122733 -0.08648068
-0.019501086 -0.074091524 -0.5340257 -0.015533375 -0.029849187 -0.019312976 -5.1796575 -0.047838524

bias_mu f4 [2]
00000000: 252e 1e3f a920 1ebf
0.6178916 -0.61768585

bias_logvar f4 [2]
00000000: a967 e3c0 5d6c e2c0
-7.106404 -7.075728
