metric/probe_distill_trail1_seed1.pth (torch, 539595 bytes, 12 tensors)

z_mu f4 [512]
00000000: 5a98 663f 3b6e 073e 9329 103f cdd4 8c3f
00000010: e51f b03b 4615 41bb 80f0 b13b c807 98ba
00000020: 2ca9 473f 2f39 4bbb b0e1 1dbb 35e5 0b3c
00000030: b751 613b ef51 e939 8c6e 0cbb ca04 1dbb
00000040: 3e05 ccb9 5bb2 1e3b 7d8b 17bc 1a00 ad3a
00000050: 6632 6d3b c5ad 07bb bd9a 0fbb df17 963b
00000060: 4dc0 a93f 8c16 3a3f ea24 24bb 9802 2c3b
00000070: ce32 61b8 845d cd39 f4ec 263f a55f 42bb
00000080: 0d94 873b f685 3bba 81ea ae3b 8caf 9bbb
00000090: 50f4 5aba 85ce 833b 5f59 813f 878f f539
000000a0: 0007 32ba 18b2 2b3c 4e2e 52b9 cb70 80bb
000000b0: 9b95 973b adcc 083c cd25 80ba bc74 0bbb
000000c0: e1f4 d23a f2a4 183b a70b 973f 9a04 903c
000000d0: 9e6b 873f 4a3a 30bc 0e6d 073c d7bd 46bb
000000e0: a954 d0ba 9c67 5f3b a8b6 b9ba 914d 50bb
000000f0: a084 9c3f aad9 753b 0f8d 183b 47b4 1940
00000100: c1ef 323f 3e2f 00bc 628b 62bb e8e4 84bb
00000110: 74f2 da3b 8b14 6abb 0cb5 2fbc b9d3 403a
00000120: 687c bf3a 8b57 b53f 41d4 fdba 1895 8ebb
00000130: 1124 4e3d 6509 a2ba 4705 f43a 005f 08bc
00000140: 61c5 36bb a4d2 96bb 96fb cabb 57a3 67bb
00000150: ab5c 9f3a 399c 593c cc24 863b fc4b cdbb
00000160: 4a34 563f d0da fcba 9c40 833f 30c4 1c3a
00000170: 8e7a 743f e99d 713f 5a52 99bb edf4 c93a
00000180: 7af5 b73f 93c2 bc39 8985 59bb a7df 9a3b
00000190: 5643 25bb 6101 7a3b 2e7a 8dbb 9bfa 583f
000001a0: b74c ea3b edc6 e2b9 583e 9dbb 2004 be3b
000001b0: 86fe 393a 2287 c8ba 0ee5 12b9 626a 133c
000001c0: e268 903f bf54 faba 71fe 0d3b 1f44 2ebc
000001d0: 5996 c938 c27e 80ba eb69 e7bb 98f7 11ba
000001e0: 1125 4cbb d5d8 4f3b 1be8 42bb b61c c83e
000001f0: 6cc7 8bba d0d6 c3bb 7c46 3b3f 2baf 823f
00000200: 5794 803f 2bf2 ecbb e7c9 cf3b 2a85 3d3f
00000210: 8fa8 90bc 2f39 d93f 277b 9a3f 6a9b bfba
00000220: c407 3040 0c97 813b 1281 0340 1d95 d83f
00000230: 86f7 283f 0cbc 0a3a 44f6 793f ba8e 843a
00000240: 2a20 a2ba acff 1d3b 53ee 0ebc be0c 3b3b
00000250: 56a4 573f b434 083f 3288 1a3f 22a0 2bbb
00000260: d380 e33f 363e 6e3b 6a94 bfba 5895 83bb
00000270: 3955 433b 87a5 bd3f c3b5 9338 7ee9 113b
00000280: 38a9 b13f 1bfa 73bb 5464 ac3f fd28 bf3a
00000290: 886a a3b9 682e 25ba c600 15ba 1a7e 153a
000002a0: c097 973f 3b28 a5bb d6e4 c03f f398 abbb
000002b0: be3c 313f 9ed4 363f 890d 2c3f c413 ce3f
000002c0: 45c3 703b f57f 083b c941 6c3c 3230 ff3b
000002d0: d5a1 7e3b cbae 3e3f 48e0 803a 89a0 1ebb
000002e0: bdc3 693b e11f f83a a8eb 9d3b a731 c03f
000002f0: a917 033b 6215 e7ba 5cd0 8b3f bc8f d63a
00000300: 6647 a63f 063e bcba bdfa 4b3b 1e9c 0039
00000310: 4f0a dfbb 1887 213c d063 993b 3a9f 763f
00000320: a382 ea3a 12d9 ee3f ed1c 8c3f 5dbb 9037
00000330: 8527 0cbb 31e9 4539 6c92 9eba 1176 883f
00000340: 7927 9c3c d1b6 8e3f 4716 ebbb 2e26 bfb9
00000350: 8e1a dbba 257e 893b e1bf 853a 53c8 d3bb
00000360: 354e 80bb 93df ff3e 6d5d 9f3f d659 963b
00000370: 3802 f33f 3118 bf3f 68d5 9339 2047 05ba
00000380: 7ffc adbb 0bd9 1c3e a571 803b 0102 d73e
00000390: 9c27 5eba 1519 bc39 9ec2 51bb 1430 a33b
000003a0: 08ae e4bb 7d33 633b f725 51bb 90be b93b
000003b0: 743e 8d3f f909 ab3f a569 6339 555c 613e
000003c0: 9a59 cfbb 130a 89bb e116 5ebb 8bcd 2dbb
000003d0: 5e38 34bc 817c c53f f37d 90bb bccf 9fba
000003e0: 6b71 9d3f 7fad bc3f 53aa a7b9 96e1 16bb
000003f0: 22cd 043c 6f93 e7ba 8a66 20b9 2573 763a
0.9007622 0.13225643 0.5631344 1.1002442 0.005374896 -0.0029462143 0.005430281 -0.0011598999
0.7799251 -0.0031009426 -0.002409082 0.008538534 0.0034380981 0.00044502268 -0.0021428196 -0.0023959153
-0.00038913818 0.0024215195 -0.009249565 0.0013198883 0.003619337 -0.002070294 -0.00219123 0.0045804824
1.326181 0.72690654 -0.0025046417 0.0026246663 -5.3691496e-05 0.00039170322 0.6520531 -0.002965906
0.004137522 -0.00071534456 0.0053380136 -0.0047511514 -0.00083524454 0.004022422 1.0105399 0.00046836978
-0.0006791204 0.010479473 -0.0002004441 -0.003919696 0.0046259887 0.00834958 -0.000977689 -0.0021279296
0.0016094708 0.0023291674 1.1800431 0.01758032 1.0579717 -0.010756085 0.008265747 -0.0030325556
-0.0015894371 0.0034088856 -0.0014168816 -0.0031784514 1.2227974 0.003751377 0.0023277437 2.4016283
0.69897085 -0.007823763 -0.0034567942 -0.004055608 0.0066817347 -0.003571781 -0.010724317 0.0007355768
0.001460922 1.4167341 -0.0019365625 -0.0043512695 0.050327364 -0.0012362419 0.0018617295 -0.008323431
-0.0027888643 -0.004602747 -0.006194542 -0.003534516 0.0012158355 0.013281875 0.004093742 -0.0062651616
0.83673537 -0.0019291285 1.0254092 0.0005980162 0.95499504 0.94381577 -0.0046790065 0.0015408077
1.4371789 0.00036003123 -0.0033191165 0.0047263685 -0.0025217137 0.0038147795 -0.0043175435 0.84757394
0.0071502584 -0.0004325429 -0.0047986917 0.0057988316 0.0007095117 -0.0015299062 -0.00014008975 0.008997532
1.1282008 -0.0019098743 0.0021666551 -0.0106363585 9.612431e-05 -0.0009803402 -0.007062187 -0.00055682054
-0.0031150023 0.0031714935 -0.0029740396 0.39084405 -0.0010664291 -0.0059765354 0.73154426 1.0209707
1.004527 -0.007231017 0.0063412073 0.7403132 -0.0176585 1.6970576 1.2068833 -0.001461846
2.750474 0.003954774 2.0547528 1.6920506 0.6600269 0.00052923034 0.97641397 0.0010113337
-0.0012369205 0.002410869 -0.008723813 0.002854153 0.8423513 0.5320542 0.6036407 -0.0026187976
1.7773689 0.0036352999 -0.0014616374 -0.004015606 0.0029805435 1.481614 7.043362e-05 0.0022264416
1.3879766 -0.0037227932 1.3468118 0.0014584359 -0.00031169155 -0.00063011656 -0.0005684014 0.00057026895
1.1843185 -0.0050401962 1.5069835 -0.005236739 0.6923331 0.7141818 0.67208153 1.6099782
0.0036737483 0.0020828221 0.014419981 0.0077877278 0.0038853784 0.7448546 0.0009832466 -0.0024204573
0.0035669648 0.0018930399 0.004819352 1.5015153 0.0020003116 -0.0017630274 1.0922961 0.001636974
1.2990539 -0.0014361746 0.0031124793 0.0001226519 -0.006806649 0.009858869 0.004681088 0.9633671
0.0017891716 1.8659995 1.0946327 1.7253386e-05 -0.002138586 0.00018874255 -0.001209808 1.0661031
0.01906179 1.1149541 -0.0071742865 -0.00036458805 -0.0016716288 0.004195946 0.0010204279 -0.0064630895
-0.003915573 0.4997526 1.2450386 0.004588346 1.8985052 1.4929258 0.00028197025 -0.0005084146
-0.005309641 0.1531717 0.0039197975 0.41993716 -0.000847453 0.00035876842 -0.003200687 0.0049800966
-0.006978754 0.003466814 -0.0031913498 0.005668469 1.1034684 1.3362418 0.00021687763 0.22007878
-0.00632782 -0.004182109 -0.0033888149 -0.0026520218 -0.010999767 1.542862 -0.0044095456 -0.0012192647
1.2300237 1.4740447 -0.00031979624 -0.0023022643 0.008105548 -0.001766784 -0.00015296988 0.0009401313

z_logvar f4 [512]
00000000: b488 85c0 65b3 83c0 85a2 8fc0 bf5b dbc0
00000010: 5bac 6ec0 c895 8cc0 4716 93c0 6239 b4c0
00000020: 0e8f bcc0 9e46 7ac0 7540 afc0 0f56 89c0
00000030: 2c76 8cc0 ce11 acc0 c446 b2c0 c00b bdc0
00000040: 30f7 bdc0 f38c aec0 92de 9dc0 84ef bec0
00000050: fd7e 89c0 2fec afc0 546f a0c0 90ee 41c0
00000060: 1baa ccc0 2574 b6c0 0934 b5c0 289c aec0
00000070: b515 53c0 cb28 bfc0 3a76 abc0 9673 a8c0
00000080: ae82 8fc0 e597 74c0 93d2 b1c0 049a b4c0
00000090: 081b c1c0 c67c bac0 51d4 37bf 61cf a7c0
000000a0: ffca a1c0 121c 5fc0 d670 bbc0 1528 c2c0
000000b0: 692b abc0 ef19 9ec0 a6c4 b2c0 18a9 51c0
000000c0: 4233 a7c0 4ff4 8cc0 243d ccc0 1a46 24c0
000000d0: 34dc 8dc0 96f6 adc0 afe3 a7c0 190d 5dc0
000000e0: e1c9 a4c0 f28c bfc0 62cf b2c0 f483 b4c0
000000f0: 6af3 55c0 ba84 b7c0 6a6c 85c0 5583 abc0
00000100: f312 b9c0 706c 8bc0 a8dd 9fc0 3aef aec0
00000110: 02bd 15c0 b827 b3c0 8591 4fc0 ba97 93c0
00000120: 2ed6 86c0 063f 2cc0 b497 37c0 3ba1 9ac0
00000130: e4ec 68c0 cd21 c5c0 16be b6c0 7ac9 a7c0
00000140: a71d 76c0 aa15 b6c0 e9fd 6bc0 8b8b bac0
00000150: 8005 b8c0 9f58 83c0 1cbc 91c0 abbd 80c0
00000160: d529 8dc0 e94e 69c0 4a7d afc0 b61a a8c0
00000170: 6e45 d3c0 12ef b4c0 b57d c9c0 5403 a9c0
00000180: ad63 a0c0 2437 c2c0 a7f1 aac0 430a a1c0
00000190: b410 b5c0 4fb7 b1c0 fdc8 aec0 46a9 c6c0
000001a0: 6dce b4c0 656e bac0 a27c a6c0 8056 7ac0
000001b0: 0085 98c0 4359 b7c0 c209 aac0 6b67 90c0
000001c0: 7b70 c8c0 efc0 cec0 774c 95c0 d26b 90c0
000001d0: 5a3a acc0 2f6b c0c0 7ac8 a5c0 cfb7 b6c0
000001e0: 3b8d b7c0 bd9a 9fc0 b17c c1c0 9a7d 85c0
000001f0: 6f65 a0c0 61b1 7cc0 32ab bac0 d915 cfc0
00000200: 43b3 b8c0 79ba 9fc0 62d7 9bc0 34c6 4cc0
00000210: 6a83 93c0 eb10 c5c0 79e3 c2c0 d9ef 8cc0
00000220: b46e 92c0 d9f3 acc0 f57a 31c0 7202 85c0
00000230: 94ce b2c0 7956 96c0 d6e4 ddc0 e564 adc0
00000240: d1ef bdc0 be17 35c0 2439 7bc0 865b 8ac0
00000250: f11f 8fc0 7616 63c0 4eea 27c0 3634 a4c0
00000260: 9773 5bc0 4ab2 a5c0 d46b b0c0 6233 b9c0
00000270: 0cc4 aec0 d88f 74c0 2378 b5c0 6ddf 8ec0
00000280: bc54 94c0 7d0e b6c0 eb77 49c0 3dfb b7c0
00000290: 7e91 a8c0 8c1c 71c0 2fa9 a0c0 3fcc bcc0
000002a0: 2aa6 c5c0 cfc6 a4c0 9f6c c6c0 47f5 cec0
000002b0: 2da2 94c0 dbeb b3c0 303e 88c0 a116 aac0
000002c0: 8fd4 b9c0 1056 c1c0 7317 82c0 aa68 96c0
000002d0: 9093 c9c0 9b2a a5c0 e404 b6c0 5bc1 a8c0
000002e0: 3596 a8c0 52de bec0 114b aac0 6807 1bc0
000002f0: b6eb 5dc0 8a09 87c0 b7f4 95c0 5b8d afc0
00000300: 0d07 cbc0 2d9c 96c0 1bb9 c7c0 08a8 98c0
00000310: 25b1 b8c0 bb40 b3c0 01e3 bbc0 ac1e 89c0
00000320: 9234 afc0 1eb0 d0c0 2d96 88c0 19d9 95c0
00000330: bed5 a3c0 5703 bac0 1151 90c0 e132 8ec0
00000340: f435 88c0 53a2 c3c0 4dac b5c0 ced7 ccc0
00000350: 6370 92c0 c28c 15c0 9486 a4c0 5eb8 42c0
00000360: d918 a0c0 1e5e 96c0 9440 d3c0 66aa 8bc0
00000370: a2ba 5ec0 70cf 2dc0 d6b9 94c0 c89e c4c0
00000380: 34ad 53c0 95eb 19c0 1403 b8c0 7cb2 95c0
00000390: 47cd d0c0 ce10 b5c0 f0c3 aac0 ba88 bbc0
000003a0: a7a3 b2c0 6091 c9c0 e219 66c0 fc35 60c0
000003b0: c20e c0c0 70ef a7c0 bb1a b0c0 7d71 71c0
000003c0: 1cfa bbc0 d5f9 b2c0 87d7 c4c0 e5f0 c2c0
000003d0: 6159 8cc0 b0a6 16c0 14ee b5c0 8658 a6c0
000003e0: adf2 dac0 0e94 43c0 ecc8 acc0 ac6d b1c0
000003f0: 6d80 9ac0 03f5 b5c0 fed1 b7c0 6dcb b0c0
-4.1729374 -4.1156487 -4.488589 -6.8549495 -3.7292697 -4.393284 -4.5964694 -5.6320047
-5.8924627 -3.9105601 -5.4766183 -4.291755 -4.3894253 -5.3771734 -5.5711384 -5.9076843
-5.9364243 -5.4547057 -4.933419 -5.9667377 -4.2967515 -5.497581 -5.01359 -3.0301857
-6.395765 -5.701678 -5.662602 -5.456562 -3.2982 -5.9737296 -5.358182 -5.2641096
-4.484702 -3.821771 -5.556955 -5.6438007 -6.0345497 -5.827731 -0.71808344 -5.244065
-5.05603 -3.4860883 -5.857524 -6.067393 -5.349049 -4.9406657 -5.586505 -3.2759457
-5.225007 -4.404823 -6.3824635 -2.5667787 -4.4331303 -5.436351 -5.2465434 -3.4539244
-5.1496434 -5.985955 -5.5878153 -5.6411076 -3.3429818 -5.734952 -4.169484 -5.3597817
-5.783563 -4.356987 -4.9958076 -5.4667025 -2.3396611 -5.5985985 -3.2432568 -4.6122713
-4.213645 -2.6913466 -2.8686342 -4.8321815 -3.6394587 -6.160376 -5.710704 -5.2433443
-3.8455598 -5.6901445 -3.6873724 -5.829534 -5.7506714 -4.104568 -4.5542126 -4.023153
-4.4113564 -3.6454413 -5.484044 -5.2532606 -6.6022253 -5.6541834 -6.296595 -5.2816563
-5.0121675 -6.069231 -5.3419986 -5.0325027 -5.658289 -5.5536265 -5.4620347 -6.2081633
-5.6501985 -5.825976 -5.202714 -3.9115295 -4.7662354 -5.729646 -5.313691 -4.5126243
-6.2637305 -6.4610515 -4.665584 -4.5131617 -5.382123 -6.013084 -5.180722 -5.7099376
-5.73599 -4.987639 -6.046471 -4.171582 -5.012382 -3.9483263 -5.833398 -6.471417
-5.7718825 -4.991513 -4.870042 -3.1995974 -4.6097918 -6.158315 -6.0902677 -4.4042783
-4.5760136 -5.4047666 -2.7731297 -4.1565485 -5.587717 -4.6980557 -6.934184 -5.418566
-5.9355245 -2.829574 -3.9253626 -4.3236723 -4.472649 -3.548246 -2.6236758 -5.1313734
-3.42893 -5.178014 -5.5131626 -5.7875223 -5.4614315 -3.8212795 -5.670915 -4.4647737
-4.6353436 -5.6892686 -3.1479442 -5.7494187 -5.2677603 -3.7673674 -5.0206523 -5.8999324
-6.1765337 -5.1492686 -6.2007594 -6.467441 -4.644797 -5.622541 -4.2575912 -5.3152623
-5.807197 -6.0417557 -4.0653625 -4.7002764 -6.299263 -5.161451 -5.688097 -5.273603
-5.268336 -5.9646387 -5.3216634 -2.422327 -3.4675117 -4.2199144 -4.6861224 -5.4860053
-6.3446107 -4.7065644 -6.241346 -4.7705116 -5.771624 -5.6016517 -5.8714604 -4.284994
-5.4751673 -6.5214987 -4.268332 -4.682751 -5.1198416 -5.8129077 -4.509896 -4.443711
-4.256586 -6.113565 -5.677283 -6.4013433 -4.576219 -2.3367162 -5.141428 -3.0425029
-5.003033 -4.698989 -6.601633 -4.3645506 -3.4801412 -2.715786 -4.647685 -6.1443825
-3.3074465 -2.4050038 -5.7503757 -4.6780376 -6.5250583 -5.6583014 -5.336418 -5.8604403
-5.582477 -6.298996 -3.5953298 -3.503295 -6.0018015 -5.247978 -5.503263 -3.7725518
-5.874281 -5.592997 -6.1513095 -6.091906 -4.3859105 -2.3539238 -5.6853123 -5.198306
-6.8421235 -3.0559115 -5.3995266 -5.5446377 -4.828177 -5.6861587 -5.744384 -5.5248322

weight_mu f4 [128, 512]
00000000: 3e75 d5bc 83fb c4bb b824 56bc 2ddd 8bbd
00000010: ba83 623a 0a60 2abb bb2e f13b 5d0d 2a3c
00000020: 7bb5 10bd 1d4c aa3a 4556 0fbb c26f 043b
00000030: 9520 623b 9adf a93b 61a0 9dbb 21db daba
00000040: beaf 9fb8 6948 5e3b 22a3 4f3a 5aa2 05b9
00000050: 26dc 8b3a 11aa a7bb e53f 33bc 6614 823b
00000060: 6e54 6fbd cced 37bd 4e38 2739 8ee7 a53b
00000070: 0b0e 6839 1e32 ff3b 0cbb e1bc 2ab0 a53a
00000080: 502d 233b 2b8c 7a3b 55da 823b 3c5d fb3a
00000090: 2903 e739 3bb4 b1b9 1072 243c 22a5 84b9
000000a0: 5a8c 4c3b 26d2 943b e72b a6bb b35f 4b3b
000000b0: d121 5e3b 3ff2 48ba a20f 303b 81f8 cfbb
000000c0: ed9f b4bb 0ad9 733b f5fe 7dbd 354d 433c
000000d0: 0a98 22bd 7f4a 8f3b a8bf c0bb be98 15bb
000000e0: 06a2 ad3b acdb d739 ca83 d4bb 25d4 0c3b
000000f0: 6e5c b0bc d522 a33b 75e3 b83a ee00 1cbd
00000100: 5bca 3dbd cd60 a23a d2f7 5bba a73d 773b
00000110: 403b eebb db7e 45bb 5855 0e3b 9ad1 dd3a
00000120: 02dc a33b 71ac 8abc 4ad9 9ebb 7e54 0f3a
00000130: 5eec b73b c50a ab3a 1a2e ef3a 4600 e6b9
00000140: 0113 f1ba dcd1 2cbb a405 1838 3c75 c0bb
00000150: 0f3a afba 1270 d43b 1bf6 09b9 6c64 6b3a
00000160: 82fa 01bd 588d 4c3a 5c47 1fbd 22ec 863b
00000170: 58c7 5ebd 6a32 5bbd da07 f23a 0119 2abb
00000180: faa2 44bd e49a c93b 9e4a 9bba 9b67 e4ba
00000190: 21a9 59ba bb90 323b 770c eaba d313 56bd
000001a0: 9a2c fc3a 9ca1 9aba b8be 393b f877 0f3a
000001b0: db5c 6d3b b44a c43b 7cad 63ba 4b95 2b39
000001c0: 7b35 7ebd 5104 81bb 6531 c138 c4e4 c73b
000001d0: 69e7 1eb9 a96e dcba bd6c 3bba cc2a 8cba
000001e0: 58a5 673b 7e1d 2f3c d221 ccba c1cc c5bc
000001f0: ba31 a1bb adb2 cd39 21e2 2dbd 3341 8cbd
00000200: 3f74 28bd 06a6 063b c926 b33a 93b0 8fbc
00000210: e907 a03b bac0 d0bc 8d37 2ebd b1d1 eeba
00000220: a4e9 5cbd 9a10 3e3b e8a2 61bc f351 22bd
00000230: 5a46 21bd 9511 69ba f2d2 97bd e35b 4d3b
00000240: 9be6 923a b740 9ebb fb26 fdbb 7c6e b5bb
00000250: 360d 74bd 1946 bebc 629a 54bc 2757 dab8
00000260: 0a5e 95bc e044 153b a94b 6c3a 9b64 353b
00000270: 8f37 98bb f2f7 08bd 480b 9738 57ec 0cbb
00000280: 50aa 48bc 54c8 f8b9 b1d4 cbbc 7904 91bb
00000290: 74c3 a43b e270 77ba d6b4 4fba 265a 283b
000002a0: c44d 7bbd 5f62 1e3b 22c8 a4bd c309 c63b
000002b0: f37d 05bd 53cc 19bd 7f33 efbc 3274 76bc
000002c0: 24b2 06bc f292 f1bb 2410 0a3b 22f5 4bba
000002d0: ef2b d83b 0de0 21bd 978c c43a c09e 3dbb
000002e0: 23d2 94bb 15b9 43b9 91aa 55ba 1143 8fbc
000002f0: 9014 cd3b fc87 f0ba 3383 a8bc eee3 b0bb
00000300: 79c3 7fbd 3f32 a838 e0c1 513b 69a1 483b
00000310: 3aa6 85bb cf60 b6b9 97db 51bb df5f aabc
00000320: 3c2f 9bba 2791 9abd 1548 eebc 692d a8bb
00000330: 6cfd 2cbb 8dd1 043c e881 b53b 71ff 4cbd
00000340: d339 2e3c 325b 80bd 0c6d 1cbc 8382 623b
00000350: ac4c 7e3a 2d67 c5ba 52e9 4d3b 810c d5bb
00000360: 7307 8b3a fe68 febc ae94 adbd 6645 043b
00000370: 6257 d8bc 2f35 7bbc 9beb 303b 599c 443b
00000380: 4a31 3b3a 40d2 843a 080d aa3a c729 05bd
00000390: b883 513b d74a b13a ef29 47ba 9f94 f9bb
000003a0: e164 a4bb aa88 a43a 78e8 aa3b 8190 cf3a
000003b0: 2b2d 69bd d29f 26bd bf13 c7ba e210 7fbc
000003c0: 378a 3f3a 49fb 073b 2464 173b b792 803b
000003d0: 4aba 1e3b fc1d b1bc a66b 5a3a 8177 1fbb
000003e0: f66f bdbd 8ae5 1cbc ce92 b53b 5d78 b03b
000003f0: 6939 dabb ced5 6ebb 8585 a6bb cc21 683b
-0.026056882 -0.006011428 -0.013070278 -0.06829295 0.00086408446 -0.0025997185 0.007360307 0.010379163
-0.035329323 0.0012992654 -0.002187149 0.0020208214 0.0034504284 0.005184126 -0.0048103784 -0.0016697386
-7.614445e-05 0.0033917672 0.0007920732 -0.00012744349 0.0010670468 -0.005116709 -0.010940527 0.003969717
-0.058430128 -0.044904515 0.00015947336 0.005063004 0.00022130476 0.007787957 -0.027555011 0.0012641002
0.0024898835 0.003823052 0.0039933124 0.0019177566 0.00044062108 -0.00033894353 0.01003696 -0.00025300035
0.0031211586 0.004541653 -0.0050711515 0.0031032383 0.0033894668 -0.0007665492 0.0026864787 -0.0063467626
-0.0055122287 0.0037208223 -0.062010724 0.011920263 -0.039695777 0.0043728943 -0.005882222 -0.0022826637
0.0052988557 0.00041171664 -0.006485437 0.0021488753 -0.021528449 0.0049785175 0.0014105873 -0.038086824
-0.04633556 0.0012388468 -0.0008391115 0.0037725957 -0.0072702467 -0.0030135426 0.002171835 0.0016923428
0.005000592 -0.01692793 -0.00484768 0.00054676074 0.005612894 0.0013049474 0.0018247992 -0.00043869222
-0.0018392504 -0.0026370203 3.6244877e-05 -0.0058733504 -0.0013368743 0.0064830864 -0.0001315702 0.00089795026
-0.031733043 0.0007803044 -0.038886413 0.0041175047 -0.054389328 -0.053514875 0.0018465475 -0.0025954845
-0.04800699 0.0061524976 -0.0011847799 -0.0017425896 -0.0008303095 0.002724691 -0.0017856498 -0.052265
0.0019239367 -0.0011797431 0.0028342437 0.0005472894 0.0036218676 0.0059903506 -0.0008685214 0.00016363447
-0.06206272 -0.003937282 9.2121576e-05 0.006100269 -0.00015154261 -0.0016817647 -0.0007149687 -0.0010693907
0.0035346355 0.010688184 -0.0015574044 -0.024145486 -0.004919258 0.0003923377 -0.04245198 -0.06848373
-0.041126486 0.0020545735 0.0013668175 -0.017540252 0.0048837555 -0.025482524 -0.042533446 -0.0018220452
-0.053933755 0.0029001595 -0.01377175 -0.039628934 -0.039373733 -0.00088908646 -0.074132815 0.0031335286
0.0011207642 -0.004829492 -0.007725594 -0.0055368524 -0.05958291 -0.023226785 -0.012976261 -0.000104112834
-0.018233318 0.0022776648 0.000901396 0.0027678374 -0.004645295 -0.033439584 7.2023424e-05 -0.0021503174
-0.012247637 -0.00047451502 -0.024881693 -0.004425582 0.0050281826 -0.0009439123 -0.000792337 0.0025688498
-0.06135346 0.002416752 -0.08045985 0.006043644 -0.032590818 -0.037548374 -0.02919936 -0.015042352
-0.008221183 -0.0073722536 0.002106675 -0.0007780363 0.006597034 -0.039520312 0.0014995512 -0.0028933734
-0.004541652 -0.00018665598 -0.00081507216 -0.017488034 0.0062585548 -0.0018351073 -0.020570373 -0.005398265
-0.062442277 8.020223e-05 0.0032006428 0.0030613786 -0.0040786536 -0.00034785873 -0.0032021755 -0.020797668
-0.0011839638 -0.07547217 -0.029087106 -0.0051323664 -0.0026396168 0.008106601 0.0055391677 -0.050048295
0.010633904 -0.06267394 -0.009547483 0.0034562654 0.0009700756 -0.0015060656 0.0031419587 -0.0065017347
0.0010607078 -0.031055924 -0.08475624 0.0020182966 -0.026408855 -0.015332504 0.00269959 0.0030000417
0.00071408285 0.001013346 0.0012973854 -0.032510545 0.003196938 0.0013526332 -0.0007597496 -0.007616594
-0.0050169085 0.0012552936 0.0052157007 0.0015835912 -0.05692784 -0.04067976 -0.001518838 -0.01556799
0.00073066674 0.0020749143 0.002310046 0.00392374 0.0024219924 -0.021620743 0.0008332081 -0.0024332704
-0.092498705 -0.009576211 0.005541182 0.005385442 -0.006659676 -0.0036443355 -0.0050818347 0.0035420535

weight_logvar f4 [128, 512]
00000000: 1002 4ec0 1002 4ec0 1002 4ec0 1002 4ec0
00000010: 1002 4ec0 1002 4ec0 1002 4ec0 1002 4ec0
00000020: 1002 4ec0 1002 4ec0 1002 4ec0 1002 4ec0
00000030: 1002 4ec0 1002 4ec0 1002 4ec0 1002 4ec0
00000040: 1002 4ec0 1002 4ec0 1002 4ec0 1002 4ec0
00000050: 1002 4ec0 1002 4ec0 1002 4ec0 1002 4ec0
00000060: 1002 4ec0 1002 4ec0 1002 4ec0 1002 4ec0
00000070: 1002 4ec0 1002 4ec0 1002 4ec0 1002 4ec0
00000080: 1002 4ec0 1002 4ec0 1002 4ec0 1002 4ec0
00000090: 1002 4ec0 1002 4ec0 1002 4ec0 1002 4ec0
000000a0: 1002 4ec0 1002 4ec0 1002 4ec0 1002 4ec0
000000b0: 1002 4ec0 1002 4ec0 1002 4ec0 1002 4ec0
000000c0: 1002 4ec0 1002 4ec0 1002 4ec0 1002 4ec0
000000d0: 1002 4ec0 1002 4ec0 1002 4ec0 1002 4ec0
000000e0: 1002 4ec0 1002 4ec0 1002 4ec0 1002 4ec0
000000f0: 1002 4ec0 1002 4ec0 1002 4ec0 1002 4ec0
00000100: 1002 4ec0 1002 4ec0 1002 4ec0 1002 4ec0
00000110: 1002 4ec0 1002 4ec0 1002 4ec0 1002 4ec0
00000120: 1002 4ec0 1002 4ec0 1002 4ec0 1002 4ec0
00000130: 1002 4ec0 1002 4ec0 1002 4ec0 1002 4ec0
00000140: 1002 4ec0 1002 4ec0 1002 4ec0 1002 4ec0
00000150: 1002 4ec0 1002 4ec0 1002 4ec0 1002 4ec0
00000160: 1002 4ec0 1002 4ec0 1002 4ec0 1002 4ec0
00000170: 1002 4ec0 1002 4ec0 1002 4ec0 1002 4ec0
00000180: 1002 4ec0 1002 4ec0 1002 4ec0 1002 4ec0
00000190: 1002 4ec0 1002 4ec0 1002 4ec0 1002 4ec0
000001a0: 1002 4ec0 1002 4ec0 1002 4ec0 1002 4ec0
000001b0: 1002 4ec0 1002 4ec0 1002 4ec0 1002 4ec0
000001c0: 1002 4ec0 1002 4ec0 1002 4ec0 1002 4ec0
000001d0: 1002 4ec0 1002 4ec0 1002 4ec0 1002 4ec0
000001e0: 1002 4ec0 1002 4ec0 1002 4ec0 1002 4ec0
000001f0: 1002 4ec0 1002 4ec0 1002 4ec0 1002 4ec0
00000200: 1002 4ec0 1002 4ec0 1002 4ec0 1002 4ec0
00000210: 1002 4ec0 1002 4ec0 1002 4ec0 1002 4ec0
00000220: 1002 4ec0 1002 4ec0 1002 4ec0 1002 4ec0
00000230: 1002 4ec0 1002 4ec0 1002 4ec0 1002 4ec0
00000240: 1002 4ec0 1002 4ec0 1002 4ec0 1002 4ec0
00000250: 1002 4ec0 1002 4ec0 1002 4ec0 1002 4ec0
00000260: 1002 4ec0 1002 4ec0 1002 4ec0 1002 4ec0
00000270: 1002 4ec0 1002 4ec0 1002 4ec0 1002 4ec0
00000280: 1002 4ec0 1002 4ec0 1002 4ec0 1002 4ec0
00000290: 1002 4ec0 1002 4ec0 1002 4ec0 1002 4ec0
000002a0: 1002 4ec0 1002 4ec0 1002 4ec0 1002 4ec0
000002b0: 1002 4ec0 1002 4ec0 1002 4ec0 1002 4ec0
000002c0: 1002 4ec0 1002 4ec0 1002 4ec0 1002 4ec0
000002d0: 1002 4ec0 1002 4ec0 1002 4ec0 1002 4ec0
000002e0: 1002 4ec0 1002 4ec0 1002 4ec0 1002 4ec0
000002f0: 1002 4ec0 1002 4ec0 1002 4ec0 1002 4ec0
00000300: 1002 4ec0 1002 4ec0 1002 4ec0 1002 4ec0
00000310: 1002 4ec0 1002 4ec0 1002 4ec0 1002 4ec0
00000320: 1002 4ec0 1002 4ec0 1002 4ec0 1002 4ec0
00000330: 1002 4ec0 1002 4ec0 1002 4ec0 1002 4ec0
00000340: 1002 4ec0 1002 4ec0 1002 4ec0 1002 4ec0
00000350: 1002 4ec0 1002 4ec0 1002 4ec0 1002 4ec0
00000360: 1002 4ec0 1002 4ec0 1002 4ec0 1002 4ec0
00000370: 1002 4ec0 1002 4ec0 1002 4ec0 1002 4ec0
00000380: 1002 4ec0 1002 4ec0 1002 4ec0 1002 4ec0
00000390: 1002 4ec0 1002 4ec0 1002 4ec0 1002 4ec0
000003a0: 1002 4ec0 1002 4ec0 1002 4ec0 1002 4ec0
000003b0: 1002 4ec0 1002 4ec0 1002 4ec0 1002 4ec0
000003c0: 1002 4ec0 1002 4ec0 1002 4ec0 1002 4ec0
000003d0: 1002 4ec0 1002 4ec0 1002 4ec0 1002 4ec0
000003e0: 1002 4ec0 1002 4ec0 1002 4ec0 1002 4ec0
000003f0: 1002 4ec0 1002 4ec0 1002 4ec0 1002 4ec0
-3.218876 -3.218876 -3.218876 -3.218876 -3.218876 -3.218876 -3.218876 -3.218876
-3.218876 -3.218876 -3.218876 -3.218876 -3.218876 -3.218876 -3.218876 -3.218876
-3.218876 -3.218876 -3.218876 -3.218876 -3.218876 -3.218876 -3.218876 -3.218876
-3.218876 -3.218876 -3.218876 -3.218876 -3.218876 -3.218876 -3.218876 -3.218876
-3.218876 -3.218876 -3.218876 -3.218876 -3.218876 -3.218876 -3.218876 -3.218876
-3.218876 -3.218876 -3.218876 -3.218876 -3.218876 -3.218876 -3.218876 -3.218876
-3.218876 -3.218876 -3.218876 -3.218876 -3.218876 -3.218876 -3.218876 -3.218876
-3.218876 -3.218876 -3.218876 -3.218876 -3.218876 -3.218876 -3.218876 -3.218876
-3.218876 -3.218876 -3.218876 -3.218876 -3.218876 -3.218876 -3.218876 -3.218876
-3.218876 -3.218876 -3.218876 -3.218876 -3.218876 -3.218876 -3.218876 -3.218876
-3.218876 -3.218876 -3.218876 -3.218876 -3.218876 -3.218876 -3.218876 -3.218876
-3.218876 -3.218876 -3.218876 -3.218876 -3.218876 -3.218876 -3.218876 -3.218876
-3.218876 -3.218876 -3.218876 -3.218876 -3.218876 -3.218876 -3.218876 -3.218876
-3.218876 -3.218876 -3.218876 -3.218876 -3.218876 -3.218876 -3.218876 -3.218876
-3.218876 -3.218876 -3.218876 -3.218876 -3.218876 -3.218876 -3.218876 -3.218876
-3.218876 -3.218876 -3.218876 -3.218876 -3.218876 -3.218876 -3.218876 -3.218876
-3.218876 -3.218876 -3.218876 -3.218876 -3.218876 -3.218876 -3.218876 -3.218876
-3.218876 -3.218876 -3.218876 -3.218876 -3.218876 -3.218876 -3.218876 -3.218876
-3.218876 -3.218876 -3.218876 -3.218876 -3.218876 -3.218876 -3.218876 -3.218876
-3.218876 -3.218876 -3.218876 -3.218876 -3.218876 -3.218876 -3.218876 -3.218876
-3.218876 -3.218876 -3.218876 -3.218876 -3.218876 -3.218876 -3.218876 -3.218876
-3.218876 -3.218876 -3.218876 -3.218876 -3.218876 -3.218876 -3.218876 -3.218876
-3.218876 -3.218876 -3.218876 -3.218876 -3.218876 -3.218876 -3.218876 -3.218876
-3.218876 -3.218876 -3.218876 -3.218876 -3.218876 -3.218876 -3.218876 -3.218876
-3.218876 -3.218876 -3.218876 -3.218876 -3.218876 -3.218876 -3.218876 -3.218876
-3.218876 -3.218876 -3.218876 -3.218876 -3.218876 -3.218876 -3.218876 -3.218876
-3.218876 -3.218876 -3.218876 -3.218876 -3.218876 -3.218876 -3.218876 -3.218876
-3.218876 -3.218876 -3.218876 -3.218876 -3.218876 -3.218876 -3.218876 -3.218876
-3.218876 -3.218876 -3.218876 -3.218876 -3.218876 -3.218876 -3.218876 -3.218876
-3.218876 -3.218876 -3.218876 -3.218876 -3.218876 -3.218876 -3.218876 -3.218876
-3.218876 -3.218876 -3.218876 -3.218876 -3.218876 -3.218876 -3.218876 -3.218876
-3.218876 -3.218876 -3.218876 -3.218876 -3.218876 -3.218876 -3.218876 -3.218876

bias_mu f4 [128]
00000000: d97b f2bd 8043 14be 83ec f9bd 06a6 1cbe
00000010: 85f4 82bc 93ad 54be 2860 52bc f645 83bd
00000020: b3bd 88bc c08a b3bb a3f7 20be f613 a6bc
00000030: d8b5 19be ca1f 22be 95f8 17be c458 16bc
00000040: 16c3 38be de71 38bd 209e 0ebe f44c 57be
00000050: ec68 1cbe 6b55 f1bd ec63 16be 9ce8 8dbc
00000060: bcb1 6bbd 6d40 17be ec1c 2abe a0a5 03be
00000070: c811 1dbe 5a94 0dbe 928e eabc ceb4 f5bc
00000080: a8d6 10be 2bfc 0dbe 5199 e2bd 806d 20be
00000090: 7964 1dbe ca17 20be 0789 91bc 2421 74bd
000000a0: 6aa0 fcbd c7e3 0ebc b4ca 81be 6f5e 1dbe
000000b0: cef9 64bc 8633 10bd f344 c5bc 61e0 8dbe
000000c0: 8d74 a8bd b0a6 1dbe bac7 883d 0a69 0cbe
000000d0: f29a 9ebd 1c28 11be 51de 25bc 3cd7 99bc
000000e0: 51a0 f6bb 0203 26be d094 f6bd bc46 5cbc
000000f0: dfb5 f83d 9f32 03be 9a73 13be 6da9 00be
00000100: 38e5 0fbe 260d 3abe a2da 39bd 0dfb 16be
00000110: 4181 25be 5d5e f4bd 2e0b 4abe e911 0b3e
00000120: 7801 71be d3fa 23be 4145 2dbe 2e04 6fbc
00000130: 4314 0f3d 45ad 1cbc 7af6 84be 1e92 03be
00000140: c42d 27be d020 9bbc 33d5 0cbe e944 6ebd
00000150: 0dfd 24be cc4f 09be ca9c 16be b051 1cbe
00000160: 9f2d 0bbe b32e bebc 844c 09be 89bb 4cbe
00000170: a4c0 f2bd 4ac3 76bc 5b97 b3bd 17d7 21be
00000180: c8f0 96bc e240 77bc c1d2 18bc cc6d 3abe
00000190: 0172 10be 1e4b 9abc 17af 3ebc db4f 0abe
000001a0: bc5d 47be 6240 d5be 8aa0 1ebe fec0 2dbc
000001b0: 0ce6 07be 2fea f03b 72d5 07be 05e4 02be
000001c0: 80e8 e9bb 46b6 3fbc b1df 76bc 72f5 3cbc
000001d0: 32d5 49bd e3b3 a7bc 3e9c 31be 1e07 e23d
000001e0: 9770 80bc 2b81 1abe cf72 8abc 214d eabd
000001f0: 4fe2 00be e3c4 3bbe 5840 d6bc cc1a e83d
-0.11840028 -0.14478874 -0.12203314 -0.15297708 -0.015985737 -0.20769338 -0.012840308 -0.06409828
-0.016692018 -0.005479187 -0.15719466 -0.02027319 -0.15010774 -0.15832439 -0.1484092 -0.009176437
-0.1804317 -0.045030467 -0.13927507 -0.21025449 -0.152744 -0.1178387 -0.14686555 -0.01732283
-0.057542548 -0.1477067 -0.16612595 -0.1285615 -0.15338814 -0.13826123 -0.028632436 -0.029993441
-0.14144385 -0.13865726 -0.11064399 -0.15666771 -0.15370359 -0.15634075 -0.017765535 -0.059601918
-0.12335284 -0.008721299 -0.25349963 -0.15368055 -0.013975574 -0.035205387 -0.02408073 -0.2771025
-0.08225355 -0.15395617 0.0667872 -0.13711944 -0.07744397 -0.14175457 -0.010123805 -0.01877939
-0.0075264354 -0.16212085 -0.120401025 -0.013444599 0.12144064 -0.12812279 -0.14399567 -0.12564631
-0.14052284 -0.18169078 -0.04537452 -0.14744206 -0.16162588 -0.11932061 -0.19730827 0.13581051
-0.23535717 -0.1601365 -0.1692095 -0.014588399 0.034931432 -0.009562795 -0.25969297 -0.12848708
-0.16326052 -0.018936545 -0.13753204 -0.058171187 -0.16112156 -0.13409346 -0.14708248 -0.15265536
-0.13591622 -0.023215627 -0.13408095 -0.19993414 -0.118531495 -0.015061209 -0.08769103 -0.15804707
-0.01842536 -0.015091153 -0.009327591 -0.18205947 -0.14105989 -0.018834647 -0.011638424 -0.13507025
-0.1946935 -0.41650683 -0.15490928 -0.010605095 -0.1327135 0.0073521356 -0.13265017 -0.12782295
-0.007138312 -0.011701172 -0.015067981 -0.011533128 -0.049275585 -0.020471519 -0.17344758 0.11036514
-0.015678687 -0.15088336 -0.016900448 -0.114404924 -0.1258633 -0.18336825 -0.026153728 0.11333236

bias_logvar f4 [128]
00000000: 1002 4ec0 1002 4ec0 1002 4ec0 1002 4ec0
00000010: 1002 4ec0 324d 5bc0 1002 4ec0 6e98 5bc0
00000020: 1002 4ec0 1002 4ec0 1002 4ec0 1002 4ec0
00000030: 1002 4ec0 1002 4ec0 1002 4ec0 1002 4ec0
00000040: 1002 4ec0 11ad 55c0 1002 4ec0 1002 4ec0
00000050: 1002 4ec0 1002 4ec0 1002 4ec0 1002 4ec0
00000060: 4436 4fc0 1002 4ec0 1002 4ec0 1002 4ec0
00000070: 1002 4ec0 1002 4ec0 1002 4ec0 1002 4ec0
00000080: 1002 4ec0 1002 4ec0 500d 4ec0 1002 4ec0
00000090: 1002 4ec0 1002 4ec0 1002 4ec0 a67a 54c0
000000a0: 1002 4ec0 1002 4ec0 1002 4ec0 1002 4ec0
000000b0: 1002 4ec0 f505 4ec0 1002 4ec0 1002 4ec0
000000c0: 5405 4ec0 1002 4ec0 1002 4ec0 1002 4ec0
000000d0: 1002 4ec0 1002 4ec0 1002 4ec0 1002 4ec0
000000e0: 1002 4ec0 1002 4ec0 1002 4ec0 1002 4ec0
000000f0: a460 4ec0 1002 4ec0 1002 4ec0 1002 4ec0
00000100: 1002 4ec0 3702 4ec0 8f38 65c0 1002 4ec0
00000110: e833 4ec0 1002 4ec0 1002 4ec0 1002 4ec0
00000120: 1002 4ec0 1002 4ec0 1002 4ec0 1002 4ec0
00000130: be51 4ec0 1002 4ec0 bd44 51c0 1002 4ec0
00000140: 1002 4ec0 1002 4ec0 1002 4ec0 6542 4ec0
00000150: 9851 4ec0 1002 4ec0 1002 4ec0 1002 4ec0
00000160: 1002 4ec0 6e65 61c0 1002 4ec0 1002 4ec0
00000170: 1002 4ec0 1002 4ec0 1002 4ec0 1002 4ec0
00000180: 1002 4ec0 1002 4ec0 1002 4ec0 7f31 4ec0
00000190: 1002 4ec0 1002 4ec0 1002 4ec0 1002 4ec0
000001a0: 1002 4ec0 220c 4ec0 1002 4ec0 1002 4ec0
000001b0: 1002 4ec0 5b45 5ac0 1002 4ec0 1002 4ec0
000001c0: 2bd2 5ac0 1002 4ec0 1002 4ec0 1002 4ec0
000001d0: 5542 4ec0 c86b 62c0 dcc4 4fc0 1002 4ec0
000001e0: 1002 4ec0 1002 4ec0 1002 4ec0 1002 4ec0
000001f0: 1002 4ec0 1002 4ec0 1002 4ec0 1002 4ec0
-3.218876 -3.218876 -3.218876 -3.218876 -3.218876 -3.4265866 -3.218876 -3.4311786
-3.218876 -3.218876 -3.218876 -3.218876 -3.218876 -3.218876 -3.218876 -3.218876
-3.218876 -3.3386881 -3.218876 -3.218876 -3.218876 -3.218876 -3.218876 -3.218876
-3.237687 -3.218876 -3.218876 -3.218876 -3.218876 -3.218876 -3.218876 -3.218876
-3.218876 -3.218876 -3.2195625 -3.218876 -3.218876 -3.218876 -3.218876 -3.3199859
-3.218876 -3.218876 -3.218876 -3.218876 -3.218876 -3.2191136 -3.218876 -3.218876
-3.2190752 -3.218876 -3.218876 -3.218876 -3.218876 -3.218876 -3.218876 -3.218876
-3.218876 -3.218876 -3.218876 -3.218876 -3.2246485 -3.218876 -3.218876 -3.218876
-3.218876 -3.2188852 -3.581577 -3.218876 -3.221918 -3.218876 -3.218876 -3.218876
-3.218876 -3.218876 -3.218876 -3.218876 -3.2237391 -3.218876 -3.2698205 -3.218876
-3.218876 -3.218876 -3.218876 -3.2228024 -3.22373 -3.218876 -3.218876 -3.218876
-3.218876 -3.5218158 -3.218876 -3.218876 -3.218876 -3.218876 -3.218876 -3.218876
-3.218876 -3.218876 -3.218876 -3.221771 -3.218876 -3.218876 -3.218876 -3.218876
-3.218876 -3.2194905 -3.218876 -3.218876 -3.218876 -3.4104831 -3.218876 -3.218876
-3.4190776 -3.218876 -3.218876 -3.218876 -3.2227986 -3.5378284 -3.2463903 -3.218876
-3.218876 -3.218876 -3.218876 -3.218876 -3.218876 -3.218876 -3.218876 -3.218876

z_mu f4 [128]
00000000: 615f d0ba 4fab 3abc f2f8 5bbc bb9c 84ba
00000010: 9628 06ba 8dc3 fd3e 7770 d437 a835 213f
00000020: 2d1a 5439 cf96 5d39 944c 5cbb d266 cb3e
00000030: 3591 3bbc 780c 88bb 63d4 bd3b c5d4 3438
00000040: df2c 7e3c c389 293f 6ea3 37bc 9e76 823d
00000050: 41e9 1bba 2822 f3bc b76b 17bc 3ccb ceb8
00000060: c68f f73e b6ad a03a 4e73 f83b a632 14bc
00000070: 9c58 653e d2c4 0dbb dbc9 41ba fdfa a038
00000080: dee4 03bc 45da 833c 4835 df3e f0bb 5f3a
00000090: c914 2d3c d135 ad3e 12b8 ceb7 98e3 1a3f
000000a0: 3578 803a 972b ad39 1179 8f3e f95f cbb9
000000b0: 15db f339 fde9 d83e 54ed 9db8 4738 373f
000000c0: c63d 0a3f 63af 61bb 40a3 923c 2015 1f3b
000000d0: 1793 a23e ffdc 3eba 2a65 4639 9f57 643a
000000e0: 29c8 bcb8 0850 293c 6951 023c bbaf 06b9
000000f0: f1a5 da3e bdd6 99bb 3992 153a 7f4f 5c39
00000100: 5f22 0b3c d4e7 9f3e 6119 3c3f 623b 113b
00000110: a5fb b43e ce9f b63e 6acc b53e 0046 ab3e
00000120: ce5b e63e 834e bc3e 263f 5c3e f04b e339
00000130: 8fe0 8d3e 1ace a839 92ff 643f b817 6739
00000140: 181c babb 49b7 7c39 e658 3dbc 1b33 d13e
00000150: 6792 e03e 1a98 0ebc 4112 5b3a 9a5a ffba
00000160: c3c7 c73b 17af 273f 46d1 73bc 139f b13e
00000170: f75a 173c ae0d 27b9 5e69 c0ba c968 5f3c
00000180: 1b84 38b9 cb0b 0cba de09 51b6 d904 ac3e
00000190: f578 45bc e8c4 dcb9 9032 2eb9 ea9d 2cbb
000001a0: 11e1 233f 4665 5c3f cccb b63d 4a2f 5439
000001b0: 83c1 d3bc 9299 193f de93 b8bb d54a b43d
000001c0: 89ef 1a3f 0255 3039 23da 8eb9 f47f ac39
000001d0: cdf5 e83e c8d7 3c3f 467b f43e 1a4a 633e
000001e0: eac1 8139 0a2d 00bb 621b 123a 99bb c53e
000001f0: d3c1 003b e5c7 80ba b528 a8b7 f81d 5e3d
-0.0015897566 -0.011393382 -0.013426052 -0.001011751 -0.0005117742 0.49563256 2.532474e-05 0.629725
0.00020227647 0.00021132383 -0.003361498 0.39726883 -0.011448194 -0.004151877 0.0057931407 4.31135e-05
0.015513628 0.6622583 -0.011208398 0.06370281 -0.00059475383 -0.029679373 -0.00924199 -9.860701e-05
0.48351878 0.0012258801 0.0075821048 -0.009045279 0.22397083 -0.0021632207 -0.00073924445 7.676145e-05
-0.008050172 0.01609529 0.43595338 0.000853478 0.010564038 0.3383012 -2.4642828e-05 0.6050353
0.000980145 0.00033029608 0.28022054 -0.00038790682 0.000465118 0.4236602 -7.530549e-05 0.7157025
0.5400051 -0.0034436814 0.01790011 0.0024274066 0.31752846 -0.0007280856 0.00018920438 0.00087105663
-9.001821e-05 0.010334022 0.00795398 -0.000128447 0.42704728 -0.0046947883 0.0005705688 0.0002101045
0.008492081 0.31231558 0.73476225 0.002216064 0.3534824 0.35668796 0.35507518 0.33451843
0.44991916 0.3677865 0.21508464 0.00043353392 0.27710387 0.00032197015 0.8945247 0.00022038713
-0.0056796186 0.00024100872 -0.01155684 0.40859303 0.43861696 -0.008703256 0.0008356907 -0.0019481957
0.0060968115 0.6550154 -0.014881438 0.34691676 0.009237996 -0.00015931457 -0.0014679839 0.013635823
-0.0001759682 -0.00053423335 -3.114917e-06 0.33597448 -0.012052764 -0.00042108377 -0.00016612769 -0.0026339241
0.640153 0.8609203 0.0892559 0.00020235512 -0.02584911 0.59999955 -0.0056328615 0.088033356
0.6052175 0.00016816336 -0.00027246875 0.0003290173 0.4550003 0.73766756 0.477503 0.22196236
0.00024749275 -0.0019558095 0.00055735384 0.38619688 0.0019646778 -0.0009825198 -2.0046116e-05 0.0542278

z_logvar f4 [128]
00000000: 0c79 a3c0 f2d3 87c0 75fe 8dc0 8b9d 87c0
00000010: 8c59 2cc1 7497 b1c0 4ce2 2fc1 ba22 95c0
00000020: 3044 2cc1 2aaa 35c1 6f23 86c0 a81e 99c0
00000030: 8b97 77c0 f13d 89c0 9542 91c0 a3c1 31c1
00000040: 3043 8ec0 1e88 90c0 515e 9cc0 5850 52c0
00000050: 37f8 86c0 e4f1 94c0 6a10 95c0 3792 2fc1
00000060: 6f81 97c0 c336 94c0 c6fe 8cc0 2a52 81c0
00000070: 1493 9ac0 2896 90c0 9155 24c1 978d 1fc1
00000080: c12e 9cc0 3473 76c0 fbfe 9ac0 97f6 6cc0
00000090: 1679 81c0 9d32 8ec0 f8a6 31c1 b013 8cc0
000000a0: d338 83c0 8ce8 32c1 53e5 6ac0 a982 82c0
000000b0: a82b 26c1 d17d 86c0 2dcc 2cc1 16c2 90c0
000000c0: db78 9cc0 c451 92c0 dcf5 8cc0 09d0 94c0
000000d0: 8db1 90c0 1a69 8ec0 8b67 2ac1 6a69 24c1
000000e0: aa8e 31c1 289e 77c0 f176 8fc0 0f5c 30c1
000000f0: ca57 9bc0 bbb0 85c0 e78c 82c0 343c 92c0
00000100: e778 8ac0 61f7 9fc0 888c 9dc0 e3ee 8cc0
00000110: 4171 8ec0 9256 8ec0 384c 8dc0 1065 99c0
00000120: 3d85 8ac0 b092 94c0 fd3b 94c0 6569 2cc1
00000130: 03b4 96c0 aac9 35c1 b219 91c0 192d 8ec0
00000140: c587 89c0 af5f 2dc1 f367 83c0 3f88 57c0
00000150: df0f 8ec0 05a7 87c0 d309 7ec0 ac95 81c0
00000160: b7f6 9cc0 036a 8dc0 181a 94c0 9967 a7c0
00000170: 9733 88c0 ef89 2fc1 c39b a3c0 de59 82c0
00000180: 62dc 31c1 f648 33c1 9191 2dc1 2b06 abc0
00000190: aaef 93c0 6ea5 2cc1 6c36 2ec1 45c2 8ac0
000001a0: d0f3 7ac0 20ec 95c0 5b36 85c0 1304 28c1
000001b0: 39ad 82c0 3707 a5c0 7d3f 8fc0 23f3 94c0
000001c0: 4e5b 92c0 2c4f 33c1 c7af 2fc1 700b 2ac1
000001d0: 65ce 97c0 0eb9 95c0 aade 97c0 56d7 97c0
000001e0: a78b 32c1 679c 90c0 d542 2ac1 88f0 95c0
000001f0: ce5f 93c0 3fbe 56c0 a864 29c1 ac8b 8cc0
-5.108526 -4.244622 -4.4373116 -4.2379813 -10.771862 -5.549738 -10.992748 -4.660489
-10.766647 -11.354044 -4.1918254 -4.784992 -3.8686244 -4.288811 -4.5393777 -11.109775
-4.4457016 -4.516616 -4.886513 -3.2861538 -4.2177997 -4.6545277 -4.6582537 -10.973197
-4.73455 -4.631685 -4.4061003 -4.04128 -4.830454 -4.5183296 -10.27089 -9.972068
-4.8807073 -3.8507814 -4.8436255 -3.7025506 -4.046031 -4.4436784 -11.103264 -4.3774033
-4.1006866 -11.181774 -3.6702468 -4.0784497 -10.385658 -4.2028584 -10.799848 -4.523692
-4.889753 -4.572481 -4.405012 -4.650395 -4.5216737 -4.45033 -10.650279 -10.275736
-11.09733 -3.869028 -4.483269 -11.022475 -4.8544664 -4.1778235 -4.0797 -4.569849
-4.3272586 -4.9989476 -4.9234047 -4.404161 -4.451325 -4.4480677 -4.415554 -4.7935867
-4.3287644 -4.642906 -4.632323 -10.775731 -4.709474 -11.361734 -4.5343866 -4.443005
-4.2978234 -10.83586 -4.106439 -3.3676908 -4.4394374 -4.239138 -3.9693496 -4.0495205
-4.9051166 -4.419191 -4.6281853 -5.231396 -4.2562976 -10.971175 -5.112764 -4.07347
-11.116304 -11.205313 -10.848039 -5.344503 -4.623006 -10.790388 -10.888287 -4.3362145
-3.9211311 -4.685074 -4.162885 -10.500995 -4.0836453 -5.1571307 -4.4765 -4.65468
-4.5736456 -11.206829 -10.980414 -10.627792 -4.7439446 -4.6788397 -4.7459307 -4.745036
-11.159095 -4.519092 -10.641316 -4.6856117 -4.605445 -3.3553617 -10.587074 -4.39205

weight_mu f4 [2, 128]
00000000: cc2f a9bb 8307 8dbc f33c 483d c23b 8fbd
00000010: 6964 2a3d 5a19 933e 8c54 47bc ed43 c33e
00000020: dd84 03bc 094d e2bc efa6 6cbc 168d ecbe
00000030: 1c24 d0bc b526 343c 31ad 4a3d f99a bb3c
00000040: 23bd 813e 241d d53e 3be0 1d3c 08d7 cabe
00000050: d7f9 bf3d 4c47 023c 6c6b 683d 635c b03c
00000060: 8c63 dfbe 3988 0dbd 4072 293c 19a5 1e3e
00000070: 0731 a13e fb80 64bd 0c57 eb3c 0804 42bc
00000080: 6281 3c3d 1cd4 693d bbfe a3be d61a 6abb
00000090: 0a1e e1bb b2ff c2be 9621 de3b fe9d e53e
000000a0: 69ea f3bc 7f30 1ebd 2101 18bf 1fb2 bc3b
000000b0: 5967 bcbc ae69 fd3e 4043 a8bb 734f 18bf
000000c0: 78ac bd3e f5b9 29bc 945c 8dbe c140 43bd
000000d0: 9213 babe 0b4d 6bbc 4f61 313c ad13 aebb
000000e0: f396 d3bc 95e4 32bd 2177 c93d 027c 5b3a
000000f0: ce79 afbe edc8 58bc d014 cbbd 855a 8dbc
00000100: 4135 673e 9bc7 b23e 41f6 b63e 5690 1c3c
00000110: 0509 c0be 403f cdbe 23ec ccbe cd26 afbe
00000120: b68e e8be bdbd bcbe f656 cb3e 164d 8cbb
00000130: 4eb1 b0be 3a5b 143c 103c 07bf c2a8 a0bb
00000140: 1051 d4bc 8865 ca3c f262 433d 9381 04bf
00000150: dbae bfbe 0cba 063c 3203 283d 2a02 6cbd
00000160: 3fbd bb3c 5627 ca3e 64ad 4f3c 8fb9 9f3e
00000170: f9c4 1b3d 3140 183c 6511 04bc 8476 a8bd
00000180: 6d36 3f3c 231a f73c 4a45 ebbb dada a23e
00000190: b182 013e e9d4 1fbc f4ee dbbc 6a82 52bd
000001a0: 820d 10bf 4e40 08bf f235 be3e 4802 22bd
000001b0: ed68 ab3b 7ece 9fbe 8486 173d 2ee1 af3e
000001c0: 9d6d c73e 2d6a 013d 2d21 043a 9cee acbc
000001d0: abe9 b43e 17af d43e dcaf c8be 1b37 afbe
000001e0: 21c5 abba 18a6 1ebd ef75 c43c f36f dfbe
000001f0: e549 2b3c 4e6d f9bd bf37 18bc 6bdd a4be
00000200: 6b1e a33b e9c5 ee3c 48be dfbc 44f2 893d
00000210: 4819 29bd d3be 93be 4b78 563c cfb5 c2be
00000220: 26bf 0b3c 60fb b73c 63a7 d93c 5fb0 ec3e
00000230: 723d 113d c758 c8bc 08b9 65bd 351b b4bc
00000240: 5fa1 81be 87f2 d6be 22ff 45b9 b7e8 ca3e
00000250: 4304 bfbd 9123 08bc 4e89 67bd de73 c6bc
00000260: d723 e23e 0433 df3c e9bb d3bb 0d2f 27be
00000270: 1fba a0be 0c82 4a3d d462 f2bc a48b 333c
00000280: c374 15bd e0ac 76bd b7b4 a63e 0c3a d03a
00000290: 3c0a 173c d93e c63e 1209 aabb 0efb e2be
000002a0: 942a d53c dfbb 0d3d 4e31 173f 4a8d 82bb
000002b0: ebf3 b23c d58d fcbe c384 003b 8796 193f
000002c0: a6f0 bdbe d2c0 783c 606f 893e f617 263d
000002d0: 86c6 b73e e2d8 9e3c 3d8d 4dbc d105 6c3b
000002e0: 572a fe3c cefa 033d 245a bdbd df31 52ba
000002f0: f4fb af3e cbd5 423c b772 d53d baaa aa3c
00000300: b0e4 6fbe 1b35 b3be b575 b5be 8aba 3abb
00000310: 292d c03e 73ae cb3e 8cf4 cd3e 2f93 ad3e
00000320: 08f4 ea3e f5c9 be3e 271f cebe 5120 e13b
00000330: a493 b13e a7c4 f0bb 660b 083f fb5b 83ba
00000340: 27f7 e83c 5621 b3bc 97e4 28bd e0e6 023f
00000350: 267c c03e 9042 74bc 4065 4abd f708 703d
00000360: 9074 80bc f90d c8be 2acc 1dbc 722c 9fbe
00000370: 713a fcbc a9d9 17bc 7c20 da3a 3e07 b93d
00000380: 39a8 3fbc ee66 04bd a106 0c3c fd55 a1be
00000390: a79f fdbd 9f4f f53b c010 d43c 78cd 573d
000003a0: f874 0e3f 7ef7 0a3f 0ded b8be d7fb 183d
000003b0: 1d7e 9bbb 5b7f 9f3e 5d08 10bd 3f23 aebe
000003c0: 5a55 c5be d98c eebc 1ed0 dcba d86c 9b3c
000003d0: 04eb b3be 6109 d4be 5e83 c93e 8e72 ad3e
000003e0: aa42 ca37 0308 453d 16f7 bebc 8ead df3e
000003f0: 7fd5 22bc 3c75 f13d 9e53 bd3b ce65 a43e
-0.0051631685 -0.017215496 0.04888625 -0.0699382 0.041599665 0.2873028 -0.012166154 0.3813776
-0.008027283 -0.027624624 -0.014444097 -0.4620139 -0.025407843 0.010995557 0.049481574 0.022901045
0.25339612 0.41623795 0.00963598 -0.3961718 0.09373825 0.007951569 0.05674307 0.021528428
-0.43630636 -0.03455374 0.010342181 0.15492667 0.31482717 -0.055787068 0.02872803 -0.011841781
0.046021827 0.05708705 -0.3203028 -0.0035721562 -0.006870036 -0.38085705 0.006778906 0.448471
-0.029774861 -0.03862047 -0.5937672 0.0057585384 -0.022998499 0.4949469 -0.00513497 -0.5949623
0.37045646 -0.010359277 -0.27609694 -0.047669176 -0.36343056 -0.01436163 0.010826423 -0.005312404
-0.025828814 -0.043675024 0.09837175 0.00083726656 -0.34272617 -0.013231498 -0.09916079 -0.017255077
0.22578909 0.34917912 0.35734752 0.009555897 -0.3750688 -0.40087318 -0.40023908 -0.3420929
-0.4542138 -0.3686351 0.39714783 -0.0042816503 -0.34510273 0.009054953 -0.52826023 -0.00490293
-0.02591756 0.024706617 0.047701783 -0.51760215 -0.37438092 0.008223068 0.041018672 -0.05761925
0.022917388 0.39483136 0.012675617 0.31196257 0.038029645 0.009292648 -0.008060788 -0.0822573
0.011670691 0.03016383 -0.0071798908 0.31807595 0.12647511 -0.009755352 -0.02684734 -0.051393904
-0.5627061 -0.5322312 0.37150532 -0.039552957 0.005231014 -0.3121223 0.03699352 0.34351486
0.38950816 0.031595398 0.0005040344 -0.021109872 0.35334525 0.41539833 -0.3919667 -0.3422173
-0.0013105014 -0.038732618 0.023982016 -0.43640098 0.01045463 -0.12179051 -0.009290635 -0.32200179
0.0049779913 0.029147105 -0.027312413 0.067356616 -0.041283876 -0.28856525 0.0130902035 -0.38029334
0.00852946 0.022458732 0.026569074 0.4622831 0.03545899 -0.024456395 -0.056084663 -0.02198563
-0.2531843 -0.4198191 -0.00018882428 0.39630672 -0.09326985 -0.008309261 -0.05652743 -0.024225172
0.4416797 0.027246006 -0.0064616096 -0.16326542 -0.31392 0.04944043 -0.02958814 0.010958586
-0.036488306 -0.06022346 0.3255975 0.001588644 0.009218749 0.38719824 -0.0051890695 -0.44332165
0.02602128 0.034602996 0.5905961 -0.003984128 0.021844825 -0.4932696 0.0019610382 0.5999531
-0.37097663 0.015182691 0.26842785 0.040550195 0.3589365 0.019390527 -0.012545881 0.003601421
0.031026049 0.032221608 -0.092457086 -0.00080182956 0.34371912 0.0118917925 0.10422271 0.020833362
-0.23427081 -0.35001454 -0.35441366 -0.0028492534 0.37534454 0.39781532 0.40225637 0.33901355
0.45889306 0.37263456 -0.40258142 0.0068703075 0.34682953 -0.0073476615 0.5314239 -0.0010021919
0.028438164 -0.021866482 -0.041233625 0.5113354 0.37594718 -0.014908448 -0.049412966 0.0586023
-0.015680581 -0.3907316 -0.009631196 -0.31088597 -0.030789586 -0.009268203 0.0016641761 0.090345845
-0.011697822 -0.032324724 0.008546502 -0.31510916 -0.12383967 0.007486298 0.025886893 0.052686185
0.5564723 0.54283893 -0.36118355 0.03734955 -0.0047452585 0.31151852 -0.035164226 -0.34011266
-0.3854168 -0.029119896 -0.0016846692 0.0189728 -0.3514024 -0.41413406 0.39358038 0.3387646
2.411132e-05 0.048103344 -0.02331118 0.436871 -0.009938597 0.11789939 0.00577779 0.3210892

weight_logvar f4 [2, 128]
00000000: 8f2b 6ebd ea10 84bd 3e98 40bd 8f74 6bbd
00000010: 1974 b5bc 7b3c d3c0 54f5 1dbb 0ce1 aac0
00000020: d298 79bb f347 dabb 3a93 ddbc 8b58 8dc0
00000030: 9d11 a0bd 5495 48bd fce0 82bd 658f 44bc
00000040: 777f c8bf f282 a2c0 1b06 a4bd 11d1 92bf
00000050: 9bf9 aebd cc43 0bbc 8c25 64bd 8be5 e0bb
00000060: c26b 94c0 5236 83bd 0afb 62bd eca9 f3be
00000070: e8f4 8fc0 3628 a3bd 465c 28bc 12eb 97bc
00000080: 2326 a1bd 9b6c 5fbd 7952 a8c0 34fd 67bd
00000090: 0f9a 3bbc f94e 7cc0 3a20 40bc 0bac 94c0
000000a0: 30d2 debc 9299 69bb f6e8 19c0 62d4 7ebd
000000b0: b2df 36bc f5f4 7dc0 b872 40bc dc8b 97c0
000000c0: b03d a5c0 38a2 b8ba cb5a d9bf 6dfe 9dbd
000000d0: 97c6 86c0 931e 43bd 713b 7bba 4a04 ccbb
000000e0: b2f1 b43a 426c 62bd c55a 4bbe ff3e c7bb
000000f0: 14b6 a3c0 6b51 0abd f6be 40be a497 aebc
00000100: 5268 4fbf 0d5b 9fc0 be98 b5c0 2638 85bd
00000110: da82 81c0 1659 83c0 e21b 85c0 7daf 92c0
00000120: 8f34 85c0 0116 91c0 6193 63c0 f757 7fbb
00000130: 24e8 84c0 1da1 643b e5b5 a7c0 2dbf 9bbc
00000140: 8288 38bd 5dda d6bc 1646 67bd ae43 3cc0
00000150: 31fe 93c0 b5fb 41bd 2fa5 2dbd ed25 02be
00000160: 1bdd 4abd 6a02 a5c0 7e26 93bc 2375 aac0
00000170: c1be 69bd f76b adbb ce98 dcbc 5209 58be
00000180: ac6b 38bc d354 79bc f969 58bc 1b7c aec0
00000190: 8ab2 efbe 2c9d 88bc 85d1 88bc 035f d8ba
000001a0: dca4 76c0 2721 a4c0 6de4 04c0 2c54 11bc
000001b0: abfc b4bc ce3a bfc0 194a 7fbd cff8 25c0
000001c0: 1248 a5c0 4ae0 b1bb 29aa 3bbc 403c 3bbc
000001d0: 39b7 a1c0 e765 aec0 3ad8 9fc0 b7c6 86c0
000001e0: 9a36 81bc 1dcd 93bd 36fc eb3a f68d 82c0
000001f0: a586 2dbd 3ae4 50be adec a6bc 7ca8 f4bf
00000200: b53c 73bd b1ec 72bd caf4 06bb aa3c e8bc
00000210: b6bf a93b 81c7 d4c0 3477 02bc e49d aac0
00000220: fb51 1abc 4f3f c4ba a849 dcbd f03d 8ec0
00000230: 0a27 7abd da23 75bd efdd a2bd 87d2 27bb
00000240: 08b6 c3bf dea7 a2c0 b525 9cbd 6de3 90bf
00000250: c2eb 7bbd 38a3 76bd a16a 69bd 6114 e4bb
00000260: 1f65 96c0 b097 3fbd 94ad 79bd 125c 1dbf
00000270: e233 91c0 82a9 68bd 7ae6 65bc 3d57 95bc
00000280: 8701 f4bc 6d50 9fbc 70b0 a7c0 f0f2 9abd
00000290: b61d 40bd 9af7 80c0 a275 43bb ad26 98c0
000002a0: 7cc5 88bc be2c 2cbc d421 1ec0 94ef 7cbd
000002b0: c8be 80bb 9974 7ec0 0d8e acbc f957 99c0
000002c0: f720 a5c0 5f00 b6bd 8ad6 cebf bd92 73bd
000002d0: 8cd5 84c0 099a 61bd 01c3 a1bb 3716 9cbb
000002e0: c0e4 9f3b b0f4 ddbd 179d 19be 7c37 82bb
000002f0: 86dc a3c0 15f7 95bd 3e17 8abe 5a7d c9bd
00000300: b9cf 50bf 9de1 9fc0 5b8a b9c0 6809 4ebd
00000310: 5a84 85c0 bb76 83c0 1a49 85c0 4853 93c0
00000320: fc22 80c0 5de8 8bc0 ffdc 64c0 0b19 3bbc
00000330: 0d68 83c0 6481 d1bb 353c a3c0 4499 5ebd
00000340: 6615 45bd 4029 f2b9 a0d9 a4bd 3ce7 3cc0
00000350: 8939 94c0 1cfb 8fbd 355f 8ebd de40 0bbd
00000360: 6a37 40bd 45b3 a5c0 abeb 77bd 86ee adc0
00000370: 1ab0 05bd e22d 59bc cb2d f9bc c04d cebd
00000380: 4b7b 00bc 228a 83bb f033 333c 7279 afc0
00000390: 7f99 fcbe cf6c d5bb 642d 813b 5f54 82bd
000003a0: fe5b 78c0 dce7 a5c0 b221 f6bf b3e1 5abb
000003b0: 7b6e ebbc 333a bec0 42f5 29bd bb22 2ac0
000003c0: dc0a a5c0 838f 51bb 6efa 09bc 3968 90bb
000003d0: 2c23 a4c0 aa40 afc0 2e14 a2c0 1f72 86c0
000003e0: 2bdb 5bbb 178b 29bd 61b9 aabb b51b 87c0
000003f0: d1fd 48bd 9022 8abe fbb2 b4bb 18bc eebf
-0.05814701 -0.064485386 -0.04702019 -0.057484206 -0.022150086 -6.601133 -0.0024102526 -5.3399715
-0.0038085473 -0.006661409 -0.027047742 -4.4170585 -0.078158595 -0.048970535 -0.063905686 -0.011997079
-1.5663899 -5.0784845 -0.08008977 -1.1470052 -0.08543702 -0.008500051 -0.05569987 -0.006863301
-4.638154 -0.06406845 -0.05541519 -0.47590578 -4.498646 -0.07966654 -0.010275906 -0.018544707
-0.07868602 -0.054546934 -5.2600675 -0.056637958 -0.011450305 -3.94232 -0.011726433 -4.6460013
-0.027199835 -0.0035644514 -2.4048438 -0.062214263 -0.011161732 -3.968076 -0.011746101 -4.7358227
-5.16378 -0.0014086431 -1.6980833 -0.077145435 -4.211742 -0.04763658 -0.00095837476 -0.0062260972
0.0013804941 -0.055279024 -0.19858845 -0.0060805078 -5.1159763 -0.033769052 -0.18822846 -0.021312542
-0.81018555 -4.9798646 -5.6748953 -0.0650485 -4.047223 -4.1046247 -4.1596537 -4.583922
-4.162666 -4.533936 -3.5558703 -0.0038962343 -4.1533375 0.003488607 -5.240954 -0.019012058
-0.04505206 -0.02622717 -0.056463324 -2.9416308 -4.624779 -0.047359187 -0.04239386 -0.1270978
-0.04952727 -5.1565447 -0.01796269 -5.326799 -0.057066683 -0.0052924114 -0.026928332 -0.21097305
-0.01125614 -0.015217978 -0.01320886 -5.4526496 -0.46815902 -0.016676508 -0.01670147 -0.0016507808
-3.8538122 -5.129047 -2.076442 -0.008870166 -0.022093138 -5.9759283 -0.062326524 -2.593311
-5.1650476 -0.0054283487 -0.011454144 -0.011427939 -5.053616 -5.4499393 -4.995145 -4.211757
-0.015773106 -0.07216857 0.0018004242 -4.079829 -0.042364735 -0.20399562 -0.020376528 -1.9113917
-0.059384067 -0.059307758 -0.0020592683 -0.02834924 0.0051803244 -6.6493535 -0.007962991 -5.3317738
-0.00941896 -0.0014972481 -0.10756236 -4.4450607 -0.061072387 -0.059848644 -0.07952487 -0.0025607662
-1.5289927 -5.0829916 -0.076243795 -1.1319405 -0.061504133 -0.06021425 -0.056986455 -0.006960437
-4.699844 -0.04677552 -0.060956553 -0.61468613 -4.5375834 -0.05680228 -0.014032001 -0.018230075
-0.029785885 -0.01944753 -5.240288 -0.07565868 -0.046903335 -4.030225 -0.0029824753 -4.754721
-0.01669573 -0.010508714 -2.4708147 -0.061751917 -0.003928993 -3.9758666 -0.021063829 -4.791989
-5.160274 -0.088867895 -1.6159222 -0.059466112 -4.1510677 -0.05507854 -0.0049365764 -0.0047633904
0.004879564 -0.10837686 -0.15001331 -0.0039738994 -5.1206694 -0.07322518 -0.26970857 -0.09838362
-0.8156696 -4.9962907 -5.798139 -0.05030194 -4.172406 -4.1082435 -4.1651735 -4.603916
-4.0042706 -4.3721147 -3.5759885 -0.011419545 -4.1064515 -0.0063935984 -5.1010995 -0.054345384
-0.04811611 -0.0004618857 -0.08049321 -2.9516134 -4.6320233 -0.07030317 -0.06951753 -0.03399741
-0.046927847 -5.1781335 -0.060527485 -5.4353666 -0.032638647 -0.013255568 -0.030417344 -0.100734234
-0.007841895 -0.0040142694 0.010937676 -5.483575 -0.49335858 -0.006513215 0.0039421786 -0.06363749
-3.8806148 -5.184553 -1.9229033 -0.0033398687 -0.028739205 -5.9446044 -0.04149366 -2.6583698
-5.1575756 -0.0031976409 -0.0084215235 -0.0044069556 -5.1292934 -5.4766436 -5.0649633 -4.201431
-0.0033547382 -0.041392412 -0.005210087 -4.222132 -0.049070183 -0.26979494 -0.0055145 -1.8651152

bias_mu f4 [2]
00000000: 7b03 23be c82a 223e
-0.15919296 0.15836632

bias_logvar f4 [2]
00000000: 35b4 dac0 afc9 dbc0
-6.834498 -6.8683696
