metric/probe_distill_2trial_sample0.pth (torch, 539623 bytes, 12 tensors)

z_mu f4 [512]
1.4871918 0.0018339994 -0.0030088432 1.171363 1.9327219 0.9680571 0.0015883575 -0.00074068137
1.0150564 0.0005766402 -0.006113464 1.1907824 0.00017453947 -0.0028526415 0.9027505 0.0013378011
-0.0030205701 -0.00061828515 -0.0011577414 0.0048277043 2.2665987 -0.005806193 0.010583525 0.0024728463
-0.00022918585 0.0015019842 0.0018082781 0.032715335 0.06472544 -0.0029874665 -3.473245e-05 0.000569737
0.37522024 0.0012941797 -0.00013841574 0.0070407623 -0.0008865532 -0.00039381848 -0.00093481556 2.2839413e-05
0.005783599 -0.00064107176 -0.00062408735 0.0053871735 0.0016031106 -6.797021e-06 -0.007439911 -0.0051142024
0.0022495768 -0.0007684052 0.33958462 0.0016213928 1.0847539 0.0012724911 2.025383e-05 -0.0048469068
-0.00081689615 0.00284289 0.0046109124 0.001785966 -0.0012384675 -0.00033937543 0.00142404 2.36856
0.00056993024 0.0013768605 -0.0026022329 -0.0005574176 0.0002061373 0.00033262197 0.018401008 0.00039339016
-0.017174164 4.933945e-05 -0.0006381497 -0.0048035206 0.79096794 0.0009171419 0.004335292 -0.0038082735
-0.012681245 -0.0028172308 0.2331708 -0.0010819226 0.24582095 0.7268499 0.62287676 0.00033427027
0.529878 -0.0015597483 -0.002748295 0.0015604112 0.00467146 -0.0022900791 0.0038703203 0.008113468
1.9416409 0.0024722782 0.5730596 1.1733485 -0.0058770273 -0.00083948334 0.0003945522 -0.0027487122
-0.0037786788 0.0020427203 0.004979839 0.06305806 0.0034668543 0.0061249407 0.0013991294 0.5906675
0.9745353 -0.005477729 0.0036540579 0.00284009 0.0016143133 -0.0025972412 0.0081303865 -0.000709426
0.00047993782 -0.010892975 0.003756811 -0.00030906146 1.0667205 0.006031892 -0.0013367608 0.005371439
0.0005295783 -0.0033678925 0.6525991 1.0107427 0.00035293718 0.7555964 -0.003274499 -0.0006415729
0.00054500136 0.0018859173 -4.889608e-05 0.23654084 -0.004837216 -0.0036612342 0.0028008486 -0.0043864287
-0.00096419617 0.0017663171 0.5180498 1.3734912 0.69097704 0.0018108214 -0.0066612298 0.3400284
2.33694 0.49257997 -0.003703248 -4.3354194e-05 -0.0017729914 0.0028735702 0.0022196881 0.00026586303
2.0841975 0.007533389 0.0013024199 0.00066675176 0.8917379 -0.0069275456 0.0030853252 0.0071556172
-0.003387809 0.46176878 0.0036748692 0.001192212 0.0100758625 0.004024882 0.8001713 1.3960196
-0.0017705924 0.0018499288 -0.00090503047 0.010551925 -0.0019205719 0.5727668 0.00086168427 -0.006549499
-0.0025272286 0.00096512586 -0.00060933706 5.4966595e-06 0.0010532133 8.178401e-05 -0.005327154 0.002614999
0.9115809 0.003831532 0.004818214 -0.001077321 -0.0035425106 0.009527908 0.00105911 0.7376358
0.003065802 0.0015520838 2.9631577 0.0018473836 0.004502061 0.004411356 1.4051002e-05 2.184086
-0.004886474 -0.0013585539 0.4697655 0.0027629554 0.0007052423 0.00023981709 1.1512768 -0.0012644153
0.0028316062 0.0639719 -0.00015721685 0.33233213 -0.00020176313 0.0006371257 0.0048014564 -0.00090344326
-0.003006919 1.5312638 0.0032923208 0.25265405 -0.0020714742 0.7112538 -0.0035185395 -0.0040801335
-0.0013640831 0.0006917638 0.007862126 2.0576649 -0.0052976706 2.7829537 0.8965795 0.005086308
-0.0049167406 -0.0012318322 0.0003825251 0.0016985175 0.0022209033 -0.0006476023 0.00060067925 -0.001989204
1.1692264 -0.0012206145 -0.0022513876 0.0017821777 0.0016239224 -0.0004777816 0.00071984547 -0.0020885696
00000000: 4d5c be3f cf62 f03a 0330 45bb 39ef 953f
00000010: 6e63 f73f 97d2 773f 6f30 d03a 492a 42ba
00000020: 5eed 813f ab29 173a 7453 c8bb 8f6b 983f
00000030: 9504 3739 62f3 3abb a81a 673f 2859 af3a
00000040: c2f4 45bb 6a14 22ba 5bbf 97ba b831 9e3b
00000050: f40f 1140 e141 bebb 8566 2d3c 7a0f 223b
00000060: 9c51 70b9 3ade c43a bf03 ed3a 8400 063d
00000070: c68e 843d 5fc9 43bb afad 11b8 675a 153a
00000080: de1c c03e 77a1 a93a b123 11b9 32b6 e63b
00000090: 9467 68ba 6c79 ceb9 690e 75ba 4497 bf37
000000a0: 5884 bd3b 990d 28ba cb99 23ba e386 b03b
000000b0: 771f d23a f711 e4b6 7fca f3bb 0a95 a7bb
000000c0: a36d 133b cd6e 49ba 09de ad3e ea84 d43a
000000d0: 37d9 8a3f b7c9 a63a c5e6 a937 cdd2 9ebb
000000e0: f924 56ba c84f 3a3b 2317 973b 1317 ea3a
000000f0: 1354 a2ba 33ee b1b9 daa6 ba3a 7d96 1740
00000100: 5f67 153a c677 b43a 398a 2abb a91f 12ba
00000110: 8f26 5839 c463 ae39 b6bd 963c ef3f ce39
00000120: d5b0 8cbc d5f1 4e38 8049 27ba da66 9dbb
00000130: e07c 4a3f 5a6c 703a 110f 8e3b 3a94 79bb
00000140: ffc4 4fbc 4aa1 38bb 54c4 6e3e 4ccf 8dba
00000150: 7db8 7b3e d612 3a3f da74 1f3f ff40 af39
00000160: 16a6 073f 7870 ccba bd1c 34bb b686 cc3a
00000170: 0c13 993b 2715 16bb 33a5 7d3b 5aee 043c
00000180: b087 f83f f205 223b 09b4 123f 4930 963f
00000190: 1494 c0bb c610 5cba e6db ce39 bd23 34bb
000001a0: b6a3 77bb 29df 053b eb2d a33b 9624 813d
000001b0: 2a34 633b bab3 c83b fe62 b73a fc35 173f
000001c0: 257b 793f 857e b3bb eb78 6f3b ce20 3a3b
000001d0: 5e97 d33a 7a36 2abb 5035 053c c6f8 39ba
000001e0: 2aa0 fb39 7378 32bc d434 763b 8709 a2b9
000001f0: 4c8a 883f 2da7 c53b 4036 afba e502 b03b
00000200: 66d3 0a3a dcb7 5cbb bc10 273f 0460 813f
00000210: 6d0a b939 c46e 413f fa98 56bb 3a2f 28ba
00000220: 6cde 0e3a e230 f73a c415 4db8 c337 723e
00000230: 8281 9ebb 51f1 6fbb 718e 373b 08bc 8fbb
00000240: 1cc2 7cba c483 e73a e99e 043f 8fce af3f
00000250: dfe3 303f 1559 ed3a 7246 dabb 3418 ae3e
00000260: 6d90 1540 7133 fc3e 31b2 72bb 36d7 35b8
00000270: b863 e8ba 8252 3c3b 3078 113b 8863 8b39
00000280: 7e63 0540 a6da f63b f6b5 aa3a f4c8 2e3a
00000290: ef48 643f 7700 e3bb 2b33 4a3b ab79 ea3b
000002a0: 0106 5ebb f56c ec3e 13d6 703b ff43 9c3a
000002b0: 3b15 253c 28e3 833b 07d8 4c3f c5b0 b23f
000002c0: 3913 e8ba 4f79 f23a 913f 6dba fbe1 2c3c
000002d0: b3bb fbba d8a0 123f a7e2 613a 2e9d d6bb
000002e0: dc9f 25bb 8000 7d3a ebbb 1fba f26f b836
000002f0: f90b 8a3a 7583 ab38 688f aebb 6760 2b3b
00000300: 5e5d 693f 711a 7b3b 1ce2 9d3b e534 8dba
00000310: 7729 68bb f11a 1c3c d6d1 8a3a b3d5 3c3f
00000320: 9feb 483b 4a6f cb3a 60a4 3d40 e823 f23a
00000330: 0686 933b 238d 903b 98bc 6b37 11c8 0b40
00000340: b71e a0bb 8111 b2ba 1b85 f03e b312 353b
00000350: 02e0 383a 6977 7b39 0a5d 933f bdba a5ba
00000360: 7892 393b b303 833d 94da 24b9 7027 aa3e
00000370: 6190 53b9 c804 273a 8955 9d3b 0dd5 6cba
00000380: bb0f 45bb 7400 c43f fac3 573b df5b 813e
00000390: 92c1 07bb bb14 363f 4c97 66bb a4b2 85bb
000003a0: 09cb b2ba 7c57 353a 26d0 003c c8b0 0340
000003b0: 1598 adbb ea1b 3240 3c86 653f 0bab a63b
000003c0: 9c1c a1bb 6e75 a1ba a68d c839 caa0 de3a
000003d0: 938c 113b dbc3 29ba e776 1d3a 4e5d 02bb
000003e0: 36a9 953f 07fd 9fba 048c 13bb f697 e93a
000003f0: cbd9 d43a c37e fab9 03b4 3c3a 62e0 08bb

z_logvar f4 [512]
-4.7160635 -5.024506 -4.7500596 -7.003625 -2.1490803 -3.943925 -5.598358 -5.894677
-6.441936 -6.5614276 -5.52327 -2.941925 -7.1896415 -6.5711026 -5.491806 -5.985711
-5.9363604 -6.44922 -6.872703 -4.7765303 -3.506677 -6.1439066 -2.9966118 -5.155801
-6.0125465 -6.2059727 -5.5865836 -4.0335383 -1.4433625 -5.654143 -5.9344544 -6.241133
-1.3930863 -5.516345 -5.7970104 -5.9645567 -3.968039 -6.225576 -6.9308686 -5.7787137
-6.231382 -5.627992 -6.4575176 -6.2219634 -6.245373 -5.872058 -4.7940006 -4.3252645
-6.1259136 -5.0743675 -4.8680644 -5.524549 -4.498143 -5.383439 -6.3566065 -1.982655
-6.20416 -5.502724 -5.9127116 -5.405328 -6.4449224 -6.1215706 -6.850632 -3.1657124
-6.4239554 -6.118505 -2.235826 -6.190574 -6.6151357 -5.001543 -1.7512501 -3.7245672
-5.089026 -6.852974 -4.4382772 -5.3356795 -4.71648 -6.595361 -5.430115 -5.4892
-1.6254421 -4.6797976 -0.5370389 -6.771673 -4.598195 -5.6008797 -5.487435 -4.8337865
-4.9666963 -6.6638694 -5.292321 -5.491955 -6.028239 -5.978558 -6.198631 -5.8748493
-3.761475 -5.956188 -5.8767347 -6.2843437 -5.0751996 -6.324449 -4.045471 -6.785854
-5.219074 -5.7956553 -5.8142824 -1.2744787 -5.6957297 -5.8529572 -5.7900095 -5.6891603
-5.942888 -5.579757 -5.8931184 -6.0352554 -6.358561 -5.4110546 -4.420866 -6.6074114
-5.795024 -5.672409 -6.083899 -5.8729367 -5.9964566 -3.3520699 -5.7407045 -4.549031
-5.94309 -5.550694 -6.037789 -2.8002393 -6.160655 -5.107274 -5.8330326 -4.702516
-6.0367374 -6.1164055 -7.272977 -0.5392577 -5.5152116 -3.4200823 -5.7253847 -4.7652326
-6.2767158 -4.387398 -2.8399036 -2.5603347 -5.6557345 -3.1579497 -3.4984202 -4.826237
-1.8673471 -4.9310274 -5.4588985 -5.8679085 -6.1220403 -6.446284 -6.4027405 -3.8075883
-3.9505224 -5.3792973 -4.1765094 -5.463764 -6.013683 -2.3814352 -6.0882535 -6.0633845
-5.7119665 -4.8365116 -5.7575054 -5.632946 -4.284648 -5.281113 -5.709325 -4.0071893
-6.270479 -6.231606 -5.2176585 -3.7445278 -6.05299 -4.7253313 -6.0391097 -5.5346007
-5.3917584 -5.982037 -6.9921513 -7.123263 -5.2628107 -6.2046266 -5.01237 -5.3600507
-5.816269 -6.143052 -6.427488 -5.7842145 -5.651081 -2.6976998 -6.4831967 -2.093339
-5.633443 -5.3017154 -3.8389504 -5.6189194 -4.849676 -4.4518266 -6.854766 -3.289906
-5.582115 -5.860704 -4.9135985 -6.0430427 -4.215291 -7.585758 -5.968054 -4.2871103
-5.8346877 -4.11006 -6.3357635 -3.5712898 -6.0193496 -4.0610676 -6.064104 -5.7228127
-3.7055326 -2.8998022 -6.0715804 -5.010747 -5.4819617 -5.4438553 -5.9485292 -5.907477
-5.5317674 -6.4105706 -3.6739342 -2.7337534 -4.8560576 -4.7792544 -5.876124 -6.4149284
-6.103812 -6.121889 -6.1675086 -5.7587876 -5.887241 -4.5259776 -5.335407 -5.840595
-6.5461674 -5.50618 -6.6420555 -5.8315835 -6.3309546 -6.521588 -5.334308 -6.6794167
00000000: fee9 96c0 c1c8 a0c0 7d00 98c0 b21d e0c0
00000010: 888a 09c0 4469 7cc0 c025 b3c0 32a1 bcc0
00000020: 5724 cec0 37f7 d1c0 a1be b0c0 8048 3cc0
00000030: 8b11 e6c0 7946 d2c0 e0bc afc0 f28a bfc0
00000040: aaf6 bdc0 0360 cec0 2fed dbc0 56d9 98c0
00000050: 656d 60c0 e29a c4c0 7dc8 3fc0 52fc a4c0
00000060: c866 c0c0 5497 c6c0 4bc5 b2c0 bf12 81c0
00000070: 1ac0 b8bf bdee b4c0 0de7 bdc0 5db7 c7c0
00000080: a750 b2bf e685 b0c0 1c81 b9c0 a6dd bec0
00000090: 5af4 7dc0 eb37 c7c0 adc9 ddc0 39eb b8c0
000000a0: 7b67 c7c0 8318 b4c0 fca3 cec0 531a c7c0
000000b0: 18da c7c0 e6e7 bbc0 7468 99c0 9168 8ac0
000000c0: 7c07 c4c0 3861 a2c0 2fc7 9bc0 1bc9 b0c0
000000d0: caf0 8fc0 2245 acc0 5269 cbc0 a4c7 fdbf
000000e0: 7b88 c6c0 5116 b0c0 ef34 bdc0 72f8 acc0
000000f0: ce3c cec0 e8e3 c3c0 6138 dbc0 089b 4ac0
00000100: 0b91 cdc0 cbca c3c0 c617 0fc0 2f19 c6c0
00000110: 31af d3c0 a40c a0c0 f728 e0bf 4f5f 6ec0
00000120: 4dd9 a2c0 904b dbc0 5e06 8ec0 e3bd aac0
00000130: 67ed 96c0 330d d3c0 81c3 adc0 87a7 afc0
00000140: 7d0e d0bf e7c0 95c0 627b 09bf 8cb1 d8c0
00000150: 6a24 93c0 683a b3c0 1199 afc0 61ae 9ac0
00000160: 2def 9ec0 6b3e d5c0 b25a a9c0 18be afc0
00000170: 55e7 c0c0 5950 bfc0 2f5b c6c0 c4fe bbc0
00000180: 02bc 70c0 1899 bec0 360e bcc0 5819 c9c0
00000190: 0968 a2c0 e361 cac0 8074 81c0 b725 d9c0
000001a0: a702 a7c0 0276 b9c0 9a0e bac0 1e22 a3bf
000001b0: 6b43 b6c0 6d4b bbc0 c247 b9c0 9a0d b6c0
000001c0: 232c bec0 5f8d b2c0 6d94 bcc0 d020 c1c0
000001d0: 5579 cbc0 5c27 adc0 bc77 8dc0 ea6f d3c0
000001e0: d670 b9c0 6084 b5c0 4daf c2c0 19ef bbc0
000001f0: f9e2 bfc0 5088 56c0 dab3 b7c0 a991 91c0
00000200: cb2d bec0 499f b1c0 9135 c1c0 1f37 33c0
00000210: 1624 c5c0 ca6e a3c0 34a8 bac0 037b 96c0
00000220: f42c c1c0 98b9 c3c0 3abc e8c0 cb0c 0abf
00000230: 9d7c b0c0 a1e2 5ac0 5a36 b7c0 c97c 98c0
00000240: dbda c8c0 9065 8cc0 fbc0 35c0 86dc 23c0
00000250: c7fb b4c0 d91b 4ac0 1ee6 5fc0 8970 9ac0
00000260: 3b05 efbf faca 9dc0 4caf aec0 e8c5 bbc0
00000270: c1e7 c3c0 f547 cec0 40e3 ccc0 87af 73c0
00000280: 5cd5 7cc0 3423 acc0 f7a5 85c0 28d7 aec0
00000290: 1770 c0c0 6f69 18c0 f9d2 c2c0 3f07 c2c0
000002a0: 6ec8 b6c0 b4c4 9ac0 7c3d b8c0 1841 b4c0
000002b0: d61b 89c0 e1fe a8c0 cab2 b6c0 e53a 80c0
000002c0: c4a7 c8c0 5169 c7c0 0ff7 a6c0 58a6 6fc0
000002d0: 18b2 c1c0 ea35 97c0 6340 c1c0 731b b1c0
000002e0: 4989 acc0 d96c bfc0 b4bf dfc0 c5f1 e3c0
000002f0: f268 a8c0 4d8c c6c0 5665 a0c0 8985 abc0
00000300: e01e bac0 e293 c4c0 fbad cdc0 4918 b9c0
00000310: a8d5 b4c0 1da7 2cc0 5976 cfc0 44f9 05c0
00000320: 2a45 b4c0 a7a7 a9c0 5db1 75c0 30ce b3c0
00000330: 8c30 9bc0 5d75 8ec0 3e5a dbc0 d28d 52c0
00000340: b0a0 b2c0 e38a bbc0 333c 9dc0 9b60 c1c0
00000350: aae3 86c0 88be f2c0 4cfa bec0 0230 89c0
00000360: c3b5 bac0 9d85 83c0 93be cac0 0390 64c0
00000370: 839e c0c0 44f4 81c0 240d c2c0 4821 b7c0
00000380: 7227 6dc0 5c96 39c0 634a c2c0 0a58 a0c0
00000390: 3b6c afc0 1034 aec0 5a5a bec0 0d0a bdc0
000003a0: 3d04 b1c0 6523 cdc0 bd21 6bc0 d1f5 2ec0
000003b0: d364 9bc0 a7ef 98c0 3509 bcc0 1847 cdc0
000003c0: 6e52 c3c0 84e6 c3c0 3b5c c5c0 fd47 b8c0
000003d0: 4764 bcc0 cfd4 90c0 a7bb aac0 27e6 bac0
000003e0: 347a d1c0 a032 b0c0 b88b d4c0 559c bac0
000003f0: 2e97 cac0 d9b0 d0c0 a7b2 aac0 c8bd d5c0

weight_mu f4 [128, 512]
0.017788986 0.012022118 0.032057855 -0.07455116 -0.014612381 -0.036522582 -0.020872565 -0.015135233
-0.07154218 -0.0047925934 0.004756846 0.012766785 0.004567556 0.0069986647 -0.036173273 -0.04568683
-0.017559864 -0.01007008 -0.0066463104 0.012018338 0.017832411 0.0027806407 0.010233499 -0.006910518
-0.0022744332 -0.006221828 0.002360979 -0.017369289 0.017348656 -0.020300271 -0.012137145 0.021246297
0.04557077 -0.006777003 -0.007212559 -0.010031798 -0.0005019273 -0.013459275 0.0045967773 0.002402568
-0.0013524037 -0.008763726 0.0027500575 -0.015197913 0.013305542 0.01851973 0.013770569 0.0056567765
-0.0029402068 0.010700116 0.001643667 -0.0069194045 -0.04077624 -0.021403337 -0.0062122913 0.04458468
0.011253894 0.013894946 -0.014524393 0.0049141827 0.005812306 0.006589792 -0.003867336 -0.011168031
-0.020705031 -0.0015966692 -0.041030403 -0.041945577 -0.0037214935 -0.005745118 0.0030052704 0.0032243647
-0.016059168 -0.0032890956 -0.003314164 0.008852026 -0.010679095 -0.01717627 -0.011793079 -0.00546005
-0.01749858 -0.007768269 -0.005217899 0.023491835 0.016212959 0.02837752 -0.04090883 0.012651369
0.02254029 0.0023597237 0.016273689 0.0057300683 0.0074467366 0.026919283 -0.008427732 -0.010052592
-0.045795385 -0.005385683 -0.043221187 -0.07361769 -0.007568959 -0.019006373 -0.018171858 -0.030967452
0.01803996 0.0051839584 0.016542839 0.013822141 -0.013138248 0.021549795 -0.005577845 -0.034283355
-0.011478517 0.016020074 0.00947473 0.029471036 -0.03196183 -0.0058530443 0.0013394607 -0.04594079
0.00027441085 0.045394972 -0.0057555237 0.013807143 -0.040140416 -0.010182096 0.011461241 0.013872983
-0.01635208 -0.06101822 -0.054074183 -6.237283e-05 0.017431682 -0.0070672613 0.012736888 -0.000104596016
-0.0015508517 -0.005238455 -0.0015454227 0.033013534 0.018172434 0.007969432 0.024143944 -0.022513106
-0.006685334 0.0019827639 -0.015242842 0.0060301237 -0.021637822 0.033940364 0.03187878 0.012128024
-0.006470025 -0.033821903 0.011707203 -0.031384565 -0.014624251 0.0021232108 -0.023224512 0.025035972
-0.06844021 -0.012307993 0.0110623455 0.011428474 -0.016668059 -0.0057012406 0.011183271 0.0068178223
-0.038850244 -0.0027124863 -0.01110228 0.009514333 -0.023828298 0.0075798067 0.0016344283 -0.0029897129
0.002771571 0.007518301 -0.022469748 0.0069903526 0.014023802 -0.03089119 0.01633756 -0.010037873
0.004464016 -0.02439447 -0.0040229135 -0.0025491482 0.0027396195 -0.0034794952 -0.005820205 0.0044945637
-0.021780487 -0.012621228 0.028012697 -0.004123322 0.027172515 0.02139921 -0.016073316 -0.02793757
-0.04092956 -0.014929291 -0.03625219 -0.0053950017 -0.031404823 0.031829458 -0.012009214 -0.047604326
0.018420568 -0.00220054 -0.018257143 0.021560904 0.01398779 0.0037138958 -0.0048276065 0.0028849347
0.00765806 -0.020883655 -0.018893013 -0.025009146 -0.0025603154 0.018338064 0.002086452 0.026940841
-0.008358258 -0.027149783 0.010296619 0.025753124 -0.01228444 -0.017001497 -0.0043382184 -0.027535118
0.013138738 0.015531329 -0.0029761575 -0.016183022 0.02448123 -0.03286351 -0.022882024 0.014511743
0.0025080983 -0.015671683 -0.011933436 -0.005646902 -0.013544214 -0.0033947472 0.0245346 0.0046545863
-0.08905299 0.015597144 -0.011677923 -0.0033151498 -0.023655413 -0.03309133 -0.017298775 0.011063172
00000000: 35ba 913c 6bf8 443c 194f 033d 47ae 98bd
00000010: c568 6fbc b498 15bd f1fc aabc c5f9 77bc
00000020: b584 92bd 300b 9dbb 51df 9b3b c72b 513c
00000030: 70ab 953b 0e55 e53b 6d2a 14bd 1d22 3bbd
00000040: b4d9 8fbc fafc 24bc 4bc9 d9bb 90e8 443c
00000050: 4715 923c 693b 363b 68aa 273c a071 e2bb
00000060: a80e 15bb 7ae0 cbbb a8ba 1a3b 0a4a 8ebc
00000070: c51e 8e3c c14c a6bc e0da 46bc b70c ae3c
00000080: 6aa8 3a3d 9f11 debb 5557 ecbb 695c 24bc
00000090: c593 03ba 4a84 5cbc 90a0 963b 6774 1d3b
000000a0: 2343 b1ba bb95 0fbc 4f3a 343b ab00 79bc
000000b0: 7dff 593c b0b6 973c f49d 613c 7b5c b93b
000000c0: 7cb0 40bb 8a4f 2f3c 5070 d73a 2cbc e2bb
000000d0: fd04 27bd 0d56 afbc 7a90 cbbb 6d9e 363d
000000e0: 4162 383c a1a7 633c b8f7 6dbc 2707 a13b
000000f0: 2875 be3b 2fef d73b 2273 7dbb 1efa 36bc
00000100: 999d a9bc 5447 d1ba 7f0f 28bd 20cf 2bbd
00000110: 4de4 73bb 8b41 bcbb 12f4 443b dd4f 533b
00000120: 848e 83bc de8d 57bb 7232 59bb 1708 113c
00000130: 5ff7 2ebc 40b5 8cbc c237 41bc 38ea b2bb
00000140: 2f59 8fbc f78c febb e9fa aabb f371 c03c
00000150: 0ad1 843c f977 e83c 0490 27bd b047 4f3c
00000160: 6aa6 b83c 98a5 1a3b 6650 853c 4cc3 bb3b
00000170: c103 f43b d485 dc3c 7814 0abc a0b3 24bc
00000180: f193 3bbd 627a b0bb b308 31bd dfc4 96bd
00000190: 0805 f8bb 41b3 9bbc 26dd 94bc 74af fdbc
000001a0: 8ac8 933c 32de a93b d984 873c 4376 623c
000001b0: ce41 57bc 3289 b03c 5bc6 b6bb b46c 0cbd
000001c0: 6410 3cbc 883c 833c e63b 1b3c 3e6d f13c
000001d0: 68ea 02bd e5ca bfbb d890 af3a 692c 3cbd
000001e0: cdde 8f39 14f0 393d d598 bcbb 5b37 623c
000001f0: 476a 24bd ced2 26bc eec7 3b3c 824b 633c
00000200: ccf4 85bc 3eee 79bd e47c 5dbd 28ce 82b8
00000210: e3cc 8e3c 7c94 e7bb 61ae 503c 8f5a dbb8
00000220: f345 cbba 58a7 abbb c88f caba 3339 073d
00000230: 5bde 943c 3892 023c 85c9 c53c 686d b8bc
00000240: a510 dbbb 42f1 013b 1dbd 79bc 5898 c53b
00000250: cd41 b1bc 0d05 0b3d 5393 023d 9fb4 463c
00000260: 8102 d4bb d688 0abd 92cf 3f3c 1a8d 00bd
00000270: 8e9a 6fbc 9125 0b3b 5541 bebc 3d18 cd3c
00000280: 612a 8cbd 77a7 49bc d73e 353c 7f3e 3b3c
00000290: 748b 88bc 79d1 babb 0a3a 373c 0a68 df3b
000002a0: 6f21 1fbd f8c3 31bb 56e6 35bc 01e2 1b3c
000002b0: 9033 c3bc 0760 f83b 503a d63a 0fef 43bb
000002c0: 3fa3 353b 145c f63b 7a12 b8bc 540f e53b
000002d0: 17c4 653c 850f fdbc 59d6 853c e475 24bc
000002e0: e146 923b e9d6 c7bc a5d2 83bb 9c0f 27bb
000002f0: 308b 333b 3e08 64bb 6bb7 bebb 2247 933b
00000300: fe6c b2bc 44c9 4ebc e27a e53c ef1c 87bb
00000310: e598 de3c 654d af3c 30ac 83bc 55dd e4bc
00000320: c1a5 27bd fc99 74bc 2d7d 14bd 8ec8 b0bb
00000330: 58a2 00bd 9b5f 023d 4bc2 44bc c1fc 42bd
00000340: bbe6 963c ef36 10bb 0190 95bc 7ea0 b03c
00000350: 0b2d 653c d564 733b e630 9ebb 2c11 3d3b
00000360: 77f0 fa3b 3314 abbc 85c5 9abc fbdf ccbc
00000370: f7ca 27bb b539 963c dbbc 083b 0ab3 dc3c
00000380: 13f1 08bc 3969 debc 26b3 283c 37f8 d23c
00000390: ad44 49bc b946 8bbc 9d27 8ebb 5491 e1bc
000003a0: dd43 573c 1e77 7e3c a30b 43bb 4292 84bc
000003b0: dc8c c83c e39b 06bd 1573 bbbc a9c2 6d3c
000003c0: e85e 243b e761 80bc 7584 43bc a609 b9bb
000003d0: 8de8 5dbc 687a 5ebb c9fc c83c 8085 983b
000003e0: 6a61 b6bd 2a8b 7f3c c254 3fbc fc42 59bb
000003f0: ffc8 c1bc c68a 07bd 29b6 8dbc 4e42 353c

weight_logvar f4 [128, 512]
-3.218876 -3.218876 -3.218876 -3.218876 -3.218876 -3.218876 -3.218876 -3.218876
-3.218876 -3.218876 -3.218876 -3.218876 -3.218876 -3.218876 -3.218876 -3.218876
-3.218876 -3.218876 -3.218876 -3.218876 -3.218876 -3.218876 -3.218876 -3.218876
-3.218876 -3.218876 -3.218876 -3.218876 -3.218876 -3.218876 -3.218876 -3.218876
-3.218876 -3.218876 -3.218876 -3.218876 -3.218876 -3.218876 -3.218876 -3.218876
-3.218876 -3.218876 -3.218876 -3.218876 -3.218876 -3.218876 -3.218876 -3.218876
-3.218876 -3.218876 -3.218876 -3.218876 -3.218876 -3.218876 -3.218876 -3.218876
-3.218876 -3.218876 -3.218876 -3.218876 -3.218876 -3.218876 -3.218876 -3.218876
-3.218876 -3.218876 -3.218876 -3.218876 -3.218876 -3.218876 -3.218876 -3.218876
-3.218876 -3.218876 -3.218876 -3.218876 -3.218876 -3.218876 -3.218876 -3.218876
-3.218876 -3.218876 -3.218876 -3.218876 -3.218876 -3.218876 -3.218876 -3.218876
-3.218876 -3.218876 -3.218876 -3.218876 -3.218876 -3.218876 -3.218876 -3.218876
-3.218876 -3.218876 -3.218876 -3.218876 -3.218876 -3.218876 -3.218876 -3.218876
-3.218876 -3.218876 -3.218876 -3.218876 -3.218876 -3.218876 -3.218876 -3.218876
-3.218876 -3.218876 -3.218876 -3.218876 -3.218876 -3.218876 -3.218876 -3.218876
-3.218876 -3.218876 -3.218876 -3.218876 -3.218876 -3.218876 -3.218876 -3.218876
-3.218876 -3.218876 -3.218876 -3.218876 -3.218876 -3.218876 -3.218876 -3.218876
-3.218876 -3.218876 -3.218876 -3.218876 -3.218876 -3.218876 -3.218876 -3.218876
-3.218876 -3.218876 -3.218876 -3.218876 -3.218876 -3.218876 -3.218876 -3.218876
-3.218876 -3.218876 -3.218876 -3.218876 -3.218876 -3.218876 -3.218876 -3.218876
-3.218876 -3.218876 -3.218876 -3.218876 -3.218876 -3.218876 -3.218876 -3.218876
-3.218876 -3.218876 -3.218876 -3.218876 -3.218876 -3.218876 -3.218876 -3.218876
-3.218876 -3.218876 -3.218876 -3.218876 -3.218876 -3.218876 -3.218876 -3.218876
-3.218876 -3.218876 -3.218876 -3.218876 -3.218876 -3.218876 -3.218876 -3.218876
-3.218876 -3.218876 -3.218876 -3.218876 -3.218876 -3.218876 -3.218876 -3.218876
-3.218876 -3.218876 -3.218876 -3.218876 -3.218876 -3.218876 -3.218876 -3.218876
-3.218876 -3.218876 -3.218876 -3.218876 -3.218876 -3.218876 -3.218876 -3.218876
-3.218876 -3.218876 -3.218876 -3.218876 -3.218876 -3.218876 -3.218876 -3.218876
-3.218876 -3.218876 -3.218876 -3.218876 -3.218876 -3.218876 -3.218876 -3.218876
-3.218876 -3.218876 -3.218876 -3.218876 -3.218876 -3.218876 -3.218876 -3.218876
-3.218876 -3.218876 -3.218876 -3.218876 -3.218876 -3.218876 -3.218876 -3.218876
-3.218876 -3.218876 -3.218876 -3.218876 -3.218876 -3.218876 -3.218876 -3.218876
00000000: 1002 4ec0 1002 4ec0 1002 4ec0 1002 4ec0
00000010: 1002 4ec0 1002 4ec0 1002 4ec0 1002 4ec0
00000020: 1002 4ec0 1002 4ec0 1002 4ec0 1002 4ec0
00000030: 1002 4ec0 1002 4ec0 1002 4ec0 1002 4ec0
00000040: 1002 4ec0 1002 4ec0 1002 4ec0 1002 4ec0
00000050: 1002 4ec0 1002 4ec0 1002 4ec0 1002 4ec0
00000060: 1002 4ec0 1002 4ec0 1002 4ec0 1002 4ec0
00000070: 1002 4ec0 1002 4ec0 1002 4ec0 1002 4ec0
00000080: 1002 4ec0 1002 4ec0 1002 4ec0 1002 4ec0
00000090: 1002 4ec0 1002 4ec0 1002 4ec0 1002 4ec0
000000a0: 1002 4ec0 1002 4ec0 1002 4ec0 1002 4ec0
000000b0: 1002 4ec0 1002 4ec0 1002 4ec0 1002 4ec0
000000c0: 1002 4ec0 1002 4ec0 1002 4ec0 1002 4ec0
000000d0: 1002 4ec0 1002 4ec0 1002 4ec0 1002 4ec0
000000e0: 1002 4ec0 1002 4ec0 1002 4ec0 1002 4ec0
000000f0: 1002 4ec0 1002 4ec0 1002 4ec0 1002 4ec0
00000100: 1002 4ec0 1002 4ec0 1002 4ec0 1002 4ec0
00000110: 1002 4ec0 1002 4ec0 1002 4ec0 1002 4ec0
00000120: 1002 4ec0 1002 4ec0 1002 4ec0 1002 4ec0
00000130: 1002 4ec0 1002 4ec0 1002 4ec0 1002 4ec0
00000140: 1002 4ec0 1002 4ec0 1002 4ec0 1002 4ec0
00000150: 1002 4ec0 1002 4ec0 1002 4ec0 1002 4ec0
00000160: 1002 4ec0 1002 4ec0 1002 4ec0 1002 4ec0
00000170: 1002 4ec0 1002 4ec0 1002 4ec0 1002 4ec0
00000180: 1002 4ec0 1002 4ec0 1002 4ec0 1002 4ec0
00000190: 1002 4ec0 1002 4ec0 1002 4ec0 1002 4ec0
000001a0: 1002 4ec0 1002 4ec0 1002 4ec0 1002 4ec0
000001b0: 1002 4ec0 1002 4ec0 1002 4ec0 1002 4ec0
000001c0: 1002 4ec0 1002 4ec0 1002 4ec0 1002 4ec0
000001d0: 1002 4ec0 1002 4ec0 1002 4ec0 1002 4ec0
000001e0: 1002 4ec0 1002 4ec0 1002 4ec0 1002 4ec0
000001f0: 1002 4ec0 1002 4ec0 1002 4ec0 1002 4ec0
00000200: 1002 4ec0 1002 4ec0 1002 4ec0 1002 4ec0
00000210: 1002 4ec0 1002 4ec0 1002 4ec0 1002 4ec0
00000220: 1002 4ec0 1002 4ec0 1002 4ec0 1002 4ec0
00000230: 1002 4ec0 1002 4ec0 1002 4ec0 1002 4ec0
00000240: 1002 4ec0 1002 4ec0 1002 4ec0 1002 4ec0
00000250: 1002 4ec0 1002 4ec0 1002 4ec0 1002 4ec0
00000260: 1002 4ec0 1002 4ec0 1002 4ec0 1002 4ec0
00000270: 1002 4ec0 1002 4ec0 1002 4ec0 1002 4ec0
00000280: 1002 4ec0 1002 4ec0 1002 4ec0 1002 4ec0
00000290: 1002 4ec0 1002 4ec0 1002 4ec0 1002 4ec0
000002a0: 1002 4ec0 1002 4ec0 1002 4ec0 1002 4ec0
000002b0: 1002 4ec0 1002 4ec0 1002 4ec0 1002 4ec0
000002c0: 1002 4ec0 1002 4ec0 1002 4ec0 1002 4ec0
000002d0: 1002 4ec0 1002 4ec0 1002 4ec0 1002 4ec0
000002e0: 1002 4ec0 1002 4ec0 1002 4ec0 1002 4ec0
000002f0: 1002 4ec0 1002 4ec0 1002 4ec0 1002 4ec0
00000300: 1002 4ec0 1002 4ec0 1002 4ec0 1002 4ec0
00000310: 1002 4ec0 1002 4ec0 1002 4ec0 1002 4ec0
00000320: 1002 4ec0 1002 4ec0 1002 4ec0 1002 4ec0
00000330: 1002 4ec0 1002 4ec0 1002 4ec0 1002 4ec0
00000340: 1002 4ec0 1002 4ec0 1002 4ec0 1002 4ec0
00000350: 1002 4ec0 1002 4ec0 1002 4ec0 1002 4ec0
00000360: 1002 4ec0 1002 4ec0 1002 4ec0 1002 4ec0
00000370: 1002 4ec0 1002 4ec0 1002 4ec0 1002 4ec0
00000380: 1002 4ec0 1002 4ec0 1002 4ec0 1002 4ec0
00000390: 1002 4ec0 1002 4ec0 1002 4ec0 1002 4ec0
000003a0: 1002 4ec0 1002 4ec0 1002 4ec0 1002 4ec0
000003b0: 1002 4ec0 1002 4ec0 1002 4ec0 1002 4ec0
000003c0: 1002 4ec0 1002 4ec0 1002 4ec0 1002 4ec0
000003d0: 1002 4ec0 1002 4ec0 1002 4ec0 1002 4ec0
000003e0: 1002 4ec0 1002 4ec0 1002 4ec0 1002 4ec0
000003f0: 1002 4ec0 1002 4ec0 1002 4ec0 1002 4ec0

bias_mu f4 [128]
-0.083899766 -0.08724801 -0.07064735 -0.017759591 0.21907791 -0.07718671 -0.10254332 -0.07490441
-0.1438479 -0.12494028 -0.14839807 -0.022409838 -0.015050442 -0.010915431 0.039307494 -0.09390379
-0.015027681 -0.04785793 -0.018710777 -0.025224857 -0.12896332 -0.06919968 -0.16786543 -0.1510075
-0.017611863 -0.017349107 -0.022463204 -0.0033617362 -0.15096468 0.0022841904 -0.010745831 -0.07595543
-0.10464082 -0.13609846 -0.015176284 -0.14481075 -0.03347635 -0.02668151 -0.011509949 -0.13291393
-0.12536715 -0.018754115 0.0007549156 -0.15216151 -0.13498257 -0.14697954 -0.0040601674 -0.048044812
-0.060277894 -0.14902282 -0.016696738 -0.12145292 0.016564626 -0.0016439088 -0.12761998 -0.13643683
-0.07113662 -0.016185854 -0.00919561 -0.12337899 0.021717124 -0.061412107 -0.12904526 -0.01578839
-0.018636286 -0.025431382 -0.016164737 -0.12027504 -0.24290872 -0.2909588 -0.018969208 -0.067845106
-0.09803085 -0.035172056 -0.12466081 -0.030281063 -0.123282485 -0.11271312 -0.1310374 -0.024247557
-0.120819174 -0.005903495 -0.056474954 -0.14368016 0.02519301 -0.044801205 -0.017770043 -0.035399873
-0.11442213 -0.0531415 -0.015168524 -0.14072461 -0.08161988 -0.13782264 -0.155856 -0.14347188
-0.025414104 -0.071309835 -0.024269922 -0.029177716 -0.05974512 0.09544931 -0.11090482 -0.060731795
-0.114418186 -0.027027857 0.057882853 -0.01201285 -0.025957188 -0.0068423375 -0.021406451 0.12547584
-0.074897274 -0.027557947 -0.07643773 -0.037490018 -0.15072906 -0.12939802 -0.14664318 -0.0018873031
-0.03210528 -0.13471378 -0.11080315 -0.0128690265 -0.020940976 -0.030624028 -0.14271058 -0.027440384
00000000: a4d3 abbd 16af b2bd 8faf 90bd 907c 91bc
00000010: f655 603e 1114 9ebd 3b02 d2bd 7c67 99bd
00000020: dd4c 13be b1e0 ffbd aaf5 17be d694 b7bc
00000030: 2196 76bc a3d6 32bc e500 213d a150 c0bd
00000040: aa36 76bc ad06 44bd 5847 99bc 5ca4 cebc
00000050: f60e 04be 90b8 8dbd eae4 2bbe b6a1 1abe
00000060: c146 90bc b71f 8ebc c104 b8bc 9350 5cbb
00000070: 7c96 1abe 5bb2 153b 480f 30bc 858e 9bbd
00000080: ed4d d6bd 655d 0bbe f3a5 78bc 4549 14be
00000090: 7f1e 09bd 2f93 dabc 3a94 3cbc 971a 08be
000000a0: 3f60 00be 3ba2 99bc 87e5 453a 3ad0 1bbe
000000b0: df38 0abe ce81 16be 270b 85bb a3ca 44bd
000000c0: f4e5 76bd 7099 18be 99c7 88bc 4fbc f8bd
000000d0: 8ab2 873c 6d78 d7ba d0ae 02be 19b6 0bbe
000000e0: 14b0 91bd 3298 84bc 2fa9 16bc 20ae fcbd
000000f0: 1ce8 b13c 438b 7bbd 7124 04be a756 81bc
00000100: 20ab 98bc 7955 d0bc e96b 84bc c352 f6bd
00000110: 10bd 78be 8df8 94be 5065 9bbc 60f2 8abd
00000120: 66c4 c8bd 9310 10bd 2b4e ffbd fe0f f8bc
00000130: 877b fcbd 23d6 e6bd ab2e 06be d0a2 c6bc
00000140: 0b70 f7bd 1b72 c1bb 4852 67bd e420 13be
00000150: 9261 ce3c 7881 37bd 7b92 91bc 75ff 10bd
00000160: 2656 eabd e7aa 59bd 6785 78bc 1d1a 10be
00000170: 5328 a7bd 6121 0dbe b798 1fbe 4bea 12be
00000180: 3d31 d0bc e40a 92bd b7d1 c6bc 1b06 efbc
00000190: 4db7 74bd ee7a c33d 1122 e3bd e7c1 78bd
000001a0: 1554 eabd 8669 ddbc 9216 6d3d 8bd1 44bc
000001b0: 2ba4 d4bc b035 e0bb 955c afbc bd7c 003e
000001c0: be63 99bd 34c1 e1bc 628b 9cbd 228f 19bd
000001d0: b858 1abe ea80 04be a129 16be 625f f7ba
000001e0: d380 03bd 69f2 09be c3ec e2bd 9cd8 52bc
000001f0: 698c abbc 3edf fabc b922 12be a8ca e0bc

bias_logvar f4 [128]
-3.218876 -3.218876 -3.218876 -3.218876 -3.2193754 -3.2253237 -3.218876 -3.218876
-3.218876 -3.218876 -3.2189925 -3.218876 -3.218876 -3.218876 -3.218876 -3.218876
-3.218876 -3.218876 -3.218876 -3.218876 -3.218876 -3.218876 -3.218876 -3.218876
-3.218876 -3.218876 -3.218876 -3.218876 -3.218876 -3.218876 -3.218876 -3.218876
-3.218876 -3.218876 -3.218876 -3.218876 -3.218876 -3.218876 -3.218876 -3.218876
-3.218876 -3.218876 -3.218876 -3.2288399 -3.218876 -3.218876 -3.218876 -3.218876
-3.2257195 -3.218876 -3.218876 -3.218876 -3.218876 -3.218876 -3.218876 -3.218876
-3.218876 -3.218876 -3.218876 -3.218876 -3.218876 -3.2251048 -3.218876 -3.218876
-3.218876 -3.218876 -3.218876 -3.2206237 -3.218876 -3.218876 -3.218876 -3.218876
-3.218876 -3.218876 -3.218876 -3.218876 -3.218876 -3.218876 -3.218876 -3.218876
-3.218876 -3.218876 -3.218876 -3.218876 -3.2317636 -3.218876 -3.218876 -3.218876
-3.218876 -3.2214737 -3.218876 -3.219098 -3.219168 -3.218876 -3.252872 -3.218876
-3.218876 -3.6778023 -3.218876 -3.380866 -3.218876 -3.3995755 -3.218876 -3.3089433
-3.218876 -3.218876 -3.22013 -3.218876 -3.2847087 -3.218876 -3.218876 -3.218876
-3.218876 -3.218876 -3.4089892 -3.218876 -3.218876 -3.218876 -3.218876 -3.218876
-3.218876 -3.218876 -3.218876 -3.218876 -3.218876 -3.218876 -3.218876 -3.218876
00000000: 1002 4ec0 1002 4ec0 1002 4ec0 1002 4ec0
00000010: 3f0a 4ec0 b46b 4ec0 1002 4ec0 1002 4ec0
00000020: 1002 4ec0 1002 4ec0 f903 4ec0 1002 4ec0
00000030: 1002 4ec0 1002 4ec0 1002 4ec0 1002 4ec0
00000040: 1002 4ec0 1002 4ec0 1002 4ec0 1002 4ec0
00000050: 1002 4ec0 1002 4ec0 1002 4ec0 1002 4ec0
00000060: 1002 4ec0 1002 4ec0 1002 4ec0 1002 4ec0
00000070: 1002 4ec0 1002 4ec0 1002 4ec0 1002 4ec0
00000080: 1002 4ec0 1002 4ec0 1002 4ec0 1002 4ec0
00000090: 1002 4ec0 1002 4ec0 1002 4ec0 1002 4ec0
000000a0: 1002 4ec0 1002 4ec0 1002 4ec0 50a5 4ec0
000000b0: 1002 4ec0 1002 4ec0 1002 4ec0 1002 4ec0
000000c0: 3072 4ec0 1002 4ec0 1002 4ec0 1002 4ec0
000000d0: 1002 4ec0 1002 4ec0 1002 4ec0 1002 4ec0
000000e0: 1002 4ec0 1002 4ec0 1002 4ec0 1002 4ec0
000000f0: 1002 4ec0 1e68 4ec0 1002 4ec0 1002 4ec0
00000100: 1002 4ec0 1002 4ec0 1002 4ec0 b31e 4ec0
00000110: 1002 4ec0 1002 4ec0 1002 4ec0 1002 4ec0
00000120: 1002 4ec0 1002 4ec0 1002 4ec0 1002 4ec0
00000130: 1002 4ec0 1002 4ec0 1002 4ec0 1002 4ec0
00000140: 1002 4ec0 1002 4ec0 1002 4ec0 1002 4ec0
00000150: 37d5 4ec0 1002 4ec0 1002 4ec0 1002 4ec0
00000160: 1002 4ec0 a02c 4ec0 1002 4ec0 b405 4ec0
00000170: d906 4ec0 1002 4ec0 0e2f 50c0 1002 4ec0
00000180: 1002 4ec0 1d61 6bc0 1002 4ec0 1c60 58c0
00000190: 1002 4ec0 a592 59c0 1002 4ec0 bac5 53c0
000001a0: 1002 4ec0 1002 4ec0 9c16 4ec0 1002 4ec0
000001b0: ab38 52c0 1002 4ec0 1002 4ec0 1002 4ec0
000001c0: 1002 4ec0 1002 4ec0 e12c 5ac0 1002 4ec0
000001d0: 1002 4ec0 1002 4ec0 1002 4ec0 1002 4ec0
000001e0: 1002 4ec0 1002 4ec0 1002 4ec0 1002 4ec0
000001f0: 1002 4ec0 1002 4ec0 1002 4ec0 1002 4ec0

z_mu f4 [128]
0.0231986 0.00022925716 0.3874745 -0.0004909202 0.35193846 0.49872229 0.15412213 0.16025074
0.011434097 -0.008256605 0.7525311 -0.00010558993 0.00037354618 0.00034820437 0.38648325 0.39024535
-0.000745011 0.45691177 -0.0016058132 0.000271893 0.0019373274 0.5605884 0.0016332843 0.013642632
0.0017939091 -0.00017741369 -0.00060139626 -0.00046597348 0.00017499838 0.0024937259 0.0011574496 0.62759805
-0.045623407 0.0052541215 0.00020508634 0.016601605 0.0006893079 -0.0005117042 0.0012235835 0.0008766856
-0.0054894313 -0.0005166041 0.00097607024 0.37943494 0.007896976 0.002612029 0.00042242327 0.00040798707
0.5865931 -0.0042044627 -0.00011207718 -0.017716683 0.29704186 0.31624898 -0.020878231 -0.0068250676
-0.0047535063 -0.0005498789 0.0006896714 -0.00601701 0.33985093 0.5619469 -0.0034975284 -0.0007617745
-0.0013637862 0.0018633583 0.00022328676 0.42746243 0.40087268 0.6930735 8.8063956e-05 0.31107938
0.009414701 7.357714e-05 0.13706101 -1.24947455e-05 -2.526348e-06 0.0041108206 -0.0031356078 -0.00054275023
0.7603324 0.0003364628 0.00063432753 0.0037872298 0.66061175 0.28690046 -0.00059092924 -1.6767148e-05
0.005610616 0.66778505 0.00036316647 0.30939615 0.43923628 0.010810746 0.42416233 -0.0047819084
-0.00017242089 0.59296304 0.00010703483 0.6697493 0.2757835 0.61055535 0.023492094 0.51900375
0.023053115 0.000899827 0.46643236 -0.0005213769 0.6294729 0.0016697606 0.0014695254 0.31374484
0.5579556 0.0001300288 0.5654534 0.272913 -0.0039614807 -0.005635532 -0.0014925675 -0.00012435038
-0.0007806947 0.0073335567 0.049329974 0.0005712844 -0.00067280675 -0.0001116238 0.011671903 -0.0009010093
00000000: fe0a be3c c064 7039 0f63 c63e 19b1 00ba
00000010: 4731 b43e 8758 ff3e 31d2 1d3e c518 243e
00000020: 1456 3b3c b646 07bc e1a5 403f 2970 ddb8
00000030: 85d8 c339 338f b639 22e1 c53e 3dce c73e
00000040: d84c 43ba 57f0 e93e 267a d2ba dc8c 8e39
00000050: eced fd3a b982 0f3f ed13 d63a 5985 5f3c
00000060: 9a21 eb3a 2008 3ab9 05a7 1dba e74d f4b9
00000070: c57f 3739 c76d 233b 90b5 973a 44aa 203f
00000080: 9cdf 3abd c42a ac3b 720c 5739 1700 883c
00000090: acb2 343a e323 06ba a660 a03a 60d1 653a
000000a0: b0e0 b3bb b76c 07ba f7de 7f3a 4c45 c23e
000000b0: 5162 013c 932e 2b3b b178 dd39 19e7 d539
000000c0: f72a 163f 97c5 89bb fa0a ebb8 9422 91bc
000000d0: df15 983e 63eb a13e d308 abbc d1a4 dfbb
000000e0: 4dc3 9bbb c025 10ba 10cb 343a 572a c5bb
000000f0: f100 ae3e c1db 0f3f ca36 65bb d2b1 47ba
00000100: 12c1 b2ba ee3b f43a 1522 6a39 5bdc da3e
00000110: 2f3f cd3e 446d 313f faae b838 cc45 9f3e
00000120: 1e40 1a3c 6d4d 9a38 b959 0c3e 86a0 51b7
00000130: 548a 29b6 10b4 863b c57e 4dbb 5a47 0eba
00000140: 25a5 423f 4667 b039 0049 263a 2c33 783b
00000150: da1d 293f 9ee4 923e 97e8 1aba 2da7 8cb7
00000160: 42d9 b73b f6f3 2a3f 6167 be39 2c69 9e3e
00000170: 94e3 e03e 8e1f 313c ce2b d93e 8eb1 9cbb
00000180: e1cb 34b9 6dcc 173f e377 e038 b174 2b3f
00000190: 7f33 8d3e 5b4d 1c3f 7e72 c03c 6edd 043f
000001a0: e3d9 bc3c 5ee2 6b3a 39d0 ee3e 03ad 08ba
000001b0: 2325 213f dedb da3a 179d c03a 2aa3 a03e
000001c0: 2ed6 0e3f 5758 0839 8ec1 103f 41bb 8b3e
000001d0: 4fcf 81bb 45aa b8bb 41a2 c3ba 0d64 02b9
000001e0: 89a7 4cba 554e f03b 3a0e 4a3d 3fc2 153a
000001f0: 4c5f 30ba 9217 eab8 823b 3f3c b631 6cba

z_logvar f4 [128]
-4.1560636 -7.263963 -4.542574 -10.556328 -5.181367 -4.4958534 -4.6088667 -4.37087
-4.388245 -4.4368286 -4.836929 -9.963447 -10.502169 -10.320377 -5.4292893 -4.5118117
-10.402357 -4.350031 -10.532297 -10.731516 -4.823251 -4.7944627 -4.5316706 -4.221868
-9.933507 -10.372481 -9.674878 -10.657973 -4.6687064 -10.321404 -10.054662 -4.8077607
-4.3859434 -5.1163282 -10.269314 -4.0326195 -10.081463 -9.826347 -9.925661 -4.923519
-4.9165826 -10.630023 -10.135952 -5.4829335 -4.9605713 -4.7644405 -10.827678 -8.946912
-4.898357 -4.3519964 -10.7678795 -4.827217 -4.883721 -4.8614216 -4.4601445 -4.9740887
-6.27029 -10.244658 -10.64657 -4.80308 -4.9915085 -4.827095 -4.207096 -10.417641
-10.417604 -9.790576 -10.507153 -4.1257353 -3.6938818 -4.9615664 -10.307168 -4.6401396
-4.7778797 -9.566337 -4.6347756 -9.958563 -4.2335014 -4.453423 -5.036257 -10.221924
-4.5447116 -10.096323 -8.8468895 -4.7361493 -4.8289113 -4.707939 -10.545333 -9.814941
-4.908456 -5.00394 -10.505531 -5.052572 -4.154261 -4.627201 -5.869969 -4.434076
-10.362594 -4.8806715 -10.480914 -4.868885 -4.3007555 -5.951273 -4.298612 -4.751567
-4.783223 -10.231971 -5.6031094 -10.698066 -4.6085596 -10.022084 -9.750301 -4.6235223
-4.8580093 -10.362899 -4.9595776 -4.339537 -4.4248495 -4.875985 -4.451566 -10.51667
-9.551183 -4.534028 -4.1651754 -9.9601965 -10.342931 -10.119461 -4.325448 -10.184565
00000000: 79fe 84c0 6372 e8c0 c45c 91c0 b8e6 28c1
00000010: c2cd a5c0 08de 8fc0 d67b 93c0 2bde 8bc0
00000020: 816c 8cc0 80fa 8dc0 1fc8 9ac0 476a 1fc1
00000030: e208 28c1 4420 25c1 bdbc adc0 c360 90c0
00000040: 0e70 26c1 7433 8bc0 4a84 28c1 4ab4 2bc1
00000050: 1258 9ac0 3d6c 99c0 7203 91c0 8b19 87c0
00000060: a5ef 1ec1 aff5 25c1 4dcc 1ac1 0f87 2ac1
00000070: 0b66 95c0 7924 25c1 e5df 20c1 2dd9 99c0
00000080: a659 8cc0 f6b8 a3c0 1c4f 24c1 380b 81c0
00000090: ac4d 21c1 b838 1dc1 82cf 1ec1 788d 9dc0
000000a0: a554 9dc0 9314 2ac1 dc2c 22c1 3174 afc0
000000b0: 00bd 9ec0 4c76 98c0 2b3e 2dc1 8d26 0fc1
000000c0: 57bf 9cc0 8e43 8bc0 3c49 2cc1 9078 9ac0
000000d0: 7147 9cc0 c490 9bc0 81b9 8ec0 bc2b 9fc0
000000e0: 37a6 c8c0 1fea 23c1 5a58 2ac1 d5b2 99c0
000000f0: 70ba 9fc0 9077 9ac0 88a0 86c0 a8ae 26c1
00000100: 82ae 26c1 33a6 1cc1 4c1d 28c1 0606 84c0
00000110: 8f68 6cc0 27c5 9ec0 29ea 24c1 067c 94c0
00000120: 64e4 98c0 b70f 19c1 1550 94c0 4656 1fc1
00000130: d878 87c0 7182 8ec0 0429 a1c0 008d 23c1
00000140: 476e 91c0 8a8a 21c1 dc8c 0dc1 898e 97c0
00000150: 7186 9ac0 70a7 96c0 afb9 28c1 000a 1dc1
00000160: 1212 9dc0 4720 a0c0 a816 28c1 abae a1c0
00000170: b5ef 84c0 0812 94c0 c9d6 bbc0 f3e3 8dc0
00000180: 2fcd 25c1 762e 9cc0 d3b1 27c1 e8cd 9bc0
00000190: ca9f 89c0 d470 bec0 3b8e 89c0 d60c 98c0
000001a0: 2a10 99c0 27b6 23c1 ac4c b3c0 472b 2bc1
000001b0: 5279 93c0 755a 20c1 3c01 1cc1 e5f3 93c0
000001c0: d074 9bc0 6fce 25c1 dcb4 9ec0 7ddd 8ac0
000001d0: 5e98 8dc0 1208 9cc0 3b73 8ec0 4844 28c1
000001e0: a5d1 18c1 c216 91c0 1e49 85c0 f75c 1fc1
000001f0: a57c 25c1 50e9 21c1 126a 8ac0 faf3 22c1

weight_mu f4 [2, 128]
0.011929534 -0.048503894 0.4260547 0.0018801228 -0.31858712 0.42658752 0.39567128 0.4388846
0.010670399 -0.01552822 -0.39334106 0.0017826618 -0.011143771 -0.007447787 -0.23639528 -0.5396446
-0.0151197 -0.44456422 0.02295771 0.007357872 0.046389576 0.32717127 0.11615839 0.0011911932
-0.017546186 0.01164958 0.008305624 0.045720726 -0.03176811 -0.058357123 -0.035146218 0.42966658
-0.0595549 0.022465201 0.0010185526 -0.004970929 -0.04361843 0.038711865 0.046978764 -0.078797154
-0.013827664 0.007855433 0.05020987 0.254574 0.024966136 0.013757075 0.013777633 -0.021774448
0.39662805 -0.01368313 0.0017142592 -0.02353794 -0.30559602 -0.2646517 0.050775852 0.0563191
0.087358594 -0.014029161 -0.007426257 0.0017786885 -0.23945539 0.37130192 0.039044753 0.0014048689
0.039836567 0.013105061 -0.0073412918 -0.40336254 -0.6487782 -0.3579702 0.0041769184 0.3373919
0.03193345 0.021321056 0.33881626 -0.00028310754 0.026767388 -0.09657171 -0.060000602 0.038204275
-0.50190896 0.07403477 -0.040033773 -0.07738526 -0.3972842 -0.3931819 9.066296e-05 0.0047354284
0.0080560185 -0.37619954 -0.016687078 0.34674758 0.40118662 0.015833182 0.25449395 0.028191611
0.016932439 0.33626828 -0.011826801 0.467638 0.4045812 -0.25369146 -0.2738604 0.41460547
-0.014953138 -0.036073595 -0.26050836 0.0163494 0.4111345 -0.07488375 -0.026086343 -0.32630217
0.37311652 0.0002181616 0.4071561 -0.36931252 -0.0149300415 -0.03175792 -0.04954421 0.03289345
0.010116433 0.019805564 0.34918135 -0.030105887 -0.018335436 -0.026675403 -0.033314653 0.039260488
-0.006959411 0.043561004 -0.4256734 -0.0045766253 0.32427692 -0.43025252 -0.39740315 -0.44208577
0.0076734438 0.020401381 0.39192134 0.00091124896 0.01120981 0.005847872 0.23253861 0.53892994
0.012642893 0.44345498 -0.023535734 -0.0028005755 -0.03703056 -0.32854554 -0.1044097 0.00034925924
0.018418318 -0.009517282 -0.0012269173 -0.040077988 0.044301283 0.05776901 0.029447122 -0.43162343
0.05492869 -0.015142275 -0.0017943473 0.013289701 0.04215381 -0.04045127 -0.045535035 0.09706862
0.006299234 -0.0056549436 -0.047995668 -0.25692824 -0.026046567 -0.0127280615 -0.017994715 0.01722036
-0.39666113 0.010489843 -0.0043617534 0.014594298 0.30270565 0.26146656 -0.048665904 -0.059731286
-0.08965684 0.01788505 0.0062496946 -0.0005356711 0.2418459 -0.3715088 -0.032778632 -0.0021121104
-0.041794296 -0.01322 0.004493528 0.40729868 0.6436443 0.353883 -0.002248091 -0.3375086
-0.03583314 -0.020043729 -0.33812273 0.0012029833 -0.018486556 0.09057016 0.06333329 -0.03830219
0.50927687 -0.075100966 0.0443186 0.07616544 0.39613956 0.39251754 0.0012682473 -0.0039978153
-0.007436937 0.37629226 0.019727753 -0.34373364 -0.40458295 -0.014594972 -0.25399253 -0.01684701
-0.016126992 -0.33485216 0.012179157 -0.46820116 -0.40062964 0.25477126 0.28109303 -0.41331714
0.00556166 0.031587303 0.2596574 -0.019614335 -0.41239005 0.07142303 0.023875227 0.3234249
-0.3729185 -0.007638674 -0.40522876 0.3738853 0.01028316 0.03297469 0.046506133 -0.03470449
-0.007984151 -0.011829029 -0.33132663 0.027982632 0.017896961 0.027106365 0.035424948 -0.039429966
00000000: 1874 433c 05ac 46bd d723 da3e 746e f63a
00000010: da1d a3be ae69 da3e 6d95 ca3e 7bb5 e03e
00000020: e6d2 2e3c 136a 7ebc 0064 c9be 34a8 e93a
00000030: 5d94 36bc 910c f4bb 9b11 72be 2626 0abf
00000040: 9eb8 77bc ec9d e3be cf11 bc3c 4e1a f13b
00000050: ff02 3e3d fe82 a73e 73e4 ed3d d021 9c3a
00000060: 05bd 8fbc e1dd 3e3c 5014 083c a845 3b3d
00000070: 471f 02bd e107 6fbd 7bf5 0fbd 42fd db3e
00000080: d7ef 73bd f108 b83c f480 853a 2de3 a2bb
00000090: 3da9 32bd 5590 1e3d ce6c 403d 6760 a1bd
000000a0: 6d8d 62bc 13b4 003c dda8 4d3d 8657 823e
000000b0: c885 cc3c 5b65 613c 95bb 613c 5460 b2bc
000000c0: d512 cb3e 352f 60bc feb0 e03a a3d2 c0bc
000000d0: 1577 9cbe 6d80 87be 57fa 4f3d dbae 663d
000000e0: 10e9 b23d 91da 65bc f557 f3bb e222 e93a
000000f0: cb33 75be 491b be3e 64ed 1f3d 9423 b83a
00000100: ab2b 233d 9cb6 563c 388f f0bb 8985 cebe
00000110: 5416 26bf df47 b7be 88de 883b a2be ac3e
00000120: a6cc 023d 7fa9 ae3c 5379 ad3e 0d6e 94b9
00000130: 4847 db3c 64c7 c5bd 31c3 75bd 167c 1c3d
00000140: 1b7d 00bf 8b9f 973d 74fa 23bd 2a7c 9ebd
00000150: d668 cbbe 234f c9be 4e22 be38 a72b 9b3b
00000160: 64fd 033c 3a9d c0be 57b3 88bc e688 b13e
00000170: 5568 cd3e 97b4 813c 084d 823e 18f2 e63c
00000180: e6b5 8a3c 5b2b ac3e 33c5 41bc 3f6e ef3e
00000190: 4425 cf3e d9e3 81be 6e37 8cbe 2b47 d43e
000001a0: 02fe 74bc e8c1 13bd 5a61 85be 2def 853c
000001b0: 3980 d23e a75c 99bd 07b3 d5bc 1411 a7be
000001c0: 2109 bf3e 4fc2 6439 c476 d03e 8816 bdbe
000001d0: 229d 74bc 9814 02bd dfee 4abd 48bb 063d
000001e0: 65bf 253c 473f a23c e6c7 b23e 9fa0 f6bc
000001f0: 3234 96bc 6086 dabc f274 08bd 9bcf 203d
00000200: c50b e4bb 066d 323d ddf1 d9be 84f7 95bb
00000210: a007 a63e 0f4a dcbe 6d78 cbbe 1159 e2be
00000220: 8371 fb3b cc20 a73c eaa9 c83e e2e0 6e3a
00000230: 5aa9 373c 819f bf3b 9a1e 6e3e 50f7 093f
00000240: 2324 4f3c 880c e33e 03ce c0bc dc89 37bb
00000250: 5bad 17bd 1f37 a8be c1d4 d5bd c81c b739
00000260: 03e2 963c 60ee 1bbc 83d0 a0ba d128 24bd
00000270: 4375 353d 339f 6c3d 173b f13c bffd dcbe
00000280: e8fc 603d 4e17 78bc 4e30 ebba 0cbd 593c
00000290: 79a9 2c3d 3bb0 25bd f282 3abd eacb c63d
000002a0: ce69 ce3b 1b4d b9bb 1b97 44bd 198c 83be
000002b0: 9c5f d5bc 5c89 50bc a769 93bc b611 8d3c
000002c0: 2b17 cbbe 97dd 2b3c 0aed 8ebb ec1c 6f3c
000002d0: 3cfc 9a3e f2de 853e e655 47bd cba8 74bd
000002e0: 019e b7bd ab83 923c 3dca cc3b 476c 0cba
000002f0: 74a6 773e 6736 bebe e342 06bd 556b 0abb
00000300: 7f30 2bbd b398 58bc 723e 933b 7489 d03e
00000310: dfc5 243f 2730 b53e b554 13bb edcd acbe
00000320: c5c5 12bd bf32 a4bc 6c1e adbe 6cad 9d3a
00000330: 1e71 97bc d97c b93d e2b4 813d c2e2 1cbd
00000340: f85f 023f 89ce 99bd 6c87 353d a0fc 9b3d
00000350: ced2 ca3e 0ff8 c83e 513b a63a 1b00 83bb
00000360: 8db1 f3bb 61a9 c03e 199c a13c dbfd afbe
00000370: 7f25 cfbe c01f 6fbc 4f0b 82be be02 8abc
00000380: c11c 84bc be71 abbe 168b 473c 10b8 efbe
00000390: 541f cdbe 6171 823e 6deb 8f3e 4e9e d3be
000003a0: 963e b63b b061 013d d1f1 843e 3eae a0bc
000003b0: ca24 d3be 3d46 923d fb95 c33c f397 a53e
000003c0: 2cef bebe d84d fabb 257a cfbe e56d bf3e
000003d0: b37a 283c 7810 073d 377d 3e3d 4c26 0ebd
000003e0: f5cf 02bc 8bce 41bc a5a3 a9be d53b e53c
000003f0: a69c 923c 2b0e de3c c019 113d 5181 21bd

weight_logvar f4 [2, 128]
-0.05031919 -0.046375338 -4.2905416 -0.013999853 -5.0917096 -4.6868834 -3.4447656 -2.6843247
-0.07410496 -0.056607004 -5.615407 -0.013237727 -0.014223795 -0.012812327 -5.958415 -3.7372198
-0.017472636 -4.1937194 -0.020611499 -0.0104265185 -0.04486133 -5.4280443 -0.4531652 -0.055515576
-0.0066392943 -0.026451403 -0.013402921 0.0038508105 -0.043938484 -0.0128568495 -0.01607166 -5.3254385
-0.02340657 -0.08662809 -0.0116445795 -0.062906116 -0.017077208 -0.025718726 0.003995329 -0.042982966
-0.048457593 -0.020727031 -0.0051027862 -6.2474246 -0.047015302 -0.061198406 -0.0024041156 -0.012367941
-5.6429734 -0.05193107 -0.014427977 -0.04156623 -4.877247 -5.347208 -0.03945819 -0.05112137
-0.01778877 -0.010663162 -0.012886476 -0.054252442 -5.7623906 -5.385914 -0.05189676 -0.017558943
-0.013069112 -0.010784995 -0.025875278 -3.9501982 -2.8228986 -5.8244886 -0.015138311 -4.5173893
-0.027190922 -0.027399095 -3.4040112 -0.005320346 -0.043179337 -0.5936025 -0.044681784 -0.009868246
-4.978343 -0.00532119 -0.034671597 -0.119270034 -5.5102825 -4.023364 -0.0029854812 -0.026583245
-0.04065955 -5.6718273 -0.0074385856 -4.9853578 -4.450429 -0.056854974 -7.027182 -0.0855826
-0.009036213 -5.829517 -0.019293798 -5.374686 -3.6405978 -7.520895 -1.9403911 -4.8941393
-0.034703884 -0.019321846 -6.5673475 -0.0075553237 -5.385245 -0.017633574 -0.0128987525 -4.7420044
-5.2534776 -0.01634026 -5.3795424 -3.6478765 -0.07666776 -0.08365718 -0.08298715 -0.002187676
-0.007786816 -0.019489964 -1.8636823 -0.009215363 -0.020241873 -0.010606752 -0.08609824 -0.010728103
-0.007897263 -0.02194825 -4.161449 -0.009769689 -5.145269 -4.742959 -3.4312148 -2.6684923
-0.027716704 -0.046582177 -5.7632656 -0.01948948 -0.005328635 -0.0008293981 -5.970064 -3.7371953
-0.011074539 -4.2457547 -0.0070669493 -0.022774534 -0.059158422 -5.458993 -0.54812104 -0.058399323
-0.00450176 -0.009021733 -0.00543734 -0.0095824795 -0.05498567 -0.003973524 -0.007751971 -5.35786
-0.006489807 -0.0479396 0.0013327317 -0.040170778 -0.027462035 -0.0093487045 -0.021304306 -0.079786584
-0.012462545 0.0029224309 -0.005716318 -6.1306567 -0.06472646 -0.06360927 0.00399651 -0.029178461
-5.602635 -0.054208487 -0.0028908567 -0.029601505 -4.92109 -5.3896327 -0.06346017 -0.054500416
-0.04488441 0.007390102 0.0048472006 -0.044341266 -5.8705354 -5.313663 -0.041253857 0.0015239513
-0.007731285 -0.017064065 0.010719758 -3.9639041 -2.8116176 -5.8870444 -0.004325492 -4.546475
-0.081619196 -0.015915086 -3.354023 -0.03520325 -0.04498507 -0.49505204 -0.04427148 -0.0010626822
-4.9278913 -0.03800332 -0.036718935 -0.12723851 -5.469255 -4.018378 -0.010097789 -0.023419844
-0.04858489 -5.7220173 -0.0031047054 -4.9092193 -4.238575 -0.07108943 -6.9196296 -0.025218124
-0.019713145 -5.8213224 -0.010842106 -5.273744 -3.575447 -7.6031446 -1.9427435 -4.8343616
-0.02693901 -0.012674062 -6.563882 -0.009343183 -5.2433443 -0.004386232 -0.013858129 -4.823322
-5.246513 -0.019897258 -5.373055 -3.6678936 -0.06856753 -0.066732556 -0.029818371 0.02131318
-0.033097476 -0.07800057 -1.9107081 -0.016254777 -0.008660385 -0.025207268 -0.08602322 -0.0128566865
00000000: 7f1b 4ebd 11f4 3dbd 1e4c 89c0 a45f 65bc
00000010: 49ef a2c0 f3fa 95c0 0a77 5cc0 facb 2bc0
00000020: 57c4 97bd bfdc 67bd 6ab1 b3c0 0de3 58bc
00000030: ec0a 69bc cbea 51bc 56ab bec0 9c2e 6fc0
00000040: c622 8fbc f332 86c0 72d9 a8bc fdd3 2abc
00000050: 84c0 37bd 8ab2 adc0 4505 e8be 4d64 63bd
00000060: 708e d9bb 9db0 d8bc ed97 5bbc e15d 7c3b
00000070: d7f8 33bd 89a5 52bc b7a8 83bc fe69 aac0
00000080: 23bf bfbc 116a b1bd e8c8 3ebc ecd4 80bd
00000090: 80e5 8bbc 14b0 d2bc 40eb 823b e80e 30bd
000000a0: 787b 46bd bccb a9bc 4635 a7bb e7ea c7c0
000000b0: 1e93 40bd 2eab 7abd 5e8e 1dbb e8a2 4abc
000000c0: 3d93 b4c0 acb5 54bd 5263 6cbc 5a41 2abd
000000d0: 6812 9cc0 541c abc0 e99e 21bd a464 51bd
000000e0: c1b9 91bc 8bb4 2ebc cc21 53bc cf37 5ebd
000000f0: 8165 b8c0 6859 acc0 b291 54bd c6d7 8fbc
00000100: d41f 56bc 8cb3 30bc 64f8 d3bc 0cd0 7cc0
00000110: 5faa 34c0 3662 bac0 ae06 78bc 748e 90c0
00000120: 7fbf debc 1174 e0bc 52db 59c0 4c56 aebb
00000130: d1dc 30bd 55f6 17bf 3f04 37bd 6cae 21bc
00000140: 964e 9fc0 615d aebb ce03 0ebd d943 f4bd
00000150: 3c54 b0c0 66bf 80c0 10a8 43bb 1bc5 d9bc
00000160: a18a 26bd 9c7f b5c0 61bf f3bb 0d88 9fc0
00000170: ea69 8ec0 c3e0 68bd adde e0c0 ee45 afbd
00000180: a00c 14bc 678b bac0 070e 9ebc 6dfd abc0
00000190: 8eff 68c0 2cab f0c0 bc5e f8bf ca9c 9cc0
000001a0: a925 0ebd d948 9ebc b627 d2c0 a692 f7bb
000001b0: ed53 acc0 4974 90bc 4a55 53bc 80be 97c0
000001c0: 7d1c a8c0 02dc 85bc 3625 acc0 cf76 69c0
000001d0: fd03 9dbd 7554 abbd 2bf5 a9bd 1d5f 0fbb
000001e0: 8c28 ffbb 6ba9 9fbc 248d eebf 09fc 16bc
000001f0: 49d2 a5bc f1c7 2dbc 4654 b0bd edc4 2fbc
00000200: 8663 01bc d1cc b3bc 972a 85c0 0c11 20bc
00000210: 0ba6 a4c0 52c6 97c0 0699 5bc0 94c8 2ac0
00000220: 240e e3bc f4cc 3ebd ac6c b8c0 67a8 9fbc
00000230: d59b aebb f76b 59ba c40a bfc0 352e 6fc0
00000240: fc71 35bc 39dd 87c0 de91 e7bb a991 babc
00000250: 1a50 72bd 12b0 aec0 a951 0cbf 2134 6fbd
00000260: 8083 93bb e4cf 13bc b72b b2bb d5ff 1cbc
00000270: a738 61bd 5634 82bb 3f04 febb 9773 abc0
00000280: 72a8 d4bb 505c 44bd 0eaf ae3a 1d8a 24bd
00000290: 10f8 e0bc 4f2b 19bc 5e86 aebc 2667 a3bd
000002a0: b42f 4cbc 4186 3f3b f34f bbbb 572e c4c0
000002b0: 4e8f 84bd 9445 82bd 28f5 823b ab07 efbc
000002c0: c948 b3c0 b809 5ebd 8774 3dbb db7e f2bc
000002d0: 9279 9dc0 df77 acc0 68f7 81bd d43b 5fbd
000002e0: b7d8 37bd ab28 f23b 44d5 9e3b 309f 35bd
000002f0: 6ddb bbc0 8709 aac0 cef9 28bd 52bf c73a
00000300: b856 fdbb f0c9 8bbc eda1 2f3c 9bb0 7dc0
00000310: 8bf1 33c0 ab62 bcc0 dbbc 8dbb b97c 91c0
00000320: f727 a7bd 5b60 82bc 50a8 56c0 4831 10bd
00000330: 4442 38bd 7677 fdbe 0356 35bd b349 8bba
00000340: 49b1 9dc0 5fa9 1bbd 9866 16bd d04a 02be
00000350: 2304 afc0 8d96 80c0 3271 25bc f9da bfbc
00000360: f300 47bd c41a b7c0 5078 4bbb 5318 9dc0
00000370: 68a2 87c0 5697 91bd 9b6d ddc0 3d96 cebc
00000380: 767d a1bc 4648 bac0 17a3 31bc 83c2 a8c0
00000390: 20d4 64c0 f64c f3c0 d2ab f8bf 17b3 9ac0
000003a0: 33af dcbc dea6 4fbc 520b d2c0 2614 19bc
000003b0: 7ac9 a7c0 61ba 8fbb 350d 63bc a758 9ac0
000003c0: 6fe3 a7c0 93ff a2bc 11f0 abc0 c5be 6ac0
000003d0: 226d 8cbd 14ab 88bd a845 f4bc fa98 ae3c
000003e0: 3891 07bd c3be 9fbd 1592 f4bf bd28 85bc
000003f0: 4ae4 0dbc 797f cebc f12c b0bd daa4 52bc

bias_mu f4 [2]
-0.1164619 0.11707841
00000000: 9483 eebd cec6 ef3d

bias_logvar f4 [2]
-7.2352653 -7.1893425
00000000: 4b87 e7c0 180f e6c0
