metric/simple_probe_ours_first_seed0.pth (torch, 16903 bytes, 6 tensors)

z_mu f4 [512]
000000 38 3a 82 3e ae 6d b1 ba af c9 1d 3f 0d 31 c7 3f
       0.25435042 -0.0013536715 0.6163587 1.5561844
000010 ce 57 d0 3a 14 5b 54 39 cb fb 83 3c 58 73 3c b7
       0.0015895308 0.00020251825 0.016111275 -1.1232529e-05
000020 98 75 61 3f 3d ce 90 ba d4 6e b3 3a cc d2 93 b9
       0.8807006 -0.0011047792 0.0013689646 -0.0002819508
000030 63 00 f7 37 0a 03 ab b8 5d 1a 71 39 99 83 10 ba
       2.9444875e-05 -8.1544815e-05 0.00022993372 -0.00055127736
000040 8a 43 e1 ba 53 61 a0 bb 1b 40 9d 3f e6 1d 56 39
       -0.0017186266 -0.0048944145 1.2285188 0.00020419768
000050 f2 46 49 ba 5b 54 ad 39 2c 4f 35 ba 78 55 b9 38
       -0.0007678113 0.0003305998 -0.00069163996 8.837407e-05
000060 2c 01 eb 3f ed 10 3e 3f 1a 12 62 3a ed 90 7b 3a
       1.8359733 0.74244577 0.0008623913 0.0009596486
000070 b3 16 3b 3b 6d 9a 89 b9 39 85 a8 3f 47 88 43 39
       0.0028547465 -0.00026245732 1.3165656 0.00018647416
000080 53 a2 9a 3a 1a ad c7 ba ae 6b 7f b9 c9 fc ba b9
       0.0011797644 -0.0015234083 -0.00024358809 -0.00035665024
000090 39 7c 7d 39 30 06 a6 3a 5e ab d1 bb ee ec a3 b9
       0.00024174237 0.0012666639 -0.0063986024 -0.0003126631
0000a0 01 22 df 38 11 ee fa 3a b6 b9 dc 38 7e bf c6 b7
       0.00010639802 0.0019144436 0.00010525009 -2.369261e-05
0000b0 8f 13 7e 3d 16 1e 7f ba 02 b5 85 ba 7b d1 77 b9
       0.06203037 -0.0009731961 -0.0010201039 -0.00023633793
0000c0 3b 03 31 3f cb 8a a3 3e db 7b aa 3f 0c a7 d1 3b
       0.69145554 0.31941828 1.3319048 0.0063980874
0000d0 88 d3 21 3d d3 ef 36 39 97 fb 94 ba 1b e7 0c 3c
       0.039508373 0.00017446214 -0.0011366484 0.008600022
0000e0 3a bb 33 3f db dc 9c 39 45 ae ac 3a cd 90 85 3a
       0.7020756 0.0002991919 0.0013174495 0.0010190249
0000f0 d2 03 d9 38 ed 48 1b b9 7f 33 8b 39 5f a2 25 40
       0.00010348078 -0.00014809119 0.00026550514 2.5880353
000100 34 02 ae 3f 38 d5 f9 3e b7 97 37 b8 da f6 21 39
       1.3594422 0.48795485 -4.3771895e-05 0.00015446116
000110 2f da ba 39 f6 59 85 3a 42 8a a0 39 34 f6 94 b9
       0.00035639244 0.0010173905 0.00030620588 -0.00028412195
000120 c3 a8 0d 3b 17 95 40 3f 0f 2c 15 3b 88 f3 db ba
       0.0021615482 0.75227493 0.0022761857 -0.0016780952
000130 15 51 83 3a 62 d7 3e 3a 34 13 81 39 b0 d9 5c ba
       0.0010018671 0.00072800193 0.00024619105 -0.0008424772
000140 ea a5 09 bb 8a ac 7c 3a 11 8e d8 3a 9a b1 1b ba
       -0.0021003434 0.00096387474 0.0016521831 -0.00059392455
000150 39 96 8f 3a 4b a5 04 3b 2e d2 71 3a d7 50 f5 37
       0.0010954804 0.0020240124 0.00092247396 2.924392e-05
000160 9f 01 1e ba 98 1e 6b 3a be 7f c7 3f 42 62 ed 3b
       -0.0006027463 0.00089690974 1.5585859 0.0072443793
000170 c0 1f ee 3f d3 d2 f8 b9 0d 1f a8 b8 dd 40 0e 39
       1.8603439 -0.00047459322 -8.016648e-05 0.00013566339
000180 25 20 c4 3f 29 06 41 38 5e d3 5b 39 54 d1 db b9
       1.532231 4.6020523e-05 0.00020964208 -0.00041926897
000190 7d 57 87 b9 d2 13 99 b9 32 8c 14 b9 d7 5e a6 3f
       -0.0002581439 -0.000291972 -0.00014166607 1.2997693
0001a0 c0 80 45 3a 8f a6 05 39 1c 9b 64 ba 17 cc ae 3d
       0.0007534139 0.00012745916 -0.0008720623 0.08535021
0001b0 42 b1 63 3f cc d6 aa b9 b7 d8 2a 39 df eb 21 ba
       0.8894235 -0.00032584963 0.00016293196 -0.000617681
0001c0 7e b5 c3 3f a1 00 c9 b9 4e 13 33 39 c3 c6 91 b9
       1.5289762 -0.00038338176 0.00017077962 -0.00027804644
0001d0 27 5b 89 3a 82 57 a4 39 62 28 1f 36 09 6e c6 b9
       0.0010479436 0.00031345716 2.3716352e-06 -0.00037847486
0001e0 0e 9b 58 b9 c8 7e 33 3a 6b 90 34 3a 53 48 9a b9
       -0.00020657128 0.00068472 0.0006887975 -0.00029427055
0001f0 02 50 a4 ba 00 bb f5 3b 8b e7 b2 3f 8d 9c f7 3f
       -0.0012536051 0.007499099 1.3976911 1.934465
000200 60 65 b7 3f 85 52 ed 38 cb bf 00 3a 56 b8 2e 3f
       1.4327812 0.00011316411 0.0004911392 0.68250024
000210 1c 5b 06 3d 19 f9 f9 3f 9f 32 f5 3f c3 63 7f 3e
       0.032801732 1.9529144 1.9156073 0.249404
000220 86 9b 24 40 16 e6 a5 3a c0 92 cd 3f 4a cc d7 3f
       2.5719924 0.0012657072 1.606041 1.6859219
000230 08 e8 b7 3f c7 db 1d 3a dd 80 e8 3f 42 2e 0f 3a
       1.4367685 0.0006021824 1.8164326 0.000546191
000240 75 66 cd 39 ea e2 5c 3b 26 14 3b 3f 45 72 32 37
       0.00039176983 0.0033704587 0.7307762 1.0636232e-05
000250 37 7b 03 ba 78 21 f1 3d 15 16 05 ba 39 43 59 3a
       -0.0005015614 0.11773962 -0.0005076838 0.000828791
000260 14 78 b5 3f 06 83 3d ba cd a8 2a 3f cf e4 32 ba
       1.417727 -0.0007229302 0.6666382 -0.0006824256
000270 41 b9 1c b9 b6 29 d0 3f 5c 18 5d 39 fc 8e c0 b9
       -0.00014946332 1.6262729 0.00021085277 -0.00036727625
000280 16 b8 b7 3f fd c8 ae b9 01 51 7b 3f 18 ef c2 38
       1.4353054 -0.00033337614 0.9817048 9.2951756e-05
000290 3f f3 5d ba 75 33 72 39 b0 60 90 b9 70 f8 a7 3a
       -0.00084667274 0.00023098088 -0.00027537858 0.0012815129
0002a0 02 6a a8 3f b2 4b c3 39 95 45 9e 3f fe b8 c7 37
       1.3157351 0.00037249696 1.2364985 2.3808792e-05
0002b0 12 b7 6e 3f 8f 71 a6 3f 02 76 cc ba 04 6e ef 3f
       0.93248093 1.3003405 -0.0015599134 1.8705449
0002c0 04 cf e2 38 bc a0 92 3a d7 35 07 3b d2 97 1b 3b
       0.000108150794 0.0011186819 0.0020631456 0.0023741615
0002d0 8e 50 59 b8 2d d0 88 3f 98 c0 61 3a 36 99 97 39
       -5.1811854e-05 1.068853 0.00086117676 0.00028915115
0002e0 48 c9 0a b9 7b a2 e5 39 ab 68 81 39 48 de 40 3f
       -0.00013235689 0.0004379934 0.0002468278 0.75339174
0002f0 b1 9f 69 3a 4a e4 e8 b7 b0 0f bc 3f 16 b8 55 ba
       0.00089120405 -2.776286e-05 1.4692287 -0.0008152736
000300 30 12 d4 3f b6 8a ab 3f da 30 3d 39 2b ee 6a ba
       1.656805 1.3401706 0.00018042643 -0.00089618814
000310 95 88 f9 b9 14 2d 42 b9 de b8 da 39 a0 26 90 3f
       -0.00047594743 -0.00018518075 0.00041717937 1.1261787
000320 58 cc 8c 3e 86 a9 f7 3f 84 e3 85 3f bb 22 5e 3c
       0.27499652 1.934861 1.0460057 0.013558085
000330 e0 70 23 b9 38 8b a9 ba b0 2c 49 3f b7 03 9f 3f
       -0.0001558694 -0.0012935167 0.7858381 1.2423009
000340 ca 14 80 3c bc 70 e3 3f 1a f9 d3 3b 6a c8 7f b9
       0.015634913 1.7768779 0.006468904 -0.00024393355
000350 38 9e f3 ba e2 0b f6 3a 99 9a 20 3b 05 8c 57 3f
       -0.0018586582 0.0018771852 0.002450621 0.8419803
000360 4b ea f5 38 12 ad 1b 38 ee 1b e5 3f 79 d8 a6 ba
       0.00011726151 3.7116064e-05 1.7899148 -0.0012729309
000370 14 40 0b 40 5e e4 6f 3f f8 ce 1c 3a 51 cd ce b8
       2.175786 0.93707836 0.00059817685 -9.8610886e-05
000380 de 39 3a 3a 1c 11 36 3e 88 89 86 3a ab ac 83 3f
       0.000710396 0.17779964 0.0010264376 1.0287069
000390 03 1f fd b9 57 55 09 3a d4 ff 37 ba 7b fa 1a ba
       -0.00048279026 0.0005238852 -0.00070190174 -0.0005911958
0003a0 69 c0 84 b9 9e b1 2c 39 08 5e ba ba 02 ac d1 b8
       -0.0002532036 0.00016469366 -0.0014218697 -9.9979356e-05
0003b0 06 65 da 3f 98 d3 ef 3f b9 b8 65 3a 11 dc a2 ba
       1.706208 1.8736448 0.00087631826 -0.0012425204
0003c0 b3 19 06 ba 78 c6 ce 3e d8 a2 6b ba 80 ac bf 39
       -0.0005115524 0.40385795 -0.0008988804 0.0003655888
0003d0 a5 ef b9 39 3e 33 5d 3c 59 62 b5 b9 96 68 77 38
       0.000354645 0.013500987 -0.00034596285 5.8986792e-05
0003e0 cd fb e4 3f 70 20 03 40 3f 91 42 38 c7 20 18 3a
       1.7889344 2.0488548 4.6388475e-05 0.0005803224
0003f0 c3 83 89 3b d7 d5 17 38 a8 5c d9 3a ba 3c 35 b9
       0.0041966154 3.620036e-05 0.00165834 -0.00017284128

z_logvar f4 [512]
000000 0a ad 4c c0 3a c2 8a c0 bb 83 78 c0 b8 d7 bf c0
       -3.1980615 -4.3362093 -3.8830402 -5.995083
000010 02 91 d1 c0 59 eb 90 c0 60 f4 8b c0 4c 49 df c0
       -6.548951 -4.528729 -4.373581 -6.9776974
000020 50 ca 99 c0 56 84 d0 c0 5d 18 f8 c0 2a b0 ce c0
       -4.8059464 -6.5161543 -7.752974 -6.4590044
000030 2a 10 ce c0 4b e3 f3 c0 37 ad d8 c0 f8 6c f0 c0
       -6.439473 -7.6214957 -6.7711444 -7.513302
000040 6d f7 f5 c0 d7 ec bb c0 32 f9 a7 c0 41 23 03 c1
       -7.6864533 -5.872661 -5.2491693 -8.196107
000050 9d 17 b0 c0 1b 0a f3 c0 fe 13 b8 c0 59 6d b9 c0
       -5.5028825 -7.5949836 -5.7524405 -5.794598
000060 0d 9d bb c0 69 e8 9a c0 b5 89 f8 c0 31 c4 eb c0
       -5.862921 -4.8408704 -7.76681 -7.367699
000070 be 75 94 c0 03 fb e8 c0 32 09 a7 c0 0d 56 ed c0
       -4.639373 -7.280641 -5.2198725 -7.4167542
000080 87 79 cc c0 e5 d5 95 c0 ef 53 fd c0 51 8f ff c0
       -6.389835 -4.68236 -7.916496 -7.9862447
000090 4d 86 cd c0 e9 32 d7 c0 de e2 91 c0 87 36 da c0
       -6.422644 -6.7249646 -4.5589437 -6.819156
0000a0 9a c2 f8 c0 66 da c6 c0 a8 c5 fb c0 25 77 01 c1
       -7.773755 -6.21416 -7.867878 -8.091588
0000b0 60 7f 81 c0 46 62 b9 c0 f8 ac f0 c0 7d b6 a6 c0
       -4.0467987 -5.7932463 -7.5211143 -5.2097764
0000c0 47 ad 96 c0 6c 07 82 c0 09 86 a9 c0 00 01 ae c0
       -4.708652 -4.063406 -5.2976117 -5.437622
0000d0 ee 49 80 c0 75 73 00 c1 b1 ff bb c0 d6 5d b2 c0
       -4.0090246 -8.028188 -5.8749623 -5.5739546
0000e0 b5 6b 90 c0 40 b4 d6 c0 77 d8 f6 c0 b3 ae e9 c0
       -4.513148 -6.709503 -7.713924 -7.3025756
0000f0 bf 30 bd c0 3d b5 00 c1 d4 31 cd c0 e0 eb a6 c0
       -5.9122005 -8.044248 -6.4123325 -5.2162933
000100 57 6f a9 c0 d9 44 8c c0 8d 7c e2 c0 f1 f8 02 c1
       -5.2948413 -4.3834043 -7.077704 -8.185777
000110 c4 6a a3 c0 b6 8e a1 c0 38 8a cd c0 ab 61 c7 c0
       -5.106783 -5.048671 -6.4231224 -6.2306724
000120 58 79 e8 c0 b4 0e 59 c0 de ab a7 c0 48 3b df c0
       -7.2648125 -3.3915224 -5.23973 -6.9759865
000130 cf eb c6 c0 42 0f 01 c1 93 a3 f1 c0 ac 4e df c0
       -6.216285 -8.066225 -7.5512176 -6.9783535
000140 09 75 b2 c0 ae 56 e0 c0 72 02 af c0 2b ee f6 c0
       -5.5767865 -7.010581 -5.4690485 -7.716573
000150 aa b9 f8 c0 4d 24 88 c0 09 df e7 c0 f0 0b a9 c0
       -7.772664 -4.2544312 -7.245976 -5.282707
000160 a6 98 b9 c0 c3 b8 c4 c0 b3 93 af c0 68 33 96 c0
       -5.799884 -6.147554 -5.4867797 -4.693775
000170 0e d6 c6 c0 20 45 f8 c0 14 c5 f6 c0 cf 59 fd c0
       -6.2136297 -7.758438 -7.7115574 -7.917213
000180 b1 4f 9a c0 d1 98 f5 c0 67 58 eb c0 fe 08 e2 c0
       -4.822228 -7.6749043 -7.3545413 -7.0635977
000190 09 d0 ef c0 b2 48 d7 c0 6c b2 cf c0 ea 81 b3 c0
       -7.494145 -6.727624 -6.49053 -5.6096087
0001a0 1f 7c eb c0 e7 59 ee c0 7b 68 d0 c0 03 ce 28 c0
       -7.3589015 -7.4484744 -6.512754 -2.637574
0001b0 ac b6 96 c0 a5 53 e2 c0 5c 7f 02 c1 5e 51 fc c0
       -4.709799 -7.0727105 -8.156094 -7.8849325
0001c0 a1 95 ac c0 b9 b2 f6 c0 a8 9a 00 c1 fe 2e f3 c0
       -5.3932652 -7.7093167 -8.037758 -7.5994864
0001d0 f5 c7 d3 c0 5a 65 ea c0 f2 f8 ef c0 e8 1d 02 c1
       -6.618159 -7.324872 -7.499139 -8.132301
0001e0 c3 68 f4 c0 4d 24 df c0 15 89 fd c0 40 5b f1 c0
       -7.6377883 -6.9731812 -7.9229836 -7.542389
0001f0 40 00 ea c0 9c 8b a6 c0 53 b0 a8 c0 46 a3 c6 c0
       -7.3125305 -5.204542 -5.271524 -6.207431
000200 bf 26 9d c0 ce ca 01 c1 75 37 ef c0 1c 14 63 c0
       -4.9109797 -8.112013 -7.4755197 -3.5481024
000210 e6 f9 8b c0 6c 55 b0 c0 b2 7c c5 c0 7f f4 85 c0
       -4.374255 -5.5104275 -6.1714716 -4.1860957
000220 ec 86 85 c0 77 ef fd c0 31 e3 56 c0 74 24 86 c0
       -4.17272 -7.9354815 -3.3576167 -4.19195
000230 65 d4 ac c0 f5 af cc c0 2a 5a c8 c0 5b 85 df c0
       -5.400927 -6.396479 -6.2610064 -6.9850287
000240 40 f3 ef c0 7d 3e b5 c0 5b b6 96 c0 82 4c d1 c0
       -7.4984436 -5.663878 -4.70976 -6.5405893
000250 2a 7f f2 c0 98 a6 59 c0 c8 04 cc c0 e4 03 dc c0
       -7.578023 -3.400793 -6.3755836 -6.875475
000260 b6 ee 63 c0 73 0b eb c0 e3 4c 98 c0 87 14 ff c0
       -3.5614448 -7.3451476 -4.7593856 -7.971256
000270 60 1d 03 c1 12 0c 92 c0 34 6c f4 c0 1e 22 d7 c0
       -8.194672 -4.5639734 -7.6382084 -6.7229147
000280 11 a7 8d c0 18 c3 e6 c0 c2 fa 41 c0 6b 6a fa c0
       -4.426644 -7.211315 -3.03093 -7.8254905
000290 c6 17 b0 c0 96 7c ef c0 59 1c d3 c0 19 79 f5 c0
       -5.502902 -7.4839582 -6.5972104 -7.6710324
0002a0 27 c9 b6 c0 9c fc d8 c0 f0 ef 9b c0 9d ec fb c0
       -5.7120547 -6.780836 -4.8730392 -7.8726335
0002b0 29 bc 9d c0 63 e3 ad c0 c3 be c9 c0 b3 08 97 c0
       -4.929219 -5.434007 -6.3045363 -4.719812
0002c0 2f dd fa c0 ad 25 fa c0 69 d3 94 c0 cd a0 d3 c0
       -7.8395 -7.817099 -4.650807 -6.613379
0002d0 ca a0 fa c0 85 f7 8f c0 45 4e fd c0 8e a8 c6 c0
       -7.8321276 -4.498965 -7.9158044 -6.2080755
0002e0 5d 72 f1 c0 22 bf eb c0 b8 81 b8 c0 04 26 4a c0
       -7.5452104 -7.3670816 -5.765835 -3.1585703
0002f0 0b 7f d1 c0 80 0d cc c0 58 e9 8d c0 12 7c f5 c0
       -6.546758 -6.376648 -4.4347343 -7.6713953
000300 73 ad b9 c0 04 45 a9 c0 5b be f3 c0 06 d4 ef c0
       -5.802423 -5.2896748 -7.6169868 -7.494632
000310 fb d4 de c0 da bc cf c0 a4 58 de c0 a1 02 86 c0
       -6.9634986 -6.491803 -6.9483204 -4.187821
000320 fb 7a 85 c0 56 c5 c2 c0 bd 11 73 c0 f7 70 70 c0
       -4.1712623 -6.086589 -3.7979577 -3.7568948
000330 55 a6 de c0 1a e0 fd c0 59 65 9d c0 a3 a7 8d c0
       -6.957804 -7.933606 -4.9186215 -4.4267135
000340 8e 1f 86 c0 99 b9 bb c0 7b de 97 c0 37 4e 00 c1
       -4.191352 -5.866406 -4.7459083 -8.019095
000350 5a 06 9b c0 a7 9c 73 c0 f7 d6 da c0 11 0c 5b c0
       -4.8445253 -3.8064363 -6.838741 -3.4226115
000360 0b 11 01 c1 5d f2 eb c0 23 af bc c0 58 59 ce c0
       -8.066661 -7.3733354 -5.896379 -6.448406
000370 af 80 82 c0 2b 33 64 c0 8d a5 b3 c0 5d e5 fb c0
       -4.0782084 -3.565623 -5.613959 -7.8717484
000380 37 bb bf c0 02 9b 49 c0 19 ca f0 c0 19 5d a5 c0
       -5.9916034 -3.150086 -7.52467 -5.1676145
000390 c4 23 e9 c0 9d 53 03 c1 c0 88 f6 c0 8a 89 e4 c0
       -7.285616 -8.207913 -7.704193 -7.1417894
0003a0 b6 b1 ea c0 17 79 03 c1 68 1a b9 c0 62 3e c4 c0
       -7.334193 -8.217063 -5.7844734 -6.132615
0003b0 59 68 b8 c0 d8 b5 98 c0 d4 93 f7 c0 4e ec 03 c1
       -5.7627378 -4.7721977 -7.7367954 -8.245192
0003c0 a4 67 e9 c0 d7 10 88 c0 c8 77 f5 c0 ba bd f2 c0
       -7.2939014 -4.2520556 -7.6708717 -7.58566
0003d0 9a f6 ee c0 d7 6d 35 c0 46 8b f1 c0 08 fd da c0
       -7.4676027 -2.834829 -7.548251 -6.8433876
0003e0 54 90 be c0 ce 58 87 c0 5b 3c cf c0 95 e7 be c0
       -5.955118 -4.2295904 -6.4761176 -5.9657693
0003f0 54 1c 8d c0 5b 76 fe c0 39 7e d4 c0 c8 58 e9 c0
       -4.409708 -7.9519477 -6.640408 -7.2920876

weight_mu f4 [2, 512]
000000 6c 49 54 be 88 b4 b0 3d a6 8c a9 be a0 a4 62 3f
       -0.20731133 0.086281836 -0.3311512 0.8853245
000010 b3 41 50 bc 05 e1 a0 bb ea f3 21 3e 50 0c ba bc
       -0.012710976 -0.004909637 0.15815702 -0.02271095
000020 a3 15 0b bf 42 69 73 3c aa 61 36 bd b3 df e4 3a
       -0.5432989 0.014856638 -0.044526733 0.0017461687
000030 24 0d 19 ba 64 d8 41 bd 25 a0 60 3c c2 99 17 3c
       -0.0005838445 -0.047325507 0.013710056 0.009252967
000040 26 7a 5b 3d 59 38 78 3d 2a 57 1f bf 6c d7 20 3c
       0.053583287 0.060600612 -0.62242377 0.009816986
000050 d9 56 69 bb 0f 93 fa bb 63 55 97 bd c7 74 d0 bc
       -0.0035604744 -0.0076469253 -0.07389333 -0.025446309
000060 51 86 69 bf dc 7d e7 3e 3a bb e6 bc 08 1d ff bb
       -0.91220576 0.4521321 -0.028165448 -0.007785443
000070 2c a4 90 3c a1 7f 24 3b da 62 22 3f 07 7b 81 3b
       0.017656408 0.0025100487 0.63432086 0.0039514336
000080 77 7e 45 bc 89 42 62 3d 1f 32 5a 3a 53 60 8e 3c
       -0.012054077 0.055239234 0.00083235087 0.017379915
000090 f2 f4 93 bb 1e 5d 9e bc 03 51 0e bd b8 a0 0c bb
       -0.0045152837 -0.019331511 -0.034745228 -0.00214581
0000a0 56 d6 fc bb e8 48 35 bd 77 e5 7e bc aa 58 83 3b
       -0.0077159805 -0.044258982 -0.015557638 0.0040083723
0000b0 80 58 0f be 36 35 16 bc 9f 96 4a 3d 97 28 09 3e
       -0.13998604 -0.00916796 0.04946005 0.1339439
0000c0 2c b5 e5 3e 87 50 ee be 9d e4 17 3f e5 f7 b6 3d
       0.44864786 -0.46545812 0.5933321 0.08934001
0000d0 a3 37 4e be 50 fc ad bb 0b 07 49 3b 72 bf 71 3d
       -0.20138411 -0.005309619 0.0030674364 0.059020467
0000e0 f1 96 c5 3e 29 7a 9a 3c 84 5e 44 bd 50 c2 1b bd
       0.38591722 0.018857079 -0.0479417 -0.038027108
0000f0 99 d6 e7 bb ff 8b a6 3b 91 b2 8a bc 3d 35 bc bf
       -0.0070751426 0.005082607 -0.01693085 -1.4703747
000100 b9 a6 2b 3f 7c e9 ac 3e 21 0b 73 3b 77 af 67 3c
       0.67051274 0.33771884 0.003708549 0.014140955
000110 97 88 10 bc 96 70 a0 bc ec d2 a2 bc 9a 41 ea ba
       -0.008821628 -0.019584935 -0.019875966 -0.0017872334
000120 cc 3a 0d bd 63 cb 06 3f 4a ad 9b bc 47 f5 85 3d
       -0.0344799 0.52654094 -0.01900353 0.065409236
000130 e5 74 65 3b 92 ac db bc 0d 2a 14 bd ee e0 10 bd
       0.0035012302 -0.026815686 -0.036172915 -0.03537076
000140 cd a7 07 bd ee e2 b4 bc 9c 75 09 3d b3 85 95 3c
       -0.03311901 -0.022080865 0.033559427 0.01825223
000150 a8 5b 1b bb 29 b2 f1 bc c2 77 3f bc bb 1a 93 bc
       -0.0023705754 -0.029503899 -0.011686267 -0.017957082
000160 c5 47 1d bd 54 5b a5 bc 1a 2e 48 bf 5b 9c 17 3d
       -0.038398523 -0.02018515 -0.78195345 0.037014347
000170 33 85 73 bf 7d 99 60 3d 32 63 00 bd 87 f1 a0 bb
       -0.9512512 0.054833878 -0.0313446 -0.004911605
000180 77 41 42 bf e0 61 b1 ba d1 c4 c6 3c 40 80 81 3c
       -0.7588114 -0.0013533197 0.024263771 0.015808225
000190 6c b4 b3 3c f9 4e d9 3b 82 e4 8f 3b 35 9c 27 3f
       0.021936618 0.0066317287 0.004391254 0.6547273
0001a0 92 80 15 bd e2 d1 21 3b 58 1c b4 3c 85 7b 25 be
       -0.036499567 0.002469175 0.021986172 -0.161604
0001b0 56 3b c1 be 83 28 51 3c 9a 7e 55 bb 3e c6 78 bb
       -0.37740582 0.012766006 -0.003257668 -0.0037959958
0001c0 07 4a 29 bf 5b 7d 9b 3c 24 67 ae bb bd 0f 65 3c
       -0.6612858 0.018980673 -0.005322354 0.013980803
0001d0 ee 0e ec bc f7 03 3c bc e5 c0 3e bb a2 95 27 3d
       -0.028815713 -0.011475555 -0.0029106673 0.040914185
0001e0 5e 34 27 3c 85 2b 81 bc c9 2d e2 bc a4 8d 8d 3c
       0.010205356 -0.015767822 -0.027609723 0.017279454
0001f0 d5 d6 db 3c 88 b8 52 3d e9 26 24 3f 58 e2 76 3f
       0.026835838 0.051445514 0.6412187 0.96439123
000200 84 2b 01 bf 85 a4 02 3c 5b e6 64 bc 1f c9 f1 be
       -0.50457025 0.007973795 -0.013970937 -0.47223756
000210 99 14 70 be e3 c9 6b bf 32 e7 71 bf 1c cd bd be
       -0.23445357 -0.9210493 -0.944934 -0.3707055
000220 7a ef ad 3f cd cd fd bc c6 29 61 3f bc 23 5f bf
       1.3588707 -0.030981923 0.87954366 -0.871639
000230 e1 27 34 3f 13 36 2a 3d 53 e9 7f bf 49 61 25 bc
       0.7037335 0.041555475 -0.999654 -0.010093995
000240 42 09 47 bd 55 f3 72 bd 98 c6 25 3f 86 f5 24 3d
       -0.048592813 -0.05931409 0.64756155 0.040273212
000250 4e c1 5d bc 62 ab 4b be 11 6e 17 3d 45 c0 0f 3d
       -0.013534857 -0.19889596 0.036970202 0.035095472
000260 72 d9 5e bf 3b cf 22 3d a6 a7 e8 3e 1e 68 3f 3d
       -0.87050545 0.03974841 0.45440406 0.046730153
000270 a7 a8 5c 3b 43 d0 95 3f d3 d9 ef bb 25 85 42 bc
       0.003366986 1.1704181 -0.007319668 -0.011872564
000280 b2 31 5a bf 87 36 d8 bc 14 6d fb 3e 51 12 bc 3b
       -0.8523208 -0.026393188 0.49106658 0.005739488
000290 a8 db 33 bd b4 e2 37 bc 83 67 d7 3c 06 bf 14 bd
       -0.043910652 -0.011223484 0.026294475 -0.036314987
0002a0 0c 64 70 bf f5 55 39 b9 27 72 28 3f 30 7f 4a bc
       -0.9390266 -0.00017674996 0.6579918 -0.012359425
0002b0 2b ad 1c 3f a8 d4 10 bf a8 51 52 bd bf e9 69 bf
       0.61201733 -0.5657449 -0.051347405 -0.91372293
0002c0 fc b1 05 3b 2e 08 b4 bc 9d d1 72 bc cf 44 98 bc
       0.0020400276 -0.021976557 -0.0148204835 -0.018587498
0002d0 95 29 b5 3b a1 83 09 bf 42 2a 8c bc e3 ef 04 3c
       0.0055286386 -0.53716475 -0.017109994 0.008113834
0002e0 b2 94 be bb 8b 94 e7 bb eb 95 22 3c a8 12 2f 3f
       -0.0058160657 -0.0070672682 0.009923439 0.6838784
0002f0 d8 0a ab 3c d9 0a 02 bd 17 6c 35 bf b8 fa 2d 3d
       0.020879194 -0.031748626 -0.70868057 0.042475432
000300 f0 6e 4f 3f 99 83 41 3f 5b 45 88 bc 46 5e a1 3c
       0.8102865 0.7559143 -0.016634634 0.019698273
000310 18 bd be 3c ac 86 63 3d 55 7e 2a 3d 3e 99 18 bf
       0.023283526 0.055548355 0.041624386 -0.5960883
000320 a2 d4 a2 be 80 2b 8c 3f 86 0d 13 bf 06 7c f7 3d
       -0.3180285 1.0950775 -0.5744251 0.120842025
000330 f0 ee 86 3a 0c be 00 3d 49 c5 16 bf 86 e0 12 bf
       0.0010294598 0.031431243 -0.58894783 -0.57373846
000340 e7 69 f3 bd f7 4f 5b bf 7e d7 01 bd 78 df 95 bc
       -0.11885434 -0.8566889 -0.03169965 -0.018295035
000350 b8 0e 7b bd f5 12 ff 3c 8c 5e 02 bd 08 2b 24 bf
       -0.061293334 0.03113697 -0.03182845 -0.6412816
000360 32 62 29 bc 6a 35 84 bb 72 68 63 3f 39 23 23 3d
       -0.010338353 -0.0040346878 0.88831246 0.039828513
000370 f2 bf 9c 3f 3a 12 39 3f c5 9b f2 ba 61 96 56 bc
       1.2246077 0.72293437 -0.0018509558 -0.013097377
000380 c6 3d d8 bc e1 06 c7 be 17 58 68 bd ae 1b 1f 3f
       -0.026396643 -0.38872436 -0.056724634 0.6215161
000390 10 7a 09 3d 6a 01 84 3c 84 04 3e bd 92 4b 36 3c
       0.033563673 0.016113956 -0.046391025 0.011126416
0003a0 cb 85 f8 3b 39 8c 0c bc c3 f8 12 3d 37 0f 0b 3b
       0.0075843087 -0.008578354 0.03588177 0.0021218786
0003b0 6e 27 61 bf b9 af 75 bf 98 80 04 bc a7 d3 92 3c
       -0.8795079 -0.95971256 -0.0080873 0.01792319
0003c0 9d 97 46 bd f4 0a 67 3e 0b 3c 3c 3d 6c c0 65 bc
       -0.048484433 0.22562772 0.0459557 -0.014022928
0003d0 34 4c 51 bc 84 18 95 bd 12 57 4d 3d bb 19 83 bc
       -0.012774516 -0.072800666 0.050131865 -0.01600348
0003e0 b7 70 58 3f ae aa 92 bf b0 ce 19 bd ad 1f e0 bb
       0.8454699 -1.1458337 -0.03755063 -0.0068397135
0003f0 2b b8 d9 3d 9c f6 47 ba 28 67 12 bd 82 b8 3e bc
       0.106308304 -0.0007627995 -0.03574291 -0.01164067

weight_logvar f4 [2, 512]
000000 12 8b 4e c0 10 02 4e c0 15 d4 90 c0 50 0a d5 c0
       -3.2272382 -3.218876 -4.525889 -6.657509
000010 10 02 4e c0 10 02 4e c0 10 02 4e c0 10 02 4e c0
       -3.218876 -3.218876 -3.218876 -3.218876
000020 12 e6 a8 c0 10 02 4e c0 10 02 4e c0 10 02 4e c0
       -5.2780848 -3.218876 -3.218876 -3.218876
000030 10 02 4e c0 10 02 4e c0 10 02 4e c0 10 02 4e c0
       -3.218876 -3.218876 -3.218876 -3.218876
000040 10 02 4e c0 10 02 4e c0 66 1f c9 c0 10 02 4e c0
       -3.218876 -3.218876 -6.285083 -3.218876
000050 10 02 4e c0 10 02 4e c0 10 02 4e c0 10 02 4e c0
       -3.218876 -3.218876 -3.218876 -3.218876
000060 e1 07 d5 c0 7e 2d a7 c0 10 02 4e c0 10 02 4e c0
       -6.657212 -5.2243032 -3.218876 -3.218876
000070 10 02 4e c0 10 02 4e c0 3b c5 c8 c0 10 02 4e c0
       -3.218876 -3.218876 -6.274076 -3.218876
000080 10 02 4e c0 10 02 4e c0 10 02 4e c0 10 02 4e c0
       -3.218876 -3.218876 -3.218876 -3.218876
000090 10 02 4e c0 10 02 4e c0 10 02 4e c0 10 02 4e c0
       -3.218876 -3.218876 -3.218876 -3.218876
0000a0 10 02 4e c0 10 02 4e c0 10 02 4e c0 10 02 4e c0
       -3.218876 -3.218876 -3.218876 -3.218876
0000b0 10 02 4e c0 10 02 4e c0 10 02 4e c0 10 02 4e c0
       -3.218876 -3.218876 -3.218876 -3.218876
0000c0 70 4d a5 c0 da 70 60 c0 b8 1a c8 c0 10 02 4e c0
       -5.165703 -3.506888 -6.2532616 -3.218876
0000d0 10 02 4e c0 10 02 4e c0 10 02 4e c0 10 02 4e c0
       -3.218876 -3.218876 -3.218876 -3.218876
0000e0 c3 73 a5 c0 10 02 4e c0 10 02 4e c0 10 02 4e c0
       -5.170381 -3.218876 -3.218876 -3.218876
0000f0 10 02 4e c0 10 02 4e c0 10 02 4e c0 9b f0 b4 c0
       -3.218876 -3.218876 -3.218876 -5.654371
000100 81 39 cc c0 30 53 8f c0 10 02 4e c0 10 02 4e c0
       -6.3820195 -4.4789047 -3.218876 -3.218876
000110 10 02 4e c0 10 02 4e c0 10 02 4e c0 10 02 4e c0
       -3.218876 -3.218876 -3.218876 -3.218876
000120 10 02 4e c0 59 18 4e c0 10 02 4e c0 10 02 4e c0
       -3.218876 -3.220236 -3.218876 -3.218876
000130 10 02 4e c0 10 02 4e c0 10 02 4e c0 10 02 4e c0
       -3.218876 -3.218876 -3.218876 -3.218876
000140 10 02 4e c0 10 02 4e c0 10 02 4e c0 10 02 4e c0
       -3.218876 -3.218876 -3.218876 -3.218876
000150 10 02 4e c0 10 02 4e c0 10 02 4e c0 10 02 4e c0
       -3.218876 -3.218876 -3.218876 -3.218876
000160 10 02 4e c0 10 02 4e c0 78 93 cd c0 10 02 4e c0
       -3.218876 -3.218876 -6.4242516 -3.218876
000170 9c 61 e3 c0 10 02 4e c0 10 02 4e c0 10 02 4e c0
       -7.105665 -3.218876 -3.218876 -3.218876
000180 64 fe b0 c0 10 02 4e c0 10 02 4e c0 10 02 4e c0
       -5.5310535 -3.218876 -3.218876 -3.218876
000190 10 02 4e c0 10 02 4e c0 10 02 4e c0 f1 24 ce c0
       -3.218876 -3.218876 -3.218876 -6.4420094
0001a0 10 02 4e c0 10 02 4e c0 10 02 4e c0 10 02 4e c0
       -3.218876 -3.218876 -3.218876 -3.218876
0001b0 b9 d7 b9 c0 10 02 4e c0 10 02 4e c0 10 02 4e c0
       -5.8075833 -3.218876 -3.218876 -3.218876
0001c0 fd df cf c0 10 02 4e c0 10 02 4e c0 10 02 4e c0
       -6.4960923 -3.218876 -3.218876 -3.218876
0001d0 10 02 4e c0 10 02 4e c0 10 02 4e c0 10 02 4e c0
       -3.218876 -3.218876 -3.218876 -3.218876
0001e0 10 02 4e c0 10 02 4e c0 10 02 4e c0 10 02 4e c0
       -3.218876 -3.218876 -3.218876 -3.218876
0001f0 10 02 4e c0 10 02 4e c0 1e 27 cd c0 02 f1 e0 c0
       -3.218876 -3.218876 -6.411025 -7.02942
000200 4e 94 c7 c0 10 02 4e c0 10 02 4e c0 fe 67 66 c0
       -6.2368536 -3.218876 -3.218876 -3.6000972
000210 10 02 4e c0 9a 2f cc c0 a9 51 df c0 78 18 57 c0
       -3.218876 -6.3808107 -6.9787183 -3.3608685
000220 38 f4 98 c0 10 02 4e c0 47 fa 71 c0 b4 82 9e c0
       -4.779812 -3.218876 -3.7809007 -4.953455
000230 8d 05 ce c0 10 02 4e c0 fe ae e3 c0 10 02 4e c0
       -6.4381776 -3.218876 -7.1151114 -3.218876
000240 10 02 4e c0 10 02 4e c0 3a be 87 c0 10 02 4e c0
       -3.218876 -3.218876 -4.241971 -3.218876
000250 10 02 4e c0 10 02 4e c0 10 02 4e c0 10 02 4e c0
       -3.218876 -3.218876 -3.218876 -3.218876
000260 3a ea 7b c0 10 02 4e c0 f7 3d a2 c0 10 02 4e c0
       -3.936171 -3.218876 -5.070064 -3.218876
000270 10 02 4e c0 58 4d 96 c0 10 02 4e c0 10 02 4e c0
       -3.218876 -4.6969414 -3.218876 -3.218876
000280 8a d1 9d c0 10 02 4e c0 55 75 5e c0 10 02 4e c0
       -4.9318285 -3.218876 -3.4759114 -3.218876
000290 10 02 4e c0 10 02 4e c0 10 02 4e c0 10 02 4e c0
       -3.218876 -3.218876 -3.218876 -3.218876
0002a0 d6 51 c8 c0 10 02 4e c0 8f bc c2 c0 10 02 4e c0
       -6.2599897 -3.218876 -6.0855174 -3.218876
0002b0 56 12 a5 c0 b2 e8 c7 c0 10 02 4e c0 80 de ad c0
       -5.1584883 -6.247155 -3.218876 -5.4334106
0002c0 10 02 4e c0 10 02 4e c0 10 02 4e c0 10 02 4e c0
       -3.218876 -3.218876 -3.218876 -3.218876
0002d0 10 02 4e c0 ff c4 ae c0 10 02 4e c0 10 02 4e c0
       -3.218876 -5.4615474 -3.218876 -3.218876
0002e0 10 02 4e c0 10 02 4e c0 10 02 4e c0 10 02 4e c0
       -3.218876 -3.218876 -3.218876 -3.218876
0002f0 10 02 4e c0 10 02 4e c0 5c 45 b0 c0 10 02 4e c0
       -3.218876 -3.218876 -5.5084667 -3.218876
000300 f6 2d d4 c0 95 d9 c8 c0 10 02 4e c0 10 02 4e c0
       -6.6306105 -6.2765603 -3.218876 -3.218876
000310 10 02 4e c0 10 02 4e c0 10 02 4e c0 ee 6e 97 c0
       -3.218876 -3.218876 -3.218876 -4.732291
000320 33 d0 69 c0 d2 c1 e1 c0 4c 7b 8a c0 10 02 4e c0
       -3.6533325 -7.0549097 -4.327551 -3.218876
000330 10 02 4e c0 10 02 4e c0 a2 72 a8 c0 a1 13 a1 c0
       -3.218876 -3.218876 -5.2639933 -5.033646
000340 10 02 4e c0 0b 78 dd c0 10 02 4e c0 10 02 4e c0
       -3.218876 -6.9209037 -3.218876 -3.218876
000350 10 02 4e c0 10 02 4e c0 10 02 4e c0 c6 3d 55 c0
       -3.218876 -3.218876 -3.218876 -3.3318954
000360 10 02 4e c0 10 02 4e c0 96 8b dd c0 10 02 4e c0
       -3.218876 -3.218876 -6.9232893 -3.218876
000370 62 76 94 c0 ba 0e 6a c0 10 02 4e c0 10 02 4e c0
       -4.639451 -3.6571488 -3.218876 -3.218876
000380 10 02 4e c0 10 02 4e c0 10 02 4e c0 2f a3 b7 c0
       -3.218876 -3.218876 -3.218876 -5.73867
000390 10 02 4e c0 10 02 4e c0 10 02 4e c0 10 02 4e c0
       -3.218876 -3.218876 -3.218876 -3.218876
0003a0 10 02 4e c0 10 02 4e c0 10 02 4e c0 10 02 4e c0
       -3.218876 -3.218876 -3.218876 -3.218876
0003b0 1e de d6 c0 7b 2f b5 c0 10 02 4e c0 10 02 4e c0
       -6.714614 -5.662046 -3.218876 -3.218876
0003c0 10 02 4e c0 03 b0 8d c0 10 02 4e c0 10 02 4e c0
       -3.218876 -4.427736 -3.218876 -3.218876
0003d0 10 02 4e c0 10 02 4e c0 10 02 4e c0 10 02 4e c0
       -3.218876 -3.218876 -3.218876 -3.218876
0003e0 36 c6 df c0 0a 5c 96 c0 10 02 4e c0 10 02 4e c0
       -6.9929457 -4.698735 -3.218876 -3.218876
0003f0 10 02 4e c0 10 02 4e c0 10 02 4e c0 10 02 4e c0
       -3.218876 -3.218876 -3.218876 -3.218876

bias_mu f4 [2]
000000 9e 1f 86 be 1c 86 84 3e
       -0.26195997 0.25883567

bias_logvar f4 [2]
000000 57 6c dc c0 b3 fa d9 c0
       -6.888225 -6.811853
