metric/simple_probe_retrain_adam4_seed0.pth (torch, 16927 bytes, 6 tensors)

z_mu f4 [512]
00000000: e5e7 833f 67a6 b33f 542f 8cba bb5f e3b8
00000010: fb76 0f38 0ffb 8a3a c017 b03f 17ef 3eb6
00000020: 8366 5abb 73ef 443a 3ad8 5c3f 6aed 80b9
00000030: a8e6 b1b9 88be 72ba d126 5f39 bd3d 9d3a
00000040: 8a88 873f 8d68 bcbb c19a 473f 64b9 a5ba
00000050: f424 9aba 35db 6db7 122d 683a 3036 bcba
00000060: b903 8b38 2247 8e3a 7bf2 a239 7aca 4c35
00000070: a5be e037 e610 8f3f 1eaf 8e3f d3ed 083a
00000080: 1072 d13f 4145 97bb d27c bdba faea 8d3f
00000090: c85b b13a 2547 f03e aee9 3f3a 69d2 4aba
000000a0: c15a 933f ae44 593f 18bf 863f ed33 8b39
000000b0: c984 9c39 efb1 e339 b02f c13f 937e 443a
000000c0: 86f8 0e3f ecd6 8739 4c5a c43f 5739 44ba
000000d0: 9b46 bbb9 18cf 3fbb f05e b639 7ab5 153b
000000e0: e9b8 583a 7017 733f f0fa a53a 174a 9739
000000f0: 42a9 0a3b 4680 9138 a150 a03a 580a b5b8
00000100: 6b8e 9b3f bf33 c83f 029d 0fb8 71da 2a3a
00000110: 986e 5cb9 7477 0a39 ba3c d9b8 12f8 873f
00000120: be78 25ba 4db2 cfba ed0f c23f 6be9 1b3b
00000130: 90c8 9eb9 5842 14ba 08dc 333f 668d 803f
00000140: ba65 ebb8 901b 7e3b e2df 283f 8f20 0e3b
00000150: bdc9 fdb9 8163 933f bd43 a33f fe1b deb9
00000160: a877 6d3f 9eaf 473f be69 9cba f637 0239
00000170: 1c1f 893f 58b9 32bb fd28 d0ba 1c76 1e3a
00000180: b363 03b9 fffc 9a3f 30ad 523f dcec 45ba
00000190: 691c 71ba 8480 853a 3416 5239 2d79 7f3f
000001a0: 1511 86b9 df79 163f 0330 9239 35d2 5d3f
000001b0: a797 1b3b 83c1 e53f 269c c73a be47 9f3c
000001c0: f66c 253b f226 a23a 0aba a13f 3d69 ef3b
000001d0: c22c af3f fb34 89b7 df22 3fba 1a53 3cba
000001e0: b6cd 41b8 3f58 18bb 4e28 87b9 1ab2 26ba
000001f0: a7d9 7e3f 2c9f e73a 585e fbba af45 873f
00000200: a012 6cba 02fb 92b7 14c2 353f 2f5a 8f39
00000210: 5604 dfb9 cdf8 9e3f c3ca 03bb c8de f13a
00000220: 1db4 83ba af5b 0fb8 815a 3839 428e cb38
00000230: 5b0a 1eba 1a23 333a cddf a539 1794 f63e
00000240: f7a4 81b9 ccc4 223f 9b81 abba 349d 403a
00000250: 7e2d 9b3f 00ec 6bba d4d9 273f 6efc 07b7
00000260: 6b88 273f c57b ed38 ca1c 86bb c336 4d3a
00000270: 14b2 daba b875 083b ab72 573f 4dcf b9b9
00000280: 755e 82b9 4b4a 6e3b c5eb 1eba 6aa5 5e3a
00000290: ba30 5d3e 9fe6 233a 637a 823f 1d24 013d
000002a0: 980a a839 d248 713f ebe8 253f e658 c4b7
000002b0: ba03 d4b7 389e 8a3f c514 50ba c020 a2ba
000002c0: 3324 f438 dcdd e23e f809 acb9 7609 94ba
000002d0: 4cc6 ad39 66e0 9fba 8fb8 a33f 00c8 acba
000002e0: a7dd 0dbb 6fe1 92b9 de88 f039 a3c1 8b3f
000002f0: a6d9 b737 3b32 5c3a 7944 d33e 557a a1ba
00000300: d734 d3b8 6d23 823f ac7f a83f a65d 75b9
00000310: 65fa 37ba a429 b9ba 7c22 3d39 bd62 003b
00000320: 6955 f23a 8c70 003a 4e48 af3b 22d7 4fba
00000330: d5cf 3f39 e744 38b9 4f61 813b 8878 2139
00000340: b0d0 c53f 06a4 7ab9 257d 34bb 70e4 c6ba
00000350: ad9f 143a 5f34 fab9 e6a0 4eba 1426 f038
00000360: 7137 89ba 3c31 cab8 8b6c c2b7 68c0 f7b9
00000370: 4149 e03b 8195 e739 fe48 0e3b 42f7 5239
00000380: 3b21 433a f6ee 5e3b 0452 a73f 2324 3f3a
00000390: dd75 9639 fc8c 183f b353 133f f5ef 38b8
000003a0: 7c33 093a c45b 2fba 2f31 8db9 fb55 8b3a
000003b0: 5372 523b 49f3 513f 750f 1839 877c 7f3f
000003c0: f9d9 d23a 2ed9 353a 387f 28b8 7d28 203f
000003d0: 1392 313f 5c9e 91b9 19f6 813f 15b1 ccb8
000003e0: ce7f 733f 5eb9 ac38 0ff2 fb3a e834 cd3b
000003f0: de18 e0b9 91a3 0db6 b5d8 493f faef 863f
1.0305144 1.4035157 -0.0010695257 -0.00010842035 3.4204666e-05 0.0010603386 1.3757248 -2.8451375e-06
-0.0033325262 0.00075124874 0.86267436 -0.0002459095 -0.00033931923 -0.0009259959 0.00021281397 0.0011996549
1.0588543 -0.005749768 0.7797051 -0.0012643752 -0.001176028 -1.4177339e-05 0.00088568137 -0.0014359411
6.62873e-05 0.001085494 0.0003107971 7.6290564e-07 2.6791657e-05 1.1177032 1.1147192 0.0005223427
1.6362934 -0.00461641 -0.0014456755 1.1087334 0.0013531381 0.4692928 0.0007320893 -0.0007737042
1.1512071 0.8487042 1.0527067 0.00026550834 0.0002985357 0.00043429385 1.5092678 0.00074956677
0.55847967 0.00025909336 1.5340056 -0.0007485351 -0.00035720025 -0.0029267725 0.0003478448 0.0022843764
0.00082673 0.9495764 0.0012663286 0.00028856166 0.0021158014 6.9380316e-05 0.001223106 -8.632679e-05
1.2152838 1.5640792 -3.424008e-05 0.00065175357 -0.00021022034 0.00013205205 -0.000103586775 1.062258
-0.00063122425 -0.0015845984 1.516111 0.002379025 -0.0003028554 -0.0005655638 0.70257616 1.0043151
-0.00011224621 0.0038773753 0.6596662 0.0021686887 -0.00048406227 1.1514741 1.2755047 -0.00042363995
0.92760706 0.78002346 -0.0011933369 0.00012418613 1.0712619 -0.0027271118 -0.0015881356 0.00060448213
-0.00012530274 1.2108458 0.82295513 -0.00075502484 -0.0009197654 0.0010185395 0.00020035432 0.99794275
-0.000255712 0.5877971 0.00027883062 0.86648875 0.0023741515 1.794968 0.0015229031 0.019443389
0.0025241948 0.0012371226 1.26349 0.0073062466 1.3685534 -1.6356344e-05 -0.0007291268 -0.0007184014
-4.620637e-05 -0.0023245958 -0.00025779236 -0.00063589367 0.9955086 0.0017671338 -0.0019177897 1.0568141
-0.0009005461 -1.752144e-05 0.70999265 0.00027342277 -0.00042537105 1.2419678 -0.002010987 0.0018453235
-0.0010048185 -3.4179244e-05 0.00017581323 9.706292e-05 -0.0006028765 0.00068335386 0.00031637997 0.4815986
-0.00024727706 0.6358154 -0.001308489 0.0007347644 1.2123258 -0.00089997053 0.65566754 -8.1054e-06
0.6544253 0.000113240945 -0.0040927874 0.00078282895 -0.0016685151 0.002082212 0.84159344 -0.000354404
-0.00024865908 0.00363602 -0.0006062354 0.00084932765 0.21600619 0.0006252322 1.01936 0.03152858
0.0003205135 0.9425174 0.6480853 -2.3406417e-05 -2.5274105e-05 1.0829535 -0.0007937665 -0.0012369379
0.00011641569 0.4430989 -0.00032813824 -0.0011294323 0.00033144874 -0.0012197613 1.2790698 -0.0013182163
-0.0021647008 -0.0002801525 0.0004587834 1.0918468 2.191665e-05 0.0008399819 0.41263178 -0.0012319783
-0.00010071106 1.0167061 1.3163962 -0.00023399908 -0.00070182077 -0.001412679 0.00018037291 0.0019590103
0.0018488589 0.00048995833 0.0053491956 -0.00079284806 0.00018292603 -0.00017573276 0.0039483677 0.00015399058
1.5454311 -0.00023902961 -0.0027540412 -0.0015174281 0.00056695455 -0.00047722735 -0.0007882252 0.000114511844
-0.0010468793 -9.641281e-05 -2.3177146e-05 -0.00047254865 0.00684467 0.00044171143 0.0021710987 0.00020119271
0.00074436114 0.0034016944 1.3071904 0.00072914566 0.00028698044 0.59590125 0.5754959 -4.4092496e-05
0.0005233807 -0.00066893944 -0.0002693026 0.0010630483 0.00321116 0.8201185 0.00014501608 0.9979939
0.001608669 0.00069369643 -4.0172803e-05 0.6256178 0.69363517 -0.00027774542 1.0153228 -9.760462e-05
0.9511689 8.2361265e-05 0.0019221919 0.0062624104 -0.00042743137 -2.1105845e-06 0.78846294 1.0541985

z_logvar f4 [512]
00000000: 3c97 9cc0 7ae1 c0c0 ce66 08c1 0f9b ddc0
00000010: 14b0 f2c0 b828 03c1 d66b d4c0 f329 01c1
00000020: 8785 0dc1 4d71 d4c0 d3ab b6c0 917f f9c0
00000030: e120 0cc1 5fb0 e9c0 b386 03c1 6c89 fac0
00000040: 481d 9ec0 d78b c5c0 d1f5 6ec0 0a59 f4c0
00000050: 80fd 0ac1 1087 f9c0 6566 dec0 a6cb 02c1
00000060: 884f 05c1 8064 d6c0 be83 0ac1 7c13 f6c0
00000070: b4ce 0cc1 295a bac0 2e54 b9c0 055f e6c0
00000080: 2c45 cac0 d65d 9dc0 10a7 e3c0 f3ff b9c0
00000090: 980e e7c0 b0cd a1c0 6135 09c1 c2ec 09c1
000000a0: 93df 88c0 68d2 adc0 41cf aec0 00a7 0dc1
000000b0: 99ca d4c0 8683 bdc0 a502 dfc0 f566 0ac1
000000c0: 7b3d a9c0 e0b7 05c1 aef9 d5c0 d961 0fc1
000000d0: 859c e7c0 2908 e3c0 0030 0ec1 299b e4c0
000000e0: cb1c 09c1 5745 b3c0 a4da 07c1 1a58 08c1
000000f0: 7956 a1c0 695e 0bc1 2bfd e2c0 63be dec0
00000100: 0993 c9c0 3fee bbc0 0f0e eec0 2375 d3c0
00000110: 9a4e 07c1 b3a0 09c1 961f 05c1 ea22 aec0
00000120: 30c7 0cc1 3a25 bdc0 f5c1 bcc0 2f16 c4c0
00000130: 2a3a 04c1 edc8 dec0 9e88 90c0 4105 c1c0
00000140: 3e4f ddc0 af92 fac0 c2b0 b6c0 66a4 f9c0
00000150: 246a e2c0 475d b8c0 e8e6 b7c0 cc41 e3c0
00000160: f0c7 a5c0 51a4 b1c0 a38f e8c0 5438 f5c0
00000170: e52a cac0 efd6 04c1 49d7 08c1 b030 99c0
00000180: 2ca5 0fc1 f166 c3c0 6006 60c0 4bed a4c0
00000190: 3ed5 07c1 4dc0 04c1 95d2 f5c0 0394 a6c0
000001a0: 8c3f f6c0 349c a2c0 02bb 05c1 04f3 b5c0
000001b0: 1262 fbc0 0b53 abc0 7af1 e9c0 56b0 97c0
000001c0: 7ea3 e3c0 1972 d5c0 1d16 c2c0 bd7d 9bc0
000001d0: 4650 bdc0 fa1a e4c0 df48 07c1 963b 08c1
000001e0: 1cf5 0bc1 d7a7 cfc0 ce47 edc0 4acd afc0
000001f0: 55be 9cc0 abe1 b5c0 8235 ecc0 5e9f a5c0
00000200: d1dd 02c1 8d5e fec0 96fd 95c0 72ce 0ec1
00000210: aa4d 0fc1 ba97 cec0 2787 01c1 8277 f9c0
00000220: 4161 f3c0 9db4 05c1 23b2 07c1 5e67 07c1
00000230: 61d2 03c1 4020 06c1 8765 0bc1 50a9 b3c0
00000240: 4d41 04c1 b1c3 a7c0 c9ca cac0 be8b 08c1
00000250: 9795 9cc0 91b7 01c1 35a0 a6c0 9606 d1c0
00000260: d874 a9c0 f122 0ac1 ca04 ccc0 0d94 f0c0
00000270: c8e0 e5c0 11bb 00c1 ea9f 97c0 6062 04c1
00000280: 4ec5 05c1 1668 a0c0 be3f fec0 302e dfc0
00000290: 78ff 6ac0 de51 11c1 1c36 87c0 c5e3 8fc0
000002a0: 20d8 08c1 c5db b3c0 5246 b4c0 b80e 0ac1
000002b0: 8b5f fbc0 a345 9cc0 0498 e0c0 8399 05c1
000002c0: b0d0 05c1 e1da 80c0 0210 00c1 6ed3 08c1
000002d0: c338 07c1 0ca0 f1c0 a076 c3c0 cfe1 f7c0
000002e0: e2cf b4c0 1a1f 01c1 e143 04c1 0af1 b0c0
000002f0: 1614 09c1 14f5 e3c0 7fc9 86c0 c54f e7c0
00000300: 1332 dcc0 1dfc aac0 94f6 bbc0 3513 02c1
00000310: e6db f5c0 5864 ecc0 1990 04c1 0bf3 fcc0
00000320: 2861 c0c0 3229 01c1 6847 b4c0 ae89 fbc0
00000330: b234 07c1 03fd f7c0 7637 adc0 1e93 05c1
00000340: 38d8 cdc0 0eef f0c0 89cf f7c0 4571 b6c0
00000350: 423e 06c1 ad8b 0cc1 d52b 0dc1 f898 e8c0
00000360: 6ead e6c0 342b fbc0 d6ff 04c1 8368 0bc1
00000370: f30f d9c0 9002 01c1 0c3f e0c0 47ae 08c1
00000380: cee9 0ec1 b2cc e7c0 0988 c1c0 4ecc fdc0
00000390: 55f0 dfc0 b2be b1c0 4c74 b1c0 1c87 ecc0
000003a0: 31a9 05c1 31eb 0bc1 c463 0cc1 371c 08c1
000003b0: 8b4f f2c0 79c2 ccc0 0aad 01c1 495c c0c0
000003c0: 7194 fac0 8308 e2c0 a48d fac0 55e9 93c0
000003d0: d9da 8cc0 c5c1 05c1 1f9a b8c0 dc6c 09c1
000003e0: c770 8fc0 47b9 eac0 5330 e6c0 1796 8fc0
000003f0: 8c56 07c1 1b0a e9c0 618a b5c0 53c2 c3c0
-4.893461 -6.027524 -8.525099 -6.925178 -7.583994 -8.197441 -6.6381636 -8.0727415
-8.845099 -6.6388307 -5.7084746 -7.796822 -8.758027 -7.3027797 -8.220386 -7.829275
-4.9410744 -6.1733203 -3.7337534 -7.635869 -8.68689 -7.797737 -6.9499993 -8.174719
-8.331917 -6.699768 -8.657164 -7.6898785 -8.800465 -5.823506 -5.791526 -7.199099
-6.320944 -4.9177046 -7.1141434 -5.812494 -7.2205315 -5.0563583 -8.575532 -8.620302
-4.277292 -5.4319344 -5.4627995 -8.8532715 -6.649731 -5.922305 -6.969073 -8.650136
-5.288755 -8.357391 -6.6867285 -8.961389 -7.2378564 -7.094746 -8.886719 -7.1439404
-8.56953 -5.6022143 -8.490879 -8.521509 -5.0418057 -8.710549 -7.0934043 -6.9607406
-6.2991986 -5.872833 -7.439216 -6.608049 -8.45669 -8.601733 -8.320211 -5.441762
-8.79863 -5.9107943 -5.8986764 -6.127708 -8.2642 -6.962027 -4.516677 -6.0318913
-6.915923 -7.8304057 -5.709077 -7.801318 -7.0754566 -5.7613864 -5.746937 -7.101782
-5.1806564 -5.551308 -7.267534 -7.663126 -6.317736 -8.302474 -8.55256 -4.7871933
-8.977825 -6.106316 -3.500389 -5.1539664 -8.489561 -8.296948 -7.681956 -5.205568
-7.695257 -5.081568 -8.358156 -5.685915 -7.8557215 -5.353887 -7.310727 -4.7402754
-7.1137075 -6.670178 -6.0651994 -4.859099 -5.916049 -7.128293 -8.455291 -8.514547
-8.747341 -6.4892383 -7.415015 -5.4938097 -4.898234 -5.6837974 -7.3815317 -5.175704
-8.179154 -7.949042 -4.6872053 -8.925402 -8.956461 -6.4560213 -8.095496 -7.7958384
-7.605622 -8.356595 -8.48099 -8.462736 -8.238862 -8.382874 -8.712287 -5.614418
-8.265943 -5.242638 -6.337254 -8.534117 -4.8932605 -8.107316 -5.2070565 -6.532054
-5.295513 -8.633531 -6.3755846 -7.5180726 -7.183689 -8.0456705 -4.7382708 -8.274017
-8.36067 -5.012706 -7.945281 -6.974388 -3.6718426 -9.082487 -4.225355 -4.496554
-8.552765 -5.6205773 -5.633584 -8.628593 -7.855413 -4.8835006 -7.0185566 -8.349978
-8.363449 -4.0267186 -8.003908 -8.551619 -8.451358 -7.550787 -6.1082306 -7.7463145
-5.6503763 -8.070093 -8.266572 -5.5294237 -8.567404 -7.123667 -4.2120967 -7.2284875
-6.8811126 -5.3432755 -5.87385 -8.129689 -7.683093 -7.387249 -8.28518 -7.9046683
-6.01186 -8.072557 -5.6337166 -7.8605566 -8.450365 -7.749635 -5.41302 -8.348417
-6.432644 -7.5291815 -7.744084 -5.701327 -8.3902 -8.784101 -8.823201 -7.268673
-7.2086706 -7.849024 -8.31246 -8.713016 -6.783197 -8.063126 -7.007696 -8.542548
-8.932081 -7.243737 -6.047856 -7.9311895 -6.9980874 -5.554528 -5.5454464 -7.391493
-8.3538065 -8.74492 -8.774357 -8.506888 -7.57221 -6.3987393 -8.104746 -6.0112653
-7.8306203 -7.063539 -7.82979 -4.622233 -4.401715 -8.359807 -5.7688136 -8.589077
-4.482517 -7.335117 -7.193399 -4.4870715 -8.45863 -7.2824836 -5.673142 -6.117471

weight_mu f4 [2, 512]
00000000: 2e7b 26bf 474f 333f 6306 233d 7176 df3b
00000010: fc34 6ebc 5645 0cbc e029 2cbf 742c 0dbd
00000020: d4bc 18bd 8efd 083c adfa f9be 3d8a 243b
00000030: 15f7 60bb 2ba7 e2bc ef7c f73b 6b50 2b3c
00000040: 1b6b d8be 9d67 3b3d 6174 1fbf e03a 0f3d
00000050: 209b 40bc a3a7 cb3c a924 0bbc fddc 063d
00000060: 30c8 ccb9 52c0 f8bb 8365 f7bb 0767 d73b
00000070: 23b5 5c3c ae5d 253f 0132 163f 8308 a5bc
00000080: 98ae 43bf 3aa8 be3d 548a b63c bace f4be
00000090: 2360 0abd ebd6 7abe 0cb9 913c aef1 02bd
000000a0: ba94 173f 5863 0bbf a6ad f83e d368 23bc
000000b0: abf8 043c f774 b1bb 4134 2f3f fc4b a93c
000000c0: 3c80 923e 71b0 34bc 4ada 3dbf c582 d5bc
000000d0: 2868 ea3b 6f07 363d 6c98 563b 5a54 d73c
000000e0: b37e 0dbd 9893 debe e361 76bd d426 2cbd
000000f0: 822f 5cbc 8a8f 58bd 0c1d c9bc 722d e93c
00000100: 081c 2c3f 5e8b 4cbf 5c68 57bc fc1f b1bc
00000110: 582d c0b9 1148 17bd 13d7 e339 3082 e83e
00000120: 2e02 1bbc f0dd 3bbb c829 60bf 1746 e9bc
00000130: c2d5 3bbd e4ad 163c 4b50 08bf 2248 c53e
00000140: e6b0 d3bc 27a2 8ebd 5576 adbe bdc1 90bc
00000150: 5b58 a53b d1c3 02bf c7a0 2b3f 0a3d 58bc
00000160: bb26 ed3e 97a9 0abf d7c7 353d 51fc 9f3c
00000170: f654 1ebf 4ca9 8d3d 0f4c d1bc 3efe 19bd
00000180: abd8 3abc 4a71 233f 4527 12bf 8cbc 7ebd
00000190: cf4e 233d 7e95 93bc b56c 0e39 77bf f63e
000001a0: 7348 02bc 286c b93e 61ea 503c 0c2a 01bf
000001b0: ffa8 15bd 3d85 56bf b332 40bd 7621 debd
000001c0: b96b 4fbd 258e 953d e091 12bf 8518 a23d
000001d0: 3bf5 233f 967f 393c 25ee 213c a57c 33bc
000001e0: ea52 14b9 0580 ef3c 206b fd38 e5f7 e1bb
000001f0: ef68 d1be 7c57 c03b bbca 423d 0bc1 023f
00000200: 4dca 2ebd 0757 d73c cea4 f4be 39fc bb3c
00000210: 75d4 abbc 6a49 07bf 31c9 1e3d 068a 2fbd
00000220: 0080 873d 53d2 0a3b 74f6 28bc 2349 43bc
00000230: fd0f 963c 9dca eabc a928 263d d816 ff3e
00000240: a835 9ebc eb98 82be c199 2abd 71be 0cbd
00000250: be10 0fbf 180a 55bd 5292 babe 0889 5a3c
00000260: 1439 053f eb59 6d3c 6d05 013d d12a bb3c
00000270: 308b 233d e3b7 733c 1fc7 0a3f 9481 b33c
00000280: 76c4 3d3c 1f25 4a3d 80f4 ebbb 99dc a6bc
00000290: 0cf0 793e e0ef 2fbb 35b6 083f 0bfc 6cbe
000002a0: 3d5f dbbc 23db 063f 4988 e23e ac62 b23b
000002b0: 1213 2b3d 3079 22bf a9dd b1ba 4485 313d
000002c0: e075 3a3c aa66 b9be 2a8b 8e3b cfad f0bc
000002d0: 3346 2abb 76d8 c5bc 279f 19bf b4ee 413d
000002e0: 162f 50bd aa51 c13c 0d38 b73c 2a9d 81bf
000002f0: 21e0 93bb 2e39 3abd 5b50 f2be e90f dd3c
00000300: db65 88bc 4bbe f33e dd83 083f fbbb 823c
00000310: 4415 80bc d34e 0e3d f3f4 fa3c 1a2b 11bd
00000320: 81e6 b6bc b2f9 083d 72ff e0bc 9a9b 2f3d
00000330: 87fa 5f3c ac13 1c3c 6232 83bd 90cb 2d3d
00000340: 7114 4bbf 3a40 f0bc dddd 5f3d 9832 453c
00000350: 6621 66bc daf9 4a3d b6fb 39ba 50ff 11bc
00000360: e767 883c 298e 853a f7f0 e03c 3d8a 82bc
00000370: 314f 3fbd a51b c93b f3cb b1bc f93e cab9
00000380: 8afc 383b 2851 63bd ad57 35bf 47e5 32bc
00000390: c7eb 093d 6a9d 693e a317 bdbe 9e47 88bb
000003a0: 4abd d63c a9ad 06bc a246 3dbc b3ee e9bc
000003b0: 0167 04bd 9413 1ebf 3ea3 633b b6f7 d4be
000003c0: bb76 31bd 4837 45bd 1748 963b fba8 d4be
000003d0: 44d6 1fbf 554b 05bd 5da5 d63e fb67 11bc
000003e0: 5d56 053f 7105 6ebc c016 2bbd bd70 9dbd
000003f0: e8d4 8c3c 3bd6 763d 9d30 e73e 2c68 193f
-0.6503171 0.7004284 0.039801013 0.0068195392 -0.014539 -0.008561453 -0.67251396 -0.034466222
-0.037289456 0.008361233 -0.48824063 0.002510681 -0.003432696 -0.027667603 0.007552735 0.010456185
-0.42269215 0.04575311 -0.62286955 0.034968257 -0.011755735 0.024860209 -0.008492627 0.032925595
-0.00039059063 -0.0075912857 -0.007549943 0.006573561 0.013470921 0.6459607 0.5867005 -0.02014566
-0.76438284 0.093094304 0.022282757 -0.4781397 -0.03378309 -0.24496047 0.017788433 -0.031968765
0.59211314 -0.5444846 0.48569983 -0.0099737225 0.008115928 -0.0054155546 0.6843911 0.020666115
0.2861346 -0.011028395 -0.7416121 -0.026063332 0.0071535297 0.044440683 0.003274466 0.02628534
-0.034544658 -0.4347198 -0.060151946 -0.042029217 -0.013439061 -0.052871265 -0.024549983 0.028464053
0.6723027 -0.7990016 -0.01314744 -0.021621697 -0.00036654877 -0.036933962 0.00043457057 0.45411825
-0.009460969 -0.002866622 -0.87563753 -0.028475804 -0.045858152 0.009196732 -0.5324752 0.38531595
-0.025841188 -0.06964522 -0.33879343 -0.017670507 0.005045933 -0.5108004 0.670422 -0.013198147
0.46318612 -0.54165024 0.044380035 0.019529494 -0.6184839 0.069170564 -0.025548963 -0.03759598
-0.011404197 0.6384474 -0.5709117 -0.06219153 0.03987008 -0.01801562 0.00013582672 0.4819295
-0.007951844 0.3621533 0.012751193 -0.50454783 -0.03653812 -0.83797055 -0.04692335 -0.10846226
-0.05063984 0.073025025 -0.5725384 0.07914833 0.64046067 0.011321923 0.009883438 -0.010955011
-0.00014145268 0.02923585 0.00012083934 -0.0068960064 -0.4090037 0.005869804 0.04755662 0.5107581
-0.042673398 0.026286615 -0.47781986 0.022947418 -0.02097533 -0.52846396 0.03876609 -0.04285624
0.06616211 0.0021182492 -0.010312665 -0.011919293 0.01831817 -0.028661067 0.04056612 0.49822116
-0.019312695 -0.25507292 -0.041650537 -0.034361307 -0.5588492 -0.05201158 -0.3643976 0.013338335
0.5204022 0.01448677 0.031499315 0.022847565 0.03992766 0.014875385 0.54210085 0.021912374
0.0115824845 0.049351808 -0.0072007775 -0.020368861 0.24407977 -0.0026845858 0.53403026 -0.23143022
-0.026778812 0.52678126 0.44244602 0.0054438915 0.041766234 -0.6346617 -0.0013570088 0.043339983
0.011380643 -0.3621114 0.0043500857 -0.029379753 -0.0025981783 -0.024151068 -0.6000847 0.047346786
-0.050826155 0.02359851 0.022365594 -1.0126088 -0.004512802 -0.045464687 -0.4732693 0.026985126
-0.016650131 0.4760612 0.5332621 0.015958777 -0.01563514 0.03474314 0.030634379 -0.035441495
-0.02232671 0.033441253 -0.027465556 0.042873003 0.01367057 0.0095261745 -0.06406094 0.04243046
-0.79328066 -0.0293275 0.054654945 0.012035988 -0.014046049 0.049554683 -0.0007094698 -0.008910969
0.016651107 0.0010189462 0.027458651 -0.015935058 -0.046706382 0.0061373287 -0.021703696 -0.0003857536
0.0028226697 -0.05549732 -0.7083691 -0.010918922 0.03367212 0.22813955 -0.36932096 -0.004158928
0.026213307 -0.008220115 -0.011552485 -0.028556203 -0.032324795 -0.61748624 0.003473475 -0.41595238
-0.04332612 -0.048148423 0.0045862305 -0.41535172 -0.6243632 -0.032542545 0.41923037 -0.0088748885
0.52084905 -0.0145276645 -0.041769743 -0.07687519 0.017191365 0.0602629 0.45154276 0.5992458

weight_logvar f4 [2, 512]
00000000: d3ab a9c0 3ee3 d7c0 1002 4ec0 1002 4ec0
00000010: 1002 4ec0 1002 4ec0 ed0c efc0 1002 4ec0
00000020: 1002 4ec0 1002 4ec0 20e1 d0c0 1002 4ec0
00000030: 1002 4ec0 1002 4ec0 1002 4ec0 1002 4ec0
00000040: 5a30 c4c0 1002 4ec0 b2b3 73c0 1002 4ec0
00000050: 1002 4ec0 1002 4ec0 1002 4ec0 1002 4ec0
00000060: 1002 4ec0 1002 4ec0 1002 4ec0 1002 4ec0
00000070: 1002 4ec0 f36f d0c0 ca87 d0c0 1002 4ec0
00000080: 7629 e4c0 1002 4ec0 1002 4ec0 c55a dcc0
00000090: 1002 4ec0 79e1 b9c0 1002 4ec0 1002 4ec0
000000a0: 4206 9fc0 7e39 bfc0 92ee d0c0 1002 4ec0
000000b0: 1002 4ec0 1002 4ec0 a1ee 00c1 1002 4ec0
000000c0: f476 c0c0 1002 4ec0 6f31 fcc0 1002 4ec0
000000d0: 1002 4ec0 1002 4ec0 1002 4ec0 1002 4ec0
000000e0: 1002 4ec0 7f8c d3c0 1002 4ec0 1002 4ec0
000000f0: 1002 4ec0 1002 4ec0 1002 4ec0 1002 4ec0
00000100: a7f6 dfc0 71bc d2c0 1002 4ec0 1002 4ec0
00000110: 1002 4ec0 1002 4ec0 1002 4ec0 bea0 d4c0
00000120: 1002 4ec0 1002 4ec0 f790 d4c0 1002 4ec0
00000130: 1002 4ec0 1002 4ec0 6710 92c0 29e7 e9c0
00000140: 1002 4ec0 1002 4ec0 3519 dcc0 1002 4ec0
00000150: 1002 4ec0 8527 ddc0 9c66 d0c0 1002 4ec0
00000160: a0c9 c0c0 c643 c0c0 1002 4ec0 1002 4ec0
00000170: 5338 ebc0 1002 4ec0 1002 4ec0 1002 4ec0
00000180: 1002 4ec0 e47b d9c0 3e32 6fc0 1002 4ec0
00000190: 1002 4ec0 1002 4ec0 1002 4ec0 9ae2 c4c0
000001a0: 1002 4ec0 3230 b2c0 1002 4ec0 23c5 c5c0
000001b0: 1002 4ec0 1089 c4c0 1002 4ec0 1002 4ec0
000001c0: 1002 4ec0 1002 4ec0 a383 e3c0 2c25 74c0
000001d0: 6680 dec0 1002 4ec0 1002 4ec0 1002 4ec0
000001e0: 1002 4ec0 1002 4ec0 1002 4ec0 1002 4ec0
000001f0: aa34 b8c0 1002 4ec0 1002 4ec0 d027 bdc0
00000200: 1002 4ec0 1002 4ec0 0d31 a3c0 1002 4ec0
00000210: 1002 4ec0 ee0e f4c0 1002 4ec0 1002 4ec0
00000220: 1002 4ec0 1002 4ec0 1002 4ec0 1002 4ec0
00000230: 1002 4ec0 1002 4ec0 1002 4ec0 40b0 a8c0
00000240: 1002 4ec0 fb87 d0c0 1002 4ec0 1002 4ec0
00000250: ceba bac0 1002 4ec0 09be bac0 1002 4ec0
00000260: e48d afc0 1002 4ec0 1002 4ec0 1002 4ec0
00000270: 1002 4ec0 1002 4ec0 ac8c a0c0 1002 4ec0
00000280: 1002 4ec0 1002 4ec0 1002 4ec0 1002 4ec0
00000290: fbf4 57c0 1002 4ec0 75f3 9dc0 1002 4ec0
000002a0: 1002 4ec0 8456 cdc0 2497 cfc0 1002 4ec0
000002b0: 1002 4ec0 1b9a adc0 1002 4ec0 1002 4ec0
000002c0: 1002 4ec0 eacd 7bc0 1002 4ec0 1002 4ec0
000002d0: 1002 4ec0 1002 4ec0 43fb e4c0 1002 4ec0
000002e0: 1002 4ec0 1002 4ec0 1002 4ec0 466f a8c0
000002f0: 1002 4ec0 1002 4ec0 1bb6 69c0 1002 4ec0
00000300: 1002 4ec0 93b9 cdc0 6dcb dfc0 1002 4ec0
00000310: 1002 4ec0 1002 4ec0 1002 4ec0 1002 4ec0
00000320: 1002 4ec0 1002 4ec0 1002 4ec0 1002 4ec0
00000330: 1002 4ec0 1002 4ec0 1002 4ec0 1002 4ec0
00000340: dc9d eac0 1002 4ec0 1002 4ec0 1002 4ec0
00000350: 1002 4ec0 1002 4ec0 1002 4ec0 1002 4ec0
00000360: 1002 4ec0 1002 4ec0 1002 4ec0 1002 4ec0
00000370: 1002 4ec0 1002 4ec0 1002 4ec0 1002 4ec0
00000380: 1002 4ec0 1002 4ec0 c505 e1c0 1002 4ec0
00000390: 1002 4ec0 982c e0c0 fb8d c4c0 1002 4ec0
000003a0: 1002 4ec0 1002 4ec0 1002 4ec0 1002 4ec0
000003b0: 1002 4ec0 4d4f ddc0 1002 4ec0 f170 e1c0
000003c0: 1002 4ec0 1002 4ec0 1002 4ec0 1a56 a1c0
000003d0: fd44 84c0 1002 4ec0 21fa dfc0 1002 4ec0
000003e0: 620c a7c0 1002 4ec0 1002 4ec0 1002 4ec0
000003f0: 1002 4ec0 1002 4ec0 644e cec0 fd33 e2c0
-5.3022246 -6.7464895 -3.218876 -3.218876 -3.218876 -3.218876 -7.470328 -3.218876
-3.218876 -3.218876 -6.527481 -3.218876 -3.218876 -3.218876 -3.218876 -3.218876
-6.1309023 -3.218876 -3.8078427 -3.218876 -3.218876 -3.218876 -3.218876 -3.218876
-3.218876 -3.218876 -3.218876 -3.218876 -3.218876 -6.5136657 -6.516576 -3.218876
-7.130061 -3.218876 -3.218876 -6.8860803 -3.218876 -5.8087735 -3.218876 -3.218876
-4.969514 -5.975768 -6.5291224 -3.218876 -3.218876 -3.218876 -8.058259 -3.218876
-6.0145206 -3.218876 -7.8810344 -3.218876 -3.218876 -3.218876 -3.218876 -3.218876
-3.218876 -6.6109004 -3.218876 -3.218876 -3.218876 -3.218876 -3.218876 -3.218876
-6.998859 -6.585503 -3.218876 -3.218876 -3.218876 -3.218876 -3.218876 -6.644622
-3.218876 -3.218876 -6.642696 -3.218876 -3.218876 -3.218876 -4.5645022 -7.309468
-3.218876 -3.218876 -6.878077 -3.218876 -3.218876 -6.911074 -6.5125256 -3.218876
-6.0246124 -6.008273 -3.218876 -3.218876 -7.3506255 -3.218876 -3.218876 -3.218876
-3.218876 -6.7963734 -3.7374415 -3.218876 -3.218876 -3.218876 -3.218876 -6.1526613
-3.218876 -5.568383 -3.218876 -6.1803145 -3.218876 -6.1417313 -3.218876 -3.218876
-3.218876 -3.218876 -7.109819 -3.8147688 -6.9531736 -3.218876 -3.218876 -3.218876
-3.218876 -3.218876 -3.218876 -3.218876 -5.7564287 -3.218876 -3.218876 -5.91111
-3.218876 -3.218876 -5.0997376 -3.218876 -3.218876 -7.6268225 -3.218876 -3.218876
-3.218876 -3.218876 -3.218876 -3.218876 -3.218876 -3.218876 -3.218876 -5.271515
-3.218876 -6.516599 -3.218876 -3.218876 -5.8353033 -3.218876 -5.8356977 -3.218876
-5.4860706 -3.218876 -3.218876 -3.218876 -3.218876 -3.218876 -5.017172 -3.218876
-3.218876 -3.218876 -3.218876 -3.218876 -3.3743274 -3.218876 -4.935969 -3.218876
-3.218876 -6.416811 -6.4872 -3.218876 -3.218876 -5.4250617 -3.218876 -3.218876
-3.218876 -3.934443 -3.218876 -3.218876 -3.218876 -3.218876 -7.1556716 -3.218876
-3.218876 -3.218876 -3.218876 -5.263583 -3.218876 -3.218876 -3.6517398 -3.218876
-3.218876 -6.428903 -6.9935822 -3.218876 -3.218876 -3.218876 -3.218876 -3.218876
-3.218876 -3.218876 -3.218876 -3.218876 -3.218876 -3.218876 -3.218876 -3.218876
-7.33177 -3.218876 -3.218876 -3.218876 -3.218876 -3.218876 -3.218876 -3.218876
-3.218876 -3.218876 -3.218876 -3.218876 -3.218876 -3.218876 -3.218876 -3.218876
-3.218876 -3.218876 -7.0319543 -3.218876 -3.218876 -7.0054436 -6.1423316 -3.218876
-3.218876 -3.218876 -3.218876 -3.218876 -3.218876 -6.9159303 -3.218876 -7.045037
-3.218876 -3.218876 -3.218876 -5.0417604 -4.1334214 -3.218876 -6.9992833 -3.218876
-5.2202616 -3.218876 -3.218876 -3.218876 -3.218876 -3.218876 -6.447069 -7.068846

bias_mu f4 [2]
00000000: cb4e 2440 05a8 24c0
2.5673091 -2.572755

bias_logvar f4 [2]
00000000: d49e e5c0 c844 e3c0
-7.175638 -7.102146
