metric/simple_probe_teacher_2000_seed0.pth (torch, 16919 bytes, 6 tensors)

z_mu f4 [512]
00000000: f0f4 f339 0437 f63e d63f 6a3a a7fa 92ba
00000010: 5d08 1db8 184c 44b9 2fb7 c63f 2817 87ba
00000020: 19f8 903a ead3 81b9 ca2f 52bb f471 3536
00000030: ce27 12bc 4735 1c3b 5699 813f fa3c 9d3f
00000040: 959f 613a 52c4 c03f 09b8 283b 1840 c8b9
00000050: fdbe 75b9 3ea2 103c 6157 4237 2410 11bc
00000060: f024 173c c317 4bb9 7310 b8b6 a601 1f3a
00000070: e15a 0bbc 35d4 ce3a de78 0538 a4dc 30b9
00000080: dd3d a0b9 6a4c e0ba cd00 31b9 6140 efba
00000090: 2056 2aba 64ee 843a 6ffa ec39 79ea ef3b
000000a0: 7cc4 4f40 3433 a53b 6b7a 2db9 79aa 25ba
000000b0: e50f fd3a 3fdd 9bba e64a 08b9 db12 6a3a
000000c0: 83b2 8dbb 920b 413b 8e35 e63a d16c 0f3b
000000d0: a1a5 8e3c 0218 023b a150 68b8 18a2 903f
000000e0: cf6a d1bb cbdc 093a b4ff feba 7323 e838
000000f0: c187 593a 0e04 cbba b3b2 323f dc47 3fb8
00000100: 287c 80b9 dc79 8ebb 47e6 af39 d40a 863b
00000110: ffd4 0b3a 1837 86ba c1cd e13a 2f9f c437
00000120: e472 4839 8a59 3b3f 59c4 a43a f629 9bbb
00000130: ed78 733a 1a0b 1c3a 477e 33bb 8485 9f3a
00000140: 842d ff3b cf08 46ba a7b8 0bbc 5d2b fdba
00000150: 7edc 2039 8876 383f 786f d1ba 41ad 483a
00000160: 6def 1f3c 4624 4539 cb80 8dba ed28 cd38
00000170: 9ecd b93b 7c46 e0bb 7ebf 663f 71e6 f73d
00000180: 6c6f 8e3a 357d 203d 1559 01bc 939c 8b38
00000190: 2765 923e fd2e f7ba 1425 f43f 487e 29bb
000001a0: e08a 54ba 27e3 2fb9 f7bd 0240 f73a 1a3e
000001b0: ea82 283a 7631 0a39 272f 14b9 5e9e 3eba
000001c0: 9ef1 d6b8 e1b2 33bc 001e c03b f1ee a2ba
000001d0: c2ab 5dbb f587 11ba 2421 8fba 80be 33bc
000001e0: 53ab 84bb 3ab8 a338 4f1a b1b8 7e2a 1440
000001f0: 2695 613f 92f5 29bb 896d 8039 3aab 113a
00000200: 5bbe 4d3b d06d a0b9 980a 9bb9 daa7 3eb9
00000210: 2d70 6aba 4ecf ff3c 46cb 0140 4ecd 2f40
00000220: e6cc bcb9 379a 2340 3ee1 e53a 38ac 043c
00000230: ac5b 9639 d925 feb8 18b4 a2ba ce42 fc3f
00000240: 78a3 6cba 8f4b fc3a c519 4e3b cbf9 9f3a
00000250: 2a49 bfba 2860 3039 e045 00ba 734f f4ba
00000260: 9c5b 4fba 698d c63f 93b2 de39 dfd7 89ba
00000270: 5716 103c 384b 4f3f 9f09 9e39 dc9e 9bbc
00000280: e25a e437 2bb5 c937 bb2f bebc 3987 203a
00000290: 68f3 a23f 99f9 6b3b 07f2 9a3b f245 2b40
000002a0: e94b fa38 4c9c 3e36 bd6a d238 aca0 3abb
000002b0: b8d8 2b3f 4202 103a 9e06 ff39 8031 86ba
000002c0: cabd 93b9 0c1f 933f 8d41 b139 95b2 19b8
000002d0: db9e a63c 0528 27b7 3b8c 8939 eb23 bbb9
000002e0: 66dc 923b 43a7 5d40 4033 13b8 2644 e53f
000002f0: b1ae 9cb9 5e4b a3b9 1caa 843f 2fb2 78bb
00000300: 1b53 ed3e 4310 ac38 4500 59bb d2a9 b6ba
00000310: e396 ea3c bcf4 dc39 73cc b93b a69f 2440
00000320: 8260 0bba 65ea ddbb bdbd ccbb 2344 b1b9
00000330: afc2 933c a7fe 75b8 b4df 24ba 79e0 b8bb
00000340: af3e 8bb9 5709 b23a d7d5 c93f 6c3b 3e3b
00000350: b76f 8239 2930 fd38 9182 27bb 9c10 2d40
00000360: 0358 f439 5ca5 c03f 7819 31bc a842 ee3a
00000370: e7fa c93f a358 80bb 4523 143b 67aa 1938
00000380: 889f a03f 548a 963c e50d f93b 7b37 89ba
00000390: d6bc 90b8 ec66 79b9 40c3 ab3b 9978 d4b8
000003a0: bd8a a4bb e785 5c3a 5ee9 773a 2330 c03a
000003b0: 56a3 4940 7971 0b3d 613f ac3a c941 0240
000003c0: 98e4 4339 caa6 37bb 72ef 1139 6d9a e4ba
000003d0: 3436 da3f 1b9b a63d 925e 9ebb eba9 933b
000003e0: d0cc 423a e883 b239 d93b c63f 75e7 1aba
000003f0: 4c76 513a c410 f53f 676f 853b 6e18 8736
0.00046531064 0.4808885 0.0008935904 -0.0011213616 -3.7439506e-05 -0.00018720364 1.5524653 -0.0010306584
0.0011060267 -0.00024762686 -0.0032071942 2.7037431e-06 -0.008920623 0.0023835467 1.012492 1.2284234
0.00086068484 1.5059912 0.002574446 -0.00038194726 -0.0002343617 0.008827744 1.1583646e-05 -0.008853946
0.009225115 -0.0001936844 -5.4855423e-06 0.0006065614 -0.008505554 0.0015779795 3.1822237e-05 -0.00016866863
-0.0003056367 -0.0017112617 -0.00016880334 -0.0018253439 -0.0006497819 0.0010141847 0.00045200015 0.0073216525
3.2463675 0.0050415043 -0.0001654417 -0.0006319653 0.0019307105 -0.0011891498 -0.00012997873 0.0008929201
-0.004324259 0.002945636 0.0017563568 0.0021884928 0.017412962 0.0019850736 -5.5388202e-05 1.1299467
-0.0063909064 0.0005259036 -0.0019454868 0.00011069225 0.0008298122 -0.0015488879 0.69803923 -4.5604873e-05
-0.00024506566 -0.004348023 0.0003355017 0.0040906463 0.0005334168 -0.0010239808 0.0017227457 2.3439146e-05
0.00019116286 0.731835 0.0012570723 -0.0047352267 0.00092877337 0.0005952582 -0.00273885 0.0012170528
0.0077874083 -0.0007554413 -0.008527911 -0.0019315291 0.00015340929 0.72055864 -0.0015978655 0.00076552114
0.009761673 0.00018800897 -0.001079583 9.782785e-05 0.0056702634 -0.00684434 0.90135944 0.121045
0.0010866947 0.039181907 -0.007894774 6.657201e-05 0.28592798 -0.0018858608 1.9073815 -0.0025862623
-0.0008107852 -0.00016773921 2.0428445 0.15061556 0.0006428199 0.00013179131 -0.00014131945 -0.00072715234
-0.0001024932 -0.010967941 0.0058629513 -0.0012430829 -0.00338243 -0.000555157 -0.0010919911 -0.010970712
-0.0040487438 7.8067606e-05 -8.444918e-05 2.3150935 0.8811821 -0.0025933725 0.00024495673 0.0005556826
0.0031393978 -0.00030599395 -0.00029571797 -0.00018182342 -0.0008943107 0.03122678 2.0280318 2.7469058
-0.00036010816 2.5562875 0.0017538441 0.008097701 0.0002867853 -0.000121187135 -0.0012413291 1.9707887
-0.0009027044 0.0019248592 0.0031448465 0.0012205181 -0.0014593948 0.00016820489 -0.00048932247 -0.00186394
-0.0007910074 1.5511905 0.00042476188 -0.0010516605 0.008794389 0.8097415 0.00030143277 -0.018996648
2.7222039e-05 2.404543e-05 -0.023216119 0.00061236654 1.2730532 0.0036006926 0.004728559 2.6761441
0.00011935068 2.8403183e-06 0.00010033462 -0.0028477116 0.6712756 0.00054935005 0.0004864232 -0.0010238141
-0.0002817943 1.149385 0.0003380891 -3.664436e-05 0.02033942 -9.963293e-06 0.00026235156 -0.0003569418
0.00448184 3.4633338 -3.509526e-05 1.7911422 -0.00029884794 -0.00031145936 1.0364413 -0.0037948003
0.46352467 8.204628e-05 -0.0033111733 -0.0013936108 0.028636402 0.0004214401 0.005670124 2.5722442
-0.000531681 -0.006772327 -0.0062482045 -0.00033810837 0.018037168 -5.8649715e-05 -0.0006289438 -0.0056419936
-0.0002655885 0.0013583106 1.5768384 0.0029027117 0.00024878766 0.000120729506 -0.0025560001 2.7041388
0.0004660488 1.5050464 -0.010809295 0.0018177824 1.5779694 -0.0039168163 0.002260403 3.6636742e-05
1.2548685 0.018376507 0.0076005333 -0.0010468805 -6.9016285e-05 -0.00023784832 0.0052417815 -0.00010131411
-0.0050214217 0.0008412287 0.00094570767 0.0014662783 3.1505942 0.034043763 0.0013141447 2.0352652
0.00018681807 -0.0028022998 0.00013917478 -0.0017441042 1.7047791 0.08135053 -0.004833051 0.00450634
0.0007431032 0.00034049083 1.5487014 -0.00059091236 0.0007990345 1.9145741 0.004072118 4.0261575e-06

z_logvar f4 [512]
00000000: 229a efc0 9d26 c9bf 98d4 f9c0 ae06 8ec0
00000010: c458 a4c0 667c edc0 daa5 1dc0 2ef5 dac0
00000020: 57ad a7c0 0b46 d5c0 6cb9 8cc0 92f9 ebc0
00000030: 6d05 9ac0 8d77 a1c0 84ef 56c0 6b85 87c0
00000040: 3d1a f8c0 1889 98c0 c950 77c0 5893 01c1
00000050: 8730 e0c0 bb58 9fc0 4392 e2c0 2e08 60c0
00000060: afb4 95c0 da9a a4c0 7872 c8c0 08b8 e9c0
00000070: c993 31c0 3fd3 5ac0 4936 ddc0 ef66 e8c0
00000080: ec1d dbc0 0984 a3c0 1633 bdc0 0960 99c0
00000090: 6302 c6c0 950e dbc0 7325 aec0 97e5 acc0
000000a0: 1e41 9cc0 edeb c7c0 d685 bbc0 bd3f e5c0
000000b0: 86d5 dcc0 6147 d0c0 bd3b ecc0 b7a3 e1c0
000000c0: f688 a5c0 c37a a3c0 e7c6 8dc0 362f bfc0
000000d0: 6cb0 89c0 e2f8 e0c0 ab4f 83c0 45ba 36c0
000000e0: f661 60c0 4c40 bec0 d2d1 c9c0 6423 bfc0
000000f0: bc97 dec0 9ce8 e7c0 998f bebf 3817 e7c0
00000100: 1028 bbc0 03e6 82c0 be6d acc0 566c e1c0
00000110: ff75 e3c0 71f6 e4c0 6916 cbc0 8ac9 ecc0
00000120: 8723 e6c0 b565 86c0 6920 d5c0 163f 87c0
00000130: 7824 dbc0 f54d d8c0 b710 e7c0 a496 e7c0
00000140: 9a0c 8ac0 3afd b1c0 9219 5fc0 bc43 bec0
00000150: 48e1 8fc0 4eca 42c0 5f91 92c0 aa2d ddc0
00000160: a179 06c0 e8b0 ddc0 a7d0 a4c0 45cf c5c0
00000170: eca2 5cc0 6d3b e3bf 6cc9 d7bf 3acf 7ebf
00000180: 1744 dfc0 686f 85c0 a3e1 6ec0 e118 cdc0
00000190: d42b ccbf 2940 c6c0 a34f 41c0 51ee 41c0
000001a0: 0618 dac0 f048 acc0 444e 87c0 0abc a7bf
000001b0: 0214 bec0 ec34 f0c0 08bb c9c0 5962 79c0
000001c0: 0536 b8c0 acac 7fc0 ceb2 80c0 eab8 5bc0
000001d0: c2ea b0c0 01a9 f3c0 168f ebc0 b75c bcc0
000001e0: 38d1 8cc0 57e0 cac0 bb26 dcc0 a5bd 8cc0
000001f0: 51fd 4cc0 aafe bfc0 3710 e4c0 d661 c6c0
00000200: 7605 9ebf d3d2 abc0 977a b8c0 227d eac0
00000210: a8c4 d9c0 f054 43bf 31b9 8ac0 9405 75bf
00000220: 44d7 f2c0 a515 1fc0 4a8d 72c0 6319 c2c0
00000230: e31f d9c0 e723 e8c0 7ac5 e5c0 49f6 febf
00000240: 20ea cac0 9847 ddc0 3c8c 95c0 2927 a7c0
00000250: 38d5 cbc0 93a5 f1c0 9a7a a9c0 279f e1c0
00000260: 7bef a8c0 7473 47bf e062 f9c0 b0f9 ecc0
00000270: 4124 15c0 0359 6fc0 82e8 9fc0 dbee 3bc0
00000280: f7ec e7c0 bfc9 bec0 ba0b c4bf fe08 9fc0
00000290: 3462 c5be 1756 3cc0 13e6 a4c0 7063 83c0
000002a0: 3eef dac0 a97f ebc0 13ef e9c0 b473 d5c0
000002b0: bef4 20c0 99ce 97c0 84cf cdc0 2c9f c0c0
000002c0: aa3a cdc0 0d3a 0ac0 7a97 c7c0 6550 e5c0
000002d0: 1140 24c0 35f3 e8c0 830e dfc0 caac e9c0
000002e0: 1ba0 aec0 0f70 72bf e82d f8c0 9050 67c0
000002f0: b250 5ec0 d017 d3c0 e748 04c0 1066 84c0
00000300: 983c 5ebf 6d7c 99c0 7a3b 9ac0 e021 b7c0
00000310: 312b 24c0 ee94 dac0 79ba 86c0 a223 2ac0
00000320: 54a5 cec0 02ec a3c0 9758 99c0 4597 f2c0
00000330: 800a 0ec0 91b0 85c0 eaae eec0 7573 a9c0
00000340: 45a1 7cc0 7896 b7c0 336b 88c0 094d 8dc0
00000350: dce1 c9c0 8cdd eec0 3ccd f9c0 f4bd 89bf
00000360: d7b4 b2c0 6ba1 88c0 f755 24c0 ae87 94c0
00000370: ed68 fabf f370 c8c0 123b 89c0 81c9 9bc0
00000380: a031 8fc0 8e34 55c0 d668 bcc0 3c8c d1c0
00000390: 74be f5c0 bd3d dfc0 ccdf bcc0 86e9 bec0
000003a0: 03e7 b6c0 a63c c0c0 b0bc abc0 234c e6c0
000003b0: d452 02c0 7292 dabf 0347 d4c0 887a 80c0
000003c0: ebae eec0 d224 ecc0 16cc a5c0 71ca c5c0
000003d0: 9c0b 2bc0 f5f0 0dc0 8615 d7c0 0d42 b0c0
000003e0: f396 c7c0 8344 6bc0 1f63 4cbf 9875 c4c0
000003f0: 4b76 d1c0 1fb7 e2bf 64b8 89c0 38d3 8bc0
-7.487565 -1.5714909 -7.8072014 -4.4383154 -5.1358356 -7.4214354 -2.4632478 -6.842429
-5.2399096 -6.6648 -4.3976345 -7.374215 -4.8131623 -5.0458436 -3.3583689 -4.2350364
-7.753203 -4.766735 -3.8643057 -8.098473 -7.0059237 -4.9795814 -7.080354 -3.5004992
-4.678306 -5.143903 -6.263973 -7.3037148 -2.774645 -3.4191434 -6.9128766 -7.262565
-6.8474026 -5.1098676 -5.912486 -4.792973 -6.1877913 -6.84553 -5.4420714 -5.403026
-4.882949 -6.2475495 -5.8600874 -7.1640306 -6.901065 -6.5087132 -7.3822923 -7.0512347
-5.172969 -5.1087356 -4.43053 -5.974513 -4.302786 -7.030381 -4.103475 -2.855119
-3.505979 -5.9453487 -6.306863 -5.97307 -6.9560223 -7.2471447 -1.4887573 -7.2215843
-5.8486404 -4.0905776 -5.3883963 -7.0444746 -7.108154 -7.155083 -6.3464856 -7.399602
-7.191837 -4.1999154 -6.6602063 -4.226451 -6.8482018 -6.7595162 -7.2207904 -7.2371387
-4.3140383 -5.5621614 -3.4859357 -5.9457684 -4.49625 -3.0435977 -4.5802455 -6.911824
-2.1011736 -6.927845 -5.1504703 -6.1815515 -3.447444 -1.775251 -1.6858344 -0.9953495
-6.9770617 -4.1698494 -3.7325218 -6.409287 -1.5950875 -6.195332 -3.0204856 -3.0301707
-6.8154325 -5.3839035 -4.228304 -1.310426 -5.9399424 -7.50646 -6.304081 -3.8966277
-5.756594 -3.994914 -4.0218267 -3.4331613 -5.528657 -7.6143804 -7.3612165 -5.8863177
-4.4005394 -6.339885 -6.879728 -4.39815 -3.2029612 -5.999837 -7.1269794 -6.199443
-1.2345417 -5.3694854 -5.7649646 -7.327775 -6.805256 -0.7630148 -4.3351064 -0.95711637
-7.5887775 -2.485696 -3.7898736 -6.065599 -6.7851424 -7.2543826 -7.180356 -1.991891
-6.3410797 -6.9149895 -4.6733685 -5.2235303 -6.3697777 -7.5514617 -5.296216 -7.050678
-5.2792335 -0.7791054 -7.7933197 -7.4054794 -2.3303378 -3.7398078 -4.9971323 -2.9364536
-7.2476764 -5.962127 -1.5316079 -4.9698477 -0.38551486 -2.9427545 -5.153085 -4.1058884
-6.8417044 -7.3593335 -7.310434 -6.670374 -2.5149379 -4.7439694 -6.4315815 -6.01943
-6.413411 -2.1597931 -6.237241 -7.166064 -2.5664103 -7.2796884 -6.9705215 -7.3023424
-5.457044 -0.9470224 -7.755604 -3.6142921 -3.4736753 -6.596657 -2.0669496 -4.137459
-0.8681121 -4.7964387 -4.8197603 -5.722885 -2.5651362 -6.83068 -4.210263 -2.6584249
-6.4576817 -5.1225595 -4.792064 -7.5809655 -2.2193909 -4.1778035 -7.458852 -5.295344
-3.947343 -5.737118 -4.263086 -4.4156537 -6.3088207 -7.4645443 -7.806303 -1.0761094
-5.584575 -4.2697043 -2.5677469 -4.6415625 -1.9563271 -6.2637877 -4.2884607 -4.8683476
-4.4748077 -3.3313327 -5.8877974 -6.5483685 -7.6794987 -6.9762864 -5.902319 -5.9660063
-5.7156997 -6.0074034 -5.366783 -7.196794 -2.0363054 -1.7075942 -6.6336684 -4.0149574
-7.4588523 -7.3794947 -5.181163 -6.180962 -2.6725836 -2.2178319 -6.7213774 -5.508063
-6.2371764 -3.6760566 -0.79838747 -6.1393547 -6.54569 -1.7712134 -4.3037586 -4.3695335

weight_mu f4 [2, 512]
00000000: 24c5 563c 7a95 bbbe 7be0 8f3c 4065 143c
00000010: ade0 87bb 6dc0 763c 0af1 013f 65f8 55bc
00000020: 07e1 3b3d 8040 a23c fdaf 233c 9345 d8ba
00000030: 7b1d 5d3d a6e0 a4bc e8a4 6bbf 6e78 3a3f
00000040: c98d 913d 6113 66bf e2ce c4bb 8cb1 a1bb
00000050: 778d 7dbb 92a2 5fbd 86f0 e7b9 e39f 7d3c
00000060: 675a 6dbd 86ed 593b a698 063d 460a af3c
00000070: 6762 503c b5ee 52bc 18cb 943c 948d db3c
00000080: 99a0 313d da96 8539 650a bbba e1ef ec3c
00000090: 031d c7bc d317 e23c 08e3 d13c 69d2 96bd
000000a0: 8311 c23f d61c 87bd 68c2 babb bdf9 babb
000000b0: bf56 a33c cae7 1ebc adad 183c 581b ad3d
000000c0: a63b 343d 82e3 69bc e434 17bd dce5 e23c
000000d0: aa08 c4bd 09bf e73c b4b0 4738 324a 39bf
000000e0: c631 353c 0a37 1d3d 7de7 11bd e230 8fbc
000000f0: 9c99 853c 2921 9cbc 987e 00bf 14eb 74bb
00000100: 443d e4bb 3859 b63c 5500 7cba 6476 e83c
00000110: fa8f 6ebd 48ab 08bd 532e dc3c 22f2 97bb
00000120: 5a06 d6bc 5ef1 38bf 594a 7c3c 12b8 bb3c
00000130: 3125 443c 28b5 5dbc 7bc6 5dbd de32 903c
00000140: 798e 81bd c098 afbc 535d 303d 2a36 d13c
00000150: c64e b23c 958c 0e3f 5099 f43b 8bc8 16bd
00000160: 1560 5bbc ef1c 4cbc ff60 563c f059 f4b8
00000170: f7d2 d2bc 3f5a 653d 7c8f 0bbf c8ea 04be
00000180: d0c0 ae3b f531 3cbe e7d4 9a3d 86e8 44bb
00000190: 742c 97be 060b 693d c3cb 7fbf 0b9c 9e3c
000001a0: a14a 8ebd 3b89 fcbc fd52 99bf fa23 e1bd
000001b0: fa52 34bc b0cc 053c 0fc7 eb3b c2b6 463c
000001c0: 7f45 dbbc 6416 873d b7f8 abbc ea7e b73c
000001d0: 253b 813d 9353 babc 42cf 39bc cf96 0e3e
000001e0: 5acf 093d 4c8e 5fbc 0acd dfbc ecce b7bf
000001f0: 5204 3abf 1611 973d fd1d 903c 8de7 b83a
00000200: 0649 38bd e764 133c fc1d 8cbc 08ca 583d
00000210: 8d49 06bd 37aa 0b3c c2e8 8ebf 4f31 75bf
00000220: 1aa3 793c a79a 8dbf 8e3d 703d caea 7cbd
00000230: 325a 49bc b497 1a3c c356 21bc 0675 69bf
00000240: 786d aebc f89d 18bd a8fa 56bd be30 833d
00000250: 9e04 17bc f601 533c 54fb 103c 687e b23d
00000260: 461d 1abd 6987 29bf ffbf 053d 22c3 1f3d
00000270: 2217 e8bb ea8b 5fbf 51dd 773a 2804 1c3d
00000280: 7e2b 0cbb 5f98 1fbc fcaa 55bd 6005 11bd
00000290: 82a4 1cbf f923 53bc 10fe 01bd 6e49 b0bf
000002a0: 74ef cdbb a3c4 7cbc 7b07 463c 4f86 9cbc
000002b0: 9b80 1ebf 7474 763c d88b ffbc 287f 203d
000002c0: 7f86 7a3c 7285 29bf ffbb 0ebd 4e42 92bb
000002d0: 83a7 07bd 09ed 8fbb 20a4 9dbc 47f4 f9bb
000002e0: 7f9e 87bd ad22 90bf ccf6 0b3d a8b2 8c3f
000002f0: 84c0 443c 8cc8 41bd 6741 213f c548 f93c
00000300: a5bd 233e 3b9c 363c 890c 513c 7649 9f3c
00000310: 6198 993d 2b1e 0d3d a173 813d adf0 98bf
00000320: cbb5 38bc 53b3 953d cca9 f43c ab66 793d
00000330: d206 c9bd 3d66 c13d 83f0 26bd 4210 893d
00000340: fc17 6cbc c923 e8bc f48a 87bf 8033 96ba
00000350: 646d fe3b f2cd 093c cd7a 3bbd 2792 6e3f
00000360: abad 373d 3138 71bf 936c 2d3d f98e 36bc
00000370: 6f62 713f a531 313d 1cb4 ecbc 148e 1a3b
00000380: abf2 283f a830 dbbd ee3b a7bd e3c4 91bb
00000390: ffe7 4f3c 7a15 5c3d e43a ffbc 67d5 4a3d
000003a0: de51 883d bc99 973b f552 64bc 51fb c53c
000003b0: 60f0 b1bf a393 15be 9d28 e6bc b1d8 8dbf
000003c0: 6371 8bbc 8c23 08bd 2be7 a3bb aaa2 8cbd
000003d0: f5fc 88bf b5ed d8bd 3e57 a73d c0f9 5fbd
000003e0: 3203 b0bc cf56 d53c c781 2ebf 7972 0d3d
000003f0: e063 3c3d 60aa 7fbf 6397 3abd 0dc3 233d
0.013108525 -0.3663748 0.017563095 0.009057343 -0.0041466565 0.015060526 0.5075842 -0.01305971
0.0458689 0.019806147 0.009990689 -0.0016500227 0.053983193 -0.020126652 -0.920485 0.7284001
0.071071215 -0.8987332 -0.0060061077 -0.0049344953 -0.0038689056 -0.0545984 -0.00044238957 0.0154800145
-0.057947543 0.0033253147 0.03286042 0.021367203 0.012718773 -0.012874295 0.018163249 0.026800908
0.04336605 0.0002548013 -0.0014270066 0.028922977 -0.024305826 0.02759925 0.025620952 -0.07364351
1.5161594 -0.06597297 -0.0056994446 -0.0057060407 0.019938825 -0.0096988175 0.009318751 0.08452481
0.044002198 -0.0142754335 -0.036915675 0.027697496 -0.09571965 0.028289335 4.7609865e-05 -0.7237884
0.01105923 0.038382567 -0.035621155 -0.017479364 0.016308598 -0.01905878 -0.50193167 -0.0037371563
-0.0069653112 0.02225934 -0.00096130866 0.028376766 -0.058242775 -0.03336647 0.026877558 -0.004637019
-0.026126076 -0.722433 0.015398585 0.02291492 0.011971758 -0.013531961 -0.054144364 0.01760238
-0.06326003 -0.021435142 0.04305775 0.025538523 0.021766078 0.5568326 0.0074645653 -0.036812346
-0.013389607 -0.01245807 0.013084649 -0.00011651579 -0.025735362 0.05599427 -0.54515815 -0.12980187
0.0053330436 -0.18378432 0.07560139 -0.0030045821 -0.29526103 0.05689528 -0.9992029 0.019361516
-0.06947828 -0.030827155 -1.1978451 -0.1099319 -0.011006111 0.008166477 0.0071953605 0.012128534
-0.026766537 0.065960675 -0.02099262 0.022399385 0.06310109 -0.02274493 -0.011340918 0.13924716
0.03364501 -0.013644766 -0.02731945 -1.4360023 -0.7266284 0.07376306 0.017592425 0.0014107093
-0.044991516 0.008996225 -0.017104141 0.052927047 -0.032784987 0.008524469 -1.1164782 -0.95778364
0.01523664 -1.1062821 0.058652453 -0.06174735 -0.012289571 0.009435583 -0.009847346 -0.9119419
-0.021292433 -0.037260026 -0.05248514 0.06405781 -0.009217409 0.0128788855 0.008848984 0.08715516
-0.037625574 -0.66222245 0.032653805 0.039004453 -0.007082836 -0.87322867 0.0009455281 0.0380899
-0.0021388228 -0.009740918 -0.052165017 -0.035405517 -0.6118852 -0.0128869945 -0.031736434 -1.3772409
-0.0062846486 -0.015427741 0.012086744 -0.019107012 -0.61914986 0.015042413 -0.031194612 0.039183766
0.015290855 -0.66219246 -0.034847256 -0.0044634705 -0.033118736 -0.0043922705 -0.0192433 -0.007627997
-0.066220276 -1.1260582 0.03417091 1.0992022 0.01200879 -0.047310397 0.6299042 0.030430207
0.15990312 0.011145647 0.012759336 0.019444209 0.07499767 0.0344526 0.063208826 -1.1948448
-0.011273812 0.07309594 0.029866122 0.060888927 -0.09815754 0.094433285 -0.040756714 0.06692554
-0.014410015 -0.028337376 -1.058928 -0.001145944 0.007764505 0.008410918 -0.04577141 0.9319176
0.044843357 -0.94226366 0.042339873 -0.011142486 0.9429082 0.043260235 -0.028894477 0.002358322
0.6599528 -0.1070264 -0.081657276 -0.0044485196 0.0126895895 0.05373142 -0.03115601 0.049519923
0.0665624 0.004626481 -0.013935794 0.024167689 -1.3901482 -0.146071 -0.028095538 -1.1081754
-0.01702184 -0.033237025 -0.0050019226 -0.06866963 -1.0702196 -0.10592214 0.08170937 -0.05468154
-0.021485899 0.02604237 -0.68166775 0.034532998 0.045993686 -0.99869347 -0.04555453 0.039980937

weight_logvar f4 [2, 512]
00000000: 1002 4ec0 1002 4ec0 1002 4ec0 1002 4ec0
00000010: 1002 4ec0 1002 4ec0 be73 5dc0 1002 4ec0
00000020: 1002 4ec0 1002 4ec0 1002 4ec0 1002 4ec0
00000030: 1002 4ec0 1002 4ec0 9e03 55c0 ce74 94c0
00000040: 1002 4ec0 2c4d a3c0 1002 4ec0 1002 4ec0
00000050: 1002 4ec0 1002 4ec0 1002 4ec0 1002 4ec0
00000060: 1002 4ec0 1002 4ec0 1002 4ec0 1002 4ec0
00000070: 1002 4ec0 1002 4ec0 1002 4ec0 1002 4ec0
00000080: 1002 4ec0 1002 4ec0 1002 4ec0 1002 4ec0
00000090: 1002 4ec0 1002 4ec0 1002 4ec0 1002 4ec0
000000a0: cd61 b4c0 1002 4ec0 1002 4ec0 1002 4ec0
000000b0: 1002 4ec0 1002 4ec0 1002 4ec0 1002 4ec0
000000c0: 1002 4ec0 1002 4ec0 1002 4ec0 1002 4ec0
000000d0: 1002 4ec0 1002 4ec0 1002 4ec0 6838 4ec0
000000e0: 1002 4ec0 1002 4ec0 1002 4ec0 1002 4ec0
000000f0: 1002 4ec0 1002 4ec0 1002 4ec0 1002 4ec0
00000100: 1002 4ec0 1002 4ec0 1002 4ec0 1002 4ec0
00000110: 1002 4ec0 1002 4ec0 1002 4ec0 1002 4ec0
00000120: 1002 4ec0 32e8 78c0 1002 4ec0 1002 4ec0
00000130: 1002 4ec0 1002 4ec0 1002 4ec0 1002 4ec0
00000140: 1002 4ec0 1002 4ec0 1002 4ec0 1002 4ec0
00000150: 1002 4ec0 4281 4ec0 1002 4ec0 1002 4ec0
00000160: 1002 4ec0 1002 4ec0 1002 4ec0 1002 4ec0
00000170: 1002 4ec0 1002 4ec0 1002 4ec0 1002 4ec0
00000180: 1002 4ec0 1002 4ec0 1002 4ec0 1002 4ec0
00000190: 1002 4ec0 1002 4ec0 76ba 62c0 1002 4ec0
000001a0: 1002 4ec0 1002 4ec0 0b49 8ec0 1002 4ec0
000001b0: 1002 4ec0 1002 4ec0 1002 4ec0 1002 4ec0
000001c0: 1002 4ec0 1002 4ec0 1002 4ec0 1002 4ec0
000001d0: 1002 4ec0 1002 4ec0 1002 4ec0 1002 4ec0
000001e0: 1002 4ec0 1002 4ec0 1002 4ec0 6f0f 97c0
000001f0: 8802 4ec0 1002 4ec0 1002 4ec0 1002 4ec0
00000200: 1002 4ec0 1002 4ec0 1002 4ec0 1002 4ec0
00000210: 1002 4ec0 1002 4ec0 3fad 9ec0 1002 4ec0
00000220: 1002 4ec0 f1ff 51c0 1002 4ec0 1002 4ec0
00000230: 1002 4ec0 1002 4ec0 1002 4ec0 1002 4ec0
00000240: 1002 4ec0 1002 4ec0 1002 4ec0 1002 4ec0
00000250: 1002 4ec0 1002 4ec0 1002 4ec0 1002 4ec0
00000260: 1002 4ec0 1002 4ec0 1002 4ec0 1002 4ec0
00000270: 1002 4ec0 7df1 4fc0 1002 4ec0 1002 4ec0
00000280: 1002 4ec0 1002 4ec0 1002 4ec0 1002 4ec0
00000290: 9d07 4ec0 1002 4ec0 1002 4ec0 d9c8 93c0
000002a0: 1002 4ec0 1002 4ec0 1002 4ec0 1002 4ec0
000002b0: 1002 4ec0 1002 4ec0 1002 4ec0 1002 4ec0
000002c0: 1002 4ec0 1002 4ec0 1002 4ec0 1002 4ec0
000002d0: 1002 4ec0 1002 4ec0 1002 4ec0 1002 4ec0
000002e0: 1002 4ec0 1002 4ec0 1002 4ec0 1aa3 7ec0
000002f0: 1002 4ec0 1002 4ec0 1002 4ec0 1002 4ec0
00000300: 1002 4ec0 1002 4ec0 1002 4ec0 1002 4ec0
00000310: 1002 4ec0 1002 4ec0 1002 4ec0 373d 58c0
00000320: 1002 4ec0 1002 4ec0 1002 4ec0 1002 4ec0
00000330: 1002 4ec0 1002 4ec0 1002 4ec0 1002 4ec0
00000340: 1002 4ec0 1002 4ec0 76fd 92c0 1002 4ec0
00000350: 1002 4ec0 1002 4ec0 1002 4ec0 1002 4ec0
00000360: 1002 4ec0 b373 93c0 1002 4ec0 1002 4ec0
00000370: 1002 4ec0 1002 4ec0 1002 4ec0 1002 4ec0
00000380: 7180 a5c0 1002 4ec0 1002 4ec0 1002 4ec0
00000390: 1002 4ec0 1002 4ec0 1002 4ec0 1002 4ec0
000003a0: 1002 4ec0 1002 4ec0 1002 4ec0 1002 4ec0
000003b0: 1002 4ec0 1002 4ec0 1002 4ec0 077f 8fc0
000003c0: 1002 4ec0 1002 4ec0 1002 4ec0 1002 4ec0
000003d0: 2f89 4ec0 1002 4ec0 1002 4ec0 1002 4ec0
000003e0: 1002 4ec0 1002 4ec0 1002 4ec0 1002 4ec0
000003f0: 1002 4ec0 1002 4ec0 1002 4ec0 1002 4ec0
-3.218876 -3.218876 -3.218876 -3.218876 -3.218876 -3.218876 -3.4601893 -3.218876
-3.218876 -3.218876 -3.218876 -3.218876 -3.218876 -3.218876 -3.3283458 -4.6392584
-3.218876 -5.1031704 -3.218876 -3.218876 -3.218876 -3.218876 -3.218876 -3.218876
-3.218876 -3.218876 -3.218876 -3.218876 -3.218876 -3.218876 -3.218876 -3.218876
-3.218876 -3.218876 -3.218876 -3.218876 -3.218876 -3.218876 -3.218876 -3.218876
-5.6369386 -3.218876 -3.218876 -3.218876 -3.218876 -3.218876 -3.218876 -3.218876
-3.218876 -3.218876 -3.218876 -3.218876 -3.218876 -3.218876 -3.218876 -3.2221928
-3.218876 -3.218876 -3.218876 -3.218876 -3.218876 -3.218876 -3.218876 -3.218876
-3.218876 -3.218876 -3.218876 -3.218876 -3.218876 -3.218876 -3.218876 -3.218876
-3.218876 -3.889172 -3.218876 -3.218876 -3.218876 -3.218876 -3.218876 -3.218876
-3.218876 -3.218876 -3.218876 -3.218876 -3.218876 -3.2266393 -3.218876 -3.218876
-3.218876 -3.218876 -3.218876 -3.218876 -3.218876 -3.218876 -3.218876 -3.218876
-3.218876 -3.218876 -3.218876 -3.218876 -3.218876 -3.218876 -3.5426307 -3.218876
-3.218876 -3.218876 -4.4464164 -3.218876 -3.218876 -3.218876 -3.218876 -3.218876
-3.218876 -3.218876 -3.218876 -3.218876 -3.218876 -3.218876 -3.218876 -3.218876
-3.218876 -3.218876 -3.218876 -4.720634 -3.2189045 -3.218876 -3.218876 -3.218876
-3.218876 -3.218876 -3.218876 -3.218876 -3.218876 -3.218876 -4.958648 -3.218876
-3.218876 -3.2812464 -3.218876 -3.218876 -3.218876 -3.218876 -3.218876 -3.218876
-3.218876 -3.218876 -3.218876 -3.218876 -3.218876 -3.218876 -3.218876 -3.218876
-3.218876 -3.218876 -3.218876 -3.218876 -3.218876 -3.2491143 -3.218876 -3.218876
-3.218876 -3.218876 -3.218876 -3.218876 -3.2192147 -3.218876 -3.218876 -4.6182675
-3.218876 -3.218876 -3.218876 -3.218876 -3.218876 -3.218876 -3.218876 -3.218876
-3.218876 -3.218876 -3.218876 -3.218876 -3.218876 -3.218876 -3.218876 -3.218876
-3.218876 -3.218876 -3.218876 -3.978705 -3.218876 -3.218876 -3.218876 -3.218876
-3.218876 -3.218876 -3.218876 -3.218876 -3.218876 -3.218876 -3.218876 -3.3787363
-3.218876 -3.218876 -3.218876 -3.218876 -3.218876 -3.218876 -3.218876 -3.218876
-3.218876 -3.218876 -4.59344 -3.218876 -3.218876 -3.218876 -3.218876 -3.218876
-3.218876 -4.6078734 -3.218876 -3.218876 -3.218876 -3.218876 -3.218876 -3.218876
-5.171929 -3.218876 -3.218876 -3.218876 -3.218876 -3.218876 -3.218876 -3.218876
-3.218876 -3.218876 -3.218876 -3.218876 -3.218876 -3.218876 -3.218876 -4.4842563
-3.218876 -3.218876 -3.218876 -3.218876 -3.227123 -3.218876 -3.218876 -3.218876
-3.218876 -3.218876 -3.218876 -3.218876 -3.218876 -3.218876 -3.218876 -3.218876

bias_mu f4 [2]
00000000: b908 4f40 26bf 4ec0
3.2349074 -3.2304168

bias_logvar f4 [2]
00000000: 9d2e d8c0 bbea d5c0
-6.75569 -6.6849036
