metric/simple_probe_retrain_adam7_seed0.pth (torch, 16927 bytes, 6 tensors)

z_mu f4 [512]
000000 cf 36 4f b9 70 fb a1 ba e4 86 ec 3e 13 bc e6 3a
       -0.00019761476 -0.0012358259 0.46196663 0.0017603658
000010 80 00 40 b9 ad c8 c9 38 9a 7c 51 3f 43 44 50 3b
       -0.00018310733 9.621806e-05 0.8183075 0.0031778968
000020 e5 4c 68 3b 6c 61 01 36 3a 80 e9 3b 94 dd c1 b9
       0.0035446223 1.9279205e-06 0.0071258815 -0.00036976917
000030 9d 52 77 3f ef 6f 3b ba 49 a8 f5 3e 0d 6d b7 ba
       0.9661043 -0.00071501633 0.47979954 -0.0013994292
000040 e1 b2 52 3b 99 3a 43 39 c7 15 ab ba b8 9d 40 39
       0.0032150077 0.00018618478 -0.0013052755 0.00018369302
000050 ed 0e 21 3a 0d a1 56 b8 2b fa c2 3c fe c5 5c 3f
       0.0006143887 -5.1171566e-05 0.02380093 0.8623961
000060 d5 fe 79 b9 3a 86 bd 3c 96 36 97 b9 9d b1 17 3f
       -0.00023841423 0.023135293 -0.00028841634 0.5925539
000070 03 5e f9 b8 5d e8 3e bb 49 b8 c9 ba 20 51 01 40
       -0.00011890756 -0.0029130199 -0.0015390004 2.0205765
000080 00 35 6c 3b ed 76 d7 ba 1f 4b 40 ba 98 7a 45 3a
       0.0036042333 -0.0016438641 -0.00073354127 0.00075332215
000090 63 9a 06 3a a1 d9 1f 3a 43 5b 8b 3f b1 7e dc 3a
       0.00051347 0.0006097798 1.0887226 0.0016822425
0000a0 3c 5b ef ba bb 7d 3a bb 2a a8 c6 ba e3 8a 37 3b
       -0.0018261443 -0.002845629 -0.0015156318 0.0028006367
0000b0 41 67 f1 39 f8 d6 d6 3e bb 08 d5 ba d5 db 2e 3a
       0.00046044032 0.41960883 -0.0016253212 0.0006670331
0000c0 d3 8e 89 3f b3 5a 78 b9 6d 3d 84 3d d9 cc b7 3a
       1.0746711 -0.00023684911 0.064570285 0.0014022841
0000d0 72 96 00 3a 06 31 df b8 b6 5f 3b 3f fe f7 9a 3f
       0.00049052306 -0.000106426 0.7319292 1.2106931
0000e0 cd 82 33 3a c5 ef e3 ba 5d 9a d3 3a 06 22 10 bb
       0.0006847799 -0.0017390182 0.0016144026 -0.0021992936
0000f0 e8 16 01 3a 05 34 55 3b 75 3d ad 3a 01 bf 8c 3f
       0.0004924373 0.0032532227 0.0013217168 1.099579
000100 84 5e a6 39 65 7e 11 39 dc 5c 9c 3f 7e e3 1d 3d
       0.00031732407 0.00013875363 1.2215838 0.03854703
000110 d5 2c a4 b8 a3 65 b7 3a ac bc 1a bb af 67 0e 3b
       -7.82848e-05 0.0013992082 -0.0023610992 0.002172928
000120 6b 99 65 ba 77 e1 63 3f 03 89 c6 3a 57 16 01 39
       -0.0008758518 0.8901591 0.0015147034 0.00012310721
000130 87 14 5c 3a 5e 87 e6 ba 9e 5f 92 39 40 47 94 37
       0.0008395393 -0.001758795 0.0002791853 1.7676153e-05
000140 a4 8e c8 39 84 37 83 3f 52 b1 e1 b9 c6 e2 43 ba
       0.00038253248 1.0251317 -0.00043047458 -0.00074724515
000150 5f 78 49 3a 02 c4 0c bb 62 7c 8e 3f 0f e6 c5 b9
       0.0007685478 -0.0021479134 1.1131709 -0.00037746175
000160 37 a2 a2 3b 84 c0 6b ba 4c ec c3 ba 87 aa 93 ba
       0.004963185 -0.00089932256 -0.0014947741 -0.0011266031
000170 95 e8 0a bb 58 5e 8f ba d7 dc 76 b9 14 2d f3 3a
       -0.0021195759 -0.0010938151 -0.00023542657 0.0018552863
000180 7b 98 c5 39 d6 a8 26 ba 96 be a5 39 c2 d2 4b 3f
       0.00037688375 -0.0006357556 0.0003161325 0.79618466
000190 cb df 19 3b d5 bf c5 b8 f4 94 04 3f 2f f4 3c 3f
       0.0023479338 -9.4294235e-05 0.51789784 0.73810095
0001a0 bd 44 75 3a df ee 71 ba fa dd 18 b9 7c 49 b9 3f
       0.0009356251 -0.0009229015 -0.00014578542 1.4475551
0001b0 15 d3 40 3b 45 c3 5a 3a 21 5c c2 39 67 f6 4d 3b
       0.002942269 0.00083451375 0.00037071205 0.0031427385
0001c0 27 36 4d 3a 1d 5d 25 ba 6d 61 8a ba 7c 85 9d b9
       0.0007828199 -0.00063081254 -0.00105576 -0.00030044827
0001d0 29 eb ba 37 bf 2a fe b9 53 23 81 3f 69 6d 07 ba
       2.2282433e-05 -0.00048478504 1.0088905 -0.00051661447
0001e0 f7 a9 8c 3f 53 0b 16 ba b7 6a 0c 3a 88 5a 3b ba
       1.0989369 -0.00057237333 0.0005356478 -0.0007146974
0001f0 f9 c8 79 3f 46 2c 69 3f 05 50 b5 ba 99 b7 8a 3b
       0.97572285 0.9108318 -0.0013833052 0.0042333123
000200 f0 32 b7 ba cc 3b 0c ba 45 45 68 3b 7c 32 8a 3f
       -0.0013976973 -0.00053494866 0.0035441678 1.0796657
000210 69 30 0f 3f ea 11 8a 3a 45 f3 ef 3e cf 8e 69 3f
       0.55933243 0.0010533903 0.46865287 0.91233534
000220 68 f4 67 ba b8 ec 13 b9 f9 75 95 3f 95 9c ca b9
       -0.000884837 -0.00014107197 1.1676627 -0.00038645105
000230 d8 36 35 ba 52 1b ff 3a fc 35 9a 38 e1 1f a7 3f
       -0.00069127744 0.0019463098 7.3533476e-05 1.3056604
000240 42 c0 0c b8 eb f2 d2 b9 c1 5e 8b b9 a6 36 35 3a
       -3.3557655e-05 -0.0004023531 -0.00026582743 0.00069127453
000250 fb 2a 19 39 ba b3 4f 39 19 0a cf b8 e2 38 91 ba
       0.00014607229 0.00019808012 -9.87241e-05 -0.0011079574
000260 d9 bd 25 ba 73 99 bc ba 50 70 dc b9 95 98 1a ba
       -0.000632254 -0.0014388993 -0.0004204535 -0.000589737
000270 d6 d1 c2 3b fc 3a a0 3a 79 ae d3 39 5e 34 ea b9
       0.0059454245 0.001222461 0.00040375048 -0.00044670975
000280 a6 e3 37 bb ea 7b e5 3f 26 72 17 3a 18 32 08 3b
       -0.0028059273 1.792844 0.00057772023 0.0020781811
000290 53 37 b1 ba 5d b1 89 ba 78 a8 52 39 1d eb 38 3b
       -0.0013520516 -0.0010505129 0.0002008992 0.002821631
0002a0 b1 69 52 3f ec 1f 69 3b 1c fc b4 ba 2a 7b 85 b9
       0.8219252 0.0035572005 -0.0013808045 -0.000254595
0002b0 d6 2c 75 3f 55 0b d2 3f 63 65 86 3f de 6b fc b9
       0.9577154 1.6409708 1.0499691 -0.00048145553
0002c0 d4 07 59 3b 85 ea 80 3f 80 69 82 3f 33 97 93 3f
       0.0033116238 1.007157 1.0188446 1.1530517
0002d0 92 26 be 3f 7a 5f 25 bb fa a4 3c 3f 7a 6d cb 3f
       1.4855521 -0.002523391 0.73689234 1.5892785
0002e0 e8 62 90 3f b2 f9 63 3f 7a b5 fe ba fd af 9b 3f
       1.1280184 0.8905288 -0.0019432746 1.2163082
0002f0 31 b0 dc 37 dc 08 3b 3e b4 17 d8 3a e6 50 d8 ba
       2.630809e-05 0.18265098 0.0016486556 -0.0016503602
000300 33 50 93 3f d4 c6 62 3f 4f af 88 3f 8f 04 6e ba
       1.150885 0.8858464 1.06785 -0.0009079659
000310 f3 b7 cd 3f fe 98 22 3a ed c9 6d 37 ab c8 ad 3e
       1.6071762 0.0006202607 1.4173315e-05 0.3394216
000320 26 d6 94 3f 72 be 15 ba 5b 65 ff ba 47 74 40 ba
       1.1627853 -0.00057122775 -0.0019485162 -0.00073415454
000330 68 a5 47 39 f2 96 c5 39 ed 40 8a 3f a1 1e 26 ba
       0.00019039738 0.0003768723 1.0801064 -0.00063369615
000340 0f 5c 84 3f 24 47 8d ba 6f f4 b2 38 15 b0 1b 3a
       1.0340594 -0.0010778648 8.533231e-05 0.0005939019
000350 9c 1b 5e 3a 95 85 00 bb 16 47 13 b8 c5 cf 07 38
       0.0008472742 -0.001961087 -3.5113735e-05 3.238001e-05
000360 39 8b 51 3f 35 79 40 39 9a 4b 7d 3f 2d 76 be 3b
       0.8185306 0.000183557 0.98943484 0.0058124275
000370 bb b4 97 3f d1 81 22 bb 52 f9 5d b9 71 fd af 3f
       1.185203 -0.0024796615 -0.00021169081 1.3749219
000380 b0 5b 4d b9 1a 3c 0a 3b dd fc 4e 3d be 58 14 3a
       -0.0001958448 0.0021092952 0.050534118 0.00056589756
000390 b5 ca 6c b9 f2 81 be b8 77 1d ad 3f b4 ac 3b 38
       -0.00022582228 -9.08411e-05 1.3524617 4.4745117e-05
0003a0 44 c6 4c ba 79 5b 89 3c 1a 3c 04 bb b2 15 4a b9
       -0.00078115263 0.01676725 -0.0020177425 -0.00019272303
0003b0 28 8f 3e ba 7c 74 f6 ba 91 1e 9a 3a ae 26 83 3f
       -0.0007269257 -0.0018803026 0.0011758377 1.0246179
0003c0 58 35 02 ba f1 be 70 3f f5 8e 5e 3f 6f 5c 9d b9
       -0.0004967055 0.94041353 0.86936885 -0.00030014242
0003d0 e8 94 b4 3f 8d 9a 81 3f dd 08 08 bb 3c 7d e5 3a
       1.4107943 1.012529 -0.0020757236 0.0017508636
0003e0 3b 36 cc 39 c1 bd a0 3f 1f a5 b8 3a c5 83 88 3f
       0.00038950317 1.2557908 0.0014087296 1.0665213
0003f0 94 0c e0 ba 9e 90 ea ba e3 d7 bd 3f ee 9f 52 3f
       -0.0017093592 -0.0017895882 1.4831508 0.82275283

z_logvar f4 [512]
000000 47 78 0e c1 59 a5 ed c0 d4 f3 94 c0 b6 91 a9 c0
       -8.904365 -7.426434 -4.654764 -5.299037
000010 b0 a3 00 c1 32 39 06 c1 9a 62 b6 c0 6f eb ed c0
       -8.039963 -8.388964 -5.6995363 -7.4349895
000020 98 66 ff c0 b8 21 0c c1 6b 4b bc c0 69 05 eb c0
       -7.9812737 -8.758232 -5.8842063 -7.3444104
000030 e2 d8 af c0 6d ac c6 c0 83 72 9b c0 17 03 c5 c0
       -5.495225 -6.208548 -4.8577285 -6.156627
000040 e5 62 03 c1 c5 94 01 c1 3d e3 03 c1 b7 f4 07 c1
       -8.211644 -8.098821 -8.242978 -8.497245
000050 33 75 9e c0 f9 0d 04 c1 e4 01 85 c0 23 42 96 c0
       -4.9518065 -8.253411 -4.156481 -4.6955733
000060 c5 d1 01 c1 a5 6a 96 c0 52 33 04 c1 05 41 93 c0
       -8.113713 -4.700518 -8.262529 -4.601687
000070 8f b0 f0 c0 80 40 97 c0 2d d8 0d c1 45 35 b2 c0
       -7.5215526 -4.7266235 -8.865277 -5.5690026
000080 90 2e ad c0 da b3 0d c1 5f 24 00 c1 55 2b d8 c0
       -5.411934 -8.856409 -8.00888 -6.7552896
000090 77 76 f6 c0 e9 56 f8 c0 79 ee c8 c0 e9 ef db c0
       -7.701961 -7.760609 -6.2791104 -6.873036
0000a0 7c 4d d6 c0 2a bb 9c c0 7f d2 fe c0 03 59 ad c0
       -6.6969585 -4.897847 -7.9631953 -5.4171157
0000b0 58 88 02 c1 18 44 9e c0 f4 9c dd c0 1a 12 05 c1
       -8.158287 -4.945812 -6.9254093 -8.316919
0000c0 84 de 9d c0 6a 0f 09 c1 1b 09 9e c0 72 f6 01 c1
       -4.9334126 -8.566263 -4.9386115 -8.122667
0000d0 3f 1f e8 c0 c0 41 0b c1 25 4a 86 c0 92 68 bd c0
       -7.253814 -8.703552 -4.196551 -5.919015
0000e0 cb 51 f9 c0 fe 48 01 c1 e2 75 e6 c0 86 e7 f9 c0
       -7.7912345 -8.08032 -7.20189 -7.809512
0000f0 b8 c0 09 c1 10 c8 03 c1 b1 54 01 c1 98 28 a6 c0
       -8.60955 -8.236343 -8.083177 -5.1924553
000100 b9 b9 06 c1 01 ad 09 c1 f8 17 ca c0 6a 1e 91 c0
       -8.420342 -8.604737 -6.315426 -4.5349627
000110 16 65 08 c1 93 eb 0c c1 a0 54 d9 c0 a3 0a cd c0
       -8.524679 -8.807513 -6.79158 -6.4075484
000120 41 09 15 c1 10 1e 99 c0 31 89 ed c0 e9 4d 0c c1
       -9.314759 -4.7849197 -7.422997 -8.769021
000130 29 96 da c0 73 0e e0 c0 3e be 0d c1 92 b8 00 c1
       -6.83083 -7.001764 -8.858946 -8.045061
000140 9e d8 01 c1 b9 3b a5 c0 5b 48 06 c1 21 d5 00 c1
       -8.115385 -5.1635404 -8.392665 -8.052033
000150 14 76 f5 c0 67 58 05 c1 95 77 b5 c0 27 40 03 c1
       -7.670664 -8.334083 -5.6708474 -8.203162
000160 32 61 ed c0 e8 23 04 c1 1d a5 de c0 b3 f5 07 c1
       -7.4181147 -8.258766 -6.9576554 -8.497485
000170 10 b3 ea c0 b3 73 04 c1 54 63 e1 c0 6b 4f 97 c0
       -7.334358 -8.278247 -7.043375 -4.7284446
000180 43 a9 ce c0 a0 1e 0b c1 71 1f f9 c0 5d 02 99 c0
       -6.458162 -8.694977 -7.785088 -4.7815385
000190 55 68 da c0 6f b3 0c c1 f9 0f 92 c0 55 1e b4 c0
       -6.825236 -8.793807 -4.56445 -5.6287026
0001a0 23 43 04 c1 c0 75 f9 c0 30 3a 0d c1 25 4c 95 c0
       -8.266391 -7.795624 -8.826706 -4.665545
0001b0 6e 2c 05 c1 cd fe f7 c0 ab fe 09 c1 bf c4 c9 c0
       -8.323347 -7.7498536 -8.624675 -6.305267
0001c0 0e fc 09 c1 90 8f f2 c0 47 52 df c0 fe 11 0a c1
       -8.624037 -7.5800247 -6.9787936 -8.629393
0001d0 63 02 03 c1 dc 15 d1 c0 dc c6 ae c0 7b ef 07 c1
       -8.188083 -6.5339184 -5.461775 -8.495967
0001e0 73 19 ba c0 68 4d eb c0 e8 89 05 c1 6b fb e0 c0
       -5.8156066 -7.353199 -8.3461685 -7.0306907
0001f0 32 27 94 c0 0d b6 9f c0 c4 ed 0b c1 59 c7 da c0
       -4.6297846 -4.990973 -8.745548 -6.8368344
000200 b8 dc d7 c0 2b b8 fd c0 05 f4 fe c0 5d 47 a6 c0
       -6.745693 -7.9287314 -7.9672875 -5.1962113
000210 fe 9e aa c0 74 07 ef c0 cd 7c b2 c0 33 11 99 c0
       -5.331908 -7.46966 -5.5777345 -4.7833495
000220 87 00 0a c1 92 fc fe c0 0f 9a 9c c0 81 28 09 c1
       -8.625129 -7.9683313 -4.893806 -8.572389
000230 76 1b 02 c1 80 ad f9 c0 60 47 08 c1 cb 22 d0 c0
       -8.131704 -7.802429 -8.517426 -6.504247
000240 91 fe d0 c0 f4 3a dc c0 ac 90 d2 c0 a1 58 eb c0
       -6.531075 -6.8821964 -6.58016 -7.354569
000250 52 08 0e c1 e0 ca 06 c1 56 17 09 c1 54 72 fd c0
       -8.877031 -8.42453 -8.568197 -7.920206
000260 57 f4 dc c0 75 a6 a7 c0 23 a5 07 c1 e5 d2 08 c1
       -6.9048266 -5.2390695 -8.477817 -8.551488
000270 14 92 a1 c0 bc aa 07 c1 ce 52 01 c1 c4 a0 0c c1
       -5.049082 -8.479183 -8.082716 -8.789249
000280 50 de f2 c0 a9 a8 d4 c0 0c dd fe c0 8c eb ac c0
       -7.5896378 -6.6455884 -7.9644833 -5.4037533
000290 53 05 f5 c0 8e 99 ee c0 3f 8f 0a c1 d5 b6 f8 c0
       -7.6569 -7.4562445 -8.659972 -7.7723184
0002a0 df 91 9a c0 77 e7 f8 c0 cd de e9 c0 bf 61 06 c1
       -4.8303065 -7.778255 -7.3084474 -8.398864
0002b0 86 12 ae c0 25 24 be c0 cf 38 b6 c0 82 4e 06 c1
       -5.439761 -5.941912 -5.6944346 -8.394167
0002c0 7a 7b 01 c1 a2 6e 9d c0 16 9d 9d c0 a4 4b ab c0
       -8.092646 -4.919755 -4.9254255 -5.3529835
0002d0 c0 21 d3 c0 45 af ca c0 7c 0c a3 c0 01 65 a2 c0
       -6.59787 -6.333895 -5.095274 -5.0748296
0002e0 26 3b aa c0 68 12 b2 c0 3d 20 07 c1 d9 1b d0 c0
       -5.3197203 -5.564747 -8.445371 -6.5033994
0002f0 c2 19 06 c1 16 5e 82 c0 8e 48 01 c1 9f b4 ed c0
       -8.381289 -4.073985 -8.080214 -7.4282985
000300 f5 c8 ce c0 79 c3 a6 c0 9d 5b 9e c0 04 dc fc c0
       -6.462031 -5.2113614 -4.9486833 -7.9018574
000310 28 58 be c0 71 bd c2 c0 ce 98 f5 c0 f3 af 92 c0
       -5.9482613 -6.085625 -7.674903 -4.583978
000320 3d b2 cd c0 76 80 db c0 a1 f8 b9 c0 2c 66 05 c1
       -6.4280076 -6.8594313 -5.8116 -8.337444
000330 b6 71 01 c1 d5 52 fc c0 09 bc af c0 94 bb 06 c1
       -8.090261 -7.8851113 -5.4917035 -8.420795
000340 4a 9c c4 c0 b5 3f 10 c1 d4 ff e6 c0 aa f8 e4 c0
       -6.1440783 -9.015553 -7.218729 -7.1553545
000350 82 44 f3 c0 35 6d fd c0 36 ab 04 c1 51 3a 04 c1
       -7.602113 -7.919581 -8.2918 -8.264237
000360 c0 8a a1 c0 cb 5b 0f c1 0c b3 ac c0 ee 83 eb c0
       -5.0481873 -8.95991 -5.3968563 -7.3598547
000370 ed 14 ca c0 f9 41 e4 c0 91 7d 13 c1 51 9d b4 c0
       -6.3150544 -7.1330533 -9.218156 -5.6442037
000380 1d 90 0a c1 f2 d1 e7 c0 3d 56 8a c0 f9 07 00 c1
       -8.660184 -7.244378 -4.323027 -8.001946
000390 de 6b 01 c1 9f e1 07 c1 96 8e a3 c0 3e 2f 09 c1
       -8.088835 -8.492583 -5.1111555 -8.574034
0003a0 a0 0f 0d c1 49 82 89 c0 79 ee f3 c0 32 ac df c0
       -8.816315 -4.297154 -7.6228604 -6.98977
0003b0 ef ac c7 c0 83 94 e0 c0 e1 5a 0a c1 ab e1 9d c0
       -6.23986 -7.018129 -8.647187 -4.9337974
0003c0 ef 2f f0 c0 ea c4 a8 c0 e3 64 90 c0 05 78 eb c0
       -7.5058513 -5.2740374 -4.5123153 -7.358401
0003d0 30 68 b8 c0 8e 10 ba c0 0f f4 07 c1 5b c7 01 c1
       -5.762718 -5.814521 -8.497085 -8.111171
0003e0 8c be 00 c1 11 4c a1 c0 c2 70 e1 c0 3a 8f b5 c0
       -8.04652 -5.0405354 -7.0450144 -5.6737337
0003f0 64 a9 de c0 1c 6b 01 c1 10 cd a6 c0 cf 58 94 c0
       -6.9581776 -8.08865 -5.212532 -4.635841

weight_mu f4 [2, 512]
000000 09 01 57 3b 40 29 b3 3c 92 ea 72 3e 37 1e 0b bd
       0.0032807013 0.021870255 0.23722294 -0.033964362
000010 6c ef 51 3a fd db 7d 3d 08 37 f4 be a1 8b 8b bd
       0.0008008394 0.061977375 -0.47698236 -0.068137415
000020 9e 55 ef bc bb 01 8a bb 24 70 93 bd 25 f9 88 3a
       -0.02921563 -0.004211632 -0.071991235 0.0010450227
000030 a3 3f 09 bf 5e df 19 bd db fd 9f 3e 2d c8 0a 3d
       -0.53612727 -0.037566535 0.31248364 0.03388231
000040 d8 ac 95 bc 30 25 1d 3c 14 a5 ad 3c d4 41 c7 3b
       -0.018270895 0.009591386 0.02119688 0.0060808454
000050 b3 d1 51 bb 93 da 31 bc ac d7 0a be e6 fe 0b bf
       -0.003201586 -0.010855335 -0.13558835 -0.5468582
000060 d2 f1 05 3c 94 d3 0a 3e a1 ee 42 3c fc 50 cd be
       0.00817533 0.13557273 0.011897714 -0.4010085
000070 b3 1b df bb 37 e0 f3 3b 5f 7e 81 3c d5 f4 8c bf
       -0.006808722 0.0074425 0.015807329 -1.1012217
000080 4c c0 8c bc 0d 70 16 3d 48 eb 53 3c 09 a9 03 bc
       -0.017181538 0.036727954 0.012934513 -0.008035907
000090 1a 53 8e bc 0d 52 9a bc d8 b0 19 3f ad 81 72 bd
       -0.01737361 -0.018837953 0.6003547 -0.0592057
0000a0 25 2a 0f 3d f5 c7 95 bc f7 ac 2b 3c 73 36 80 3d
       0.0349523 -0.018283824 0.01047825 0.06260385
0000b0 bc 0f ce bc ec 52 82 be 7b ce 7d 3d ec 6d f7 bb
       -0.025153987 -0.2545389 0.061964493 -0.0075509455
0000c0 3e 82 08 3f d3 db 36 3c 8d 6a b7 3e e3 5e 75 3c
       0.53323734 0.011160809 0.3582348 0.014976236
0000d0 e5 b2 71 bc 20 be ad bb 1f 13 cd 3e 97 4d 0e bf
       -0.014752124 -0.0053022057 0.4005365 -0.5558714
0000e0 93 ba 6e bd 3c 82 c6 3c 02 a2 28 bd f0 c3 e7 3c
       -0.0582834 0.024232022 -0.041170128 0.028291672
0000f0 d8 95 da 3b ee 40 56 bd ad 76 ea bc fc 2d 00 3f
       0.006670695 -0.052308016 -0.028621042 0.50070167
000100 29 76 52 bb 21 dc c1 bb 3c 7d 19 3f d8 d0 64 be
       -0.0032113886 -0.005916134 0.5995672 -0.22345293
000110 cf a3 d5 bc 34 29 e0 bc 04 b5 34 3c c2 00 85 bc
       -0.026079087 -0.027363397 0.011029486 -0.016235713
000120 4d 95 f8 bc fe ee d0 be ef 53 ab bc 41 cd b6 bb
       -0.03034463 -0.40807337 -0.020914046 -0.0055786674
000130 13 15 42 bd 6e a9 66 3c 37 ff ac bc 62 0f 45 bb
       -0.04738338 0.014078481 -0.02111779 -0.0030068983
000140 b7 fb 89 bc 06 fe 0a 3f 16 7b 4c 3b b7 be 8e 3c
       -0.01684366 0.5429386 0.0031201295 0.017424924
000150 55 47 b7 bb 90 b0 2d 3d 49 7e eb be 6b c4 36 3c
       -0.0055932202 0.04240471 -0.45994785 0.011155228
000160 52 31 08 bd 25 c1 10 3d ef 6d 4d 3c 3d 1a a9 3c
       -0.03325016 0.035340447 0.012538417 0.020642394
000170 2a 02 53 3c 59 f3 57 3c 2b 0f ff bb 1c f2 c8 bc
       0.012878934 0.013180577 -0.0077837906 -0.02452951
000180 7e a6 48 bb a3 1a 53 bb ac ba cf bc 9a 31 ff 3e
       -0.0030616815 -0.0032211922 -0.025357567 0.4984253
000190 64 aa 1c bc ad 71 89 bb 6b 87 0e bf bc 05 74 3e
       -0.009562109 -0.0041944594 -0.5567538 0.23830312
0001a0 4a 75 e0 bc 4f bb 96 3c 91 3c a2 3b cb 12 2c bf
       -0.027399678 0.018399863 0.0049510677 -0.67216176
0001b0 bb f3 35 bd 83 87 77 bc 84 c1 d9 bc 02 aa 82 3d
       -0.044421893 -0.015107992 -0.026581533 0.06380083
0001c0 6f f0 0c bd 76 6c ab 3d 31 c7 57 3c 9a 4e b3 b9
       -0.034408983 0.08370297 0.0131700495 -0.00034200103
0001d0 80 b8 ec 39 cc bf b7 3c dc 49 35 bf 80 75 d7 3c
       0.0004515089 0.022430323 -0.70815825 0.026301146
0001e0 ef 64 07 bf ab d5 d9 3c 1b 9b 26 bd 5d 3e 29 3b
       -0.5288839 0.026591143 -0.040675264 0.0025824525
0001f0 e1 94 08 bf ae a6 e7 be 9d 7a 4e 3d f2 e5 34 bd
       -0.5335217 -0.45244354 0.050409902 -0.044164605
000200 20 0a 6b 3c e0 d8 69 3c 48 b8 03 bd d2 6b 37 bf
       0.014345676 0.014272898 -0.032158166 -0.71648896
000210 43 1f 90 3e 09 e6 12 bd 61 9f 64 3e 10 76 f2 be
       0.2814885 -0.03586391 0.22326423 -0.473557
000220 ec 77 a4 3d 1d 38 a5 ba 83 01 20 bf b9 cd b8 ba
       0.08030686 -0.0012605224 -0.62502307 -0.0014099396
000230 f5 63 c5 3c 6a 5f 6e bc 08 ff 92 bb a4 0b 0e 3f
       0.024095515 -0.014549116 -0.0044859685 0.5548651
000240 01 2d 9c bc d1 72 5f bd 09 4f 83 3c f6 a0 01 bb
       -0.019064428 -0.054552857 0.016028898 -0.0019779778
000250 b5 c8 87 3b d7 f5 2f bd 9b f9 12 3c 9a 60 ad 3c
       0.004143799 -0.04295906 0.008970643 0.021164227
000260 55 8f 0c bc f8 f2 9b 3d 3c ba 98 3c 45 1b 56 3d
       -0.008579095 0.07614702 0.018643491 0.0522721
000270 e1 7a 89 bd a3 70 9b 3c 0a a3 68 3c c6 60 b7 3c
       -0.067128904 0.018974608 0.014199028 0.022385012
000280 df 3a 18 3d 55 d3 6a bf 2f 21 c4 bb 59 e6 4f bd
       0.03716552 -0.9172872 -0.005985401 -0.050756786
000290 de 3f a0 3c f3 98 94 3b fb ae 0a 3c 33 8c 6a bd
       0.019561704 0.0045348345 0.00846457 -0.05726261
0002a0 71 4c 0b bf 6d 76 58 bd dc f1 6b 3d 21 e8 05 3c
       -0.54413515 -0.052847315 0.057603702 0.00817302
0002b0 33 3e 26 3f 26 a9 4a 3f 10 97 1f 3f 8f 1f 9e 3c
       0.6493866 0.7916435 0.6233988 0.019302158
0002c0 a9 f8 37 bd a9 ba 23 bf 7d 30 20 bf 6c 36 0d bf
       -0.044914875 -0.63956696 -0.6257399 -0.55161166
0002d0 79 51 1a 3f 9b 01 eb bc 2b 3d ba 3e ba b3 37 3f
       0.6028057 -0.028687289 0.36374792 0.71758616
0002e0 94 32 20 bf eb 18 e6 3e ee 0e 31 3d 76 90 49 3f
       -0.62577176 0.44940886 0.04322713 0.78736055
0002f0 3f 3f b3 3c 98 b1 9a be 1b 0d 1c bd 25 28 7d 3c
       0.021880744 -0.30213618 -0.038098436 0.015451466
000300 03 13 f3 3e 41 db c4 3e b2 ad e4 3e a3 c8 02 3d
       0.47475442 0.38448527 0.4466377 0.031929623
000310 b4 4a 4f 3f 7d 65 64 3d c0 96 84 bb 17 38 6c be
       0.8097336 0.05576085 -0.004046291 -0.23068272
000320 22 81 05 3f e2 80 1d 3b 4c a2 1d bd 9c de 8a 3c
       0.52150166 0.002403312 -0.038484856 0.016951852
000330 71 36 9a bc 9d b5 a4 38 44 c7 f5 be 84 83 c3 3c
       -0.018824788 7.8539575e-05 -0.4800359 0.023866422
000340 72 b2 ee be 27 d4 9a bc 45 21 11 3b 70 71 1c bc
       -0.46620518 -0.01889999 0.0022145074 -0.00954853
000350 d2 11 f9 bc 2a b1 1a 3d ba f5 20 bc ef ea 17 3c
       -0.030404005 0.037766613 -0.009824211 0.009272321
000360 a9 68 28 3f b0 38 75 39 73 5f 17 bf 22 4e 02 bd
       0.657847 0.00023386138 -0.5913002 -0.031812795
000370 56 e9 ea be 6a 08 3f 3d 00 ee cc 3a f3 93 1f bf
       -0.45881146 0.046638884 0.0015634894 -0.6233513
000380 63 ac 38 3c 5b 6d a8 bd 28 ab 6b be 19 c2 84 bc
       0.011271569 -0.08223983 -0.2301451 -0.016205834
000390 d5 2d 8d 3c b4 b9 7e 3c e7 c8 2e 3f c2 23 a8 bc
       0.017233768 0.015547205 0.682753 -0.020524863
0003a0 7b 2c f5 3c 89 0d c9 3d 1e 63 bb 3c 80 07 86 3c
       0.029928437 0.09817035 0.022874411 0.016360998
0003b0 2a 90 71 bc 25 03 b9 3c be af b9 bc ac 68 08 bf
       -0.014743844 0.022584507 -0.022666808 -0.53284717
0003c0 3c 40 cd bc 7b 50 01 3f 0f e5 11 bf 7b 04 35 bd
       -0.025055043 0.5051343 -0.5699014 -0.044193726
0003d0 7b 75 3b 3f c9 ed b6 be 39 9c 54 3d fb 71 e8 bc
       0.73226136 -0.3572829 0.051906798 -0.028374663
0003e0 fb 7e 9c 3c 11 df 1b bf b6 65 b0 bc 8d 0a bd 3e
       0.019103518 -0.6088725 -0.021532875 0.36922112
0003f0 39 cd a4 3d 1c ef d5 3c 43 10 36 bf 80 cf 15 3f
       0.080469556 0.026114993 -0.71118563 0.58519745

weight_logvar f4 [2, 512]
000000 10 02 4e c0 10 02 4e c0 14 e8 a9 c0 10 02 4e c0
       -3.218876 -3.218876 -5.30958 -3.218876
000010 10 02 4e c0 10 02 4e c0 7d 37 c4 c0 10 02 4e c0
       -3.218876 -3.218876 -6.1317735 -3.218876
000020 10 02 4e c0 10 02 4e c0 10 02 4e c0 10 02 4e c0
       -3.218876 -3.218876 -3.218876 -3.218876
000030 04 3d c3 c0 10 02 4e c0 7e 7b a2 c0 10 02 4e c0
       -6.101198 -3.218876 -5.0775747 -3.218876
000040 10 02 4e c0 10 02 4e c0 10 02 4e c0 10 02 4e c0
       -3.218876 -3.218876 -3.218876 -3.218876
000050 10 02 4e c0 10 02 4e c0 10 02 4e c0 3e db a2 c0
       -3.218876 -3.218876 -3.218876 -5.089263
000060 10 02 4e c0 10 02 4e c0 10 02 4e c0 4e ad 9b c0
       -3.218876 -3.218876 -3.218876 -4.8649054
000070 10 02 4e c0 10 02 4e c0 10 02 4e c0 99 60 cb c0
       -3.218876 -3.218876 -3.218876 -6.3555417
000080 10 02 4e c0 10 02 4e c0 10 02 4e c0 10 02 4e c0
       -3.218876 -3.218876 -3.218876 -3.218876
000090 10 02 4e c0 10 02 4e c0 96 11 e9 c0 10 02 4e c0
       -3.218876 -3.218876 -7.2833967 -3.218876
0000a0 10 02 4e c0 10 02 4e c0 10 02 4e c0 10 02 4e c0
       -3.218876 -3.218876 -3.218876 -3.218876
0000b0 10 02 4e c0 2d b3 aa c0 10 02 4e c0 10 02 4e c0
       -3.218876 -5.334372 -3.218876 -3.218876
0000c0 89 ab b6 c0 10 02 4e c0 10 02 4e c0 10 02 4e c0
       -5.7084394 -3.218876 -3.218876 -3.218876
0000d0 10 02 4e c0 10 02 4e c0 43 70 94 c0 ef e6 d7 c0
       -3.218876 -3.218876 -4.638704 -6.74694
0000e0 10 02 4e c0 10 02 4e c0 10 02 4e c0 10 02 4e c0
       -3.218876 -3.218876 -3.218876 -3.218876
0000f0 10 02 4e c0 10 02 4e c0 10 02 4e c0 4a 79 c2 c0
       -3.218876 -3.218876 -3.218876 -6.077306
000100 10 02 4e c0 10 02 4e c0 19 ef e9 c0 10 02 4e c0
       -3.218876 -3.218876 -7.3104367 -3.218876
000110 10 02 4e c0 10 02 4e c0 10 02 4e c0 10 02 4e c0
       -3.218876 -3.218876 -3.218876 -3.218876
000120 10 02 4e c0 3e 65 bc c0 10 02 4e c0 10 02 4e c0
       -3.218876 -5.8873587 -3.218876 -3.218876
000130 10 02 4e c0 10 02 4e c0 10 02 4e c0 10 02 4e c0
       -3.218876 -3.218876 -3.218876 -3.218876
000140 10 02 4e c0 81 af c0 c0 10 02 4e c0 10 02 4e c0
       -3.218876 -6.021424 -3.218876 -3.218876
000150 10 02 4e c0 10 02 4e c0 ac 2e dc c0 10 02 4e c0
       -3.218876 -3.218876 -6.8806973 -3.218876
000160 10 02 4e c0 10 02 4e c0 10 02 4e c0 10 02 4e c0
       -3.218876 -3.218876 -3.218876 -3.218876
000170 10 02 4e c0 10 02 4e c0 10 02 4e c0 10 02 4e c0
       -3.218876 -3.218876 -3.218876 -3.218876
000180 10 02 4e c0 10 02 4e c0 10 02 4e c0 f2 9e a9 c0
       -3.218876 -3.218876 -3.218876 -5.3006525
000190 10 02 4e c0 10 02 4e c0 e8 ad 84 c0 b8 91 e4 c0
       -3.218876 -3.218876 -4.146229 -7.142788
0001a0 10 02 4e c0 10 02 4e c0 10 02 4e c0 bf e5 b1 c0
       -3.218876 -3.218876 -3.218876 -5.559295
0001b0 10 02 4e c0 10 02 4e c0 10 02 4e c0 10 02 4e c0
       -3.218876 -3.218876 -3.218876 -3.218876
0001c0 10 02 4e c0 10 02 4e c0 10 02 4e c0 10 02 4e c0
       -3.218876 -3.218876 -3.218876 -3.218876
0001d0 10 02 4e c0 10 02 4e c0 c0 8a c0 c0 10 02 4e c0
       -3.218876 -3.218876 -6.0169373 -3.218876
0001e0 1e 2b d8 c0 10 02 4e c0 10 02 4e c0 10 02 4e c0
       -6.7552633 -3.218876 -3.218876 -3.218876
0001f0 1a 23 a7 c0 eb 3d b6 c0 10 02 4e c0 10 02 4e c0
       -5.223035 -5.6950583 -3.218876 -3.218876
000200 10 02 4e c0 10 02 4e c0 10 02 4e c0 44 d5 b5 c0
       -3.218876 -3.218876 -3.218876 -5.6822834
000210 96 67 c2 c0 10 02 4e c0 7e 85 d2 c0 ab dc b0 c0
       -6.075145 -3.218876 -6.5787954 -5.526937
000220 10 02 4e c0 10 02 4e c0 ec 51 af c0 10 02 4e c0
       -3.218876 -3.218876 -5.47875 -3.218876
000230 10 02 4e c0 10 02 4e c0 10 02 4e c0 50 f7 f1 c0
       -3.218876 -3.218876 -3.218876 -7.5614395
000240 10 02 4e c0 10 02 4e c0 10 02 4e c0 10 02 4e c0
       -3.218876 -3.218876 -3.218876 -3.218876
000250 10 02 4e c0 10 02 4e c0 10 02 4e c0 10 02 4e c0
       -3.218876 -3.218876 -3.218876 -3.218876
000260 10 02 4e c0 10 02 4e c0 10 02 4e c0 10 02 4e c0
       -3.218876 -3.218876 -3.218876 -3.218876
000270 10 02 4e c0 10 02 4e c0 10 02 4e c0 10 02 4e c0
       -3.218876 -3.218876 -3.218876 -3.218876
000280 10 02 4e c0 c8 fe e7 c0 10 02 4e c0 10 02 4e c0
       -3.218876 -7.249851 -3.218876 -3.218876
000290 10 02 4e c0 10 02 4e c0 10 02 4e c0 10 02 4e c0
       -3.218876 -3.218876 -3.218876 -3.218876
0002a0 16 d8 a5 c0 10 02 4e c0 10 02 4e c0 10 02 4e c0
       -5.1826277 -3.218876 -3.218876 -3.218876
0002b0 e2 99 b6 c0 7d 9e d9 c0 8b 6a c9 c0 10 02 4e c0
       -5.7062845 -6.8005967 -6.2942557 -3.218876
0002c0 10 02 4e c0 cc 1d ab c0 57 87 a7 c0 c2 59 cc c0
       -3.218876 -5.3473873 -5.235271 -6.385957
0002d0 dc dd fb c0 10 02 4e c0 b3 99 b2 c0 72 ce bd c0
       -7.8708324 -3.218876 -5.581262 -5.931451
0002e0 27 03 c5 c0 9a 6e d0 c0 10 02 4e c0 07 b8 dd c0
       -6.156635 -6.513501 -3.218876 -6.9287143
0002f0 10 02 4e c0 10 02 4e c0 10 02 4e c0 10 02 4e c0
       -3.218876 -3.218876 -3.218876 -3.218876
000300 82 a8 e8 c0 77 cd cb c0 79 34 c3 c0 10 02 4e c0
       -7.27057 -6.368831 -6.1001554 -3.218876
000310 3f 39 d5 c0 10 02 4e c0 10 02 4e c0 61 52 99 c0
       -6.663238 -3.218876 -3.218876 -4.791306
000320 e8 a8 f1 c0 10 02 4e c0 10 02 4e c0 10 02 4e c0
       -7.5518684 -3.218876 -3.218876 -3.218876
000330 10 02 4e c0 10 02 4e c0 16 d6 da c0 10 02 4e c0
       -3.218876 -3.218876 -6.8386335 -3.218876
000340 e3 fd e6 c0 10 02 4e c0 10 02 4e c0 10 02 4e c0
       -7.218492 -3.218876 -3.218876 -3.218876
000350 10 02 4e c0 10 02 4e c0 10 02 4e c0 10 02 4e c0
       -3.218876 -3.218876 -3.218876 -3.218876
000360 e5 cc 99 c0 10 02 4e c0 0e b3 c4 c0 10 02 4e c0
       -4.8062615 -3.218876 -6.1468573 -3.218876
000370 01 07 f5 c0 10 02 4e c0 10 02 4e c0 75 0b ce c0
       -7.657105 -3.218876 -3.218876 -6.4388986
000380 10 02 4e c0 10 02 4e c0 10 02 4e c0 10 02 4e c0
       -3.218876 -3.218876 -3.218876 -3.218876
000390 10 02 4e c0 10 02 4e c0 60 02 b5 c0 10 02 4e c0
       -3.218876 -3.218876 -5.65654 -3.218876
0003a0 10 02 4e c0 10 02 4e c0 10 02 4e c0 10 02 4e c0
       -3.218876 -3.218876 -3.218876 -3.218876
0003b0 10 02 4e c0 10 02 4e c0 10 02 4e c0 a2 95 ad c0
       -3.218876 -3.218876 -3.218876 -5.4245157
0003c0 10 02 4e c0 5b 63 ba c0 64 27 94 c0 10 02 4e c0
       -3.218876 -5.8246284 -4.6298084 -3.218876
0003d0 40 79 d1 c0 03 e7 e4 c0 10 02 4e c0 10 02 4e c0
       -6.546051 -7.1531997 -3.218876 -3.218876
0003e0 10 02 4e c0 81 fd b7 c0 10 02 4e c0 34 d6 e2 c0
       -3.218876 -5.7496953 -3.218876 -7.088648
0003f0 10 02 4e c0 10 02 4e c0 21 9c c1 c0 b6 ae a4 c0
       -3.218876 -3.218876 -6.0503087 -5.146327

bias_mu f4 [2]
000000 2a 78 2c 40 be 9a 2c c0
       2.6948342 -2.6969447

bias_logvar f4 [2]
000000 99 94 e5 c0 9f b6 e3 c0
       -7.1743894 -7.1160426
