metric/simple_probe_retrain_origianl_seed0.pth (torch, 16951 bytes, 6 tensors)

z_mu f4 [512]
-0.0019101937 0.026698595 -0.00061406964 -0.00028311324 1.1453208 -0.0005650434 2.027604 0.0015643152
-0.0017778664 -0.00014611824 0.003468595 1.2735306 0.0011368038 0.0012141091 -0.0007608123 1.5710893
-0.0019696644 -0.0035746493 -0.00030531417 -0.0023934143 8.4116455e-06 0.00037715086 0.0006826136 0.00050415227
-0.00058707007 0.0019042906 0.001243985 1.4473798 -0.00031508223 -0.0035748587 0.0008348671 1.4527555
0.006565753 -0.0014767318 0.0019348499 0.6806681 -0.00044299354 0.9161421 -0.0020629698 1.2404718
1.2238156 -0.002379186 -0.0011431371 0.5384812 -0.0027898613 -0.0031159634 -0.00045042433 -0.00027346454
-0.0007150941 0.00040555853 1.1288991 0.00012303195 0.9259274 1.6746212 1.008643 0.00196665
0.004084147 0.005311014 0.7363234 -0.0006110443 0.0007807111 0.7892722 0.003160372 0.001298534
0.4529772 0.9532611 -0.00056682876 0.00083909737 0.0065511493 1.523245 -0.00017668285 -0.00084375497
0.78965205 0.4424675 0.0017165339 0.0019629446 1.3116188 0.62689596 -0.00026812332 -0.00014625743
1.595014 -0.00015706594 -0.00052395614 -0.0008667506 -6.786234e-05 2.1836842e-05 -0.00017227634 1.1786983
-5.4927354e-05 0.7017092 0.97074944 0.73906 -0.0005597005 -0.00069712434 1.925591e-05 1.8391275
0.0010494918 -0.0010671653 -0.00042307668 0.0015973726 -0.0012114536 0.0031736076 -1.3545824e-06 -0.0005374612
-0.0018595479 0.00074274285 0.65601885 -0.0010736583 0.00016752307 -0.00024766132 0.9078728 0.006394942
0.00037906648 -0.0010956579 -0.0005872917 1.1739734 0.00030523178 1.010565 0.0020031491 1.4287983
1.4834956 0.7526034 -5.2349576e-05 0.0005999074 0.00036454745 -9.055005e-06 0.00024238693 -0.00073539565
0.00358279 0.00021640964 0.0021234392 1.7959058 1.9177296 0.0018242714 -0.00087963167 0.32903516
-0.0007671372 0.90142125 -0.0023628257 -0.0014305958 0.00014367956 0.011992697 1.1036094 0.0006230221
-0.00016151369 0.68904686 0.0033037784 0.00017178463 0.31025156 1.0818323 -0.0002707529 -3.5674322e-05
-0.00054730184 0.00027624596 -0.00048064196 -0.0005576148 -0.00021602077 1.6274859 0.0010083447 -0.00020527597
1.3013668 0.3083219 -0.00037627033 -0.0001938733 -7.6125834e-05 0.83113116 0.000111952584 0.005208929
-3.546692e-05 0.020026134 0.0003305416 0.0008297311 0.0011110412 0.8129238 -0.00075971056 -0.0008769863
0.7696823 0.00024075278 0.9763375 0.00030685173 0.0005238527 1.373753 -0.00083467166 0.0010518059
-7.9113033e-07 -0.0013725274 -0.00022301148 0.003500516 0.0029225103 0.0005170181 -0.00022668287 -0.00092066824
0.004726998 1.1942762 0.47688383 -0.0016149079 0.8176503 -0.00017943923 -0.00034183555 -0.0003065543
-0.0008245743 -0.0017987315 -0.0012854111 0.00035967844 -2.215347e-05 0.00091952016 1.7006451 0.00016021593
-0.0014627128 1.321099 0.0013424784 -0.000119029544 0.0020624802 0.000834712 0.00024940973 0.00053655356
1.8531955 0.89680165 -0.00024543444 -0.0007244776 0.004454281 -0.0017134033 0.8061676 0.0052987086
0.5872959 1.5640897 1.2143121 1.3451927 -0.0018366528 0.00054959254 0.00081468374 -0.00058258936
1.4860175 0.0030004093 1.0698898 -0.0010392767 1.0918694 3.313606e-05 0.0017605221 0.0005471077
0.00023997556 0.0007003129 1.3519727 0.003067699 -0.0023047042 0.004631512 0.0017541003 1.6132375
0.0007099986 0.0004739745 6.806811e-05 0.00057751965 -0.0018905618 -0.0010697595 1.5331601 1.0947759
00000000: 775f faba 03b7 da3c 84f9 20ba d16e 94b9
00000010: df99 923f 6c1f 14ba 44c4 0140 b509 cd3a
00000020: 4c07 e9ba 5137 19b9 5e51 633b 0d03 a33f
00000030: ce00 953a be22 9f3a 4071 47ba 7419 c93f
00000040: 7c15 01bb aa44 6abb 9312 a0b9 d4da 1cbb
00000050: be1f 0d37 55bc c539 6cf1 323a 1629 043a
00000060: 9be5 19ba 6499 f93a 360d a33a be43 b93f
00000070: 9f31 a5b9 2d48 6abb fcda 5a3a e4f3 b93f
00000080: 8725 d73b e68e c1ba ca9a fd3a 4440 2e3f
00000090: 9641 e8b9 4a88 6a3f e432 07bb c8c7 9e3f
000000a0: fda5 9c3f 1eec 1bbb 51d5 95ba e7d9 093f
000000b0: 1bd6 36bb 3135 4cbb ee26 ecb9 ca5f 8fb9
000000c0: 2775 3bba 25a1 d439 c47f 903f 2302 0139
000000d0: 9409 6d3f fd59 d63f 371b 813f e9e2 003b
000000e0: 4fd4 853b 0408 ae3b b17f 3c3f 7d2e 20ba
000000f0: a3a8 4c3a be0d 4a3f 3e1e 4f3b 9233 aa3a
00000100: a1ec e73e eb08 743f 3c97 14ba dff6 5b3a
00000110: 06ab d63b b1f9 c23f f143 39b9 702f 5dba
00000120: a326 4a3f 1a8b e23e 52fd e03a bfa4 003b
00000130: 20e3 a73f 417c 203f e792 8cb9 ae5c 19b9
00000140: 6b29 cc3f 11b2 24b9 1a5a 09ba a636 63ba
00000150: 5151 8eb8 432e b737 14a5 34b9 96df 963f
00000160: cc61 66b8 37a3 333f 0983 783f 0933 3d3f
00000170: ddb8 12ba 39bf 36ba c087 a137 8868 eb3f
00000180: 1a8f 893a 20e0 8bba 64d0 ddb9 ee5e d13a
00000190: a3c9 9eba 4dfc 4f3b 19cf b5b5 69e4 0cba
000001a0: 13bc f3ba a1b4 423a daf0 273f ffb9 8cba
000001b0: 22a9 2f39 8ad8 81b9 5a6a 683f a98c d13b
000001c0: 71bd c639 2e9c 8fba 7bf4 19ba c344 963f
000001d0: 8407 a039 325a 813f 4447 033b dde2 b63f
000001e0: 2fe3 bd3f 9eaa 403f ee91 5bb8 1b43 1d3a
000001f0: bb20 bf39 f3ea 17b7 3f29 7e39 91c7 40ba
00000200: 3ecd 6a3b 05ec 6239 6629 0b3b 3ee0 e53f
00000210: 2a78 f53f 641c ef3a 1597 66ba 4c77 a83e
00000220: b519 49ba 8bc3 663f a3d9 1abb d482 bbba
00000230: b0a8 1639 047d 443c 1343 8d3f 4e52 233a
00000240: 005c 29b9 6065 303f 3484 583b 1621 3439
00000250: 4bd9 9e3e 7b79 8a3f d7f3 8db9 03a1 15b8
00000260: ce78 0fba 1bd5 9039 acfe fbb9 e52c 12ba
00000270: a283 62b9 7551 d03f 6f2a 843a 593f 57b9
00000280: 3093 a63f 5edc 9d3e 2646 c5b9 784a 4bb9
00000290: bfa5 9fb8 03c5 543f 16c8 ea38 aaaf aa3b
000002a0: 51c2 14b8 d90d a43c 8b4c ad39 5082 593a
000002b0: 5ba0 913a c61b 503f 5027 47ba 8ee5 65ba
000002c0: e609 453f 9572 7c39 41f1 793f f1e0 a039
000002d0: 2953 093a 23d7 af3f decd 5aba c0dc 893a
000002e0: 105e 54b5 61e6 b3ba 30d8 69b9 ea68 653b
000002f0: 9687 3f3b 7f88 073a b8b1 6db9 0059 71ba
00000300: efe4 9a3b 0bde 983f 1e2a f43e 51ab d3ba
00000310: 8851 513f da27 3cb9 6438 b3b9 06b9 a0b9
00000320: 3f28 58ba 6ac3 ebba 3d7b a8ba 3993 bc39
00000330: 37d6 b9b7 f40b 713a bdae d93f a3ff 2739
00000340: 7fb8 bfba c619 a93f 1af6 af3a 809f f9b8
00000350: ad2a 073b 93d0 5a3a 35c3 8239 80a7 0c3a
00000360: 8335 ed3f cb94 653f a7ad 80b9 deea 3dba
00000370: 38f5 913b 4694 e0ba 0061 4e3f caa0 ad3b
00000380: 0659 163f 1734 c83f 946e 9b3f 462f ac3f
00000390: d7bb f0ba 8812 103a 8090 553a e9b8 18ba
000003a0: d235 be3f 84a2 443b 26f2 883f 5738 88ba
000003b0: 60c2 8b3f 93fb 0a38 52c1 e63a c76b 0f3a
000003c0: f3a1 7b39 3495 373a 710d ad3f 730b 493b
000003d0: 850a 17bb f0c3 973b d7e9 e53a 917e ce3f
000003e0: 331f 3a3a c87f f839 cabf 8e38 b064 173a
000003f0: bacc f7ba 2c37 8cba 973e c43f 9e21 8c3f

z_logvar f4 [512]
-6.8152843 -4.36051 -7.509166 -8.057125 -5.022032 -7.6208076 -4.9189963 -7.940986
-9.058245 -8.0431385 -6.6753287 -4.657467 -6.3615913 -7.645153 -6.093634 -5.7140784
-6.2359457 -4.882394 -6.473434 -6.251793 -8.157277 -8.050248 -8.236462 -7.768454
-8.268642 -7.013335 -8.124083 -5.9169216 -7.7146473 -7.1929255 -8.279101 -4.92541
-4.5815115 -6.8969936 -6.1354485 -4.8646426 -6.888689 -4.51218 -6.4532413 -5.144456
-5.0182185 -6.7572484 -5.455192 -4.499379 -7.6654973 -8.133237 -7.495045 -5.013055
-4.818476 -7.6731434 -4.90126 -6.5096655 -4.5837445 -5.9728756 -5.8761997 -7.170085
-5.8916016 -4.21507 -4.8026605 -7.092831 -7.8624396 -5.209584 -7.615621 -7.9097404
-4.7386904 -3.8736649 -5.6089654 -7.651512 -5.126142 -5.1964626 -6.904558 -7.7816863
-4.6709294 -4.3499203 -7.531499 -8.481942 -5.9166255 -4.4930124 -7.7119656 -6.565919
-4.6550574 -8.059009 -7.393566 -7.462623 -6.548451 -7.9965124 -7.208077 -5.140396
-6.9740644 -4.876867 -5.068704 -4.847862 -7.3015885 -6.5563273 -7.611884 -6.1521463
-6.861361 -7.573885 -6.2728524 -6.808179 -4.6324077 -7.8970556 -7.4848223 -6.544126
-6.5011597 -4.314691 -5.5475206 -7.8763013 -7.4539332 -6.0895786 -4.344795 -4.2976327
-7.6995845 -7.7332954 -5.278508 -4.350814 -8.232832 -5.298078 -5.986035 -5.0419493
-5.981558 -5.3710947 -7.5745773 -6.81608 -5.832773 -5.838407 -6.07869 -7.93137
-4.3401504 -8.208745 -6.712584 -4.155538 -4.5416193 -6.81343 -7.0707974 -4.801684
-8.026986 -4.4750066 -6.6588316 -8.876006 -7.3142076 -4.84078 -4.625357 -8.651181
-5.697021 -4.3742065 -6.973591 -8.283557 -4.5133343 -5.640502 -7.2372127 -7.7466383
-7.7978535 -7.5169816 -8.143222 -6.947901 -8.034841 -5.2152004 -6.467358 -6.181062
-4.972397 -4.088002 -7.790482 -6.1998158 -8.18367 -4.7416596 -6.627098 -7.5334716
-8.1316395 -4.7858543 -7.4065037 -5.884226 -7.1659064 -4.933441 -8.448917 -7.269839
-4.813816 -7.9743056 -4.9687786 -6.0901904 -8.289679 -6.8717384 -6.2781787 -7.9611793
-6.3193984 -6.9374175 -7.1075644 -7.0133133 -4.025815 -8.367951 -7.9134145 -8.01694
-5.2942824 -5.4372025 -4.4212394 -8.080683 -5.0168924 -6.964513 -6.138644 -8.671024
-6.7362714 -6.5438056 -7.7947717 -6.5794935 -5.3346868 -8.034908 -5.8598723 -5.9995236
-8.072043 -5.788284 -7.5526175 -6.471595 -7.52533 -8.007368 -8.067834 -7.1486235
-6.169429 -5.0686913 -7.3295045 -7.7483373 -6.4789867 -7.596177 -3.7797406 -3.6241674
-4.1539893 -5.4429183 -5.206452 -5.2431893 -6.827756 -5.766515 -7.6321945 -7.0822964
-5.497879 -6.8989806 -4.675581 -5.437471 -4.3460727 -7.80352 -5.8591204 -7.2438674
-7.611556 -6.31134 -6.1435337 -7.036282 -7.8062663 -7.01225 -6.3748326 -6.4372296
-7.688853 -8.072185 -7.4536324 -6.4302964 -7.1010222 -7.1437445 -5.755468 -5.515499
00000000: cf16 dac0 4c89 8bc0 164b f0c0 fce9 00c1
00000010: 7cb4 a0c0 a8dd f3c0 6b68 9dc0 8f1c fec0
00000020: 92ee 10c1 b2b0 00c1 4b9c d5c0 f809 95c0
00000030: 2892 cbc0 18a5 f4c0 0dff c2c0 bbd9 b6c0
00000040: de8c c7c0 923c 9cc0 5f26 cfc0 b00e c8c0
00000050: 3584 02c1 d1cd 00c1 8cc8 03c1 2d97 f8c0
00000060: 5c4c 04c1 3e6d e0c0 3efc 01c1 6c57 bdc0
00000070: 64de f6c0 722c e6c0 3377 04c1 f59c 9dc0
00000080: be9b 92c0 2cb4 dcc0 9855 c4c0 27ab 9bc0
00000090: 2470 dcc0 c763 90c0 f480 cec0 629f a4c0
000000a0: 3f95 a0c0 613b d8c0 ef90 aec0 eafa 8fc0
000000b0: c14b f5c0 bd21 02c1 69d7 efc0 f26a a0c0
000000c0: f530 9ac0 648a f5c0 1fd7 9cc0 2e4f d0c0
000000d0: 09ae 92c0 cc21 bfc0 d409 bcc0 5671 e5c0
000000e0: 0088 bcc0 dae1 86c0 65af 99c0 79f8 e2c0
000000f0: 1b99 fbc0 eab4 a6c0 2bb3 f3c0 981c fdc0
00000100: 5aa3 97c0 20ea 77c0 a57c b3c0 30d9 f4c0
00000110: 5b09 a4c0 6c49 a6c0 24f2 dcc0 9303 f9c0
00000120: 4178 95c0 8c32 8bc0 0a02 f1c0 09b6 07c1
00000130: ff54 bdc0 c2c6 8fc0 6cc8 f6c0 021c d2c0
00000140: 3bf6 94c0 b3f1 00c1 1898 ecc0 cfcd eec0
00000150: e98c d1c0 6ee3 ffc0 91a8 e6c0 207e a4c0
00000160: 892b dfc0 4b0f 9cc0 d332 a2c0 af21 9bc0
00000170: 9da6 e9c0 6fcd d1c0 8e94 f3c0 62de c4c0
00000180: 4590 dbc0 445d f2c0 35bb c8c0 9adc d9c0
00000190: af3c 94c0 aeb4 fcc0 aa83 efc0 7b69 d1c0
000001a0: 8009 d0c0 f311 8ac0 4a85 b1c0 a90a fcc0
000001b0: 9f86 eec0 d4dd c2c0 9008 8bc0 3586 89c0
000001c0: ff62 f6c0 2877 f7c0 8ae9 a8c0 de39 8bc0
000001d0: aeb9 03c1 db89 a9c0 998d bfc0 a657 a1c0
000001e0: ec68 bfc0 02e0 abc0 f062 f2c0 541d dac0
000001f0: 14a6 bac0 3bd4 bac0 a184 c2c0 c8cd fdc0
00000200: 83e2 8ac0 0557 03c1 7dcd d6c0 2bfa 84c0
00000210: f254 91c0 9e07 dac0 f943 e2c0 65a7 99c0
00000220: 896e 00c1 4133 8fc0 2615 d5c0 1f04 0ec1
00000230: fd0d eac0 abe7 9ac0 ed02 94c0 3d6b 0ac1
00000240: ff4d b6c0 80f9 8bc0 a827 dfc0 7389 04c1
00000250: 3c6d 90c0 fe7e b4c0 3f97 e7c0 76e4 f7c0
00000260: 0488 f9c0 1d8b f0c0 a34a 02c1 3455 dec0
00000270: b58e 00c1 ece2 a6c0 99f4 cec0 43cb c5c0
00000280: e01d 9fc0 ead0 82c0 a14b f9c0 e464 c6c0
00000290: 50f0 02c1 adbb 97c0 3011 d4c0 3312 f1c0
000002a0: 321b 02c1 b825 99c0 1402 edc0 944b bcc0
000002b0: 1b4f e5c0 c0de 9dc0 c42e 07c1 85a2 e8c0
000002c0: c80a 9ac0 832d ffc0 3c00 9fc0 d7e2 c2c0
000002d0: 86a2 04c1 48e5 dbc0 d7e6 c8c0 fbc1 fec0
000002e0: 8338 cac0 53ff ddc0 2b71 e3c0 106d e0c0
000002f0: 7ad3 80c0 21e3 05c1 b13a fdc0 6345 00c1
00000300: c36a a9c0 90fd adc0 cb7a 8dc0 7a4a 01c1
00000310: 628a a0c0 4add dec0 c66f c4c0 84bc 0ac1
00000320: 898f d7c0 db66 d1c0 c56e f9c0 368b d2c0
00000330: c1b5 aac0 fc8e 00c1 1384 bbc0 19fc bfc0
00000340: 1727 01c1 9f39 b9c0 0baf f1c0 4e17 cfc0
00000350: 81cf f0c0 2e1e 00c1 d915 01c1 86c1 e4c0
00000360: f66b c5c0 b832 a2c0 4d8b eac0 61f2 f7c0
00000370: dc53 cfc0 e213 f3c0 45e7 71c0 5cf2 67c0
00000380: 7bed 84c0 632c aec0 419b a6c0 35c8 a7c0
00000390: fa7c dac0 4a87 b8c0 f03a f4c0 2ca2 e2c0
000003a0: a0ee afc0 73c4 dcc0 5c9e 95c0 c3ff adc0
000003b0: 0713 8bc0 70b6 f9c0 ea7d bbc0 c3cd e7c0
000003c0: de91 f3c0 7ff6 c9c0 d497 c4c0 3929 e1c0
000003d0: efcc f9c0 5a64 e0c0 a1fe cbc0 c9fd cdc0
000003e0: 150b f6c0 ab27 01c1 2884 eec0 fdc4 cdc0
000003f0: 933b e3c0 8e99 e4c0 cb2c b8c0 f87e b0c0

weight_mu f4 [2, 512]
0.054139353 0.25675866 0.033353787 0.03200899 0.8848463 0.010263547 1.0245008 -0.041058164
-0.032940112 0.0032485302 -0.03999721 0.716952 -0.035485424 -0.05703887 -0.011312247 0.93635976
-0.02285599 0.03307277 -0.018061325 0.06913229 0.004770362 0.005916372 -0.011105066 -0.02085941
0.023252798 -0.031785525 -0.010951322 -0.7046093 -0.0012146314 0.025957474 -0.03411528 -0.74228334
0.059582017 0.018357929 -0.07150084 0.50454956 -0.01071698 -0.6924227 0.023858255 -0.7481669
-0.72562945 -0.022903563 4.530828e-05 -0.38319468 0.042003896 -0.04571484 0.007967507 0.054642055
-0.002391635 -0.0074967453 -0.59913427 -0.0028482357 -0.6963983 -0.8385382 0.44095087 -0.017042706
-0.07200864 -0.09635255 -0.56752783 -0.06803371 -0.010321502 0.4725936 -0.04527405 -0.024764145
0.3621601 -0.8649208 -0.008947751 0.011776061 -0.047311306 -0.7131983 -0.00034621698 0.04615347
0.6079664 -0.50532556 -0.035947524 0.017885236 0.620621 -0.33324367 -0.025810229 0.0035853991
-0.9048305 -0.0049504465 -0.004178822 0.021024482 0.0002954427 -0.007895623 -0.0029610794 -0.5790779
0.00071595947 -0.47084686 -0.6579128 -0.39314523 0.0168072 0.053681646 0.0007919203 0.9082349
0.020556733 -0.01859742 0.040443584 -0.03902603 0.01356859 -0.050260965 -0.008477541 0.040329
-0.0604675 -0.001540223 -0.6374421 0.020379277 -0.0034512728 -0.009508107 -0.6025833 -0.058883417
-0.008730055 0.02381535 -0.011121033 -0.7336497 -0.009595369 -0.6111562 -0.038280442 -0.81888425
0.717658 -0.546898 -0.02439524 -0.0043725013 0.007235051 0.0027414237 2.0025589e-05 -0.025393594
0.15655911 -0.002808516 -0.055097163 -0.9690569 1.2242943 -0.0404717 0.016744735 -0.51174223
0.09686596 0.57523453 0.048266128 -0.038262073 0.0049181296 -0.057658818 -0.5651568 0.026253637
-0.0500042 -0.59675145 -0.06233791 -0.008036129 0.36537936 -0.70732665 0.0014664249 0.0023696905
-0.0047224076 -0.0025887864 0.015812041 0.017193226 0.013393254 -0.8894469 -0.01837059 0.0006548619
0.5885456 -0.3840362 -0.0020023466 -0.0036263638 0.012135584 0.3879328 0.0031360367 -0.0638709
0.038873605 0.12995033 0.055002283 0.035362996 0.04371151 0.43613553 0.016079878 0.038349807
-0.571183 -0.025972746 -0.521133 0.008411438 -0.042644136 0.662041 -0.027013117 -0.021931948
-0.015014051 0.026617412 0.001966793 -0.052885473 -0.10550258 -0.007069845 -0.0008037105 0.03938932
-0.022379868 -0.6412998 0.21159196 0.032445416 0.68649435 0.045018014 0.034079045 -0.003534807
0.01200692 0.019868141 -0.05566497 0.0023691987 0.028142761 0.0067270542 -0.83233774 0.0070536328
-0.054352384 0.55314285 -0.0081517175 0.018480225 -0.029867005 -0.028439708 -0.028050875 -0.031637043
0.8928891 0.732056 0.011930235 -0.014831497 -0.032578703 0.060443867 -0.5458835 0.12662074
0.69379884 0.80053407 0.54207927 0.7029548 0.026422992 -0.03558664 -0.042756736 0.040804956
1.0997783 -0.017044406 0.5761799 0.0056917584 -0.48555806 0.012116598 -0.06008706 0.03434528
0.0041755643 -0.010231763 -0.8576391 -0.04551885 0.036902573 -0.0482621 0.05075702 -0.8501021
-0.03352805 -0.02731778 -0.02449269 0.021602953 0.040240183 -0.018546253 -0.73144996 -0.45502535
00000000: 3ac1 5d3d df75 833e fb9d 083d dc1b 033d
00000010: 4a85 623f 7028 283c d822 833f 9b2c 28bd
00000020: 36ec 06bd 4be5 543b 1dd4 23bd 2b8a 373f
00000030: 2a59 11bd 97a1 69bd 0157 39bc 46b5 6f3f
00000040: 7c3c bbbc 5077 073d 58f5 93bc 3b95 8d3d
00000050: b250 9c3b 20de c13b 06f2 35bc 5ae1 aabc
00000060: a77c be3c 8a31 02bd 2c6d 33bc 4661 34bf
00000070: 4434 9fba c5a4 d43c 77bc 0bbd 4806 3ebf
00000080: 460c 743d 5e63 963c 086f 92bd 292a 013f
00000090: 4696 2fbc 9d42 31bf 6372 c33c de87 3fbf
000000a0: dac2 39bf 41a0 bbbc 6509 3e38 1832 c4be
000000b0: 470c 2c3d 7c3f 3bbd 258a 023c 59d0 5f3d
000000c0: fabc 1cbb 42a7 f5bb dd60 19bf 77a9 3abb
000000d0: 2947 32bf 71aa 56bf 50c4 e13e 259d 8bbc
000000e0: 4479 93bd 7c54 c5bd 8149 11bf 4255 8bbd
000000f0: 841b 29bc caf7 f13e 4871 39bd 2dde cabc
00000100: 0c6d b93e 736b 5dbf 9699 12bc 61f0 403c
00000110: 80c9 41bd 2a94 36bf 7584 b5b9 6c0b 3d3d
00000120: b0a3 1b3f 045d 01bf b63d 13bd 0f84 923c
00000130: 05e1 1e3f ea9e aabe f96f d3bc 04f9 6a3b
00000140: f9a2 67bf 5b37 a2bb 80ee 88bb 893b ac3c
00000150: a6e5 9a39 a55c 01bc ab0e 42bb 733e 14bf
00000160: 3aaf 3b3a d712 f1be f96c 28bf 554a c9be
00000170: 41af 893c 49e1 5b3d df98 4f3a 1582 683f
00000180: 9866 a83c 9e59 98bc 2ca8 253d c2d9 1fbd
00000190: cb4e 5e3c 71de 4dbd 62e5 0abc 0630 253d
000001a0: c5ac 77bd 4fe1 c9ba 682f 23bf 71f2 a63c
000001b0: c02e 62bb e4c7 1bbc e642 1abf bd2f 71bd
000001c0: 8108 0fbc 6918 c33c fe34 36bc 77d0 3bbf
000001d0: e535 1dbc bc74 1cbf f4cb 1cbd 66a2 51bf
000001e0: 6fb8 373f 8201 0cbf 87d8 c7bc 3347 8fbb
000001f0: 0214 ed3b 75a9 333b a0fc a737 3a06 d0bc
00000200: 0851 203e 140f 38bb 90ad 61bd 1d14 78bf
00000210: adb5 9c3f a7c5 25bd 412c 893c 8a01 03bf
00000220: a961 c63d 9242 133f b4b2 453d b1b8 1cbd
00000230: 4328 a13b a72b 6cbd 1eae 10bf de11 d73c
00000240: 34d1 4cbd b4c4 18bf 0956 7fbd f8a9 03bc
00000250: 0113 bb3e 5c13 35bf 0e35 c03a cf4c 1b3b
00000260: 6dbe 9abb a1a8 29bb 4188 813c cfd8 8c3c
00000270: 616f 5b3c cbb2 63bf eb7d 96bc 0aab 2b3a
00000280: edaa 163f 65a0 c4be cd39 03bb 4aa8 6dbb
00000290: 54d4 463c 219f c63e f785 4d3b bfce 82bd
000002a0: ee39 1f3d b311 053e 134a 613d cad8 103d
000002b0: d70a 333d 284d df3e f3b9 833c b014 1d3d
000002c0: 0d39 12bf ccc4 d4bc f968 05bf 21d0 093c
000002d0: 9eab 2ebd 857b 293f 9d4a ddbc a1aa b3bc
000002e0: 7ffd 75bc c20c da3c 50e5 003b 709e 58bd
000002f0: bd11 d8bd 29aa e7bb 19b0 52ba b256 213d
00000300: fc55 b7bc 392c 24bf 90ab 583e 7ce5 043d
00000310: 18be 2f3f cf64 383d 7896 0b3d 38a8 67bb
00000320: acb8 443c 83c2 a23c f400 64bd 8f44 1b3b
00000330: a68b e63c 9f6e dc3b 1614 55bf 2922 e73b
00000340: 9ba0 5ebd c59a 0d3f c88e 05bc d763 973c
00000350: a6ab f4bc 64fa e8bc f3ca e5bc d895 01bd
00000360: 6194 643f 0668 3b3f 0877 433c cfff 72bc
00000370: 3f71 05bd fd93 773d 05bf 0bbf dea8 013e
00000380: cd9c 313f cdef 4c3f b5c5 0a3f d9f4 333f
00000390: 0875 d83c 4cc3 11bd b021 2fbd 1923 273d
000003a0: 89c5 8c3f b6a0 8bbc 8780 133f ee81 ba3b
000003b0: 119b f8be b284 463c d91d 76bd a3ad 0c3d
000003c0: 2cd3 883b 20a3 27bc 3c8e 5bbf f971 3abd
000003d0: 2727 173d 7bae 45bd 98e6 4f3d 4ba0 59bf
000003e0: b554 09bd 89c9 dfbc e5a4 c8bc adf8 b03c
000003f0: e4d2 243d 50ee 97bc 4e40 3bbf 15f9 e8be

weight_logvar f4 [2, 512]
-3.218876 -3.218876 -3.218876 -3.218876 -5.1880217 -3.218876 -5.6607127 -3.218876
-3.218876 -3.218876 -3.218876 -5.3465433 -3.218876 -3.218876 -3.218876 -6.2912574
-3.218876 -3.218876 -3.218876 -3.218876 -3.218876 -3.218876 -3.218876 -3.218876
-3.218876 -3.218876 -3.218876 -6.6801195 -3.218876 -3.218876 -3.218876 -5.8481097
-3.218876 -3.218876 -3.218876 -4.9603653 -3.218876 -4.822041 -3.218876 -5.8941817
-5.548473 -3.218876 -3.218876 -4.3354263 -3.218876 -3.218876 -3.218876 -3.218876
-3.218876 -3.218876 -5.600994 -3.218876 -4.589978 -6.819528 -6.72119 -3.218876
-3.218876 -3.218876 -5.1491985 -3.218876 -3.218876 -5.8224654 -3.218876 -3.218876
-4.70423 -3.6501064 -3.218876 -3.218876 -3.218876 -6.0635953 -3.218876 -3.218876
-4.4901953 -3.8459709 -3.218876 -3.218876 -6.891371 -4.6781707 -3.218876 -3.218876
-5.3179884 -3.218876 -3.218876 -3.218876 -3.218876 -3.218876 -3.218876 -5.8749833
-3.218876 -4.946128 -5.3728147 -5.258071 -3.218876 -3.218876 -3.218876 -6.8626847
-3.218876 -3.218876 -3.218876 -3.218876 -3.218876 -3.218876 -3.218876 -3.218876
-3.218876 -3.218876 -5.3170705 -3.218876 -3.218876 -3.218876 -4.766002 -3.218876
-3.218876 -3.218876 -3.218876 -4.590084 -3.218876 -5.821949 -3.218876 -5.621388
-6.7640123 -5.5156054 -3.218876 -3.218876 -3.218876 -3.218876 -3.218876 -3.218876
-3.218876 -3.218876 -3.218876 -4.804627 -4.7132993 -3.218876 -3.218876 -3.6053236
-3.218876 -4.8213177 -3.218876 -3.218876 -3.218876 -3.218876 -5.3065042 -3.218876
-3.218876 -4.274605 -3.218876 -3.218876 -3.7423286 -6.315568 -3.218876 -3.218876
-3.218876 -3.218876 -3.218876 -3.218876 -3.218876 -6.0452085 -3.218876 -3.218876
-5.8225694 -3.4065714 -3.218876 -3.218876 -3.218876 -5.557166 -3.218876 -3.218876
-3.218876 -3.218876 -3.218876 -3.218876 -3.218876 -5.6094847 -3.218876 -3.218876
-4.742419 -3.218876 -5.60078 -3.218876 -3.218876 -7.906233 -3.218876 -3.218876
-3.218876 -3.218876 -3.218876 -3.218876 -3.218876 -3.218876 -3.218876 -3.218876
-3.218876 -6.395082 -5.046085 -3.218876 -4.851272 -3.218876 -3.218876 -3.218876
-3.218876 -3.218876 -3.218876 -3.218876 -3.218876 -3.218876 -6.650988 -3.218876
-3.218876 -6.870398 -3.218876 -3.218876 -3.218876 -3.218876 -3.218876 -3.218876
-6.7467504 -5.035349 -3.218876 -3.218876 -3.218876 -3.218876 -3.979226 -3.218876
-3.4615674 -6.0162888 -5.8100686 -5.9304433 -3.218876 -3.218876 -3.218876 -3.218876
-5.8531528 -3.218876 -5.3862333 -3.218876 -5.1758046 -3.218876 -3.218876 -3.218876
-3.218876 -3.218876 -6.7525544 -3.218876 -3.218876 -3.218876 -3.218876 -7.4355454
-3.218876 -3.218876 -3.218876 -3.218876 -3.218876 -3.218876 -6.7093797 -6.4321585
00000000: 1002 4ec0 1002 4ec0 1002 4ec0 1002 4ec0
00000010: 4604 a6c0 1002 4ec0 8f24 b5c0 1002 4ec0
00000020: 1002 4ec0 1002 4ec0 1002 4ec0 e216 abc0
00000030: 1002 4ec0 1002 4ec0 1002 4ec0 fb51 c9c0
00000040: 1002 4ec0 1002 4ec0 1002 4ec0 1002 4ec0
00000050: 1002 4ec0 1002 4ec0 1002 4ec0 1002 4ec0
00000060: 1002 4ec0 1002 4ec0 1002 4ec0 8ac3 d5c0
00000070: 1002 4ec0 1002 4ec0 1002 4ec0 b723 bbc0
00000080: 1002 4ec0 1002 4ec0 1002 4ec0 50bb 9ec0
00000090: 1002 4ec0 294e 9ac0 1002 4ec0 239d bcc0
000000a0: 178d b1c0 1002 4ec0 1002 4ec0 d0bb 8ac0
000000b0: 1002 4ec0 1002 4ec0 1002 4ec0 1002 4ec0
000000c0: 1002 4ec0 1002 4ec0 583b b3c0 1002 4ec0
000000d0: 1ae1 92c0 9339 dac0 fd13 d7c0 1002 4ec0
000000e0: 1002 4ec0 1002 4ec0 3cc6 a4c0 1002 4ec0
000000f0: 1002 4ec0 a351 bac0 1002 4ec0 1002 4ec0
00000100: 0d89 96c0 589b 69c0 1002 4ec0 1002 4ec0
00000110: 1002 4ec0 f908 c2c0 1002 4ec0 1002 4ec0
00000120: aeaf 8fc0 6324 76c0 1002 4ec0 1002 4ec0
00000130: 1c86 dcc0 93b3 95c0 1002 4ec0 1002 4ec0
00000140: f62c aac0 1002 4ec0 1002 4ec0 1002 4ec0
00000150: 1002 4ec0 1002 4ec0 1002 4ec0 ddff bbc0
00000160: 1002 4ec0 ae46 9ec0 19ee abc0 1e42 a8c0
00000170: 1002 4ec0 1002 4ec0 1002 4ec0 1d9b dbc0
00000180: 1002 4ec0 1002 4ec0 1002 4ec0 1002 4ec0
00000190: 1002 4ec0 1002 4ec0 1002 4ec0 1002 4ec0
000001a0: 1002 4ec0 1002 4ec0 7125 aac0 1002 4ec0
000001b0: 1002 4ec0 1002 4ec0 1783 98c0 1002 4ec0
000001c0: 1002 4ec0 1002 4ec0 1002 4ec0 f8e1 92c0
000001d0: 1002 4ec0 684d bac0 1002 4ec0 69e2 b3c0
000001e0: ca72 d8c0 d77f b0c0 1002 4ec0 1002 4ec0
000001f0: 1002 4ec0 1002 4ec0 1002 4ec0 1002 4ec0
00000200: 1002 4ec0 1002 4ec0 1002 4ec0 81bf 99c0
00000210: 59d3 96c0 1002 4ec0 1002 4ec0 9fbd 66c0
00000220: 1002 4ec0 3c48 9ac0 1002 4ec0 1002 4ec0
00000230: 1002 4ec0 1002 4ec0 e2ce a9c0 1002 4ec0
00000240: 1002 4ec0 90c9 88c0 1002 4ec0 1002 4ec0
00000250: 5082 6fc0 2219 cac0 1002 4ec0 1002 4ec0
00000260: 1002 4ec0 1002 4ec0 1002 4ec0 1002 4ec0
00000270: 1002 4ec0 5972 c1c0 1002 4ec0 1002 4ec0
00000280: 7d52 bac0 4405 5ac0 1002 4ec0 1002 4ec0
00000290: 1002 4ec0 4ed4 b1c0 1002 4ec0 1002 4ec0
000002a0: 1002 4ec0 1002 4ec0 1002 4ec0 1002 4ec0
000002b0: 1002 4ec0 e680 b3c0 1002 4ec0 1002 4ec0
000002c0: e5c1 97c0 1002 4ec0 9739 b3c0 1002 4ec0
000002d0: 1002 4ec0 dcff fcc0 1002 4ec0 1002 4ec0
000002e0: 1002 4ec0 1002 4ec0 1002 4ec0 1002 4ec0
000002f0: 1002 4ec0 1002 4ec0 1002 4ec0 1002 4ec0
00000300: 1002 4ec0 83a4 ccc0 8779 a1c0 1002 4ec0
00000310: 9f3d 9bc0 1002 4ec0 1002 4ec0 1002 4ec0
00000320: 1002 4ec0 1002 4ec0 1002 4ec0 1002 4ec0
00000330: 1002 4ec0 1002 4ec0 e5d4 d4c0 1002 4ec0
00000340: 1002 4ec0 4dda dbc0 1002 4ec0 1002 4ec0
00000350: 1002 4ec0 1002 4ec0 1002 4ec0 1002 4ec0
00000360: 61e5 d7c0 9421 a1c0 1002 4ec0 1002 4ec0
00000370: 1002 4ec0 1002 4ec0 a4ab 7ec0 1002 4ec0
00000380: 528a 5dc0 7085 c0c0 15ec b9c0 31c6 bdc0
00000390: 1002 4ec0 1002 4ec0 1002 4ec0 1002 4ec0
000003a0: 074d bbc0 1002 4ec0 065c acc0 1002 4ec0
000003b0: 31a0 a5c0 1002 4ec0 1002 4ec0 1002 4ec0
000003c0: 1002 4ec0 1002 4ec0 ed14 d8c0 1002 4ec0
000003d0: 1002 4ec0 1002 4ec0 1002 4ec0 fdef edc0
000003e0: 1002 4ec0 1002 4ec0 1002 4ec0 1002 4ec0
000003f0: 1002 4ec0 1002 4ec0 3db3 d6c0 3ed4 cdc0

bias_mu f4 [2]
2.480227 -2.4998744
00000000: 0abc 1e40 f1fd 1fc0

bias_logvar f4 [2]
-7.1771674 -7.099482
00000000: 5bab e5c0 f52e e3c0
